mp4-machine-learning-template/model/model.pth (torch, 100286 bytes, 14 tensors)

fc1.weight f4 [120, 51]
00000000: 433a e33c 7d6f 0bbe b394 9fbd e8c8 95be
00000010: 4a64 79be db08 51be 7895 84bd e034 b5be
00000020: 99ca 7fbe 336a 9ebc d9e2 02be 187b 37bd
00000030: a6f6 e6bd d34e 93bd 644b ffbd df9d d0bd
00000040: b6c9 bebc 5c91 c93c c1b4 67bd bb6d 9aba
00000050: 4d63 3fbd d6d7 92bd f2fc 11bd 80da 8ebb
00000060: a7c0 6fbd bed0 263c a1e3 07bc 3b42 f73d
00000070: 29ef 27bd 55fc 063d 67c9 57bd c7f4 503d
00000080: dab7 ddbd 30a1 fb3d ef84 863d 6b47 ef3d
00000090: 630a 873d c28c ae3b 4a93 1b3d 1f5e 903f
000000a0: a681 04bf 3967 c33e 6423 cf3e ea60 893e
000000b0: c745 e0bc 3480 aabc 4ab5 e1bc bf7f dabc
000000c0: b2e8 f43d 83e9 b4bd bdab 093f 4589 37bc
000000d0: ea63 71bc 5ba4 dabc 49bd 25bd cc97 c8bb
000000e0: 5189 2d3d d8dd bf3c bcba a63c 97f0 463b
000000f0: 356c ce3c 842a 363d aee9 c23c 1342 0d3c
00000100: 4dcb 3fbd e3df dfbd 53a9 a4bd 9453 42bd
00000110: e528 cb3a ae7d 0abd 00fa 733d ee7b 873d
00000120: a06d 103e 44b9 5cbd 1336 c03e 89ad e43d
00000130: 913a a73f 56b5 3c3f 45be 3ebd eb10 c73b
00000140: 2972 4abd bb91 e93b c14f a8bd beaa 94bd
00000150: bc79 88bc 0969 8ebd 542f 46bd 1aab 0fbd
00000160: e142 15bd a9d6 cd3b c4b3 843d a946 8a3d
00000170: 96ba 3dbe ce49 58bc 31b6 af3a 0ab7 37be
00000180: 69c9 e3bb 41d8 9dbc 74c0 413e 39f1 45bc
00000190: 0444 b13d 27e7 97bd a500 773d d87a 2dbe
000001a0: 81d8 afbd d45d a53e 30a2 6ebe f345 0a3e
000001b0: 47d6 27be 2ca5 5e3e 154b 253d f2a6 80bd
000001c0: d886 5a3e 08dd 103e 7ef4 a5be a8f0 a33e
000001d0: b634 853d 7234 1fbe d10f 2dbe 3685 f8bd
000001e0: 5204 e53d 9644 4abe e196 04be 9f2a 2e3d
000001f0: ae2e 943e 6a85 95be 2b20 45be cab9 eebd
00000200: d459 77bd 2080 8ebc 5483 2f3e d649 4abe
00000210: d588 6b3d dfeb aebe 9ae4 ba3d aea1 eebe
00000220: b0cb bfbd f0fa 4abe 08c4 c6bb 33c9 733e
00000230: 01b6 8fbc 1d63 5d3e 2662 cabd 86b0 693d
00000240: 3954 87be bc06 87be da65 7ebd 6033 3bbc
00000250: ba93 683d f700 b5bd 811e 37be 81b0 03be
00000260: f075 4cbd db2b 88be fda4 62bd 841d 8c3d
00000270: e4e4 b93e 5d09 ecbd 78c4 d3be 7d65 2b3e
00000280: 714d 98be 6bdd 05be 824a d8bb 9220 41bc
00000290: d3a1 20be 73f1 00be 414e 13be e7fc 13be
000002a0: fdbf 7abe 7b66 633d ae49 04bc a1b6 33be
000002b0: 103a c13e 1b36 19bd 50ac 49be a448 54be
000002c0: 8697 913e ec05 a33e a6b9 e63c e6d0 6f3d
000002d0: 1ae9 0f3d 47ff 78bd 1007 d0bb 9c3e acbd
000002e0: 7a2e 1dbe abb9 0ebe 77f1 5e3e 698c f13d
000002f0: ceb0 013e 03bd 873e 2a0c b23c b550 6a3e
00000300: 8921 0e3e 3374 69bc 3747 a13b 6f46 993e
00000310: 83a8 ca3d 7fb6 a3bd 22ff b13e bbc5 45be
00000320: ee56 e53d ca69 db3d 1790 213d 95a4 af3c
00000330: fcdb c1bd 9fb1 e23c d5ba e2bb ec88 6cbc
00000340: 6221 89bd fb7c 08bd 79f3 c4bc 80a8 6cbd
00000350: 70d8 8aba ee49 a83c b52d 1c3c 504f 6b3b
00000360: 4433 e2bc 76be 883d a066 a1bd 4645 0cbd
00000370: 4d82 87bc 92f0 403c 5794 b7bc 1440 933b
00000380: 6d0c 91bd f09c 90bc 2790 e2bc d5b5 04bc
00000390: 142d 6b3d 6abf 273c efd0 57bd ba5c 943d
000003a0: f58a 3ebd d8a3 143c c119 fcbc 2c21 27bd
000003b0: 3486 22be bacb 713f f6be fbbd 9e50 b8bf
000003c0: 9083 81bd f1b4 bebc 3508 1d3b dcf6 ddbd
000003d0: 2075 da3b 72da 623e 71d7 153d 58b9 dfbd
000003e0: f574 433d 034f 843d 887c a5bc b3eb 5cbd
000003f0: 9038 e0bd 9bba 763e 7845 25bd 5d40 3ebe
0.027737742 -0.13616748 -0.07792034 -0.29254842 -0.24354663 -0.20413534 -0.064738214 -0.35391903
-0.24979629 -0.01933775 -0.12781848 -0.044795126 -0.11277513 -0.07192769 -0.124655515 -0.101863615
-0.023289543 0.024605446 -0.056568865 -0.001178197 -0.04672556 -0.07170074 -0.035641618 -0.0043595433
-0.058533337 0.010181604 -0.008294017 0.12073179 -0.040999565 0.032955486 -0.052682307 0.051014688
-0.108260825 0.122866035 0.06568324 0.11683544 0.06593778 0.005326838 0.037982263 1.1278723
-0.5176033 0.3816469 0.40456688 0.26831752 -0.027377022 -0.020813085 -0.027552266 -0.026672242
0.119584456 -0.08833601 0.53777677 -0.011202161 -0.014733294 -0.026689699 -0.04046372 -0.006121611
0.042367283 0.023421213 0.020352714 0.0030355805 0.025198082 0.04447414 0.023793068 0.00862171
-0.046824742 -0.10931375 -0.080401085 -0.047442988 0.0015499858 -0.033811264 0.05956459 0.066154346
0.14104319 -0.05388762 0.37541255 0.11165912 1.3064748 0.73714197 -0.046568174 0.006075015
-0.049425278 0.007127968 -0.08218337 -0.07259129 -0.01665961 -0.069536276 -0.04838498 -0.035075285
-0.036440734 0.006281693 0.064796 0.067517586 -0.18528208 -0.01320119 0.0013405738 -0.17940918
-0.0069515 -0.019268157 0.18921071 -0.012081438 0.08655551 -0.07417136 0.06030335 -0.16941392
-0.08586217 0.32298148 -0.23304057 0.13503246 -0.16390334 0.21742696 0.040354807 -0.06281842
0.21340501 0.14146817 -0.32413095 0.32019544 0.065041944 -0.1554735 -0.16900565 -0.12134783
0.11182465 -0.19752726 -0.1294818 0.042521115 0.28941864 -0.2920335 -0.19250552 -0.1165653
-0.0603884 -0.01739508 0.17139941 -0.19754729 0.05750354 -0.3416433 0.091256335 -0.46607727
-0.09365022 -0.19822288 -0.006065849 0.2380722 -0.01754284 0.2161984 -0.098820016 0.05705311
-0.26431444 -0.26372325 -0.062108852 -0.011425823 0.056781508 -0.08838075 -0.1788273 -0.128603
-0.04991716 -0.2659596 -0.055333126 0.06841567 0.36307442 -0.115252234 -0.4136083 0.16737933
-0.29746583 -0.13072746 -0.006600679 -0.0117875505 -0.15686731 -0.12592106 -0.1438532 -0.14451943
-0.244873 0.055517655 -0.008074207 -0.17550136 0.3773961 -0.037405115 -0.19694638 -0.20730835
0.28435916 0.31840456 0.028164696 0.05854883 0.035134412 -0.060790326 -0.006348498 -0.08410379
-0.1534976 -0.13938014 0.21771799 0.11794359 0.12665102 0.26511392 0.021734316 0.2288235
0.1387998 -0.014248895 0.0049218195 0.2993655 0.09895422 -0.07993793 0.34764963 -0.1931371
0.11198221 0.10713537 0.039444055 0.021440784 -0.09465787 0.027672587 -0.006919245 -0.014436942
-0.066958204 -0.033322316 -0.024041878 -0.05777788 -0.0010593068 0.020543065 0.009532382 0.0035905428
-0.027612336 0.066769525 -0.07880902 -0.03424575 -0.016541624 0.011776106 -0.022409601 0.0044937227
-0.07082448 -0.017652959 -0.027656628 -0.008099993 0.057416037 0.010238508 -0.05268949 0.07244249
-0.04651924 0.0090722665 -0.030774 -0.04080312 -0.15871507 0.9445149 -0.12292282 -1.4399602
-0.06323922 -0.023279639 0.002396119 -0.108381 0.0066667944 0.22153643 0.036582414 -0.109240234
0.04771896 0.06460383 -0.020200983 -0.053935718 -0.109482884 0.24094622 -0.040349454 -0.1857924

fc1.bias f4 [120]
00000000: f769 9a3d 1289 c63d 7d01 c03b 70e2 3b3a
00000010: a1b8 54bc 5892 7a3d 0167 e7bd 85aa f13d
00000020: 313b 013e d574 dabd af04 b23d 50a4 3dbd
00000030: b00d bdbd a34a 96bc 6e44 adbc c226 c33c
00000040: 776b 98bd be33 8ebd 10b9 5b3d 43bc 173d
00000050: dff8 c93d 2c41 ecbd dc84 90bd 03c1 313c
00000060: 2ade 73bd 40a0 943d fd19 db3d 6b2f 89bc
00000070: e26f aabd beb2 0abe c211 503d 6a98 cb3d
00000080: 6f74 fabd c351 a63c c615 b93d b52b 2e3d
00000090: dee5 32bd a996 ed3d 54f2 203b 7e8e a5bd
000000a0: d8d3 243d e082 ea3c 876b e23d cd56 ffbd
000000b0: 8bbc 943d d407 ce3b b447 cebd c60c b7bd
000000c0: 2743 093d 21e0 f9bd 82b5 f43c d81f e6bc
000000d0: a3fe 08bd f1e8 17bd 645e 20bd 2ff6 673d
000000e0: 559a b73d 3547 6a3c 1c0b b03c e063 e03c
000000f0: 70f1 04be bbe2 5cbd 4183 90bd 2587 0a3e
00000100: d6c3 debd d64f c0bc e958 0b3e a352 9cbd
00000110: c822 eabb 3d86 03be d0ef a1bd 4e08 c4bd
00000120: 4602 0abe 6895 043c de71 e43d 6c56 e63c
00000130: 871d 0cbe ffee 0bbe 3d83 073e ab23 9a3c
00000140: 78ff 0c3d 8562 9f3d eb0c 0bbe e42d 0f3e
00000150: 9d55 e23d 37e5 53bb 72fe 0c3c 174d 203d
00000160: b8bc a7bc 2a66 ca3d d5a3 5dbd 4fb5 e53c
00000170: cccf 88bc 7b6f b83c 2c75 73bd d1a9 033d
00000180: e1d7 6c3d a8e8 853d 945c 023e 8c96 0bbe
00000190: 418f 0bbe 4480 333c 42a2 8c3d c760 a53d
000001a0: 9370 d2bd 3465 e1bd 008e 0cbc cc7b aebc
000001b0: abbb f2bd 0f9e e2bc bcd6 82bd e4cd bebd
000001c0: 8f31 bf3d 54a0 5d3d 880a b73c 78e8 96ba
000001d0: cdc8 8d3d ce46 d23d d5be 5c3c 81ca c43c
0.075397424 0.09694113 0.0058595524 0.00071672257 -0.012983472 0.06117472 -0.11298943 0.11800102
0.12620236 -0.10666815 0.086922996 -0.04629928 -0.09231126 -0.018346136 -0.021150794 0.023822192
-0.07442372 -0.06943463 0.053643286 0.037044775 0.098619215 -0.11535868 -0.07056591 0.01084924
-0.059538044 0.07257128 0.10698316 -0.016746243 -0.08322121 -0.13544747 0.050798185 0.0994118
-0.12229239 0.020302659 0.09037356 0.04252215 -0.04367625 0.11601002 0.0024558501 -0.08083819
0.040241092 0.02862686 0.110556655 -0.12467728 0.07262524 0.0062875543 -0.1007227 -0.08937983
0.033511307 -0.12200952 0.029871706 -0.028091356 -0.033445965 -0.037087385 -0.039152518 0.056631263
0.089649834 0.014299204 0.021489672 0.027391374 -0.12982726 -0.053927165 -0.07056285 0.13528116
-0.108771965 -0.023475569 0.13608135 -0.07632949 -0.0071452595 -0.12844177 -0.07907069 -0.095718965
-0.1347743 0.008092262 0.11154531 0.028117381 -0.13683139 -0.13665389 0.13233657 0.018815836
0.03442332 0.07782463 -0.13579147 0.1398235 0.11051486 -0.0032332668 0.008605586 0.03913602
-0.02047573 0.098827675 -0.05411132 0.028040556 -0.016700648 0.022514096 -0.059437916 0.03214437
0.057823066 0.06538516 0.12730628 -0.13631648 -0.13628866 0.010955874 0.06866886 0.080750994
-0.10275378 -0.11005631 -0.008578777 -0.021299265 -0.11852201 -0.027663259 -0.063886136 -0.09316614
0.093356244 0.05410798 0.022343889 -0.0011513373 0.06923065 0.10267411 0.013473232 0.024022343

bn1.weight f4 [120]
00000000: 0eaf 1140 0bce 2940 9671 2940 1f8f 1140
00000010: bf79 2340 627b 2640 50fb ef3f 0f83 0f40
00000020: 095d 1d40 dfd3 2840 e1e4 2440 034b 2240
00000030: 5635 2440 bfdb 1e40 7f54 1140 3ac1 0c40
00000040: 7303 1640 67a4 1c40 8d94 4340 3b41 2940
00000050: fe6a 1240 1616 0c40 815c 2740 7069 2840
00000060: 75dc 1d40 42eb 2340 2e0f f83f 01fa 1a40
00000070: 514f 2b40 75a3 0740 827f 1040 86e8 2740
00000080: 9126 0e40 20bd 1540 1cd2 1940 0cf0 2f40
00000090: f838 0a40 9de6 1040 19ee 2640 9ed2 4a40
000000a0: 5bea 1540 a416 3a40 2776 2b40 1113 2940
000000b0: a0b2 1b40 b6fe 3040 4072 4940 1f57 1e40
000000c0: 762b 2640 dbae 3640 332a 3a40 cc64 1940
000000d0: 48d5 1b40 762f 3d40 aa4f 1b40 52d5 0e40
000000e0: f5d6 1d40 9000 2540 7abd 1e40 0591 4040
000000f0: c36a 2740 1fb7 2240 d8d9 0f40 198c 3f40
00000100: 89d2 1d40 2d62 0d40 b904 1d40 86a7 3e40
00000110: 0a13 1140 16e9 0f40 283b 1c40 bf53 1840
00000120: a62c 2d40 deb3 0340 7ce1 1540 8439 1840
00000130: 6abb 1b40 85d5 2740 2037 1040 ce78 0b40
00000140: 5fff 0940 e9a1 3140 1527 3f40 9eeb 2d40
00000150: 707a 1640 b2af 0440 bf20 0d40 f434 3b40
00000160: ff7e f33f bb0e 4d40 1bd6 3740 7e69 3840
00000170: 6925 4140 c588 4740 7360 3340 d1b5 ed3f
00000180: 8c09 1140 88e4 3b40 14e3 1440 a171 1840
00000190: 2a10 f13f 83e4 3d40 537a 4740 c178 4940
000001a0: af4c 2740 c092 1b40 7ccc 4840 b488 2440
000001b0: 9e8b 3b40 b4e1 ca3f 1ace 0740 c9e1 0e40
000001c0: 587b 2a40 4eaf 2d40 1c18 2040 881b 0840
000001d0: f1ea 1d40 d802 0940 0f1a 2040 55b6 2a40
2.2763095 2.6532009 2.6475577 2.2743604 2.5543058 2.6012807 1.874857 2.2423742
2.4588034 2.6379316 2.5764697 2.5358284 2.5657554 2.4821622 2.2707822 2.1992936
2.3439605 2.4475343 3.0559418 2.6446064 2.2877803 2.188848 2.615021 2.6314354
2.4665806 2.561234 1.9379632 2.421509 2.676716 2.1193516 2.2577825 2.623567
2.221104 2.3396683 2.403449 2.7490263 2.159727 2.2640755 2.6082823 3.169105
2.342429 2.9076319 2.6790864 2.6417887 2.4327774 2.7655463 3.1475983 2.4740674
2.5964026 2.8544223 2.9088256 2.3967772 2.4348927 2.9560218 2.4267373 2.23177
2.466245 2.5781593 2.4803147 3.0088513 2.6158912 2.5424268 2.2476711 2.992926
2.465975 2.2091172 2.4534132 2.9789748 2.266787 2.2486014 2.4411106 2.3801115
2.7058501 2.0578532 2.3418875 2.3785105 2.4333138 2.6224072 2.2533646 2.1792483
2.1562116 2.7755072 2.9867604 2.717506 2.351223 2.0732236 2.2051237 2.925107
1.9023131 3.204024 2.872443 2.8814387 3.0179083 3.1177227 2.8027618 1.8571111
2.2662077 2.9358234 2.3263597 2.3819354 1.8833058 2.9670722 3.116841 3.1479952
2.6140554 2.430832 3.1374807 2.5708437 2.9303966 1.5850129 2.1219544 2.2325308
2.6637783 2.7138247 2.5014715 2.1266804 2.4674647 2.1407986 2.5015905 2.6673787

bn1.bias f4 [120]
00000000: 2dbd ecbf c74e ec3f f542 06bc 55b8 083a
00000010: 5a64 dcbf 3481 fcbd c824 30bf ab65 023f
00000020: bb55 1bbd 5d78 973d e243 d8bf 8e7c a93e
00000030: 2d1e 153e c193 933b 7572 eb3e 891a 41bf
00000040: 57b1 8a3e c268 d63f 3fc6 19c0 5373 d73f
00000050: aa9c b5bf 5dc2 3f3f 1877 5dbe 0ea3 03c0
00000060: c714 4e3e c33e 7f3e 0f32 b3be 4aac 583e
00000070: 4f9d e33d 1bbb da3f 0daf 0b3f d8c1 e2bf
00000080: 54e8 15be 4f12 c33f bd71 ed3e 0b55 103f
00000090: 4271 a8bf 17fc 50bf 2f6a b7be d468 943e
000000a0: 1eea 8e3e 3193 ea3f 285d 9e3e eacc 8bbe
000000b0: 3cdf 263c 6b2e 023f 0ff1 e53e 7e2d a0be
000000c0: 7d66 73bf 3366 173f a85f ddbe 964d 193f
000000d0: 7d4e c9bf fbf6 293e 2f4b 293e 8538 c23f
000000e0: 6d34 d5bd 394a 633f fcb4 d03f 0fa1 0240
000000f0: 837c e0bd 7511 0440 49b9 cc3d 910f 0040
00000100: 3ab1 d0bf f29c f3bf 1ab8 c2bf 6061 fc3f
00000110: cea5 c03f 12f2 40bf af24 adbf 0dcd 1cbe
00000120: 058c 223e 467f 133e a16c 933e 0eb2 253f
00000130: 64b0 e23f e21b 613f 62e6 4d3f 2b45 f03f
00000140: 9f9b 573f 54de 5d3e c0a4 1440 8808 a73e
00000150: b69a 3cbe 45cd dabe 11ae c3bf 332b cebe
00000160: 44c8 7d3f 3eb5 ea3e 469d f43f 47bd debe
00000170: fe4d cbbe e195 4f3e 48b7 c6be f72b 8dbf
00000180: d216 c1be c055 34be b995 513d 0c3a cbbf
00000190: 98fd 6dbf 53d4 7a3e 6e54 d63e 0dd8 97bd
000001a0: 33b7 3abe c3a7 5bbf 9be3 d33c 02cc 14bf
000001b0: 239e d2be e830 803f c29a af3f 9ec0 bf3f
000001c0: 6eff e43f 29a5 01c0 e569 e33e 2f94 953b
000001d0: b083 753f 01a8 84bf bc2f 553e 5ea4 acbe
-1.8495232 1.8461541 -0.008194675 0.0005215456 -1.7218125 -0.12329331 -0.68806124 0.50936383
-0.037923556 0.07396004 -1.6895716 0.3310284 0.14562292 0.0045036976 0.4598576 -0.75431114
0.27088425 1.675072 -2.402725 1.6832069 -1.4188435 0.7490595 -0.21627462 -2.056827
0.20125113 0.24926285 -0.3499913 0.21159473 0.111139886 1.708835 0.5456398 -1.7715406
-0.14639407 1.5239962 0.46375838 0.56379765 -1.3159564 -0.8163466 -0.358232 0.28986228
0.27912992 1.8326169 0.30930448 -0.27304775 0.010185059 0.5085208 0.44910476 -0.31284708
-0.9507826 0.5914032 -0.43237042 0.5988401 -1.5727078 0.16598122 0.16532587 1.5173498
-0.1041039 0.8878513 1.6305232 2.0410802 -0.10961249 2.0635655 0.09996278 2.00095
-1.6304085 -1.9032271 -1.5212433 1.9717216 1.50506 -0.7536937 -1.352682 -0.15312596
0.15873726 0.1440402 0.28793815 0.64724815 1.771008 0.8793317 0.8042966 1.8771108
0.84221834 0.21666843 2.3225555 0.32623696 -0.18418393 -0.42734733 -1.5287496 -0.40267333
0.99133706 0.45841402 1.9110496 -0.43503782 -0.3970794 0.20272018 -0.38811707 -1.1029042
-0.37712723 -0.17610836 0.051168177 -1.587709 -0.9296508 0.24495058 0.4186129 -0.07414255
-0.18233947 -0.8580286 0.025865367 -0.5812379 -0.41136274 1.0014925 1.3719103 1.4980657
1.7890451 -2.0257056 0.4441673 0.004564784 0.95904064 -1.0363771 0.2081899 -0.33719152

bn1.running_mean f4 [120]
00000000: 4862 a93d b20c f43d e0d6 1dba 5076 d8ba
00000010: b83e 84bc 09f7 7e3d d31c f2bd 9d8c f93d
00000020: 54b4 013e 1952 d7bd 5596 b13d e60a 61bd
00000030: 811b c8bd e0da 0cbd 148e 8fbc 5866 9d3c
00000040: 642a a7bd d6dc 8ebd dc96 af3d fdbf 863c
00000050: dba2 aa3d 9106 06be c9f1 8fbd 279e 113d
00000060: 297c 5bbd aaa9 d43d 8d14 d23d 2325 19bd
00000070: b349 9fbd 26aa 1abe a07b 253d e6c1 d93d
00000080: 28ad e5bd b21e 813c 2769 bb3d 0898 3c3d
00000090: ea34 0abd 9628 f43d 4463 3b39 4324 b9bd
000000a0: a089 ae3b 6ef9 f83c 2895 063e 92d6 febd
000000b0: 98a1 a33d e47b 4cbb d858 ccbd c5a2 9dbd
000000c0: 6396 cb3c 35c9 fbbd 14f8 5e3c 5386 82bc
000000d0: ecac 1fbd fd38 c4bc 0ef7 e5bc 5303 633d
000000e0: 00c9 7f3d ac0a 853c d3a4 9cbc ad22 bf3c
000000f0: 8239 c8bd 50f8 03bd 68a4 9fbd 24f8 013e
00000100: f049 cfbd 4018 bb3b 7118 063e a291 aebd
00000110: 373d 0fbc 1509 11be 8491 51bd 5355 b7bd
00000120: 580e 01be 4095 1dbb 8dee bc3d d5f3 1b3d
00000130: b94b 09be 0438 0bbe 9178 d93d 0c81 35bc
00000140: 6d00 033d ce15 6a3d 2d1b 2cbe 6784 213e
00000150: da2f fb3d 2088 37bc 787d 04bc 94ef 583d
00000160: 3aee 28bc 75e7 be3d dd0e a2bd b557 1a3d
00000170: c63d afbc 8ab6 073d 3472 5cbd cd2e f23c
00000180: e4b3 2f3d f8db 5f3d 9198 013e ec60 0ebe
00000190: 5334 04be 3d8f 6e3c 7304 9d3d 5ad2 833d
000001a0: f097 d0bd f60f eebd 1565 21bc 31f3 22bd
000001b0: 8690 efbd 0d3a b7bc cad1 b6bd 78ce d4bd
000001c0: e880 b73d 7c0e 613d da30 943c 203c 1cbd
000001d0: f38b a03d 368c 073e b49a c33c 04a5 1c3d
0.08270699 0.11916484 -0.00060210936 -0.0016514752 -0.016143188 0.06224731 -0.11821904 0.12185023
0.12666446 -0.10513706 0.08671252 -0.054942034 -0.09770871 -0.034388423 -0.017523803 0.01921384
-0.08162382 -0.06975715 0.08573696 0.016448969 0.083318435 -0.13088442 -0.07028539 0.035551216
-0.053585205 0.10383923 0.10257826 -0.037388932 -0.07777729 -0.15103969 0.0404011 0.10632686
-0.112146676 0.015761707 0.091509156 0.046043426 -0.03374187 0.11921804 0.00017870689 -0.090401195
0.005326465 0.030392375 0.13142836 -0.1244327 0.07989806 -0.0031201774 -0.09977883 -0.076970614
0.024851983 -0.122942366 0.013608951 -0.015933191 -0.03898327 -0.023952955 -0.028071906 0.055423092
0.062447548 0.01624044 -0.019121563 0.023331964 -0.09776594 -0.03221923 -0.0779503 0.12692314
-0.10121524 0.005709678 0.13095261 -0.08523871 -0.008742622 -0.14163621 -0.051164165 -0.08951821
-0.12603128 -0.0024045259 0.092251875 0.038074333 -0.13407792 -0.13595587 0.10618699 -0.01107813
0.031982828 0.0571497 -0.16807242 0.15773164 0.12264986 -0.011201888 -0.008086555 0.052962855
-0.010310704 0.09321491 -0.07912991 0.0376813 -0.02139176 0.033133067 -0.05381985 0.029563332
0.042896166 0.054653138 0.12655856 -0.1390416 -0.12910585 0.014560518 0.07666864 0.06436606
-0.1018523 -0.11624138 -0.00985076 -0.039782707 -0.116974875 -0.022366548 -0.08926733 -0.10390943
0.08960134 0.054945454 0.0180897 -0.038143277 0.07839193 0.1323708 0.02387748 0.03824331

bn1.running_var f4 [120]
00000000: ed9f 9740 0b23 2840 5d2e 1540 4eb5 ed3f
00000010: 2ccd 5740 3ba2 3d40 5f78 0040 3e98 da3f
00000020: 2bf4 fe3f d180 dd3f dd06 6c40 4276 d03f
00000030: c08d 0740 0a1f f23f d8f1 d03f ea9a a93f
00000040: a333 ea3f a979 b340 ba1c b240 bdbe 1041
00000050: c97a 7940 7321 ff3f 6ada d33f 8cb4 3240
00000060: 34dd 1c40 ddba ca3f 92bb 0040 354d be3f
00000070: b771 0e40 6e8b 7740 255d c03f ff76 0841
00000080: a24b e83f 808f bf40 aefc 0640 8f92 ef3f
00000090: af92 2140 cea1 0740 80b7 fb3f 6fc5 df3f
000000a0: 205b 0a40 07c4 5040 e8f7 d13f 1568 ce3f
000000b0: 195d e43f e8ab fc3f 2539 1140 8c3f 1440
000000c0: 827c fa3f 0fc2 0a40 4332 ed3f 6b45 2540
000000d0: cbb0 d140 b002 0d40 a650 f33f 138a 3d40
000000e0: 5f7b ca3f 2de6 fa3f 7247 0a41 ff4e 3f40
000000f0: 5f5d 0e40 9dec 1640 3ed2 0440 bc4e 2d40
00000100: 7616 2440 8f3b 8640 d736 d140 2057 1940
00000110: fdab a140 ab08 ce3f ec12 5140 d919 ec3f
00000120: 6bf8 dc3f 4253 bf3f 9ccf fa3f a613 a63f
00000130: 73c2 6a40 7d4f e53f a2d1 0e40 6a7a 9340
00000140: 4700 6640 cb5d e93f 207a ae40 9807 4240
00000150: 4f54 0a40 708c b53f cd10 2440 5318 ef3f
00000160: 8153 4a40 4d98 0640 e455 fb40 4584 0240
00000170: f066 0740 7535 2e40 b54c 0c40 0c11 a840
00000180: 06b0 a83f c911 0b40 3aa3 e93f 6c34 2d40
00000190: bf79 3440 2054 d63f a2ea ff3f d888 1040
000001a0: 0784 fa3f dbb9 2f40 bc25 0540 7094 2a40
000001b0: 9713 0140 7bd9 cc3f fc50 2741 6bab 3e40
000001c0: e26d 4540 7aab 0f41 97c8 0840 43f7 f93f
000001d0: ac6c f33f e22f a740 268a fa3f ad99 0240
4.738272 2.6271389 2.3309548 1.8570955 3.3718977 2.9630268 2.0073469 1.7077711
1.9918264 1.7304937 3.687919 1.628609 2.1180267 1.8915722 1.6323805 1.3250401
1.8297008 5.608601 5.5660067 9.046567 3.8981192 1.9932083 1.655103 2.7922697
2.4510012 1.5838276 2.0114484 1.4867312 2.2256906 3.867885 1.5028425 8.529052
1.8148081 5.986267 2.1091723 1.8716601 2.5245779 2.1192508 1.9665375 1.7482127
2.1618118 3.2619646 1.640378 1.6125513 1.7840911 1.9739962 2.2691128 2.3163786
1.9569247 2.1680944 1.8530964 2.582362 6.552831 2.203289 1.9008987 2.9615524
1.58189 1.9601494 8.642443 2.9891965 2.224449 2.3581917 2.0753322 2.7079306
2.563871 4.1947703 6.5379443 2.3959427 5.0522447 1.6096395 3.26678 1.8445388
1.7263311 1.4947283 1.9594607 1.2974746 3.6681182 1.7914883 2.231545 4.608693
3.593767 1.8231748 5.452408 3.0317135 2.1613958 1.4183483 2.5635254 1.8679298
3.1613467 2.1030457 7.8542347 2.039323 2.1156578 2.7220128 2.1921818 5.252081
1.3178718 2.1729605 1.8252938 2.7063246 2.8199308 1.6744423 1.9993479 2.2583523
1.9571542 2.7457187 2.0804281 2.66531 2.0168207 1.600387 10.457272 2.9792125
3.0848317 8.979364 2.137243 1.9528583 1.9017539 5.224595 1.957341 2.0406296

fc2.weight f4 [100, 120]
00000000: 7127 c9bf 30c2 5dbd 07a0 383d cd70 fabc
00000010: 02d0 5ebd ce9e 9b3d 9f2e 133e dde9 31bd
00000020: d598 a33d ea02 85bd 5f48 8a3d d2c4 6c3d
00000030: af9a eebd 920b 933d a9ed d53d 044d 753e
00000040: 1681 843d 89f3 14be 8717 ce3c 901f 3fbd
00000050: 9dcd 38be ee88 9c3e 41cb 57bd 38c6 2abd
00000060: 030f 5ebe b20e 30be 0f39 523e 2847 773e
00000070: d739 933e 4b66 fd3e f3bf e9bc ad5e 2e3d
00000080: 810c d4bd 398b 163e 0b15 693a 12ff 9ebb
00000090: ef6d 30be 08d7 e43d 872d 95be 9acd 83ba
000000a0: 3728 c9bd e4ea c8bb 7bd2 fe3d f20e 1ebd
000000b0: 3d31 a33d 4a12 fabd 231b 93bd 6569 343e
000000c0: 1b2e 623e 9f5e 1c3d a046 1d3e 385e f13e
000000d0: 932c 2dbe a6bc ebbb 5892 b4bd 38bd 3f3d
000000e0: 26d5 dfbd 601d 983e b8ae c83c bebd 4a3d
000000f0: 5f4a b2bd 48cc babc 70a7 3abe a8a6 15bd
00000100: ab80 8f3c 9f4a 663d 4480 e7bd 77eb e33d
00000110: 0cdc 5b3d b1e1 b33d e849 88bd 5758 993e
00000120: 54f7 df3c 3ef8 15bd d56a e93c 7cfe 4bbd
00000130: 101f 703e 29f3 dbbc 3383 7c3e 51dc 85bd
00000140: 1f98 463e 17c8 1d3d d15b 3bbc a310 093e
00000150: cfeb 39be 8c57 02bc c345 aabc b3a3 183d
00000160: e1c1 273d 775f c0be c5af e03d a4bc 3abc
00000170: b0f5 a23e 5e30 e33d 1408 84bd ab40 28be
00000180: 7423 953d 9a7e 8f3d ff4b 903d e547 153e
00000190: b36c ccbe 1e9d ba3d 4884 e83c 5755 f4bc
000001a0: db14 e0bd fe22 6dbe 2763 54be 436d 213e
000001b0: 1717 25be c005 463d 9e09 653d 0a7f 83bb
000001c0: a844 e2bc 361f d63c a559 02bd 1664 6b3e
000001d0: 39f6 803d a150 093e f618 50be 16fb adbd
000001e0: b806 f9bd 4199 98be 8023 3c3e a85a e5bd
000001f0: fcdd aabd 2d74 b13d e915 49be 04a7 f83c
00000200: 51f5 bdbd 4732 8d3e 8f65 c2bd cc82 3e3e
00000210: 4f8c 603d 5a26 a0bd df06 cdbd 5c1b e63d
00000220: 4c1c c73d 040b c63c 7312 4f3e 29b5 6a3d
00000230: 95d2 35bc a11c f23c 3962 38be 723c 0abe
00000240: 5e67 f2b9 61d7 39be f3c5 0bbe 33d6 4f3d
00000250: 446c e93b 8691 64bd 7016 b6bc 06d2 a9be
00000260: aeee b03d 9b95 e1bd 5b40 45be 5536 e33d
00000270: 35d6 6ebd af87 30be fab5 983d 8c46 a0bd
00000280: e83c 1bbd f763 3e3e b3b2 d2bd fc34 c43c
00000290: 194f 173e 34a1 863d 0da5 52bd c44d 52be
000002a0: 5198 6d3d 5905 363e 4eb8 fb3d 6f9d dcbb
000002b0: c104 9abd c285 39bd 6869 5fbe d526 e13d
000002c0: 76d7 923d 354d 5abc 2db4 1cbd e3c4 8dbd
000002d0: 9a3a 8ebd 104c 1bbe ddd1 2f3d feb2 023d
000002e0: da23 533d d0a3 74bd 48d0 0abe 3940 4f3e
000002f0: 1c63 643d 420c 4a3e 4b2e 043d 80e0 573c
00000300: 2ddf a9bd 2b97 183e 89c9 293d 8a63 3bbe
00000310: 3ea5 cd3d 2610 12bd 2df4 383e 1055 ae3c
00000320: 9e75 033e 4607 333e 7234 02be f4e3 94bc
00000330: 01ce da3d 0bee fb3d 616a d13c 8562 0cbd
00000340: 6e82 a83c 01ae 1bbd 972e 733e c982 48bd
00000350: d6f0 e63d 540e 62bd c372 37be 3e5f 12be
00000360: 42cd 863e 367a 9ebc f329 403c 462d 913e
00000370: d31e 8abc 51bc efbd 911a 3ebc 6314 2d3d
00000380: ed24 9ebc b14a 32bc 4705 34bd ad55 203e
00000390: 0c81 9c3c d821 2a3e 6319 c7bc 3092 ba3d
000003a0: dc20 4a3d 99ae cebd 9f81 f0bd fb9f 1a3e
000003b0: 0fe1 b1bd 2b54 c73c 4f7d 923c 6c10 a5bd
000003c0: 7092 053f 678a 9dbd 0501 8c3d d568 b03d
000003d0: d80f a2bc c650 87bd f3b9 cfbd 95e9 abbd
000003e0: 73be 07be 1344 fbbc 61d7 093e 9d45 39be
000003f0: 086b 073e 52b2 15be 760f 5abe 032e 5e3e
-1.5715162 -0.05414027 0.04507449 -0.030571366 -0.05439759 0.07598649 0.14373253 -0.04343592
0.07988135 -0.064946964 0.06752085 0.05780489 -0.11650597 0.07179941 0.10445721 0.2395516
0.06469934 -0.14546026 0.025157703 -0.04666096 -0.18047185 0.3057322 -0.052684072 -0.041692942
-0.21685414 -0.17193106 0.20529579 0.24148238 0.28755066 0.49492106 -0.028533911 0.04257076
-0.103539474 0.14701547 0.000889138 -0.004852184 -0.17229436 0.111738265 -0.29136297 -0.0010055781
-0.098221235 -0.006131517 0.1244249 -0.03858847 0.07968376 -0.122105196 -0.0718291 0.1761833
0.220879 0.038176175 0.15358973 0.47142196 -0.16911535 -0.0071941195 -0.08816975 0.046811312
-0.10929327 0.2970991 0.024497375 0.04949736 -0.087055914 -0.022802487 -0.18227935 -0.03653589
0.017517408 0.056223508 -0.113037616 0.11128896 0.05367665 0.087832816 -0.066547215 0.2995021
0.027339615 -0.036613695 0.028493324 -0.049803242 0.2344935 -0.026849346 0.24659424 -0.06536163
0.19393967 0.0385209 -0.011435465 0.13385253 -0.1815636 -0.007955443 -0.020785218 0.03726549
0.04095638 -0.37572834 0.109710254 -0.0113975145 0.3182807 0.1109321 -0.06446853 -0.16430919
0.07282153 0.07006569 0.07045745 0.14578207 -0.3992668 0.09111999 0.02838339 -0.02982585
-0.10941478 -0.2315788 -0.20740949 0.15764336 -0.1612209 0.048345327 0.055917375 -0.004012947
-0.027620628 0.02613793 -0.031823773 0.22987399 0.06296963 0.13409664 -0.20322022 -0.084951565
-0.121594846 -0.29804423 0.18372917 -0.11198932 -0.083431214 0.08664737 -0.19637264 0.030353077
-0.09275306 0.2757742 -0.09492027 0.18604583 0.05482131 -0.07819815 -0.10011076 0.11235687
0.09722194 0.024175175 0.20221882 0.057301674 -0.01109757 0.029554667 -0.18006219 -0.1349962
-0.00046234851 -0.18148567 -0.1364973 0.050741386 0.007123502 -0.055802844 -0.022227496 -0.33168048
0.086392745 -0.11014863 -0.19262831 0.110943474 -0.058309752 -0.17239259 0.07456584 -0.07825956
-0.03789988 0.18592821 -0.102879904 0.023951046 0.14776267 0.06573716 -0.051426936 -0.20537478
0.05800659 0.17775477 0.12291013 -0.0067326347 -0.07520438 -0.045293577 -0.21817553 0.10993735
0.07170002 -0.013324072 -0.038257767 -0.06922319 -0.06944771 -0.15165734 0.04292475 0.03190898
0.051547863 -0.059726536 -0.13556015 0.20239343 0.05575858 0.19731238 0.03227071 0.013176084
-0.082945205 0.14901416 0.041451965 -0.1829969 0.10041283 -0.03565993 0.18061896 0.021280795
0.12837836 0.17483243 -0.12715319 -0.018175103 0.106838234 0.123012625 0.02556342 -0.034273643
0.020570006 -0.03800774 0.23748241 -0.04895285 0.112764046 -0.055189446 -0.17914872 -0.14294145
0.26328474 -0.019345384 0.0117287515 0.28354853 -0.016860401 -0.117058404 -0.011603014 0.04225577
-0.019304717 -0.010882066 -0.043950345 0.15657683 0.019104503 0.16614473 -0.024304098 0.09109914
0.049347743 -0.100918956 -0.11743473 0.1510009 -0.08685505 0.024332127 0.017882017 -0.08059773
0.5217657 -0.07692414 0.06836132 0.08613745 -0.019782946 -0.06607203 -0.10142889 -0.083941616
-0.13256244 -0.030672109 0.13461067 -0.18092962 0.13224423 -0.14618805 -0.2129496 0.2169724

fc2.bias f4 [100]
00000000: ef51 533b f078 d93c d7bc 063d 03ef 8e3d
00000010: 49fa 293d fd19 053d 5bf7 fabc 3409 e63b
00000020: 512f 283d cbf2 14bd eaf5 3b3c e5bd 163d
00000030: 4264 6e3d 8911 ba3d 9f75 5a3c 2098 693c
00000040: ff7c bc3c 94ed b2bc 234e bc3c a3af c43c
00000050: 33cf 0ebd 885e a5bd 3149 7fbd f2b7 a73d
00000060: e732 72bd a9b2 a6bd e034 7abd 2389 b4bd
00000070: 80a7 8e3d f42e 4d3b 3e3d a0bc 7b54 8fbd
00000080: 1f1e a43c 6943 91bd 4475 2ebd dff3 8ebd
00000090: 7900 873c df75 473d 2f45 bebc 5d93 853d
000000a0: d2a1 673d 09c3 a13c 02a7 7c3d 6be9 a13d
000000b0: f138 7a3c 3e29 4c3d 9615 d0bc ad94 8cbc
000000c0: 0d72 a5bd b1df 8f3d 2c55 5b3d c1bc b7bd
000000d0: ccfc b4bd f45f 9e3d 4657 9cbd a15a 5dbd
000000e0: 2cad 83bc 71d4 33bd 978c a6bd 8af3 03bc
000000f0: fb85 1dbd c09c 5dbd 7f27 803d 7b8e 5ebd
00000100: a1b3 713d 3e8f 5dbb 5bfd 723d 70f0 66bd
00000110: c112 c43c 03c7 fd3b 4f47 c8bc 8d7a a7bb
00000120: 1ffc 73bd e2ef c7bc 3bc1 ac3d e2af 2ebd
00000130: 2c40 acbc 88f2 173d d120 50bd 5b59 56bd
00000140: 17ac 9f3d 4241 693d ce69 ebbc a04f 1b3d
00000150: 1f3e 333d 500a 303d ea13 85bd b436 843d
00000160: e80e d63c 7834 44bc 8044 783d fea5 2e3d
00000170: a1db 87bc 3f68 81bc d890 c5bb 3267 adbd
00000180: 69be 4d3d f3ca abbd 29cf ecbc 75dd 8cbc
0.003224488 0.026546925 0.032894935 0.069791816 0.041498456 0.032495487 -0.030635526 0.00702014
0.04106075 -0.036364358 0.011472205 0.03680219 0.058201082 0.09085376 0.013333707 0.014257461
0.023008822 -0.021841802 0.022986477 0.024009531 -0.03486557 -0.08074671 -0.06232566 0.08189382
-0.059130576 -0.081395455 -0.06108558 -0.08815219 0.06965542 0.0031308504 -0.019560453 -0.06998535
0.020033894 -0.070929356 -0.042592302 -0.069801085 0.016479718 0.048696395 -0.023226349 0.06522248
0.05655081 0.01974632 0.06168271 0.07905849 0.015272365 0.04984402 -0.025400918 -0.017160738
-0.08078394 0.070250876 0.053548023 -0.08971549 -0.0883728 0.07733145 -0.076338336 -0.05404151
-0.016073786 -0.04390377 -0.08132284 -0.00805367 -0.03845785 -0.054104567 0.06257533 -0.0543351
0.059009198 -0.0033807303 0.05932365 -0.056381643 0.023934724 0.0077446713 -0.024448065 -0.0051110447
-0.059566613 -0.024406377 0.08435293 -0.042648204 -0.021026693 0.03709653 -0.050812546 -0.05233131
0.077964954 0.056947 -0.028736975 0.037917733 0.043760415 0.042978585 -0.06497939 0.06455746
0.026130155 -0.0119754 0.0606122 0.04263877 -0.01658422 -0.015796779 -0.0060292296 -0.084669486
0.050230417 -0.08388319 -0.028907375 -0.017195443

bn2.weight f4 [100]
00000000: 746d e43f 6b9f a03e b14d e73f abfa 963e
00000010: 186b 923e b74e ed3f ff0d d03e f7b1 f03f
00000020: 1d5e d73f 03c6 d63e e2df 913e eacf 433e
00000030: 4dd1 8e3e 5da6 d83f 5c38 9b3f 3208 013f
00000040: e0e3 2f3f acfc e03f 5d2f f63d d99f c73f
00000050: 6695 513e fddb 8c3e cb17 b43e 428e eb3f
00000060: e5fa 553e 494c 6e3e 43bb 283e 3cdd 293e
00000070: b3d7 f43f 804f ab3e bd4c c13f b223 b23e
00000080: ac21 803e e50e 953e c9ab bc3e 1bf0 ca3e
00000090: 7737 c23f c32e e53e 7ec0 893e ee4f 7f3e
000000a0: ba41 f93e b11f 8e3f 670a 573d d648 ba3f
000000b0: 522a ce3f ec5c fd3f 3467 e83f b0e3 c73e
000000c0: 14f4 e93f 548b cb3f 9fe1 c53d 8ae5 f53b
000000d0: 6b9f a33f 481a 823e eb54 d13f 1ed3 c63e
000000e0: 0730 b33f 7b88 5a3e e27b cb3f 184f b43e
000000f0: 9c3c b63e b20b 483f e92a 193e 12ec d23f
00000100: e5dd f53f 7607 8e3e 8243 0640 5e56 f13e
00000110: 5cae ba3e 1475 153f 83df d93e bb73 1a3e
00000120: 000a 453e c8f2 ee3f 4d02 c43d 0669 aa3e
00000130: 81e5 4b3e 331b 183f b07f a13e ff5a 853e
00000140: 5397 6e3e 1836 d43d 990d f33d 1d0f 0b40
00000150: 8244 9d3e 6742 b93f f69a cb3f ab46 cf3d
00000160: e8c5 a73e 2649 863e 20bd 053f 9db8 cf3d
00000170: 742c c53e c275 233e 85ff fc3e 5548 b53f
00000180: 7f26 da3f 68fb df3f 5789 ca3f c9fc 353f
1.7845902 0.31371626 1.8070585 0.2948812 0.2859733 1.8539647 0.40635678 1.880431
1.6825596 0.41947946 0.28491122 0.19122282 0.2789406 1.692577 1.2126575 0.5040313
0.68707085 1.7577109 0.120207526 1.5595657 0.20467147 0.27511588 0.35174403 1.8402789
0.2089649 0.23271288 0.16477685 0.165883 1.9128326 0.3345909 1.5101544 0.34792858
0.2502569 0.29112926 0.36849812 0.3963631 1.5173177 0.4476224 0.26904672 0.24932835
0.48682958 1.1103421 0.052500155 1.4553478 1.6106665 1.9793983 1.8156495 0.390409
1.8277612 1.5901895 0.096621744 0.00750417 1.2783026 0.25410676 1.635404 0.38832945
1.3999032 0.21341126 1.5897181 0.35216594 0.35593116 0.78142846 0.14957775 1.6478293
1.9208342 0.27740067 2.0978703 0.47136205 0.3646115 0.5838177 0.42553338 0.1508321
0.19242096 1.8667841 0.09570751 0.33283252 0.19911768 0.594165 0.3154273 0.26045987
0.23299913 0.1036188 0.11867828 2.1727974 0.3071633 1.4473389 1.5906665 0.10120901
0.32768178 0.26227683 0.52241707 0.10142634 0.38510478 0.1596289 0.49413696 1.4162699
1.7042998 1.7498598 1.5823163 0.71088845

bn2.bias f4 [100]
00000000: 5555 a83f fd9e b43d 7a53 acbf 0ff6 e0bd
00000010: 02c1 ca3d b0b4 a33f b8e2 3bbc 3dbd b0bf
00000020: f505 8e3f cc13 88bd 7ce7 61bd 4ade eebd
00000030: 9a1f 503e d8a0 983f 3e81 5f3f 460e 33bd
00000040: ef50 85be e45e 9a3f 1fae 003e 5417 8c3f
00000050: e5f6 06be dfec 5c3e a6d9 b53d 203e a53f
00000060: f334 483d b1f5 a23c 0921 47bb dcea a73c
00000070: 168a 9c3f 6f42 3e3e 3362 7fbf 0ce2 053c
00000080: d7c1 42bd 4434 04be 629d 51be da94 303e
00000090: 49f6 87bf d209 62be 53f4 1c3c 4b00 c4bd
000000a0: 525a 013d 966f 423f e3c7 6b3e 79a3 84bf
000000b0: 8006 91bf ad57 ac3f 9606 9d3f 1cb3 6bbe
000000c0: 451b ad3f f6fd a3bf e8ae 8abd dea2 5abd
000000d0: 28f5 66bf b5c2 afbc d36d 8dbf 99c5 66be
000000e0: 29dd 8a3f 56d6 dabd 0799 8f3f 046e ef3d
000000f0: 5ef4 0c3d 3655 92be 07ce 3dbd 7b64 a9bf
00000100: 141e a63f a078 4fbc 9101 af3f c5a6 993d
00000110: b937 043e 1ead 14be e099 813e a24d 053e
00000120: c18f 5cbc 10c4 af3f 2d0e 403d c2ea 6ebe
00000130: 4e10 f1bd 5b44 86be 5304 bdbd 1d7b 2c3e
00000140: fba7 3b3d b364 733e 5258 a33d 5dc4 b9bf
00000150: 92b6 b2be fba6 893f 5757 923f eceb df3d
00000160: 6d76 4ebe c440 9cbd 0963 bebd 92e1 523d
00000170: a316 983e 4ce3 b7bd 2574 9e3e cdaf 793f
00000180: b66b ac3f 34a4 a1bf 846a 833f 0e1e 933d
1.3151041 0.08819387 -1.3462975 -0.10984432 0.099000946 1.2789516 -0.011467628 -1.3807751
1.1095568 -0.06644401 -0.0551524 -0.11663492 0.20324555 1.1924086 0.8730658 -0.043714784
-0.2603831 1.2060208 0.12566422 1.0944619 -0.1318012 0.21574734 0.08879404 1.2909584
0.04887862 0.019892545 -0.003038468 0.020497732 1.222964 0.1858003 -0.99759215 0.00817157
-0.04754814 -0.12910563 -0.20470193 0.17244282 -1.0622035 -0.22074059 0.009579736 -0.095703684
0.031580277 0.75951517 0.2302547 -1.0362388 -1.1330109 1.3464257 1.2267635 -0.23017544
1.3523947 -1.2811878 -0.06771642 -0.05337798 -0.9021783 -0.021455148 -1.1049141 -0.22536315
1.0848743 -0.106854126 1.1218575 0.11690906 0.034412734 -0.28580636 -0.04633906 -1.3233789
1.2977929 -0.012663037 1.3672353 0.07502512 0.12911882 -0.14519164 0.2531271 0.13017896
-0.013462008 1.3731709 0.04688852 -0.2333174 -0.11770688 -0.26224026 -0.092293404 0.16843839
0.045814496 0.23768882 0.0797583 -1.451305 -0.34904915 1.0754083 1.1432904 0.109336704
-0.20162363 -0.076295406 -0.09296233 0.051484652 0.2970477 -0.089789 0.30947986 0.97533876
1.3470371 -1.2628236 1.0266881 0.07183467

bn2.running_mean f4 [100]
00000000: 1eb4 e13f 3614 113f 2600 15c0 9842 dcbe
00000010: 9aad 993e ce3a b73f 3853 c8be 5dc8 42bf
00000020: e47c fb3f a753 50be 32ae ac3e aff6 bb3e
00000030: 0d6c a73f 8796 363f bbf9 aa3f 3f1e 02be
00000040: 4c2e a6bf 6230 a33f 2343 ccbd 2d73 b13f
00000050: ccea 2b3f a8ab 233f 1b52 853e 7ad0 8f3f
00000060: 60e4 0f3f a6bf d6be 1e60 c6bc 657a adbe
00000070: d2c7 b73f b751 5a3d 384b 4dbf 2cad 263f
00000080: 189e edbd 583b 3a3f 77b8 9abf 7177 cd3f
00000090: 7d8a e5bf 40d8 0ebf 93bc 57bd 9dce 073f
000000a0: 040e 253f e209 b93f b57d 7fbf ce59 82bf
000000b0: 1dca cdbf 5dee db3f 04fb de3f 0ebb 94bf
000000c0: b60d 663f 31cc 34be fe20 7e3f 5611 f83e
000000d0: 24b1 f8bf 56f0 e7be 33e3 1dc0 0c0b 713f
000000e0: 6e4e 0240 e1a9 77be 1fde 553f 4c0d 8b3d
000000f0: 16f2 d03e fa43 5b3f 4adf 573e d8f9 6ebf
00000100: 8277 1f40 48db e73b 210d 8d3f 9a92 4ebe
00000110: 5ea7 423d 34b6 603d dfc6 103f 26d9 713e
00000120: bdd9 c13d c298 be3f 7183 48be 7bee 963e
00000130: c0d3 063f d71a 21bf f785 b43e 5432 55be
00000140: 6444 45bd b2f3 babd 8422 9abd 4d99 ecbf
00000150: 4f71 903d aa16 aa3f 988d 0240 4148 febe
00000160: bd15 693e cc9a 62bf 251e 1f3e aa26 bfbd
00000170: 2dc9 8e3f ec1c 82bf 5324 48bf 61ad 483f
00000180: 8ec4 1f3f 1cd5 d3bf 1ce5 aa3f 2f0b 56be
1.7633092 0.56671464 -2.328134 -0.43019557 0.3001526 1.4314821 -0.3912599 -0.7608698
1.9647489 -0.20344411 0.3372665 0.36711642 1.307985 0.71323436 1.3357462 -0.1270685
-1.2982879 1.274914 -0.09973743 1.3863274 0.67155147 0.639338 0.26039204 1.1235497
0.5620785 -0.4194309 -0.024215754 -0.33882442 1.4357855 0.053300586 -0.801929 0.6510799
-0.116024196 0.727468 -1.2087544 1.6052076 -1.7932888 -0.5579872 -0.052670073 0.5304964
0.6447451 1.4456141 -0.9980119 -1.0183656 -1.6077305 1.7182118 1.7420354 -1.1619585
0.8986467 -0.17656018 0.9926909 0.48450726 -1.9429059 -0.4530055 -2.4669921 0.9415748
2.036037 -0.24185897 0.83542055 0.067896456 0.40809697 0.856506 0.21081272 -0.9334998
2.4916692 0.007075701 1.1019632 -0.20173112 0.047522895 0.054861262 0.56553453 0.23617992
0.094653584 1.4890368 -0.19581391 0.2947882 0.52666855 -0.6293158 0.35258457 -0.2081998
-0.048160926 -0.091285124 -0.075261146 -1.8484284 0.07052862 1.3288167 2.0398922 -0.496645
0.22762199 -0.8851745 0.15538843 -0.093335465 1.1155144 -1.0165076 -0.78180426 0.78389555
0.62409294 -1.6549411 1.3351169 -0.20902704

bn2.running_var f4 [100]
00000000: 81ad 9641 1f0c 2d40 a0d1 8f41 e433 5640
00000010: 09e7 3840 d2f7 3641 cd96 6240 ea7d 5041
00000020: 24b0 3441 cda3 8840 0b5c 8540 6f43 2840
00000030: 2176 a440 a8da 3941 4f38 bc40 50f2 8840
00000040: 2ae1 f940 b657 2441 31b8 3840 1b49 1e41
00000050: 1fea 5140 875a 8040 1e64 5e40 bc35 3941
00000060: 084b 1440 c796 5e40 4eeb 2a40 5243 0740
00000070: e148 3341 0e9a 4f40 396d 0141 0cf0 2e40
00000080: fe21 6840 bf3d 9240 4292 dc40 35ef b540
00000090: e14b 3441 d715 aa40 a8dc 4340 cf66 7540
000000a0: 53c0 9240 c1ed 1041 de1f 3140 3e0c e940
000000b0: 4bfc 9941 7fa9 8a41 61f8 3841 9579 9340
000000c0: fff0 3a41 857e 9541 ad21 0940 1a49 1740
000000d0: 63b3 5541 e35c 2840 9443 6941 a4a7 9940
000000e0: 8fb5 a941 756b 3040 9682 3841 47d1 8340
000000f0: 8c7f 8b40 b49a 2a41 dab3 8840 7344 0e41
00000100: f82e 6641 4d45 6840 1751 2d41 5385 7c40
00000110: d7d9 8a40 22b0 a740 9bdc 8940 0db8 5c40
00000120: 9638 e83f aa3e 3a41 bf6f 2540 28c9 a440
00000130: 7c59 2340 511c db40 680c 9140 c972 5340
00000140: 22b6 1440 f867 1740 3f6c 2840 0582 7e41
00000150: 31cf ad40 2e46 8541 789b da41 2245 2e40
00000160: 0ae8 a040 9afa 3640 f495 ad40 fd47 ad3f
00000170: 61de c040 032f 6d40 3001 c540 d9b7 2941
00000180: 873d 1141 a31a 8d41 71a4 3841 10a2 9b40
18.834719 2.7038648 17.977356 3.3469172 2.8891013 11.435503 3.5404541 13.030741
11.293003 4.269995 4.1674857 2.6291158 5.13942 11.615883 5.8818736 4.279579
7.808736 10.271414 2.8862422 9.892848 3.2799146 4.0110507 3.4748607 11.575619
2.3170795 3.4779527 2.6706119 2.113484 11.205293 3.2437778 8.089166 2.7334013
3.6270747 4.5700374 6.8928537 5.68545 11.268525 5.315166 3.0603428 3.8344
4.585977 9.058045 2.76757 7.2827444 19.24819 17.332762 11.560639 4.6085916
11.683837 18.686777 2.1426804 2.3638368 13.356296 2.6306694 14.578999 4.801714
21.213652 2.7565587 11.531881 4.1192966 4.3593197 10.662769 4.2719545 8.891711
14.386467 3.6292298 10.832297 3.9456375 4.339092 5.2402506 4.3081794 3.4487336
1.8142269 11.640299 2.5849454 5.149555 2.5523367 6.8472066 4.5327644 3.303881
2.3236165 2.3657207 2.6316068 15.906743 5.431542 16.659267 27.325912 2.7229695
5.028325 2.8590455 5.424555 1.3537594 6.027146 3.7059944 6.156395 10.607385
9.077521 17.638006 11.540147 4.863533

fc3.weight f4 [46, 100]
00000000: 17eb c83b e607 843d c240 293f ac93 b7bc
00000010: a8d8 fabc 8b50 36bc 592b ac3c f7c8 3bbc
00000020: 0cc7 54bb 09e5 913d 41e5 4a3d c709 f6bc
00000030: a39f d73d 6904 d03b 8270 27bc 2d42 0f3d
00000040: cb5d 4e3d bf6d 813b f1af ce3c 789d d13c
00000050: 5e38 39bd 9d0e 8e3d 5bd4 df3d a23c 653c
00000060: 2ba9 f7bb 7a9b eabc f39a b1bc e6a6 9b3c
00000070: 34d3 dd3b b6c0 3fbd afbc 973c 2b94 4d3d
00000080: e330 42bd 99d8 ef3d 16c6 0bbd 6974 9e3d
00000090: 308d 8abb cda5 a6bd f45e bbbd ea73 34bd
000000a0: 9ad9 a8bc aef4 cb3b baca 4b3d 7ce6 93bc
000000b0: 395a c53c 6c09 15bc de8d 49bc 3f63 bdbc
000000c0: 4365 17bc 942d 2d3c d795 4abd 9ccf 0fbd
000000d0: c474 56bd 0af8 853d 257f cb3a 1b12 01bd
000000e0: 7656 a7bc 0c0a c93d dd30 283a d4ec bc3d
000000f0: 7cdd 28bc 8a27 37bd 77f1 6fbd 202f afbb
00000100: d84e 8b3b c606 e9b9 7b1b 99bb 300d 4c3d
00000110: fe89 853d 724c 603d 913b e23d ddf0 e13d
00000120: 4a0c 88bd 9341 89bc 7cf6 17bd c845 62bd
00000130: 289c 0cbe fc8b acbd c2c7 a0bb 2034 0f3d
00000140: e26f 893d 2a24 d73d 4e5a e33c b9c3 adbc
00000150: f593 7b3c ab73 2c3c db8d 78bd abbf c23d
00000160: 1011 adbc 790c f2bd 8b48 26bd 0696 003d
00000170: 5bb8 52bc 2293 3c3d 9852 94bd d23b 9e39
00000180: 1a44 b6ba 3f94 6bbc d174 80bc da82 2dbc
00000190: 99e2 b03c 04dd f1bd 7556 273f 5473 2b3c
000001a0: 2817 d9bc c4d7 26bb 4933 b2bc 7d71 81bc
000001b0: ed20 9cbb b2dd 4bbb d450 91bd 98bc babd
000001c0: f196 3a3d 91f9 2a3d 2fbb d23c f1ad 41bd
000001d0: 8a81 85bb 855b 86ba 105c e6bc 611c 0c3b
000001e0: 1293 edbd 8d4b 2f3d ff88 36bd 5b6a 89bb
000001f0: 75f9 3f3d 4f60 4b3d 8a05 1d3c 6d27 4f3d
00000200: 5f92 47bc fb44 d7bc 6310 a93b 6df4 1abd
00000210: 4497 23bd 903c 9b3b e37e d53a a674 9f3d
00000220: 83a0 4a3b 5f07 aaba 1da1 8ebd a533 373c
00000230: 727a 06bd c286 5e3c a284 dd3d cd6b 2b3c
00000240: 1c3e 8ebc a7ff edbc 7ccb 933c f337 2dbc
00000250: ae2d 643c b905 06bc 8ef3 b73b 46e7 b53b
00000260: 0e24 253d c94a e5bd 5dd0 353b a531 8e3d
00000270: 6b0f 963c fa31 a2bd 534c 99bb a101 89bc
00000280: 5a3d 5ebd e431 ef3c 09a0 91bd 1f0e 123c
00000290: 5ec9 03bc b523 2b3d a5a6 f53b 8a89 c83d
000002a0: 82c4 783d 90ba 4fbc 10f7 80bd 5b02 b13d
000002b0: b0bf 89bd 200b 273b 6681 f63b 2789 00bd
000002c0: 642e be3c 1c0f 973d 9251 06bd 76b0 1e3e
000002d0: b09b d7bd eed0 233d df98 f23c f142 9b3b
000002e0: 0b44 bebd 1bf2 8fbb b94d 5e3d ba55 4c3d
000002f0: 1b46 c3bd 2433 023d 0079 273d 9a18 eebc
00000300: 743f ed3d 9c40 5cbd 9965 d1bc a643 7bbb
00000310: c88c a3bb 1c6a d33b 1093 ba3b deed 853d
00000320: 62f9 33bd 8e62 f13c 66ff b73a 927e 34bc
00000330: 0f8f 553d 0368 a93b 8284 14bc 6321 283f
00000340: 8503 42bc 8a42 02bd 0997 60bd 5b3a b7bd
00000350: 4788 ee3c 92ea c03b 9e91 8a3c c3da 94bc
00000360: 50fc 13bc b131 353a a7a5 813c 3ab8 293b
00000370: bb34 2ebd 9c1a e73d 4f9b 973d 5c09 24bb
00000380: 756f 3e3d 28dd d83c c384 bfbc cd91 b93c
00000390: 188a 503b 8765 4d3c b212 ecbb 3f30 60bd
000003a0: bce8 1fbc 1611 93bd 6928 c8bd 9938 7b3d
000003b0: cc28 283c 53c4 00bc 7574 d33c 6731 72bd
000003c0: e55c 1fbd edf9 1d3d 5485 a73d 4a5a 9f39
000003d0: 862b dc3b f848 debb 1903 213b 5337 e2bc
000003e0: 8c44 d63a 0cef 403c c00a 2ebd 6a9e e1ba
000003f0: 335c 41bd a1d7 09bd d445 413a 4d48 3cbd
0.0061315405 0.06446819 0.6611444 -0.022409283 -0.030620888 -0.011127601 0.021016764 -0.011461488
-0.0032467274 0.07123763 0.04953504 -0.03003396 0.10528495 0.006348182 -0.010219695 0.03497522
0.050382417 0.0039498503 0.02523038 0.025587782 -0.04521977 0.06936381 0.109291755 0.013991507
-0.007558008 -0.02863859 -0.02168033 0.019000482 0.006769562 -0.046814643 0.018522589 0.050190132
-0.047409903 0.117112346 -0.034124456 0.07737047 -0.0042282566 -0.08137093 -0.0914897 -0.044055857
-0.020611573 0.0062242365 0.049753882 -0.01805424 0.024090873 -0.009096485 -0.01230189 -0.023118613
-0.009240451 0.010569949 -0.049459305 -0.0351101 -0.05235745 0.0654145 0.0015525563 -0.031511407
-0.02042697 0.098163694 0.00064159726 0.09224859 -0.010306712 -0.04471544 -0.05857989 -0.005346194
0.0042513423 -0.0004444627 -0.0046724654 0.049817264 0.065204605 0.054760404 0.11046518 0.11032269
-0.06642969 -0.016754901 -0.0371003 -0.05524233 -0.13731444 -0.084251374 -0.0049066255 0.03496182
0.06710793 0.105049446 0.027753022 -0.021211492 0.0153551 0.010525624 -0.06068216 0.09509214
-0.0211263 -0.11818785 -0.040596526 0.031393073 -0.012861337 0.046038754 -0.07242316 0.00030180678
-0.0013905794 -0.014378606 -0.015680702 -0.0105902795 0.021592425 -0.118097335 0.653663 0.010464508
-0.0265003 -0.0025458196 -0.02175297 -0.015801186 -0.0047646672 -0.0031107483 -0.07095495 -0.09118003
0.045554105 0.04174191 0.025724022 -0.047285024 -0.00407428 -0.0010250664 -0.02812007 0.002137922
-0.11600317 0.04279666 -0.044564243 -0.0041935868 0.04686876 0.049652394 0.00958384 0.05057471
-0.012180894 -0.02627801 0.005159424 -0.03783076 -0.03993918 0.004737444 0.0016288426 0.07785921
0.0030918426 -0.0012972167 -0.06964324 0.011181747 -0.032831617 0.013581933 0.10816313 0.010462713
-0.0173636 -0.029052569 0.018041365 -0.010572421 0.0139269065 -0.008180075 0.005613751 0.0055512516
0.040317588 -0.11195905 0.0027742602 0.06943063 0.018317899 -0.079196885 -0.004678288 -0.01672441
-0.05425773 0.029198594 -0.071106024 0.0089145 -0.008043615 0.0417821 0.007496672 0.097918585
0.06073428 -0.012678757 -0.062971234 0.086430274 -0.067260146 0.0025488809 0.0075227497 -0.0313808
0.02321548 0.07375929 -0.032792635 0.15497002 -0.10527742 0.039994173 0.02961391 0.0047382046
-0.09290322 -0.004392875 0.05427334 0.049886443 -0.09534856 0.031787053 0.04088688 -0.029064465
0.11584368 -0.053772554 -0.02556114 -0.0038339882 -0.0049911477 0.006451858 0.0056938007 0.0653951
-0.043939 0.02946594 0.0014037907 -0.011016505 0.052138384 0.00516987 -0.009064795 0.65675944
-0.011841659 -0.031801738 -0.05483154 -0.08946677 0.029117716 0.005887338 0.016915139 -0.01817072
-0.009032324 0.00069120066 0.01582606 0.002589716 -0.042530756 0.11284372 0.0740267 -0.0025029993
0.046493012 0.026472643 -0.023378735 0.022652531 0.0031820592 0.012536413 -0.007204377 -0.05473351
-0.009760078 -0.07180993 -0.097733326 0.061333273 0.010263633 -0.007859307 0.025812367 -0.059129145
-0.03890695 0.038568426 0.08179727 0.00030394114 0.0067190556 -0.006783601 0.0024568497 -0.027614271
0.0016347333 0.011775743 -0.04249072 -0.0017213349 -0.04720707 -0.033652905 0.0007372771 -0.04596739

fc3.bias f4 [46]
00000000: f8d0 bd3e dbfe b23e f24b af3e bb77 bf3e
00000010: 5b86 e33e 01d2 f03e 79ad ee3e f73e cd3e
00000020: 0691 bf3e 8be5 a23e e72a 973e d7e8 ca3e
00000030: 6f56 d73e 7626 913e f301 b03e 7262 cb3e
00000040: e9c2 8f3e 9996 b73e aaa2 9c3e 8a4b a63e
00000050: 267a 823e eeb3 913e 742b d93e 56cd 883e
00000060: 7783 863e 1cac 743e fff8 cb3e 4fa9 973e
00000070: e321 a53e c3cc bd3e 0a70 9b3e 7683 b93e
00000080: bb25 bd3e 39d7 a63e 73f4 8f3e 0718 773e
00000090: 3fa8 c33e a277 7f3e 22d5 c33e 0182 8b3e
000000a0: 7be9 893e 7321 633e a2ff ad3e 6eb6 903e
000000b0: 7f34 863e 8896 893e
0.37073493 0.34960064 0.3423763 0.37396035 0.44438443 0.4703522 0.46616724 0.400871
0.37415332 0.31815752 0.2952492 0.39630768 0.4205813 0.28349656 0.34376487 0.39723545
0.28078392 0.35857084 0.30592853 0.32479507 0.25483817 0.28457588 0.42415965 0.2671916
0.26272175 0.2389378 0.39838406 0.2962136 0.32252416 0.37070283 0.30358917 0.3623311
0.3694285 0.32586077 0.28116187 0.2413026 0.382143 0.2494798 0.38248545 0.27247623
0.26935944 0.22180729 0.33984095 0.28264183 0.26211926 0.2687266
