mp4-machine-learning-template/model/model.pth (torch, 99326 bytes, 14 tensors)

fc1.weight f4 [120, 49]
00000000: da94 123e 295f 8c3e d190 683e 7866 623e
00000010: 950d ae3e 779a c7bd 0024 8b3d e10a 9dbe
00000020: d036 bc3e 630a ac3c d18a 923e dcd7 d4bc
00000030: 987b 50bf fe8f 6d3e e705 d83d a98e 383e
00000040: b17f 97be 0c2e 7e3c 9858 95be 1ba8 8fbd
00000050: 1a9f 9abb 8645 bc3d b954 84be 6d2c 63be
00000060: d979 3fbe 0c85 d73e 82da b23c 314d 18be
00000070: bf45 09be 758d 20bc 3803 153d 1a7b c8bd
00000080: 656f 96bc eb65 403d a4d9 ad3b a866 8d3b
00000090: 4ff1 afbe 75d0 b4bd 4a49 223e 8ba8 cdbe
000000a0: 6e98 49be 6821 72be c17f 403c 493e 203e
000000b0: 84f5 843c c71f 5b3d 948d a73e 2136 aa3d
000000c0: e89b b5be a031 af3d ba8c 4a3e bada fe3d
000000d0: 8aa1 15be b932 1a3e db0c bfbe 5f7e 3fba
000000e0: f6e5 513d ed62 5a3e 7947 8b3e 9f12 993d
000000f0: 5245 2b3e 6211 753e bcc0 0e3e a02e 423e
00000100: a75f 02be 29e1 923e 4c1d 77be 13f8 dd3d
00000110: 2d09 4f3e c44b acbd 47b5 68be 3c34 fcbd
00000120: 6dbe 89bc 305c 5c3d 03d8 3d3e f17c 223e
00000130: 2f78 00bf 4c53 843e 0536 b73e 06f6 6cbe
00000140: d462 11bf fccb fa3d 700a 1ebd 4e90 c0be
00000150: 20c6 f7bd a6dd 0f3d f006 0dbc b25e 063e
00000160: c0e5 033e e24d 24bf 1cd3 d8be 49e4 143d
00000170: 0a9d 553d 5333 a7bd 5fd0 343d cdbc 5ebe
00000180: 7872 c63d 13a1 09be 9c86 f6be a938 66bb
00000190: f441 93be a0f3 56bd 7bbe 37bd dfb1 6ebe
000001a0: 82ca 7a3c a8a7 c2be 135e d13d ff71 2fbd
000001b0: 4631 acbd f9fa 91bd 64fe 5e3c 8f84 49be
000001c0: 6c25 97bd 5310 b9be dfba 4dbd 26a5 cabb
000001d0: 9882 ca3b 89e9 99be 583b c93d 05b1 083e
000001e0: b66e 853a 1a92 cf3d 9f19 783c 8398 2b3d
000001f0: 0921 b5bd 5c98 f93d 8dae 3e3d add5 283e
00000200: 80ac 553c 8a87 cabe 3482 dabe fa7b eabe
00000210: c457 913e a20a 71be 8fdc 583d d09c c93d
00000220: 5ff6 2dbe 9865 043f bb50 8abd f4ef 083e
00000230: 582f ce3d 7dab 5c3d e876 dfbd fc66 5fbd
00000240: 7422 80be 1211 d43d be1c 243d 0ee4 9e3a
00000250: c9a6 573e 969c a23c c453 c33d 06da 1abf
00000260: 5139 423e 0fd5 63be da53 90be 76a2 1ebf
00000270: 99b4 3e3e d2e2 9cbd a4a1 ae3e a048 05be
00000280: f011 893e a929 f8bd a3e6 1d3e 99c2 8bbd
00000290: ff22 683e fd76 1e3e 4b2f c43e dbeb f8bd
000002a0: 2821 7cbe 2571 b9bd 65c9 b63e 5a4b 463e
000002b0: 8bfc 57bd 7cd7 973e 2b65 d43d 5a52 87be
000002c0: deb5 173f 3356 333e fbd5 933e bb9c 9abe
000002d0: af13 93be 4306 2cbe 3805 37be cee4 60be
000002e0: 3e75 b63c 75e8 0bbe aef6 d7bd 90fe c93e
000002f0: 2404 493d 4172 693d 5d46 553e 66d6 8d3c
00000300: 7a40 313d 891c 433e 679c abbd 529c 40bd
00000310: 72c7 563e 57e2 85be e047 73be 844f 6dbe
00000320: 000e 8a3c 08e3 b1be a4ca ba3d 826b 243e
00000330: 4212 863d 0b56 c6bd 15b1 873e 3550 2f3e
00000340: ff57 2d3f 0549 d3bd d4d7 3fbd 14fe a63e
00000350: ef66 6ebe 360e a63d 8ab8 45be 6740 523b
00000360: 512e 43be d1ee 3b3e 52c6 2ebe 9fd4 713d
00000370: d4cc 7b3e 900a 04bf b766 b1be 3537 fdbd
00000380: b59e d33d 6198 cdbd c607 e83e fb75 66be
00000390: 1e7f 6b3e 79f6 64be 79d7 a43e 49cf 7f3e
000003a0: feba 4f3e 312a 1bbd 31a2 3c3e 0203 7ebe
000003b0: d882 38be 10ae a3bc 42ee 29be ffbd 16be
000003c0: 8ada cbbc 5cf4 123d 4f8b 033e 0bd3 673e
000003d0: 648c 9dbe f00f 5f3c 2b1e ac3c 45bc 8cbd
000003e0: 5690 753e 919f 363e 0c93 453d 865c 1a3d
000003f0: 5fec b93e db2c 3d3e dd6b 473d f646 fe3d
0.14314595 0.2741635 0.22711493 0.22109401 0.33994737 -0.09746259 0.06793976 -0.30672362
0.3676057 0.021001047 0.28621534 -0.025981836 -0.8143859 0.2319946 0.10548001 0.1802317
-0.29589608 0.015513908 -0.29169154 -0.070144854 -0.0047186734 0.09192948 -0.25845888 -0.22184916
-0.18698825 0.42093694 0.021832708 -0.14873196 -0.13405512 -0.009799351 0.036380023 -0.09789105
-0.018363664 0.046972197 0.005305486 0.004315216 -0.3436379 -0.088288225 0.1584827 -0.4016765
-0.19687054 -0.23645556 0.011749209 0.1564876 0.016230352 0.053497102 0.32725203 0.083111055
-0.3547051 0.08554387 0.19780245 0.124440625 -0.14612404 0.15058412 -0.37314495 -0.00073049025
0.0512447 0.213268 0.27202967 0.07474255 0.16725662 0.23932412 0.1394071 0.18963099
-0.12731801 0.2868741 -0.2413227 0.10838332 0.20218344 -0.08412889 -0.22725402 -0.123146504
-0.016814435 0.053798854 0.18539433 0.15867974 -0.50183386 0.258448 0.357834 -0.23140725
-0.56791425 0.12245938 -0.038584173 -0.37610096 -0.12098336 0.03512349 -0.008607611 0.13122061
0.12880611 -0.6418134 -0.42348564 0.036350522 0.052151717 -0.08164086 0.04414403 -0.2175171
0.09689802 -0.13440351 -0.48149574 -0.0035128987 -0.28761256 -0.052478433 -0.04485939 -0.2331004
0.015307071 -0.38018537 0.10223021 -0.042833325 -0.08407836 -0.07127947 0.013610456 -0.19679473
-0.073801845 -0.36145267 -0.050227042 -0.006184238 0.006180119 -0.30060986 0.09825772 0.13348778
0.0010180089 0.101352885 0.015142827 0.041893493 -0.088441916 0.12187263 0.046553183 0.16487761
0.0130416155 -0.39556533 -0.42677462 -0.45797712 0.28387272 -0.23539212 0.052944716 0.09844363
-0.16988514 0.5171752 -0.06753679 0.13372785 0.10067624 0.05387448 -0.109113514 -0.054541573
-0.25026286 0.103548184 0.040066473 0.0012122409 0.21059717 0.019850057 0.095374614 -0.6048893
0.18967177 -0.22249244 -0.28188974 -0.61966646 0.1862358 -0.0766045 0.34107697 -0.13015985
0.26771498 -0.12117321 0.15420012 -0.06824226 0.226696 0.15475078 0.38317332 -0.12154361
-0.24622023 -0.09054784 0.35700527 0.19364682 -0.052731078 0.2965659 0.10370859 -0.26430017
0.5926188 0.17513351 0.28874192 -0.301977 -0.28725955 -0.16799264 -0.17873085 -0.21962282
0.022272702 -0.13662894 -0.10545097 0.39452028 0.049076214 0.056993727 0.20827623 0.017314147
0.04327438 0.19053854 -0.08379441 -0.04702408 0.2097452 -0.26149246 -0.23757887 -0.23174864
0.016852379 -0.34743524 0.09120682 0.16056636 0.06546451 -0.0968438 0.2650229 0.1712044
0.67712396 -0.10316662 -0.04683669 0.3261572 -0.23281454 0.08108179 -0.19308677 0.0032081844
-0.19060637 0.1835282 -0.1706784 0.059040662 0.24589854 -0.5157862 -0.34648678 -0.123640455
0.10333005 -0.100388296 0.4531843 -0.22505943 0.2299771 -0.22359647 0.32195643 0.24981417
0.20286176 -0.037882034 0.18421246 -0.24805835 -0.18018663 -0.01998046 -0.16594794 -0.14720915
-0.024884481 0.03587757 0.12846111 0.226391 -0.30771172 0.01361464 0.021010479 -0.06871847
0.23980841 0.17834307 0.048235938 0.037685893 0.3631315 0.18474142 0.04868685 0.124158785

fc1.bias f4 [120]
00000000: 200f c43c 5971 413c e7a8 c83d 2e4f 653d
00000010: 9a36 5d3d 3cb6 78bd 3bb3 0039 02de a6bb
00000020: 69c3 e1bd 35ee 87bd 0931 f8bd ef6f 52bd
00000030: 5be5 05bd 9bd4 f33c 5133 893c c19f bb3d
00000040: 8818 8bbd e098 0b3d de3b 84bd 58c3 003e
00000050: cf12 5abd 14d2 873d 3e4e 823d 7388 ad3d
00000060: 2dff edbd 1b30 0cbc f5d2 a23d d139 cdbd
00000070: 10ff 16bd 6d23 ef3d 1d9e adbc f927 823b
00000080: fe9c 193d e6a8 de3d cdbd f83d 7f65 06be
00000090: ded5 85bd 7a1f 0e3e ce22 f3bd 3ec6 da3d
000000a0: 3518 003d a4e4 ab3d 06bb 2dbd 6b0c 5bbc
000000b0: ea41 03bc 3122 2ebc da23 f63d 083c 2f3d
000000c0: d6d0 333c 704d 013e d401 9ebc 3b4f 1fbc
000000d0: be16 d1bd ed1e 0f3e 4509 273c e005 36bd
000000e0: eaf4 a33d 9546 e43d 796b 193d da35 bbbd
000000f0: 7538 2f3b 87b6 c2bc 0848 babc 663f eabd
00000100: 174f 423d fbf4 8cbd 8bc0 94bc 1099 433d
00000110: 4dee debc 579a e43d e136 8a3d c6a5 5abd
00000120: 680e b7bd dfb8 a3bd 3146 3a3c 071f 663d
00000130: 0074 34bd 96d9 063d 2920 803d 35e5 1a3c
00000140: 1f2a b7bc a26a 073d a0c5 df3b 20f4 d0bd
00000150: d74b 02bc 0e75 cebd c264 923d 289c 683d
00000160: fa1f 113d c8f1 ec3d 5f1b 943d 1d4b a23d
00000170: 13be eabc 7f0f ff3d e5bc 0fbe eb6e d4bc
00000180: 0129 f93d 06ef d2bd c7e0 01be 481e 333d
00000190: 5a64 cbbd b81c c3bd daff d73d 1cc2 fc3d
000001a0: ff44 8b3b 0931 19bd a92e 623d f959 cfbc
000001b0: 435d e73d 8cf6 cc3d d0c7 d13b a70c f23d
000001c0: cbe6 553d 41fe 5cbd f01d 123e 0cd8 73bb
000001d0: 053e 083e 6cf3 c4bd 328f 59bc bebd e13d
0.023932993 0.011806809 0.097978406 0.055983715 0.05400715 -0.060720667 0.000122738 -0.0050923834
-0.110236 -0.06637231 -0.12118728 -0.05137628 -0.032689434 0.029764464 0.016748102 0.0916133
-0.06791788 0.03408134 -0.06456731 0.12574518 -0.053240594 0.06631866 0.0636258 0.08473291
-0.116209365 -0.008556391 0.07950393 -0.10020793 -0.03686434 0.11676679 -0.021193558 0.0039720503
0.037503235 0.108720586 0.121455766 -0.13124655 -0.065349326 0.13879195 -0.11871873 0.10682343
0.031273086 0.08393219 -0.042414688 -0.01336966 -0.008011321 -0.010628269 0.12018557 0.04278186
0.010975083 0.12627196 -0.019287981 -0.00972348 -0.10209416 0.13976641 0.010195081 -0.044439197
0.08005698 0.11146275 0.03745601 -0.09141131 0.0026736532 -0.023768676 -0.022739425 -0.114378735
0.047438707 -0.06882664 -0.018158218 0.047753394 -0.02721324 0.111622505 0.067487486 -0.05338075
-0.08938295 -0.07994246 0.011369274 0.056181934 -0.04405594 0.03292235 0.06256134 0.009454061
-0.022358952 0.033060677 0.0068289787 -0.10202813 -0.007952652 -0.1008092 0.07148124 0.056789547
0.035430886 0.115695536 0.07231783 0.07924483 -0.028655088 0.124541275 -0.14036901 -0.025931796
0.12166024 -0.10299496 -0.12683402 0.04373005 -0.0993125 -0.09526962 0.10546847 0.12341711
0.0042501683 -0.03740028 0.05522028 -0.025311457 0.11297085 0.100079626 0.0064019933 0.118188195
0.052222054 -0.053953413 0.14269233 -0.0037207631 0.13304909 -0.096167415 -0.013278769 0.110225186

bn1.weight f4 [120]
00000000: 54de 3640 1bf0 3440 2a8b 2440 2ec9 6340
00000010: cdc4 3540 8463 0a40 d3dd 1040 4284 1840
00000020: 64c3 ec3f de3c f03f 0221 6d40 3e1d 1b40
00000030: 98f4 1240 e052 3f40 ee59 3640 7a15 2c40
00000040: 55f3 1c40 dc86 1640 f8e8 0140 ec8b 3240
00000050: 242b 3640 b44d 4640 306c 3840 0bfa 5740
00000060: 3273 0940 8b2e 0340 9d1c 3540 e610 4340
00000070: 1088 3140 0010 3140 cc5c f03f 248e 2840
00000080: c464 1a40 8ee3 2040 c985 f83f a907 3e40
00000090: 1245 0040 e86c 8740 1bc6 3340 3007 2d40
000000a0: 958e 4240 ada4 6640 899d 1b40 b6fa 1340
000000b0: cebe 3f40 b22b 0540 bdd0 0b40 a95f 2140
000000c0: 946a 2140 c621 4840 91a9 1c40 7931 4a40
000000d0: aaac 0840 650d 0740 f324 3340 97ee 3440
000000e0: fe27 3240 d920 0940 f2b4 1b40 4f16 4a40
000000f0: 340b 1140 2c4d 5340 9b79 3b40 40cc fa3f
00000100: b136 3440 6dd1 3940 9149 2f40 a902 2840
00000110: 19e4 3a40 daf1 f43f 6a83 0840 bb98 1240
00000120: aff5 2b40 3423 2c40 4f4d 2b40 d6cc 0840
00000130: 4d93 3340 68ba 6740 82fc 4e40 c11a 2440
00000140: 6567 0d40 7b19 1340 f3c6 5b40 cfd8 4b40
00000150: 11f7 1940 628a 1340 57fe 5140 7324 4640
00000160: 70ad 4c40 e841 1840 a9f6 1140 effd 0f40
00000170: 3438 3c40 7ded 0940 6eea 2940 ed05 3540
00000180: c220 2f40 49d7 1f40 4b71 2a40 9ebb 1840
00000190: aa0a 1e40 9e09 1e40 5b10 3f40 9f24 2040
000001a0: fc76 1240 7fb8 4840 6dbb 0140 5e6a 0540
000001b0: c0db 1740 8a55 1c40 a902 1040 083b 0f40
000001c0: dc04 4140 794b 1140 7f87 4140 7002 0240
000001d0: 933b 1040 1a84 3040 5c36 1640 d2fc 0840
2.8573198 2.8271549 2.570994 3.559154 2.8401368 2.162324 2.263539 2.3830724
1.8497128 1.8768575 3.7051396 2.4236598 2.2961788 2.9894333 2.8492389 2.6888108
2.4523518 2.3519812 2.0298443 2.7897902 2.846383 3.0984926 2.8816032 3.3746364
2.147656 2.0497158 2.8298714 3.0479064 2.7739296 2.7666016 1.8778319 2.6336756
2.4124002 2.5138888 1.9415828 2.9692175 2.0042157 4.232044 2.8089664 2.7035637
3.0399525 3.603801 2.4314902 2.3121772 2.9960208 2.080792 2.1846154 2.5214636
2.52213 3.1270614 2.4478495 3.1592696 2.1355386 2.1101925 2.7991302 2.8270624
2.783691 2.1426299 2.432919 3.1576116 2.2663088 3.3015852 2.9292972 1.9593582
2.815838 2.9034073 2.7388651 2.6251624 2.920172 1.9136307 2.1330209 2.290572
2.6868703 2.6896486 2.6765935 2.1375022 2.8058655 3.6207523 3.2341619 2.564133
2.2094357 2.2984302 3.434018 3.185108 2.4057047 2.3053212 3.2811487 3.0959747
3.1980858 2.3790226 2.28068 2.2498739 2.9409304 2.1551201 2.6549335 2.8284867
2.7363744 2.497515 2.6631649 2.3864512 2.469401 2.469337 2.9853733 2.5022352
2.2885122 3.1362607 2.0270646 2.0846171 2.3727875 2.442721 2.2501624 2.237978
3.0159216 2.2702315 3.023895 2.0313988 2.2536361 2.7580628 2.3470678 2.140431

bn1.bias f4 [120]
00000000: 9146 4c3f 7145 933e 536e e5be 132a 9fbd
00000010: 8d69 f6be cf4c 85be a18b 603f 588a f1bd
00000020: f481 a33f dbf1 36bf 3730 20c0 ced7 a13f
00000030: ace2 bfbf 693f 103e 59d3 01c0 b0f7 8b3d
00000040: 2ec8 e8be 7162 853f 8939 11bf 9c90 8ebe
00000050: eb7e 10bc 80af 8dbe 9264 11be c603 a0be
00000060: d424 92bf df2c e73e fe5f a33f 08fd 29bf
00000070: a19f e9bf 95cb 37bf 1a27 bc3e 642d d3be
00000080: e733 cb3f 13ce afbe 95d8 8ebf 58c8 3abf
00000090: 1a57 b13f 0bc1 3940 ff10 f0bd 288e dfbe
000000a0: 487f 03c0 e83f b1be bab0 493f f914 40bf
000000b0: 6e75 63be 0a13 b7bf c310 b83f a0f1 87be
000000c0: 272d babe 364e c93e 19e4 d5bf dac5 0440
000000d0: 96ec 5a3e 1bff af3f 2ff2 0ebf de77 6c3e
000000e0: df5e 1a3f 394a 363f 0927 cc3f f145 6f3e
000000f0: 8401 afbf f3b8 b33e 051e 07bf fb41 323e
00000100: 6800 c03e 216e 73bf dacc 8b3f 01d4 05be
00000110: 6632 23c0 5881 08bf dd8a 9dbe 3c9e 01be
00000120: 5c5c 77bf 49f3 0f3f 6356 f43e bd0b 023e
00000130: eb80 933f f72d 32c0 4a6e 393e 2596 00bf
00000140: 9664 c1bf e37b e2bf eb3a 2740 ed69 93bc
00000150: fe84 e3be 4239 c1bf d0d7 1a40 26d1 57bd
00000160: 50a1 eb3e 3da4 a03d 12c7 de3e 00ca 13be
00000170: 5f14 8e3e b85e bbbf 353c ccbe 9cdc 4abd
00000180: 279a 443f 5bac ce3f 1422 dbbd c623 d2bf
00000190: 737b fbbf 6179 d53e 25e8 05c0 2a5e 823e
000001a0: 3fb7 c03d 5873 b1bd 0262 a43f da76 863e
000001b0: 72cc ed3f 0fc6 78bd e02e c4bf 7454 7a3f
000001c0: 0ded 28be 7f6c 0c3e aed5 5d3f 9c9a a73f
000001d0: a412 bdbf 337a 3ebd 1283 c93f dcfb 833f
0.79795176 0.28763917 -0.44810733 -0.07771697 -0.48127404 -0.26035163 0.87713057 -0.11793965
1.2774034 -0.7146279 -2.5029428 1.2643983 -1.499105 0.14086689 -2.0285246 0.06834352
-0.45465225 1.0420667 -0.56728417 -0.27844703 -0.008819322 -0.27672958 -0.14198521 -0.3125288
-1.1417489 0.4515142 1.276367 -0.6640172 -1.825184 -0.71795017 0.36748582 -0.41245568
1.5875214 -0.3433691 -1.1159846 -0.7296195 1.3854706 2.9024074 -0.11721992 -0.43663144
-2.0546436 -0.3461907 0.7878529 -0.75032 -0.22212765 -1.4302685 1.4380115 -0.26551533
-0.36362574 0.39317483 -1.6710235 2.074576 0.21379313 1.3749727 -0.5583829 0.230926
0.6030101 0.71207005 1.5949413 0.23366524 -1.3672338 0.35102043 -0.5278018 0.17407982
0.3750031 -0.9508992 1.0921891 -0.13069154 -2.549951 -0.5332236 -0.30770007 -0.12658018
-0.96625304 0.562306 0.47722158 0.1269979 1.1523718 -2.7840555 0.18108478 -0.502291
-1.5108821 -1.7694057 2.612971 -0.017994845 -0.44437402 -1.5095599 2.4194221 -0.052689694
0.4602151 0.07843826 0.43511254 -0.14432526 0.27749917 -1.4638281 -0.39889684 -0.049526796
0.7679772 1.6146349 -0.10699859 -1.6417167 -1.9647049 0.41694167 -2.092294 0.25462466
0.094099514 -0.08664578 1.284241 0.26262552 1.8578017 -0.06073576 -1.5326805 0.97785115
-0.16496678 0.13713263 0.86654174 1.3094058 -1.4771314 -0.046503257 1.5743124 1.0311236

bn1.running_mean f4 [120]
00000000: 94c0 bb3c 9b19 193d 28c7 bb3d 44ca b43c
00000010: 049b 5b3d 362e 0dbd 3a7c 38bc f0e5 97bc
00000020: 4c4b f5bd aab5 8fbd 9220 c7bd 7dab b6bd
00000030: 8446 093c f062 1e3d dbb8 b33c 41e5 ce3d
00000040: 85a6 46bd ceba 663d f581 78bd c656 e93d
00000050: f645 09bd e9a5 ad3d 9e1f d53d c449 be3d
00000060: 1aa1 dfbd 9032 95bc 1012 6e3d d1d1 acbd
00000070: a0ec 63bd 1e87 0e3e f403 60bc 7812 d6ba
00000080: 1d6d 3dbd f150 ba3d 2aa7 f73d 2a89 d1bd
00000090: ce5a 9bbd 195d 0d3e faf0 f6bd eefc e23d
000000a0: 85bc 163d d299 683d f5e5 56bd 8ded b1bc
000000b0: bcf4 0c3c 7cb5 b4bb 81b1 973d 17d4 373d
000000c0: 1b0f 853c b1c2 d83d 40f7 94bb f741 2ebd
000000d0: 9ee3 13be d69a 2b3e 1394 ae3b da5e 69bd
000000e0: 4b32 913d 6113 c53d 21d4 443c 7d2f d9bd
000000f0: ac2d 42bb 762d 78bc f75c 02bd afc4 dabd
00000100: eea1 cf3c a072 37bd 3f2a a3bc 69ee e23c
00000110: 68c3 76bc c29f ca3d 1a47 793d 3c3c 50bd
00000120: 9aad aebd 6879 a6bd 28b7 933a 511c d33c
00000130: ad0b 24bd ba2a 9b3d cd19 443d 4871 fc3c
00000140: e078 09bd a438 f63b f491 24bc e6b5 dabd
00000150: 05a3 5e3b f0a6 91bd 5339 af3d 0271 473d
00000160: 6409 253d cc69 193e 4544 8b3d 8818 743d
00000170: 3064 9a3b 0a48 353e fb34 dbbd 84b3 03bc
00000180: 33d8 093e d492 0dbe 1699 0dbe eae9 ff3c
00000190: ca2f cebd 1c3d d2bd 442d 0f3e 96cc 123e
000001a0: d0a8 5cba 12cb ddbc 1613 103d 40ea 25bb
000001b0: d7ad fa3d 948e ee3d 147e 5c3b e525 d53d
000001c0: 9081 853d d192 34bd 7b17 f53d 85bc 97bd
000001d0: 926b f23d 5a2c 86bd 9ab9 203c 2620 df3d
0.022918977 0.037377935 0.091688454 0.022069104 0.05361463 -0.0344679 -0.011260087 -0.01854226
-0.11977252 -0.070170715 -0.09723009 -0.089194275 0.008378629 0.038668573 0.021938732 0.101023205
-0.04849865 0.056330495 -0.06067081 0.11393504 -0.033513986 0.084789105 0.10406421 0.092914134
-0.109193996 -0.018212587 0.058122694 -0.08438457 -0.055645585 0.1391873 -0.0136728175 -0.0016332408
-0.046246637 0.090974696 0.12092431 -0.1023124 -0.07585679 0.13805045 -0.120576814 0.11083399
0.03680088 0.05678732 -0.052465398 -0.021719718 0.008603271 -0.0055147987 0.07406903 0.04488
0.016242554 0.105840094 -0.004546076 -0.042543378 -0.14442298 0.16758284 0.0053277104 -0.056975223
0.07089671 0.09622837 0.012013466 -0.10604761 -0.0029629273 -0.0151475575 -0.03182694 -0.10682046
0.025345769 -0.04478705 -0.019917605 0.027701573 -0.015061237 0.09893753 0.060858823 -0.050838694
-0.085292056 -0.08128625 0.0011269795 0.025770338 -0.040050197 0.07576509 0.047876168 0.030815735
-0.03356254 0.0075140763 -0.010044564 -0.106792256 0.003397168 -0.07111919 0.085558556 0.048691757
0.04029216 0.14981765 0.06800131 0.059593707 0.0047116503 0.17703262 -0.107034646 -0.008038405
0.1346138 -0.13825542 -0.13827929 0.031239469 -0.10067709 -0.10265562 0.13982111 0.14335856
-0.0008417489 -0.02707437 0.03517445 -0.0025316626 0.122401886 0.11648288 0.0033644484 0.104076184
0.06518853 -0.044085328 0.11967369 -0.07409004 0.11836924 -0.06551428 0.009809876 0.10894804

bn1.running_var f4 [120]
00000000: 1486 1840 b507 4e40 901e f93f 82de 4740
00000010: ceaa 4940 c30d f53f ad4d 4c40 bf4e 3640
00000020: ff78 4040 01bc f63f c605 5840 97c2 2140
00000030: 272e 6d41 e47d 1d40 4b91 2c40 c1ae 0740
00000040: 0431 4040 4707 0c40 b3e0 0940 9142 3540
00000050: f955 2840 3605 0740 a04c 3240 ee48 3640
00000060: 662b 5640 04bf 0d40 bd0e 3a40 cd99 1b40
00000070: a3cd 1540 6e3f 0940 1888 4940 78d9 1640
00000080: 1ea4 6b41 577e d63f 8730 1440 1b12 3540
00000090: 55fb 4540 bc14 8e40 cb09 1740 5a17 2840
000000a0: 98b6 f040 658b 1e40 1c6b 2240 c287 1b40
000000b0: 9384 f53f 3c6c 9940 2e5d 1741 9615 1540
000000c0: b661 1a40 0d86 2e40 ceba a540 b5d8 7140
000000d0: 41e0 1040 d387 3d40 5ef5 2840 8dfe 2340
000000e0: a93a 2c40 539e 3940 7e8f 0f41 ddf2 1340
000000f0: b0b0 da40 73fe 3940 013c 3640 df57 2640
00000100: cdb6 4140 8ba4 6440 44d2 0840 1ae2 3440
00000110: 8cde c840 b5e6 0d40 2523 0640 d46e 3c40
00000120: 12d4 2240 b4fb 1b40 6b2a 1740 8908 0140
00000130: 4a5a 4a40 05f9 ec40 c490 3b40 4db6 ec3f
00000140: 170d f740 2bf1 1040 ce8b 3641 a74c 2a40
00000150: e756 2440 fda2 3641 07bc 8e40 7422 2e40
00000160: c29b 1740 073c 2540 237d 1340 8953 ee3f
00000170: ce50 1940 045d 4c41 ec9b 1640 8c74 2d40
00000180: 6207 0540 ed78 ff40 183d 1340 8ae0 1b40
00000190: 139d 3b40 2f4c 2e40 33f1 6940 0a7c 0940
000001a0: df86 e33f 8c1d 0740 0307 0b40 ed30 0940
000001b0: 0e99 d53f 972b 1640 602b 4040 eaff 2f40
000001c0: 3039 3540 cdd0 d73f c1f3 0f40 4fcd 2541
000001d0: 87d1 d240 0d39 2140 772f 9640 51a1 0340
2.3831835 3.2192204 1.9462452 3.1229558 3.15105 1.9144825 3.192241 2.8485563
3.007385 1.9276124 3.3753524 2.5275018 14.823768 2.4608088 2.696368 2.1200411
3.0029917 2.1879442 2.1543396 2.832188 2.6302474 2.109693 2.7859268 2.8482013
3.3463988 2.2147837 2.9071496 2.4312623 2.340676 2.1444964 3.1489315 2.3570232
14.727568 1.6757306 2.3154619 2.82923 3.093465 4.440031 2.3599727 2.6264253
7.5222893 2.477258 2.5377874 2.430161 1.9181083 4.794462 9.460249 2.3294425
2.4122138 2.7269318 5.1790533 3.7788517 2.2636874 2.961415 2.639976 2.5624115
2.6910803 2.9002883 8.972532 2.3116982 6.8340683 2.9061553 2.8474123 2.5991132
3.0267823 3.572543 2.1378336 2.8263001 6.2771664 2.2172062 2.095895 2.9442644
2.5441937 2.4372377 2.361964 2.016146 3.1617608 7.405398 2.9307108 1.8493134
7.720348 2.2647197 11.409132 2.6609285 2.567804 11.414792 4.4604526 2.7208529
2.3688817 2.5817888 2.3045127 1.8619243 2.395557 12.772709 2.3532667 2.7102385
2.0785756 7.9835114 2.3006039 2.4355798 2.931462 2.7233999 3.6553466 2.1481957
1.7775534 2.1111784 2.172303 2.1436112 1.6687334 2.3464105 3.0026474 2.7499948
2.8316154 1.6860596 2.2492526 10.362624 6.588077 2.519107 4.693294 2.056721

fc2.weight f4 [100, 120]
00000000: 2c5b 39be 0b0a 44be 01af 00be e257 2ebe
00000010: e7cd bc3e dcac c0bc b8e4 88bd edb7 dfbc
00000020: ccd8 4bbe 04e5 333e 8e34 0a3e 703f 903e
00000030: 42fe 2d3c 3afe 00bd 2508 e33c 1f35 06be
00000040: 7350 12bc 97b3 5e3e c04a 803d c0df fbbc
00000050: 83d9 b73d d01c 2bbe 98ea 443d ef48 f73a
00000060: 8843 a5bd d224 063e 0b0a aa3d 4b4a 04be
00000070: bb02 dd3d 832c f83c 70d7 f4bd e5af cabe
00000080: 282a 4b3d 6aa4 b0bc 472a 2d3e 3bf2 c33d
00000090: bae3 50be 4424 45be 19f7 ff3d 7073 1abb
000000a0: 045c abbe e0e1 13be 7472 97bd 9a32 2ebe
000000b0: 3b59 cb3b 9e83 1dbe c4f5 1bbe 1abb 003d
000000c0: 65fb 813d a565 5a3e 9089 1d3e da5d ee3e
000000d0: c5cd 4fbd 6ce0 3abe 0f42 3c3d a430 9ebd
000000e0: 75e4 32be e0f7 3a3d c8e2 873d 2fcd 523e
000000f0: b91e 04be b812 6a3e 8ea2 2a3e af68 3fbe
00000100: 8cf1 2bbe fc1e 123e e0e8 073e e8d1 433e
00000110: 33c0 fc3d a85d 13bd 46b6 433d e9c9 6ebe
00000120: 6e7e 283d 93c6 9abc 8e4d 8f3e eb9f 003e
00000130: 33db b43d dd96 38bd 8563 a53b cd3b 923d
00000140: 355a a8bd 3da2 04be 2447 9d3e 5bb3 433e
00000150: c242 08be e258 1e3c 6436 dbbe e5a4 56be
00000160: fabc ecbd a276 f03d 3e96 ed3d b371 1b3e
00000170: db39 b23d dc66 823c 310d f03d 76f2 2fbe
00000180: 2d59 fd3a fb8b 5d3d 0015 4abd 7216 e2bc
00000190: 223f 1dbe bc3c 093d ed5e 42be a323 f83c
000001a0: 2d28 0a3b c230 e7ba 524f 673c 402c 18be
000001b0: b3d6 573e 72f7 373d cb18 e53d e781 e43b
000001c0: d641 1dbe e1b4 533e a780 1cbd c1da 313e
000001d0: 2f46 bd3d 2946 213e ae16 11be 5dd4 893d
000001e0: 7bc1 8e3e b9d3 fcbd 55c0 4abd f50a af3c
000001f0: a4c0 85be b260 80bc 53ac 3d3d 6c58 bf3c
00000200: 134c fabb 11fd 72bd 4676 a83d e883 94be
00000210: b7f2 63bc 5425 673e 5ccb 953d 7adc 7bbe
00000220: f73f 9ebd 057d 02be 2a5c 6e3d fc5e f7bc
00000230: 290a 24be fa5c 1e3e df7d f43d a922 a5bd
00000240: 9634 91be c05d db3d 1bea 91be f197 21be
00000250: 2007 103e cfad b2bd 691d 82bd 8d7d 2b3d
00000260: 4545 57bd aadd c7be 28b4 823e 72d6 863d
00000270: 6374 7bbd 3d38 9fbe be78 f8bd b2c0 71bd
00000280: ec22 953d fa96 823d 2da5 d3bc 0299 b23d
00000290: e7a0 f7bd 0d60 a7bc 89ff 5dbd 9ab1 dc3d
000002a0: 8943 ac3a 36d0 303e c8b3 a73c 4771 10be
000002b0: bdc9 58bd 309b 4f3d 5189 783d a569 a3bd
000002c0: b91e fdbd 9f85 793e 10d2 56bd af42 41bd
000002d0: a502 f6bd 36a6 c5bd f031 203d e9cf 9eba
000002e0: b9e2 0f3c d7f6 9c3c cfd3 12bd 3566 5d3d
000002f0: 6927 b43d 6a8e 02be b757 3ebd b960 383e
00000300: 5510 7cb8 6a75 fbbd 8496 17bd 230d 813d
00000310: 5d35 06be aab1 9f3e e23e 41bd 65d6 863d
00000320: e745 133e db28 8f3e aa5a 8abe d3c0 0bbe
00000330: 8c19 a0bd 4b09 85bc 15d2 dfbd a431 eabd
00000340: 2660 aa3d 05d3 09be 7d83 05be 3905 123e
00000350: d678 05bc 61dd 66bd bd7d d63d f648 603c
00000360: e65e 5dbe c8c2 c53c 9191 f0bd 345e a33d
00000370: 4afe 68be 3c1e 4fbe 8f51 253e e034 67bd
00000380: 2578 933d 5167 243e 5124 1bbd 39cf a2bb
00000390: 22bc 3ebd bd0d 883d d309 c5bc 7f39 a2bd
000003a0: 01a7 9cbd c01b f83d 88c4 4ebe 19bd fe3c
000003b0: f65b bc3d 80c6 70bd 9e85 c5bd 7faa 63be
000003c0: c983 503d 8ffd f43d 68b6 fabd 3914 143e
000003d0: a80c 69be 0dfb 143c f9ae dd3c 98fd 233e
000003e0: c168 54bd 60d9 16be 6e1e 93be a42f 543c
000003f0: 00e5 443e 6c67 bd3d b920 7bbe 9502 68be
-0.18101186 -0.19144456 -0.12566759 -0.17025712 0.3687584 -0.023519926 -0.0668425 -0.027309382
-0.1990692 0.17567831 0.1349661 0.281734 0.010619702 -0.03149245 0.027713845 -0.13106202
-0.008930313 0.21748196 0.062642574 -0.03074634 0.08977034 -0.1671021 0.04807529 0.001886634
-0.08069521 0.13099983 0.08302697 -0.12918966 0.107915364 0.030294662 -0.11955154 -0.39587322
0.04960075 -0.021562774 0.16910659 0.09567686 -0.20399371 -0.19252115 0.12498302 -0.0023567341
-0.3346864 -0.14441633 -0.07394877 -0.1701149 0.0062057055 -0.15382239 -0.15230471 0.031428434
0.06346778 0.21327837 0.15384507 0.46555978 -0.050733346 -0.18249673 0.045961436 -0.07724121
-0.17469962 0.04564655 0.06635052 0.20586084 -0.12902345 0.22858703 0.16663572 -0.18692277
-0.16791362 0.14269632 0.13272429 0.19123042 0.123413466 -0.03597799 0.04778125 -0.2331921
0.041136198 -0.018893516 0.27988857 0.12561004 0.088308714 -0.04506575 0.005047264 0.07140312
-0.082203306 -0.12952514 0.30718338 0.19111387 -0.13306716 0.009664746 -0.42814934 -0.2096134
-0.11559482 0.117413774 0.11600922 0.15180092 0.08702441 0.015918188 0.11721266 -0.17182335
0.0019328945 0.054088574 -0.049336433 -0.027598593 -0.15356115 0.033505186 -0.18981524 0.03029043
0.0021081076 -0.0017638432 0.0141180325 -0.1486063 0.21077995 0.044913717 0.111863695 0.0069734934
-0.15357146 0.20674469 -0.03820863 0.17368604 0.09241902 0.1574942 -0.14168808 0.06729958
0.2788199 -0.123450704 -0.04949983 0.02136753 -0.26123536 -0.015671108 0.04630692 0.023357593
-0.0076384633 -0.059323374 0.08225684 -0.29006886 -0.013912848 0.22572833 0.07314178 -0.24595824
-0.07727044 -0.12743004 0.058193363 -0.03019666 -0.16019501 0.15465155 0.119380705 -0.080632515
-0.28360432 0.10711241 -0.2849892 -0.15780617 0.14065218 -0.087245576 -0.06353266 0.04186778
-0.052556295 -0.39036304 0.25528073 0.06583871 -0.061390292 -0.31097594 -0.12132405 -0.05902166
0.072820514 0.06376453 -0.025835598 0.0872059 -0.120912366 -0.020431543 -0.054198775 0.10776062
0.0013142686 0.17266926 0.020471469 -0.14105712 -0.052926768 0.050685108 0.06067783 -0.079791345
-0.123593755 0.24367379 -0.052446425 -0.047182735 -0.12012223 -0.09650843 0.039110124 -0.0012116405
0.008782082 0.019160671 -0.035846528 0.05405255 0.087965794 -0.12749639 -0.04647037 0.18005647
-6.0096692e-05 -0.12278254 -0.037008777 0.06301334 -0.13106294 0.31190234 -0.04717911 0.06583861
0.14382134 0.27960858 -0.27022296 -0.13647775 -0.07817373 -0.016239783 -0.10928742 -0.114352494
0.0831912 -0.13459404 -0.1303844 0.14259805 -0.008146485 -0.056363467 0.104732014 0.01368927
-0.21618232 0.02414073 -0.117465146 0.07976952 -0.22753254 -0.20226377 0.16144393 -0.05644691
0.0720065 0.16055037 -0.03787643 -0.0049685505 -0.046566136 0.06643245 -0.024052536 -0.07921123
-0.07649041 0.12114668 -0.20192158 0.031096028 0.09197228 -0.058783054 -0.09644626 -0.22233008
0.05090693 0.11962425 -0.122418225 0.1446084 -0.22758734 0.009093058 0.027060973 0.16014707
-0.051857714 -0.1473136 -0.28734154 0.012950812 0.19227982 0.09248242 -0.24524201 -0.22657235

fc2.bias f4 [100]
00000000: 3544 73bd 54f3 003d dfe0 19bd f6ec c8bb
00000010: 64b0 0b3c 3a89 db3c 94da 873c aa2b b9bc
00000020: 6039 a83d afd2 303d b4a4 acbc 7010 40bd
00000030: 8056 7abd 41cc 66bd 0410 1ebd 0a2a 743d
00000040: 3873 073d 480a 8fbd 3314 84bd 6d3a b53d
00000050: 0321 533d ee49 b4bd 9950 893d 361a 203d
00000060: c1f5 6d3a 4b94 81bd 9d3f 74bd b557 273d
00000070: f678 a8bd 8661 c0bc 8158 aabd 0f9d 523d
00000080: 904c fb3b d4ed 513d c51f 203d 36b5 703d
00000090: 68e8 3fbd 5368 7dbd aeea 92bd 81fa 5abc
000000a0: 4efc 883b e51d 2bbd 7163 8aba dc91 a0bd
000000b0: 4ae8 803d 19b5 863d ec54 763d c1f6 bdbc
000000c0: decc 42bd e2f6 163b 2466 b03b 6cbd 51bd
000000d0: af78 073d f6d2 813d 350a 92bc 210d b13d
000000e0: 0c32 843d 79cd 91bd 45db 7cbd c923 6dbd
000000f0: 583a 563d f71c 013d ba33 8e3d a3eb 16bd
00000100: 9624 11bd 8097 5dbd 829a aa3d fcc8 a63d
00000110: bd43 79bc 9c3e b33d 6c2b b3bd 6eb9 b7bd
00000120: c0e2 9f3c 31aa 9b3d 5c7d a53c 1665 64bd
00000130: 1f6b 173d ce55 56bc 5a52 983d bfcf dbbb
00000140: 54b0 9b3d fc97 42bd 552e 733d 42f8 f13b
00000150: 4938 1e3d 1568 6c3d e9ba ce37 29ab 923a
00000160: 5fa6 3ebc 646e e7bc dd8f 44bc 6476 403d
00000170: cadb 2fbd e318 48bd a3be 7e3d af10 e8bc
00000180: 2744 b8bd 5244 f6bc 9832 f23c eef6 4bbd
-0.05939122 0.031482056 -0.03756797 -0.0061317636 0.0085259415 0.026798833 0.016583718 -0.022603828
0.082140684 0.043169674 -0.02107463 -0.046890676 -0.06111765 -0.056347135 -0.038589492 0.059610404
0.033068866 -0.06984383 -0.06449165 0.088490345 0.051545154 -0.088031635 0.06704826 0.039087497
0.00090774527 -0.06327113 -0.05963098 0.04085513 -0.082261965 -0.023484003 -0.08317662 0.051419314
0.007669039 0.0512522 0.039092798 0.058766566 -0.0468525 -0.06186707 -0.07173668 -0.013365389
0.0041804677 -0.041776557 -0.00105582 -0.078403205 0.062943056 0.065775104 0.06013958 -0.02318895
-0.047558658 0.0023035337 0.00538327 -0.051206037 0.033074077 0.06339066 -0.017827133 0.08645082
0.06454858 -0.07119269 -0.06173255 -0.057895456 0.052301735 0.031521764 0.0694346 -0.036845814
-0.03543528 -0.05409956 0.08330251 0.081438035 -0.015213904 0.08752176 -0.087485164 -0.08970915
0.019517303 0.07600821 0.020201378 -0.055760466 0.036967393 -0.013081981 0.07437582 -0.006708115
0.07601991 -0.047508225 0.059370358 0.007384331 0.038627896 0.057716448 2.464415e-05 0.0011189926
-0.011636346 -0.02825088 -0.01199719 0.046987906 -0.042934217 -0.04885186 0.062193524 -0.028328268
-0.08997374 -0.030061875 0.02956514 -0.049796037

bn2.weight f4 [100]
00000000: 444b ec3e bf9a b03d 458d 893e e600 de3e
00000010: 6fa9 a53c e399 4f3d a193 d93f 4402 003f
00000020: dcd7 db3e f945 ba3f e92e ee3d 8fc7 dc3f
00000030: 4c09 f33e e59e 0040 5e02 ba3f fa75 0a40
00000040: f539 f83f 1872 d03e 4cd5 983d 5660 b03e
00000050: 3e0d 793e dd36 643e 8aec 843f abbe eb3f
00000060: 50bb 3a3e 683c 8b3e a495 023e 5d5c 143e
00000070: a94e d53e 05df 4a3e 3db2 043e 98ac f23f
00000080: 1920 d83e 9d20 a63f c820 b53d bbf0 203e
00000090: 91b5 d23f 0f1d e53d 10f2 133e 26ba 8c3e
000000a0: fff5 0440 d294 a63f 93e8 b73e 7c10 fe3d
000000b0: 2fd6 2c3e c7df 1e3e 8a20 d33f 68b2 853e
000000c0: 5a6e a43e 9929 ff3f c15e e03e 49b0 0040
000000d0: 9426 b93e d238 ff3f 1804 983f fce2 a43e
000000e0: 2fcc 9c3d 35ab ed3e 6862 703e c1bb 253f
000000f0: 540a f73d 0001 0340 2dfa e73f 20b7 0240
00000100: 950c 143e d95b cc3f 1ffa 0340 e10f 0140
00000110: c22e c93f 249c 263e 6642 cb3f 54b5 f43e
00000120: 5ca9 4d3e 0f4c a33f 4c44 943e cb01 283e
00000130: a3de 233e 1c5e 153f 4715 d63f 463c b83e
00000140: ff47 2a3c 1b4e d43e 51fc 393e e3a0 f53f
00000150: fc13 c63e 1c4b b83e 8110 eb3f 1bad 483e
00000160: 02ff 1a3e da6a 263e 7d0d 083f 3806 233e
00000170: 8eb3 493e d52f 063e afe3 883e 4516 3e3e
00000180: 95c8 f03f c160 a53f 2d08 b23e 739a 463e
0.46151173 0.086232655 0.26865593 0.4336006 0.020222394 0.050683867 1.6998178 0.5000346
0.42938125 1.4552604 0.11630041 1.72484 0.4746803 2.0096982 1.4531972 2.1634507
1.9392687 0.40712047 0.07462558 0.34448498 0.24321458 0.22286554 1.0384686 1.8417562
0.18235517 0.27194524 0.12752396 0.14488359 0.41661575 0.19811638 0.12958618 1.8958921
0.4221199 1.2978703 0.08844143 0.15716831 1.646166 0.11187183 0.14447808 0.2748577
2.0775144 1.3014166 0.35919628 0.12405488 0.1687858 0.15515052 1.6494305 0.26112676
0.32115442 1.993457 0.43822291 2.0107596 0.36162245 1.9939215 1.1876249 0.32204425
0.076561324 0.46419683 0.23475039 0.64739615 0.12062517 2.046936 1.8123223 2.042427
0.14457925 1.596553 2.0621412 2.0165942 1.5717394 0.162705 1.5879638 0.47794592
0.20084137 1.2757586 0.28958356 0.16406934 0.16002898 0.58346725 1.6725243 0.35983485
0.010393142 0.4146584 0.18162657 1.9189724 0.38687122 0.35994804 1.8364412 0.19597284
0.1513634 0.16251698 0.5314558 0.15920341 0.19697401 0.13104184 0.2673621 0.18563183
1.8811213 1.2920152 0.34771863 0.19394855

bn2.bias f4 [100]
00000000: ec24 333e 2b55 db3c 7329 a2bd ccd3 28be
00000010: 3dc8 933d 5a49 b3bd 106d 98bf ddfa f0bd
00000020: 518f 4abe 31be 8dbf 72bc 743d a921 a8bf
00000030: e08c 8cbe 4f4d a73f 8739 863f 1990 b5bf
00000040: 60c0 9e3f 9a55 c7bd 179c d73c 926e 1dbe
00000050: 47a1 f13d 46bd de3c f564 2abf 92c5 ac3f
00000060: ecf1 0dbd 36da e73d 06aa c13d 81a4 14bd
00000070: 8d21 8ebe 86b7 643c a28f e73d 16e3 b7bf
00000080: 6b3d 5b3e 7fc5 6a3f 5ae5 353d ccb6 ca3c
00000090: 8410 9abf 3e5a 06be b338 3fbd f758 00be
000000a0: 0e39 b43f 2a3c 8b3f f7f0 3b3c 2085 003d
000000b0: 9cf1 16bc c5d7 e33d 4321 a6bf 433a a3bd
000000c0: 797f 623d e8de b7bf 4377 babe 0652 c2bf
000000d0: 20c7 45be c5b9 a8bf ac79 63bf 6ae6 2fbe
000000e0: ecce 31bc c23e 633e 2a1d 4dbd 9820 6d3e
000000f0: f8fb e2bd f498 b5bf b5e0 a3bf 5147 bb3f
00000100: a603 94bd 38d0 a0bf 2c46 b7bf ae43 b0bf
00000110: 87b0 933f 8255 c6bc 36ce 893f 18b6 4dbe
00000120: a47d 9cbd 88a4 5e3f de95 0f3e 45b5 373e
00000130: d032 723d 36e0 b6be 48c1 963f 1e09 853e
00000140: e777 8dbd 5860 49be ae93 d23b a650 a13f
00000150: f082 38be e4c3 863d f188 9ebf e657 033e
00000160: ce25 54bd 0e89 07bd 356b 423d f6af 453d
00000170: ca45 4abd feb7 df3b 71d9 b5bd d70c 4eba
00000180: a73b b1bf f019 70bf 2353 3bbe cca4 abbd
0.17494553 0.02677401 -0.07918062 -0.16487044 0.07215927 -0.08754225 -1.1908283 -0.117665984
-0.19781233 -1.1073667 0.059750028 -1.3135272 -0.2745123 1.3070468 1.0486306 -1.41846
1.2402458 -0.09733124 0.026319547 -0.1537421 0.11798339 0.027189862 -0.665603 1.3497794
-0.034654543 0.11320917 0.094562575 -0.036289696 -0.27759972 0.013959771 0.11306693 -1.4366176
0.21410148 0.91707605 0.04440818 0.024745367 -1.203629 -0.13120362 -0.046684932 -0.12533937
1.4079912 1.0877736 0.011471025 0.031376958 -0.009212878 0.11125139 -1.2978901 -0.07970097
0.05529735 -1.43649 -0.36419114 -1.5181282 -0.19314241 -1.3181692 -0.8885753 -0.1717774
-0.010852557 0.22191909 -0.05007664 0.23156965 -0.110832155 -1.4187303 -1.280295 1.4631139
-0.072272584 -1.2563543 -1.431829 -1.3770654 1.1538247 -0.024210695 1.0766056 -0.20088995
-0.076411515 0.86969805 0.14022014 0.17940243 0.05913049 -0.35717934 1.1777735 0.25983518
-0.06907635 -0.19665658 0.006426296 1.2602737 -0.18018699 0.06580332 -1.2385541 0.128265
-0.051793866 -0.03308969 0.04746552 0.048263513 -0.049382962 0.0068273535 -0.08879364 -0.00078601897
-1.384633 -0.9378958 -0.18293433 -0.08381042

bn2.running_mean f4 [100]
00000000: dc2e 7e3e 9836 aabf 2b3d acbd 12ef 29bf
00000010: 55c8 b13f 8601 5c3f 61c4 c4bf b8a1 783f
00000020: af9b 853f 1780 e0bf c3ac 9d3e 010f eebf
00000030: adc9 85be 6244 e53f 1081 b43f 25c4 15c0
00000040: 0351 2840 4ecb 953f 52f1 87bf 856c 953d
00000050: 1a0f 003f f185 fe3e e631 16bf 0aab 0640
00000060: 589a 36be f4db a63f 31f3 f1be 37e6 8a3e
00000070: 006c 253f b623 abbf bf1d c4be 4200 e7bf
00000080: c3a6 763f 785e c53f d12b 1e3f 41c1 0d3f
00000090: d458 92bf 420c 3b3f e98d 173f f35a 07bf
000000a0: be10 1840 4141 2f3f 86e9 213e 0aae 933e
000000b0: 56eb bd3e 7c11 89bd f20e c53c 0bdb 253e
000000c0: 7190 debd 4f80 4abf ce41 b7bf 1806 20bf
000000d0: 5db4 0e3f 4ed8 12c0 8a0d 9ebf 83d8 413e
000000e0: b17c 8d3d 0358 673f 623e 27bf 19cc 85be
000000f0: bbe8 6dbe 19dd 08c0 48b0 86bf fd01 d83f
00000100: c2bd efbe df6c 39bf 44dd aabf 2722 59bf
00000110: affa 913f da8a f9bd ddf6 dc3f 201d c6be
00000120: b419 5dbf b795 0940 9e33 983f 7d53 993f
00000130: 2ac0 8fbf 8aec 82bf a6ea c13f 7e23 573f
00000140: 1714 413e 8247 eabe 7e1c 8d3e cc31 2240
00000150: 75e0 d7be 2989 14bf 9759 0bc0 f067 1abf
00000160: 1b73 583d ed76 0abf 914c 3cbf e5ef 553e
00000170: 043d 7cbd 11ce 263e fda6 9c3e 81b0 7b3f
00000180: 346b cebf bb65 bfbf 7fc9 293e 730b 02bf
0.24822563 -1.3297911 -0.08410104 -0.6638042 1.3889261 0.85939825 -1.537243 0.97121763
1.0438136 -1.753909 0.3079587 -1.8598329 -0.2613043 1.7911494 1.4101887 -2.3400967
2.6299446 1.1702669 -1.062052 0.07296089 0.50023043 0.49711564 -0.5866989 2.1041894
-0.17832315 1.3035874 -0.47255853 0.27128765 0.6461792 -1.3370273 -0.38303944 -1.8046954
0.9634821 1.5419455 0.6178561 0.5537301 -1.1433358 0.7306558 0.5920091 -0.5287315
2.3760219 0.68458945 0.15811738 0.2884372 0.3709361 -0.06692788 0.024054978 0.1619684
-0.10867394 -0.79102033 -1.4316957 -0.625093 0.5574396 -2.2944522 -1.2347882 0.18930249
0.069085486 0.9036867 -0.65329564 -0.26132277 -0.23233311 -2.1384947 -1.0522547 1.6875607
-0.4682446 -0.7243175 -1.3348775 -0.8481774 1.1404628 -0.12184687 1.7262837 -0.38694096
-0.86367345 2.1497629 1.1890752 1.1978604 -1.1230519 -1.0228436 1.5149734 0.8403853
0.1885532 -0.4575768 0.275608 2.5342894 -0.42163435 -0.5802179 -2.1773431 -0.60314846
0.052844148 -0.54087716 -0.7355433 0.20892294 -0.061581627 0.16289546 0.30596152 0.983162
-1.6126466 -1.4952921 0.16580771 -0.5079872

bn2.running_var f4 [100]
00000000: ac1a ca40 7ef0 1140 ed6c d940 a55e 1041
00000010: 722c 8340 db4f 3140 54e3 d741 0854 ff40
00000020: a55d 1441 84df 4f41 f925 2640 6a3e c641
00000030: 349b 0a41 af70 8041 b2b1 9141 697a cd41
00000040: 0df9 6d41 a993 da40 032d 3740 d8b8 a040
00000050: be1f 9f40 a452 2f40 1ade 4841 4d61 be41
00000060: 23af 4740 a67b c740 e9b5 2a40 b973 2440
00000070: e623 5f41 c5a5 2440 0b9a 5d40 1f4d 8f41
00000080: 3a0e c340 4603 8241 b53a eb3f a08b 4a40
00000090: 46da 6341 db38 6340 024b 0a40 5fd7 ce40
000000a0: 882a 8841 129e 4241 0ce8 b440 fd2e 2c40
000000b0: bf31 0940 15ef 7240 2bc5 c241 b229 a340
000000c0: d4f4 ac40 a65f 8941 db3b 3341 f76b ae41
000000d0: eec4 0541 9453 5d41 68f8 e640 8328 8040
000000e0: 5f93 f33f 5e0e 0841 0821 8340 4509 0141
000000f0: 23a8 5a40 d365 c341 008e bb41 d4ac 0542
00000100: 9da5 3e40 8ad1 3841 e67c 8741 776a 8741
00000110: e239 6d41 57dc 7340 16aa 5e41 b4ad c040
00000120: 5a8d 4640 0299 5241 7342 6340 2235 aa40
00000130: 3e55 3d40 1612 d140 4fdb 4941 3000 ae40
00000140: 195f 0140 59f3 dd40 c698 d03f 83dc 7f41
00000150: e491 9c40 1518 b440 0798 bf41 1a67 a140
00000160: 9d05 9b40 79c4 1d40 c31c e540 8633 2340
00000170: 0a4f a640 b606 c83f 75bf 8e40 6cfb 9540
00000180: 7cdc bb41 208a 9f41 7e12 e340 14e8 4640
6.315756 2.2803035 6.7945466 9.023107 4.0991755 2.770499 26.986 7.9790077
9.272862 12.992069 2.5960677 24.780476 8.662891 16.055021 18.211765 25.68477
14.873303 6.830525 2.8621223 5.022564 4.972625 2.739419 12.554224 23.79751
3.1200645 6.233844 2.667353 2.5695632 13.946264 2.5726178 3.462527 17.912657
6.0954866 16.251598 1.8377291 3.164772 14.240789 3.5503452 2.160828 6.4637904
17.020767 12.163591 5.653326 2.690368 2.1436613 3.7958424 24.346273 5.0988398
5.4048862 17.171703 11.202113 21.802717 8.360579 13.832905 7.217823 4.0049453
1.9029349 8.503508 4.097782 8.064763 3.4165123 24.424719 23.444336 33.418777
2.9788582 11.551157 16.935986 16.926985 14.826632 3.8103235 13.916525 6.021204
3.1023774 13.162355 3.5509307 5.318986 2.9583278 6.5334578 12.616042 5.437523
2.0214293 6.9359555 1.6296623 15.991336 4.892809 5.6279397 23.949232 5.0438356
4.844435 2.4651167 7.159761 2.5500197 5.1971483 1.5627048 4.460871 4.686941
23.482658 19.942444 7.0960073 3.107915

fc3.weight f4 [46, 100]
00000000: b6bd f03d 5654 d7bc 991f e0bc 45e9 933c
00000010: 5955 d53d 34ca 92bc 9c0f e73c 2901 18bd
00000020: 7d5f e6bc 6a99 d53c 9956 c73c b45d d1bc
00000030: 5427 dbbc aaa1 4c3c 1794 a13b abe8 76bc
00000040: 9709 37bc 6583 223d 670e c6bc 71e5 5cbd
00000050: 4b42 153d bdf9 ffbc 78b4 78bd b72e 22bf
00000060: a022 8b3a 1ceb 653b 4906 243e 759c 483c
00000070: 7db3 6fbe b49d 8c3c 4a96 ff3d 6da4 9b3c
00000080: e971 263c 6025 35bd b103 123d b29a db3d
00000090: 7f71 ee3b 1894 1f3d e4b4 00be 81df f7bd
000000a0: 4a60 4d3c af3e 803c 03ed 103d 697b 0f3e
000000b0: e97f 363c 4981 4d3b 625e 033c 279c fc3c
000000c0: 98ed 07bd 3f58 433a 8cf0 0bbe fca3 0a3c
000000d0: 3b50 66bd 1995 92bb 4ec7 173c 9416 b4bd
000000e0: 24d9 77bd 23e6 2fbc 518b 20bc 687d d73c
000000f0: 7edc 01be a5e6 a2ba e731 ccbc 1a9c 2dbc
00000100: 26d5 68bc 3b76 09bb ef0d c0bb d76a 3dbb
00000110: 1f17 c8bb 2479 07bc dde6 cfbc 87c4 203d
00000120: a6c7 24be d27d 0c3c 5107 ac3d 1352 48bc
00000130: 250f e83d 4509 b5bd 01cb 963c fecc 143d
00000140: 4aa7 08be e30d f73d 1ac0 c0bc 8317 60bc
00000150: 9c48 b5bc 264a bcba 716d 983c 9087 56bc
00000160: 300d a1bb 175f d0bd cbbf 0abd e543 abbd
00000170: 090e 8c3c 3fda 0d3d f1b6 723c d014 3f3d
00000180: 3f23 8039 7643 9e3c 2ecb 73bd 6f14 81bd
00000190: b71c d63c f7db bbbc 9905 e9bc adcd d13b
000001a0: 7fd8 cc3d dc4a e8bd 6222 81bc bc79 86bd
000001b0: c5ef f5bd 6f7a 45bb 7bc2 a33c 7641 8fbc
000001c0: 72a9 64bd d013 aabb 7ee9 53bc fe9a 9539
000001d0: 29ca fb3a e007 fc3d ba93 a1bc 8aab a7bc
000001e0: 49e1 14bd 46df 993c 0c01 25bd 971c 23bf
000001f0: be26 723c e764 033e 14b9 e7bd 1776 21bd
00000200: 69ee 30be 4286 893c 7eee 15bb f27c c9ba
00000210: bb1e af3c a0e5 03bb 0213 a03d 9451 d9bc
00000220: 5175 a4bc 6f4b b3bd 3717 35bd 3dfa 43be
00000230: 98da ffbb 2a8f 1b3c c2bd e7bc 59fd cebd
00000240: 11c2 17bc f3f8 d93d 3a8a e2bb 103b 0e3d
00000250: b605 053d ca06 b4bc e1c1 303c 5fad a5bb
00000260: d930 91bd 2739 873b 468c e738 e893 15bd
00000270: d3a4 c2bc 5c4c 5bbc cb45 0ebd c062 893c
00000280: 326d c1bd 462c 7d3c 84a3 d63c 57f1 0a3d
00000290: 2a8e bd3b f9f3 1b3c 7ba6 a33b cdfd ba3b
000002a0: 1f1b e0bc b4c3 a63a cf67 a13c a546 ff3c
000002b0: 6128 1d3d 121a e3bc 1393 79bb 9086 a73d
000002c0: 7333 d63c 6fd5 3a3d efb1 faba 0290 9d3b
000002d0: 1f28 a0bd f92a b53d 079e 5e3c 5ed4 3cbc
000002e0: 3220 96bd aa86 f33d 38ab debb dea7 dabc
000002f0: 516e 92bd 5a6b 9a3c 85a7 bdbd 3446 c13d
00000300: 2324 5abd e0cd 353d acff 19bd 49ff 5f3d
00000310: 5d28 afbc 954f a33a 9209 17bd 1cee 9fbd
00000320: 9d6e b0bc d153 1e3c 8be1 883c 4782 813d
00000330: 612c 973d 694f fcbd cb15 e4bb a93a a93c
00000340: d4cf 36bd b01b ad3b fc0e d43d 5377 783b
00000350: 66fa 81bd d9ed 743c 59bf afba d4e6 97bb
00000360: 9924 253b 3526 3abd 4704 f7bb 410f 65bd
00000370: d077 0e3d c3ba d33b 985f a9bb e578 923c
00000380: c0aa f3bc d7ef 02ba ae56 ea3d dd94 063d
00000390: d80e 18bc 4f00 4f3d b452 a53d c0aa 393c
000003a0: 8715 313d 4938 02bd a6ca 813c b319 e53b
000003b0: 248f a63b 77ca 44bd 03fb 0b3d 3d13 27bd
000003c0: 23f5 453c 547d 5fbc ce6f d03c 6818 5ebc
000003d0: 45f4 3ebd 2539 9fbc 90a3 9f3c 7be0 d4bd
000003e0: f2ad a4bc f09b 65bb abc0 283d f903 2b3f
000003f0: 32ff 4ebd de3c e73b 949a 78bb ed42 bebd
0.117549345 -0.026285332 -0.027358817 0.018055568 0.104166694 -0.017918684 0.028205685 -0.03711048
-0.028121704 0.02607413 0.024333285 -0.025557376 -0.026752152 0.012489716 0.0049309838 -0.015070121
-0.01117172 0.03967609 -0.02417679 -0.05392975 0.036440175 -0.031247014 -0.060718983 -0.6335253
0.0010615177 0.0035082763 0.16018023 0.0122443335 -0.23408313 0.017165042 0.12479837 0.018999303
0.010158994 -0.044225097 0.03564805 0.10722865 0.0072767134 0.038959593 -0.12569004 -0.12103177
0.012535164 0.01565489 0.035382282 0.14011921 0.011138895 0.0031357578 0.008018108 0.030836178
-0.03318557 0.00074518094 -0.1366598 0.0084619485 -0.056228857 -0.00447334 0.0092638265 -0.08793369
-0.060509816 -0.010736021 -0.009798841 0.026304916 -0.12681767 -0.0012428357 -0.024926139 -0.0105963
-0.014210975 -0.0020975012 -0.005861036 -0.0028902793 -0.006106272 -0.008268628 -0.025378639 0.039249923
-0.16091785 0.00857492 0.08399833 -0.012226599 0.113310136 -0.08839659 0.018407347 0.03632831
-0.13345066 0.120631956 -0.023529101 -0.013677481 -0.02212935 -0.001436536 0.018606873 -0.013093844
-0.004914902 -0.10174387 -0.033874314 -0.08362559 0.017096536 0.034631964 0.014814124 0.046650708
0.00024440323 0.019319277 -0.05951994 -0.063027255 0.02613674 -0.022932036 -0.028445052 0.0064026923
0.10002231 -0.11342403 -0.015763465 -0.06566188 -0.12008623 -0.003013279 0.019990196 -0.017487269
-0.05582566 -0.00519035 -0.012934087 0.00028534973 0.0019210029 0.123061895 -0.019723762 -0.020467538
-0.03634766 0.018783223 -0.0402842 -0.637155 0.014779745 0.1283146 -0.11314598 -0.03941926
-0.17278446 0.016787652 -0.0022877748 -0.001537232 0.021376958 -0.002012588 0.078161255 -0.026528157
-0.020075472 -0.08754622 -0.044211593 -0.19138427 -0.007808041 0.009494582 -0.028288726 -0.10106916
-0.009262578 0.106431864 -0.0069134505 0.034724295 0.03247615 -0.021975894 0.010788412 -0.005056068
-0.07089395 0.004126686 0.00011041066 -0.036518008 -0.023760235 -0.013384905 -0.03473453 0.01677072
-0.094446555 0.01545245 0.026201017 0.033921566 0.0057847695 0.009518617 0.0049942113 0.005706525
-0.027356682 0.0012723119 0.01970282 0.031161616 0.038368586 -0.027722392 -0.0038082048 0.08179963
0.02614758 0.045613702 -0.0019126515 0.004808427 -0.078201525 0.08846087 0.013587481 -0.011525242
-0.073303595 0.118909195 -0.006795313 -0.026691373 -0.071499474 0.018850017 -0.092604674 0.09437218
-0.05325712 0.04438579 -0.037597343 0.05468682 -0.021381551 0.001245963 -0.03687436 -0.07809088
-0.02153712 0.009663538 0.01670911 0.063236766 0.073815115 -0.12319834 -0.0069606057 0.020657854
-0.044631794 0.0052828416 0.103544205 0.003791292 -0.06346588 0.014949285 -0.0013408466 -0.004635671
0.0025198816 -0.045446593 -0.0075383517 -0.05592275 0.03478223 0.0064614727 -0.0051688664 0.017879913
-0.029744506 -0.00049948454 0.11442314 0.03285681 -0.009280883 0.050537404 0.08072415 0.011332214
0.04323342 -0.03179196 0.0158437 0.006991589 0.0050829817 -0.048044648 0.03417493 -0.04078983
0.012082371 -0.01364072 0.025443938 -0.013555624 -0.046619672 -0.019436428 0.019487172 -0.10394379
-0.020102475 -0.0035035573 0.041199367 0.66802937 -0.050536342 0.0070568165 -0.0037933933 -0.09290109

fc3.bias f4 [46]
00000000: ba00 923e 9168 aa3e 7c3c ba3e 7126 cc3e
00000010: fb33 a93e 8778 fa3e e52f 013f 75dc d03e
00000020: 0b32 6e3e 9578 bf3e 664a b83e 16ef c23e
00000030: d118 aa3e e230 cb3e 41db 9f3e eddd a43e
00000040: 9487 ae3e af27 c33e fc66 a83e 1be6 d53e
00000050: 512b 993e d692 9c3e 345d b93e 9c84 cf3e
00000060: d9c8 a43e 5e1c b93e 9903 c53e b97b a63e
00000070: bd2a bc3e 1e2a e13e ba57 b93e d6ed e13e
00000080: 1cfd db3e 38d4 aa3e b85b 823e 5f38 8b3e
00000090: ac36 ef3e eade 853e 30e6 db3e 1508 c73e
000000a0: 8fd4 b93e 7292 d83e fd79 b93e 7313 da3e
000000b0: ec15 473e 37e5 bb3e
0.2851618 0.33282903 0.3637427 0.39873078 0.3304747 0.4892008 0.50463706 0.40793195
0.23261277 0.37396684 0.35994262 0.38073033 0.33222058 0.39685732 0.31221965 0.32200566
0.34087813 0.38116214 0.3289107 0.4177712 0.2991586 0.30580777 0.3620392 0.4053086
0.32184485 0.36154455 0.38479307 0.32516268 0.36751357 0.43977445 0.36199743 0.44126767
0.42966545 0.33365035 0.254606 0.27191445 0.467214 0.26146632 0.42949057 0.38873354
0.36294982 0.4229923 0.36225882 0.42592964 0.19441956 0.36698315
