mp4-machine-learning-template/model/model.pth (torch, 89342 bytes, 14 tensors)

fc1.weight f4 [120, 51]
0	0x3d3dc12b	0.046326797
1	0xbe83e2ee	-0.2575907
2	0xbe2cce9a	-0.16875687
3	0x3de8ba8d	0.11363707
4	0xbd9fb0c3	-0.077973865
5	0xbdedf489	-0.11618907
6	0x3e203652	0.15645722
7	0xbcd05bc8	-0.02543439
8	0x3d193e60	0.037413
9	0xbd66a98b	-0.056314033
10	0x3e886259	0.26637533
11	0x3c449b9d	0.011999992
12	0x3d45751a	0.04820738
13	0xbd90b999	-0.0706665
14	0xbdb768b5	-0.08955518
15	0xbd1e5783	-0.038657676
16	0x3b48d0fd	0.0030642145
17	0xbd7601bb	-0.060060244
18	0x3cc7f659	0.02440946
19	0x3dd9ff21	0.10644365
20	0xbd6caf28	-0.05778423
21	0x3ccea756	0.025226276
22	0xbd95612c	-0.07293925
23	0xbe8d9159	-0.27649954
24	0x3d84efeb	0.06491073
25	0xbd74490c	-0.059639975
26	0xbcb168d4	-0.021656431
27	0xbc6a69a6	-0.014307415
28	0xbe4f89f5	-0.2026747
29	0xbd1e0b83	-0.038585197
30	0xbd7480e5	-0.059693236
31	0x3e12f495	0.14351113
32	0xbd8018fd	-0.06254766
33	0x3e59f5f0	0.21285224
34	0x3dfba278	0.12286848
35	0x3ece97d3	0.40350208
36	0xbdac863f	-0.08424043
37	0xbd8d00d3	-0.06884923
38	0x3e1554cd	0.1458313
39	0xbeb5d0e3	-0.3551093
40	0x3d15a3b4	0.036533073
41	0xbea78ad7	-0.32723114
42	0xbc26b9d8	-0.010176145
43	0xbd16079b	-0.036628347
44	0x3c14cd50	0.009082153
45	0x3cbc6d6b	0.023001393
46	0xbd5dd9ed	-0.05416291
47	0x3c0c37e1	0.008558244
48	0x3e086ed1	0.13323523
49	0xbce26d29	-0.027639942
50	0xbdec0440	-0.11524248
51	0xbd1bf333	-0.03807373
52	0xbd911fe6	-0.07086162
53	0x3c9f69bf	0.019459603
54	0xbc129366	-0.008946275
55	0x3dbe4520	0.09290528
56	0xbe090dcb	-0.13384168
57	0x3daa4684	0.08314231
58	0xbb79ff17	-0.003814643
59	0x3e3fdd9f	0.18736885
60	0x3c6e9f24	0.014564309
61	0xbd430d5c	-0.047620162
62	0xbddeca7d	-0.10878465
63	0x3dcb57e8	0.09928876
64	0xbe58fd16	-0.21190295
65	0xbdc83ffb	-0.09777828
66	0x3e3603f1	0.17774941
67	0x3db911cf	0.090366
68	0xba8ea2d9	-0.0010882273
69	0x3d3fcf29	0.046828423
70	0x3e1c2ae1	0.15250732
71	0x3da0e392	0.078559056
72	0xbecb55aa	-0.39713794
73	0x3d34077a	0.043952443
74	0x3e864ad1	0.26228955
75	0x3e33d865	0.17563017
76	0x3edb1a90	0.42793703
77	0x3e90fb6f	0.2831683
78	0xbdd0344c	-0.10166225
79	0x3d5115a8	0.051046044
80	0x3dce9fbe	0.10089062
81	0xbd721ddd	-0.05911051
82	0xbda96504	-0.0827122
83	0x3e174720	0.14773226
84	0x3da0b570	0.078471065
85	0xbd8d5a9c	-0.06902048
86	0xbc1ad693	-0.009450573
87	0x3e9ce988	0.3064692
88	0xbdc9e360	-0.098578215
89	0x3dfc0c8f	0.12307083
90	0x3dddcdc6	0.10830264
91	0x3e17e785	0.14834411
92	0x3b86207a	0.004093227
93	0x3d414d6c	0.047192976
94	0x3c5715ad	0.0131277265
95	0xbdaa75a7	-0.08323222
96	0xbdbcc095	-0.092164196
97	0xbde92e05	-0.11385731
98	0x3dfd6d9d	0.12374423
99	0xbe10bd03	-0.14134602
100	0x3db7f3c0	0.089820385
101	0xbbf6a656	-0.007527153
102	0xbcbfca5a	-0.023411918
103	0xbc77d540	-0.015126526
104	0xbe52477a	-0.20535079
105	0xbbcfaa17	-0.006337415
106	0xbdd2770d	-0.102766134
107	0x3d1c5aec	0.038172647
108	0x3d1f3e0b	0.03887753
109	0xbd33ca92	-0.043894358
110	0x3d089da4	0.033353463
111	0x3cf05bb4	0.029340602
112	0xbe0b4711	-0.13601328
113	0xbd443e50	-0.04791099
114	0x3d960e2d	0.073269226
115	0x3df1e370	0.118109584
116	0x3e66e45e	0.22548053
117	0x3e0d97a2	0.13827375
118	0x3cde9a43	0.027173167
119	0xbe1fc0d8	-0.15600908
120	0x3c270bdc	0.010195699
121	0xbe9569cd	-0.29182282
122	0x3e051c48	0.1299907
123	0x3ce540d8	0.027985021
124	0x3e09e5f1	0.13466622
125	0x3e095668	0.13411868
126	0x3dbd51bd	0.09244106
127	0x3e1a01de	0.15039775
128	0x3d046d1d	0.03233062
129	0x3d963ece	0.07336198
130	0xbd91260d	-0.07087336
131	0x3e42cfd9	0.190246
132	0x3e1ea8dd	0.15494104
133	0xbe0fc07a	-0.14038268
134	0x3d879264	0.06619719
135	0x3e878e91	0.26475957
136	0xbd69f936	-0.05712243
137	0x3eb13aa7	0.3461506
138	0x3c367791	0.011136905
139	0x3db1fbda	0.08690615
140	0xbde5b6a5	-0.11216477
141	0x3bf78c44	0.0075545628
142	0xbe39afc0	-0.1813345
143	0xbd0b777f	-0.034049507
144	0x3d4b4ef6	0.04963585
145	0x3d9013e1	0.070350416
146	0x3e9f233f	0.31081578
147	0x3deba9ed	0.1150702
148	0x3e26ce7e	0.16289708
149	0x3d416b44	0.047221437
150	0x3dbcfa6c	0.09227452
151	0x3d68ca88	0.056833774
152	0x3dc02387	0.09381776
153	0x3c8f8ee8	0.017524198
154	0x3dea9b78	0.114554346
155	0x3e35d00b	0.17755143
156	0xbe15a786	-0.14614686
157	0x3ce3d1ca	0.027809996
158	0xbe65e121	-0.22449161
159	0x3e0c3957	0.13693748
160	0xbd09eebd	-0.033674944
161	0x3de2e6ee	0.110792026
162	0xbd01754d	-0.031606007
163	0x3db1780e	0.08665477
164	0x3dbd11ad	0.09231887
165	0x3ea49768	0.32146764
166	0xbde541a1	-0.11194158
167	0xbe86a50e	-0.26297802
168	0xbd72e953	-0.059304547
169	0x3d17fabc	0.037104353
170	0xbd9141bf	-0.07092618
171	0xbc9d31e9	-0.019188838
172	0x3eafacad	0.3431143
173	0xbde1b946	-0.11021666
174	0xbe2be3ba	-0.1678609
175	0xbc0f38d3	-0.008741575
176	0x3dbb09e5	0.091327466
177	0x3d2685e1	0.04065502
178	0xbe0d03db	-0.13771002
179	0xbd312fb2	-0.043258376
180	0x3e6421cf	0.22278522
181	0x3d4cbebc	0.049986586
182	0x3df6cf26	0.12051229
183	0x3e234923	0.15945868
184	0xbcd1ab84	-0.02559448
185	0x3e29d19f	0.1658387
186	0xbeb7e758	-0.3591869
187	0xbc19e919	-0.009393954
188	0x3e4400d2	0.19140938
189	0x3e235d0f	0.15953468
190	0xbdc352d0	-0.095372796
191	0xbe1a917c	-0.1509456
192	0x3e4fbd42	0.2028704
193	0x3d1c8f3c	0.038222536
194	0x3d1f5151	0.03889591
195	0x3e30944e	0.17244074
196	0x3e13206a	0.14367834
197	0x3daf725f	0.085667364
198	0x3d49fcd9	0.0493134
199	0xbe4e92a9	-0.20173134
200	0x3d1b5fa5	0.03793301
201	0x3d33e150	0.043916047
202	0xbcb24b27	-0.021764351
203	0x3d3aa3c6	0.045566343
204	0xbd6f1ba1	-0.05837596
205	0xbd96331a	-0.073339656
206	0xbd13bc7e	-0.036068432
207	0xbc8f1215	-0.017464677
208	0x3d3e3a4c	0.046442315
209	0x3dba2933	0.090898894
210	0xbd645856	-0.055748306
211	0xbc8de598	-0.017321393
212	0xbddd92b8	-0.10819
213	0xbc9aacc6	-0.018881213
214	0x3bd15248	0.0063879825
215	0xbb2b93fe	-0.002618074
216	0xbe2ca35d	-0.16859193
217	0xbd61d17c	-0.05513142
218	0xbd87b9d7	-0.06627243
219	0xbd873759	-0.066023536
220	0xbba15cba	-0.004924384
221	0x3dda43ce	0.10657464
222	0xbdecbbad	-0.11559234
223	0x3ebf1245	0.37318626
224	0xbe0e1192	-0.1387389
225	0xbdff84c4	-0.12476495
226	0x3d070df5	0.032972295
227	0x3e25dd2a	0.16197649
228	0x3e68b16c	0.22723931
229	0xbdc4393a	-0.095812276
230	0xbb5f4119	-0.00340659
231	0xbe7d8347	-0.2475711
232	0xbde046ff	-0.109510414
233	0xbda30b10	-0.079610944
234	0xbe0db62f	-0.13839029
235	0x3da7e05c	0.0819709
236	0xbd999527	-0.07499152
237	0xbecde406	-0.4021303
238	0xbdcb02fe	-0.0991268
239	0xbe4e685d	-0.20156999
240	0xbd0cd8de	-0.03438651
241	0xbdddb8d0	-0.10826266
242	0xbc052dd2	-0.0081286
243	0xbd67a600	-0.056554794
244	0x3db99ad4	0.09062734
245	0xbd6168d1	-0.0550316
246	0xbe1f78f0	-0.15573478
247	0xbc8f8585	-0.017519722
248	0x3da0cf8c	0.078520864
249	0x3e0b8603	0.1362534
250	0x3d0274a2	0.03184951
251	0xbdc7cb16	-0.097555324
252	0x3daa3074	0.08310023
253	0x3e27f582	0.16402248
254	0xbe1dab30	-0.15397334
255	0xbe00c4dc	-0.12575096

fc1.bias f4 [120]
0	0x3d80bcd2	0.062860146
1	0xbc84a202	-0.016190533
2	0xbd7f5732	-0.062339015
3	0xbb93bb09	-0.0045083803
4	0x3d007688	0.03136304
5	0xbe09e92c	-0.13467854
6	0x3d6ebc39	0.058284972
7	0xbe0a8790	-0.13528275
8	0xbda9e439	-0.08295483
9	0xb9d7984c	-0.00041121466
10	0xbdfa34ac	-0.122170776
11	0x3df889e6	0.12135677
12	0x3db0f9a8	0.08641368
13	0xba8c16b0	-0.0010687914
14	0xbd31a1b6	-0.04336711
15	0x3d58188a	0.052757777
16	0xbd90d2ac	-0.070714325
17	0xbdeb973e	-0.115034565
18	0x3d3a908d	0.04554801
19	0xbe0ad438	-0.13557518
20	0xbd3a3944	-0.04546477
21	0xbcebdd5d	-0.028792078
22	0xbc6fa40b	-0.014626513
23	0x3e08fdb2	0.13378027
24	0x3ca4d70b	0.020122072
25	0x3d86d2d0	0.06583178
26	0xbd607df8	-0.054807633
27	0x3d932fd8	0.0718686
28	0xbdc0de30	-0.09417379
29	0xbca50ea9	-0.020148592
30	0xbc4e23c8	-0.012581773
31	0xbdb2135f	-0.08695101
32	0xbd9c7c38	-0.0764088
33	0xbd8974cb	-0.067117296
34	0xbdd04bfc	-0.10170743
35	0x3d1f7635	0.03893109
36	0xbcb11b42	-0.021619443
37	0xbd63a1c2	-0.055574186
38	0xbe0104bf	-0.12599467
39	0x3d1b03da	0.03784547
40	0x3d41321f	0.04716694
41	0x3d964710	0.07337773
42	0x3dc6121a	0.09671421
43	0x3d1d51f1	0.038408224
44	0xbd0ca722	-0.034339078
45	0xbd6175aa	-0.055043854
46	0x3b3dec2f	0.0028979888
47	0xbcfefb49	-0.031125681
48	0x3dcc40ea	0.09973319
49	0xbbefbfd9	-0.007316571
50	0x3d47cce0	0.04877937
51	0xbdbf302e	-0.093353614
52	0x3df774fa	0.120828584
53	0x3e0e041b	0.13868754
54	0x3e0ceb66	0.13761672
55	0x3d5b5c51	0.053554837
56	0xbddb13f0	-0.10697162
57	0x3cd3e8f2	0.025867913
58	0xb9909813	-0.00027579124
59	0x3df8b3e2	0.12143685
60	0xbe064aa7	-0.13114415
61	0xbe0c7ef3	-0.13720302
62	0x3d50030b	0.050784152
63	0xbde5c9e7	-0.112201504
64	0xbde80b4e	-0.11330281
65	0x3e0b8c4c	0.13627738
66	0x3e0fae4d	0.14031334
67	0x3c4a3cd7	0.012343607
68	0xbe056779	-0.13027753
69	0x3b9cf753	0.0047902255
70	0x3e0055ab	0.1253268
71	0xbdc271c9	-0.09494359
72	0xbd726e2a	-0.059187092
73	0x3df06a33	0.11739006
74	0xbdef5387	-0.116858535
75	0x3de7a79b	0.11311265
76	0xbd376701	-0.044775967
77	0xbd151c59	-0.036403988
78	0xbd8d8544	-0.06910184
79	0x3c7361b4	0.014854837
80	0x3db2f09d	0.087372996
81	0x3d7287c2	0.0592115
82	0xbe0c4afd	-0.13700481
83	0xbd82a5f3	-0.063793086
84	0xbe04c583	-0.1296597
85	0xbd75ca5c	-0.060007438
86	0x3daeb13a	0.08529897
87	0xbdefb117	-0.11703699
88	0x3deb8c55	0.115013756
89	0xbd4e57ff	-0.05037689
90	0xbd496298	-0.049166292
91	0xbda8f4f4	-0.08249846
92	0xbdfcc72d	-0.12342677
93	0x3cddbea3	0.027068442
94	0x3dd7e524	0.10541752
95	0xbdd0be00	-0.101924896
96	0xbc38024f	-0.011231019
97	0xbbb22801	-0.0054368977
98	0xbd108e41	-0.035291914
99	0x3cf87dca	0.030333418
100	0x3d2247ed	0.039619375
101	0xbd995d7a	-0.07488532
102	0x3df80530	0.121103644
103	0xbdbf6ef3	-0.09347334
104	0x3e0bcf93	0.13653402
105	0xbd9b483c	-0.07582137
106	0x3de8b981	0.11363507
107	0x3d6f16a3	0.058371197
108	0xbdebfee8	-0.11523229
109	0xbce81888	-0.02833201
110	0xbcdd1fed	-0.026992762
111	0xbd1eaa62	-0.03873671
112	0x3d77b508	0.06047538
113	0xbd466853	-0.048439335
114	0xbdee94f3	-0.116495036
115	0x3c85a0cd	0.016312027
116	0x3cb28639	0.021792518
117	0xbcd0cf30	-0.02548942
118	0xbcda3fae	-0.026641693
119	0xbc385120	-0.01124981

bn1.weight f4 [120]
0	0x3fad859b	1.3556398
1	0x3fb7ef05	1.4369818
2	0x3fbcedc7	1.4760064
3	0x3fcc398d	1.5955063
4	0x3fb80be8	1.4378633
5	0x3fb89fca	1.4423764
6	0x3fa6babe	1.3025739
7	0x3fcfea8e	1.6243455
8	0x3fb257cc	1.3933043
9	0x3fbc5ffa	1.471679
10	0x3fd5289d	1.6653019
11	0x3fcea6d6	1.6144664
12	0x3fe459b3	1.7839874
13	0x3fdcdc4f	1.7254733
14	0x3facad5a	1.3490403
15	0x3fb9565e	1.4479482
16	0x3fa959a7	1.3230485
17	0x3fb695bc	1.4264445
18	0x3fbb9562	1.4654963
19	0x3faf175f	1.3679007
20	0x3f9d0d1a	1.2269623
21	0x3fce57a2	1.6120493
22	0x3fc4be81	1.5370637
23	0x3fb340c4	1.400414
24	0x4007f3d4	2.124257
25	0x3fb1dfbd	1.3896405
26	0x3fdc6f68	1.7221498
27	0x3fc54735	1.5412356
28	0x3fa323d1	1.2745305
29	0x3fd0f2c4	1.6324086
30	0x3fd7672a	1.6828358
31	0x3fd76481	1.6827546
32	0x3fdab720	1.7087135
33	0x3fd6abe8	1.6771212
34	0x3fc056a8	1.5026445
35	0x3fe7ee22	1.8119547
36	0x3f97b684	1.1852574
37	0x3fa6245c	1.2979846
38	0x3fcae6bc	1.5851665
39	0x3fb73077	1.4311665
40	0x3fc519b9	1.5398475
41	0x3fcf7c72	1.6209853
42	0x3fbbabec	1.4661841
43	0x3ff1922f	1.8872737
44	0x3f9d9a52	1.231272
45	0x3f9e27f7	1.2355946
46	0x3f8a11a3	1.0786632
47	0x3fc481eb	1.5352148
48	0x3fdcd398	1.7252073
49	0x3fc16872	1.5109999
50	0x3fd06edc	1.6283832
51	0x40029558	2.0403652
52	0x3fc86e0b	1.5658582
53	0x3f87eca2	1.061909
54	0x3fa0c377	1.2559651
55	0x3fdafdf6	1.7108753
56	0x3fe046ae	1.752157
57	0x3fc03c1a	1.5018342
58	0x3fc38b30	1.5276852
59	0x3fdcc13f	1.7246474
60	0x3fbc0fd6	1.4692333
61	0x3ffebcff	1.9901427
62	0x3fc7d58f	1.5612048
63	0x3facbfc1	1.3496019
64	0x3fb1b6c9	1.3883907
65	0x3fcb3869	1.587659
66	0x3fb7e4d5	1.4366709
67	0x3fcfe71d	1.6242405
68	0x3fc28ab2	1.5198576
69	0x3faafbee	1.3358133
70	0x3fc0469c	1.5021548
71	0x3fedf5e4	1.8590665
72	0x3fc52738	1.5402594
73	0x3fddd929	1.7331897
74	0x3fcd7323	1.6050762
75	0x3ff5ec6f	1.9212779
76	0x3fdd4977	1.7288045
77	0x3ff4a20d	1.9111954
78	0x3fc85920	1.5652199
79	0x3fb8d45d	1.4439808
80	0x3fd0363d	1.6266552
81	0x3faa40cc	1.3301024
82	0x3f9d7da0	1.2303963
83	0x3fda9b24	1.7078595
84	0x3fce5eb5	1.6122652
85	0x3fffc8ba	1.9983132
86	0x3fb0ebb4	1.3821931
87	0x3fa582e1	1.2930566
88	0x3fa1e8a5	1.2649122
89	0x3fc63801	1.5485841
90	0x4001ae49	2.0262625
91	0x3fcba728	1.5910387
92	0x3faf6075	1.3701311
93	0x3fcfd847	1.6237878
94	0x3fcff8de	1.6247823
95	0x3fa54ecf	1.2914675
96	0x3fbea77d	1.4894863
97	0x3fc9f137	1.5776738
98	0x3fdfd768	1.7487612
99	0x3fe1af90	1.7631702
100	0x3fc94bbf	1.5726241
101	0x401342a2	2.300942
102	0x3fdd8a41	1.7307817
103	0x3fca4abc	1.5804057
104	0x3fe48515	1.7853113
105	0x4002858a	2.0394006
106	0x3fbec12a	1.4902699
107	0x3fc4161b	1.5319246
108	0x3fa62b11	1.2981893
109	0x3fd04b89	1.6273052
110	0x3fb31278	1.3990011
111	0x3fe15ca7	1.76064
112	0x3fbd63a2	1.479603
113	0x3fbad77d	1.4597012
114	0x3fb2ce76	1.3969257
115	0x4006d6bb	2.106856
116	0x3fae3b13	1.3611778
117	0x3fe8b60b	1.8180555
118	0x4009d1ca	2.1534295
119	0x3f6520f5	0.89503413

bn1.bias f4 [120]
0	0x3ef9331a	0.486718
1	0x3dd77ad7	0.10521477
2	0xbf1fa054	-0.62354016
3	0x3dcd2eec	0.10018715
4	0xbe9ae9a3	-0.30256376
5	0x3db39248	0.08768135
6	0x3e80800b	0.2509769
7	0x3f284528	0.65730524
8	0x3e6ad7fc	0.22933954
9	0xbf68e0d7	-0.9096808
10	0xbd4372b8	-0.047716826
11	0xbe831564	-0.25602257
12	0xbf941c17	-1.1571072
13	0x3f91a20d	1.1377579
14	0xbd01050d	-0.031498957
15	0xbdc4f620	-0.09617257
16	0x3dfec446	0.1243978
17	0x3e58f357	0.21186577
18	0xbf804370	-1.002058
19	0x3f2f8f1d	0.6857775
20	0xbf0c75dc	-0.5486734
21	0xbf19ce4c	-0.6008041
22	0xbef2beb8	-0.47411132
23	0xbf201f3d	-0.62547666
24	0xbfccc83d	-1.5998608
25	0x3f30c2a9	0.6904703
26	0xbdfb9ab1	-0.122853644
27	0x3e352a67	0.17691956
28	0xbe31c3b0	-0.17359805
29	0x3dac4d7e	0.08413218
30	0xbe2c3359	-0.16816463
31	0x3f81d142	1.0141985
32	0xbfa8e565	-1.3195006
33	0x3bb1a391	0.00542111
34	0xbe4039d0	-0.18772054
35	0x3f7207aa	0.94542944
36	0xbee32593	-0.44364604
37	0x3e38045f	0.17970417
38	0x3f77d53e	0.96809757
39	0xbd197694	-0.0374666
40	0xbd64cf0f	-0.05586153
41	0x3f069219	0.5256668
42	0xbc7d8ae3	-0.015475008
43	0x3fa348e8	1.2756624
44	0xbec1e687	-0.3787119
45	0xbd64842d	-0.055790115
46	0x3e040b50	0.1289494
47	0xbd5623cc	-0.052280232
48	0xbd45c365	-0.048282046
49	0x3e94a1ce	0.29029697
50	0x3f82ad7b	1.0209192
51	0xbfa6264d	-1.2980438
52	0xbcfc1309	-0.030770795
53	0x3c918615	0.01776413
54	0xbf02f1d1	-0.5115023
55	0xbdcb9a96	-0.09941594
56	0x3f8bf582	1.0934298
57	0x3f74d864	0.95642686
58	0xba00cf29	-0.0004913682
59	0xbd1f505e	-0.038895003
60	0xbea2090c	-0.31647527
61	0xbfae8fcc	-1.3637633
62	0xbe851528	-0.25992703
63	0xbe25f474	-0.16206533
64	0xbd6f9502	-0.058491714
65	0xbf9098e5	-1.129666
66	0xbea98a8f	-0.33113524
67	0xbf2561bd	-0.6460226
68	0x3da78102	0.08178903
69	0xbea3deab	-0.3200582
70	0x3f6e25d5	0.9302648
71	0x3f985db7	1.19036
72	0x3f801458	1.0006208
73	0x3dc35050	0.09536803
74	0xbe85a991	-0.2610593
75	0xbfa1f8b7	-1.2654027
76	0x3bcdcc15	0.006280432
77	0xbfa4a16f	-1.2861766
78	0x3b0a3094	0.0021086084
79	0xbf03d835	-0.5150178
80	0xbe8be96f	-0.27326533
81	0xbdea989e	-0.11454891
82	0x3ddea6f0	0.108716846
83	0x3f81ff1d	1.0155979
84	0x3f603d85	0.8759387
85	0x3fb2b636	1.3961856
86	0xbebb7b6a	-0.36617595
87	0x3ebe37a0	0.37151814
88	0xbeed59da	-0.46357614
89	0xbe8d8f1d	-0.2764825
90	0xbfdbea93	-1.7180961
91	0x3e79a29a	0.24378434
92	0xbe95b28c	-0.29237783
93	0x3e6bdd83	0.23033719
94	0x3f87a705	1.0597845
95	0x3cbe7fbe	0.023254272
96	0x3d632409	0.055454288
97	0xbf160f0d	-0.58616716
98	0x3f55709d	0.8337496
99	0xbeaeb2e3	-0.34120855
100	0xbf633d22	-0.88765156
101	0xbfc37493	-1.5269951
102	0x3f8c5b6f	1.0965403
103	0xbf2c4e23	-0.6730673
104	0xbf9874cf	-1.1910647
105	0x3fb75419	1.432254
106	0x3f14dadd	0.5814646
107	0x3e62ed7c	0.22160906
108	0xbd8ca3e9	-0.06867201
109	0x3f84dcee	1.0379922
110	0xbe27bd49	-0.163808
111	0xbe007b02	-0.12546924
112	0xbedf61bb	-0.4362925
113	0x3eec6440	0.46170235
114	0x3d82f881	0.063950546
115	0x3db47915	0.08812157
116	0x3e945c14	0.289765
117	0xbf936daf	-1.1517848
118	0x3fc02a9f	1.5013007
119	0xbdd356f9	-0.10319323

bn1.running_mean f4 [120]
0	0x3d5ecf24	0.054396763
1	0xbc90d88c	-0.017681383
2	0xbd789ddc	-0.06069742
3	0x3c5cce7a	0.013476962
4	0x3c990c84	0.018682726
5	0xbe0ebbe8	-0.13938868
6	0x3d63120b	0.05543713
7	0xbe02b360	-0.12763739
8	0xbdd36eb2	-0.10323848
9	0x3a82ec9b	0.0009988727
10	0xbe07e629	-0.13271393
11	0x3e0b653a	0.13612834
12	0x3d7271c2	0.05919052
13	0x3cb39082	0.021919493
14	0xbce48f02	-0.027900223
15	0x3d413896	0.047173105
16	0xbd607bc2	-0.054805525
17	0xbde23c18	-0.11046618
18	0x3d36f044	0.04466273
19	0xbe0a4be3	-0.13505511
20	0xbd681988	-0.056664973
21	0xbceed2f4	-0.029153325
22	0xb9d0fc40	-0.00039860792
23	0x3e21d467	0.15803681
24	0x3d03a666	0.03214111
25	0x3d79f705	0.06102659
26	0xbd444f9c	-0.047927484
27	0x3d9a855e	0.07544969
28	0xbda1ac75	-0.07894222
29	0xbcc68c13	-0.024236714
30	0xbbf687de	-0.007523521
31	0xbd8d929f	-0.069127314
32	0xbd802b83	-0.06258299
33	0xbd5e181e	-0.05422222
34	0xbdadff7c	-0.084959954
35	0x3b92bbfc	0.004477976
36	0xbcd8c974	-0.026463248
37	0xbd6431a8	-0.05571142
38	0xbe0e51e8	-0.13898432
39	0x3cfcdeb0	0.030867904
40	0x3d88214e	0.06646977
41	0x3d864cb0	0.06557596
42	0x3daba9dc	0.083820075
43	0x3d127e14	0.03576477
44	0xbd352f41	-0.044234518
45	0xbd71fa1f	-0.059076425
46	0x3c1d833d	0.009613809
47	0xbcc8e540	-0.024523377
48	0x3dfcbf04	0.12341121
49	0xbb377f87	-0.0027999596
50	0x3d67eac9	0.056620393
51	0xbd6e634a	-0.05820016
52	0x3e073639	0.13204278
53	0x3e258bb8	0.1616658
54	0x3e0125b7	0.12612043
55	0x3d198931	0.03748435
56	0xbdb34a23	-0.08754375
57	0xbc4d596c	-0.012533527
58	0xbcfd34b9	-0.03090893
59	0x3db86d40	0.09005213
60	0xbe0013f3	-0.1250761
61	0xbdfaad58	-0.12240094
62	0x3d949d29	0.072565384
63	0xbe0f2a54	-0.1398099
64	0xbdd59825	-0.1042941
65	0x3e0dbc21	0.13841297
66	0x3e0fd6d1	0.1404679
67	0x3baac320	0.005211249
68	0xbe02916e	-0.1275079
69	0x3cbdd69f	0.023173628
70	0x3dd247c1	0.10267592
71	0xbdbe5eae	-0.092954025
72	0xbdba61e8	-0.091007054
73	0x3de8e855	0.11372439
74	0xbdbb19e1	-0.091357954
75	0x3e0bbcee	0.1364629
76	0xbcda717a	-0.026665438
77	0x3b2e76e0	0.0026621148
78	0xbd89ea0c	-0.06734094
79	0x3cc61376	0.024179202
80	0x3dca0add	0.09865353
81	0x3d94cb4a	0.07265337
82	0xbe182984	-0.14859587
83	0xbd3d544b	-0.046222966
84	0xbdd85860	-0.10563731
85	0xbd8a84cf	-0.067636125
86	0x3dc53ebe	0.09631108
87	0xbde0a99c	-0.109698504
88	0x3defba40	0.11705446
89	0xbd3286ff	-0.043585774
90	0xbcd7a0ce	-0.026321795
91	0xbda05010	-0.07827771
92	0xbdf4674f	-0.11933767
93	0x3d11a5f0	0.03555864
94	0x3db9aba9	0.09065945
95	0xbdd637d4	-0.10459867
96	0xbd1adec5	-0.037810106
97	0xbb1b33b2	-0.0023681936
98	0xbd43c2af	-0.047793087
99	0x3d2d3d80	0.04229498
100	0x3d4e14bd	0.050312746
101	0xbd8ec701	-0.06971551
102	0x3de1cda8	0.11025554
103	0xbda7184e	-0.081589326
104	0x3e2fd94c	0.17172736
105	0xbdbf64df	-0.093454115
106	0x3de86e55	0.11349169
107	0x3da61406	0.08109288
108	0xbdf0b99d	-0.11754153
109	0xbc297579	-0.010342949
110	0xbb387e20	-0.0028151348
111	0xbd62c489	-0.05536321
112	0x3da2f698	0.0795719
113	0xbd445e06	-0.04794123
114	0xbe026762	-0.1273475
115	0x3c090cc0	0.008364856
116	0xbc29659a	-0.010339165
117	0x3bf45714	0.0074566696
118	0xbcc81886	-0.024425756
119	0xbc966fb4	-0.018363811

bn1.running_var f4 [120]
0	0x3fa8de85	1.3192908
1	0x3f6f60ea	0.93507254
2	0x3fc41fc9	1.53222
3	0x3f993579	1.1969444
4	0x3f377c82	0.7167436
5	0x3f5b4936	0.85658586
6	0x3f4a9f6b	0.791495
7	0x3f8929ae	1.0715845
8	0x3f8094f9	1.0045463
9	0x3fb78e55	1.4340311
10	0x3f4b3b3e	0.7938727
11	0x3f5522bc	0.83256125
12	0x3fdce24c	1.725656
13	0x4009816d	2.1485245
14	0x3f8e4bcc	1.1116881
15	0x3f408285	0.75199157
16	0x3f82dc3b	1.0223459
17	0x3f621a98	0.8832183
18	0x3fa8d29b	1.3189272
19	0x3f6d3a04	0.9266665
20	0x3f75d289	0.96024376
21	0x3f8a380a	1.0798352
22	0x3f670530	0.9024229
23	0x3f502bc4	0.8131678
24	0x400ac4a9	2.1682532
25	0x3f99a05b	1.2002062
26	0x3f8c2cdf	1.0951194
27	0x3f45965a	0.77182543
28	0x3f74b6f4	0.95591664
29	0x3f7cacb2	0.9870101
30	0x3f67f3b0	0.9060621
31	0x3f6796f9	0.9046474
32	0x3fc58b2f	1.54331
33	0x3f5741a3	0.8408453
34	0x3f838862	1.0275996
35	0x3f9d8031	1.2304746
36	0x3f85db82	1.0457613
37	0x3f68e2ca	0.9097105
38	0x40421344	3.0324259
39	0x3f8a915d	1.0825611
40	0x3f7893a5	0.9710029
41	0x3f8695d0	1.0514469
42	0x3f8ab796	1.0837276
43	0x3fdd6a5a	1.7298081
44	0x3f77cde2	0.9679853
45	0x3f70acc2	0.9401361
46	0x3f9190ae	1.1372278
47	0x3f940d5d	1.1566578
48	0x3f9a7705	1.2067572
49	0x3f8765da	1.0577958
50	0x400c7302	2.1945195
51	0x3f87c663	1.0607418
52	0x3f67e442	0.9058267
53	0x3f7cddfe	0.98776233
54	0x3fb19e57	1.3876446
55	0x3f825f13	1.0185264
56	0x40173d05	2.3630993
57	0x4091214c	4.5353146
58	0x3f431f60	0.7621975
59	0x3f869179	1.0513145
60	0x3f62d85f	0.88611406
61	0x3f836df4	1.026793
62	0x3f48a541	0.7837716
63	0x3f86d193	1.0532707
64	0x3f89fcce	1.0780275
65	0x3fd02f7b	1.626449
66	0x3f22f540	0.6365547
67	0x3f88b235	1.0679384
68	0x3f6b36f0	0.918807
69	0x3f35be1a	0.70993197
70	0x402d2bf1	2.705807
71	0x40664a10	3.5982704
72	0x3fbe7383	1.4879001
73	0x3f8a3ea9	1.0800372
74	0x3f62840c	0.8848274
75	0x3fe15fe2	1.7607386
76	0x3f83f9b7	1.0310582
77	0x3f890581	1.0704805
78	0x3f894821	1.0725137
79	0x3f6b88af	0.9200544
80	0x3f732efd	0.94993573
81	0x3f60591b	0.87635964
82	0x3f6ca37c	0.9243696
83	0x3f6ed22f	0.93289465
84	0x3f4e6764	0.8062651
85	0x3ff26bb8	1.8939123
86	0x3f78eff9	0.9724117
87	0x3f53ef0d	0.8278664
88	0x3f636522	0.8882619
89	0x3f5e2be0	0.867857
90	0x3fac18a2	1.3445017
91	0x3f83d554	1.0299478
92	0x3f5da5fe	0.8658141
93	0x3f6df31f	0.929491
94	0x3febc635	1.8419863
95	0x3f4bb439	0.7957187
96	0x3f97c19f	1.1855963
97	0x3f8e91d9	1.1138259
98	0x3fc42ce2	1.5326197
99	0x3f85517d	1.0415493
100	0x3ff47b73	1.9100174
101	0x3fd70eb3	1.6801361
102	0x3f82dce4	1.022366
103	0x3fce0fff	1.6098632
104	0x403e6930	2.9751701
105	0x3f8bed25	1.0931746
106	0x3f8a3909	1.0798656
107	0x3fa84ea6	1.3149002
108	0x3f90e23c	1.1319041
109	0x4034effa	2.827147
110	0x3f98fca0	1.1952095
111	0x3f80f387	1.0074319
112	0x3f41a671	0.75644594
113	0x3f8ffd6b	1.1249212
114	0x3f4e9b94	0.80706143
115	0x3f5a223d	0.85208493
116	0x3f6ebad7	0.93253845
117	0x3f8ea384	1.1143651
118	0x3f9f7aa7	1.2459306
119	0x3f54da5c	0.8314569

fc2.weight f4 [84, 120]
0	0xbd016a9a	-0.031595804
1	0xbd172faf	-0.03691071
2	0xbcc48afd	-0.023992056
3	0xbda0189e	-0.07817195
4	0x3cc1a48d	0.023638034
5	0xbb882de8	-0.004155863
6	0xbd6e82f2	-0.058230348
7	0xbc4e728b	-0.012600551
8	0x3df7875c	0.120863646
9	0xbdd6157b	-0.10453316
10	0x3c71b9b8	0.014753751
11	0x3d85e168	0.065371335
12	0x3bb1ab10	0.0054220036
13	0x3d89ad74	0.06722537
14	0x3d7f92ce	0.062395863
15	0xbc9211ca	-0.017830748
16	0x3d4c6b09	0.049906764
17	0x3e1dd1b7	0.15412031
18	0xbc8cb54e	-0.017176297
19	0xbc992391	-0.018693717
20	0x3da19d5e	0.078913435
21	0xbe00b729	-0.1256987
22	0x3d83f158	0.06442517
23	0xbe019cf4	-0.12657529
24	0xbd3a471c	-0.04547797
25	0x3e213de4	0.15746266
26	0xbda8e0dd	-0.08246014
27	0xbdbfc49f	-0.09363674
28	0x3d9fa485	0.077950515
29	0x3e2c309e	0.16815421
30	0xbe08ed2b	-0.13371722
31	0x3d9c2ac4	0.076253444
32	0x3c9cfd69	0.019163804
33	0x3d486049	0.04891995
34	0xbd8985e0	-0.06714988
35	0x3be595ae	0.0070063686
36	0xbc5e2223	-0.0135579435
37	0xbd8c8ecd	-0.068631746
38	0xbcadbab5	-0.021207193
39	0xbe3fab67	-0.18717729
40	0xba9d546f	-0.0012003313
41	0xbda20404	-0.07910922
42	0xbd118f65	-0.035537142
43	0xbd8a9a05	-0.06767658
44	0xbdfc2a98	-0.123128116
45	0xbd39c918	-0.045357794
46	0xbd90f907	-0.07078748
47	0xbc9c6c8d	-0.01909473
48	0xbd9e2e2b	-0.077236496
49	0xbe0f0580	-0.13966942
50	0x3ca41629	0.020030098
51	0x3cb8fa1a	0.022580195
52	0x3e455289	0.19269766
53	0xbc5cae75	-0.013469328
54	0xbd808d85	-0.06276993
55	0xbde5ef2b	-0.11227258
56	0x3d6e2f86	0.05815079
57	0xbd161ea2	-0.036650307
58	0x3d6b3fe2	0.05743397
59	0xbd9d8572	-0.07691468
60	0xbd33be47	-0.043882634
61	0x3db948a1	0.09047056
62	0xbd2083b1	-0.03918809
63	0xbd9edcdb	-0.077569686
64	0xbe3f7029	-0.1869513
65	0xbdf32fc4	-0.11874345
66	0xbd56c6cd	-0.052435685
67	0xbd5cb6ac	-0.053885147
68	0xbd23dfdc	-0.04000841
69	0x3d4a6f3c	0.049422488
70	0x3dc9e4b5	0.098580755
71	0x3e08f4ee	0.13374683
72	0xbc9ebc50	-0.019376904
73	0xbe3c0147	-0.18359862
74	0xbdaf8aaa	-0.0857137
75	0xbd99fd85	-0.07519058
76	0x3e4d63e6	0.2005764
77	0xbb06fc2f	-0.002059709
78	0x3dd57b87	0.104239516
79	0xbe32477a	-0.17410079
80	0x3d25efbf	0.040511843
81	0x3cc85ecd	0.024459267
82	0xbdac2071	-0.08404625
83	0xbde0470f	-0.10951053
84	0x3db58b33	0.08864441
85	0x3e34cc6a	0.17656103
86	0xbda3e24e	-0.080021486
87	0x3d50d72d	0.050986458
88	0x3dc4723e	0.095921025
89	0x3dc9f95b	0.09862014
90	0xbdb7666f	-0.089550845
91	0xbd8a7d61	-0.067621954
92	0xbd966e48	-0.07345253
93	0x3d6fa211	0.058504168
94	0x3c366739	0.011133009
95	0x3e2ad048	0.16681015
96	0xbd5d881e	-0.05408489
97	0x3d492e38	0.049116343
98	0xbd1f5f5b	-0.038909297
99	0xbc0afc44	-0.008482996
100	0xbe15212c	-0.14563435
101	0x3d1aba56	0.03777536
102	0x3e86e74d	0.26348343
103	0x3c84ff1c	0.016234927
104	0xbdcf184d	-0.10112057
105	0x3cc1f2e1	0.023675384
106	0xbc444d4b	-0.011981319
107	0xbd513d3b	-0.051083785
108	0x3e6d3987	0.23166476
109	0xbd04cd38	-0.032422274
110	0xbcefa71c	-0.029254489
111	0x3d5355cf	0.051595505
112	0x3e2f938c	0.17146128
113	0x3df151d7	0.11783188
114	0xbd485fa5	-0.04891934
115	0x3e06c018	0.13159215
116	0xbdfe3b7a	-0.12413688
117	0xbbcd6cc9	-0.0062690717
118	0x3e39376c	0.18087548
119	0xbda9fc35	-0.08300058
120	0xbdb76ac6	-0.08955912
121	0x3dfac82b	0.1224521
122	0xbcabe5c8	-0.020983592
123	0x3c4dc0a2	0.012558134
124	0x3db9abda	0.09065981
125	0xbdfea134	-0.12433091
126	0xbb1fd008	-0.002438547
127	0xbd4b82c7	-0.049685266
128	0x3c81877c	0.015811674
129	0x3db157d6	0.086593315
130	0xbd877ed1	-0.06615985
131	0x3cf7b556	0.030237835
132	0x3d6fb462	0.058521636
133	0xbb6bda7f	-0.0035988388
134	0x3e5ac5fe	0.2136459
135	0x3dd9889b	0.106217586
136	0x3d945feb	0.072448574
137	0x3e0b695b	0.13614409
138	0xbdcc7c16	-0.09984605
139	0xbd6003e7	-0.05469122
140	0x3d57a4c7	0.05264738
141	0x3d062888	0.032753497
142	0xbe2e8f18	-0.17046773
143	0x3e254bbe	0.16142175
144	0xbd50c5ff	-0.050970074
145	0xbaf78dc0	-0.0018886849
146	0x3afd0dc5	0.0019306472
147	0xbd595c6b	-0.053066652
148	0x3b4766ce	0.0030426267
149	0x3d5c4835	0.0537798
150	0xbdab3836	-0.08360331
151	0x3e12233e	0.14271256
152	0x3e128f63	0.1431251
153	0xbdf00c08	-0.11721045
154	0x3c88ae57	0.016684694
155	0xbe4fa977	-0.2027949
156	0x3de1aca0	0.11019254
157	0x3dea8e7b	0.11452957
158	0xbd2c612b	-0.042084854
159	0x3ddd9b0c	0.108205885
160	0x3dffaa0f	0.12483608
161	0xbe227dcf	-0.15868305
162	0xbd935322	-0.07193591
163	0x3b97e68a	0.0046356367
164	0xbcd3b709	-0.025844114
165	0x3caf3d85	0.02139164
166	0xbdf14e1a	-0.11782475
167	0xbda40cc3	-0.080102466
168	0xbd82a219	-0.06378574
169	0x3daf18f7	0.085496835
170	0xbd679e35	-0.056547362
171	0x3df74659	0.120739646
172	0x3c065b7d	0.008200523
173	0xbab7228c	-0.0013972088
174	0x3e5412d0	0.20710301
175	0x3d6a4472	0.05719418
176	0xbde822fe	-0.11334799
177	0xbe01a96a	-0.12662283
178	0x3e0f6c65	0.14006193
179	0xbc737285	-0.014858847
180	0xbdd847f0	-0.10560596
181	0xbd5e3474	-0.054249242
182	0x3cc7b07e	0.02437615
183	0xbc41adeb	-0.01182125
184	0xbe16c254	-0.14722568
185	0x3dcdbcaf	0.10045754
186	0xbdf087f1	-0.11744679
187	0xbc9f86eb	-0.019473514
188	0xbd7f6902	-0.062356003
189	0x3c07950e	0.0082752835
190	0xbd1560ea	-0.036469378
191	0xbd910197	-0.07080381
192	0xbd8f8fef	-0.07009875
193	0x3d87b6da	0.06626673
194	0xbe155ba0	-0.14585733
195	0xbc50f72f	-0.012754246
196	0x3cc03661	0.02346343
197	0x3d01886b	0.03162424
198	0x3c5f1c28	0.013617553
199	0xbe21d9f2	-0.15805796
200	0xbdbaf188	-0.091281
201	0x3d8d671f	0.069044344
202	0x3d47f6ed	0.04881947
203	0x3dbd6a5f	0.09248804
204	0x3c224020	0.009902984
205	0xbd19ce89	-0.037550483
206	0xbd3ef96a	-0.04662458
207	0xbd526cdf	-0.05137336
208	0xbccf9fb0	-0.0253447
209	0x3db03d79	0.08605475
210	0xbe9d9b3e	-0.30782503
211	0x3e377567	0.17915879
212	0xbd069045	-0.03285243
213	0x3dcc7170	0.09982574
214	0xbdecea01	-0.1156807
215	0x3d20a8fc	0.039223656
216	0xbd157d29	-0.036496315
217	0xbcd428e4	-0.025898404
218	0x3d4c9cf6	0.049954377
219	0x3d2e5d45	0.042569418
220	0xbcd36b2c	-0.02580794
221	0xbdae9a67	-0.08525544
222	0xbc42d469	-0.011891463
223	0x3dd15ae0	0.10222411
224	0x3d384183	0.04498435
225	0x3e62ed6c	0.22160882
226	0xbda09ce2	-0.07842423
227	0xbe017ad2	-0.12644508
228	0x3dc7c01b	0.09753438
229	0xbd44d4f3	-0.048054647
230	0x3dc1edde	0.09469198
231	0x3aaa4090	0.0012989212
232	0xbe2a13b1	-0.16609074
233	0xbe894af8	-0.2681501
234	0xbd6ae9fe	-0.05735206
235	0xbd1019ad	-0.035180736
236	0xbd8d4fa3	-0.06899955
237	0xbc602d88	-0.0136827305
238	0x3e9f0e8d	0.3106579
239	0x3e2b94cc	0.1675598
240	0x3d5e3233	0.054247092
241	0xbd3f3194	-0.04667814
242	0xbc97407c	-0.018463366
243	0x3c287ada	0.010283196
244	0xbccdb86b	-0.025112351
245	0x3d3920f3	0.04519744
246	0x3da6c970	0.0814389
247	0xbd2befb8	-0.04197666
248	0xbdbcef7c	-0.092253655
249	0xbcf081f0	-0.029358834
250	0xbe2bdd28	-0.16783583
251	0x3e05e784	0.13076597
252	0xbd9a16bf	-0.0752387
253	0x3cd304ba	0.02575909
254	0xbd823410	-0.063575864
255	0xbcc99224	-0.024605818

fc2.bias f4 [84]
0	0x3da2e0fb	0.07953068
1	0x3d737b84	0.059443966
2	0xbd88ebae	-0.06685577
3	0x3d220e62	0.039564498
4	0x3bee78b4	0.0072775725
5	0x3d8eedbf	0.0697894
6	0x3d897f74	0.06713763
7	0xbce02ee9	-0.027366119
8	0x3d08462f	0.033270057
9	0xbd599551	-0.053120915
10	0x3d59a64d	0.053137112
11	0xbbc1cd2f	-0.0059143524
12	0xbd14191b	-0.036156755
13	0x3d3f88df	0.04676139
14	0x3cf595d0	0.029978663
15	0x3ce56d97	0.028006358
16	0x3d8e20df	0.069398634
17	0xbcca7742	-0.02471507
18	0xbc8e271e	-0.017352637
19	0x3d63c754	0.055610016
20	0x3cd01183	0.025398975
21	0xbcb126d6	-0.021624964
22	0xbc2e3f9a	-0.010635281
23	0xbb472b38	-0.003039075
24	0xbda31f2b	-0.07964929
25	0xbc17a86e	-0.009256465
26	0xbcffdb54	-0.031232513
27	0xbd1f0e69	-0.038832102
28	0xbd82c2d9	-0.063848205
29	0xbd9bfee1	-0.07616974
30	0x3d5f9532	0.054585643
31	0xbb9a7bea	-0.0047144787
32	0xbd298386	-0.041385196
33	0xbc963008	-0.01833345
34	0xbc4456e2	-0.011983605
35	0x3dae2383	0.08502867
36	0x3b294990	0.00258312
37	0xbdad036f	-0.084479205
38	0xbc3e0890	-0.011598721
39	0x3d438840	0.04773736
40	0xbd87e688	-0.06635767
41	0x3c990cae	0.018682804
42	0x3cb654de	0.022257265
43	0x3d5a5e77	0.053312745
44	0x3d0448d6	0.032296024
45	0xbd0f1dc6	-0.034940504
46	0x3c4c9b58	0.012488209
47	0xbd6d5a7b	-0.057947617
48	0x3d13313d	0.03593563
49	0xbcabd2c5	-0.020974526
50	0xbceed7c2	-0.029155616
51	0xbd05796d	-0.032586504
52	0x3b61bcb3	0.003444475
53	0xbd8c3be3	-0.0684736
54	0xbd400538	-0.046879977
55	0xbd64b8db	-0.055840354
56	0xbdadec03	-0.08492281
57	0x3d61d690	0.055136263
58	0x3d6e1524	0.05812563
59	0x3d2db23e	0.042406313
60	0x3d2757cf	0.040855225
61	0x3d558c87	0.05213597
62	0x3d81abf3	0.06331625
63	0xbca8048e	-0.020509984
64	0x3d8278fd	0.06370733
65	0xbc168b32	-0.00918846
66	0x3d57d496	0.052692972
67	0x3d474eaa	0.048659004
68	0xbd120824	-0.035652295
69	0xbd351bb7	-0.044215884
70	0x3da2c818	0.07948321
71	0x3c995dcd	0.018721486
72	0xbd739083	-0.05946399
73	0xbca830ae	-0.020531025
74	0x3da551e9	0.08072264
75	0xbd65ed4a	-0.0561345
76	0xbd1a6b88	-0.037700206
77	0xbd24e79c	-0.040259942
78	0xbd80259c	-0.062571734
79	0x3daa40bd	0.08313129
80	0x3d7fc01c	0.06243907
81	0xbda9a2b0	-0.08282983
82	0xbbbc2732	-0.005741977
83	0x3dba9f2d	0.091123916

bn2.weight f4 [84]
0	0x3f3a949a	0.72883
1	0x3efea83d	0.4973773
2	0x3f97be67	1.1854981
3	0x3fb29f65	1.3954893
4	0x3f816225	1.0108076
5	0x3f0789be	0.5294455
6	0x3ec059b2	0.37568432
7	0x3fb49c0f	1.4110125
8	0x3f059093	0.5217373
9	0x3f0838cb	0.5321166
10	0x3f1632a9	0.5867105
11	0x3f103192	0.5632564
12	0x3f3fbc8b	0.7489707
13	0x3f253665	0.64536124
14	0x3f22979f	0.63512605
15	0x3fa130c6	1.259301
16	0x3f840689	1.0314494
17	0x3f265498	0.6497283
18	0x3f98bb41	1.1932145
19	0x3f2bd1e2	0.6711713
20	0x3f296587	0.66170543
21	0x3f996946	1.1985252
22	0x3f9668ae	1.1750696
23	0x3fa70ac2	1.3050158
24	0x3eebdfcb	0.46069178
25	0x3f940bb8	1.1566076
26	0x3fba0826	1.4533737
27	0x3f8f5fc8	1.1201105
28	0x3f8ac5b2	1.0841582
29	0x3ebf0fa2	0.37316614
30	0x3fb15609	1.3854381
31	0x3f0fe770	0.5621252
32	0x3fb43093	1.4077324
33	0x3f8acd8e	1.084398
34	0x3f1b986e	0.60779464
35	0x3fa65c5f	1.299694
36	0x3f7c76ad	0.98618585
37	0x3efe294a	0.49640876
38	0x3f2d506f	0.67700857
39	0x3f25b0b9	0.6472278
40	0x3edd43f1	0.43215898
41	0x3f221051	0.63306147
42	0x3f05841b	0.521547
43	0x3f0f8bdc	0.56072783
44	0x3eeedd03	0.46652994
45	0x3f140314	0.57817197
46	0x3f13ab73	0.57683486
47	0x3f567b29	0.8378168
48	0x3f122715	0.57090884
49	0x3ee864bf	0.45389363
50	0x3f86839c	1.0508914
51	0x3ed4c522	0.4155665
52	0x3f0bae39	0.5456272
53	0x3f04694e	0.5172318
54	0x3fa245e4	1.2677579
55	0x3f580a9f	0.84391207
56	0x3f25b765	0.6473296
57	0x3faa9168	1.3325624
58	0x3f8ee5d0	1.1163883
59	0x3fb2485d	1.3928334
60	0x3f07a78a	0.5299002
61	0x3f16836f	0.587943
62	0x3f0fa972	0.5611793
63	0x3f021d89	0.5082632
64	0x3f2c23e3	0.6724226
65	0x3f2e0abe	0.6798514
66	0x3f817568	1.0113955
67	0x3ec9a45a	0.39383203
68	0x3efa5ec7	0.48900434
69	0x3f0b38b0	0.54383373
70	0x3f7edb5f	0.99553484
71	0x3f31a53d	0.6939276
72	0x3f45add9	0.77218395
73	0x3f37de1a	0.71823275
74	0x3f04ff59	0.5195213
75	0x3ef6cd65	0.4820358
76	0x3f0f1eaf	0.55906194
77	0x3f8b8b11	1.0901815
78	0x3facdca4	1.3504834
79	0x3f98d7ac	1.1940818
80	0x3ef65fd9	0.4812
81	0x3f05020a	0.51956236
82	0x3f0a701c	0.54077315
83	0x3f10903e	0.56470096

bn2.bias f4 [84]
0	0xbd2eba07	-0.04265788
1	0x3db959a9	0.090503044
2	0xbf51c25b	-0.8193719
3	0xbf6c59aa	-0.92324317
4	0xbf29128f	-0.66043943
5	0x3d996c45	0.07491354
6	0x3e0e0290	0.13868165
7	0x3f6993f6	0.91241395
8	0x3e6dbb41	0.23215963
9	0xbd0aded5	-0.033903915
10	0x3dc1deff	0.09466361
11	0xbe2cae0e	-0.16863272
12	0x3e61b45b	0.22041456
13	0xbe06526c	-0.13117379
14	0x3dbe58bd	0.09294269
15	0xbf800e18	-1.0004301
16	0xbf3951d3	-0.7239048
17	0xbcccbbe7	-0.024991943
18	0xbf67decf	-0.90574354
19	0x3c92a2c7	0.017899884
20	0xbea08464	-0.31351006
21	0xbf54a2c9	-0.8306089
22	0xbf3ce96b	-0.7379367
23	0x3f54ab68	0.83074045
24	0xbe9b4ba5	-0.3033115
25	0x3f4c79dd	0.7987345
26	0x3f79b427	0.97540516
27	0xbf5e4eb2	-0.8683883
28	0xbf48f2e4	-0.7849562
29	0x3e5d6abb	0.21622746
30	0xbf5a364f	-0.8523912
31	0xbe96e8d6	-0.29474515
32	0x3f8c36ea	1.0954258
33	0x3f51ef8a	0.8200613
34	0x3c414539	0.011796289
35	0xbf687d28	-0.90815973
36	0xbf3502c3	-0.7070734
37	0x3ea48cbd	0.32138625
38	0xbe12ca95	-0.14335091
39	0xbe2fccc4	-0.17167956
40	0xbe233b61	-0.1594062
41	0x3f01f6f4	0.50767446
42	0x3d828a57	0.063740425
43	0xbecc84e0	-0.39945126
44	0x3e001771	0.12508942
45	0x3e912a23	0.2835246
46	0xbeab2d92	-0.33433205
47	0x3eebfeef	0.46092936
48	0x3e17c4c0	0.14821148
49	0xbe97f4bb	-0.29678902
50	0xbf426a88	-0.75943804
51	0x3e95306d	0.29138508
52	0xbdc7dbc5	-0.097587146
53	0x3db00746	0.08595137
54	0xbf721d20	-0.9457569
55	0x3ef95fc6	0.48705882
56	0xbe9af3d0	-0.3026414
57	0xbf84bfb2	-1.0371001
58	0xbf449b51	-0.76799494
59	0x3f771b2d	0.9652584
60	0x3de2c75c	0.11073181
61	0x3e9689ee	0.29402107
62	0xbe20e236	-0.15711293
63	0xbdbd0544	-0.0922952
64	0xbe8b7bee	-0.27242988
65	0xbe430f49	-0.190488
66	0x3f252084	0.6450274
67	0xbe600354	-0.2187627
68	0x3d3d5993	0.046228003
69	0xbe6a8ef3	-0.22906093
70	0x3f22e72c	0.6363399
71	0x3e1bbdb0	0.15209079
72	0x3f180c9a	0.5939423
73	0xbeab1424	-0.33413804
74	0x3e5785c3	0.2104712
75	0xbe727210	-0.23676324
76	0xbe72185b	-0.23642103
77	0x3f4e5c3e	0.806095
78	0xbf7393ef	-0.95147604
79	0x3f479eed	0.77976876
80	0x3e3b7eb8	0.18310058
81	0x3e5ff166	0.2186943
82	0xbec2489a	-0.37946016
83	0xbe38080a	-0.17971817

bn2.running_mean f4 [84]
0	0x3f508c8e	0.8146447
1	0xbdea859c	-0.11451265
2	0xbf843c57	-1.0330914
3	0xbfaebbff	-1.3651122
4	0xbf77f935	-0.96864635
5	0xbeec7069	-0.46179512
6	0x3f313212	0.69217026
7	0x3f2cc012	0.67480576
8	0xbdacde0b	-0.08440789
9	0xbfc81bc7	-1.5633477
10	0xbc248d18	-0.010043405
11	0x3db7b47d	0.08969972
12	0x3f53aa15	0.826814
13	0xbf3e5d9f	-0.74361604
14	0xbe805977	-0.25068256
15	0xbf634d8f	-0.8879022
16	0xbef1c7c9	-0.47222736
17	0xbf5e4473	-0.86823195
18	0xbf9a6111	-1.2060872
19	0xbe3d4405	-0.18482979
20	0xbe9b023e	-0.30275148
21	0xbfc79995	-1.5593745
22	0xbfc56ab6	-1.542319
23	0x3f90123d	1.1255566
24	0xbe2ca7bb	-0.16860859
25	0x3f4ac8d6	0.792127
26	0x3fb94318	1.44736
27	0x3b8f9321	0.004381553
28	0xbf47dc2b	-0.78070325
29	0xbf7ebe7f	-0.99509424
30	0xbfadf0d3	-1.3589119
31	0xbeed0103	-0.46289834
32	0x3f86d38c	1.0533309
33	0x3f0e524f	0.5559434
34	0xbe399553	-0.18123369
35	0xbfa5dae9	-1.2957431
36	0xbf8af6e1	-1.0856591
37	0x3f09c018	0.53808737
38	0x3eeb212a	0.4592374
39	0xbf0ef15c	-0.55837035
40	0xbeef4ec2	-0.46739775
41	0x3e17ce24	0.1482473
42	0xbeeffb49	-0.46871403
43	0x3e92f5a2	0.28703028
44	0x3db2f876	0.087387964
45	0xbf3475b8	-0.70492125
46	0xbfaa1afc	-1.3289485
47	0xbe620f78	-0.22076213
48	0xbe6d8960	-0.23196936
49	0xbe869a71	-0.26289704
50	0xbf59a91b	-0.8502366
51	0xbf81ac52	-1.0130713
52	0xbf39dc50	-0.72601795
53	0x3f80d364	1.0064511
54	0xbf9a48a1	-1.2053415
55	0x3d0f3ba2	0.03496898
56	0x3eb78dc7	0.35850355
57	0xbf3e8d6c	-0.7443454
58	0xbefad8a8	-0.4899342
59	0x3f8525d0	1.0402164
60	0xbf2ded58	-0.6794028
61	0xbe65b094	-0.2243064
62	0xbe982287	-0.29713842
63	0x3e99209e	0.29907697
64	0x3e96441c	0.29348838
65	0xbe81dbf3	-0.2536312
66	0x3ebf9ac7	0.37422773
67	0x3f636da8	0.888392
68	0x3e9d3c90	0.30710268
69	0xbf1584e8	-0.58405924
70	0x3e09d944	0.13461787
71	0x3f186cae	0.5954083
72	0x3e5c4854	0.21511966
73	0xbf19445e	-0.59869945
74	0xbf236145	-0.63820297
75	0xbe145fdd	-0.14489694
76	0x3e4958d0	0.19662786
77	0x3dcefb50	0.10106528
78	0xbf58f6de	-0.8475169
79	0x3f14dc1b	0.58148354
80	0x3d96f7d0	0.07371485
81	0x3f5f9048	0.8732953
82	0x3e9647fb	0.29351792
83	0x3f5bea1b	0.8590409

bn2.running_var f4 [84]
0	0x3fff25a4	1.9933362
1	0x3fdbbe23	1.71674
2	0x40bc74c6	5.8892546
3	0x40f2ed35	7.591456
4	0x408596a5	4.174639
5	0x40428031	3.0390742
6	0x3fe5ea47	1.7962121
7	0x408f7ee4	4.4842396
8	0x3fee1b42	1.8602068
9	0x4040b2d2	3.0109143
10	0x3fe05463	1.7525753
11	0x3fea2966	1.8293884
12	0x403350f9	2.8018172
13	0x400eb429	2.229746
14	0x403bbb20	2.9332962
15	0x40b3c8ae	5.618247
16	0x40965653	4.6980376
17	0x40756db5	3.834821
18	0x40ff8541	7.9850163
19	0x403c4ab7	2.9420602
20	0x409019e3	4.50316
21	0x40b69b4d	5.7064576
22	0x40de0321	6.937882
23	0x409902c3	4.781587
24	0x3fecddf1	1.8505231
25	0x4085c24b	4.1799674
26	0x40c41e91	6.1287313
27	0x40975357	4.7289233
28	0x40966385	4.6996484
29	0x3fd43014	1.6577172
30	0x40e573ec	7.1704006
31	0x400f61ea	2.2403512
32	0x4147a998	12.478905
33	0x4075a177	3.83798
34	0x4035b599	2.8392088
35	0x40e591b7	7.1740375
36	0x40d6e7ba	6.715787
37	0x400564b0	2.0842705
38	0x403c9133	2.9463623
39	0x400505f2	2.0784879
40	0x401887e1	2.3832934
41	0x4045774e	3.0854068
42	0x406b5b93	3.6774642
43	0x405f7956	3.4917808
44	0x3fe7a09f	1.8095893
45	0x401a7361	2.4132922
46	0x403f09ea	2.98498
47	0x4083deaa	4.1209307
48	0x4002a0e5	2.0410702
49	0x3fccbf3b	1.5995859
50	0x4096233b	4.6918006
51	0x3fc4c18b	1.5371565
52	0x401e3ab5	2.4723332
53	0x400b9277	2.1808145
54	0x40bc0e2c	5.87673
55	0x40772c2b	3.8620708
56	0x403febb2	2.9987607
57	0x4064e109	3.576235
58	0x4080c39a	4.023877
59	0x40ba42de	5.8206625
60	0x4013c77f	2.3090513
61	0x405bf035	3.436536
62	0x4010f521	2.2649615
63	0x400f018c	2.2344694
64	0x407fac30	3.9948845
65	0x4029368a	2.6439538
66	0x40885842	4.2607737
67	0x4018c82a	2.387217
68	0x406177c1	3.5229342
69	0x4027ee2e	2.6239123
70	0x41105e86	9.023077
71	0x402a9f6e	2.6659808
72	0x4037d5ed	2.872432
73	0x406927db	3.6430576
74	0x400454a8	2.067667
75	0x3fec75f3	1.8473495
76	0x4057c546	3.3714156
77	0x40b86a0c	5.762945
78	0x41027382	8.1532
79	0x4090142a	4.5024614
80	0x404cfbd5	3.2028706
81	0x40158cc4	2.3367167
82	0x40192878	2.393095
83	0x3fe92d43	1.8216938

fc3.weight f4 [46, 84]
0	0xbd98ff6c	-0.07470593
1	0x3cdb2015	0.026748696
2	0x3c9dd255	0.019265333
3	0x3d02819f	0.031861898
4	0x3cab2535	0.020891765
5	0xbd6c981b	-0.057762247
6	0x3c4f61de	0.012657611
7	0x3c5759a4	0.013143931
8	0x3d92603d	0.07147262
9	0x3d8073c1	0.06272078
10	0x3cf14dd6	0.02945606
11	0xbd385f9e	-0.045013063
12	0xbd357c3c	-0.044307932
13	0xbd234dfc	-0.039869294
14	0x3c3833d1	0.011242823
15	0xbbb69523	-0.0055719777
16	0x3cd12ecf	0.025535015
17	0x3c601243	0.013676229
18	0x3f3d2fa0	0.73900795
19	0x3d186051	0.03720123
20	0xbd397501	-0.0452776
21	0xbd7f483d	-0.06232475
22	0xbc24cc3a	-0.010058457
23	0x3cacb78d	0.021083618
24	0xbd209868	-0.039207846
25	0x3c46e4ef	0.012139543
26	0xbb855b2f	-0.004069708
27	0x3c9e04d5	0.019289413
28	0xbd02fd2a	-0.031979717
29	0x3d0ff735	0.035147864
30	0xbc9319a6	-0.017956566
31	0x3ccadd44	0.02476371
32	0xbe11f7ce	-0.14254686
33	0x3d0c2d6f	0.034223016
34	0xbd3dc358	-0.046328872
35	0x3ccc38d5	0.024929443
36	0xbd4a76e2	-0.04942978
37	0x3dd0ee72	0.1020173
38	0x3d04f658	0.032461494
39	0x3c74d437	0.014943174
40	0xbc9a1adc	-0.018811636
41	0x3c540dd1	0.012942747
42	0xbd4cb3fc	-0.049976334
43	0xbd4045d3	-0.04694159
44	0x3cafd6c3	0.021464711
45	0xbbd6a000	-0.006549835
46	0xbdb6cea7	-0.089261346
47	0xbd45ff92	-0.048339434
48	0x3c3e78e2	0.0116255
49	0xbdaf3ed5	-0.08556906
50	0xbcd63fda	-0.026153494
51	0x3d8f50bc	0.06997821
52	0xbcaf5d09	-0.021406667
53	0xbcafc378	-0.021455511
54	0xbd41236d	-0.047152925
55	0x3d1e7444	0.0386851
56	0xbe00a188	-0.1256162
57	0x3c958c03	0.01825524
58	0xbc65693f	-0.014002143
59	0x3ae225dd	0.0017253716
60	0x3c6bbeeb	0.01438878
61	0x3bb95181	0.005655468
62	0xbbb0f643	-0.0054004504
63	0xbd8633a3	-0.06552818
64	0xbc13a71d	-0.009012011
65	0xbd502fb4	-0.050826743
66	0x3d45bdf1	0.048276845
67	0xbd43a025	-0.047760148
68	0x3d114847	0.03546932
69	0xbd8be6cc	-0.068311304
70	0x3cb6324d	0.022240782
71	0x3c938a4d	0.018010283
72	0x3d02409d	0.0317999
73	0xbda57ecf	-0.080808274
74	0x3d54debf	0.05197024
75	0x3ca42d07	0.020041002
76	0x3d079e8c	0.033110186
77	0x3c85313f	0.016258834
78	0x3aa67040	0.0012698248
79	0x3cbde595	0.023180762
80	0x3d72ab10	0.05924517
81	0x3d8f970f	0.07011234
82	0xbd82b30f	-0.06381809
83	0xbce70cad	-0.028204286
84	0xbd960672	-0.07325448
85	0x3b14a7d3	0.002268304
86	0x3cae54e3	0.021280712
87	0x3d412f1c	0.047164068
88	0x3bff4c1f	0.0077910568
89	0xbca09b5f	-0.019605337
90	0x3d5014c1	0.050801042
91	0x3bf75c80	0.0075488687
92	0x3cee3f49	0.029082911
93	0xbd3cc558	-0.04608664
94	0x3d2adfb0	0.04171723
95	0xbd481fa7	-0.04885831
96	0x3c147a6f	0.009062394
97	0xbd054702	-0.03253842
98	0x3d8c7b43	0.06859448
99	0x3bb8e15a	0.0056420984
100	0x3c190977	0.0093406355
101	0x3dcd4e68	0.100247204
102	0x3f33fba3	0.7030584
103	0x3d54b4ff	0.051930424
104	0xbda54bd3	-0.08071103
105	0x3c280765	0.010255669
106	0x3c847660	0.016169727
107	0x3cf1d6ca	0.029521365
108	0xbd30752b	-0.04308049
109	0xbccc6d52	-0.024954472
110	0x3c63bf82	0.0139006395
111	0x3cd89e4a	0.026442666
112	0xbd808484	-0.06275275
113	0x3cb523ed	0.022111857
114	0xbd120786	-0.035651706
115	0xbcb421a4	-0.021988697
116	0xbe1c0246	-0.15235242
117	0x3c4b5850	0.012411192
118	0x3cd9f99c	0.02660828
119	0xbc3ef7d9	-0.011655771
120	0xbd688952	-0.056771584
121	0x3d7953df	0.060871
122	0x3ce7d24e	0.028298523
123	0xbc6c7f6a	-0.014434675
124	0xbc55fda5	-0.013060962
125	0x3d74561f	0.059652444
126	0xbd826b50	-0.063681245
127	0xbd5510ed	-0.052018095
128	0xbcf6c120	-0.030121386
129	0x3dc2d08f	0.09512436
130	0xbdcf6aec	-0.101278156
131	0x3cd1d70f	0.025615243
132	0x3c3c6eed	0.011501056
133	0xbbf17377	-0.007368501
134	0x3cacc685	0.021090755
135	0x3da51211	0.080600865
136	0xbc70eedc	-0.014705386
137	0x3b86ef71	0.004117899
138	0xbd9ef856	-0.0776221
139	0x3ddc3ed4	0.10754171
140	0xbcd98df4	-0.026556946
141	0xbc81e23d	-0.01585495
142	0xbd1708d9	-0.036873672
143	0xbc1d456f	-0.009599074
144	0xba89e030	-0.0010519084
145	0xbd065c89	-0.032803092
146	0xbb79a5f3	-0.0038093298
147	0xbc86c337	-0.016450508
148	0xbbe6dd35	-0.007045413
149	0xbd3aa790	-0.045569956
150	0x3d0c3456	0.0342296
151	0xbd60e963	-0.054910075
152	0xbd885036	-0.06655924
153	0xbd9a490a	-0.07533462
154	0x3ce78a46	0.028264176
155	0x3be6914f	0.007036365
156	0xbcfd73b3	-0.030938959
157	0xbe0ddf26	-0.13854656
158	0x3e126016	0.14294466
159	0xbcd342ef	-0.025788752
160	0xbc88ac8f	-0.016683845
161	0x3c141c6f	0.009039982
162	0x3d2c112e	0.04200857
163	0x3cb873af	0.0225161
164	0x3d2c8fc5	0.042129297
165	0x3d3ea639	0.04654524
166	0xbd463fc1	-0.048400644
167	0xbbeea46a	-0.0072827833
168	0x3dba6d02	0.09102823
169	0x3d05cffd	0.032669056
170	0x3d82030f	0.0634824
171	0x3cc63115	0.024193326
172	0xbcf6a57d	-0.030108208
173	0xbe0578d7	-0.13034378
174	0x3d3e6023	0.046478402
175	0xbda6e821	-0.08149744
176	0xbd11198c	-0.035424754
177	0x3ce2a4b3	0.027666425
178	0x3d98d16a	0.074618176
179	0xbd9940a1	-0.0748303
180	0x3ae4f0e4	0.001746681
181	0x3d2842e9	0.041079435
182	0xbc77ebfc	-0.015131947
183	0x3bbb3fac	0.0057143774
184	0xbcdafff7	-0.026733382
185	0x3d292949	0.04129914
186	0x3da6c4a6	0.081429765
187	0x3d305076	0.043045484
188	0xbdaac449	-0.0833822
189	0xbd8ae602	-0.06782152
190	0xbc21b704	-0.0098702945
191	0xbd08a312	-0.03335864
192	0x3ddca8f3	0.10774412
193	0x3d5781a9	0.052613888
194	0xbcdd20e2	-0.026993219
195	0xbc581797	-0.013189218
196	0xbd09c318	-0.03363332
197	0x3db4710a	0.08810623
198	0x3ba03508	0.0048891343
199	0x3e13d9b7	0.1443852
200	0xbf083307	-0.5320286
201	0x3d6c7e40	0.05773759
202	0xbca08306	-0.019593727
203	0xbda3a637	-0.07990687
204	0xbc12d6a7	-0.00896231
205	0x3de03ac9	0.109487124
206	0x3e0eb882	0.13937572
207	0xbdb3f31f	-0.08786606
208	0x3e0c4d9a	0.13701478
209	0x3e3069d8	0.17227876
210	0xbe82e986	-0.2556879
211	0x3e29f62e	0.16597816
212	0xbd9f1123	-0.077669404
213	0x3d16211e	0.036652677
214	0xbda63904	-0.081163436
215	0xbd8689fe	-0.06569289
216	0xbc4a0690	-0.012330666
217	0x3cd7b3f9	0.026330935
218	0x3d12c087	0.03582814
219	0x3d94c2e3	0.07263734
220	0x3af5c0af	0.0018749441
221	0x3d494883	0.04914142
222	0x3c90e37e	0.017686602
223	0x3d197898	0.037468523
224	0xbdc17ae3	-0.09447267
225	0xbbdd648a	-0.00675637
226	0x3d78b457	0.06071886
227	0x3cae072c	0.021243654
228	0xbd398935	-0.045296866
229	0xbe3ecf25	-0.18633707
230	0x3cc88bdc	0.024480753
231	0xbe2305d4	-0.15920192
232	0xbe011cf5	-0.12608702
233	0x3d112f85	0.03544571
234	0x3d99bb66	0.075064465
235	0xbdfe6e46	-0.12423377
236	0x3e1e2506	0.15443811
237	0xbe4422cc	-0.19153899
238	0x3c9a1c00	0.01881218
239	0x3dee3ecf	0.116330735
240	0x3d9d6ddb	0.07686969
241	0xbd51d20b	-0.051225703
242	0x3e319f59	0.17345943
243	0xbd1a9828	-0.037742764
244	0xbd019c31	-0.031643096
245	0x3c49d746	0.012319392
246	0xbcf6b02f	-0.030113308
247	0xbd6146c6	-0.054999135
248	0x3d89df53	0.06732049
249	0xbd1120aa	-0.03543154
250	0xbde092d5	-0.10965506
251	0xbd9fd059	-0.07803411
252	0xbc1bb427	-0.009503401
253	0xbc9791f2	-0.01850221
254	0x3bc7727f	0.006086647
255	0xbca3a6d8	-0.019977018

fc3.bias f4 [46]
0	0x3e744417	0.23854099
1	0x3e50490c	0.20340365
2	0x3e85bc7b	0.26120362
3	0x3eafc43f	0.3432941
4	0x3ed5e1e6	0.4177391
5	0x3e6a50a1	0.2288232
6	0x3e91e016	0.28491277
7	0x3eab2331	0.33425286
8	0x3eaca891	0.33722356
9	0x3e4192ad	0.18903609
10	0x3ea780bb	0.327154
11	0x3e35af73	0.1774271
12	0x3e8901a0	0.26759052
13	0x3e8428b7	0.25812313
14	0x3eb4a09f	0.35278794
15	0x3eb711b6	0.357557
16	0x3eacc02e	0.3374037
17	0x3e8d808a	0.2763713
18	0x3e9a2e36	0.3011338
19	0x3ea81c84	0.32834256
20	0x3e5aaa66	0.21354064
21	0x3e66bd37	0.22533117
22	0x3eb33cbb	0.3500727
23	0x3e96f33a	0.29482442
24	0x3eb36db2	0.35044628
25	0x3e912794	0.28350508
26	0x3e9d89f1	0.30769303
27	0x3e83572d	0.25652447
28	0x3e47d83d	0.19516082
29	0x3e8ab6ec	0.27092683
30	0x3ea46e7b	0.3211554
31	0x3e8905b8	0.26762176
32	0x3eb2b351	0.34902433
33	0x3e317b51	0.17332198
34	0x3e5fca32	0.21854475
35	0x3e8c603b	0.27417168
36	0x3ec9e788	0.39434457
37	0x3e83a313	0.25710353
38	0x3e9ce100	0.3064041
39	0x3e7e6444	0.24842936
40	0x3ea48206	0.3213045
41	0x3ea34297	0.31886742
42	0x3ea07820	0.31341648
43	0x3eb5d4c3	0.35513887
44	0x3e82737f	0.25478742
45	0x3e5a1167	0.21295701
