mp4-machine-learning-template/model/model.pth (torch, 89342 bytes, 14 tensors)

fc1.weight f4 [120, 51]
000000 7a b4 a9 3e 96 bc 8e bd 59 71 0a be 0f bc ac bb
       0.33145505 -0.06969564 -0.13519801 -0.005271442
000010 c0 a6 03 bf ec e7 a2 bd a5 ce 95 bd aa da b8 3d
       -0.51426315 -0.07954392 -0.07314805 0.09026082
000020 9b 46 b0 be d9 a0 9b bd 0c bc ff bd a6 07 13 3c
       -0.34428868 -0.07599039 -0.12487039 0.0089739915
000030 e7 9c 07 bf d4 0b b1 3d dc 9f 3d be 95 95 55 be
       -0.5297379 0.08644834 -0.18518013 -0.20857842
000040 57 3b d2 bc dc 56 90 3d ae aa 42 3c 43 9b 5b be
       -0.025663061 0.07047817 0.0118815135 -0.21445946
000050 01 11 c1 3e 31 20 ec be 75 2f f5 3d f1 b6 10 3f
       0.37708285 -0.4611831 0.11971942 0.56529146
000060 df 4e 37 3e f5 73 08 be 17 5b 81 3c 71 42 39 be
       0.1790118 -0.13325484 0.015790505 -0.18091752
000070 05 f5 69 be 74 38 3c 3e d7 c1 04 3d a4 10 69 be
       -0.22847374 0.1838091 0.032411423 -0.22760254
000080 18 87 0e bd 2b 8d 39 3e cd 8e a8 3e c4 1e 63 3d
       -0.034796804 0.18120258 0.32921448 0.055449262
000090 54 44 ad 3d f5 d0 de bc c6 e6 18 bc df 77 d0 3e
       0.08460298 -0.027199248 -0.009332364 0.40716454
0000a0 79 d0 76 be e3 8c 48 3e 8e 98 89 3e 72 87 52 be
       -0.24102964 0.19584994 0.26874202 -0.20559481
0000b0 4f 93 08 bd 73 22 8e 3c 12 b7 9d 3c 7a bd 2d 3e
       -0.03334361 0.017350411 0.019252334 0.16966811
0000c0 1b 51 e2 be c1 69 22 be 83 8b 42 3e 27 a7 8e bd
       -0.44202504 -0.15860654 0.18998532 -0.069654755
0000d0 60 e8 8f 3e 3b 3c a8 3e e4 23 9a 3e 77 79 44 3e
       0.28106976 0.32858452 0.30105507 0.1918696
0000e0 e0 61 cf 3d 70 22 d8 3c 7f 67 80 3d 99 35 8e 3d
       0.1012609 0.026383609 0.0626974 0.06943817
0000f0 2c bf 91 3d 6a 10 00 be 74 ba de bd 96 c5 1b be
       0.07116541 -0.12506261 -0.10875407 -0.15212092
000100 e8 7c 90 be 80 2d 56 3e 6c 93 c4 bd f6 74 19 3e
       -0.28220296 0.20915794 -0.09598431 0.14986023
000110 3d 8b 45 3e 57 0e 32 be 3c 58 7b be 68 3a c6 bd
       0.19291396 -0.17388283 -0.24545377 -0.09679109
000120 d7 8c ef be c5 ea 1e 3e bc 04 88 be 7b 36 70 3d
       -0.4678714 0.15519245 -0.26566112 0.058645707
000130 71 e5 92 be ba 7e b0 be 7e 4a 35 be ea d4 a4 bd
       -0.28690675 -0.34471685 -0.17704198 -0.08048423
000140 42 0a eb 3d a5 e6 19 be b5 53 1e 3f e7 c1 84 be
       0.11476566 -0.1502939 0.61846477 -0.25929186
000150 76 c8 92 3e fa 9e 7a be 2c 3d 2a 3f 24 d9 b1 bd
       0.28668565 -0.24474707 0.6649959 -0.086839944
000160 c6 f9 bb bd ee 9a 83 3d f8 da 4c be 2f b4 34 3d
       -0.091785 0.06426035 -0.20005405 0.04411715
000170 cf 04 1c be 14 e2 4b bd 84 3e 6b 3d 6d a4 0b 3e
       -0.1523621 -0.04977615 0.057432666 0.13636942
000180 67 3f ea 3c 9b 67 dd 3d d9 bc 36 3e 70 30 13 3e
       0.028594686 0.10810777 0.17845477 0.14373946
000190 a3 45 b7 be 78 8c e3 3c f6 62 c2 bd 1d ec 56 be
       -0.35795316 0.027776942 -0.094915316 -0.20988508
0001a0 83 d7 9a 3e a1 18 0d 3f 6b d6 86 bb 89 dd ce be
       0.30242547 0.55115706 -0.004114916 -0.40403393
0001b0 f4 da 56 bd 9d ae 7e bd 57 cb 40 3e 05 0d c7 bd
       -0.052454904 -0.062178243 0.18827568 -0.0971928
0001c0 32 35 35 3e 19 3f 7e be 6e eb e2 3d 3c 43 a0 3e
       0.17696074 -0.24828757 0.11080061 0.31301296
0001d0 2c 16 e1 bd 84 76 d8 3d dc a2 4a be 8a 86 05 3f
       -0.10990557 0.1056948 -0.19788688 0.52158415
0001e0 40 93 61 be cc f4 17 3e 70 7d 1e bd 6b 1d 74 3e
       -0.22028828 0.14839476 -0.038693845 0.23839347
0001f0 c5 37 1d 3d 8e e9 76 bd 3a 35 90 3d 7f 6d a1 bd
       0.038383264 -0.06028133 0.07041402 -0.07882213
000200 da c3 8c be 15 ab a9 3e 1d 42 51 be fe df 94 3b
       -0.27493173 0.33138338 -0.20435376 0.0045433035
000210 b5 e7 a1 3d 7e 14 8f 3d 13 55 71 be 0a 2a f0 be
       0.07905523 0.069863304 -0.2356761 -0.46907073
000220 eb aa ed 3d a6 55 99 bd 7e 17 2a 3c 44 c7 5f 3d
       0.11604866 -0.07487039 0.010381578 0.054633394
000230 d6 74 73 3e cb 9b 38 3e 67 e0 69 bd c2 7d de 3d
       0.23775038 0.1802818 -0.057098772 0.1086383
000240 1b 09 3f 3f 84 67 09 3f 62 e5 ba 3d 7a 82 56 bd
       0.7462327 0.5367358 0.091257825 -0.052370526
000250 ec 6a 07 3e e4 88 82 3c c4 76 a5 3e fe f4 ff 3d
       0.13224381 0.015934415 0.32317173 0.124979004
000260 e7 fc b0 bc ab 13 1b 3e 88 df 35 3e c3 3c 49 3e
       -0.021604968 0.15144221 0.17761052 0.19652085
000270 03 61 9b be db 52 96 3d 95 a6 d5 3d 21 4b df 3c
       -0.30347452 0.07340022 0.104321636 0.027257504
000280 50 5f 70 be 8e 20 94 3e 50 c8 88 be 76 18 2c 3c
       -0.23473859 0.28931087 -0.26715326 0.010503879
000290 0e 70 fa 3d 60 5e 4a be 85 29 04 3f 9a fd 8c be
       0.12228404 -0.19762564 0.51625854 -0.27537233
0002a0 9d 0b 2a be d6 dc 01 be 3e f5 0d 3e 6c 54 d4 3d
       -0.16605993 -0.12681898 0.13863084 0.10367665
0002b0 49 de 13 3c df 53 31 be 95 51 0a 3f 76 ea 4f be
       0.009025165 -0.1731715 0.54030734 -0.20304283
0002c0 e2 c5 71 bf 5f 5b bc be dc a3 e3 3d 40 69 1b be
       -0.9444257 -0.3678846 0.11115238 -0.15176868
0002d0 b1 0f 1f 3e 32 f7 f2 3d 6e 95 47 3d f9 19 1e 3e
       0.1553333 0.11863555 0.04872649 0.15439595
0002e0 5d 34 87 3e ad a6 2e be a7 e3 fc 3e 59 d6 3a 3d
       0.26407138 -0.1705577 0.49392435 0.045614574
0002f0 94 48 90 be 40 75 4a bd 25 95 a8 bd 7c 62 e7 bd
       -0.28180373 -0.049428225 -0.08231572 -0.11298081
000300 9c 3b ba bd f3 ca 80 bd 58 af e2 3c 12 6b 98 bc
       -0.09093401 -0.062887095 0.027671501 -0.018605743
000310 1e 2e 12 3e 28 55 a8 3d 6d 7a c7 bd 6e 48 b3 3d
       0.14275405 0.08219367 -0.09740148 0.08754049
000320 56 da c9 bd cd 7f 81 3e 95 dc f2 3d 58 d0 0e 3e
       -0.098560974 0.25292817 0.11858479 0.13946664
000330 bd 9f 92 bc 5a 8a f2 bd da 81 15 be 79 19 04 be
       -0.017898435 -0.11842795 -0.14600316 -0.12900342
000340 8d 90 e8 bd 4b c1 9c be 8b 47 af bb c0 68 f4 3b
       -0.11355696 -0.3061622 -0.0053491048 0.0074587762
000350 b4 eb 19 3d 0f 8b f7 3d 2b 3e 3e 3c b8 2a 15 3e
       0.0375783 0.1208707 0.011611502 0.14567077
000360 83 52 9e be c3 f5 8e 3e d4 68 0d be f1 c7 31 3e
       -0.30922326 0.27921876 -0.1380952 0.17361428
000370 34 d1 50 3c ec 4e bc bd fb a7 5f 3d f3 1f 96 3e
       0.01274519 -0.09194741 0.054603558 0.2932125
000380 a6 af cc bd bf 28 8f bf 2f b8 80 be 60 83 62 bf
       -0.0999444 -1.118431 -0.2514052 -0.8848171
000390 58 42 c0 bd 78 a4 9d be 68 84 1b bd 6d 29 e2 3d
       -0.09387654 -0.30789542 -0.03796807 0.110430576
0003a0 db eb 27 3e a0 d5 06 be 85 0a 2c 3d 99 3d 69 bd
       0.16398565 -0.13167429 0.04200222 -0.05694351
0003b0 e7 df 2a be 11 5f bd be 6f fb 2f be 64 fe 48 bd
       -0.16686974 -0.36986592 -0.17185758 -0.04907073
0003c0 83 90 d4 bd a4 b5 d9 3d 70 f6 78 3c 83 83 cc 3d
       -0.10379126 0.10630348 0.015195474 0.09986021
0003d0 73 87 bd 3c c3 f3 6b 3e 47 1e 84 bd e7 6d 3b 3d
       0.023135876 0.23042206 -0.064510874 0.045759108
0003e0 38 ad dd 3c 78 27 8c bc 3f d6 f6 bb 3c bf f0 bd
       0.027060136 -0.017108664 -0.0075328643 -0.11755225
0003f0 a0 9d ce 3d 0e 72 a5 3d 6f 36 11 3d 58 ec 33 bd
       0.10088658 0.08078395 0.035452303 -0.043926567

fc1.bias f4 [120]
000000 15 48 ea 3c 81 e7 02 3e df 22 fe bd 2e 49 ca 3d
       0.028598825 0.12783624 -0.12408995 0.09877239
000010 39 2d 79 bc 97 6c ff bd 07 ed 1d bd 4d ea a2 3c
       -0.015208536 -0.12471884 -0.038556125 0.019887114
000020 d9 2b d4 bd 5b 46 8e bc ee 84 14 3c d1 12 49 3d
       -0.10359926 -0.017367532 0.009064896 0.04909021
000030 be 45 01 3d 22 bd c9 bd f2 20 93 bd 26 9a 21 3c
       0.031560652 -0.09850527 -0.07184018 0.009863412
000040 cb 8a fd bb 0e 5a a8 3d 3a a4 00 be 6a af 76 bc
       -0.0077374927 0.082203016 -0.12562647 -0.01505647
000050 aa cf 08 3d 6f fd 30 3d 03 aa 7b 3d 56 82 98 bd
       0.03340117 0.043210443 0.061441433 -0.074467346
000060 dd 3a 57 bc 34 2b 8c 3d e4 59 b5 bd e7 0a fd 3d
       -0.013136593 0.06844178 -0.08855036 0.12355595
000070 1c 85 f0 3d 9d bf a2 3d 91 4a 55 3d 9d 5d 0e be
       0.117441386 0.079467036 0.052073065 -0.13902898
000080 fc 29 99 bd 6f aa 41 3d 40 65 0a be ec 64 18 3d
       -0.07478711 0.04728168 -0.13515186 0.03720562
000090 08 6b 65 3c 25 42 bc 3d 6d ab f3 bd c4 ea 23 3d
       0.014002569 0.091923036 -0.11897931 0.04001881
0000a0 39 1b 35 3d d4 70 91 bd 8a bb ce bd 96 24 04 3e
       0.044215415 -0.071015984 -0.10094364 0.12904581
0000b0 c1 50 ab bc 60 39 5f bd e4 4b bf 3d ab 17 aa bd
       -0.02091253 -0.054498076 0.09340647 -0.083052956
0000c0 77 57 bb bd 2d 40 e3 bd 83 af a6 bc f2 02 9a 3d
       -0.09147542 -0.11096225 -0.020347362 0.07520093
0000d0 ba 40 42 3d 35 2e 2a ba 8a 18 71 bd 26 21 a6 3d
       0.04742501 -0.0006491871 -0.058861293 0.08111791
0000e0 18 1c f5 3d e7 b0 b6 3d e8 f3 a5 bd d9 10 ea 3d
       0.11968249 0.0892046 -0.08103162 0.11428995
0000f0 7e c2 b7 3d ca 84 61 bd f7 93 6e 3a c6 ab f4 3d
       0.08972643 -0.05505828 0.0009101028 0.11946826
000100 cc d8 f6 bd 62 a2 9f 3d eb bb c5 3d 99 4d c2 3d
       -0.120530695 0.07794644 0.09654983 0.09487457
000110 6a ee 80 bd 36 ef a2 3d ee c5 ef bd 41 5c 0c be
       -0.06295474 0.07955782 -0.11707674 -0.13707067
000120 9f 10 b0 3c d1 22 6d bc 49 56 0c be 3b 9e ad bd
       0.0214923 -0.014473633 -0.1370479 -0.08477446
000130 8e b0 a5 bc fa a9 ef bd a2 d4 5a 3b d6 b4 9a bc
       -0.02022579 -0.11702342 0.00333909 -0.018885057
000140 f6 96 01 be ba 35 a3 bd cf df 9f bc 70 54 d3 bc
       -0.12655243 -0.07969232 -0.0195159 -0.025797099
000150 4b b8 bb 3d ac 1e 74 bd fe ed 01 3e ad 89 68 3a
       0.091660105 -0.059599563 0.12688443 0.0008870613
000160 a1 c1 f8 3d 5a e1 a8 3d c8 4b fa bd 04 c4 5c 3d
       0.12146307 0.082461074 -0.122214854 0.053897873
000170 2f 0b 64 bd 72 c1 d4 3d 92 95 d6 3d aa e9 16 3c
       -0.055674728 0.10388459 0.10477747 0.009210983
000180 ba 8f 01 be 4b 1f 0a 3e 24 87 da bc 65 fa c2 bd
       -0.12652484 0.134885 -0.026675768 -0.09520415
000190 1e 0d 81 bd 01 a7 ee 3d b2 71 ea bd 23 9b 98 bc
       -0.0630133 0.11652947 -0.11447467 -0.018628662
0001a0 3b e8 bb 3d 92 ab 28 b9 d1 3a 16 3d c0 26 10 ba
       0.09175154 -0.00016085643 0.036677185 -0.0005498938
0001b0 10 4a be bb 72 a6 c4 bc 97 c7 0c be 3a b9 dc 3d
       -0.005807169 -0.024005149 -0.13748012 0.10777517
0001c0 84 e5 ad bd 35 e9 15 bd af 01 cb bd 57 65 7e 3d
       -0.08491042 -0.036599357 -0.099124305 0.062108364
0001d0 ac bb f1 3d 55 7b 05 3c 1d 37 9e bc d2 86 a3 3d
       0.11803374 0.00814708 -0.01931339 0.07984699

bn1.weight f4 [120]
000000 3b d5 85 3f 3d bf 5e 3f 92 20 6c 3f c7 90 76 3f
       1.0455698 0.87010556 0.922372 0.9631466
000010 37 0c 8f 3f f8 3d 8b 3f 02 5c 8a 3f ba 68 74 3f
       1.1175603 1.0878286 1.0809329 0.954723
000020 53 8c 80 3f 85 98 79 3f 52 bd 8e 3f 95 49 89 3f
       1.0042824 0.9749835 1.1151526 1.072558
000030 d1 b6 7c 3f 5a 5f 82 3f 57 8d 80 3f 8c d8 81 3f
       0.98716456 1.0185349 1.0043133 1.014421
000040 22 48 7d 3f d1 50 70 3f 55 5d 83 3f a7 8b 72 3f
       0.9893819 0.93873316 1.0262858 0.9474434
000050 a5 65 70 3f f7 db 81 3f e9 7f 7e 3f c0 7c 89 3f
       0.939051 1.0145253 0.99413925 1.0741196
000060 de 48 87 3f fd 07 81 3f 5d 15 6d 3f de d3 85 3f
       1.0569112 1.0080563 0.9261072 1.0455282
000070 02 c5 85 3f 5e 69 7c 3f 56 d6 89 3f e3 18 67 3f
       1.0450747 0.9859828 1.0768535 0.9027235
000080 f7 19 71 3f bd 24 73 3f 6a 87 8f 3f 7e 78 7b 3f
       0.94180244 0.94977933 1.12132 0.9823073
000090 94 07 73 3f ab c4 64 3f 07 ea 6e 3f 42 43 76 3f
       0.9493344 0.8936259 0.9332585 0.9619638
0000a0 72 5a 7b 3f cc a7 82 3f 8c 73 83 3f 7d fa 84 3f
       0.98184884 1.0207458 1.0269637 1.0388943
0000b0 f2 d3 8e 3f 73 1a 97 3f c2 e5 7f 3f a6 a2 77 3f
       1.115843 1.1804947 0.9995996 0.96732557
0000c0 db 8a 70 3f 60 35 63 3f 04 6e 95 3f d5 64 84 3f
       0.93961877 0.8875332 1.1674199 1.0343271
0000d0 3a af 8d 3f b4 13 72 3f e5 4b 8c 3f 1f bd 8b 3f
       1.10691 0.94561315 1.0960661 1.091709
0000e0 d3 cf 91 3f 32 fd 7f 3f f6 ff 84 3f 8a e9 85 3f
       1.1391548 0.9999572 1.0390613 1.0461895
0000f0 7f 43 b2 3f f1 8e 84 3f b6 26 82 3f 1f 87 79 3f
       1.3926848 1.0356122 1.0168064 0.97471803
000100 19 d1 80 3f bd db 89 3f 4c 41 70 3f 34 8a 80 3f
       1.0063812 1.0770184 0.93849635 1.0042176
000110 4e 5d 77 3f 6e 53 93 3f 91 2d 89 3f e5 76 75 3f
       0.96626747 1.1509836 1.0717031 0.95884544
000120 c2 fa 83 3f 91 ee 84 3f 25 0c 78 3f c0 13 8b 3f
       1.03109 1.0385305 0.9689353 1.0865402
000130 d8 bd 88 3f 76 1c 8a 3f 3a 0f 84 3f 5c 1e 93 3f
       1.0682936 1.0789936 1.0317147 1.149364
000140 09 6b 81 3f f6 a6 83 3f 15 f4 84 3f fa 0f 84 3f
       1.011079 1.0285327 1.0386988 1.0317376
000150 c7 15 8f 3f a6 3e 83 3f 40 7f 93 3f 1f f6 8a 3f
       1.1178521 1.0253494 1.1523209 1.085636
000160 06 ec 88 3f fb 11 9d 3f bb 1f 8b 3f 27 be 90 3f
       1.0697029 1.2271112 1.0869058 1.130803
000170 44 55 69 3f a9 a0 7b 3f 2f 09 77 3f 2c e4 8c 3f
       0.9114573 0.9829202 0.9649839 1.1007133
000180 7b 2d 7d 3f 86 98 96 3f 2b 3d 85 3f 32 e7 76 3f
       0.9889752 1.1765296 1.0409292 0.96446526
000190 ca db 95 3f fa 12 71 3f d6 73 75 3f 46 64 6b 3f
       1.1707699 0.9416958 0.95879877 0.9194988
0001a0 2e ed 89 3f ed 67 79 3f c4 f8 8e 3f 8d ed 85 3f
       1.0775506 0.97424203 1.1169667 1.046312
0001b0 fc 44 86 3f b0 31 89 3f db 51 8a 3f 36 55 83 3f
       1.0489802 1.0718288 1.080623 1.0260379
0001c0 d2 09 8a 3f 25 f4 8d 3f 13 86 8c 3f ce 08 7d 3f
       1.0784247 1.1090132 1.0978416 0.9884156
0001d0 69 5a 5b 3f 4a 8b 8f 3f fd 34 73 3f f3 bc 89 3f
       0.8568483 1.1214383 0.9500273 1.0760788

bn1.bias f4 [120]
000000 16 da 8a be f9 20 eb 3c 2b af 69 3b 35 77 fe bd
       -0.2711951 0.028702246 0.0035657387 -0.12425081
000010 36 7b b3 be 51 df fd bd 93 01 77 be 35 aa 76 bc
       -0.3505494 -0.1239611 -0.24121694 -0.015055229
000020 1f 0d 73 be 62 6c 96 bd 50 1d 08 bf 39 8d c0 be
       -0.23735474 -0.07344891 -0.5316973 -0.37607744
000030 8f 3c 70 be a4 73 da bd e5 8a 45 be f1 aa 08 be
       -0.23460601 -0.10666588 -0.19291265 -0.13346459
000040 8f 9c a8 be f6 5b 33 3d a4 5e 46 be 20 44 5d be
       -0.32931945 0.043788873 -0.1937204 -0.21608019
000050 73 63 db bd 96 56 94 be 7b 6c 98 be 8c 38 97 be
       -0.10712328 -0.2897231 -0.29770264 -0.2953533
000060 a3 8c b3 be 08 09 59 be 55 50 10 be 07 d9 ad be
       -0.35068235 -0.21194851 -0.14093144 -0.3395464
000070 2b 39 39 be de c0 89 be 87 de a9 be 09 ec 92 be
       -0.18088214 -0.26904958 -0.33177587 -0.28695706
000080 60 e9 15 bd 76 0a 53 be 1d 69 c3 be 3f 41 88 be
       -0.036599517 -0.2060946 -0.38166133 -0.2661228
000090 3a 86 5c bd 42 11 83 bd 4a a6 94 be 53 e2 32 be
       -0.053838946 -0.06399776 -0.29033118 -0.17469148
0000a0 34 cf 8f be 4d 64 2e be 7b b1 5b be e1 9f 07 bb
       -0.2808777 -0.17030449 -0.21454422 -0.002069466
0000b0 76 33 f7 be 75 15 c0 be 32 08 8a be 24 cb c0 3d
       -0.4828145 -0.3751637 -0.26959378 0.09413746
0000c0 7b 29 40 bd f2 63 5f be d0 4f 23 bf 62 9f a1 be
       -0.04691456 -0.2181547 -0.6379366 -0.31566912
0000d0 a9 35 b9 be a7 58 8d be c6 e4 5e be 11 31 11 bf
       -0.36173752 -0.276067 -0.21766958 -0.56715494
0000e0 c5 df b5 be a2 77 0f be 81 50 59 be 05 5c 0c be
       -0.35522285 -0.1401048 -0.21222116 -0.13706978
0000f0 c0 4f 30 bf 95 1c 28 be 94 65 47 be b5 2f 44 be
       -0.6887169 -0.16417153 -0.19472343 -0.19158824
000100 42 da b2 bd b8 4a 72 be 2f f7 36 bd bc 9b 34 be
       -0.087330356 -0.23661315 -0.044669326 -0.17637533
000110 79 77 64 be 88 72 41 be 66 19 96 be 48 4f 3c bd
       -0.223112 -0.18891346 -0.29316252 -0.045974046
000120 20 00 9c be 2b 30 7a be e1 57 81 be 90 1c bf be
       -0.30468845 -0.24432437 -0.2526236 -0.3732648
000130 ed fe 7e be 08 8b 85 be e1 9e 7a be 67 d4 3e be
       -0.24901934 -0.26082635 -0.2447467 -0.18635713
000140 d5 aa 07 be 8b 7b ae be 27 5e bb be 84 1d 6e be
       -0.13248761 -0.3407863 -0.3659527 -0.23253447
000150 ec 94 c0 be 53 b3 55 be 57 4b 97 be d7 35 ae be
       -0.37613618 -0.20869188 -0.29549667 -0.34025452
000160 ac fa be be 9b 8c 33 bf 00 2b bb be e9 67 9c be
       -0.37300622 -0.7013642 -0.36556244 -0.30548027
000170 44 b9 e3 bd ff 32 18 be f0 c6 59 bd b2 47 81 be
       -0.11119321 -0.14863203 -0.053168237 -0.25250012
000180 1b df 2c bd 3c 91 b6 be 62 28 4d be fc d0 30 be
       -0.042204957 -0.3565768 -0.20034936 -0.17267221
000190 de 51 e6 be 22 71 85 bd d1 40 81 bd 18 19 f7 3d
       -0.44984335 -0.06515719 -0.06311191 0.12065333
0001a0 f1 6a 7c be f8 13 0e be 4f ab 45 be d7 03 7f be
       -0.2465017 -0.13874805 -0.1930363 -0.24903809
0001b0 69 01 96 be 56 6f 82 be 11 c1 ac be ab 72 5e be
       -0.2929795 -0.25475568 -0.33741048 -0.2172343
0001c0 b4 5e 9e be 68 e5 76 be 9f 16 91 be 0e 49 3a be
       -0.30931628 -0.24110949 -0.2833757 -0.1819193
0001d0 00 c0 20 bd 70 87 cc be 05 40 bb bd 6e 6b 8c be
       -0.039245605 -0.3994708 -0.0914307 -0.27425712

bn1.running_mean f4 [120]
000000 cc d8 8b 3d ef ef bf 3d 00 14 bd bc 53 55 7b 3d
       0.0682846 0.093719356 -0.023080826 0.06136067
000010 dc 0f 9f bd b1 8d 13 be 12 ba 33 bd 70 2e 6a bd
       -0.07766697 -0.1440952 -0.043878622 -0.057173193
000020 fd ed 10 be 4d 4c 96 bc 7a c1 47 3d 98 7e 34 3c
       -0.14153285 -0.01834693 0.048768498 0.01101651
000030 57 d3 9c 3c 1c a6 c3 bd b5 20 33 bd d8 57 d1 3c
       0.019143743 -0.09553167 -0.043732364 0.025554582
000040 80 a6 7a 3c 39 0d af 3d a0 f7 bb bd 62 6c 1e 3d
       0.015298486 0.08547444 -0.0917809 0.03867758
000050 60 2f 70 3a 1a 2f 9a bb 32 e8 82 3c 27 1e 8a bd
       0.0009162333 -0.004705322 0.01597986 -0.06744032
000060 06 b2 8c 3d 5e b7 ca 3d 5a 8c 04 be ee 64 d7 3d
       0.06869893 0.09898256 -0.12944165 0.10517298
000070 aa 59 10 3e 24 36 1d 3e 02 40 90 bc df 54 0a bd
       0.14096704 0.15352684 -0.017608646 -0.033772346
000080 5f c2 07 be c5 ab 84 3d d9 23 22 be bd 88 30 bd
       -0.1325774 0.06478075 -0.15833987 -0.043099154
000090 bd 0e 45 3c 90 28 87 3d 28 d5 8b bc 8a b7 b9 3c
       0.01202744 0.065995336 -0.017069414 0.022670526
0000a0 e0 8a c5 3d 7b 6b ec bc 10 b5 1b be f5 a0 b9 3d
       0.09645629 -0.028859844 -0.15205789 0.09063903
0000b0 c0 89 dd ba 6e 5d 46 bd 75 11 b5 3d c5 c0 8b bd
       -0.0016902015 -0.048428945 0.0884122 -0.06823877
0000c0 e0 60 13 be 48 be f0 bb 08 fa 3a 3c 14 65 1d 3e
       -0.14392424 -0.007346902 0.011412151 0.1537059
0000d0 90 8e 3b bc 96 52 20 3d 98 5d 2d be 90 6e df 3d
       -0.011447564 0.03914126 -0.16930234 0.1090976
0000e0 ee c4 08 3e 54 8f d2 3c de 36 be bd 23 03 95 3d
       0.13356373 0.02570311 -0.09287809 0.07275989
0000f0 de 7f 8f 3d 10 b4 95 bc a8 4e e3 bb dc 98 47 3e
       0.070068106 -0.018274337 -0.006936867 0.19491905
000100 ac ed 10 be 9a dc 82 3c 61 7e 63 3d 86 5e ac 3d
       -0.14153165 0.015974332 0.055540446 0.084164664
000110 22 cb 2c be 45 d9 c5 3d 3c 0d 05 be b0 e4 e7 bd
       -0.16874364 0.096605815 -0.1299333 -0.113229156
000120 72 5c 6a 3d 3d 7d 6c bd ae 7d 9a bd 3a 4a 06 be
       0.05721707 -0.057736624 -0.07543503 -0.13114253
000130 53 d1 48 bd 0e 44 3d be 16 96 3c 3b aa 1f cb bc
       -0.049027752 -0.18482992 0.0028775982 -0.024795372
000140 c4 9d 9b bd c9 10 59 bd 1a 21 0e bc 5b 44 92 bd
       -0.07598451 -0.052994523 -0.008674884 -0.07141944
000150 78 11 77 3d e0 9c af bd ad b7 0c 3e 9d 00 63 3d
       0.060319394 -0.085748434 0.13741942 0.055420507
000160 a6 3a b0 3d 92 be c9 3d 65 53 e9 bd 6c 38 d1 3c
       0.08604936 0.098508015 -0.11392859 0.0255396
000170 d0 e9 45 bd 17 91 62 3d ae 6d 91 3d f2 8f 56 bd
       -0.048318684 0.05531415 0.07100998 -0.05238337
000180 1c fb 38 bd 37 ae 07 3e 81 85 a2 3c ee 6b 29 be
       -0.04516135 0.13250051 0.01983905 -0.16545078
000190 7b 65 dc bd b6 76 bc 3d a1 34 36 bd 19 38 8f bc
       -0.10761543 0.0920233 -0.044483785 -0.017482804
0001a0 b2 7b a9 3d 12 bc 03 bc 8e 50 1c 3d 22 e5 20 bd
       0.08275546 -0.008040445 0.03816276 -0.039281018
0001b0 f7 e8 06 3d bf 54 40 bd 48 76 6e bd cd 7b 5d 3e
       0.032937016 -0.04695582 -0.05821827 0.21629258
0001c0 6a 09 a2 bd 51 77 6b bd 67 f8 d1 bd 12 22 b9 3c
       -0.07911952 -0.057486836 -0.10252457 0.022599254
0001d0 4b c6 ea 3d 5a 46 8f 3d 1a 31 72 bc d2 b8 3b 3d
       0.11463603 0.0699584 -0.014782215 0.045830555

bn1.running_var f4 [120]
000000 02 62 2f 40 62 c5 3c 40 ae d4 c0 40 34 54 4c 40
       2.740357 2.9495473 6.025962 3.1926394
000010 2b bf 3d 40 18 b6 49 40 1d f9 4e 40 e8 42 87 40
       2.964793 3.1517391 3.2339547 4.2269173
000020 83 60 43 40 2d 06 61 40 f6 67 b3 40 47 d3 e0 40
       3.0527656 3.516002 5.6064405 7.0257907
000030 ac 6c 5d 40 3c 65 57 40 90 08 6e 40 7e f2 53 40
       3.4597578 3.3655539 3.7192726 3.3116755
000040 d0 df 23 40 76 d7 30 40 73 fc 84 40 ec 6b a8 40
       2.5605354 2.7631507 4.1558166 5.263174
000050 ad df 5d 40 10 fd 8d 40 a5 30 ae 40 c4 59 05 41
       3.466777 4.4371414 5.443438 8.334415
000060 bb 17 8a 40 a0 8b 43 40 a1 c5 59 40 77 3d 16 41
       4.315397 3.055397 3.4026873 9.390006
000070 7f c0 68 40 51 0c 87 40 42 24 4e 40 42 5e d6 40
       3.636749 4.2202535 3.220963 6.699006
000080 a5 a3 81 40 b0 82 37 40 1b 50 82 40 24 cf a5 40
       4.051226 2.8673515 4.0722785 5.1815357
000090 de 25 4c 40 0e 60 c6 40 72 27 82 40 02 3d 7d 40
       3.1898112 6.1992254 4.067315 3.9568486
0000a0 3c 16 6c 40 75 ea 79 40 52 83 88 40 9f 97 89 40
       3.688857 3.9049351 4.2660303 4.2997584
0000b0 f4 57 40 40 59 01 61 40 24 9c 46 40 20 b8 2c 40
       3.0053682 3.5157073 3.10328 2.698738
0000c0 cc 06 57 40 2d f5 1e 41 1d e1 8b 40 14 68 7f 40
       3.3597898 9.934857 4.3712296 3.9907274
0000d0 c0 94 c0 40 7b 49 ab 40 2a 65 84 40 4c 53 80 40
       6.018158 5.35272 4.137349 4.010168
0000e0 d2 65 37 40 20 4c 3d 40 c3 62 71 40 37 92 55 40
       2.8655896 2.9577713 3.771653 3.3370492
0000f0 47 36 13 41 8e a4 3b 40 af b5 67 40 1f de 42 40
       9.200751 2.9319186 3.620464 3.0448072
000100 2e 05 32 40 49 07 64 40 3b 94 b8 40 92 98 3e 40
       2.7815661 3.5629447 5.7680945 2.9780622
000110 be 19 70 40 9b 54 63 40 c8 9d 56 40 f6 54 57 40
       3.7515712 3.552039 3.3533802 3.3645606
000120 94 6d 62 40 29 79 35 40 77 8d 97 40 59 ea d2 40
       3.537938 2.83552 4.7360187 6.591107
000130 21 57 3b 40 bb 7b 97 40 b7 ed 24 40 c5 a3 35 40
       2.927193 4.733854 2.577009 2.8381207
000140 f7 63 4b 40 ed 4f 5c 40 90 9f 07 41 23 b3 3a 40
       3.1779764 3.4423783 8.476456 2.9171836
000150 aa 2f 37 40 f9 2f 5c 40 e4 6f 2f 40 b9 f4 5f 40
       2.8622842 3.440428 2.7412043 3.4993117
000160 8f dd 37 40 62 01 84 40 e3 0a 38 40 c3 72 54 40
       2.8728979 4.125169 2.8756645 3.3195045
000170 a6 ec 58 40 06 49 54 40 c7 7e 21 40 92 3f 54 40
       3.3894439 3.316957 2.5233629 3.31638
000180 61 6e 51 40 e4 8d 48 40 67 b6 7a 40 91 0e 54 40
       3.272362 3.1336603 3.917383 3.313389
000190 7e aa 43 40 bb 9f 42 40 a9 43 83 40 61 66 30 40
       3.057281 3.0409992 4.1020093 2.7562487
0001a0 b8 d4 49 40 2a 27 81 40 79 0c 7c 40 fd fc 5d 40
       3.1536083 4.036031 3.9382613 3.4685662
0001b0 c4 63 81 40 7a 87 49 40 10 84 47 40 5e 91 8b 40
       4.0434284 3.1488938 3.1174355 4.361495
0001c0 64 87 5c 40 42 5d 7a 40 80 15 49 40 85 8d 2c 40
       3.4457636 3.911942 3.1419373 2.6961377
0001d0 65 27 37 40 76 56 16 41 6d 1b 4e 40 0d f1 27 40
       2.8617795 9.396109 3.220424 2.6240876

fc2.weight f4 [84, 120]
000000 b4 d3 61 bd 64 0a 58 3c be 8c 32 bf 9b 8e 6a be
       -0.055133536 0.013186071 -0.69746006 -0.22905962
000010 5b 50 37 3e 0d 3f 6e be a7 c9 02 be a6 c1 02 3e
       0.17901747 -0.2326624 -0.12772237 0.12769184
000020 80 13 21 be 9a b6 70 bd 5d 7d b4 3a 09 47 f5 3c
       -0.15730095 -0.058767892 0.0013770271 0.029941099
000030 29 c4 57 bd 3b 79 7e bd b2 c9 91 bd 96 9a 9f 3e
       -0.052677307 -0.062127333 -0.071185485 0.31172627
000040 9b 39 a7 bd 0b 10 1d bd be ea 0d 3d 97 46 88 be
       -0.08165284 -0.038345378 0.034647696 -0.26616356
000050 64 06 67 be ae df 3e bc 75 24 6b 3e 61 4e 44 be
       -0.22561032 -0.011650009 0.22963126 -0.19170524
000060 7e d9 b0 bc 25 11 3b 3e bb 64 ba be 39 70 12 bf
       -0.021588083 0.18268259 -0.36404976 -0.5720249
000070 4e b5 81 be 10 51 72 be ba 67 ab bd 1b 31 8e be
       -0.25333637 -0.23663735 -0.08369394 -0.2777184
000080 8c ee 5b bc db 99 2f be 48 cb a9 3d bd 71 ad be
       -0.013423573 -0.17148535 0.08290726 -0.33875838
000090 ab 99 82 be a7 0f 14 3d 48 fa a0 3c 22 6b eb be
       -0.25507864 0.03614774 0.019650593 -0.45980173
0000a0 09 90 6f 3e 34 c5 7a be 05 8f df be 9f e8 7c be
       0.23394789 -0.2448929 -0.43663803 -0.24698113
0000b0 02 67 25 be bc a0 f7 be be 0f cf 3d 38 2f e0 3d
       -0.16152576 -0.48364818 0.101104245 0.10946506
0000c0 a8 aa 7d 3d 75 d4 15 be 18 ee fb bb 89 bf 85 3e
       0.06193033 -0.14631827 -0.007688295 0.26122692
0000d0 2e 39 92 bd a5 ed bd 3d cc fd bf 3e 14 57 a2 bd
       -0.071398124 0.09273843 0.3749832 -0.07926765
0000e0 af 96 e2 3d 1b ae 84 3e e9 ef 2e 3e 07 1a 23 be
       0.11063897 0.25914082 0.17083706 -0.15927897
0000f0 af 0b 67 3b 6a 4b b3 3e c4 4b a0 bb 9c 2d a4 3d
       0.0035254767 0.35018474 -0.0048918445 0.08016512
000100 54 a4 4d 3e 29 84 67 be a2 b1 ce 3d ca 45 77 3e
       0.20082217 -0.22609009 0.100924745 0.24147716
000110 e8 e9 96 3d 0c 6d 72 3e 7c ba a4 3d 93 6e 73 3e
       0.07368833 0.2367441 0.080433816 0.2377265
000120 8d 19 01 bd ce f2 8d ba a4 12 2e 3d 38 dd 99 3c
       -0.031518508 -0.0010829808 0.042498246 0.018782243
000130 76 2e 1e be 1b 76 34 3e ec 58 68 be bf d8 d4 3b
       -0.15447411 0.17623179 -0.22690171 0.0064955647
000140 44 41 98 3d 4a 75 25 be 33 a5 ad be f6 3f f0 3d
       0.074343234 -0.16158023 -0.339151 0.117309496
000150 94 8a a5 bd ec fe dd bc bd 3c 72 3d 50 c9 5c be
       -0.08083072 -0.027099095 0.059139956 -0.2156117
000160 80 07 c5 bd 75 2f 75 3e f5 a1 91 bd d9 b3 c0 bd
       -0.09620571 0.23943885 -0.07110969 -0.09409303
000170 8f 1d c7 3e 12 b7 98 bd 34 79 4a 3d 10 3d d6 3e
       0.3888974 -0.07456793 0.049431995 0.41843462
000180 05 6a fe 3d af 5d 54 3d ea 14 f7 3d 40 11 ae 3e
       0.12422565 0.051847156 0.12064536 0.33997536
000190 47 63 bd 3d 80 0c 29 3e 56 c3 e1 3d f8 92 c1 be
       0.09247451 0.16508675 0.110235855 -0.3780744
0001a0 bd 6e 85 3d 3c 4a 5d be be d4 d0 be fd 81 88 be
       0.06515262 -0.2161035 -0.4078731 -0.26661673
0001b0 91 97 7b be 49 6b 73 be 21 df 63 be bc ee b5 be
       -0.24569537 -0.23771395 -0.22253086 -0.35533702
0001c0 68 75 5d bd 78 33 7e bd 82 b2 86 be 2c df c6 bc
       -0.054067045 -0.062060803 -0.26308066 -0.024276339
0001d0 4e e1 85 3d 81 b0 24 be 7d cc 83 3e c7 46 b6 3e
       0.06537114 -0.16082956 0.2574195 0.35600874
0001e0 dd 7c b5 3d cd af 44 3b fe a4 2c 3c 30 76 76 3e
       0.088617064 0.0030012012 0.010537384 0.24068522
0001f0 b3 50 14 3a 1c 1c 82 bd 65 9b 96 bd ab 96 67 3d
       0.0005657777 -0.06353018 -0.07353858 0.056540173
000200 21 b4 93 be 22 ce 00 bf 55 99 ad 3e ec 53 45 be
       -0.28848365 -0.50314534 0.33906046 -0.19270295
000210 dc 42 75 bc f1 01 fb 3c 29 c6 3b 3d 26 a1 04 be
       -0.014969554 0.030640574 0.045843277 -0.12952098
000220 66 15 22 be d6 3b 69 bd 0f 27 56 be 23 a3 7f 3e
       -0.15828475 -0.05694183 -0.20913337 0.24964575
000230 9e 0d 40 bd d0 e3 04 be a3 37 1f 3e 78 b1 2b 3f
       -0.046887986 -0.12977529 0.15548567 0.6706767
000240 5e 1b 02 be 01 48 32 3e 1f 3b 84 3d 5b 54 92 bd
       -0.12705752 0.1741028 0.06456589 -0.07144996
000250 dc d5 0c 3e e6 47 c7 3e 9c ad 4a 3e d6 9e 8a bd
       0.13753456 0.38922042 0.19792789 -0.06768577
000260 cd e6 cf bc b1 6a 6d be 42 f3 b5 3e 80 bf 3c bd
       -0.02537861 -0.23185231 0.35537153 -0.046081066
000270 1e 85 25 3e 93 eb 8b be 82 c8 48 3c 83 75 d3 bd
       0.16164061 -0.27328166 0.012254836 -0.10325148
000280 22 2d a1 bc 50 90 55 3e e4 11 c7 3d a4 10 86 3e
       -0.019674841 0.20855832 0.09720209 0.2618457
000290 42 38 90 3d 1b 4f 82 3e 9e 48 5e 3d ce 13 72 3e
       0.0704198 0.25450978 0.054268472 0.23640367
0002a0 39 4f 02 3e 06 05 b5 bc bf d1 b8 3d b2 bf 84 3d
       0.12725534 -0.022097122 0.09024381 0.064818755
0002b0 4d de 68 be a6 25 2f 3e f1 9e f7 3d a6 72 03 bd
       -0.22741051 0.17104205 0.120908625 -0.03209176
0002c0 fa c4 89 3e a0 e9 f1 3d 40 d0 b9 bd 26 1b ee 3d
       0.26908094 0.118121386 -0.09072924 0.11626272
0002d0 f9 54 3e bf b8 ac 86 3d 12 f4 39 bc 63 e3 af 3e
       -0.7434841 0.06575912 -0.011349695 0.3435317
0002e0 b3 67 98 bb bc 19 1e bf b7 50 d8 be 6d be 38 be
       -0.004651034 -0.6175802 -0.4224908 -0.18041392
0002f0 1a 52 de be 35 4e 88 3e 2d 90 c8 bd 64 56 a3 be
       -0.43422014 0.26622167 -0.09793124 -0.31901848
000300 68 dd c8 3e 56 12 b7 be 54 39 06 3e dc 25 2f bf
       0.3923142 -0.35756177 0.13107806 -0.68417144
000310 4d 88 0a 3d 9c 00 9d be d5 1b 9e 3d 0c 26 c9 bd
       0.033821393 -0.30664527 0.07720152 -0.0982171
000320 94 56 eb 3d ae 10 8b bd 0c af ca 3e 29 9c b1 3d
       0.11491123 -0.06790291 0.39586675 0.08672363
000330 21 40 29 3e 11 ea 68 3e 04 e7 9c bd d4 40 99 3b
       0.1652837 0.22745539 -0.0766125 0.0046769176
000340 97 2f 02 be f2 f7 12 be 92 c1 6e 3e ec 8c d2 bd
       -0.12713467 -0.14352396 0.23316029 -0.10280785
000350 cb 3b bb 3c 83 60 05 3e da de 05 be 20 70 26 bd
       0.02285566 0.13025098 -0.13073292 -0.040634274
000360 d7 b8 c4 3d f5 5b 4a 3e 54 e2 e3 3d 07 8e 5b 3e
       0.09605568 0.19761641 0.11127153 0.21440898
000370 23 e4 67 bd 8a f7 94 be 66 6a 78 be 78 1c fb bd
       -0.056614053 -0.29095107 -0.24259338 -0.12261289
000380 d0 4b 90 bd 97 9b 0b bd 94 f4 18 3c b7 6a b0 be
       -0.0704571 -0.03408393 0.009335656 -0.34456417
000390 46 38 d7 3c e4 b7 c7 bd 52 fd 11 be 12 ad 90 3d
       0.02627195 -0.09751871 -0.1425679 0.070642605
0003a0 a5 f0 bb be ef 22 9e bb eb f8 b0 3c d1 2f 95 3e
       -0.36707035 -0.0048259418 0.021603068 0.29138044
0003b0 ae d0 18 be 8d 62 2a 3f 17 e7 21 3e c0 2c 0e be
       -0.14923355 0.66556627 0.1581081 -0.13884258
0003c0 eb 85 3f 3e 95 c3 8d 3d 7d 18 92 3d d6 2a 4d be
       0.1870343 0.0692207 0.07133577 -0.20035872
0003d0 a1 be f1 3e cd d1 a5 bd 64 cb 8f 3e 55 3e 8e bd
       0.4721575 -0.08096657 0.28084862 -0.06945483
0003e0 02 65 7c be 34 49 02 3e 99 b4 30 bc 13 99 42 3e
       -0.24647906 0.12723237 -0.010785245 0.19003706
0003f0 3c 57 e3 bd 21 7e 76 bd fe 0d 77 3e 31 d8 8e be
       -0.11100623 -0.06017888 0.24126431 -0.27899316

fc2.bias f4 [84]
000000 38 93 c9 3c 1d dc 21 3d db 60 ae bc d7 22 26 3b
       0.024606332 0.039516557 -0.021286419 0.0025350356
000010 c8 2e c2 b9 05 a8 a1 bd a7 d6 59 bb 54 b2 51 3d
       -0.00037037418 -0.07893375 -0.0033239515 0.051195458
000020 a7 0b 52 3d 45 5a ff bc 18 6a b9 3d ce 25 d3 3b
       0.051280644 -0.031170974 0.09053439 0.0064437157
000030 b8 dc 67 3d c8 1e 09 bd f7 73 9c bd cf c4 87 bd
       0.05660698 -0.03347662 -0.07639306 -0.06629335
000040 a6 b0 cb 3c 57 50 4f 3c e3 a7 5a bd 72 6b b6 3d
       0.024864506 0.012653432 -0.053382766 0.08907212
000050 c0 9e d8 3c e7 e0 2a bd bf a5 7b 3d 7d 1f 75 3d
       0.026442885 -0.04171839 0.061437365 0.059844483
000060 4d fc f4 3c ad 8b 7f bd 1f 5c 10 bd 8c 62 22 3d
       0.029905463 -0.062389065 -0.035244104 0.039644763
000070 5d 92 1e bd dc 13 7d bc 3c 91 04 bc 91 16 8e 3d
       -0.0387138 -0.015446629 -0.008091267 0.06937898
000080 67 0a 98 3d 07 29 59 bc 90 ce b5 3d 60 26 01 bd
       0.07423859 -0.013254411 0.08877289 -0.031530738
000090 8c 96 98 bd 34 72 ba bd 11 0e 89 3d f8 49 a6 3b
       -0.074505895 -0.09103814 0.06692136 0.0050747357
0000a0 09 8f 88 3d 25 a0 66 bd 26 b0 99 3d 6d 48 f3 bc
       0.06667907 -0.05630507 0.07504301 -0.029697621
0000b0 29 4b 42 3d 5b 9d 9f 3d 04 b7 e3 3c 04 55 24 3d
       0.04743496 0.07793685 0.02779723 0.04012014
0000c0 91 eb 61 3d ae fd 14 3d 03 42 c4 bc ed 2b 85 3d
       0.055156294 0.03637474 -0.023957258 0.06502519
0000d0 88 8a 0d bd 1c 03 d0 bc a6 d1 b6 bd 6e a7 8d bd
       -0.03455594 -0.025392108 -0.08926706 -0.069167
0000e0 8f 01 51 bd 69 7c 25 bc 3d 13 9d bc 12 d6 69 bd
       -0.051026877 -0.0101004625 -0.019174213 -0.05708892
0000f0 d7 f8 b2 bd ed 22 83 bb ad e2 54 bd 92 0d a6 3d
       -0.08738869 -0.004001966 -0.051973987 0.08108057
000100 7b 48 95 3d 64 70 36 3d c7 06 e7 3c 99 4e 05 bd
       0.07289215 0.044540778 0.028201474 -0.03254566
000110 7c f0 14 3d 88 f0 12 bd 3b 26 06 3d 15 cc 44 bd
       0.036362156 -0.03587392 0.032751303 -0.04804619
000120 65 54 ba bd 74 93 20 bd 51 0e 87 bd ae 2c 52 3d
       -0.09098128 -0.039203122 -0.065945275 0.05131214
000130 9d c2 16 bc eb d2 33 bd eb 4f 7e 3d 91 0b 44 3d
       -0.009201673 -0.04390232 0.062087934 0.047862593
000140 4e b8 87 bd 36 63 3c bd a3 9f 58 3d 9e a2 51 bd
       -0.0662695 -0.045993052 0.052886616 -0.051180474

bn2.weight f4 [84]
000000 a7 e9 dd 3f ad e5 dc 3f 28 c1 e5 3f f2 65 f0 3f
       1.733693 1.7257591 1.7949572 1.8781111
000010 10 31 f3 3f 47 27 eb 3f cd e4 e3 3f 83 46 e3 3f
       1.8999348 1.8371361 1.78042 1.7755893
000020 45 a9 ea 3f 33 36 d6 3f af c3 dc 3f 1f e0 ea 3f
       1.8332907 1.673529 1.7247218 1.8349646
000030 c5 4a e9 3f 7e 6b fa 3f 8c ef e6 3f 35 93 e5 3f
       1.8225943 1.9564054 1.8041854 1.7935549
000040 b3 f6 eb 3f 3c b1 f1 3f c0 1e d6 3f 58 00 cf 3f
       1.8434662 1.8882213 1.6728134 1.617198
000050 78 d6 f1 3f 34 ff d8 3f db 28 f4 3f 86 98 e0 3f
       1.8893576 1.6952882 1.9074968 1.7546546
000060 b9 d0 d8 3f 71 4b f5 3f df fb e5 3f 9c 7b eb 3f
       1.6938697 1.9163648 1.796749 1.8397098
000070 e2 21 d0 3f 73 13 f5 3f 57 ac 03 40 37 f8 ea 3f
       1.626034 1.914656 2.0573938 1.8356999
000080 9c 94 00 40 8a 28 d6 3f c0 e9 fe 3f f0 75 f8 3f
       2.0090704 1.6731122 1.9915085 1.9410992
000090 55 f7 da 3f b6 82 dc 3f 17 63 e7 3f c9 d1 e5 3f
       1.710673 1.722739 1.8077115 1.7954646
0000a0 82 cd e3 3f d7 4e dd 3f 66 6b db 3f dc 9c d7 3f
       1.7797091 1.7289685 1.714215 1.6844745
0000b0 c3 c9 e7 3f a5 23 db 3f c0 6e e7 3f 2a c3 eb 3f
       1.8108448 1.7120253 1.8080673 1.8418934
0000c0 37 0e e6 3f 1b a4 ea 3f b2 c8 df 3f 04 bb df 3f
       1.7973088 1.8331331 1.7483122 1.7478948
0000d0 18 f3 e6 3f 36 07 e2 3f 2d 99 de 3f fb 2e dc 3f
       1.8042936 1.7658451 1.7390496 1.7201837
0000e0 91 28 d1 3f f4 5b dd 3f f6 fb e9 3f fe 75 cd 3f
       1.6340505 1.7293687 1.8280017 1.6051633
0000f0 71 b2 e0 3f c0 b8 e3 3f 7d 27 de 3f 64 74 ee 3f
       1.7554456 1.7790756 1.7355801 1.862927
000100 33 61 e2 3f 8f dd f2 3f 25 dd ff 3f 8d d0 fa 3f
       1.7685913 1.8973864 1.9989363 1.9594895
000110 ea f4 f5 3f 4b d5 eb 3f 2f a6 02 40 c7 0b ff 3f
       1.9215367 1.8424467 2.041393 1.9925469
000120 8b 65 d6 3f c6 41 fe 3f dd 74 c0 3f 27 09 ef 3f
       1.6749738 1.9863822 1.5035664 1.8674668
000130 e6 68 d5 3f f5 68 f1 3f 5a cf dc 3f 2d cc e4 3f
       1.6672637 1.8860155 1.7250779 1.787481
000140 01 43 dc 3f 51 8b e0 3f e2 cb e6 3f 2a 0a d9 3f
       1.7207948 1.7542516 1.803097 1.6956227

bn2.bias f4 [84]
000000 69 68 e7 3e ad ad f4 3e 48 2a 0b 3f ba da 3c 3f
       0.45196846 0.47788754 0.5436139 0.7377125
000010 95 bc b5 3e aa 3a d7 3e 2a 80 a8 3e ad 29 c0 3e
       0.3549544 0.42036945 0.3291028 0.37531796
000020 7b 43 0b 3f a1 e7 0b 3f 5b 46 26 3f e3 0b bd 3e
       0.5439984 0.5465031 0.64951104 0.3692313
000030 79 14 dd 3e 44 5e cd 3e 9b f9 cb 3e f8 de c5 3e
       0.43179682 0.4011098 0.3983887 0.38646674
000040 52 7c ef 3e 3a e9 11 3f 04 b7 d7 3e 4b 67 a6 3e
       0.46774536 0.569965 0.42131817 0.3250068
000050 41 d4 82 3e f2 2f b2 3e 7d 41 cf 3e 95 90 da 3e
       0.25552562 0.34802204 0.4047965 0.42688432
000060 76 5b 07 3f 38 8d 98 3e 99 de e1 3e 9c 41 e0 3e
       0.52873933 0.2979524 0.4411514 0.43800056
000070 12 48 e5 3e 23 a3 16 3f 7b 94 c3 3e 8d 5c 1f 3f
       0.44781548 0.58842677 0.3819922 0.62250596
000080 73 42 0c 3f 81 39 01 3f 92 6f 32 3e be 88 f6 3e
       0.54788893 0.5047837 0.17425373 0.481512
000090 8b 29 ac 3e 6c d1 ce 3e 60 4a b8 3e 35 60 d9 3e
       0.33625445 0.4039415 0.35994244 0.42456213
0000a0 55 04 e5 3e 68 2f 18 3f 90 f8 9c 3e 91 cf c3 3e
       0.44729868 0.59447336 0.30658388 0.38244298
0000b0 32 2f da 3e 68 c9 30 3f 10 fa 04 3f dd 53 db 3e
       0.42614132 0.6905732 0.51944065 0.4283742
0000c0 a7 39 d2 3e 53 bd fe 3e a5 29 00 3f e1 58 f5 3e
       0.4105961 0.49753818 0.50063545 0.47919372
0000d0 2d c2 1e 3f 58 1f d4 3e 15 15 8c 3e 4a 9a 9d 3e
       0.6201504 0.41430163 0.27359834 0.30781776
0000e0 7a 3e 07 3f 2a f6 a1 3e 28 ed 11 3f 84 65 87 3e
       0.52829707 0.3163312 0.57002497 0.26444638
0000f0 13 dc fc 3e 2d a4 08 3f 12 45 00 3f 5e 7f 07 3f
       0.49386653 0.5337551 0.5010539 0.5292872
000100 fc ff 0e 3f a2 5b af 3e 23 00 b7 3e 0c 43 f5 3e
       0.5585935 0.34249598 0.35742292 0.47902715
000110 f4 33 fa 3e ce b0 a4 3e 10 35 c0 3e ff 96 23 3f
       0.48867762 0.3216614 0.37540483 0.63902277
000120 41 23 cc 3e 95 29 c9 3e 6c 95 72 3e da b6 ee 3e
       0.39870647 0.39289537 0.23689812 0.4662388
000130 cc de 0f 3f f4 ab d1 3e 3f 53 ad 3e 19 0c 1f 3f
       0.56199336 0.40951502 0.33852574 0.62127835
000140 9d 58 c3 3e 4b 39 f3 3e 8b 5c ad 3e 9a bc a5 3d
       0.38153544 0.4750465 0.33859667 0.080926135

bn2.running_mean f4 [84]
000000 9c 38 aa bf 40 1d 91 3c cc b8 e9 be 5d c6 9b bf
       -1.3298526 0.017714143 -0.456488 -1.2169911
000010 91 32 bf 3e 89 f7 2c be 58 c9 03 bf bc 99 98 3e
       0.37343267 -0.16891302 -0.514791 0.2980479
000020 b2 99 a9 be 78 a6 e9 bf 67 dd cd bf 04 5e d1 3d
       -0.33125073 -1.8253927 -1.6083192 0.1022301
000030 2f 6a e5 3e 3b 53 f9 bf 82 56 d1 3e 77 01 94 be
       0.44807574 -1.9478525 0.40886313 -0.28907368
000040 ea ab 95 bf d2 de ea bf 01 bc 3c bf 39 1c 01 3e
       -1.1693089 -1.8349249 -0.7372437 0.12608422
000050 0d bc 00 3f 20 03 04 be 22 49 95 bf e6 b9 87 be
       0.5028694 -0.12891817 -1.1662943 -0.26509017
000060 df 54 aa bf fc 30 3c be c4 be a2 be e7 2f d6 3e
       -1.3307151 -0.18378061 -0.31786168 0.41833422
000070 40 a7 9b bf 2e c8 e6 bf 88 5b cd 3f 48 88 26 c0
       -1.2160416 -1.802984 1.6043558 -2.602068
000080 ee 0a 95 bf 5b 5a 3d c0 7a 4c c8 be a5 32 e6 bf
       -1.164396 -2.9586399 -0.39120847 -1.7984205
000090 ed 0a c0 bf 90 bf 50 3e 07 92 10 40 89 fc a3 bf
       -1.5003334 0.20385575 2.2589128 -1.2811443
0000a0 6b 1c ae bf 08 77 44 bf 68 9b 81 bf 9c 6e 2b bf
       -1.3602422 -0.7674413 -1.0125551 -0.6696565
0000b0 df 87 13 bf 7c c6 fc 3c 11 8e f1 bf f8 9e eb 3f
       -0.576292 0.030856363 -1.887148 1.8407888
0000c0 77 ca 30 bf b4 60 4a 3e 24 f5 b4 bf df 9a 60 bf
       -0.69058937 0.19763452 -1.4137311 -0.87736315
0000d0 cb c5 e4 bf f1 0e 16 bf d4 61 c8 bf 12 96 20 c0
       -1.7872862 -0.5861655 -1.5654855 -2.5091596
0000e0 5a 73 4a bf 3f d1 76 bf df 2f bb bf 7f 8b c0 bf
       -0.7908226 -0.96413034 -1.4623984 -1.5042571
0000f0 34 67 86 bf e5 bd 13 bf 46 ab e4 bf 6c a9 be be
       -1.0500245 -0.5771163 -1.7864769 -0.37238634
000100 0a cd dc bf ba 8f 0e c0 dd 11 b5 bc 00 74 66 bf
       -1.7250073 -2.2275224 -0.022103244 -0.9002075
000110 1d 6a be bd 5c 06 7f bf c3 e8 08 3e c0 9f 7d bf
       -0.09297583 -0.9961908 0.13370042 -0.99071884
000120 b3 6a b9 bf 39 15 21 3f f2 42 fb be 96 38 37 bf
       -1.4485687 0.6292301 -0.49074513 -0.7157072
000130 ff 91 94 bf c9 2b db be 15 ba 92 bf 3e f8 d1 bf
       -1.1607054 -0.42806843 -1.1463038 -1.6403883
000140 92 59 dc 3e 99 00 f5 3d bc ff 56 3e 8d 8b 28 bf
       0.43037087 0.119630046 0.20995992 -0.6583794

bn2.running_var f4 [84]
000000 92 ec b6 40 a7 f9 b9 40 61 20 bd 40 02 ce 8b 40
       5.716378 5.811725 5.9102025 4.3688974
000010 fa e7 e6 40 7c bd e8 40 a4 8a 9e 40 37 08 a8 40
       7.2158175 7.2731304 4.954424 5.251003
000020 ab fb 9d 40 57 12 ac 40 cb ad 87 40 ce 7f d0 40
       4.936971 5.3772388 4.239965 6.515601
000030 bf 68 b4 40 6b 5e ab 40 5e 36 a5 40 0f 7a c0 40
       5.6377864 5.3552756 5.1628866 6.0148997
000040 ad 3e e0 40 28 17 d0 40 e8 b7 d1 40 75 3a 85 40
       7.007651 6.5028267 6.5536995 4.163386
000050 a6 d9 b2 40 38 c0 7f 40 17 dc a0 40 22 09 e6 40
       5.5890684 3.996107 5.0268664 7.188615
000060 f7 58 8b 40 8f d9 c1 40 d7 d9 b6 40 38 3d cf 40
       4.35461 6.0578074 5.714092 6.476223
000070 83 2e 82 40 d6 5e d2 40 7b a3 00 41 0a 24 8d 40
       4.0681777 6.5740767 8.039912 4.4106493
000080 2b 27 e1 40 62 2d 85 40 e7 fd b4 40 1e 81 bc 40
       7.0360312 4.16179 5.655994 5.8907614
000090 ff 32 5f 40 b4 2c b5 40 b6 d2 02 41 89 f9 c8 40
       3.4874876 5.661707 8.176443 6.280461
0000a0 43 97 a8 40 1e 95 bb 40 25 01 9d 40 dd 75 08 41
       5.2684646 5.861953 4.9063897 8.528775
0000b0 a8 b3 df 40 db c7 88 40 ee b5 aa 40 64 34 99 40
       6.9906807 4.2743964 5.334708 4.7876453
0000c0 ed 81 c0 40 1c 24 0e 41 22 5c 93 40 3d 89 c2 40
       6.01586 8.883816 4.6049967 6.0792527
0000d0 d9 77 91 40 8a 17 11 41 36 6b 7f 40 e4 15 9b 40
       4.54588 9.068247 3.9909186 4.846422
0000e0 e6 f6 85 40 cf f6 dd 40 cd 83 cd 40 a8 4b db 40
       4.186389 6.936378 6.422339 6.8529854
0000f0 84 3f 8a 40 5b f6 96 40 b3 39 87 40 32 84 c0 40
       4.3202534 4.7175727 4.2257934 6.016137
000100 82 26 9c 40 76 be 93 40 ab f6 cc 40 df e1 c0 40
       4.8797007 4.6169996 6.405111 6.027572
000110 ce 04 0a 41 7a 07 cc 40 f2 08 cb 40 ca a3 b5 40
       8.626173 6.3759127 6.344842 5.676244
000120 d9 e3 ef 40 a2 39 c8 40 7f 9f 6f 40 59 a3 b5 40
       7.4965634 6.2570353 3.7441099 5.67619
000130 5e 1a 88 40 c5 30 f6 40 13 0e c4 40 47 bc 92 40
       4.2532187 7.6934533 6.126718 4.585483
000140 2a 45 99 40 1f a7 ff 40 d2 cd bc 40 12 6d cc 40
       4.789693 7.9891505 5.9001245 6.3883142

fc3.weight f4 [46, 84]
000000 23 fe 0d 3e 80 a4 9d 3e dc 50 eb bd be 62 ae bc
       0.13866477 0.30789566 -0.11490032 -0.021287318
000010 f3 ab 29 be 54 0c ae 3d f3 37 26 3f db 01 b3 bd
       -0.165695 0.08498445 0.6492912 -0.08740588
000020 ee 1a 25 be f5 ee ad 3e 08 95 dd be 07 d5 a5 be
       -0.16123554 0.33971372 -0.43277764 -0.3238909
000030 b6 c5 e3 be 1d 7b ab 3e 21 c9 9e 3e 6c 09 69 bb
       -0.4448678 0.33492365 0.31012824 -0.0035558594
000040 f3 dc f0 bd 67 65 e4 bd dc 95 6d 3e 6d d5 72 be
       -0.11760893 -0.111521535 0.23201698 -0.23714228
000050 ba c0 6e be 3d 72 ea be 81 8f c1 be dd 06 96 3e
       -0.23315707 -0.45790282 -0.37804797 0.2930211
000060 cb ad 64 be f9 98 10 bf 34 b3 00 3f b6 4e c1 bd
       -0.22331922 -0.5648342 0.5027344 -0.09438841
000070 6f d8 96 be 66 5d c6 3e 97 3d 22 bf 36 9a ba be
       -0.29462 0.38743132 -0.6337523 -0.3644578
000080 3a cf 72 be 4d 0e 97 be 06 cb 35 bd a8 88 a2 be
       -0.23711863 -0.29503098 -0.04438307 -0.31744885
000090 5b 00 9c be 5f 28 f3 3d 4e 0d 43 be 9e 17 dc 3e
       -0.3046902 0.118729346 -0.19048044 0.42986768
0000a0 78 2a 28 3d b0 94 e3 bc c1 dc 72 be b8 4e 99 3e
       0.041056126 -0.02778086 -0.23717023 0.2994287
0000b0 db 32 7f bd 51 0e 9e 3d 17 37 2c be 48 91 26 be
       -0.06230436 0.077175744 -0.1681789 -0.16266358
0000c0 9c b3 a5 be 02 76 11 be d6 4c 63 3e 58 08 bb bc
       -0.32363594 -0.14205173 0.2219728 -0.022831127
0000d0 8d 9a bc bc 08 fc af 3b c3 cc 86 be 1a 84 8f be
       -0.023022914 0.0053706206 -0.26328096 -0.28030473
0000e0 b9 32 d8 3e 2f 50 be 3e 34 1f 50 bf 14 da 7e be
       0.42226198 0.3717055 -0.8129761 -0.24887878
0000f0 b9 cc b4 3e 71 18 2f bc de 64 33 be 91 25 89 3d
       0.3531244 -0.01068698 -0.17518947 0.06696618
000100 13 90 ea bb e9 05 f0 be 06 fd 8f 3d a3 dc 45 bf
       -0.0071582883 -0.4687951 0.07030682 -0.7728979
000110 5a ab 35 be fa 72 1b bf ab b4 ba be 93 8b 9a 3e
       -0.17741147 -0.60722315 -0.36465964 0.30184612
000120 9f db 12 3e e2 cd a0 bb 1e 61 17 3f 63 b7 b2 be
       0.14341591 -0.0049073556 0.59132564 -0.34905538
000130 f2 59 b1 bd 3e 93 a5 3e 3d 6a ab 3a f9 9e 07 bf
       -0.08659734 0.323389 0.0013077926 -0.5297695
000140 57 f8 d8 bc 70 84 56 3e 53 95 11 be 2f 55 b6 3d
       -0.026485605 0.20948958 -0.14217119 0.08902966
000150 21 18 ca bd ba c8 af 3d 77 6c 2f be c4 60 3d 3d
       -0.098678835 0.085832074 -0.1713122 0.04623486
000160 28 5d f5 bd 7a 8b c5 bc f3 4d d0 3e a8 93 0a bf
       -0.11980659 -0.02411436 0.4068447 -0.54131556
000170 0b 29 94 be 5f 4b 33 3e 52 1d 8a be b9 65 55 be
       -0.28937563 0.1750922 -0.26975495 -0.20839585
000180 99 36 78 be c9 dd 91 3e c5 7a a5 3e 0c ac 49 be
       -0.24239577 0.2848952 0.32320228 -0.19694537
000190 d0 9e e8 be 99 ac 0d bd ea a3 06 3e a1 10 f3 bc
       -0.45433664 -0.03458843 0.13148466 -0.029671015
0001a0 1b 11 7c be 40 91 04 bf 37 01 b2 be ed b7 6d 3e
       -0.246159 -0.51784134 -0.34766552 0.23214693
0001b0 92 4e 2e bc 7a 4a 42 bf 97 12 ff 3e ea f8 81 be
       -0.01063885 -0.7589489 0.4981887 -0.2538522
0001c0 21 76 82 be 3c 85 a9 3e ad c7 19 bf d0 90 82 be
       -0.2548075 0.33109462 -0.60070306 -0.25501108
0001d0 95 41 fc 3d b0 42 b9 be 1f 39 1b be c6 55 01 bf
       0.12317196 -0.3618369 -0.15158509 -0.50521505
0001e0 da a3 46 be 04 18 b3 3e fe 5e bd bc 40 66 c4 3e
       -0.19398442 0.3497926 -0.023116585 0.3835926
0001f0 a4 53 26 3d 57 2a 03 3d 51 95 9c be e0 5e 9a 3d
       0.04060711 0.0320228 -0.3058267 0.07537627
000200 dc c4 09 3e 02 aa 07 3d 1a f1 f1 be 84 23 a9 be
       0.13454002 0.033121116 -0.47254258 -0.3303491
000210 71 4c 80 be f9 cd 93 3e 95 78 b1 bd d5 7d 89 3e
       -0.2505832 0.28868082 -0.08665577 0.26853815
000220 0c 8a 5a 3e aa 5d 10 3e f4 07 f1 bd 43 3e ba be
       0.21341723 0.1409823 -0.11769095 -0.36375627
000230 b3 c2 cf 3e ab 7b 86 3e 43 04 42 bf 0e 15 88 3b
       0.4057823 0.26266226 -0.7578775 0.0041529005
000240 87 81 0b 3d 06 f7 66 3e ff 01 97 bd c7 32 62 3e
       0.034059074 0.2255517 -0.073734276 0.22089683
000250 15 aa cf bd 20 7e 26 bf 23 70 2c 3e 85 1d c7 be
       -0.101398624 -0.650362 0.16839652 -0.3888971
000260 fb 5b 12 be 77 2c c9 be be 95 b6 be 91 d6 8b 3e
       -0.142929 -0.39291736 -0.3566112 0.2731214
000270 58 6e 39 be 80 7e 0f 3d cc 4b ab bb 62 64 bb be
       -0.18108499 0.03503275 -0.0052275416 -0.36600024
000280 0e 82 a6 3c 25 13 91 3e 17 3a 36 be 2f 8c ff be
       0.020325687 0.2833492 -0.17795597 -0.4991164
000290 fc 8b 46 3e 74 42 ee 3e f2 1a e4 3e 58 58 68 3e
       0.19389337 0.46535075 0.44551808 0.2268995
0002a0 72 6d 40 be f8 62 4a bf 56 47 3a bd da 8f 23 3d
       -0.1879175 -0.79057264 -0.045478188 0.03993211
0002b0 5e 22 05 3e 75 31 0b bf 1f d0 6e bf 83 ac c5 3e
       0.13001391 -0.5437234 -0.9328632 0.38608178
0002c0 1c bf f0 be c5 82 b8 3d de 37 61 bd 79 65 c7 3e
       -0.47020805 0.09009317 -0.05498492 0.38944605
0002d0 f2 e6 0f 3f 3e d8 d8 be ae e1 7b be 29 bd c9 3e
       0.5621177 -0.4235248 -0.24597809 0.3940213
0002e0 87 94 10 be 1c 49 0b bf 7e 0d 76 be bd a6 92 3e
       -0.14119159 -0.5440843 -0.24028584 0.28642836
0002f0 6e 81 01 3d af b2 8e 3e 65 d2 97 be d4 2a fd be
       0.031617574 0.278707 -0.29652706 -0.49446738
000300 10 5b e0 bd 9b d8 d6 3e 68 b7 25 bf c7 47 54 3e
       -0.10954869 0.41962132 -0.6473298 0.20730506
000310 c3 75 bd bd bd c8 28 bf 55 02 d6 3e b8 90 9c 3d
       -0.09250977 -0.659313 0.41798654 0.076447904
000320 7b 98 e7 3c b0 59 20 be 56 41 8b 3d f3 d5 0e be
       0.02827095 -0.15659213 0.06799571 -0.13948803
000330 c6 bd b1 bd 37 dc e0 be 49 7f f1 3d 51 8d 03 bf
       -0.086787745 -0.4391801 0.11791856 -0.51387507
000340 66 d0 ef be c3 1b 94 bc 57 bf cb 3c 9c e7 82 bf
       -0.46838683 -0.018079644 0.024871511 -1.0226932
000350 e9 fb 23 be b8 27 1c be 01 da 84 3d 2c c0 eb 3e
       -0.16014065 -0.15249527 0.064868934 0.46045053
000360 cb af 7d 3e 50 46 84 bc 68 02 ad be cd 64 36 be
       0.24774091 -0.016146809 -0.33790898 -0.1781189
000370 a7 d4 b6 be 5e e6 48 bd 1c c4 25 3e fe 6d e1 3e
       -0.35709116 -0.04904782 0.16188091 0.4402923
000380 f6 88 01 bf 3b 2f ed be fc b5 b6 3d 5d 3b 4b 3e
       -0.5059961 -0.46325096 0.089214295 0.19846864
000390 12 79 d2 bd 50 14 b3 3d cb 72 9d be 68 70 2e bd
       -0.102769986 0.08744109 -0.30751643 -0.042587668
0003a0 f3 83 af 3d ba 10 fb 3e c1 cc 76 be af 83 a2 3e
       0.08570089 0.490362 -0.24101545 0.31741092
0003b0 58 43 e4 3e 1c c8 1f 3e e0 3d a4 3e 4d 13 bf be
       0.4458263 0.1560368 0.32078457 -0.37319413
0003c0 04 62 8d 3d 54 e2 6d be 6c 28 83 be e7 90 63 3e
       0.069034606 -0.23230869 -0.25616777 0.22223245
0003d0 2a f6 b9 bc 80 ca cd be 29 4f 04 3e 18 23 55 3e
       -0.022700388 -0.40193558 0.12920822 0.20814168
0003e0 31 17 b7 3e b8 8f 77 bd 30 ab 0c 3e c1 d2 c1 be
       0.3575988 -0.060439795 0.13737178 -0.37856105
0003f0 7e 13 47 3d db 7c cd 3e f9 39 8b be 2b 83 86 3e
       0.048602574 0.4013432 -0.27192667 0.26271948

fc3.bias f4 [46]
000000 f4 2d 89 3d 2d c5 89 bd f5 a5 46 be 01 23 04 3c
       0.06698218 -0.067270614 -0.19399245 0.008064986
000010 ae 67 4e bc aa 3a 38 be 70 db ad bd f5 df 03 be
       -0.012597961 -0.17991129 -0.0848912 -0.12878402
000020 0c 69 c3 bd b6 62 01 be b5 7d 04 3d c3 6b ed bd
       -0.095415205 -0.12635311 0.032346446 -0.115928195
000030 0d c8 64 be 95 20 3f bd 11 72 1d 3d 6b bd 98 bd
       -0.22341938 -0.046661932 0.03843886 -0.074580036
000040 df 21 58 3d 8f 5c c7 bd a2 58 14 be 83 96 a6 3d
       0.052766677 -0.09734451 -0.14486936 0.081341766
000050 1d b6 b5 bb ff e7 4a 3c 7d e6 14 be da dd fe bd
       -0.0055453912 0.012384414 -0.1454105 -0.124446586
000060 b9 ca 48 be c6 31 33 3d d0 5a ec bb 26 cf e0 3d
       -0.19608583 0.04374864 -0.007212974 0.109770104
000070 65 30 0d bd 08 ec 3f 3d f3 9b 77 3d 2b c5 7e be
       -0.03446998 0.046855956 0.06045146 -0.24879901
000080 90 a7 20 3d 6f 06 34 3d f6 04 39 3c 79 6b bb bd
       0.0392223 0.043951448 0.011292687 -0.09151358
000090 2d 08 8d bc 61 80 46 3b a5 0e 4b bc ad 20 6b be
       -0.017215813 0.0030288922 -0.012393628 -0.22961684
0000a0 86 c0 e7 39 8a 82 65 3d 44 92 81 3d aa ee c5 3c
       0.00044203195 0.056032695 0.06326726 0.024161655
0000b0 66 43 dc 3c 15 71 3f 3d
       0.026887607 0.046738703
