mp4-machine-learning-template/model/model.pth (torch, 99326 bytes, 14 tensors)

fc1.weight f4 [120, 49]
-0.0063481247 0.097440474 -0.3671739 -0.044811897 0.123576924 0.025359483 0.016475014 0.012685914
0.079519175 0.10388848 -0.06171686 0.09103642 0.05894144 0.42324564 0.17527708 0.49224672
0.05202453 0.5422662 0.014232022 0.88228154 0.031373933 0.37579447 0.16618875 0.28629574
0.060286347 0.43298298 0.17766176 -0.14945653 0.080110125 0.042930495 -0.0032853975 0.39554146
0.089944 0.08202821 -0.06362872 0.195318 -0.03381496 -0.020841697 0.022451438 -0.41599983
0.23951064 -0.087374456 -0.057691712 0.013527535 -0.09792858 -0.0412756 0.05496882 0.0836188
-0.049041264 0.1930463 -0.08222037 0.0806082 0.32917017 0.20863107 -0.1450197 -0.22170714
0.24638183 -0.09086822 -0.032891445 0.039398298 0.24446294 0.12023927 0.15240829 0.1862197
0.44001418 -0.2461464 0.053460553 -0.14598873 0.47559622 -0.23670428 0.14874946 0.037899654
0.3667534 0.09398176 0.11214611 -0.23908804 0.07611246 -0.21805374 -0.037308395 -0.07466827
-0.122129686 0.095353596 -0.015179669 -0.18998082 0.10646034 -0.17522077 -0.16611058 0.09665641
-0.5021693 0.23594365 0.3461447 0.07731136 -0.03677512 -0.12589496 0.107451245 0.1992407
0.034269918 -0.5228575 0.062727965 -0.1378769 0.35509712 -0.31017363 -0.1590361 0.33973524
0.14906278 0.0020149641 0.23197992 0.033136684 0.11719738 0.24641688 0.1454004 0.11098143
-0.18496388 -0.041225556 -0.376893 0.14754905 0.10377037 0.51516175 0.14912824 -0.07985988
-0.074637026 -0.15505081 0.010812172 -0.30161476 -0.34760448 -0.39689353 -0.047896292 0.10708255
-0.053898696 0.19479024 -0.29757923 0.107929535 0.48444608 0.077818364 0.1162039 -0.16308333
-0.084993884 -0.119654775 0.12437629 0.25550893 -0.2246476 0.08040133 -0.20876274 -0.39117983
0.026131796 0.0714848 -0.13518287 -0.05289149 0.15810257 0.08062665 0.17880595 0.36170524
0.051054258 0.06879754 0.090317555 0.09823936 0.02482807 0.029017681 0.020630885 0.07407281
0.08421209 0.180327 0.11562221 0.11882204 0.14741233 0.10959469 0.114298016 -0.0147570595
0.085110836 0.17545064 0.010333458 0.04297121 0.06506003 0.12376305 0.759266 0.7320478
0.19675434 0.06725231 0.3983113 0.21024047 0.18497321 -0.05181484 0.27600652 -0.111552246
-0.033827033 0.069667175 -0.12398092 0.22713876 0.38259315 0.11904844 -0.056759685 0.016846193
0.009011319 1.0048529 0.39164937 -0.11722131 0.3247745 0.20725243 -0.53758466 -0.24371542
-0.13374634 -0.3923318 0.0033715903 -0.17653035 -0.15568754 0.020843845 0.04462943 -0.22834031
0.09660442 -0.16089715 -0.11858195 -0.005094654 -0.044959545 -0.16153952 -0.081559636 0.43272
-0.024938667 -0.2334033 -0.03117327 -0.11238824 0.058214 -0.41821834 0.3373862 0.27440694
0.10532426 0.3210328 -0.18839723 0.19240189 -0.046710536 0.020367892 -0.16878697 -0.024420446
-0.16281845 -0.029275183 -0.45507413 0.26988518 0.17069936 -0.16001083 -0.2374583 -0.011604697
-0.13364294 -0.09360682 0.0026687116 -0.09359954 0.39526808 -0.031899057 0.15466946 -0.35699457
-0.30257425 0.07907086 0.14827344 0.14313407 0.47389936 0.2310957 0.086857766 0.011118982
00000000: ee03 d0bb df8e c73d 38fe bbbe ae8c 37bd
00000010: e615 fd3d b1be cf3c 9cf6 863c 94d8 4f3c
00000020: f3da a23d 7cc3 d43d d1ca 7cbd 4d71 ba3d
00000030: 946c 713d a7b3 d83e d67b 333e c307 fc3e
00000040: ac17 553d f5d1 0a3f 6d2d 693c 34dd 613f
00000050: f481 003d 2268 c03e 622d 2a3e 5b95 923e
00000060: d1ee 763d f2af dd3e f7ec 353e 220b 19be
00000070: c710 a43d e3d7 2f3d d34f 57bb 6984 ca3e
00000080: 8f34 b83d 68fe a73d c64f 82bd 7101 483e
00000090: 8e81 0abd 35bc aabc 14ec b73c eefd d4be
000000a0: 4742 753e 61f1 b2bd 254e 6cbd 98a2 5d3c
000000b0: c88e c8bd 9b10 29bd fc26 613d 5540 ab3d
000000c0: 7edf 48bd eead 453e 2763 a8bd e915 a53d
000000d0: fe88 a83e 62a3 553e 0b80 14be 3207 63be
000000e0: 854b 7c3e 1e19 babd 2eb9 06bd 1c60 213d
000000f0: 7e54 7a3e 0240 f63d eb10 1c3e 61b0 3e3e
00000100: 8a49 e13e cd0d 7cbe 74f9 5a3d 127e 15be
00000110: 5981 f33e 9b62 72be c751 183e ab3c 1b3d
00000120: 1ac7 bb3e 8279 c03d dcac e53d 7fd3 74be
00000130: d9e0 9b3d 7b49 5fbe b0d0 18bd aeeb 98bd
00000140: 211f fabd bf48 c33d 25b4 78bc 558a 42be
00000150: e107 da3d 136d 33be e418 2abe ccf3 c53d
00000160: 2b8e 00bf 369b 713e e139 b13e 6b55 9e3d
00000170: 82a1 16bd 9cea 00be 660f dc3d c105 4c3e
00000180: 9d5e 0c3d fdd9 05bf 8577 803d 9a2f 0dbe
00000190: 4acf b53e 14cf 9ebe 5cda 22be c7f1 ad3e
000001a0: eaa3 183e 7d0d 043b 258c 6d3e 55ba 073d
000001b0: 2e05 f03d b554 7c3e d8e3 143e 3b4a e33d
000001c0: 2c67 3dbe 21dc 28bd 1ff8 c0be 1917 173e
000001d0: 8f85 d43d a4e1 033f 13b5 183e 948d a3bd
000001e0: 4cdb 98bd a4c5 1ebe 8925 313c 406d 9abe
000001f0: 37f9 b1be a135 cbbe e72e 44bd 194e db3d
00000200: e1c4 5cbd 1877 473e 4e5c 98be 290a dd3d
00000210: 5109 f83e 3c5f 9f3d 4ffc ed3d 51ff 26be
00000220: 4611 aebd 900d f5bd ffb8 fe3d 11d2 823e
00000230: 050a 66be 74a9 a43d e6c5 55be b948 c8be
00000240: 5912 d63c 9f66 923d 616d 0abe bfa4 58bd
00000250: a4e5 213e 961f a53d e818 373e 6e31 b93e
00000260: 451e 513d bae5 8c3d 69f8 b83d b831 c93d
00000270: 3d64 cb3c 7db6 ed3c 1a02 a93c 7cb3 973d
00000280: 6377 ac3d a4a7 383e 56cb ec3d f858 f33d
00000290: 42f3 163e 2e73 e03d 1415 ea3d 98c7 71bc
000002a0: 974e ae3d 55a9 333e aa4d 293c 9402 303d
000002b0: 313e 853d 7b77 fd3d 425f 423f 7c67 3b3f
000002c0: f879 493e 94bb 893d 75ef cb3e 4749 573e
000002d0: 9e69 3d3e cc3b 54bd ba50 8d3e 8175 e4bd
000002e0: 378e 0abd aaad 8e3d b5e9 fdbd 1097 683e
000002f0: 40e3 c33e abcf f33d d87c 68bd 0701 8a3c
00000300: 36a4 133c 059f 803f 4486 c83e ba11 f0bd
00000310: d848 a63e fb39 543e 269f 09bf 8990 79be
00000320: cdf4 08be b7df c8be e6f5 5c3b 5fc4 34be
00000330: 8e6c 1fbe b6c0 aa3c 59cd 363d 0bd2 69be
00000340: 8ad8 c53d 39c2 24be 18db f2bd 0ef1 a6bb
00000350: 8027 38bd 9e6a 25be bd08 a7bd 7a8d dd3e
00000360: 2d4c ccbc 4601 6fbe 165f ffbc ce2b e6bd
00000370: ce71 6e3d b720 d6be e2bd ac3e 117f 8c3e
00000380: 3fb4 d73d 695e a43e 34eb 40be 0005 453e
00000390: 8c53 3fbd 91da a63c 7ed6 2cbe 630d c8bc
000003a0: e1b9 26be 82d2 efbc 7aff e8be 642e 8a3e
000003b0: d0cb 2e3e e1d9 23be 4528 73be a121 3ebc
000003c0: b2d9 08be efb4 bfbd 8de5 2e3b 1eb1 bfbd
000003d0: 9460 ca3e 96a8 02bd ac61 1e3e fec7 b6be
000003e0: 03eb 9abe e7ef a13d fed4 173e bd91 123e
000003f0: f0a2 f23e 5aa4 6c3e 7ce2 b13d 642c 363c

fc1.bias f4 [120]
-0.02466763 0.12962411 0.0579687 -0.12324526 -0.07230534 -0.13584206 0.005126914 0.12981796
0.0032952216 0.14095971 0.027822506 -0.07164274 -0.064777136 -0.0061484934 -0.028124122 0.10854294
0.09501288 0.061878197 -0.0954681 0.08900365 -0.0128287 -0.078167975 -0.11072306 0.0006815576
-0.07647281 -0.1212664 0.11775955 -0.12871625 0.00011037489 -0.0046099178 -0.031660672 0.11764916
-0.11815804 0.1165227 -0.00476293 -0.05390253 0.13037524 0.10525356 0.014715983 -0.13159624
0.021492407 0.1022425 0.1288971 -0.109033674 -0.06361061 -0.12770061 0.03552437 -0.13292147
-0.00050333585 -0.012594526 0.055537257 0.022715844 -0.10534232 0.050284628 -0.10831435 0.095590785
0.125434 0.059594627 -0.08558652 -0.05247433 0.005815808 0.09584505 0.027989686 -0.094610326
-0.00637157 -0.029221155 0.05275861 0.04017377 -0.10920695 0.05106755 -0.13647665 -0.13027926
0.1011174 -0.013663321 -0.0083936965 0.08051745 -0.02148737 0.07026893 -0.11618132 0.12677626
0.066411965 -0.12363083 0.08292972 -0.1316718 -0.11451095 -0.12760584 -0.008938863 -0.12431899
0.07009652 -0.08908816 -0.032379996 -0.07688394 0.12733166 0.03704928 0.0823035 0.12080514
-0.07351407 -0.13979784 0.033742063 0.004531633 0.026318088 0.12256575 -0.13660784 0.06107367
0.04147967 0.03720587 0.042572204 -0.018399348 -0.13253167 0.0032653487 0.061855607 0.03200954
0.024642628 -0.010780585 0.052761216 -0.054370508 0.11882146 -0.014536024 0.030650886 -0.09937253
00000000: c513 cabc 2fbc 043e 9670 6d3d 0368 fcbd
00000010: d214 94bd 2e1a 0bbe acff a73b 00ef 043e
00000020: a5f4 573b be57 103e 06ec e33c 6eb9 92bd
00000030: e0a9 84bd 4d79 c9bb 8f64 e6bc c34b de3d
00000040: 1d96 c23d fe73 7d3d c784 c3bd 8c47 b63d
00000050: 782f 52bc 8816 a0bd c6c2 e2bd 8eaa 323a
00000060: c79d 9cbd 855a f8bd eb2b f13d 31ce 03be
00000070: 1179 e738 cb0e 97bb 9fae 01bd 0bf2 f03d
00000080: d8fc f1bd 74a3 ee3d 5a12 9cbb e6c8 5cbd
00000090: 1681 053e 2e8f d73d 4e1b 713c 2ac1 06be
000000a0: d810 b03c 8464 d13d 9afd 033e 0c4d dfbd
000000b0: 4846 82bd f3c3 02be 0082 113d 911c 08be
000000c0: 4cf2 03ba 4559 4ebc 097b 633d 9416 ba3c
000000d0: b7bd d7bd 41f7 4d3d ead3 ddbd 1ac5 c33d
000000e0: c571 003e 7f19 743d fc47 afbd 53ef 56bd
000000f0: 8992 be3b 694a c43d a04a e53c 0fc3 c1bd
00000100: 9ac8 d0bb 3461 efbc 6a19 583d 408d 243d
00000110: e5a7 dfbd 352c 513d 89c0 0bbe ed67 05be
00000120: a416 cf3d 1fdc 5fbc b785 09bc 55e6 a43d
00000130: 4806 b0bc 28e9 8f3d 79f0 edbd a3d1 013e
00000140: ff02 883d 2932 fdbd 0fd7 a93d f9d4 06be
00000150: b884 eabd 1bab 02be 4f74 12bc f49a febd
00000160: c48e 8f3d da73 b6bd e3a0 04bd 5475 9dbd
00000170: 3b63 023e fcc0 173d bd8e a83d af68 f73d
00000180: 8b8e 96bd 2a27 0fbe 1e35 0a3d 187e 943b
00000190: 0899 d73c c003 fb3d ede2 0bbe 6228 7a3d
000001a0: 96e6 293d 2f65 183d 3160 2e3d 3bba 96bc
000001b0: 62b6 07be 76ff 553b 4e5c 7d3d 6f1c 033d
000001c0: 56df c93c 0da1 30bc 251c 583d 9cb3 5ebd
000001d0: aa58 f33d 8128 6ebc 9117 fb3c d383 cbbd

bn1.weight f4 [120]
2.50875 2.4314978 2.9980273 2.9774685 2.833188 1.9444481 2.317422 2.516523
2.692967 2.8397775 2.2011535 2.908864 3.0691385 2.3806179 2.215665 2.7088304
2.2603445 2.0999637 2.019968 2.9960113 3.417656 2.0222485 2.3956199 2.7791896
2.9392238 2.2236102 2.2584558 2.4586687 2.9544525 3.1366174 2.2427938 2.3748338
1.924803 3.0760791 3.0961998 2.2863786 2.3181775 2.4797957 2.2828498 2.3340602
2.3198931 2.419806 2.4820962 2.3136632 2.5750601 2.7206714 2.2634087 2.6532502
2.294034 2.7419252 2.4005563 2.2106528 2.694435 2.4595358 2.3480644 2.2857578
2.5557616 2.2548053 2.8523602 2.561696 2.7825124 2.0473592 2.8753948 2.3651304
2.2948356 3.261104 2.6659503 2.6746562 2.828365 2.7528365 2.6080694 2.7565987
3.1336076 2.7535453 2.5986347 2.6569395 2.578951 2.783108 2.194495 2.5106046
2.6473148 2.9120104 2.893807 2.6535084 2.449203 2.434407 2.3092859 2.7642405
2.8124397 2.3340197 2.6184037 2.2816346 2.0290308 2.8027334 2.8321528 2.8918693
2.8549109 2.3121572 3.512806 2.7557163 2.9050648 2.6094854 2.97644 2.4599144
2.8985155 2.9810376 2.0578866 3.127003 2.4179916 2.867627 3.0536249 2.2329524
2.664216 2.262062 2.151024 2.7983274 2.0909808 2.8618708 3.1735556 1.8776335
00000000: 5c8f 2040 a99d 1b40 aedf 3f40 d88e 3e40
00000010: f452 3540 ade3 f83f a450 1440 b60e 2140
00000020: 9259 2c40 eabe 3540 b3df 0c40 d42a 3a40
00000030: c46c 4440 0b5c 1840 75cd 0d40 7a5d 2d40
00000040: 7ca9 1040 ce65 0640 2847 0140 a6be 3f40
00000050: e0ba 5a40 856c 0140 d651 1940 3ede 3140
00000060: 3e1c 3c40 a14f 0e40 8a8a 1040 d45a 1d40
00000070: c015 3d40 57be 4840 ef89 0f40 47fd 1740
00000080: f25f f63f 7bde 4440 2328 4640 0754 1240
00000090: 055d 1440 f9b4 1e40 361a 1240 3e61 1540
000000a0: 2179 1440 1ade 1a40 aada 1e40 0f13 1440
000000b0: c9cd 2440 7b1f 2e40 b0db 1040 dace 2940
000000c0: 74d1 1240 b47b 2f40 b7a2 1940 567b 0d40
000000d0: 9f71 2c40 0969 1d40 b046 1640 db49 1240
000000e0: 9991 2340 bb4e 1040 128d 3640 d4f2 2340
000000f0: af14 3240 ef07 0340 7806 3840 4c5e 1740
00000100: 96de 1240 eeb5 5040 ee9e 2a40 912d 2b40
00000110: ef03 3540 792e 3040 9cea 2640 1d6c 3040
00000120: 078d 4840 163a 3040 0850 2640 4c0b 2a40
00000130: 880d 2540 711e 3240 9b72 0c40 bfad 2040
00000140: 9b6d 2940 615e 3a40 2234 3940 15d3 2940
00000150: bebf 1c40 53cd 1b40 57cb 1340 51e9 3040
00000160: 03ff 3340 9460 1540 ed93 2740 4d06 1240
00000170: a4db 0140 fc5f 3340 fe41 3540 6314 3940
00000180: dcb6 3640 62fa 1340 d0d1 6040 a85d 3040
00000190: 95ec 3940 cf01 2740 fe7d 3e40 3d6f 1d40
000001a0: 4781 3940 52c9 3e40 6ab4 0340 d120 4840
000001b0: 60c0 1a40 3387 3740 976e 4340 b1e8 0e40
000001c0: 8482 2a40 a0c5 1040 61aa 0940 cc17 3340
000001d0: a1d2 0540 e428 3740 891b 4b40 4b56 f03f

bn1.bias f4 [120]
1.7381024 -0.3348792 -0.047288552 2.0380185 0.0215991 0.84305876 0.48216763 -0.33375815
1.7712575 0.2360962 0.4719056 -0.11281374 0.3660732 1.0874915 0.8360138 -1.6941515
-0.22531876 -0.3652998 1.2691243 -1.8729492 -0.09929207 0.20550002 -0.19320388 0.53199923
0.25943008 -1.3524278 1.1577952 0.0013285793 -0.09043453 -0.24927299 0.4157323 -1.6349618
1.1120251 -0.047049005 2.1664534 1.5365145 0.693252 -0.51065445 0.24924472 0.7181259
0.3314671 -1.0888603 -0.7054152 0.36805612 0.5338539 -1.7551624 0.86743784 -0.18616763
-0.36600566 -0.17539603 -1.660168 0.04087998 0.5572869 -0.70798934 -0.19481131 -0.47117156
0.65379035 -1.4123585 -0.6069341 1.7528776 0.03689749 -0.700004 0.38377908 1.6036737
-1.5629311 -0.19259246 -0.28692934 -1.5999995 2.1871316 -0.022852834 1.3340492 -0.02584951
0.5730434 0.30375367 -0.036831282 0.023119578 0.6686622 0.02779349 -1.2183625 0.9000286
-1.7622154 0.33738166 0.16514346 -1.8014295 -1.5534714 -1.8778583 -0.25439835 -0.47355545
0.20521292 1.7957878 0.5059005 1.4701059 1.2550215 -1.8820632 1.8605691 -0.055182397
-0.39879274 -0.19906572 -0.3049075 -2.0770192 -2.0658038 2.017166 2.045897 2.1544616
-1.9010109 -0.9523431 0.15751845 2.3575177 -0.93335474 -0.29437473 0.19910946 -1.4876746
-0.04871003 0.17810526 -1.2014607 0.10289672 1.6009383 0.7508596 0.24631432 -0.92457217
00000000: 247a de3f 4975 abbe a4b1 41bd e56e 0240
00000010: 99f0 b03c b3d2 573f adde f63e 59e2 aabe
00000020: 91b8 e23f 34c3 713e 9c9d f13e e40a e7bd
00000030: f26d bb3e ec32 8b3f 0005 563f f5d9 d8bf
00000040: f6b9 66be 9308 bbbe aa72 a23f cdbc efbf
00000050: a459 cbbd 996e 523e 3dd7 45be 1a31 083f
00000060: 05d4 843e 5b1c adbf a232 943f b923 ae3a
00000070: bd35 b9bd 6b41 7fbe ddda d43e 6e46 d1bf
00000080: d756 8e3f 75b6 40bd 2ca7 0a40 82ac c43f
00000090: f778 313f 40ba 02bf 023a 7f3e 19d7 373f
000000a0: 0eb6 a93e c65f 8bbf 1796 34bf da71 bc3e
000000b0: a6aa 083f 29a9 e0bf 6810 5e3f baa2 3ebe
000000c0: 1865 bbbe 049b 33be 6380 d4bf c471 273d
000000d0: 5baa 0e3f ca3e 35bf 9e7c 47be 663d f1be
000000e0: ce5e 273f 2ac8 b4bf 0860 1bbf 4b5e e03f
000000f0: d321 173d 7633 33bf b17e c43e 2e45 cd3f
00000100: 200e c8bf f536 45be 67e8 92be c9cc ccbf
00000110: f7f9 0b40 de35 bbbc 20c2 aa3f 5ac2 d3bc
00000120: f9b2 123f 9a85 9b3e 66dc 16bd 4565 bd3c
00000130: 722d 2b3f 2caf e33c 4df3 9bbf 4668 663f
00000140: 4690 e1bf 4abd ac3e 5e1b 293e 3e95 e6bf
00000150: 27d8 c6bf a95d f0bf 8040 82be dc75 f2be
00000160: 5623 523e 60dc e53f b282 013f 6e2c bc3f
00000170: 8ba4 a03f 72e7 f0bf 2127 ee3f f006 62bd
00000180: 902e ccbe e2d7 4bbe d61c 9cbe e2ed 04c0
00000190: 2136 04c0 3f19 0140 faef 0240 b3e2 0940
000001a0: 5354 f3bf c2cc 73bf 844c 213e 92e1 1640
000001b0: 56f0 6ebf 49b8 96be 5ae3 4b3e 1f6c bebf
000001c0: 2b84 47bd 3a61 363e 77c9 99bf 84bb d23d
000001d0: 8ceb cc3f 5638 403f d239 7c3e c3b0 6cbf

bn1.running_mean f4 [120]
-0.026370864 0.12341985 0.03341347 -0.08195098 -0.08232162 -0.12434696 0.015625965 0.13334304
-0.010301184 0.15836059 -0.008382291 -0.08764574 -0.0674015 -0.04819293 -0.010226815 0.1302623
0.10765652 0.059752353 -0.12824282 0.11229816 -0.0054867193 -0.08525139 -0.104979634 0.0064553013
-0.071300074 -0.09786877 0.113088034 -0.14361641 0.01625661 0.01723792 -0.035333287 0.10052439
-0.14247574 0.07858525 -0.011651219 -0.072764024 0.11689188 0.06314027 -0.01283449 -0.1290522
0.015452303 0.10545277 0.17270243 -0.09181589 -0.09183833 -0.08334018 -0.029788613 -0.12673235
0.007865659 -0.015438683 0.06892869 0.0031105094 -0.13267861 0.02085104 -0.09005634 0.09126307
0.12435964 0.11180034 -0.023439068 -0.08161021 -0.010157773 0.14715528 0.019207561 -0.10674384
0.0054471698 -0.0076178177 0.07752386 0.056065366 -0.15402919 0.062417522 -0.13174614 -0.14576982
0.08345968 0.036377814 -0.00013347855 0.09528756 -0.020849925 0.080459714 -0.07782947 0.118423365
0.13975477 -0.12482018 0.08345002 -0.13761207 -0.07682513 -0.135012 0.020772953 -0.124292046
0.035225704 -0.10503195 -0.07354942 -0.13857344 0.109462075 0.04924027 0.0708773 0.120302275
-0.07880554 -0.14072539 0.052501548 -0.07752522 -0.03153055 0.0861239 -0.1641553 0.038396437
0.04183136 0.02895692 0.027654827 0.007921882 -0.14216301 0.056814965 0.037119254 0.02790874
0.063419655 0.0052857394 0.040772315 -0.08470385 0.10640564 -0.008380026 0.04986785 -0.12813689
00000000: b607 d8bc 8cc3 fc3d 90dc 083d ead5 a7bd
00000010: 3d98 a8bd 9ea9 febd 0602 803c 148b 083e
00000020: 4cc6 28bc 4729 223e e055 09bc 9c7f b3bd
00000030: cc09 8abd f365 45bd 5f8e 27bc 7b63 053e
00000040: 067b dc3d e2be 743d 1652 03be 94fc e53d
00000050: f0c9 b3bb 4898 aebd 90ff d6bd fe86 d33b
00000060: c605 92bd 6c6f c8bd b39a e73d 2e10 13be
00000070: 952c 853c 8a36 8d3c a3b9 10bd bbdf cd3d
00000080: 29e5 11be 4ef1 a03d c1e4 3ebc 4e05 95bd
00000090: 0365 ef3d b04f 813d c147 52bc 4326 04be
000000a0: a82b 7d3c 9ff7 d73d e8d8 303e f809 bcbd
000000b0: bc15 bcbd 42ae aabd 4007 f4bc 20c6 01be
000000c0: f7de 003c 88f2 7cbc 7c2a 8d3d b0d9 4b3b
000000d0: e7dc 07be cdcf aa3c 756f b8bd 22e8 ba3d
000000e0: 44b0 fe3d 94f7 e43d 4a03 c0bc 4123 a7bd
000000f0: ca6c 26bc e0af 163e 2d59 9d3c 849c dabd
00000100: 2c7e b23b e39e f9bb d4c4 9e3d cca4 653d
00000110: d4b9 1dbe 84a9 7f3d 76e8 06be af44 15be
00000120: e9ec aa3d e700 153d 60f6 0bb9 2026 c33d
00000130: 76cd aabc 10c8 a43d 0f65 9fbd f387 f23d
00000140: e01b 0f3e b9a1 ffbd d8e7 aa3d 2eea 0cbe
00000150: 7e56 9dbd 9640 0abe 0a2c aa3c d48c febd
00000160: d448 103d fe1a d7bd 14a1 96bd 32e6 0dbe
00000170: a72d e03d 2ab0 493d 1e28 913d 0a61 f63d
00000180: cd64 a1bd 511a 10be dd0b 573d 8bc5 9ebd
00000190: 2e26 01bd ba61 b03d 5418 28be 9545 1d3d
000001a0: 5c57 2b3d 1037 ed3c 608c e23c c8ca 013c
000001b0: 2e93 11be cfb6 683d 5c0a 183d dfa0 e43c
000001c0: 2ae2 813d ff33 ad3b df00 273d 3679 adbd
000001d0: 33eb d93d 604c 09bc 3b42 4c3d 5136 03be

bn1.running_var f4 [120]
2.9005299 2.4720943 2.9548812 8.484869 1.8468482 3.1953576 2.5817444 2.202643
3.4480274 2.4276266 2.1954439 2.7166936 2.7121098 2.6541467 1.7211277 2.4190254
3.0980468 2.0455737 8.904105 2.7646904 2.4698086 2.2242458 2.638691 2.296227
1.9357262 3.8824666 2.8129742 2.4681795 2.8206365 2.6522148 2.0567577 5.487002
2.2026544 2.8279188 3.9546576 6.1178207 2.5285707 4.9129734 2.214835 3.038247
2.5180104 2.5619044 3.1489148 2.3002663 2.6676955 15.963821 5.376358 2.226724
2.658737 2.0524151 3.43399 2.2994564 2.3204505 2.1164432 1.9999712 2.3177152
3.0779972 13.702611 2.332716 3.061583 2.757926 3.7568262 2.7992322 3.7518911
4.3253927 2.0691204 2.7207394 4.0727754 9.9515085 2.1666362 3.4579637 2.8312879
2.8429065 2.4346676 2.9396129 2.7267723 2.2492456 2.7535286 2.961128 2.796762
11.813986 2.7457547 2.7884545 4.6886134 9.377705 2.0915303 2.361286 2.0312238
2.704917 2.182904 2.9393842 12.643079 2.4138799 2.930673 3.112167 2.728697
2.6425745 3.5694761 2.580784 4.8942537 3.9643292 6.9641986 3.4935353 7.778366
3.7951603 3.2217867 2.2321975 7.610054 2.632105 3.612964 2.697457 2.6825638
2.5955505 2.1117263 2.7433016 2.7943287 1.8473945 3.303573 2.4695373 2.137558
00000000: 48a2 3940 cb36 1e40 c61c 3d40 06c2 0741
00000010: 8665 ec3f bd80 4c40 4d3b 2540 1af8 0c40
00000020: 7bac 5c40 3c5e 1b40 2782 0c40 4fde 2d40
00000030: 3593 2d40 8add 2940 ea4d dc3f 50d1 1a40
00000040: 6646 4640 aeea 0240 3777 0e41 b0f0 3040
00000050: 5811 1e40 0b5a 0e40 50e0 2840 62f5 1240
00000060: e0c5 f73f 557a 7840 c507 3440 a7f6 1d40
00000070: 4f85 3440 e3bd 2940 eba1 0340 8595 af40
00000080: 4af8 0c40 9ffc 3440 1c19 7d40 30c5 c340
00000090: 1ad4 2140 1437 9d40 dbbf 0d40 a472 4240
000000a0: 1527 2140 3ef6 2340 d287 4940 9037 1340
000000b0: 86bb 2a40 d06b 7f41 200b ac40 a582 0e40
000000c0: bf28 2a40 c55a 0340 7ec6 5b40 4b2a 1340
000000d0: 4382 1440 ce73 0740 0eff ff3f 7255 1440
000000e0: e8fd 4440 e53d 5b41 384b 1540 faf0 4340
000000f0: dc81 3040 d76f 7040 9f26 3340 fc1e 7040
00000100: 9e69 8a40 786c 0440 9820 2e40 2d54 8240
00000110: 6139 1f41 2baa 0a40 474f 5d40 d233 3540
00000120: 2ef2 3540 98d1 1b40 9e22 3c40 7083 2e40
00000130: a4f3 0f40 d039 3040 1f83 3d40 26fe 3240
00000140: 1606 3d41 72ba 2f40 0a76 3240 1f09 9640
00000150: 140b 1641 a2db 0540 4f1f 1740 92ff 0140
00000160: 5c1d 2d40 b3b4 0b40 df1e 3c40 0d4a 4a41
00000170: 027d 1a40 2590 3b40 be2d 4740 f9a2 2e40
00000180: f11f 2940 4c72 6440 912b 2540 ba9d 9c40
00000190: 92b7 7d40 b7da de40 1596 5f40 60e8 f840
000001a0: e8e3 7240 c131 4e40 53dc 0e40 9085 f340
000001b0: 6974 2840 cd3a 6740 23a3 2c40 20af 2b40
000001c0: 801d 2640 8626 0740 4192 2f40 48d6 3240
000001d0: 6c77 ec3f bd6d 5340 e60c 1e40 c0cd 0840

fc2.weight f4 [100, 120]
0.14933117 -0.2644658 -0.17801626 0.19426137 0.06305758 0.1939456 -0.056943286 0.07755861
-0.36297262 0.15440445 0.07840109 -0.028672928 0.19925788 0.02690677 0.08860724 0.3419794
0.08505267 0.0088597005 -0.04021559 0.35057786 -0.102055594 0.011176115 0.030055651 0.24349214
0.1811111 0.01261321 -0.023755476 -0.08296644 0.14413837 -0.017103624 -0.2584481 -0.09203808
-0.21970043 -0.03463798 0.07884353 0.31886777 0.009915527 -0.027865356 -0.036196128 0.10610341
-0.050267998 0.05103191 0.012555005 -0.099004306 0.033904273 -0.007136304 0.048114207 -0.027515566
-0.1315568 0.007208041 -0.010245559 -0.17042963 -0.10164948 0.101037875 0.09515028 -0.08868329
0.34555483 0.025218694 0.022587538 -0.077351935 -0.038032066 -0.024675263 -0.11787849 -0.13389319
0.15125063 0.00987834 0.07780327 0.07990681 -0.18507147 0.0154787535 -0.100625195 0.24454732
0.22245635 0.17069486 -0.0282087 -0.11387814 0.091318816 0.050144095 0.009787421 -0.19566508
0.04328669 -0.038762406 0.062518336 0.09978413 -0.22481535 0.09882102 0.09080397 0.18347155
0.067365095 -0.25761718 -0.073898576 0.20308843 0.080067836 0.13754386 -0.21491511 -0.3320356
-0.04516587 0.14515798 -0.23937891 0.052953348 0.08287119 -0.2600285 0.049028605 0.2324449
-0.05391386 -0.07611124 -0.041539364 0.084958635 0.07321006 -0.16304685 -0.19256553 -0.14074911
-0.07086331 0.087241255 0.12090778 -0.021822035 -0.06804914 -0.070497446 -0.054964047 0.06392809
-0.21349025 -0.12361212 -0.12863073 -0.08548179 -0.16080005 0.08298995 0.3271175 -0.16796046
0.10065611 0.10960462 -0.16119818 -0.13342705 0.030532084 -0.040517602 -0.017503804 -0.009641184
-0.09282031 -0.15091 -0.034693692 -0.014785384 0.054413732 0.04948812 -0.12306486 -0.09238568
-0.19775152 0.021546334 -0.54128736 0.10613914 0.2398471 0.3347071 -0.17385267 0.45329723
0.0006887455 -0.14632678 -1.731267 0.024395619 0.102488235 0.09081857 -0.083191834 0.006767818
-0.087881856 0.13330299 0.028540736 -0.10525901 -0.12759392 -0.09024599 -0.02229096 0.26343933
-0.19766384 -0.04636656 0.042318694 0.10795236 0.11276801 -0.2180996 0.24106306 0.061326347
-0.012275945 0.015362873 0.16592337 0.034762133 -0.19468589 -0.1641472 0.10781266 -0.065873064
0.038199473 -0.21091786 -0.10832051 0.024085652 0.021901622 -0.02409381 0.066956155 -0.21923424
0.29657757 -0.13390945 0.22509997 0.06356853 0.13519295 0.0077482476 -0.2129125 0.060789596
-3.414043e-05 0.13724126 -0.225953 0.086052395 -0.009347012 0.058667373 0.40534636 0.2968985
-0.051168315 0.01002691 -0.086956315 0.057710256 -0.060945258 -0.0015678047 -0.041365776 0.06678431
0.11022327 0.056494895 -0.020855067 0.083247624 0.069117725 0.0005227892 0.035111416 0.15214285
0.10907685 0.17661607 -0.07573433 0.1093729 0.22394806 -0.06597846 0.0032038402 -0.07532434
-0.15984057 -0.21517923 0.08790579 -0.15270667 0.08285855 -0.19870426 0.13618627 0.11268543
-0.44641474 -0.18451755 0.28531477 -0.019617854 -0.004934645 0.15161623 0.09686985 -0.16988458
0.110099286 0.024390716 -0.019604404 0.18971385 0.16102669 0.059779003 0.07438473 -0.111910455
00000000: 45ea 183e 1068 87be e549 36be 74ec 463e
00000010: 5524 813d ad99 463e 5d3d 69bd 0cd7 9e3d
00000020: 8cd7 b9be 331c 1e3e c090 a03d 7de3 eabc
00000030: 420a 4c3e 966b dc3c b677 b53d ed17 af3e
00000040: 1830 ae3d 4728 113c 1ab9 24bd f17e b33e
00000050: 8602 d1bd 061c 373c 4537 f63c 0156 793e
00000060: 3075 393e a3a7 4e3c d89a c2bc 4fea a9bd
00000070: 0299 133e e61c 8cbc 4f53 84be 767e bcbd
00000080: 26f9 60be 8ee0 0dbd b778 a13d a342 a33e
00000090: bc74 223c e345 e4bc 6442 14bd bf4c d93d
000000a0: d1e5 4dbd d606 513d 82b3 4d3c c5c2 cabd
000000b0: 35df 0a3d a8d7 e9bb 6713 453d 5368 e1bc
000000c0: d3b6 06be 6e31 ec3b fddc 27bc 1b85 2ebe
000000d0: 9a2d d0bd f2ec ce3d 26de c23d 969f b5bd
000000e0: 90ec b03e 6f97 ce3c 8009 b93c b16a 9ebd
000000f0: 83c7 1bbd c723 cabc 476a f1bd 4c1b 09be
00000100: 72e1 1a3e c3d8 213c 5257 9f3d 2ea6 a33d
00000110: 6083 3dbe 999a 7d3c 9514 cebd 9d6a 7a3e
00000120: 99cb 633e a2ca 2e3e ee15 e7bc f138 e9bd
00000130: 5c05 bb3d e563 4d3d 6b5b 203c 6d5c 48be
00000140: 624d 313d 54c5 1ebd 9d09 803d 9f5b cc3d
00000150: ff35 66be ad62 ca3d 6ff7 b93d f7df 3b3e
00000160: b6f6 893d 66e6 83be 2358 97bd 6af6 4f3e
00000170: 9bfa a33d 4cd8 0c3e b512 5cbe 9200 aabe
00000180: d9ff 38bd 4ba4 143e bf1f 75be 9ce5 583d
00000190: 5fb8 a93d 7522 85be 38d2 483d 0906 6e3e
000001a0: c8d4 5cbd 36e0 9bbd 2e25 2abd cbfe ad3d
000001b0: 28ef 953d c1f5 26be e62f 45be 8920 10be
000001c0: c820 91bd 8bab b23d 809e f73d 20c4 b2bc
000001d0: 595d 8bbd f760 90bd fb21 61bd bbec 823d
000001e0: 309d 5abe 5a28 fdbd c6b7 03be 1411 afbd
000001f0: c5a8 24be a3f6 a93d f27b a73e d4fd 2bbe
00000200: ca24 ce3d 6378 e03d 2311 25be 1aa1 08be
00000210: 6c1e fa3c c9f5 25bd 2364 8fbc 0ef6 1dbc
00000220: 9318 bebd 2788 1abe f91a 0ebd 653e 72bc
00000230: efe0 5e3d 0eb4 4a3d 6e09 fcbd b434 bdbd
00000240: 607f 4abe f081 b03c cf91 0abf 7a5f d93d
00000250: 7a9a 753e bb5e ab3e 6f06 32be 9316 e83e
00000260: ee8c 343a b0d6 15be 289a ddbf 52d9 c73c
00000270: 5ae5 d13d 16ff b93d 7b60 aabd 92c4 dd3b
00000280: 67fb b3bd 9480 083e 43ce e93c 0992 d7bd
00000290: fba7 02be e4d2 b8bd 889b b6bc 85e1 863e
000002a0: 6468 4abe ddea 3dbd 5e56 2d3d 2016 dd3d
000002b0: eaf2 e63d 8055 5fbe 3cd9 763e 5631 7b3d
000002c0: 0c21 49bc 8fb4 7b3c d1e7 293e bd62 0e3d
000002d0: bd5b 47be 3416 28be e2cc dc3d 75e8 86bd
000002e0: 0d77 1c3d dafa 57be 25d7 ddbd 464f c53c
000002f0: 086b b33c 6260 c5bc 4f20 893d f17e 60be
00000300: 04d9 973e 8f1f 09be 9b80 663e 3830 823d
00000310: 0570 0a3e 03e5 fd3b bc05 5abe 83fe 783d
00000320: 0232 0fb8 f988 0c3e 3960 67be 3d3c b03d
00000330: 3624 19bc 334d 703d 8f89 cf3e 1503 983e
00000340: de95 51bd e947 243c 2716 b2bd 9761 6c3d
00000350: bca1 79bd cc7e cdba 296f 29bd 36c6 883d
00000360: bdbc e13d 3167 673d 3fd8 aabc bb7d aa3d
00000370: 988d 8d3d ca0b 093a fdd0 0f3d 56cb 1b3e
00000380: af63 df3d d8da 343e 9a1a 9bbd e6fe df3d
00000390: a452 653e b71f 87bd 85f7 513b a643 9abd
000003a0: 3fad 23be f257 5cbe f307 b43d 235f 1cbe
000003b0: beb1 a93d 2179 4bbe 6a74 0b3e 9ec7 e63d
000003c0: 7990 e4be 2bf2 3cbe c714 923e 9fb5 a0bc
000003d0: cdb2 a1bb 4941 1b3e b363 c63d 39f6 2dbe
000003e0: bc7b e13d 0acf c73c 6a99 a0bc 5944 423e
000003f0: 2ee4 243e d4da 743d 0557 983d 4f31 e5bd

fc2.bias f4 [100]
0.068602465 0.06830414 -0.08608326 0.089296974 0.0048154336 0.07689417 0.01020884 -0.04841242
-0.04114282 -0.039293766 0.062036395 -0.07618211 0.07340013 0.053965453 -0.022728665 -0.07397228
0.041321974 0.071586244 0.023698341 -0.054316152 -0.059447426 -0.01577095 -0.047614396 -0.080633916
-0.051782053 0.07033176 -0.036485445 -0.019064644 -0.042741146 0.079122104 0.050165825 -0.018954547
0.062989615 -0.06700629 -0.02753344 0.078240536 0.08389453 -0.028887717 -0.058600396 0.029113447
-0.050586473 -0.062477265 0.07702702 0.0018039908 -0.08265029 0.03492522 -0.011854974 -0.055561084
-0.056697924 -0.06182808 -0.034253836 0.077457204 -0.05092814 -0.06055557 0.034200426 -0.031139577
-0.08170014 -0.06942485 0.035769407 0.04485411 0.028794508 -0.08818424 0.050408207 0.034592617
-0.042719856 0.027536634 -0.022249237 -0.0065631527 -0.07362775 -0.028199822 0.01116054 0.06419791
-0.068185754 0.05570948 0.019407855 -0.0071297353 -0.069751434 0.009827001 -0.08871907 0.04268554
0.027398536 -0.012006722 0.041486606 -0.030745097 -0.086926684 -0.028668145 -0.05571826 0.06793442
-0.056555722 0.025987908 -0.057915498 0.07783082 -0.038608085 0.07010793 -0.05640267 -0.032046437
0.0058238804 0.033413216 -0.030671215 -0.061667256
00000000: 737f 8c3d 0ae3 8b3d 6c4c b0bd 55e1 b63d
00000010: c9ca 9d3b b17a 9d3d fa42 273c 1a4c 46bd
00000020: 6085 28bd 80f2 20bd e019 7e3d 5e05 9cbd
00000030: cf52 963d e10a 5d3d 7731 babc c77e 97bd
00000040: 3b41 293d cf9b 923d 0623 c23c 9d7a 5ebd
00000050: 257f 73bd 1432 81bc 5007 43bd 6523 a5bd
00000060: 6b19 54bd 190a 903d c371 15bd 752d 9cbc
00000070: 5711 2fbd c50a a23d ae7a 4d3d 9146 9bbc
00000080: b300 813d 983a 89bd cf8d e1bc 933c a03d
00000090: e5d0 ab3d efa5 ecbc f806 70bd 537f ee3c
000000a0: c333 4fbd 29e8 7fbd 58c0 9d3d e373 ec3a
000000b0: 8e44 a9bd bf0d 0f3d 5d3b 42bc 0594 63bd
000000c0: 153c 68bd 713f 7dbd c04d 0cbd e2a1 9e3d
000000d0: 069a 50bd 1e09 78bd bf15 0c3d 6d18 ffbc
000000e0: 6752 a7bd 9e2e 8ebd f182 123d f1b8 373d
000000f0: 76e2 eb3c f099 b4bd d678 4e3d fdb0 0d3d
00000100: 04fb 2ebd 8294 e13c 0844 b6bc b70f d7bb
00000110: 25ca 96bd 5003 e7bc b3da 363c 327a 833d
00000120: f9a4 8bbd a02f 643d 39fd 9e3c 8ea0 e9bb
00000130: d7d9 8ebd 6e01 213c 58b2 b5bd 08d7 2e3d
00000140: e572 e03c d8b7 44bc dced 293d 24dd fbbc
00000150: 9e06 b2bd 75d9 eabc d538 64bd 3421 8b3d
00000160: f9a6 67bd 98e4 d43c cd38 6dbd c465 9f3d
00000170: 8323 1ebd bf94 8f3d 7c06 67bd 2043 03bd
00000180: 40d6 be3b 4cdc 083d 3342 fbbc ce96 7cbd

bn2.weight f4 [100]
0.20123076 1.8337438 0.6570729 -0.024207901 2.367363 2.0044909 1.8920615 0.12499678
0.21483591 0.064790435 1.8169888 0.1559235 1.7159756 0.08471172 0.08563724 0.063171364
0.344129 0.23254576 1.9289687 0.17593698 0.118194394 0.19381405 0.22559236 0.09846691
1.1138302 1.7355186 0.1988587 0.2733229 0.16717383 0.19457859 1.9089293 1.6269168
2.0217788 2.3405652 0.8212863 0.02615196 0.06532819 -0.08715944 0.17765778 0.17191906
0.46028578 0.23948435 0.19143257 0.17699571 0.18065254 1.7051513 1.8012177 1.4243419
1.857908 0.32704288 2.0792613 1.8779017 1.9099972 1.9746354 1.4410266 1.6347059
0.16678531 0.107739694 0.20926386 1.9054745 0.301334 0.12544127 0.06972142 0.21809357
0.121431254 0.2362 0.099346764 2.0271094 0.34110788 0.17114575 0.27147588 0.3072483
0.7426225 1.6979442 1.8194883 1.8676234 0.17517982 0.10766551 0.34907967 0.19534597
0.08701515 0.56236553 0.14488335 0.18210997 1.9378289 1.694283 0.06360897 1.9633068
0.056460258 0.111278825 0.15753192 0.1923091 0.9989442 0.015098968 1.957861 0.1268769
0.5811182 0.13470568 0.11157605 0.15401155
00000000: 700f 4e3e 1eb8 ea3f ee35 283f a64f c6bc
00000010: e082 1740 9449 0040 122f f23f 50fe ff3d
00000020: f2fd 5b3e d9b0 843d 1793 e83f 69aa 1f3e
00000030: 17a5 db3f 577d ad3d 9462 af3d fd5f 813d
00000040: ad31 b03e 7a20 6e3e 72e8 f63f d328 343e
00000050: e70f f23d 3177 463e af01 673e 05a9 c93d
00000060: fd91 8e3f 7925 de3f 9da1 4b3e fbf0 8b3e
00000070: 9e2f 2b3e 9c3f 473e cc57 f43f cf3e d03f
00000080: d364 0140 d2cb 1540 d23f 523f a33c d63c
00000090: c9ca 853d a680 b2bd eceb 353e 8d0b 303e
000000a0: 94aa eb3e 633b 753e e606 443e 5d3e 353e
000000b0: fbfc 383e 6642 da3f 4d8e e63f d650 b63f
000000c0: eecf ed3f 2a72 a73e 9e12 0540 155f f03f
000000d0: ca7a f43f dac0 fc3f 8f73 b83f 0b3e d13f
000000e0: c5c9 2a3e a1a6 dc3d 4449 563e 97e6 f33f
000000f0: 7348 9a3e ad73 003e 1bca 8e3d ec53 5f3e
00000100: f3b0 f83d 6ade 713e 5176 cb3d 29bc 0140
00000110: b1a5 ae3e d540 2f3e e3fe 8a3e a64f 9d3e
00000120: 821c 3e3f 3c56 d93f fee4 e83f 490e ef3f
00000130: 5762 333e bc7f dc3d 92ba b23e c608 483e
00000140: 0035 b23d 30f7 0f3f 4d5c 143e 097b 3a3e
00000150: c70a f83f 44de d83f 6b45 823d a34d fb3f
00000160: df42 673d 27e6 e33d 0c50 213e adec 443e
00000170: cfba 7f3f a961 773c 309b fa3f 05ec 013e
00000180: 2ac4 143f 49f0 093e fc81 e43d 34b5 1d3e

bn2.bias f4 [100]
-0.1356379 -1.2799989 0.47965583 -0.032467395 -1.5987307 1.4006765 1.25878 -0.048740197
0.06454887 -0.1078915 1.2992507 0.019415904 -1.2433109 0.1731766 0.060712706 -0.093071595
0.09606302 0.052313033 1.3972393 -0.032149304 0.05755208 0.0022104883 0.011857599 -0.026239831
-0.75480133 1.3655006 -0.016153492 0.12686281 -0.045807432 -0.06841425 -1.3393462 1.3006094
-1.5320615 -1.5246663 -0.46291792 0.073827684 0.1459956 0.037468843 -0.030591823 -0.051331524
0.0298528 0.039015356 0.09389459 -0.025032062 -0.04029703 1.2009279 1.2335725 -0.96166265
1.3816128 -0.14033137 -1.4275072 -1.268803 -1.2835557 1.3661778 -1.0711486 1.1043185
0.052307945 -0.2706815 0.058415566 -1.4167955 0.047999404 -0.08102236 -0.06488795 -0.032168593
-0.12615421 0.071952656 0.056833412 1.3764257 -0.21733686 -0.08013102 -0.097628266 0.041257404
-0.4123726 -1.3504137 1.125898 1.2354965 0.09110911 0.06378718 0.06987021 0.07325828
0.0012121269 0.17639582 -0.021295642 -0.0582483 -1.2808421 1.2230529 -0.13968956 1.3578786
-0.15025437 0.08831289 -0.0763999 0.020013444 -0.28264472 0.06117567 -1.4119534 -0.0025829822
0.31013426 -0.043517083 0.008564411 -0.02423942
00000000: a9e4 0abe 01d7 a3bf 7395 f53e 88fc 04bd
00000010: 35a3 ccbf 5e49 b33f b41f a13f cda3 47bd
00000020: 3332 843d 38f6 dcbd d94d a63f 1a0e 9f3c
00000030: d024 9fbf 3555 313e e3ad 783d 529c bebd
00000040: b0bc c43d 3146 563d bdd8 b23f fdae 03bd
00000050: bbbb 6b3d d7dd 103b 6046 423c eaf4 d6bc
00000060: a93a 41bf b9c8 ae3f 5454 84bc 53e8 013e
00000070: 93a0 3bbd c51c 8cbd b26f abbf 5e7a a63f
00000080: 971a c4bf 4428 c3bf 9403 edbe f832 973d
00000090: df7f 153e ee78 193d b49b fabc 0141 52bd
000000a0: dc8d f43c 91ce 1f3d cf4b c03d 0a10 cdbc
000000b0: 800e 25bd 01b8 993f b4e5 9d3f 862f 76bf
000000c0: b0d8 b03f 07b3 0fbe 8eb8 b6bf 2368 a2bf
000000d0: 8e4b a4bf eade ae3f 661b 89bf 4f5a 8d3f
000000e0: db40 563d c496 8abe 2945 6f3d 8e59 b5bf
000000f0: 069b 443d 0def a5bd f9e3 84bd 37c3 03bd
00000100: 922e 01be ea5b 933d 27ca 683d b82e b03f
00000110: 8e8d 5ebe bb1b a4bd 54f1 c7bd 86fd 283d
00000120: 8022 d3be 5bda acbf 6d1d 903f c024 9e3f
00000130: 6a97 ba3d daa2 823d 1d18 8f3d 7008 963d
00000140: 3be0 9e3a 1ba1 343e 3374 aebc c595 6ebd
00000150: a2f2 a3bf ff8c 9c3f c80a 0fbe f7ce ad3f
00000160: 48dc 19be 63dd b43d 8d77 9cbd 3cf3 a33c
00000170: cfb6 90be 5793 7a3d e4ba b4bf 4047 29bb
00000180: ebc9 9e3e f83e 32bd be51 0c3c c091 c6bc

bn2.running_mean f4 [100]
-0.4371007 -1.2670565 1.3678262 -0.008016968 -1.6760949 1.5432168 1.241334 -0.66136307
0.2334574 0.54738027 1.5504367 0.009923293 -1.2826703 -0.29411826 -0.73362315 0.5500149
-1.0289018 -0.66974276 1.9363897 0.25910524 -0.32026953 0.36281797 1.2831807 0.5250853
0.31400663 1.1298174 -0.49013382 -0.3828888 -0.17220034 -0.30899003 -1.4482316 0.20214686
-2.0937371 -1.0480818 -0.6835319 0.82599646 0.12413089 0.7331854 1.1332796 -0.51691437
-0.4689857 -1.4710498 1.099933 0.089302 -0.05177812 2.3774097 2.6018553 -1.7862964
1.7712975 -0.7784488 -1.4860302 -1.4853734 -2.1144736 2.2726953 -1.7288778 1.3905598
0.18864113 -0.27400425 -0.41473404 -1.1092044 0.8445853 -1.4915068 -0.10934869 -1.4212341
-0.5786327 -0.56362474 -0.53569883 0.96744335 -0.6546475 -0.096994445 -0.4738932 -0.7778556
-0.22040841 -0.18778269 1.6816466 2.4350471 -0.10823864 0.8656314 -0.52485657 -0.9376773
0.23341939 1.5024618 0.4566734 1.2287002 -2.2265406 2.1307545 0.14425007 1.3860389
-0.1285269 -0.83809084 -0.00043817027 -0.299345 0.969844 -0.01541921 -2.4113727 0.3200852
0.90396655 -0.29082048 -0.24986951 -0.4537281
00000000: aacb dfbe e82e a2bf ee14 af3f 9a59 03bc
00000010: 478a d6bf 2188 c53f 08e4 9e3f 174f 29bf
00000020: 750f 6f3e 1d21 0c3f b674 c63f 4f95 223c
00000030: 8a2e a4bf ab96 96be bace 3bbf c7cd 0c3f
00000040: 0eb3 83bf 4374 2bbf 9edb f73f 71a9 843e
00000050: 5efa a3be 47c3 b93e 443f a43f fd6b 063f
00000060: 7ac5 a03e db9d 903f d2f2 fabe 000a c4be
00000070: 4955 30be f133 9ebe a75f b9bf 96ff 4e3e
00000080: caff 05c0 8b27 86bf f2fb 2ebf 8174 533f
00000090: 5638 fe3d 0ab2 3b3f 4e0f 913f 8054 04bf
000000a0: e51e f0be 5c4b bcbf 9bca 8c3f f8e3 b63d
000000b0: 4b15 54bd 7b27 1840 cc84 2640 5ca5 e4bf
000000c0: e0b9 e23f 6c48 47bf 3d36 bebf b720 bebf
000000d0: 8953 07c0 d773 1140 de4b ddbf ddfd b13f
000000e0: 242b 413e 494a 8cbe 0558 d4be 69fa 8dbf
000000f0: be36 583f b2e9 bebf 35f2 dfbd 00eb b5bf
00000100: 4621 14bf b649 10bf 8f23 09bf 5eaa 773f
00000110: fb96 27bf 06a5 c6bd 21a2 f2be 8b21 47bf
00000120: beb2 61be 1b4a 40be 3240 d73f d0d7 1b40
00000130: 38ac ddbd 059a 5d3f 005d 06bf 9f0b 70bf
00000140: 7e05 6f3e ab50 c03f 19d1 e93e 0c46 9d3f
00000150: a47f 0ec0 485e 0840 4ab6 133e b969 b13f
00000160: 8e9c 03be 1f8d 56bf 38ba e5b9 bf43 99be
00000170: b247 783f dba0 7cbc ee53 1ac0 35e2 a33e
00000180: 5a6a 673f 6ce6 94be cbdd 7fbe 0d4f e8be

bn2.running_var f4 [100]
4.793783 13.677514 10.186135 4.683086 26.392824 16.603304 18.38909 3.2943614
6.715505 1.9421387 12.741398 2.6142962 31.411514 6.3131022 2.0922427 3.4400492
4.78929 8.287919 27.682991 3.1067429 3.8663678 3.110033 4.3327513 2.3187654
12.262829 11.214073 3.2636757 4.125997 3.1402907 5.018194 19.078913 18.231749
20.613716 14.257083 11.975181 2.6571858 3.276829 3.676422 2.6905572 3.0689867
10.184748 2.219562 3.8996134 4.3780637 2.4361055 24.402971 23.080862 16.884777
25.078835 9.340414 15.523209 17.424719 13.465686 24.394098 24.304342 14.004089
3.394053 4.407716 4.414789 16.912537 6.1165376 3.1584773 1.7783693 3.5210228
5.471325 3.718256 3.3700936 15.413845 8.22556 3.4921873 4.4116626 7.512578
9.844042 25.93629 11.468587 25.206186 4.8186316 2.9786105 4.932349 4.2405357
1.8904055 8.869764 2.3655863 3.4835334 21.260487 12.937823 2.121676 13.616048
2.966862 2.6148007 3.597645 2.7825692 12.694464 2.996649 35.003956 1.3225219
8.029329 2.2041533 1.7371659 1.5811433
00000000: ac66 9940 19d7 5a41 69fa 2241 d7db 9540
00000010: 8124 d341 91d3 8441 db1c 9341 d1d6 5240
00000020: 6be5 d640 0098 f83f c4dc 4b41 a150 2740
00000030: c84a fb41 ef04 ca40 4ee7 0540 c429 5c40
00000040: dd41 9940 519b 0441 c476 dd41 e0d4 4640
00000050: 9272 7740 c80a 4740 e6a5 8a40 a766 1440
00000060: 8c34 4441 d86c 3341 10e0 5040 2b08 8440
00000070: 86fa 4840 0c95 a040 9da1 9841 9fda 9141
00000080: e4e8 a441 031d 6441 579a 3f41 550f 2a40
00000090: 91b7 5140 804a 6b40 1732 2c40 476a 4440
000000a0: baf4 2241 4e0d 0e40 4493 7940 1919 8c40
000000b0: 27e9 1b40 4939 c341 9ba5 b841 0614 8741
000000c0: 74a1 c841 5672 1541 105f 7841 d365 8b41
000000d0: 7373 5741 1d27 c341 4b6f c241 c010 6041
000000e0: 2a38 5940 020c 8d40 f445 8d40 e04c 8741
000000f0: adba c340 7e24 4a40 9ba1 e33f 7058 6140
00000100: 1815 af40 e8f7 6d40 9daf 5740 1c9f 7641
00000110: e59b 0341 ff7f 5f40 572c 8d40 0a67 f040
00000120: 3281 1d41 867d cf41 557f 3741 45a6 c941
00000130: 3b32 9a40 8ea1 3e40 ced5 9d40 78b2 8740
00000140: cff8 f13f 8eea 0d41 c465 1740 36f2 5e40
00000150: 7a15 aa41 5301 4f41 8ac9 0740 55db 5941
00000160: 11e1 3d40 e558 2740 d13f 6640 9d15 3240
00000170: 861c 4b41 19c9 3f40 0d04 0c42 6648 a93f
00000180: 2278 0041 d910 0d40 745b de3f e762 ca3f

fc3.weight f4 [46, 100]
-0.20595516 -0.014950122 0.08800259 -0.05052849 -0.011273303 0.010174139 -0.031577695 -0.05138357
-0.03269913 -0.0007983637 0.0040537408 0.1734161 -0.014134156 0.056383006 -0.018795652 -0.043415707
-0.019934798 0.09163076 0.020089364 -0.037626524 0.03883331 0.038114917 0.0895177 0.03815061
0.008813356 0.0070563313 -0.050094392 -0.0006898105 -0.025012186 0.005139357 0.0139362635 0.007533143
0.012244681 -0.00065716077 -0.023183234 0.02503876 0.00998591 0.0586935 -0.04264552 0.014734205
-0.0028646162 -0.0067721955 0.060596775 0.02072135 -0.015111027 -0.014973286 -0.0060470267 -0.0046001794
-0.66416764 -0.05206775 0.0006203125 0.0029805517 0.0054870825 0.007973847 0.013398136 0.0016762624
0.07375542 -0.16931297 -0.11023077 -0.007015129 -0.038392384 0.075460635 0.004531964 -0.035607368
-0.06332608 -0.0039962353 -0.11137194 -0.006971366 -0.07490283 0.06790753 -0.072059296 -0.097725436
-0.06786726 0.002037882 0.00078669644 -0.007036839 -0.03400161 0.1138438 -0.050150517 0.008152645
-0.06229346 0.0062898076 0.0381271 -0.18059613 0.00455753 0.0037673383 0.0039259573 -0.0030093999
-0.053707387 0.033681173 -0.08608716 -0.019774016 -0.008998618 0.0029534334 0.02251966 -0.023218306
-0.011112486 -0.12768072 0.12445495 0.06668401 0.0055740033 -0.0067611053 0.0050353506 -0.010074072
-0.0035654646 0.027519431 -0.00435516 -0.011837261 -0.13297935 -0.042025138 0.027201632 -0.051145215
0.013529524 -0.009207573 0.02796284 -0.083506696 0.050248493 0.041294076 0.027630754 -0.040439725
0.037092857 -0.0990983 0.03797658 -0.03507594 -0.030121747 -0.011806049 -0.014750463 0.104363486
-0.06187432 0.09860923 -0.038580723 -0.027410408 -0.0022656207 -0.0057159048 -0.0016134464 0.09100245
-0.0052862074 -0.036589 -0.043807354 0.004683323 -0.04358093 -0.008314539 -0.10530227 -0.022035709
-0.028742561 -0.024582168 -0.00043524403 -0.02510138 -0.6294207 0.0030299663 -0.0014893222 0.0001857145
0.009878869 -0.008684335 -0.015452655 -0.0045799348 0.005926631 -0.06964644 0.06768692 -0.022059169
0.09703631 0.050458692 -0.03963968 0.03745575 -0.021084104 -0.022355935 0.0186155 0.0023968578
-0.026116941 0.06693878 0.057174828 -0.05361909 -0.014612839 -0.01443608 -0.010225567 0.028644111
0.09432825 -0.051374625 0.008105567 0.007846446 -0.0039051538 0.023694204 0.0047368025 0.005571293
0.010611652 0.0050521283 -0.09211926 -0.0053382055 -0.06731717 0.11501241 0.06396698 -0.011907498
0.023526628 0.06646712 -0.020691305 -0.030389115 0.0097993305 0.081260756 -0.068337426 -0.0679984
-0.0717513 -0.01074914 -0.04966706 -0.006069443 0.0037146166 0.0018255266 -0.012532418 -0.07153969
-0.021715293 -0.054772064 -0.6394627 0.021320816 0.017333409 0.09766881 -0.030965697 -0.03881932
-0.04810962 0.00851906 -0.018608563 -0.027755443 0.05506848 0.11331923 0.004211215 0.06648694
0.04994978 -0.010263795 0.028789999 -0.01259826 0.029272627 -0.105308294 -0.004639686 0.03687905
0.0037989016 -0.0023808933 0.015634041 0.08325453 0.095777385 0.02206034 -0.06111778 -0.004150885
0.016200205 0.034736056 0.03465502 -0.029356021 0.041861672 0.011872526 -0.004916449 -0.011120661
-0.0082693435 0.0007878256 -0.00054236874 0.0034192447 -0.009150811 0.009885202 0.015555802 0.020147726
00000000: e9e5 52be 5bf1 74bc b43a b43d f6f6 4ebd
00000010: a9b3 38bc 6fb1 263c 9d57 01bd 9477 52bd
00000020: 86ef 05bd 4849 51ba 3ed5 843b fd93 313e
00000030: f292 67bc def1 663d 57f9 99bc abd4 31bd
00000040: 4d4e a3bc e8a8 bb3d 7392 a43c 451e 1abd
00000050: ad0f 1f3d 631e 1c3d 0e55 b73d d043 1c3d
00000060: e565 103c cc38 e73b c72f 4dbd 66d4 34ba
00000070: 5be6 ccbc 0d68 a83b ed54 643c 95d8 f63b
00000080: ea9d 483c 5045 2cba c4ea bdbc 161e cd3c
00000090: f19b 233c 9868 703d 12ad 2ebd bc67 713c
000000a0: 49bc 3bbb 4be9 ddbb 5334 783d d2bf a93c
000000b0: 3e94 77bc 8352 75bc 2326 c6bb 1abd 96bb
000000c0: e406 2abf fe44 55bd 789c 223a 5c55 433b
000000d0: fccc b33b bda4 023c db83 5b3c 08b6 db3a
000000e0: 150d 973d 6160 2dbe acc0 e1bd 2bdf e5bb
000000f0: 5541 1dbd 1b8b 9a3d df80 943b 08d9 11bd
00000100: 1bb1 81bd daf2 82bb f916 e4bd 0e70 e4bb
00000110: a866 99bd 1a13 8b3d d393 93bd 4624 c8bd
00000120: fdfd 8abd fd8d 053b 4e3a 4e3a 4995 e6bb
00000130: 4645 0bbd f026 e93d a16a 4dbd ac92 053c
00000140: 6d27 7fbd bb1a ce3b 292b 1c3d 31ee 38be
00000150: 5557 953b 73e5 763b 51a5 803b 5a39 45bb
00000160: 47fc 5bbd 45f5 093d 774e b0bd 1efd a1bc
00000170: f16e 13bc 648e 413b 267b b83c 5134 bebc
00000180: 2511 36bc bcbe 02be 3de2 fe3d a091 883d
00000190: 21a6 b63b 438c ddbb 95ff a43b b80d 25bc
000001a0: 92aa 69bb 6e70 e13c bbb5 8ebb 12f1 41bc
000001b0: bd2b 08be 8d22 2cbd f5d5 de3c a57d 51bd
000001c0: f0aa 5d3c 5cdb 16bc 5312 e53c 8f05 abbd
000001d0: 5dd1 4d3d fa23 293d e459 e23c 20a4 25bd
000001e0: aeee 173d 0df4 cabd 558d 1b3d caab 0fbd
000001f0: e2c1 f6bc 296e 41bc edab 71bc 86bc d53d
00000200: ed6f 7dbd a3f3 c93d d206 1ebd cb8b e0bc
00000210: cf7a 14bb 7c4c bbbb 477a d3ba 7e5f ba3d
00000220: ec37 adbb 59de 15bd 576f 33bd 9076 993b
00000230: eb81 32bd b439 08bc b7a8 d7bd 3b84 b4bc
00000240: 8575 ebbc 8b60 c9bc 7731 e4b9 69a1 cdbc
00000250: b721 21bf 6692 463b 5c35 c3ba 5bbc 4239
00000260: fbda 213c be48 0ebc 222d 7dbc 4713 96bb
00000270: 2f34 c23b cba2 8ebd 719f 8a3d 6eb5 b4bc
00000280: f9ba c63d c6ad 4e3d 385d 22bd 336b 193d
00000290: 92b8 acbc cb23 b7bc 887f 983c 9a14 1d3b
000002a0: 32f3 d5bc 3317 893d 2730 6a3d b19f 5bbd
000002b0: b06a 6fbc 4f85 6cbc 2389 27bc 0ea7 ea3c
000002c0: 2b2f c13d 336e 52bd 36cd 043c 618e 003c
000002d0: 9ced 7fbb 591a c23c 2e37 9b3b 658f b63b
000002e0: 7fdc 2d3c 538c a53b 06a9 bcbd 1dec aebb
000002f0: 96dd 89bd a08b eb3d 1f01 833d ab17 43bc
00000300: eaba c03c ea1f 883d d080 a9bc 98f2 f8bc
00000310: 5f8d 203c 0a6c a63d 7ef4 8bbd bf42 8bbd
00000320: 58f2 92bd 291d 30bc b06f 4bbd 2ee2 c6bb
00000330: ed70 733b 8246 ef3a c554 4dbc 6783 92bd
00000340: 45e4 b1bc ac58 60bd d4b3 23bf fea8 ae3c
00000350: cbfe 8d3c 9606 c83d c6ab fdbc 0201 1fbd
00000360: 980e 45bd 8793 0b3c fc70 98bc 625f e3bc
00000370: 7d8f 613d ea13 e83d 3bfe 893b 4e2a 883d
00000380: 2498 4c3d 7a29 28bc 01d9 eb3c ef68 4ebc
00000390: 26cd ef3c e0ab d7bd 8208 98bb 7d0e 173d
000003a0: fef6 783b c308 1cbb f612 803c 5a81 aa3d
000003b0: ef26 c43d e3b7 b43c a356 7abd 2604 88bb
000003c0: 4bb6 843c 6547 0e3d 6cf2 0d3d 0a7c f0bc
000003d0: 2577 2b3d fc84 423c 2a1a a1bb 6f33 36bc
000003e0: 247c 07bc 1586 4e3a c02d 0eba 6815 603b
000003f0: 48ed 15bc 8bf5 213c c3dd 7e3c d80c a53c

fc3.bias f4 [46]
0.38517475 0.39464664 0.3570829 0.32827994 0.42989206 0.35344225 0.5190885 0.36956412
0.4219853 0.453993 0.3346197 0.33046874 0.48870915 0.37076175 0.2951033 0.4213106
0.40946448 0.46342465 0.3979459 0.4455203 0.34341842 0.3625247 0.3439649 0.4105308
0.4492508 0.29830605 0.2812915 0.28729102 0.30363765 0.3159441 0.31580862 0.36368614
0.45831478 0.40562633 0.37637326 0.27291465 0.3828022 0.32372305 0.33466494 0.40804473
0.31880587 0.3994482 0.30406302 0.38370344 0.37801012 0.31656367
00000000: a035 c53e 200f ca3e 92d3 b63e 4f14 a83e
00000010: d01a dc3e 62f6 b43e fce2 043f 8237 bd3e
00000020: 750e d83e c571 e83e 4653 ab3e 3333 a93e
00000030: 1638 fa3e 7cd4 bd3e c817 973e 06b6 d73e
00000040: 54a5 d13e ff45 ed3e 91bf cb3e 3d1b e43e
00000050: 8ad4 af3e d69c b93e 2b1c b03e 1831 d23e
00000060: 3304 e63e 92bb 983e 7105 903e cf17 933e
00000070: 6576 9b3e 6dc3 a13e abb1 a13e 1235 ba3e
00000080: 3ca8 ea3e 41ae cf3e ffb3 c03e 78bb 8b3e
00000090: a6fe c33e 07bf a53e 3459 ab3e 3deb d03e
000000a0: 863a a33e 7984 cc3e 26ae 9b3e c774 c43e
000000b0: 8b8a c13e a214 a23e
