mp4-machine-learning-template/model/model.pth (torch, 89342 bytes, 14 tensors)

fc1.weight f4 [120, 51]
0	0xbd9f6169	-0.077822514
1	0x3df92a34	0.12166253
2	0xbddce6ef	-0.107862346
3	0x3c3fa1f6	0.011696329
4	0x3d8afb71	0.0678624
5	0x3d390fa9	0.04518095
6	0xbc4545de	-0.012040583
7	0x3d9ad892	0.07560839
8	0x3e04f7af	0.12985109
9	0xbdbdfc8e	-0.092766866
10	0xbd830c57	-0.06398838
11	0x3d98a4cb	0.07453307
12	0xbe44f8a0	-0.19235468
13	0xbea20f25	-0.3165218
14	0x3cb894fa	0.022531975
15	0x3e499c5a	0.1968855
16	0xbc79c749	-0.015245267
17	0x3dd87da2	0.105708376
18	0x3d09b60b	0.033620875
19	0x3db3c703	0.08778193
20	0xbdcae11e	-0.09906219
21	0xbe9657f6	-0.29363984
22	0x3d90bac2	0.07066871
23	0x3dbb4828	0.09144622
24	0x3e1fe55b	0.15614836
25	0x3d9da096	0.07696645
26	0x3d02f14a	0.031968392
27	0x3e88e8b5	0.2674004
28	0x3d3e80ec	0.04650967
29	0xbd0cf2ed	-0.03441136
30	0x3d336966	0.043801688
31	0xbe50c227	-0.20386563
32	0xbcfe52be	-0.031045314
33	0x3e8e9e63	0.27855214
34	0xbd029576	-0.03188082
35	0xbf414613	-0.7549755
36	0xbc577c98	-0.013152264
37	0xbce14276	-0.027497511
38	0xbd248e2b	-0.040174644
39	0xbe236aba	-0.15958682
40	0x3dea0e06	0.11428456
41	0x3e590b15	0.21195634
42	0x3d114b0d	0.035471965
43	0x3caf0566	0.021364879
44	0xbdec4342	-0.11536266
45	0x3dbed47b	0.09317871
46	0x3da69d03	0.08135416
47	0xbdd3c4bb	-0.10340258
48	0xbdb855e0	-0.09000754
49	0xbd166cd3	-0.036724877
50	0x3c189570	0.009312972
51	0x3d35eb4d	0.044413853
52	0xbe265150	-0.16241956
53	0x3d284978	0.04108569
54	0xbdff2213	-0.12457671
55	0xbe0a2c88	-0.1349355
56	0x3e048224	0.1294027
57	0xbd460993	-0.048348974
58	0xbceb8f2e	-0.028754797
59	0xbd8e8f4d	-0.06960926
60	0xbd8d16e5	-0.068891324
61	0x3d5764cf	0.052586373
62	0x3d59a6ad	0.05313747
63	0x3d9fb98d	0.07799063
64	0xbd9507f6	-0.07276909
65	0xbd0d621e	-0.0345174
66	0x3c2ee584	0.010674838
67	0xbd2e607e	-0.04257249
68	0x3db1b9e7	0.08678036
69	0xbe0bd48a	-0.13655296
70	0xbd64429a	-0.05572758
71	0x3de5f3e8	0.11228162
72	0xbf4d731e	-0.8025378
73	0xbde47e6a	-0.11156924
74	0xbec3e1dc	-0.38258255
75	0xbd5d7c72	-0.05407376
76	0x3d8b3d51	0.067988046
77	0x3d4c59d5	0.049890358
78	0xbdfdbafd	-0.12389181
79	0x3d34edea	0.044172205
80	0x3a02748f	0.0004976475
81	0xbdb0d85b	-0.086350165
82	0xbd2bacf7	-0.041913
83	0x3d154527	0.036442902
84	0x3dd7157e	0.10502146
85	0x3d16d6b8	0.036825866
86	0x3e0e174e	0.13876078
87	0x3a3f3411	0.000729383
88	0xbd964286	-0.07336907
89	0xbcda0c55	-0.026617208
90	0x3d24e464	0.040256873
91	0xbca24f63	-0.019813245
92	0xbcf11e73	-0.029433465
93	0xbe24aec8	-0.16082299
94	0xbe5de489	-0.2166921
95	0x3d97ee55	0.07418505
96	0x3d41258d	0.04715495
97	0x3d9b2fb8	0.07577461
98	0x3e255d65	0.16148908
99	0xbe0fd939	-0.14047708
100	0xbdf1bebd	-0.118039586
101	0x3b83716b	0.004011323
102	0x3cc2cc72	0.023779128
103	0x3db9bc99	0.09069175
104	0x3d88c5eb	0.06678375
105	0xbcca32ef	-0.02468249
106	0x3de87752	0.113508835
107	0x3be6d917	0.007044922
108	0x3df66f83	0.12032988
109	0xbe5beb9c	-0.21476597
110	0xbddad61b	-0.106853686
111	0xbc87c99d	-0.016575629
112	0x3d85b07b	0.065278016
113	0xbd436f05	-0.0477133
114	0xbe245be1	-0.16050674
115	0x3dbeaa71	0.09309853
116	0xbd75eefa	-0.06004236
117	0xbd86d60e	-0.065837964
118	0x3d4b29bd	0.04960035
119	0x3d8f6229	0.070011444
120	0xbca18996	-0.019718926
121	0x3f01aeb5	0.50657207
122	0x3d92ecb7	0.07174056
123	0x3e99ee0b	0.30064425
124	0x3d02ec7f	0.03196382
125	0xbf11c20c	-0.5693672
126	0xbc4d021c	-0.01251271
127	0xbd57befe	-0.05267238
128	0xbda02f1c	-0.078214854
129	0x3e1705d0	0.14748311
130	0xbde4b18e	-0.11166678
131	0xbe228b35	-0.15873416
132	0x3de83056	0.11337344
133	0xbb5e59d5	-0.0033928056
134	0xbda41027	-0.08010893
135	0xbe438674	-0.19094259
136	0x3cd72ecc	0.026267432
137	0xbe872d4f	-0.26401755
138	0x3c6cda99	0.014456415
139	0xbd2377fd	-0.03990935
140	0x3e27d362	0.1638923
141	0x3d93a079	0.07208342
142	0x3c903b56	0.017606419
143	0xbe0d16d9	-0.13778247
144	0x3e0c463f	0.13698672
145	0x3d34848d	0.044071723
146	0xbe1db9f9	-0.15402974
147	0x3e035081	0.12823679
148	0x3dbf3313	0.093359135
149	0xbe2f692a	-0.1712996
150	0x3d73d559	0.059529636
151	0x3e209fbf	0.15685938
152	0xbd137a5e	-0.03600537
153	0xbd52bd15	-0.051449854
154	0xbbb25f59	-0.005443495
155	0x3d5029d5	0.050821144
156	0xbe8c443c	-0.2739581
157	0x3e22380c	0.15841693
158	0x3d74a524	0.059727803
159	0x3dae384f	0.08506834
160	0x3dd32cc1	0.103112705
161	0x3d161c42	0.036648043
162	0x3d95ce82	0.07314779
163	0xbd9793e9	-0.074012585
164	0x3d46e24a	0.04855565
165	0xbd304019	-0.04302988
166	0x3df4fb45	0.11961988
167	0xbca60a3f	-0.020268558
168	0xbcd0d1dd	-0.025490696
169	0xbc98c1a4	-0.018647023
170	0x3daa0690	0.08302033
171	0xbe1dce7c	-0.15410799
172	0xbeda0130	-0.4257903
173	0xbc242bda	-0.010020221
174	0x3d8e74a1	0.06955839
175	0xbc90b022	-0.017662112
176	0x3ecf4311	0.40480855
177	0xbdac05fb	-0.08399578
178	0x3e5e0066	0.2167984
179	0x3dec1b42	0.115286365
180	0xbe0392ed	-0.12849016
181	0x3e110d8a	0.14165321
182	0x3d12d6dc	0.035849437
183	0xbd0473d5	-0.03233703
184	0xbe11f9f1	-0.14255501
185	0x3d6c8a07	0.05774882
186	0xbdc070f0	-0.09396541
187	0xbe2404b7	-0.16017424
188	0x3eaee625	0.3415996
189	0xbde1efed	-0.1103209
190	0x3d955d00	0.07293129
191	0xbd3eef5b	-0.046614986
192	0x3e00e5d8	0.12587678
193	0xbc059b99	-0.008154773
194	0xbc251175	-0.010074963
195	0xbd20b9d8	-0.039239734
196	0xbdd0725f	-0.101780646
197	0xbd125ebf	-0.03573489
198	0xbe5da4e3	-0.2164493
199	0xbceb07b3	-0.028690195
200	0x3b38506c	0.0028124107
201	0xbe609a1e	-0.21933791
202	0xbe995cf9	-0.29953745
203	0x3da4d930	0.08049238
204	0xbe3182a1	-0.17334987
205	0x3ce51381	0.027963402
206	0x3c0f19bb	0.008734162
207	0x3eca9232	0.39564663
208	0xbd0413f6	-0.0322456
209	0xbe063709	-0.13106932
210	0xbd9d78d3	-0.07689061
211	0x3cf8e54e	0.030382778
212	0x3cc38975	0.023869256
213	0xbbb07af5	-0.0053857514
214	0x3d602b82	0.054728992
215	0xbd0604d8	-0.032719463
216	0xbcf138ac	-0.029445969
217	0x3d9c797b	0.07640358
218	0xbde53f81	-0.11193753
219	0x3d835d2e	0.06414257
220	0xbd535d05	-0.051602382
221	0xbca802c1	-0.020509126
222	0xbe49bb06	-0.1970025
223	0x3e9eddb1	0.31028512
224	0xbe746678	-0.23867214
225	0x3e2486b5	0.16067012
226	0xbe7c0864	-0.24612576
227	0x3eba2c6f	0.36362025
228	0x3d1eea69	0.03879777
229	0x3df3bf37	0.11901706
230	0xbe34f220	-0.17670488
231	0xbd8b31ac	-0.067965835
232	0xbe02d9ae	-0.1277835
233	0xbd246410	-0.04013449
234	0xbdbbf93b	-0.09178396
235	0x3dc65a6d	0.09685216
236	0xbe567bd9	-0.20945682
237	0xbe57b4f3	-0.2106512
238	0xbd1be668	-0.03806153
239	0xbe08871e	-0.13332793
240	0x3dd9b4e1	0.10630203
241	0xbdc1b911	-0.09459127
242	0x3d8f69ab	0.070025764
243	0xbe037d82	-0.12840846
244	0xbd84c9fc	-0.06483838
245	0x3d87102f	0.06594884
246	0x3e975a31	0.29560998
247	0x3e678f0b	0.2261316
248	0x3da25e90	0.079281926
249	0xbdd1ab80	-0.10237789
250	0x3def41b0	0.11682451
251	0xbd976b0a	-0.07393463
252	0x3e2162ae	0.157603
253	0x3d81e9e3	0.063434385
254	0x3da58737	0.08082431
255	0xbd9cae6c	-0.07650456

fc1.bias f4 [120]
0	0x3c202ff4	0.009777058
1	0x3c95a5a3	0.018267458
2	0x3d130c5c	0.03590046
3	0xbdde4464	-0.10852888
4	0x3de57e9b	0.11205789
5	0xbde8229c	-0.11334726
6	0xbde5fdea	-0.11230071
7	0xbbe1504e	-0.006876028
8	0xbe086087	-0.13318072
9	0xbbba953d	-0.00569406
10	0xbdd97d5a	-0.10619612
11	0xbd8ec87b	-0.06971832
12	0xbd55d533	-0.052205276
13	0xbdd8d130	-0.10586774
14	0xbd2410f0	-0.040055215
15	0x3d0d40cd	0.034485627
16	0xbdb779d9	-0.089587875
17	0x3c228395	0.009919067
18	0xbd662a62	-0.056192763
19	0x3da6124e	0.0810896
20	0x3cae42b4	0.02127204
21	0xbdc755c7	-0.097331576
22	0xbdb23ea5	-0.08703355
23	0x3ce02821	0.027362885
24	0xbd8a3450	-0.06748259
25	0xbda905fa	-0.08253093
26	0xbd3b95c9	-0.045797143
27	0xbd7b25d0	-0.061315358
28	0x3caf0977	0.021366818
29	0xbd1568e5	-0.03647699
30	0xbd95f8e5	-0.073228635
31	0xbdde266d	-0.10847173
32	0x3e0bcd68	0.13652575
33	0x3e003616	0.12520632
34	0x3abeba35	0.0014551344
35	0xbc5e65c5	-0.013574068
36	0xbd6d39c6	-0.057916425
37	0x3cfe6171	0.031052323
38	0xbc20be2c	-0.0098109655
39	0x3df399ab	0.11894544
40	0xbdca09aa	-0.098651245
41	0xbda8459d	-0.08216403
42	0x3d2919c4	0.041284338
43	0x3d42ca81	0.047556404
44	0xbce88a9c	-0.028386407
45	0xbdfa27e8	-0.12214643
46	0xbdab1a6b	-0.08354648
47	0xbdec0974	-0.115252405
48	0xbca26768	-0.019824699
49	0xbdb488ec	-0.08815178
50	0xbc9b9973	-0.018994069
51	0xbd217784	-0.03942062
52	0x3d4d46b2	0.05011625
53	0x3d246301	0.04013348
54	0x3e0b840e	0.13624594
55	0x3c751f52	0.014961081
56	0x3c51bf44	0.012801949
57	0xbd810fcb	-0.063018404
58	0xbe0c3b09	-0.13694395
59	0xbd8245df	-0.06360983
60	0xbd061da6	-0.03274312
61	0x3dbee7e1	0.09321571
62	0xbd52f204	-0.051500335
63	0xbc70ca6b	-0.014696698
64	0x3d5d8e0d	0.05409055
65	0x3d058587	0.032598045
66	0xbdefc9e1	-0.11708427
67	0xbca7496c	-0.020420752
68	0x3d43ab54	0.047770813
69	0x3d17e308	0.03708175
70	0x3da8d4c2	0.08243705
71	0x3cf78f2d	0.030219639
72	0x3de007db	0.10938998
73	0x3d0bd30d	0.03413682
74	0xbcb9fb84	-0.02270294
75	0xbdb12f6c	-0.08651623
76	0xbdda31ae	-0.10654007
77	0xbd836de0	-0.06417441
78	0xbce6fd4b	-0.028196951
79	0x3d47e35e	0.04880082
80	0xbd4b70c5	-0.049668092
81	0x3d45abd1	0.04825956
82	0xbc83e832	-0.01610193
83	0xbdbe2866	-0.09285049
84	0x3ddd9c46	0.108208224
85	0xbc376e23	-0.011195692
86	0xbde2ac2d	-0.11067996
87	0x3c9a5b28	0.018842295
88	0xbc855f97	-0.016280932
89	0x3df54c48	0.1197744
90	0xbd8be7f5	-0.06831352
91	0x3d119c86	0.035549663
92	0x3e0eeb89	0.13957037
93	0x3df272de	0.118383154
94	0x3dafd4a7	0.08585482
95	0xbdeafef2	-0.11474408
96	0xbe020237	-0.12696157
97	0xbb981b86	-0.004641953
98	0xbb889628	-0.0041682906
99	0xbdc2765d	-0.09495232
100	0x3dbca311	0.0921079
101	0x3dfba292	0.12286867
102	0xbe053adc	-0.13010734
103	0x3dadc610	0.08485043
104	0x3dba51b7	0.09097617
105	0x3c8349cd	0.016026402
106	0xbc29e799	-0.010370159
107	0x3d439bdd	0.047756065
108	0xbe0c099b	-0.13675539
109	0xbc48d360	-0.012257427
110	0xbd79a990	-0.060952723
111	0x3d8bfb84	0.06835082
112	0xbd9de8ab	-0.077103935
113	0x3dbae867	0.091263585
114	0x3d509689	0.05092481
115	0xbd21fad7	-0.03954586
116	0x3c61b040	0.013774931
117	0xbda6292d	-0.081133224
118	0xbd193d29	-0.037411842
119	0xbdf8f44f	-0.12155973

bn1.weight f4 [120]
0	0x3f796cbb	0.97431535
1	0x3f864e60	1.0492668
2	0x3f89f9b3	1.0779327
3	0x3f80d702	1.0065615
4	0x3f8215fb	1.0162958
5	0x3f844009	1.0332042
6	0x3f8f7bc6	1.1209648
7	0x3f7af98b	0.9803702
8	0x3f88f358	1.0699263
9	0x3f806ce5	1.0033232
10	0x3f6e5898	0.93103933
11	0x3f83e5ca	1.0304501
12	0x3f80d8a0	1.0066109
13	0x3f7778f7	0.9666895
14	0x3f7eef99	0.99584347
15	0x3f8174c4	1.0113759
16	0x3f8cb8d1	1.0993901
17	0x3f7a577e	0.9778975
18	0x3f75c889	0.9600912
19	0x3f703f04	0.93846154
20	0x3f81922f	1.0122737
21	0x3f8c4bc4	1.0960622
22	0x3f7470c0	0.9548454
23	0x3f72f03d	0.94897825
24	0x3f83451e	1.0255468
25	0x3f86d9f1	1.053526
26	0x3f72df71	0.94872195
27	0x3f81726a	1.0113041
28	0x3f834adf	1.0257224
29	0x3f703281	0.9382706
30	0x3f722d19	0.94600064
31	0x3f7b8803	0.9825441
32	0x3f7e1e90	0.99265385
33	0x3f8625bb	1.0480264
34	0x3f802ffd	1.0014645
35	0x3f829e37	1.0204533
36	0x3f89194c	1.0710845
37	0x3f843f46	1.033181
38	0x3f898ddf	1.0746421
39	0x3f6abd7d	0.91695386
40	0x3f858082	1.0429842
41	0x3f8a1283	1.0786899
42	0x3f7457a3	0.95446223
43	0x3f82f195	1.0229975
44	0x3f88e501	1.0694886
45	0x3f89adcf	1.0756167
46	0x3f8e6c3f	1.1126784
47	0x3f832dc6	1.0248344
48	0x3f6ed1f6	0.93289125
49	0x3f7db291	0.99100596
50	0x3f88ebb0	1.0696926
51	0x3f7f5684	0.9974139
52	0x3f7e6730	0.993762
53	0x3f8d2ee4	1.1029935
54	0x3f8b2597	1.0870847
55	0x3f8e57c9	1.112054
56	0x3f8492fa	1.0357354
57	0x3f814840	1.0100174
58	0x3f73ffe0	0.9531231
59	0x3f697402	0.9119264
60	0x3f81494b	1.0100492
61	0x3f81fa19	1.0154449
62	0x3f81553e	1.0104139
63	0x3f79b334	0.9753907
64	0x3f8b3948	1.0876856
65	0x3f802269	1.0010501
66	0x3f87cf35	1.061011
67	0x3f72a49a	0.9478241
68	0x3f737d37	0.9511294
69	0x3f849081	1.0356599
70	0x3f89adb0	1.075613
71	0x3f7260ee	0.9467915
72	0x3f63e8b0	0.8902693
73	0x3f81ae97	1.0131406
74	0x3f771476	0.96515596
75	0x3f7c74e9	0.9861589
76	0x3f7bca14	0.9835522
77	0x3f76ec01	0.96453863
78	0x3f74408f	0.9541101
79	0x3f81fe05	1.0155646
80	0x3f737dc4	0.9511378
81	0x3f6d5f57	0.927236
82	0x3f742958	0.95375586
83	0x3f7b5e20	0.981905
84	0x3f785c96	0.97016275
85	0x3f87569b	1.0573305
86	0x3f73ed26	0.95283735
87	0x3f8d48b9	1.1037818
88	0x3f89a787	1.075425
89	0x3f861748	1.0475855
90	0x3f82d105	1.0220038
91	0x3f8b355c	1.0875659
92	0x3f7ec3f9	0.9951778
93	0x3f88b81d	1.0681187
94	0x3f88febd	1.070274
95	0x3f80c8e2	1.0061305
96	0x3f742a41	0.95376974
97	0x3f88bca6	1.0682571
98	0x3f7ef99d	0.9959963
99	0x3f87b514	1.0602136
100	0x3f79f7f1	0.97643954
101	0x3f87dc82	1.0614169
102	0x3f6f9dbc	0.9360006
103	0x3f8666f5	1.050017
104	0x3f812433	1.0089172
105	0x3f846e2c	1.0346122
106	0x3f7b7b42	0.9823495
107	0x3f8053d4	1.0025582
108	0x3f75d2ed	0.9602497
109	0x3f85448c	1.0411544
110	0x3f76a49e	0.96344936
111	0x3f858525	1.0431257
112	0x3f6f60af	0.935069
113	0x3f8460a4	1.0341992
114	0x3f87fd11	1.0624105
115	0x3f73088b	0.9493491
116	0x3f825974	1.0183549
117	0x3f7c4467	0.98541874
118	0x3f663cab	0.8993632
119	0x3f7b75ec	0.9822681

bn1.bias f4 [120]
0	0xbe196799	-0.14980926
1	0xbe5fc459	-0.21852244
2	0xbe28a01a	-0.16467324
3	0xbe08d1be	-0.1336126
4	0xbe408366	-0.18800125
5	0xbe95b9b9	-0.29243258
6	0xbebc31e5	-0.36756817
7	0xbe50abcb	-0.20378034
8	0xbebb04b0	-0.36527014
9	0xbe5abea4	-0.21361786
10	0xbd31c14e	-0.04339724
11	0xbe903619	-0.28166273
12	0xbe753fc3	-0.23950104
13	0xbed9d591	-0.4254575
14	0x3df53985	0.119738616
15	0xbe8458ed	-0.25849095
16	0xbe5d2692	-0.21596745
17	0xbe8aebc4	-0.27133
18	0xbe0c1aa1	-0.13682033
19	0xbe242476	-0.16029534
20	0xbd98c9b8	-0.0746035
21	0xbe5db3dd	-0.21650644
22	0xbe6ed6de	-0.23324153
23	0xbdbbbafe	-0.09166525
24	0xbe844673	-0.25834998
25	0xbd97e14e	-0.0741602
26	0x3c748339	0.014923864
27	0xbe652435	-0.22377093
28	0xbe724b49	-0.23661532
29	0xbe39f311	-0.18159129
30	0xbddebcb9	-0.1087584
31	0xbe6fc447	-0.23414718
32	0x3bd094da	0.0063654007
33	0xbe738daa	-0.2378451
34	0xbda9cab3	-0.08290615
35	0xbe87ff44	-0.2656194
36	0xbe279803	-0.16366582
37	0xbe0696ad	-0.13143416
38	0xbe21ae3b	-0.1578912
39	0xbe3b8643	-0.18312936
40	0xbe63ff32	-0.22265318
41	0xbea55c49	-0.3229697
42	0x3c4addda	0.012381995
43	0xbd6926af	-0.056921657
44	0xbe95cd60	-0.2925825
45	0xbe340bd7	-0.17582642
46	0xbe2248fd	-0.15848155
47	0xbe9fb72d	-0.3119444
48	0xbe1cd73a	-0.15316477
49	0xbe7d9aa5	-0.24766023
50	0xbeb8a0a8	-0.3606007
51	0xbe030de1	-0.12798263
52	0xbe1634a4	-0.14668518
53	0xbea8ebdd	-0.3299245
54	0xbe8591f0	-0.26087904
55	0xbef00afe	-0.46883386
56	0xbe4ee55b	-0.2020468
57	0xbe0eb186	-0.13934907
58	0xbd26ce77	-0.040724244
59	0x3cb06bbc	0.021535747
60	0xbe8f6325	-0.2800533
61	0xbe294ae2	-0.16532472
62	0xbe16c39f	-0.14723061
63	0xbe0c588e	-0.13705656
64	0xbea41388	-0.3204615
65	0xbdb9b261	-0.09067226
66	0xbe23ee5f	-0.160089
67	0xbe58c425	-0.21168573
68	0x3dcb67a1	0.09931875
69	0xbe11e046	-0.1424571
70	0xbe10635a	-0.141004
71	0xbe5301f7	-0.20606218
72	0xbd82fd90	-0.063960195
73	0xbe5f5d13	-0.21812849
74	0xbde1748f	-0.1100856
75	0xbe8327c9	-0.2561629
76	0xbe791c60	-0.2432723
77	0xbc21269a	-0.0098358635
78	0xbe31eb0f	-0.17374824
79	0xbdbc8b49	-0.09206254
80	0xbe39c70b	-0.18142335
81	0x3d10ec21	0.03538144
82	0xbe722b2b	-0.2364928
83	0xbdd36256	-0.103214905
84	0xbe57a267	-0.21058045
85	0xbeb76ca2	-0.35825068
86	0xbe0d94fb	-0.13826363
87	0xbe7712af	-0.24128221
88	0xbdba53b4	-0.09097996
89	0xbe8d0e45	-0.2754995
90	0xbea9903b	-0.33117852
91	0xbddd2a1b	-0.107990466
92	0xbdc4fcf0	-0.096185565
93	0xbec4bb8d	-0.3842434
94	0xbea1725a	-0.31532556
95	0xbe0954e4	-0.1341129
96	0xbc7f6851	-0.015588836
97	0xbdcf92b6	-0.10135405
98	0xbe93bdba	-0.28855687
99	0xbe7d564c	-0.24739951
100	0xbdbdb64b	-0.09263285
101	0xbdac90d7	-0.084260635
102	0xbdbc90b9	-0.09207291
103	0xbe3f0060	-0.18652487
104	0xbd27df02	-0.04098416
105	0xbdc27fb1	-0.094970115
106	0xbe68003e	-0.22656342
107	0xbe8bacb5	-0.27280203
108	0xbe806242	-0.25074965
109	0xbe90b9e9	-0.28266838
110	0x3e047fa3	0.12939315
111	0xbe844a22	-0.2583781
112	0xbdcd0394	-0.10010448
113	0xbdf6bb8b	-0.1204749
114	0xbde3f539	-0.11130757
115	0xbe079894	-0.13241798
116	0xbe922b85	-0.28548828
117	0xbd553430	-0.052051723
118	0x3a3b3fc8	0.0007142988
119	0xbe359106	-0.17731103

bn1.running_mean f4 [120]
0	0x3bfccc66	0.007714796
1	0x3c8c8ba2	0.017156426
2	0x3d3a4417	0.04547509
3	0xbdeafccf	-0.11474001
4	0x3deb4af0	0.114889026
5	0xbded9321	-0.11600328
6	0xbdce1bd8	-0.100639045
7	0xbc56206e	-0.013069255
8	0xbdf6c664	-0.12049559
9	0xba9c6080	-0.0011930615
10	0xbdf97aa9	-0.12181599
11	0xbd6d6ed0	-0.057967007
12	0xbd5d7f84	-0.054076687
13	0xbdd19c50	-0.10234892
14	0xbd4170d4	-0.047226742
15	0x3d01c43e	0.03168129
16	0xbdad1638	-0.084515035
17	0x3c1bd366	0.0095108505
18	0xbd6ca1ee	-0.057771616
19	0x3db5d189	0.08877856
20	0x3b0ab604	0.0021165619
21	0xbdc20646	-0.09473853
22	0xbdb8bb25	-0.0902007
23	0x3d1535b2	0.03642816
24	0xbd9a00dc	-0.07519695
25	0xbdb10ea5	-0.08645371
26	0xbd251740	-0.040305376
27	0xbd6dcd18	-0.05805692
28	0x3c9f8252	0.019471321
29	0xbcc5a068	-0.02412434
30	0xbd861cfe	-0.065484986
31	0xbdca10bd	-0.09866474
32	0x3e0e7a29	0.13913788
33	0x3df81ee1	0.12115265
34	0x3af86d50	0.0018953476
35	0xbbe80c4b	-0.0070815436
36	0xbd67b31b	-0.056567293
37	0x3c89cf91	0.016822608
38	0xbc5177a8	-0.012784876
39	0x3e033445	0.12812908
40	0xbddd616b	-0.10809597
41	0xbda7b93d	-0.08189628
42	0x3d22a2ce	0.039706044
43	0x3d56f790	0.052482188
44	0xbd1faee8	-0.038985163
45	0xbdfd5b8f	-0.12370979
46	0xbdbe529c	-0.092931
47	0xbdedac8e	-0.11605178
48	0xbc6adb3c	-0.014334496
49	0xbdc6936f	-0.096960895
50	0xbcce366b	-0.025172433
51	0xbd1da0f0	-0.03848356
52	0x3d5abbd2	0.053401776
53	0x3d1d24b9	0.0383651
54	0x3e173244	0.14765269
55	0x3bc56b44	0.00602475
56	0x3c03fbb0	0.008055612
57	0xbd5032bb	-0.05082963
58	0xbe02dfcf	-0.12780689
59	0xbd8ae0a4	-0.06781128
60	0xbce46df0	-0.027884454
61	0x3daa67ab	0.08320554
62	0xbd32cb27	-0.043650772
63	0xbc5dad07	-0.013530022
64	0x3d4c06d0	0.049811184
65	0x3d29dfd6	0.041473232
66	0xbdf45947	-0.11931091
67	0xbc43af0d	-0.011943591
68	0x3d59bf70	0.053161085
69	0x3d1a832d	0.037722755
70	0x3da1b495	0.078957714
71	0x3d0fff63	0.035155665
72	0x3de51fe0	0.1118772
73	0x3d159af8	0.036524743
74	0xbc8ec3ac	-0.017427288
75	0xbda1fb55	-0.07909266
76	0xbde3b606	-0.111187026
77	0xbd870f4b	-0.06594714
78	0xbc4ca794	-0.012491126
79	0x3d11bb84	0.03557922
80	0xbd6e0792	-0.05811269
81	0x3d63ad11	0.05558497
82	0xbcae26a5	-0.021258662
83	0xbdd25096	-0.10269277
84	0x3dc772ce	0.09738694
85	0xbc0736e1	-0.00825283
86	0xbddc4afd	-0.107564904
87	0x3c9513b4	0.018197872
88	0xbca02c40	-0.01955235
89	0x3dec63ba	0.11542459
90	0xbd8deb5d	-0.069296576
91	0x3d141b7d	0.036159027
92	0x3e0f2ae7	0.1398121
93	0x3ded20af	0.115784995
94	0x3db1594d	0.08659611
95	0xbdf36ce0	-0.11886001
96	0xbe0e81e0	-0.13916731
97	0xbbc10140	-0.0058900416
98	0x3be24c43	0.0069060638
99	0xbdd81e80	-0.105526924
100	0x3db56715	0.08857552
101	0x3de241b1	0.11047686
102	0xbdfc4782	-0.123183265
103	0x3da341f7	0.07971566
104	0x3da5e98a	0.08101185
105	0x3ca70d90	0.02039221
106	0x39e49e00	0.00043605268
107	0x3d45a81d	0.04825603
108	0xbe089459	-0.1333784
109	0xbc56123a	-0.013065869
110	0xbd88eeaf	-0.0668615
111	0x3d813621	0.063091524
112	0xbd893829	-0.06700165
113	0x3dc803d2	0.09766354
114	0x3d74b5c4	0.059743658
115	0xbd522168	-0.05130139
116	0x3c8f2118	0.017471835
117	0xbdb1e4f6	-0.08686249
118	0xbd1aa1d4	-0.037751988
119	0xbdee5a03	-0.11638262

bn1.running_var f4 [120]
0	0x3f9ba46b	1.2159551
1	0x3fa8cf11	1.3188192
2	0x3f97ed19	1.1869231
3	0x3fb1ad3d	1.3880993
4	0x3fc25eb0	1.5185146
5	0x3fc3052f	1.5235957
6	0x40908b6a	4.5170183
7	0x3fa9f074	1.3276505
8	0x3fab4110	1.337923
9	0x3fa9f5a4	1.3278089
10	0x3fdcca74	1.7249284
11	0x40211fea	2.5175729
12	0x3f95d5f7	1.1705922
13	0x3fef7938	1.8708868
14	0x3f806b4d	1.0032746
15	0x3f9c564e	1.2213838
16	0x3fab036e	1.3360422
17	0x3f9d766f	1.2301768
18	0x3f9ed4b6	1.2408664
19	0x404952a3	3.1456687
20	0x4020b2a9	2.5109046
21	0x3f9d1cb5	1.2274386
22	0x3fb13930	1.3845577
23	0x40654c06	3.582765
24	0x400b30c0	2.1748505
25	0x3fa23c03	1.2674564
26	0x3fb9c6ed	1.4513832
27	0x3f99660c	1.1984267
28	0x3fb22b07	1.3919381
29	0x40273c80	2.6130676
30	0x3fcbe13f	1.5928115
31	0x3fc93d6d	1.5721871
32	0x3fb931fb	1.4468378
33	0x3f89efd8	1.077632
34	0x3f95761f	1.1676673
35	0x4049250d	3.1428864
36	0x3f9ed4a7	1.2408646
37	0x3faa2690	1.3293018
38	0x3fbce0b4	1.4756074
39	0x3ff56641	1.917183
40	0x3f875e43	1.0575641
41	0x3fb73860	1.4314079
42	0x3fd3a529	1.6534778
43	0x3fa7d82b	1.3112844
44	0x3fa7e439	1.3116523
45	0x3fa097b7	1.25463
46	0x3f94afa3	1.16161
47	0x3ff7ae61	1.9350091
48	0x3f97e178	1.1865683
49	0x3fa8c0a6	1.3183792
50	0x3fa0066c	1.250196
51	0x3f8c710e	1.0972002
52	0x3f8cc5c6	1.0997856
53	0x3f99b87b	1.2009424
54	0x3fa40dcb	1.2816709
55	0x3f9b9a49	1.2156459
56	0x3fc13f76	1.5097492
57	0x3f9d60c2	1.2295153
58	0x3fb7e1f9	1.4365836
59	0x3f9f7c71	1.2459852
60	0x404d1b20	3.2047806
61	0x3fc3413d	1.5254284
62	0x3f99ddbf	1.2020797
63	0x3fd90437	1.6954411
64	0x3fb3b8c5	1.4040762
65	0x3fb9af72	1.4506667
66	0x3fabb4f4	1.3414598
67	0x400461ce	2.0684695
68	0x3f992efb	1.1967462
69	0x3fac9818	1.3483915
70	0x3fc90c2b	1.5706838
71	0x402289b1	2.539654
72	0x3f8af414	1.0855737
73	0x3f81c2f3	1.0137619
74	0x3fddfce1	1.7342798
75	0x3fa64f5f	1.2992972
76	0x3fcf216a	1.6182072
77	0x3fa1bb47	1.2635278
78	0x40141deb	2.314326
79	0x4006d978	2.1070232
80	0x3fcc9615	1.5983301
81	0x3faa8979	1.3323203
82	0x3fb530a5	1.415547
83	0x3f9a6c1e	1.2064245
84	0x3f8cafc6	1.0991142
85	0x3fba9f64	1.4579892
86	0x3f9ebceb	1.2401403
87	0x3fbce74f	1.475809
88	0x3facd1e8	1.3501558
89	0x3fb38bf6	1.4027088
90	0x3fa4640b	1.2843031
91	0x3f85ae07	1.0443734
92	0x3fa1fc2d	1.2655083
93	0x3fe0b0f2	1.7554
94	0x3fa27e0f	1.269472
95	0x3fba0ada	1.4534562
96	0x3f9fb303	1.2476505
97	0x3f84a9d6	1.036433
98	0x40648ab9	3.570967
99	0x3fb01399	1.3755981
100	0x3fa7af60	1.3100395
101	0x3fc502c5	1.539147
102	0x3fd0f7e2	1.6325648
103	0x3fa6488c	1.299089
104	0x3ff241c7	1.8926324
105	0x3fad77f5	1.3552233
106	0x40035306	2.0519423
107	0x3fb44c20	1.4085732
108	0x3fde02c2	1.7344592
109	0x3fcb5b2a	1.5887196
110	0x3f91aa02	1.1380007
111	0x3f8cfea5	1.1015211
112	0x3fb3dec9	1.4052364
113	0x3f92da84	1.1472936
114	0x3f98be5b	1.1933092
115	0x40386540	2.8811798
116	0x3fa15333	1.2603515
117	0x3f6d7428	0.92755365
118	0x3f938b86	1.1526954
119	0x3f91892e	1.1369989

fc2.weight f4 [84, 120]
0	0xbc9b638d	-0.018968368
1	0x3e090590	0.13381028
2	0xbe4a246e	-0.1974046
3	0xbda5f777	-0.08103841
4	0x3e16284b	0.14663808
5	0x3d912d35	0.07088701
6	0xbe2f53b0	-0.17121768
7	0xbdde8c5f	-0.108666174
8	0x3e3d1ef2	0.18468836
9	0xbd1a2025	-0.03762831
10	0xbea4ad15	-0.321633
11	0xbccb821c	-0.024842314
12	0xbdff4e35	-0.12466089
13	0x3eabf695	0.33586565
14	0xbbe20845	-0.0068979585
15	0xbaf0f0e8	-0.0018382343
16	0x3dc2dfab	0.095153175
17	0x3e03afc2	0.12860015
18	0x3b9601e0	0.0045778602
19	0x3e51428e	0.20435545
20	0xbea3c8ea	-0.31989223
21	0xbdee0f11	-0.116239674
22	0xbe5201dc	-0.20508522
23	0xbd64c729	-0.055853996
24	0xbe92911a	-0.2862633
25	0x3d2d8ac1	0.042368654
26	0xbe399dcd	-0.18126602
27	0x3db3cca9	0.0877927
28	0x3d81ccb0	0.06337869
29	0x3d8e0f78	0.06936544
30	0xbd831669	-0.06400759
31	0x3e4b95da	0.19881383
32	0xbe456c24	-0.19279534
33	0x3dc0feaf	0.09423577
34	0xbd105f60	-0.035247207
35	0x3e0e5ce7	0.13902627
36	0x3e233b0e	0.15940496
37	0x3d09ba07	0.033624675
38	0xbca98e5f	-0.02069777
39	0x3e05c2ce	0.13062593
40	0xbd74d432	-0.059772678
41	0x3e91d7dd	0.28485003
42	0xbc973471	-0.018457623
43	0x3d3c19ee	0.045923166
44	0xbe28b1d1	-0.16474082
45	0xbe76f618	-0.24117315
46	0xbe608aa9	-0.21927895
47	0xbe4263a5	-0.18983324
48	0xbdc09bb7	-0.094047
49	0xbdcc1618	-0.099651515
50	0x3e94023e	0.2890796
51	0xbd72ab37	-0.059245314
52	0xbd8adee4	-0.06780794
53	0x3e13c862	0.14431909
54	0xbd3137b3	-0.04326601
55	0x3c5dc421	0.01353553
56	0xbde75ae5	-0.11296634
57	0x3e30b9f9	0.17258443
58	0xbe47b356	-0.19502005
59	0x3ab6cce2	0.0013946558
60	0x3e0094ca	0.12556759
61	0xbdc0355b	-0.09385177
62	0xbdd30cf7	-0.10305207
63	0x3d01e3de	0.03171145
64	0xbd4446be	-0.047919028
65	0x3d270b12	0.04078204
66	0x3e3feabf	0.18741892
67	0x3cc3c60a	0.023898143
68	0x3cc50942	0.024052266
69	0x3d7f278c	0.062293574
70	0x3e3a333a	0.18183604
71	0x3d943424	0.072365075
72	0x3c4a7c51	0.012358741
73	0x3e196081	0.1497822
74	0xbe1188ed	-0.1421239
75	0xbdbaa78e	-0.0911399
76	0xbdce1c97	-0.10064047
77	0xbd7f8fac	-0.062392876
78	0xbc88ed81	-0.016714813
79	0xbd2bcaf2	-0.04194159
80	0xbe80f189	-0.25184277
81	0x3dff0f79	0.12454123
82	0xbdf4b45c	-0.11948463
83	0xbdc1e07c	-0.09466645
84	0xbd8a4fbe	-0.06753491
85	0x3e41993e	0.18906114
86	0xbe0b99d7	-0.13632904
87	0xbe2379fa	-0.15964499
88	0x3e43c26b	0.19117133
89	0x3da2e675	0.079541124
90	0xbe5a0139	-0.21289529
91	0xbd939d6f	-0.072077624
92	0xbe14f387	-0.14546023
93	0xbd81cf73	-0.06338396
94	0x3e2468c2	0.16055587
95	0xbe6141c5	-0.21997745
96	0xbecb542c	-0.39712656
97	0xbe567462	-0.20942834
98	0xbe0d7a4a	-0.13816181
99	0xbd968a40	-0.07350588
100	0xbe4968c7	-0.19668876
101	0x3c8d5c39	0.01725589
102	0xbd57ed6e	-0.052716665
103	0xbdf2fa41	-0.118641384
104	0x3db68974	0.08912936
105	0xbe2218d6	-0.15829787
106	0xbdad2509	-0.084543295
107	0xbe8682d7	-0.26271698
108	0x3d436ffa	0.04771421
109	0x3e188c78	0.14897335
110	0xbe8aedf8	-0.2713468
111	0x3e981a4e	0.2970757
112	0x3dd1dbbe	0.102469906
113	0x3da0684d	0.07832394
114	0xbde9edac	-0.114222854
115	0x3cf9f478	0.03051208
116	0x3d2d935c	0.04237686
117	0x3d9b784c	0.07591304
118	0xbce92651	-0.028460653
119	0x3d29400e	0.041320853
120	0xbd7b1b45	-0.061305303
121	0xbdd09fbe	-0.101867184
122	0x3da327ac	0.07966551
123	0x3cf491f6	0.029854756
124	0x3cb1bee1	0.021697463
125	0xbe48e8e4	-0.1962009
126	0xbe9c199e	-0.30488294
127	0xbb732bb0	-0.0037104897
128	0x3e7d6cdb	0.24748556
129	0xbd90d7a6	-0.07072382
130	0xbe3dd66b	-0.18538825
131	0xbe405af1	-0.18784691
132	0x3c643c16	0.013930341
133	0xbe9d03cb	-0.30666956
134	0xba66e67c	-0.00088081486
135	0xbe0ee942	-0.13956168
136	0x3d3f8ca4	0.046764985
137	0xbd3b4a3f	-0.045725103
138	0x3ddfcd00	0.109277725
139	0xbbb87119	-0.0056287167
140	0xbc28be2e	-0.010299249
141	0x3e167810	0.14694238
142	0xbe5665b4	-0.20937234
143	0xbddbbcc2	-0.10729362
144	0xbea018ed	-0.31269017
145	0x3d695b51	0.05697185
146	0xbdea13bd	-0.11429546
147	0xbd766b46	-0.060160898
148	0xbc47262d	-0.012155098
149	0xbb073f9e	-0.0020637284
150	0x3e2391bf	0.15973566
151	0x3c6d5438	0.014485411
152	0x3dc75d08	0.09734541
153	0x3d8312ba	0.06400056
154	0x3df09fdf	0.11749243
155	0xbe838d3e	-0.25693697
156	0x3c7bd56a	0.015370706
157	0x3c355d0d	0.011069548
158	0xbd6c09f1	-0.05762667
159	0xbdbfcc03	-0.09365084
160	0xbdecdd54	-0.115656525
161	0xbe1a3567	-0.15059434
162	0xbd55cd46	-0.052197717
163	0xbd105f19	-0.035246942
164	0xbe6856b9	-0.22689332
165	0xbd914286	-0.070927665
166	0xbdad4ef3	-0.08462324
167	0xbd45694e	-0.04819613
168	0x3e660a18	0.22464788
169	0xbe2c4f3b	-0.16827099
170	0x3e1d4bf8	0.15361011
171	0x3e0b62d1	0.13611914
172	0xbe458caf	-0.19291948
173	0x3e059cf2	0.13048151
174	0xbde3ac8a	-0.111168936
175	0xbcac3abf	-0.021024106
176	0x3dfc0aa2	0.123067155
177	0x3deabd97	0.11461943
178	0xbda88c42	-0.08229877
179	0xbe83b6b0	-0.25725317
180	0xbc7f8ff4	-0.015598286
181	0xbe52390f	-0.20529579
182	0xbd2c896e	-0.04212325
183	0xbdfb8eee	-0.12283121
184	0xbccfabf7	-0.025350554
185	0x3e0530c1	0.1300688
186	0xbe2a5a98	-0.16636121
187	0x3a9b20a8	0.0011835294
188	0xbc9e34e3	-0.019312328
189	0xbd40615f	-0.04696786
190	0x3dcd9fe9	0.10040266
191	0xbb39ac3c	-0.002833142
192	0xbd2155fd	-0.039388645
193	0x3ddb2d77	0.10702031
194	0x3aa658ab	0.001269122
195	0x3d393c85	0.04522373
196	0xbe88b5e7	-0.2670128
197	0xbd558825	-0.05213179
198	0x3d93148f	0.071816556
199	0x3d9ce927	0.07661658
200	0xbd493477	-0.0491223
201	0x3c2c5ee6	0.010520672
202	0xbd0010e8	-0.031266123
203	0xbc02c73a	-0.00798207
204	0x3c0a4f9c	0.008441832
205	0x3d337361	0.043811206
206	0xbe289a4f	-0.16465114
207	0xbdb86ce1	-0.09005142
208	0x3e51e0d2	0.20495918
209	0xbe02e31d	-0.1278195
210	0xbd422982	-0.047402866
211	0xbe36db92	-0.17857197
212	0xbe4bd521	-0.19905521
213	0xbe8a49ab	-0.2700933
214	0xbe32bd8f	-0.17455123
215	0xbe4420f4	-0.19153196
216	0xbe617891	-0.22018649
217	0xbcd9b01e	-0.026573237
218	0xbe0c0a84	-0.13675886
219	0xbdce55ad	-0.10074935
220	0x3943374e	0.00018617252
221	0xbde0a5a6	-0.10969095
222	0xbe3ff536	-0.18745884
223	0xbe0305fb	-0.1279525
224	0xbd0f6895	-0.035011847
225	0xbe338f50	-0.17535138
226	0xbd3bd99b	-0.04586182
227	0xbeb87e62	-0.36033922
228	0xbdc17e54	-0.09447923
229	0x3d4601b3	0.048341464
230	0xbe14471c	-0.14480251
231	0xbe0b53c1	-0.13606168
232	0xbcf4ce83	-0.029883629
233	0x3d212ca2	0.039349206
234	0x3e659e03	0.22423558
235	0xbde581d8	-0.11206406
236	0xbc1bb95c	-0.009504642
237	0x3dcf9b77	0.101370744
238	0x3d16db9a	0.036830522
239	0x3c61a325	0.013771807
240	0xbd969654	-0.073528916
241	0xbda1b06a	-0.078949764
242	0x3dce0ecd	0.10061417
243	0xbe52c38f	-0.20582412
244	0xbe4be3a4	-0.19911057
245	0xbe49b5f5	-0.19698317
246	0x3d67d287	0.05659726
247	0x3dab7db8	0.08373588
248	0x3e360dec	0.17778748
249	0xbcf433b1	-0.029809805
250	0xbde34322	-0.11096789
251	0xbd8f6cb6	-0.07003157
252	0xbe502487	-0.20326434
253	0xbce22cc6	-0.02760924
254	0x3dee4390	0.1163398
255	0xbdbcaf49	-0.092131205

fc2.bias f4 [84]
0	0x3dad4d75	0.084620394
1	0x3ad75a43	0.0016430098
2	0xbd885f78	-0.06658834
3	0xbba3a1cd	-0.0049936534
4	0x3cf2e6d8	0.02965109
5	0xbd2ac272	-0.041689344
6	0xbd9d28d1	-0.07673801
7	0xbd9dd5e1	-0.0770681
8	0x3d557e5e	0.052122466
9	0xbda10007	-0.07861333
10	0x3db3fa4a	0.08787973
11	0xbd672014	-0.056427076
12	0xbd17f114	-0.037095144
13	0xbc1b434c	-0.009476494
14	0xbd0053f4	-0.031330064
15	0x3d1a46d1	0.037665192
16	0x3c51620e	0.012779726
17	0xbdb1c4aa	-0.08680089
18	0xbc3424b1	-0.010995076
19	0x3c80fea5	0.015746424
20	0x3d9f23d5	0.07770506
21	0xbda7f1f2	-0.08200444
22	0xbd11a6db	-0.035559516
23	0xbd4307c5	-0.04761483
24	0x3db7ad5c	0.089686126
25	0x3d40270b	0.046912234
26	0x3d93b124	0.07211521
27	0x3db8bda0	0.09020543
28	0x3c5e51e0	0.013569325
29	0xbd816aed	-0.063192226
30	0x3d933edc	0.07189724
31	0x3cb70310	0.022340328
32	0xbd318a85	-0.043344993
33	0x3da43dc7	0.080195956
34	0x3da56b8b	0.08077153
35	0x3cdf86c6	0.027285945
36	0xbd834393	-0.06409373
37	0xbd977c4e	-0.07396756
38	0xbd222edc	-0.03959547
39	0xbc0964b5	-0.008385827
40	0x3da9fa02	0.08299638
41	0x3d6ab5f6	0.057302438
42	0xbd70fc8f	-0.05883461
43	0x3c05b667	0.008161164
44	0xbc3fbc53	-0.011702615
45	0x3da414cb	0.080117784
46	0x3c575265	0.013142203
47	0x3cf4b1d6	0.029869955
48	0x3c058d88	0.008151419
49	0x3ad2effa	0.0016093247
50	0xba71f061	-0.00092292397
51	0x3d8b89ac	0.06813368
52	0x3d82253f	0.063547604
53	0xbd86532f	-0.06558835
54	0xbbf5bab0	-0.0074990615
55	0x3da14bd8	0.07875794
56	0xbd7b6217	-0.061372843
57	0xbc5c5ef9	-0.013450378
58	0x3da24285	0.07922844
59	0xbd3a5a68	-0.045496374
60	0x3d896e59	0.067105
61	0xbce2ec75	-0.027700642
62	0x3d74a7cc	0.059730336
63	0x3cee11c4	0.029061206
64	0x3da76044	0.08172658
65	0xbd81987d	-0.06327913
66	0x3c858ffd	0.01630401
67	0x3db89bd2	0.09014095
68	0xbd8f2259	-0.06988973
69	0xbd8d0e6d	-0.06887517
70	0x3d0da056	0.034576736
71	0x3d8e8f0a	0.06960876
72	0x3daeddd6	0.085384056
73	0x3d9a49e9	0.075336285
74	0x3d5452a2	0.051836617
75	0x3cb233dc	0.021753244
76	0xbd8179c3	-0.06322052
77	0xbdaf441b	-0.08557912
78	0xbc723d9c	-0.014785197
79	0xbd985d98	-0.074397266
80	0xbd981606	-0.07426076
81	0x3c855d35	0.016279796
82	0xbdb88e61	-0.090115316
83	0xbd5493d4	-0.051898792

bn2.weight f4 [84]
0	0x3fd9facb	1.7029661
1	0x3febc3b5	1.84191
2	0x3fe06ffb	1.7534174
3	0x3fe39aa3	1.7781566
4	0x3fe627bf	1.798088
5	0x3ff48e55	1.9105936
6	0x3ff3a637	1.90351
7	0x3fd03cb4	1.6268525
8	0x3feb98cc	1.8406005
9	0x3fe787b4	1.8088288
10	0x3fee659b	1.8624758
11	0x3fe79141	1.8091203
12	0x3fdd3d0e	1.7284257
13	0x3ff117da	1.8835404
14	0x3fe6d02e	1.8032281
15	0x3fe19e08	1.7626352
16	0x3fdbe2c8	1.7178583
17	0x3fdde063	1.7334102
18	0x3fdbcc4a	1.7171719
19	0x3fd6a6d9	1.6769668
20	0x3fe805b7	1.8126744
21	0x3fe954b5	1.8228976
22	0x3fe57c74	1.7928605
23	0x3fed2859	1.8527938
24	0x3feb3860	1.8376579
25	0x3fe842dd	1.8145405
26	0x3fd6dc4b	1.6785978
27	0x3fe4850a	1.78531
28	0x3fda3847	1.7048424
29	0x3fe6cdd0	1.8031559
30	0x3fec2883	1.8449863
31	0x3fef2cbc	1.8685527
32	0x3ff1b115	1.8882166
33	0x3fefb7be	1.8727949
34	0x3fe1ba03	1.7634891
35	0x3fe515fb	1.7897333
36	0x3fde6275	1.7373797
37	0x3fee6678	1.8625021
38	0x3fce1547	1.6100243
39	0x3fec830c	1.8477492
40	0x3fe0f7a7	1.7575577
41	0x3fdd9cb9	1.7313453
42	0x3fe1af4d	1.7631623
43	0x3fe342f6	1.775481
44	0x3fe25750	1.7682896
45	0x3fdece87	1.7406777
46	0x3fd783ce	1.6837099
47	0x3fe8bcfc	1.8182673
48	0x3fd8b3de	1.6929891
49	0x3fe0d755	1.7565714
50	0x3fd19d90	1.6376209
51	0x3fe60f66	1.7973449
52	0x3fdb3adf	1.7127341
53	0x3fe9cb91	1.8265249
54	0x3fe75bcd	1.807489
55	0x3fdff9ac	1.7498069
56	0x3feee9ae	1.8665063
57	0x3fd6d6ba	1.6784279
58	0x3fdcef9b	1.7260622
59	0x3fe4adc1	1.7865525
60	0x3fe462f2	1.7842696
61	0x3fe1bb1b	1.7635225
62	0x3fdbd512	1.7174399
63	0x3fed3e67	1.8534669
64	0x3fce145e	1.6099966
65	0x3fdea636	1.7394474
66	0x3fda4cb6	1.705466
67	0x3fd3aea6	1.6537673
68	0x3fdc3d5d	1.7206227
69	0x3fdaff83	1.7109226
70	0x3fece3aa	1.8506978
71	0x3ff16990	1.886034
72	0x3fdd9fad	1.7314354
73	0x3fdc8bec	1.7230201
74	0x3fd59d82	1.6688693
75	0x3fd9e64a	1.7023404
76	0x3feedf58	1.8661909
77	0x3fd6ec2e	1.6790826
78	0x3fed8754	1.8556924
79	0x3fcf4171	1.6191846
80	0x3fe72557	1.805827
81	0x3fe9545b	1.8228868
82	0x3febba2a	1.8416188
83	0x3fdd8d95	1.7308832

bn2.bias f4 [84]
0	0x3f0310c9	0.5119749
1	0x3f0149ae	0.5050305
2	0x3f335ff5	0.70068294
3	0x3f104db6	0.5636858
4	0x3f149dbd	0.5805319
5	0x3f1c1749	0.6097303
6	0x3f146c38	0.5797763
7	0x3f12a1f7	0.5727839
8	0x3eeaf20b	0.4588779
9	0x3f01c428	0.50689936
10	0x3f095aa2	0.5365392
11	0x3f248a21	0.6427327
12	0x3f114113	0.5673992
13	0x3f1fc947	0.624165
14	0x3f136c13	0.57586783
15	0x3f256d39	0.64619786
16	0x3edee4d2	0.4353395
17	0x3ecbc242	0.39796644
18	0x3efe63d9	0.49685553
19	0x3f053c8c	0.5204551
20	0x3f11fd9e	0.57027614
21	0x3eef595d	0.46747866
22	0x3f0f5d52	0.5600177
23	0x3f1560e9	0.58351
24	0x3f2d1bf6	0.6762079
25	0x3f0a2a1b	0.539705
26	0x3ef4d464	0.4781829
27	0x3f0bfd54	0.54683423
28	0x3f15bfd4	0.5849583
29	0x3ed75f2b	0.42064795
30	0x3efdf116	0.49597996
31	0x3f10f570	0.5662451
32	0x3eec2187	0.4611933
33	0x3f19d6ab	0.6009318
34	0x3f26408e	0.6494225
35	0x3f2dbd86	0.67867315
36	0x3efa7b60	0.48922253
37	0x3f10345d	0.563299
38	0x3ef43ffe	0.47705072
39	0x3f0431c2	0.51638424
40	0x3f17f937	0.59364647
41	0x3edcb81e	0.4310922
42	0x3f1ed32b	0.62040967
43	0x3ecb9d54	0.3976847
44	0x3f0b45d9	0.54403454
45	0x3eef5070	0.46741056
46	0x3eef1140	0.46692848
47	0x3f0bb9d8	0.5458045
48	0x3f149f09	0.5805517
49	0x3f1459c2	0.5794946
50	0x3ee36111	0.44409993
51	0x3f2dd0bd	0.67896634
52	0x3f133c7c	0.57514167
53	0x3f2cff8f	0.6757745
54	0x3ee92663	0.455371
55	0x3f0d27d3	0.5513889
56	0x3f153e8b	0.5829856
57	0x3f031da6	0.51217115
58	0x3f1a8bd2	0.603696
59	0x3f17e1db	0.59329003
60	0x3edc85b3	0.43070754
61	0x3f07b33a	0.53007853
62	0x3ec3aa69	0.3821595
63	0x3f18a1ef	0.5962209
64	0x3efdbd34	0.49558413
65	0x3f0d0b8d	0.5509575
66	0x3f12fad6	0.57413995
67	0x3ef4800d	0.47753945
68	0x3ed36c96	0.41293782
69	0x3f2700eb	0.65235776
70	0x3f1489bc	0.58022666
71	0x3f2b2b02	0.668625
72	0x3f16b17d	0.58864576
73	0x3f1e536a	0.6184603
74	0x3ecf1ad0	0.40450144
75	0x3efb6e41	0.49107555
76	0x3f1f2be5	0.6217635
77	0x3ed8be62	0.4233275
78	0x3f1d7648	0.6150861
79	0x3f03db3c	0.515064
80	0x3f12efc7	0.5739712
81	0x3f231522	0.6370412
82	0x3f189cbe	0.5961417
83	0x3f1b0583	0.60555285

bn2.running_mean f4 [84]
0	0xbf70c47f	-0.9404983
1	0xbfdf9213	-1.7466453
2	0xbeeded08	-0.46469903
3	0xbf8b6bac	-1.0892234
4	0x3befff05	0.007324102
5	0xbf406fb9	-0.75170475
6	0xbf88c945	-1.0686423
7	0xbfff4ae3	-1.9944729
8	0xbedcd56c	-0.43131578
9	0xbf544291	-0.8291407
10	0xbf4a80b0	-0.7910261
11	0xbf87aaea	-1.0599034
12	0xbfc55f76	-1.5419757
13	0xbf00af24	-0.50267243
14	0x3c844bbd	0.016149396
15	0xbf120311	-0.5703593
16	0xbfdff844	-1.749764
17	0xbfaa9898	-1.3327818
18	0x3e4bd8ec	0.19906968
19	0x3e48fcd7	0.19627701
20	0xbf8d21ac	-1.1025901
21	0xbf08f2fc	-0.53495765
22	0xbf831404	-1.0240483
23	0xbf33f93a	-0.70302165
24	0xbf3a6a20	-0.72818184
25	0xbfa7fc0d	-1.3123795
26	0xbe4aba1a	-0.19797555
27	0xbedf14fe	-0.43570703
28	0xbf5d1fbf	-0.86376566
29	0xbedc3014	-0.4300543
30	0xbee60029	-0.44921997
31	0x3f167c06	0.58782995
32	0xbe17ad7d	-0.14812274
33	0xbf439083	-0.7639238
34	0xbf7cb1c6	-0.9870876
35	0xbf20709e	-0.6267184
36	0x3e947ec0	0.29002953
37	0xbfc953cf	-1.5728701
38	0xbf84eeee	-1.0385416
39	0xbf42613c	-0.7592962
40	0xbf654e91	-0.8957301
41	0x3f2b3111	0.66871744
42	0xbe025a8c	-0.12729853
43	0x3e07c176	0.13257393
44	0xbf8958f8	-1.0730276
45	0x3e6c119b	0.23053591
46	0x3f9dfd48	1.234292
47	0xbfd4d959	-1.6628829
48	0xbf7ec2ec	-0.9951618
49	0xbfc050b7	-1.5024632
50	0xbf4af686	-0.79282415
51	0xc00d4ca4	-2.2078028
52	0xbf9d7056	-1.2299907
53	0xbf3b30a2	-0.7312108
54	0xbee52444	-0.4475423
55	0xbe97030a	-0.29494506
56	0xbf9f5542	-1.2447894
57	0xbf8e53cf	-1.1119326
58	0xbeffaf59	-0.49938467
59	0xbeee79bb	-0.46577248
60	0xbec0ff0d	-0.37694588
61	0xbf1174dc	-0.5681894
62	0xbed274b4	-0.41104662
63	0x3e406ea8	0.18792212
64	0xbda4ec8d	-0.08052931
65	0xbe790709	-0.2431909
66	0x3caba038	0.020950422
67	0x3f1c60ad	0.61085016
68	0xbe34db1e	-0.17661712
69	0xbf8ad38b	-1.0845808
70	0xbefe74ca	-0.49698478
71	0xbf916679	-1.1359397
72	0xbf8a8c60	-1.0824089
73	0xbfa153e5	-1.2603728
74	0xbf8495de	-1.0358236
75	0x3ee4b5e8	0.44670033
76	0x3ebc0288	0.3672068
77	0xbfcd5912	-1.6042807
78	0xbe27acb3	-0.16374473
79	0xbe3d9380	-0.18513298
80	0xbf8f26f0	-1.1183758
81	0xbf8c9ce7	-1.0985383
82	0xbeda4e8c	-0.42638052
83	0x3d851724	0.06498554

bn2.running_var f4 [84]
0	0x4018b550	2.3860664
1	0x3fccad1a	1.5990326
2	0x40173739	2.3627455
3	0x40078be1	2.1179125
4	0x402363a0	2.5529556
5	0x4009b38f	2.1515844
6	0x40016c61	2.02224
7	0x3fe10429	1.7579395
8	0x403ea7d9	2.9789946
9	0x40214790	2.5199928
10	0x40104dfe	2.2547603
11	0x4000d1a3	2.0127952
12	0x3fe53e3e	1.790962
13	0x4000c6c3	2.0121315
14	0x400c14c1	2.1887667
15	0x3fe83007	1.8139657
16	0x401a4261	2.4103014
17	0x403e18c6	2.970262
18	0x40026d2d	2.0379136
19	0x3ff5df5f	1.9208792
20	0x401a2515	2.4085133
21	0x40252daf	2.5809133
22	0x40339d79	2.8064864
23	0x402d3532	2.7063718
24	0x402a9a9a	2.6656861
25	0x40025f2b	2.0370586
26	0x401f2c6a	2.4870858
27	0x40077a4f	2.1168401
28	0x402cc1cd	2.6993287
29	0x400261ce	2.0372195
30	0x40282fd6	2.6279197
31	0x400f8a40	2.242813
32	0x40474ea3	3.1141746
33	0x401c1b4b	2.4391658
34	0x40002b79	2.0026534
35	0x401c6809	2.4438498
36	0x401d3033	2.4560668
37	0x402db58a	2.7142053
38	0x400a0042	2.1562657
39	0x4024a8a1	2.5727923
40	0x402d327d	2.7062066
41	0x4013a7c0	2.3071136
42	0x404e6372	3.2248197
43	0x401d37e2	2.4565358
44	0x3fe8ba16	1.8181789
45	0x4036b4f2	2.854794
46	0x401407f8	2.3129864
47	0x3fdea6a5	1.7394606
48	0x4006aea9	2.1044104
49	0x3fe5cef1	1.7953779
50	0x4026ce13	2.6063278
51	0x3ff2a523	1.8956646
52	0x400f9c9f	2.2439344
53	0x4003534e	2.0519595
54	0x4056bb94	3.3551989
55	0x400d80ab	2.2109783
56	0x400653ad	2.0988572
57	0x40229ece	2.5409427
58	0x3fd9c284	1.7012486
59	0x4025c03b	2.5898578
60	0x402171f8	2.522581
61	0x401deadb	2.4674594
62	0x3fe76b17	1.8079556
63	0x3fee2efd	1.860809
64	0x4089bf80	4.3046265
65	0x402e1caa	2.7204995
66	0x40497cbd	3.1482384
67	0x400817be	2.126449
68	0x3ff38ca1	1.9027292
69	0x3ff1f0ec	1.8901649
70	0x4038ff20	2.8905716
71	0x401e76d4	2.4760027
72	0x400ab8a6	2.16752
73	0x4002a2bd	2.0411828
74	0x4030b99c	2.7613287
75	0x40217724	2.5228968
76	0x40223a36	2.534803
77	0x40391094	2.8916368
78	0x3ff41beb	1.907102
79	0x40472e54	3.1122026
80	0x400125f2	2.017941
81	0x4000513d	2.0049584
82	0x400a13f0	2.157467
83	0x4011d40c	2.2785673

fc3.weight f4 [46, 84]
0	0x3eda836e	0.42678398
1	0xbeb6520b	-0.3560947
2	0xbe120a9c	-0.1426186
3	0xbe024153	-0.12720232
4	0xbe8ab52d	-0.2709135
5	0x3dc403a0	0.09571004
6	0x3da3957b	0.079874955
7	0xbe5e69d5	-0.21720059
8	0xbe3a0840	-0.1816721
9	0xbe3dc359	-0.1853155
10	0xbf077734	-0.52916265
11	0xbeb5cb71	-0.35506776
12	0xbedf3e05	-0.43602005
13	0x3e86b418	0.26309276
14	0x3e8dd108	0.2769854
15	0xbeac90e3	-0.3370429
16	0xbecaa983	-0.39582452
17	0xbdc3800d	-0.09545908
18	0xbf05c017	-0.5224623
19	0x3eadfc0f	0.33981368
20	0xbee38581	-0.44437793
21	0xbe09ff86	-0.1347638
22	0x3e00bc94	0.12571937
23	0xbefc3f88	-0.4926722
24	0xbe050df7	-0.12993608
25	0xbe89f556	-0.2694499
26	0xbcd685e6	-0.026186895
27	0xbd346909	-0.04404548
28	0x3e2e736f	0.17036222
29	0xbeb681aa	-0.356458
30	0xbcaa78d4	-0.020809568
31	0x3e012603	0.12612157
32	0xbeb0d2c6	-0.34535807
33	0xbdabfce0	-0.083978415
34	0xbda6e7fa	-0.08149715
35	0xbe015a48	-0.12632096
36	0xbbef7ab4	-0.0073083285
37	0xbe13e888	-0.14444172
38	0x3edefd33	0.4355255
39	0xbd39fda5	-0.04540791
40	0x3daa30ef	0.083101146
41	0x3dfab3d9	0.122413345
42	0x3e817f09	0.25292233
43	0xbe404398	-0.18775785
44	0xbe8f1b47	-0.27950498
45	0xbe591e1b	-0.2120289
46	0xbe19f401	-0.15034486
47	0xbe87a71c	-0.26494682
48	0xbdc0072f	-0.0937637
49	0x3f02a4da	0.51032794
50	0x3ec1bbe8	0.37838674
51	0x3e2ddac8	0.1697799
52	0x3e2b61c7	0.16736518
53	0xbd35f82c	-0.04442613
54	0xbe903a3c	-0.2816943
55	0xbe8f841d	-0.28030482
56	0xbe631db2	-0.22179297
57	0x3e951dce	0.29124302
58	0x3e013c91	0.1262076
59	0x3ebee61f	0.37284943
60	0xbe9708c2	-0.2949887
61	0xbba96e18	-0.005170595
62	0xbeb5650b	-0.35428652
63	0x3df3ffb4	0.11914006
64	0x3ef7caae	0.4839682
65	0x3df92f7e	0.121672615
66	0xbe3936b3	-0.18087272
67	0xbd07d4d3	-0.03316195
68	0x3e70ce01	0.23516084
69	0xbf093a88	-0.53604937
70	0xbee4666b	-0.4460939
71	0x3e57afec	0.21063203
72	0xbd2eb2e5	-0.042651076
73	0xbdb6a06d	-0.089173175
74	0x3e69ffa4	0.22851425
75	0x3d6bd97b	0.057580452
76	0xbec697d3	-0.38787708
77	0xbea891bd	-0.3292369
78	0x3d5565de	0.0520991
79	0x3e2aac4e	0.16667292
80	0xbd688209	-0.056764636
81	0x3da4b8b8	0.08043045
82	0x3f0ddcca	0.5541502
83	0xbe8685a0	-0.26273823
84	0x3ed77fea	0.42089778
85	0xbeef19b9	-0.46699312
86	0xbdfb740f	-0.12277996
87	0xbe724234	-0.23658067
88	0xbd8de62f	-0.0692867
89	0xbdadb092	-0.08480944
90	0x3df96c2b	0.121788345
91	0xbec27a71	-0.3798404
92	0xbedeef59	-0.43541983
93	0xbe71112e	-0.2354171
94	0xbef7dab2	-0.4840904
95	0xbe623248	-0.22089493
96	0xbead4b5a	-0.3384655
97	0x3e285f6e	0.16442654
98	0x3e8fed1e	0.28110594
99	0xbed6c722	-0.419488
100	0xbd661e79	-0.056181405
101	0xbde4c3dc	-0.1117017
102	0xbec33ef1	-0.38133958
103	0x3dcb178b	0.099166
104	0xbea601a6	-0.32423133
105	0xbe9a5dbb	-0.30149636
106	0x3d69ec7f	0.057110306
107	0xbec2eba7	-0.38070413
108	0xbeace741	-0.33770183
109	0xbeec1d3f	-0.46116063
110	0xbe902321	-0.281518
111	0x3c07699f	0.008264928
112	0x3df0f627	0.117657
113	0xbe8636f3	-0.26213798
114	0xbc822340	-0.01588595
115	0x3e2efb53	0.1708806
116	0xbe9a6ce0	-0.3016119
117	0xbdf4555b	-0.11930343
118	0xbe8c0687	-0.2734873
119	0xbe103ef4	-0.14086515
120	0xbe3d8305	-0.18507011
121	0xbe24e90f	-0.1610453
122	0x3eaeaa1c	0.34114158
123	0x3cf81fbf	0.030288575
124	0x3e3677d1	0.17819144
125	0xbe250b17	-0.16117512
126	0x3e9ff388	0.31240487
127	0x3d54fc6b	0.051998537
128	0xbeaff0f4	-0.3436352
129	0xbd148351	-0.036258046
130	0xbdf1dac5	-0.11809305
131	0xbe804bc3	-0.25057802
132	0xbc50dd10	-0.012748018
133	0x3e8a4ec3	0.27013215
134	0x3ee9f8ee	0.4569773
135	0x3e1228a7	0.1427332
136	0x3e08b105	0.13348778
137	0x3dbae04e	0.09124814
138	0xbed3555c	-0.41276062
139	0xbdfc2e82	-0.12313558
140	0xbcf1b563	-0.029505437
141	0x3da72d35	0.081629194
142	0x3e2bedad	0.16789885
143	0x3eb785de	0.3584432
144	0xbeb0e059	-0.34546164
145	0xbe0e6d02	-0.1390877
146	0xbe8fe039	-0.28100756
147	0x3e5fafe5	0.21844442
148	0x3ea87e24	0.32908738
149	0x3ebc0bab	0.36727652
150	0xbd006592	-0.031346865
151	0x3dd1e11d	0.10248015
152	0x3ddb0392	0.1069404
153	0xbf113701	-0.56724554
154	0xbe50a43b	-0.20375149
155	0x3d0f73fc	0.03502272
156	0x3e04a0d8	0.12951982
157	0xbc8ac913	-0.016941583
158	0x3e89a5e6	0.26884383
159	0x3e537266	0.20649108
160	0xbe82cf5d	-0.2554883
161	0xbe44108b	-0.19146936
162	0x3e50c8d6	0.20389113
163	0x3e80f0f7	0.25183842
164	0xbe171b98	-0.1475662
165	0x3dcfb187	0.101412825
166	0x3f07d67a	0.5306164
167	0xbdae94e9	-0.08524496
168	0xbef1b1c8	-0.4720595
169	0x3d2f8b36	0.04285737
170	0x3e9f3e90	0.3110242
171	0xbe9d3c0c	-0.30709875
172	0x3e8581b0	0.26075506
173	0xbda1e970	-0.07905853
174	0xbe484878	-0.19558895
175	0x3b21a5ee	0.0024665552
176	0x3ea1f797	0.3163421
177	0x3e30e2ba	0.1727399
178	0x3ee2776a	0.4423173
179	0x3ed86b2b	0.42269263
180	0x3e28407f	0.16430853
181	0xbebf1bdf	-0.3732595
182	0xbeb88790	-0.36040926
183	0x3eb429ef	0.35188243
184	0x3e15e32e	0.14637443
185	0xbe6c4915	-0.23074754
186	0x3d2e3e99	0.042540167
187	0xbeed06bc	-0.462942
188	0x3e8e0d4a	0.27744514
189	0x3db37d50	0.08764136
190	0xbe8b3c69	-0.27194527
191	0x3e6e9d99	0.23302306
192	0xbc98fbe2	-0.018674795
193	0xbd9f62fd	-0.077825524
194	0xbdcd5568	-0.100260556
195	0xbf092f02	-0.53587353
196	0xbe6fac95	-0.23405679
197	0x3e7be0e7	0.24597512
198	0x3dd94183	0.106081985
199	0x3e239f2c	0.15978688
200	0x3e01ca07	0.12674724
201	0x3e336750	0.1751988
202	0xbeada3a3	-0.33913907
203	0x3e27c658	0.16384256
204	0x3e2d4d13	0.16923933
205	0xbd0dec01	-0.0346489
206	0xbee470f3	-0.44617423
207	0xbebc6101	-0.36792758
208	0xbeb59913	-0.3546835
209	0xbd3417d5	-0.04396804
210	0xbdfbae4a	-0.122891024
211	0x3da6937d	0.081336
212	0x3e94aaf6	0.29036683
213	0x3d59616b	0.05307142
214	0x3dd8f51f	0.10593628
215	0xbdcc27cf	-0.099685304
216	0xbe8096f4	-0.25115168
217	0xbecaf682	-0.39641196
218	0xbf23cd97	-0.6398558
219	0xbebeff91	-0.37304357
220	0xbe8d3f11	-0.27587178
221	0xbf051ae9	-0.51994187
222	0x3ec0d1e6	0.3766014
223	0x3dc62f34	0.09676972
224	0xbe35bc58	-0.17747629
225	0xbe5489b0	-0.20755649
226	0xbd11dba4	-0.035609856
227	0xbf27c02c	-0.65527606
228	0x3ea35601	0.31901553
229	0xbe967370	-0.29384947
230	0xbdde6f93	-0.10861125
231	0xbdae6b8e	-0.08516608
232	0xbee8e2f6	-0.45485657
233	0xbe8f42e9	-0.27980736
234	0xbe33ecd2	-0.17570809
235	0xbdcdd85a	-0.100510314
236	0xbec5005b	-0.38476834
237	0x3ebe7832	0.37201077
238	0x3e851992	0.2599607
239	0xbd609364	-0.054828063
240	0x3e6ac92a	0.229283
241	0x3d32818a	0.04358057
242	0xbebb3690	-0.36565065
243	0xbd05ada8	-0.032636315
244	0x3eda95c8	0.426924
245	0x3e164466	0.1467453
246	0xbeeec475	-0.4663426
247	0xbeb86865	-0.36017147
248	0x3e1d4c2d	0.1536109
249	0xbea9e95b	-0.3318585
250	0xbf14a094	-0.5805752
251	0xbe738e5e	-0.23784778
252	0x3e0b7094	0.13617164
253	0xbd819277	-0.06326764
254	0x3dbbae9a	0.09164162
255	0xbe782906	-0.24234399

fc3.bias f4 [46]
0	0xbd86f789	-0.06590182
1	0x3de3de25	0.11126355
2	0xbdfcbd6c	-0.12340817
3	0x3d3141b9	0.04327557
4	0xbdc54b58	-0.09633511
5	0x3d6da48a	0.058018245
6	0x3d530d87	0.051526573
7	0xbe290e56	-0.16509375
8	0xbcd11a3b	-0.025525203
9	0x3c8266a8	0.015918091
10	0xbdee0e37	-0.11623805
11	0x3dafd01f	0.08584618
12	0xbc9f4eb5	-0.01944671
13	0x3cf8241a	0.030290652
14	0x3ce50a4e	0.027959015
15	0xbd50ce33	-0.050977897
16	0xbde56de0	-0.112025976
17	0xbe145f91	-0.1448958
18	0xbd9f3809	-0.0777436
19	0xbc56cfce	-0.013111068
20	0xbd3db6cb	-0.046316903
21	0xbd68ec18	-0.05686578
22	0x3c18fee9	0.009338119
23	0xbe5a34f7	-0.21309267
24	0xbdae0057	-0.084961586
25	0xbdb46984	-0.08809188
26	0xbdd72c34	-0.10506478
27	0x3d892e5f	0.06698298
28	0x3dd0e34e	0.10199605
29	0x3d8ad7c4	0.06779435
30	0xbd2ae03a	-0.041717745
31	0xbd87036e	-0.06592451
32	0xbbcb0c13	-0.0061965077
33	0x3d195a65	0.037439723
34	0xbb219c21	-0.002465971
35	0xbe026585	-0.12734039
36	0xbe127487	-0.14302264
37	0x3d8ec8c9	0.069718905
38	0xbd624dc2	-0.055249937
39	0xbdedd903	-0.11613657
40	0xbdc59050	-0.09646666
41	0xbdd48092	-0.10376085
42	0x3d0327bf	0.032020327
43	0x3df0bd9d	0.11754916
44	0x3d8b815a	0.06811781
45	0xbd28489a	-0.041084863
