mp4-machine-learning-template/model/model.pth (torch, 89342 bytes, 14 tensors)

fc1.weight f4 [120, 51]
0	0xbc14fea7	-0.009093917
1	0xbe025302	-0.12726977
2	0x3dcf2202	0.10113908
3	0xbdd3212e	-0.10309063
4	0x3dd93af9	0.10606951
5	0x3e0873ac	0.13325375
6	0x3e09d9d4	0.13462001
7	0x3c965f8c	0.018356107
8	0x3e0259cd	0.12729569
9	0xbde57a4d	-0.11204968
10	0xbde39538	-0.111124456
11	0x3aeff566	0.0018307387
12	0xbd0a8230	-0.033815563
13	0xbdcd725d	-0.10031579
14	0xbd30de1a	-0.043180563
15	0x3c38c0d8	0.011276446
16	0x3caf0adc	0.021367483
17	0xbd9ab253	-0.07553544
18	0x3dd6a2d4	0.10480276
19	0xbc6d019a	-0.014465714
20	0xbdcb135d	-0.09915803
21	0x3dc8bc5f	0.09801554
22	0xbc61ab70	-0.013773784
23	0x3dde08dc	0.108415335
24	0x3daa6018	0.0831911
25	0x3d2100a1	0.03930724
26	0xbda20280	-0.07910633
27	0xbe0b5273	-0.1360567
28	0x3d878aa3	0.0661824
29	0x3d25377e	0.040336125
30	0xbde3d97a	-0.11125465
31	0xbdb537d5	-0.0884854
32	0xbd723230	-0.059129894
33	0x3c4eb6b9	0.012616807
34	0xbe06888e	-0.13138029
35	0x3c3d38e1	0.0115492055
36	0xbcbeb80f	-0.023281125
37	0x3df0cea3	0.11758163
38	0xbcff8fd9	-0.031196522
39	0x3c1f74ad	0.0097324075
40	0x3df72ad8	0.12068719
41	0x3d0afe99	0.03393421
42	0xbd848feb	-0.06472763
43	0xbc843f4f	-0.01614347
44	0xbd2af68e	-0.04173904
45	0x3bb55b0a	0.0055345343
46	0x3d88411b	0.06653043
47	0x3dc87bf0	0.09789264
48	0x3d9f4c38	0.077782094
49	0xbcfa80a9	-0.030578928
50	0xbdc2bbf5	-0.09508506
51	0xbd619c07	-0.05508044
52	0xbdf4e427	-0.11957579
53	0x3d6ec1df	0.05829036
54	0xbb65f8e1	-0.003509097
55	0xba133d10	-0.0005616704
56	0x3d51196d	0.05104964
57	0x3df7153e	0.120645985
58	0x3d6861d2	0.056733914
59	0xbb8d388e	-0.0043097204
60	0x3d394a41	0.04523683
61	0xbd7e7247	-0.062120702
62	0x3df028ea	0.11726554
63	0xbda0c6ae	-0.07850395
64	0xbdde4c12	-0.10854353
65	0x3d7d6f49	0.061873708
66	0x3d6b3b74	0.057429746
67	0x3c5ddc07	0.013541228
68	0x3c5a1b00	0.013312101
69	0xbda9c7f8	-0.08290094
70	0x3dc393a4	0.095496446
71	0x3da44768	0.08021432
72	0xbc0fb965	-0.008772229
73	0xbd5c9eda	-0.05386243
74	0xbd8dc260	-0.0692184
75	0x3b35967d	0.0027708106
76	0xbd153af3	-0.03643317
77	0x3d8bae36	0.068203375
78	0xbd2be88b	-0.041969817
79	0xbcebefc8	-0.02880086
80	0x3b479d57	0.0030458772
81	0x3dd6e827	0.10493498
82	0xbd332488	-0.04373601
83	0xbe07c9fd	-0.13260646
84	0xbe04b2ff	-0.12958907
85	0xbdadd84c	-0.08488521
86	0xbdc656c8	-0.09684521
87	0x3e03d5ea	0.1287457
88	0xbdbff1c7	-0.09372287
89	0xbdb5ee45	-0.08883337
90	0x3db4f47c	0.08835694
91	0x3de1d2d7	0.11026543
92	0x3db8b5c0	0.09019041
93	0xbd4fd535	-0.05074044
94	0xbe07b360	-0.1325202
95	0x3b0e0405	0.0021669876
96	0xbddedc84	-0.10881904
97	0xbe09b2ae	-0.13447067
98	0xbd267bf9	-0.040645573
99	0x3e084379	0.13306989
100	0x3ce7fe3b	0.028319469
101	0xbcd52a06	-0.026021015
102	0x3d34e9cc	0.04416828
103	0xbdaf8bfa	-0.0857162
104	0xba83936e	-0.0010038444
105	0xbe03fdc5	-0.12889774
106	0xbd5ea69d	-0.054358114
107	0xbdadd750	-0.08488333
108	0xbdea7649	-0.11448342
109	0x3d8888f9	0.066667505
110	0x3debfb46	0.11522536
111	0xbc3aafe4	-0.011394475
112	0x3d2bf7e6	0.04198446
113	0x3dba50bd	0.09097431
114	0x3cce6038	0.025192365
115	0x3deb7e7d	0.11498735
116	0xbceb771c	-0.02874332
117	0xbdc4b3d8	-0.09604615
118	0xbd888090	-0.06665146
119	0xba3591e9	-0.00069263444
120	0x3dd05a7b	0.10173508
121	0xbe0148de	-0.12625453
122	0x3db47557	0.08811443
123	0xbde711c3	-0.11282685
124	0xbdc51ff3	-0.096252345
125	0xbd105fa5	-0.035247464
126	0xbd9627c2	-0.07331802
127	0xbd31a5a6	-0.043370865
128	0xbe0b878d	-0.13625927
129	0xbce859eb	-0.028363189
130	0x3b744710	0.0037273802
131	0x3d986000	0.074401855
132	0xbde1ec7d	-0.11031435
133	0xbd4cba63	-0.04998244
134	0xbdca7bde	-0.09886907
135	0xbd0283c4	-0.031863943
136	0xbda75573	-0.08170595
137	0x3cea4ec2	0.028602008
138	0x3d59019e	0.052980058
139	0xbcf68456	-0.0300924
140	0x3e0c7119	0.13715018
141	0xbd4d1968	-0.050073057
142	0x3d464d4a	0.048413552
143	0x3dffd0c1	0.124909885
144	0x3caea23d	0.021317596
145	0x3cf08200	0.029358864
146	0x3e0eb7b0	0.13937259
147	0xbd890e23	-0.066921495
148	0xbd69325d	-0.056932796
149	0xbd20ae03	-0.03922845
150	0xbb5112a2	-0.0031901975
151	0x3dd96565	0.106150426
152	0x3dd718ac	0.10502753
153	0x3db622ee	0.08893381
154	0x3cc451f8	0.023964867
155	0xbd53ca56	-0.051706634
156	0x3cfcca18	0.030858085
157	0xbd738980	-0.059457302
158	0xbcc3b549	-0.023890154
159	0x3dc341cc	0.09534034
160	0xbe09879e	-0.1343064
161	0x3d8e4f94	0.06948772
162	0xbd6ac815	-0.05731972
163	0x3dd5c89f	0.10438656
164	0x3d9633fe	0.073341355
165	0xbe070a89	-0.13187613
166	0x3d5244bd	0.051335085
167	0xbc667d64	-0.014067981
168	0xbc4d48e0	-0.012529582
169	0xbdd4e8e3	-0.10395982
170	0xbd31a0af	-0.04336613
171	0x3dd35f40	0.10320902
172	0x3d8690ee	0.06570612
173	0x3e0415d1	0.12898947
174	0x3d9a08f5	0.0752124
175	0xbd047a27	-0.032343056
176	0xbcc24c80	-0.023718119
177	0x3dafb248	0.08578926
178	0xbe07ee79	-0.13274564
179	0x3de5cf4f	0.112211816
180	0x3dc886e9	0.09791357
181	0x3dba1e62	0.09087826
182	0xbdb85a5e	-0.09001611
183	0x3d8be53a	0.06830831
184	0x3d599518	0.053120703
185	0x3d984193	0.07434382
186	0x3d31a0f4	0.043366387
187	0xbdb127a1	-0.08650137
188	0xbdc8ae63	-0.097988866
189	0x3e027d44	0.12743098
190	0x3d4da65b	0.050207477
191	0xbcf480e9	-0.029846625
192	0xbe0bc5a3	-0.13649611
193	0xbdc92cf4	-0.09823027
194	0x3c17a700	0.0092561245
195	0xbe00ac96	-0.12565836
196	0x3d941b5e	0.072317824
197	0x3df81571	0.121134646
198	0x3d8b759c	0.068095416
199	0x3e0b8824	0.13626152
200	0x3e062c38	0.13102806
201	0xbd31922b	-0.043352287
202	0xbbae25c7	-0.005314562
203	0xbdf98607	-0.12183767
204	0xbc8db6ec	-0.017299138
205	0x3db6e684	0.08930686
206	0xbd9335f5	-0.07188026
207	0x3de65a5e	0.11247705
208	0xbd57d412	-0.05269248
209	0xbd82ac07	-0.06380468
210	0xbdbb05bd	-0.09131954
211	0x3da00fc1	0.07815505
212	0xbd3688d0	-0.04456407
213	0x3da3e804	0.08003238
214	0xba8c212b	-0.0010691037
215	0xbe0b8617	-0.1362537
216	0x3b3de3b0	0.0028974824
217	0x3da60928	0.08107215
218	0x3dc4230f	0.095769994
219	0x3e0ce9b5	0.13761027
220	0xbcf57198	-0.029961392
221	0xbd90c71c	-0.07069227
222	0xbcd44f46	-0.025916707
223	0x3d886e6e	0.06661688
224	0x3d81548a	0.06314953
225	0xbda2808a	-0.07934673
226	0x3d739fa4	0.059478417
227	0xbcd00b51	-0.025396021
228	0xbe05c22c	-0.13062352
229	0xbda86789	-0.08222873
230	0xbdc270ad	-0.094941474
231	0xbd6a1370	-0.057147443
232	0xbcaa491d	-0.020786816
233	0x3d9cf198	0.07663268
234	0x3de8f90a	0.113756254
235	0x3db3161d	0.08744452
236	0xbd3eb0b9	-0.046555255
237	0xbd4339fc	-0.04766272
238	0x3dab31b6	0.08359091
239	0xbe0192c7	-0.12653647
240	0xbe0b8656	-0.13625464
241	0xbcbb21ad	-0.022843206
242	0xbd50a287	-0.05093625
243	0x3e0165f4	0.12636548
244	0xbda53d88	-0.08068377
245	0x3d56ed31	0.052472297
246	0x3db86749	0.09004075
247	0x3dc1ed1e	0.09469055
248	0x3d2cf5bb	0.042226534
249	0x3d6a8615	0.057256777
250	0x3d217a8f	0.03942352
251	0xbc2fdcd3	-0.010733801
252	0xbd597c58	-0.0530971
253	0x3d0ab526	0.033864163
254	0x3dd458ee	0.103685245
255	0x3ddab5e1	0.10679222

fc1.bias f4 [120]
0	0x3ddc65e6	0.10761623
1	0xbdb7db62	-0.08977391
2	0x3c84f848	0.016231671
3	0x3d4d2758	0.05008635
4	0xbe04eea5	-0.1298166
5	0xbc0719e0	-0.008245915
6	0x3d850554	0.06495157
7	0x3d8e3444	0.069435626
8	0xbda6c4a0	-0.08142972
9	0x3df35d02	0.11882974
10	0x3df1461e	0.11780952
11	0x3d82f5de	0.06394552
12	0xbd85dced	-0.06536279
13	0xbc481230	-0.0122113675
14	0xbdf58a2e	-0.11989246
15	0xbddcdf52	-0.107847825
16	0xbe06c0e7	-0.13159524
17	0x3c37aa90	0.011210099
18	0xbd0b0fbe	-0.03395056
19	0xbde5bf49	-0.112181254
20	0x3cfcd9e0	0.03086561
21	0xbd094f68	-0.033522993
22	0x3de16626	0.110058114
23	0xbd8a4555	-0.06751505
24	0xbd7b688e	-0.061379008
25	0xbdce64b4	-0.10077801
26	0xbe0b8e6b	-0.13628547
27	0xbc1caf60	-0.009563297
28	0x3adbf380	0.0016780943
29	0xbc1170d0	-0.008876994
30	0xbda0a985	-0.07844833
31	0xbdfb4772	-0.122694865
32	0x3dc03ea0	0.09386945
33	0x3c4fa910	0.012674585
34	0xbe06afbc	-0.13152975
35	0x3d2e3ad4	0.04253657
36	0x3e0d9bc9	0.13828959
37	0xbe00f344	-0.12592798
38	0xbe0ef9c7	-0.1396247
39	0xbdc72c3e	-0.097252354
40	0xbb00dd00	-0.0019662976
41	0xbd9b7246	-0.07590155
42	0xbd082950	-0.033242524
43	0x3c7e98e0	0.015539378
44	0x3e00b20d	0.12567921
45	0x3d5d39d8	0.054010242
46	0xbd0d1a10	-0.034448683
47	0x3e0912d3	0.13386087
48	0xbe022255	-0.12708409
49	0x3d5de56c	0.054173872
50	0xbd5c60c8	-0.053803235
51	0x3dba03f0	0.09082782
52	0x3dc910a0	0.09817624
53	0x3da4aa76	0.08040325
54	0xbd6e8f4c	-0.058242127
55	0x3dc23bda	0.09484072
56	0x3ccbf578	0.024897322
57	0xbdadd5d2	-0.084880486
58	0xbdf455bc	-0.11930415
59	0xbcd5b2b4	-0.026086189
60	0xbc9f2f94	-0.019431867
61	0x3d9ddef0	0.077085376
62	0xbd32f142	-0.043687113
63	0xbdacf324	-0.08444813
64	0xbd4a1dd6	-0.04934486
65	0xbdd8ca30	-0.10585439
66	0x3e04bf45	0.12963589
67	0x3d8620b6	0.06549208
68	0xba81e100	-0.0009908974
69	0x3dc90a0c	0.098163694
70	0xbd5cd0d2	-0.053910084
71	0x3ddacd4a	0.10683687
72	0xbd9bf009	-0.076141424
73	0x3d0d7c10	0.034542143
74	0xbdf14085	-0.11779884
75	0xbd61ca38	-0.05512449
76	0x3d90183e	0.07035874
77	0x3df63baa	0.12023099
78	0x3d6f9000	0.05848694
79	0xbdf53912	-0.11973776
80	0x3db29ba6	0.08721094
81	0x3d9900a8	0.07470828
82	0x3dbe3fda	0.092895225
83	0x3c5533a0	0.013012797
84	0x3c4b77d0	0.012418702
85	0xbcb64a28	-0.022252157
86	0x3d3261a0	0.043550134
87	0xbd9898b3	-0.07451
88	0xbd59423c	-0.05304168
89	0xbd702744	-0.058631197
90	0x3d8c4530	0.06849134
91	0x3dcb1a10	0.099170804
92	0xbe0b062d	-0.13576575
93	0x3bb0d880	0.0053969026
94	0x3d5b179c	0.053489313
95	0x3dfbd4d2	0.12296452
96	0xbdaa32b4	-0.08310452
97	0x3d6ba1c8	0.057527333
98	0xbb95de80	-0.004573643
99	0xbdd99b62	-0.1062534
100	0x3df14ed6	0.11782615
101	0xbd8eae2d	-0.06966815
102	0xbdc0f7d6	-0.09422271
103	0x3c09e480	0.008416295
104	0xbd8cc9e4	-0.06874445
105	0xbd8e8941	-0.06959773
106	0x3de320b6	0.110902235
107	0xbdd82d96	-0.1055557
108	0x3d8a74e4	0.06760576
109	0x3d83e078	0.064392984
110	0x3d8e3456	0.06943576
111	0x3dc368da	0.09541483
112	0x3dc0fcf6	0.094232485
113	0x3e0d132b	0.13776843
114	0x3bf69ac0	0.007525772
115	0x3b2aa9c0	0.002604112
116	0xbb372980	-0.002794832
117	0x3e051e7d	0.12999912
118	0xbe0d6768	-0.13808978
119	0xbd91fcd9	-0.07128305

bn1.weight f4 [120]
0	0x3f7ffdde	0.99996746
1	0x3f7ff5bf	0.99984354
2	0x3f800566	1.0001647
3	0x3f7ffa59	0.99991375
4	0x3f800820	1.000248
5	0x3f7ffaba	0.99991953
6	0x3f8003d4	1.0001168
7	0x3f7fffd0	0.99999714
8	0x3f7ff903	0.99989337
9	0x3f800019	1.000003
10	0x3f800137	1.0000371
11	0x3f7ffa72	0.99991524
12	0x3f8004f5	1.0001513
13	0x3f7ffa4f	0.99991316
14	0x3f7fffaa	0.9999949
15	0x3f800120	1.0000343
16	0x3f8003f6	1.0001209
17	0x3f8002c0	1.0000839
18	0x3f7ff3c7	0.9998135
19	0x3f800104	1.000031
20	0x3f800234	1.0000672
21	0x3f7ffe14	0.9999707
22	0x3f7ff716	0.999864
23	0x3f80061b	1.0001863
24	0x3f7ff6c8	0.99985933
25	0x3f800014	1.0000024
26	0x3f80019a	1.0000489
27	0x3f7ffef6	0.99998415
28	0x3f7ffa1b	0.99991006
29	0x3f800084	1.0000157
30	0x3f800164	1.0000424
31	0x3f7ff951	0.999898
32	0x3f7ffb02	0.9999238
33	0x3f80013a	1.0000374
34	0x3f800032	1.000006
35	0x3f7ff23b	0.9997899
36	0x3f800222	1.0000651
37	0x3f800707	1.0002145
38	0x3f7ffd99	0.99996334
39	0x3f7ffd47	0.99995846
40	0x3f7ffac9	0.9999204
41	0x3f7ffde2	0.9999677
42	0x3f7ff6b8	0.9998584
43	0x3f80023c	1.0000682
44	0x3f7fff2a	0.99998724
45	0x3f7ffe15	0.99997073
46	0x3f7ffd1e	0.999956
47	0x3f80007b	1.0000147
48	0x3f80005b	1.0000108
49	0x3f800006	1.0000007
50	0x3f7ffc2d	0.99994165
51	0x3f8003f5	1.0001208
52	0x3f8002d6	1.0000865
53	0x3f7ffa7d	0.9999159
54	0x3f7ffff0	0.99999905
55	0x3f800160	1.000042
56	0x3f7ffcb3	0.99994963
57	0x3f7ff95f	0.99989885
58	0x3f800275	1.000075
59	0x3f80040a	1.0001233
60	0x3f80020d	1.0000626
61	0x3f8000ca	1.0000241
62	0x3f800202	1.0000613
63	0x3f8000b8	1.0000219
64	0x3f800068	1.0000124
65	0x3f7ffd28	0.9999566
66	0x3f8001af	1.0000514
67	0x3f7ff8a0	0.99988747
68	0x3f7ffd96	0.99996316
69	0x3f80039d	1.0001103
70	0x3f8000ec	1.0000281
71	0x3f7ff8d5	0.9998906
72	0x3f800137	1.0000371
73	0x3f8000b4	1.0000215
74	0x3f8002fa	1.0000908
75	0x3f7ffc98	0.999948
76	0x3f7ffee4	0.9999831
77	0x3f7ffcc0	0.9999504
78	0x3f7ff8ae	0.9998883
79	0x3f7fffd3	0.9999973
80	0x3f7ffdfc	0.99996924
81	0x3f80017a	1.0000451
82	0x3f8001d3	1.0000557
83	0x3f800010	1.0000019
84	0x3f800088	1.0000162
85	0x3f8001bf	1.0000533
86	0x3f7ffd41	0.9999581
87	0x3f7ffb33	0.99992675
88	0x3f800144	1.0000386
89	0x3f80042b	1.0001272
90	0x3f7ff926	0.99989545
91	0x3f800281	1.0000764
92	0x3f8001ef	1.000059
93	0x3f8002fd	1.0000912
94	0x3f7ffa94	0.99991727
95	0x3f8000ea	1.0000279
96	0x3f7ff3d1	0.9998141
97	0x3f800236	1.0000675
98	0x3f8002c5	1.0000845
99	0x3f800367	1.0001038
100	0x3f7ff470	0.9998236
101	0x3f800443	1.00013
102	0x3f7ff7d5	0.99987537
103	0x3f7ff8a6	0.9998878
104	0x3f80015a	1.0000412
105	0x3f80031c	1.0000949
106	0x3f7ffcdb	0.999952
107	0x3f800048	1.0000086
108	0x3f800250	1.0000706
109	0x3f80043c	1.0001292
110	0x3f8003d8	1.0001173
111	0x3f80011d	1.000034
112	0x3f7fef14	0.9997418
113	0x3f7ff527	0.9998345
114	0x3f8002f1	1.0000898
115	0x3f800002	1.0000002
116	0x3f8000e6	1.0000274
117	0x3f7ffb32	0.9999267
118	0x3f7ff60b	0.99984807
119	0x3f800580	1.0001678

bn1.bias f4 [120]
0	0xb7c34f95	-2.328287e-05
1	0xb8d52606	-0.00010163714
2	0x38b4d00d	8.621821e-05
3	0xb8368729	-4.351806e-05
4	0x392133dd	0.00015373477
5	0xb8b9b1bf	-8.854595e-05
6	0x38b507ca	8.6322034e-05
7	0x37fca8fc	3.011943e-05
8	0xb903417a	-0.00012517525
9	0xb70d28f1	-8.413787e-06
10	0x368ff40d	4.2901434e-06
11	0xb84246c6	-4.6319117e-05
12	0x38b7c1bb	8.762205e-05
13	0xb82bd28a	-4.0965657e-05
14	0xb7a14aab	-1.9227466e-05
15	0x37b1ffb3	2.1219113e-05
16	0x390ced9d	0.00013439958
17	0x3892189f	6.9664085e-05
18	0xb9205b44	-0.00015292788
19	0x370c9670	8.379677e-06
20	0x38536f79	5.0410137e-05
21	0xb8783f41	-5.9186717e-05
22	0xb8f4f7d7	-0.000116809904
23	0x38db1397	0.00010446383
24	0xb884be1b	-6.3296604e-05
25	0x37c7f75d	2.3837836e-05
26	0x3812fcf6	3.50447e-05
27	0xb75fd752	-1.3341969e-05
28	0xb8852166	-6.348155e-05
29	0xb737f84e	-1.0965463e-05
30	0x380d852d	3.374105e-05
31	0xb8dde54f	-0.00010580813
32	0xb886e982	-6.433112e-05
33	0x38034ef7	3.1306376e-05
34	0x382e0b20	4.1495194e-05
35	0xb9274003	-0.00015950207
36	0x3657c960	3.2154712e-06
37	0x38dd59da	0.00010554837
38	0x358d98d6	1.05498e-06
39	0xb783e409	-1.5722604e-05
40	0xb7f2dab6	-2.8950493e-05
41	0xb6909c45	-4.3097266e-06
42	0xb8c61d2b	-9.446809e-05
43	0x388abaae	6.6151246e-05
44	0xb7a7832f	-1.9969038e-05
45	0x3701d277	7.738002e-06
46	0xb7b2ff0e	-2.1338023e-05
47	0xb6e9c1b4	-6.966491e-06
48	0x3838d8ae	4.4070817e-05
49	0xb7b17e20	-2.1158776e-05
50	0xb7a10b01	-1.919782e-05
51	0x38cdeaf2	9.818924e-05
52	0x38a5766b	7.88987e-05
53	0xb89bb04e	-7.423815e-05
54	0x36dc0422	6.556992e-06
55	0xb7c6c06e	-2.3693046e-05
56	0xb839e46a	-4.4320164e-05
57	0xb8d3b8e7	-0.00010095705
58	0x38b29be8	8.516741e-05
59	0x38fcb8a7	0.000120506906
60	0x3803b98c	3.1405638e-05
61	0xb8151d4f	-3.5551664e-05
62	0x383a30bc	4.4391243e-05
63	0x376349a9	1.3547405e-05
64	0x3733a4ea	1.07076285e-05
65	0xb7a80110	-2.0027655e-05
66	0x38495e08	4.8009708e-05
67	0xb8fa0c77	-0.00011923251
68	0xb80da443	-3.377e-05
69	0x38dc176b	0.000104947794
70	0x38207aea	3.8261445e-05
71	0xb8aa20b8	-8.112326e-05
72	0x385ecaba	5.311773e-05
73	0x379a6fe5	1.8410336e-05
74	0x380dc1e7	3.3797605e-05
75	0xb7942631	-1.766076e-05
76	0xb7f714df	-2.9454413e-05
77	0xb8140a8a	-3.5295765e-05
78	0xb8062539	-3.1982756e-05
79	0xb7264d2d	-9.91234e-06
80	0xb70e10fa	-8.467812e-06
81	0xb7841ea2	-1.574989e-05
82	0x37af895a	2.0925585e-05
83	0x37f45ecd	2.9131212e-05
84	0x3810dfe6	3.4540797e-05
85	0x37abe064	2.0489279e-05
86	0xb83c8534	-4.4946748e-05
87	0xb820a9a9	-3.830498e-05
88	0xb79ce505	-1.8703295e-05
89	0x38e7d976	0.000110554436
90	0xb8258005	-3.9458293e-05
91	0x382c796a	4.112107e-05
92	0x3676f03b	3.679669e-06
93	0x38aebd60	8.3322404e-05
94	0xb81b3d90	-3.7012214e-05
95	0x3836230c	4.342482e-05
96	0xb8e98d9c	-0.000111366826
97	0x384fbd23	4.9528793e-05
98	0x38ee6dff	0.00011369213
99	0x3879a1ca	5.9516904e-05
100	0xb910560f	-0.0001376497
101	0x38e4c7a0	0.0001090907
102	0xb883dd44	-6.287781e-05
103	0xb8b98b9e	-8.847493e-05
104	0x383dda3c	4.5264358e-05
105	0x387037ae	5.7272315e-05
106	0xb835897f	-4.3281816e-05
107	0x3864caed	5.4548425e-05
108	0x38396fcb	4.4211552e-05
109	0x388e0bf0	6.773311e-05
110	0x38c3d5fb	9.3381816e-05
111	0x382239c0	3.8677594e-05
112	0xb9555e81	-0.00020348468
113	0xb89a8a6a	-7.369074e-05
114	0x38295e6a	4.038067e-05
115	0xb70930b4	-8.177176e-06
116	0x36c82019	5.964201e-06
117	0xb851e86c	-5.0045943e-05
118	0xb8dc7c1a	-0.00010513533
119	0x390bacca	0.00013320442

bn1.running_mean f4 [120]
0	0x3e0d4c40	0.13798618
1	0xbd9c09ba	-0.07619043
2	0x3d242500	0.04007435
3	0x3d09e669	0.033667002
4	0xbe3bc34a	-0.18336216
5	0xbc90ba40	-0.017666936
6	0x3d065a86	0.032801174
7	0x3d9eb90b	0.07750138
8	0xbd1d3ed4	-0.038389996
9	0x3de3a892	0.111161366
10	0x3dd3867e	0.10328387
11	0x3d4aebfb	0.049541455
12	0xbd9629c2	-0.073321834
13	0xbb1ea077	-0.0024204531
14	0xbdb66236	-0.08905451
15	0xbdd57e03	-0.104244255
16	0xbdd0bfc5	-0.10192827
17	0xbd062cbe	-0.032757513
18	0xbd6e826e	-0.058229856
19	0xbdc83b6d	-0.097769596
20	0x3d01a6c6	0.03165319
21	0xbd02ea2d	-0.03196161
22	0x3dc4ec51	0.09615386
23	0xbdb78a31	-0.08961905
24	0xbd52bb96	-0.051448427
25	0xbd7a904c	-0.06117277
26	0xbe099901	-0.13437273
27	0xbd216bfa	-0.039409615
28	0xbccfe0af	-0.025375692
29	0xbd3ed219	-0.046587083
30	0xbd8c0ebc	-0.06838748
31	0xbdc258a8	-0.09489566
32	0x3dfa9ba6	0.12236719
33	0x3d1c3aac	0.03814189
34	0xbe22e05b	-0.15905897
35	0x3d834952	0.06410469
36	0x3db691e2	0.08914544
37	0xbe1d7c6a	-0.15379491
38	0xbe03b49d	-0.12861867
39	0xbe22901d	-0.15875287
40	0x3c75bb23	0.01499823
41	0xbdeb0872	-0.1147622
42	0xbd370e64	-0.04469146
43	0xbc2f3148	-0.010692902
44	0x3ddc7b96	0.1076576
45	0x3da4dcf0	0.08049953
46	0xbd246c42	-0.040142305
47	0x3ddf787d	0.10911653
48	0xbe0c08c5	-0.1367522
49	0x3c20f5d8	0.009824239
50	0xbd232850	-0.039833367
51	0x3d7b953a	0.06142161
52	0x3d0405a2	0.032231934
53	0x3de4b426	0.11167173
54	0xbdc0d46a	-0.09415515
55	0x3e05a260	0.13050222
56	0x3cb3700e	0.021904018
57	0xbdab5e7d	-0.083676316
58	0xbe1955d6	-0.1497415
59	0xbcced3c9	-0.025247471
60	0xbd94a8e7	-0.07258778
61	0x3ddde03e	0.108337864
62	0xbcf55e4a	-0.029952187
63	0xbdc6ac18	-0.09700793
64	0xbcc6c691	-0.024264606
65	0xbdc5a47e	-0.09650515
66	0x3e1c3068	0.1525284
67	0x3cfe4555	0.03103892
68	0x3cbb41d4	0.022858538
69	0x3dd2fa77	0.10301679
70	0xbd70f1bb	-0.058824282
71	0x3d95a247	0.073063426
72	0xbdb020d7	-0.08600014
73	0x3d1454e9	0.03621379
74	0xbe07a00e	-0.1324465
75	0xbcef3f6c	-0.029205047
76	0x3d4e2eb8	0.050337523
77	0x3d7fb024	0.06242384
78	0x3d3323d7	0.04373535
79	0xbdd9d0d8	-0.10635537
80	0x3df9a216	0.121891186
81	0x3d7f8725	0.062384743
82	0x3d8681f5	0.06567756
83	0x3ae9e9e0	0.001784619
84	0x3ce21c0b	0.027601263
85	0xbca76c97	-0.020437522
86	0x3d9bcb60	0.0760715
87	0xbd2b93b7	-0.04188892
88	0xbd975f9c	-0.07391283
89	0xbd9b9ef7	-0.075986795
90	0x3da19d95	0.078913845
91	0x3d9a6be6	0.07540111
92	0xbe001014	-0.12506133
93	0xbcc0ee33	-0.023551082
94	0x3cf55311	0.029946836
95	0x3e0ff870	0.14059615
96	0xbdad668e	-0.084668264
97	0x3d7ce449	0.061741147
98	0x3be86974	0.007092649
99	0xbdc2ba45	-0.09508184
100	0x3dd68d80	0.10476208
101	0xbd624578	-0.05524203
102	0xbdb8ec00	-0.090293884
103	0x3d3b1225	0.0456716
104	0xbda5d5d6	-0.080974266
105	0xbdae4f25	-0.08511189
106	0x3e011ab6	0.12607846
107	0xbdac464e	-0.08411847
108	0x3dbeeb0a	0.09322174
109	0x3d52c1ba	0.051454283
110	0x3d45d198	0.048295587
111	0x3de54f59	0.11196775
112	0x3d886ff5	0.06661979
113	0x3db265bd	0.08710811
114	0x3d07987d	0.03310441
115	0x3cebe698	0.02879648
116	0xbd6724d5	-0.05643161
117	0x3d943179	0.07235999
118	0xbe030332	-0.12794188
119	0xbd96a4bd	-0.0735564

bn1.running_var f4 [120]
0	0x3ea95fc2	0.3308087
1	0x3e8105b8	0.25199676
2	0x3e8fa34b	0.2805427
3	0x3ee02be8	0.43783498
4	0x3ee653e6	0.44985884
5	0x3ed8da91	0.42354253
6	0x3ecbfac6	0.39839762
7	0x3e6c32b2	0.23066214
8	0x3ea9665e	0.33085912
9	0x3ec727f1	0.3889766
10	0x3e68fe0c	0.22753161
11	0x3e877fc4	0.26464665
12	0x3eafe5a0	0.34354877
13	0x3e8b7eaf	0.2724509
14	0x3ea8d6b9	0.3297632
15	0x3ea8031a	0.32814866
16	0x3f34a19e	0.7055911
17	0x3e8d6e8d	0.27623406
18	0x3f097595	0.5369504
19	0x3ecb5afd	0.39717856
20	0x3ec40128	0.38282132
21	0x3edac673	0.4272953
22	0x3e8d8bfb	0.2764586
23	0x3ed26fec	0.41101015
24	0x3e957b14	0.29195464
25	0x3ed06efe	0.4070968
26	0x3e7b2f53	0.24529772
27	0x3ee45aff	0.44600675
28	0x3e49dfc9	0.19714274
29	0x3ec5275a	0.38506585
30	0x3e89a9ad	0.26887265
31	0x3ed19a0c	0.4093784
32	0x3eaf5404	0.34243786
33	0x3f05b5f5	0.5223077
34	0x3e8eb8d7	0.27875397
35	0x3e8fe172	0.2810169
36	0x3ec2fcd1	0.3808351
37	0x3e9f7c5a	0.3114956
38	0x3eb80049	0.35937718
39	0x3ec57f43	0.38573655
40	0x3e859468	0.26089787
41	0x3e80ce91	0.25157598
42	0x3ec802db	0.3906468
43	0x3e8127bf	0.25225636
44	0x3eaf007b	0.34180054
45	0x3eb20861	0.34772018
46	0x3eb7bc0c	0.35885656
47	0x3edba193	0.4289671
48	0x3e496e6f	0.19671033
49	0x3ea7393c	0.32660854
50	0x3eaaf73f	0.3339176
51	0x3e9a30e3	0.30115423
52	0x3e97ebcd	0.2967209
53	0x3eb2b9ab	0.34907278
54	0x3ec88de4	0.39170754
55	0x3e9a4148	0.3012793
56	0x3eae621b	0.34059224
57	0x3e93dfaa	0.2888158
58	0x3edc58df	0.43036553
59	0x3e91fa77	0.28511402
60	0x3ebb2afb	0.3655623
61	0x3e96954c	0.2941078
62	0x3ece4303	0.402855
63	0x3e8841cc	0.266127
64	0x3e963aa4	0.29341614
65	0x3ec0787b	0.3759192
66	0x3eb8024e	0.35939258
67	0x3ed5ebbc	0.41781414
68	0x3ecef936	0.40424508
69	0x3ea6ba1e	0.3256387
70	0x3e9b96b0	0.30388403
71	0x3e9b0500	0.30277252
72	0x3ead7ce3	0.33884344
73	0x3eca2968	0.39484715
74	0x3ebdc446	0.37063807
75	0x3e49485e	0.19656512
76	0x3ea748e0	0.32672787
77	0x3ea5ec51	0.32406858
78	0x3e4ab3b0	0.19795108
79	0x3ebb31a6	0.36561316
80	0x3ebe26dc	0.37139022
81	0x3eb9e8ac	0.36310327
82	0x3eb869d3	0.36018237
83	0x3e8330f3	0.25623283
84	0x3e9117e1	0.2833853
85	0x3ebf2b7b	0.3733786
86	0x3ea629ad	0.3245367
87	0x3ebbd98f	0.36689422
88	0x3ebbd670	0.3668704
89	0x3ec62c81	0.3870583
90	0x3ec55a97	0.38545677
91	0x3eb40776	0.35161942
92	0x3eb0a506	0.34500903
93	0x3ed3d980	0.41376877
94	0x3ea83b73	0.32857856
95	0x3eb98d0c	0.36240423
96	0x3ebb1253	0.36537418
97	0x3e8c2fd6	0.27380246
98	0x3ef7b9d3	0.4838396
99	0x3e9d8d15	0.307717
100	0x3ef1f726	0.47258872
101	0x3e899aad	0.2687582
102	0x3eb50ffe	0.35363764
103	0x3ea78e9c	0.3272599
104	0x3e8feabe	0.28108782
105	0x3ea4a5c2	0.32157713
106	0x3e739c6c	0.23790139
107	0x3eac9cc8	0.33713365
108	0x3eb7d07e	0.35901254
109	0x3ee95e65	0.4557983
110	0x3e8ae732	0.27129513
111	0x3e91642b	0.28396735
112	0x3efb6e89	0.4910777
113	0x3eba44ff	0.36380765
114	0x3ecea6f8	0.40361762
115	0x3ea10367	0.31447908
116	0x3eb83cf0	0.35983992
117	0x3e9e1565	0.30875698
118	0x3eb9b305	0.36269394
119	0x3e7cedda	0.24700108

fc2.weight f4 [84, 120]
0	0x3d5b7d18	0.053586096
1	0xbcd60f37	-0.026130302
2	0xbd96d638	-0.07365078
3	0x3d8477b7	0.06468146
4	0xbda0b46f	-0.07846915
5	0xbd2ba8eb	-0.04190914
6	0x3dadd168	0.08487207
7	0x3db71cc0	0.089410305
8	0xbd2cf330	-0.04222411
9	0x3c472f53	0.012157279
10	0x3d7c16c0	0.061545134
11	0x3d2ce621	0.042211656
12	0xbdb0e2f4	-0.08637038
13	0x3bba5a47	0.0056870314
14	0x388904bb	6.53355e-05
15	0xbda9e832	-0.08296241
16	0x3d6a9d57	0.057278957
17	0x3d4808e6	0.04883661
18	0xbdb970cf	-0.0905472
19	0x3c437282	0.011929156
20	0x3d2f73d0	0.042835057
21	0xbd26dfc6	-0.04074075
22	0x3d9f66f3	0.07783308
23	0x3d08d495	0.03340586
24	0x3db286e8	0.087171376
25	0x3c82d8d5	0.015972534
26	0x3d3d7427	0.04625335
27	0xbd717b30	-0.05895537
28	0x3c61d3b4	0.013783384
29	0x3d351b78	0.04421565
30	0x3bdb1248	0.006685529
31	0xbcce8127	-0.025208069
32	0x3d4d6124	0.05014147
33	0x3d1cbc38	0.038265437
34	0x3c38d878	0.011282079
35	0x3cfd4909	0.030918615
36	0x3d5e3434	0.054249004
37	0xbcfba1fd	-0.03071689
38	0xbcb807ca	-0.022464652
39	0x3cd5d7bf	0.026103852
40	0xbc9e7b53	-0.019345915
41	0xbd8edd08	-0.06975752
42	0x3d97af46	0.07406478
43	0x3d848b73	0.0647191
44	0x3c56f1a2	0.013119133
45	0xbb9ee878	-0.00484949
46	0xbdb20776	-0.08692829
47	0xbd2e6ae4	-0.042582408
48	0xbd608c2b	-0.054821175
49	0x3d9ee42b	0.07758363
50	0xbba1322b	-0.0049193106
51	0x3d8cf4c0	0.0688262
52	0xbdaafaa1	-0.08348585
53	0x3d6475a1	0.055776242
54	0x3d0eefaa	0.03489653
55	0x3d4ee93a	0.05051539
56	0xbd61ac9d	-0.055096257
57	0x3dac55c4	0.08414796
58	0x3d1d0239	0.038332198
59	0xbda1c7f2	-0.07899465
60	0x3b24f8c5	0.0025172692
61	0x3da26e45	0.079311885
62	0x3cf8c951	0.030369433
63	0xbcd05178	-0.025429472
64	0xbd103d18	-0.035214514
65	0xbcc3b821	-0.02389151
66	0xbd711a1d	-0.058862794
67	0xbcfffe63	-0.03124923
68	0xbd902f36	-0.07040255
69	0xbd93bb82	-0.07213499
70	0xbc547e9b	-0.012969638
71	0x3c9b0664	0.018923946
72	0x3da0973d	0.078413464
73	0x3db8b9eb	0.09019836
74	0x3d869357	0.065710716
75	0x3c9f69a7	0.019459559
76	0xbd136005	-0.035980243
77	0x3c14718e	0.009060277
78	0xbd37da5c	-0.044885978
79	0xbd2bb1e0	-0.04191768
80	0xbd9f9aaa	-0.07793172
81	0x3c25ed1e	0.010127334
82	0xbcbf4a2b	-0.023350796
83	0xbcad57a2	-0.02115995
84	0xbd44d1e2	-0.048051722
85	0x3db1f1f6	0.086887285
86	0xbcfba22e	-0.030716982
87	0x3c069c40	0.008215964
88	0x3cbc1766	0.022960376
89	0xbd183601	-0.037160877
90	0x3d221777	0.03957316
91	0xbd5c6d43	-0.053815138
92	0x3dab9ef4	0.08379927
93	0xbc645bcc	-0.013937902
94	0x3c4c0c8c	0.012454163
95	0xbc9e8d78	-0.019354567
96	0xbda74d98	-0.08169097
97	0x3d6fa22d	0.058504272
98	0x3ce84d22	0.028357092
99	0xbda075a3	-0.078349374
100	0x3cd6042d	0.026125038
101	0x3abb1016	0.0014271762
102	0x3bf90fba	0.0076007517
103	0xbda7e969	-0.08198816
104	0xbd42e097	-0.047577467
105	0xbcb774f6	-0.022394639
106	0x3d67b8a2	0.056572564
107	0x3d28280c	0.041053817
108	0xbc2e4ed8	-0.010638915
109	0xbbf65329	-0.0075172377
110	0xbc9ceed2	-0.019156847
111	0xbd011795	-0.03151663
112	0x3d8e51f9	0.06949229
113	0x3d8a6410	0.06757367
114	0x3d8960c5	0.067079104
115	0x3d9eab0a	0.07747467
116	0xbd80141d	-0.06253836
117	0xbd5eecde	-0.054425113
118	0xbd2be05f	-0.041962024
119	0xbd89b17a	-0.06723304
120	0xbcb58108	-0.022156253
121	0xbc474736	-0.012162974
122	0xbd983319	-0.07431621
123	0x3d70c8ad	0.05878513
124	0xbd42c478	-0.04755065
125	0xbd99c6a4	-0.07508591
126	0x3d0cf54f	0.034413632
127	0x3d1ba903	0.03800298
128	0xbc0dcd2a	-0.008654872
129	0x3cf00aa5	0.02930195
130	0xbd40b11e	-0.047043912
131	0xbd86d25d	-0.06583092
132	0x3d66b8ba	0.056328513
133	0xbd450dcd	-0.048108865
134	0x3cf1b164	0.029503532
135	0xbd95ad08	-0.07308394
136	0x3c115b9a	0.008871937
137	0x3d43baba	0.0477855
138	0xbd09f3da	-0.03367982
139	0xbcf387c5	-0.029727826
140	0xbd29731e	-0.04136955
141	0xbcfd3c16	-0.03091244
142	0x3db73c2e	0.08947025
143	0x3b70794d	0.0036693395
144	0xbcd8df63	-0.026473707
145	0x3d4d01c3	0.05005051
146	0x3d107bf0	0.035274446
147	0xbd8c8b1d	-0.06862471
148	0x3d711250	0.058855355
149	0xbb2997b1	-0.0025877769
150	0x3ce309fe	0.027714726
151	0xbd854673	-0.06507578
152	0x3c652f22	0.013988288
153	0x3c3fe455	0.011712153
154	0xbd83abfe	-0.06429289
155	0xbd11b388	-0.035571605
156	0x3d07e4d7	0.033177223
157	0xbcb43df8	-0.022002205
158	0xbd8323b8	-0.06403297
159	0xbd878214	-0.06616607
160	0x3d210673	0.03931279
161	0xbd9b70a9	-0.075898476
162	0xbd1efd8f	-0.03881603
163	0xbd41e813	-0.047340464
164	0xbdb09cfd	-0.08623693
165	0x3bf832d3	0.007574418
166	0x3d2b0df4	0.041761354
167	0x3d4e219c	0.05032502
168	0x3cb5e742	0.022204999
169	0xbd04a2ab	-0.032381695
170	0xbd8a0530	-0.06739271
171	0x3c965f1f	0.018355904
172	0xbc909547	-0.017649306
173	0xbc3076a1	-0.010770471
174	0x3be0961c	0.006853832
175	0x3b34d783	0.0027594275
176	0xbda0a15f	-0.07843279
177	0x3c9d399b	0.019192507
178	0xbd96b506	-0.07358746
179	0x3d98766a	0.07444461
180	0x3d006874	0.031349614
181	0xbd7d7fa0	-0.06188929
182	0xbda639e3	-0.0811651
183	0x39804a5b	0.00024469462
184	0x3d82d19f	0.06387638
185	0xbd449588	-0.047994167
186	0xbd398070	-0.045288503
187	0xbc43e52f	-0.011956497
188	0x3d316813	0.043312144
189	0xbd58ad70	-0.052899778
190	0xbcce9056	-0.02521531
191	0xbd9ee520	-0.07758546
192	0xbda81a44	-0.08208135
193	0x3c40e204	0.011772636
194	0x3d70f374	0.058825925
195	0x3c764373	0.01503073
196	0xbcd14f93	-0.02555064
197	0xbd1f51d5	-0.0388964
198	0x3d86d095	0.065827526
199	0xbd843833	-0.06456032
200	0xbc1abb5e	-0.009444086
201	0xbd5cb691	-0.053885046
202	0xbd689636	-0.056783877
203	0xbda644db	-0.08118602
204	0x3d0b9c0b	0.03408436
205	0xbdb9ca45	-0.09071783
206	0x3d7ed2df	0.06221282
207	0xbd4a3f9e	-0.049377076
208	0xbd9cd2a5	-0.07657365
209	0x3d891311	0.0669309
210	0xbc30858f	-0.01077403
211	0x3db393bc	0.087684125
212	0x3c6a2de4	0.014293168
213	0xbca279c4	-0.019833453
214	0xbcd4dba5	-0.02598364
215	0xbd06e54f	-0.03293353
216	0xbdb19023	-0.0867007
217	0xbd07ad66	-0.03312435
218	0x3da63253	0.08115067
219	0xbd883376	-0.066504404
220	0x3da07236	0.07834284
221	0x3cef3889	0.029201763
222	0xbce3fd5b	-0.02783077
223	0xbd6b426e	-0.0574364
224	0x3c50dc46	0.01274783
225	0xbd5e6b03	-0.054301273
226	0x3a469947	0.00075759407
227	0xbd62ac66	-0.055340193
228	0xbd11ae75	-0.035566766
229	0xbd82d600	-0.063884735
230	0x3d1ef5fa	0.0388088
231	0x3cb008f0	0.021488637
232	0x3c5408e0	0.012941569
233	0xbd31762b	-0.043325584
234	0xbd086b86	-0.033305667
235	0x3c94e893	0.018177306
236	0x3d38e32d	0.045138527
237	0x3cede486	0.029039633
238	0x3d780136	0.06054803
239	0x3db9b711	0.0906812
240	0x3bd1e391	0.006405302
241	0x3ca7b2a4	0.020470925
242	0xbd944e00	-0.0724144
243	0xbd596bfb	-0.053081494
244	0xbc79975c	-0.015233841
245	0xbdb8df35	-0.09026948
246	0x3d8c26b5	0.0684332
247	0xbd49c4b7	-0.049259868
248	0x3cfc02df	0.030763088
249	0xbcac5114	-0.021034755
250	0x3d49923e	0.049211733
251	0xbcdd0cf6	-0.02698372
252	0x3cf6f36a	0.030145366
253	0x3d9a2200	0.07526016
254	0xbb2313de	-0.0024883668
255	0xbcac3fd4	-0.02102653

fc2.bias f4 [84]
0	0xbd1e7409	-0.03868488
1	0xbd5f6e44	-0.054548517
2	0x3d9b470c	0.075819105
3	0x3d8fea00	0.07027054
4	0x3d757444	0.059925333
5	0xbda9e635	-0.08295862
6	0xbd5d1221	-0.053972367
7	0x3d02c0de	0.031922214
8	0xbcf7edd6	-0.030264776
9	0xbc8e9338	-0.017404184
10	0xbd4f30ed	-0.05058377
11	0xbda03548	-0.078226626
12	0xbd5a49fa	-0.053293206
13	0xbd1920d8	-0.037384838
14	0x3c471328	0.012150563
15	0xbd674239	-0.05645964
16	0xbd825c31	-0.0636524
17	0xbc9a6174	-0.018845297
18	0xbc570440	-0.013123572
19	0x3cda6a58	0.026662037
20	0x3c4e5550	0.012593582
21	0xbd64e11f	-0.055878755
22	0xbd96b40b	-0.07358559
23	0xbc9b8f7c	-0.018989317
24	0x3d2b735c	0.041858062
25	0xbdb70551	-0.08936561
26	0xbccaccdc	-0.024755888
27	0xbd59743a	-0.053089358
28	0x3d9b76b0	0.07590997
29	0xbd489fe6	-0.048980616
30	0x3d5c9810	0.053855956
31	0x3ced0fa4	0.028938122
32	0x3d7852d4	0.060625866
33	0xbd08ce25	-0.03339972
34	0xbd29098d	-0.041268874
35	0xbdb9256f	-0.09040343
36	0x3d34e860	0.044166923
37	0xbd67352b	-0.05644719
38	0x3bc297a0	0.0059384853
39	0x3d699e18	0.057035536
40	0xbd0abd81	-0.03387213
41	0x3c0f67c0	0.008752763
42	0x3cb7f404	0.022455223
43	0xbd1bbf45	-0.038024206
44	0xbcda7a34	-0.0266696
45	0x399bb700	0.0002970025
46	0x3dac97da	0.08427401
47	0x3d50e9b8	0.05100414
48	0xbdb42538	-0.087961614
49	0xbc0ebe48	-0.008712359
50	0xbd8a3172	-0.06747712
51	0xbd502478	-0.05081603
52	0xbd8b334f	-0.06796896
53	0xbdb6bf48	-0.08923203
54	0xbcaa0974	-0.02075646
55	0xbcb30a2c	-0.021855436
56	0xbc13c5e0	-0.009019345
57	0xbd5e7508	-0.05431083
58	0x3d9ef328	0.07761222
59	0x3b038cc0	0.0020072907
60	0xbda38236	-0.0798382
61	0xbd8c17c0	-0.068404675
62	0x3d76dec8	0.060271055
63	0x3d95f378	0.073218286
64	0xbdaecfc9	-0.085357256
65	0xbaea4580	-0.0017873496
66	0x3da9ad64	0.08285025
67	0x3ce0a3dc	0.027421884
68	0xbbbf6180	-0.0058404803
69	0xbdac23ba	-0.08405252
70	0xbd4009d2	-0.046884365
71	0x3c820088	0.015869394
72	0xbc481f80	-0.012214541
73	0xbc450c90	-0.012026921
74	0x3ca31848	0.01990904
75	0xbdb2ee01	-0.08736802
76	0x3cb02a28	0.021504477
77	0xbd399af1	-0.04531378
78	0x3d249134	0.04017754
79	0xbd9f7720	-0.07786393
80	0xbd5011c1	-0.05079818
81	0x3a72a400	0.0009256005
82	0x3d93e810	0.07221997
83	0xbd81610c	-0.06317338

bn2.weight f4 [84]
0	0x3f7fa110	0.99855137
1	0x3f7fd4f8	0.9993434
2	0x3f7fda6e	0.9994267
3	0x3f7fe1c5	0.9995387
4	0x3f7fd7c3	0.999386
5	0x3f7fda26	0.99942243
6	0x3f7fc027	0.99902576
7	0x3f7fe218	0.99954367
8	0x3f7fc0e0	0.9990368
9	0x3f8008c6	1.0002677
10	0x3f7fba10	0.99893284
11	0x3f7fce58	0.9992423
12	0x3f7fedcf	0.9997224
13	0x3f7ff699	0.99985653
14	0x3f7fcf48	0.9992566
15	0x3f7fb091	0.99878794
16	0x3f7fec4c	0.99969935
17	0x3f7fbe28	0.9989953
18	0x3f7fac19	0.99871975
19	0x3f7feea2	0.999735
20	0x3f7fda47	0.9994244
21	0x3f7fd981	0.9994126
22	0x3f7fc4e4	0.99909806
23	0x3f7fc07f	0.999031
24	0x3f7fa707	0.9986424
25	0x3f7fc3b6	0.99908006
26	0x3f7fe224	0.9995444
27	0x3f7feaa5	0.99967414
28	0x3f7fddad	0.99947625
29	0x3f800a23	1.0003093
30	0x3f7fca76	0.99918306
31	0x3f7fe27f	0.9995498
32	0x3f7fb427	0.99884266
33	0x3f7fcb3a	0.99919474
34	0x3f800e3e	1.0004346
35	0x3f8004a3	1.0001415
36	0x3f7fa2dd	0.99857885
37	0x3f7fe236	0.99954545
38	0x3f7fc94b	0.99916524
39	0x3f7fc0de	0.99903667
40	0x3f7feaff	0.9996795
41	0x3f7fdb24	0.9994376
42	0x3f7fd909	0.99940544
43	0x3f7fdcea	0.99946463
44	0x3f7fd34d	0.99931794
45	0x3f7fdbc0	0.99944687
46	0x3f7fc7fb	0.9991452
47	0x3f7fb788	0.9988942
48	0x3f7fc59c	0.999109
49	0x3f7fec3a	0.9996983
50	0x3f7fdfa1	0.99950606
51	0x3f7ff39f	0.9998111
52	0x3f7fcee8	0.9992509
53	0x3f7ff95c	0.9998987
54	0x3f7ffff6	0.9999994
55	0x3f7fca90	0.9991846
56	0x3f7ff2ec	0.99980044
57	0x3f7fc9f4	0.9991753
58	0x3f7fe0ad	0.99952203
59	0x3f7fdfcb	0.99950856
60	0x3f7feefc	0.99974036
61	0x3f7fb6d4	0.9988835
62	0x3f7fff2b	0.9999873
63	0x3f7fc983	0.9991686
64	0x3f7fcc94	0.99921536
65	0x3f7fee4b	0.9997298
66	0x3f8001bd	1.000053
67	0x3f7feacb	0.9996764
68	0x3f7fd666	0.9993652
69	0x3f7fe938	0.9996524
70	0x3f7fea03	0.9996645
71	0x3f7fce4d	0.99924165
72	0x3f7fda38	0.9994235
73	0x3f7fdbd0	0.9994478
74	0x3f7fd00d	0.99926835
75	0x3f7fe15f	0.99953264
76	0x3f7fc8bb	0.99915665
77	0x3f7fd6f5	0.99937373
78	0x3f7fbcf4	0.99897695
79	0x3f7fc2fb	0.9990689
80	0x3f7fd465	0.99933463
81	0x3f7ff07e	0.99976337
82	0x3f800140	1.0000381
83	0x3f7fadcc	0.9987457

bn2.bias f4 [84]
0	0xbac758a6	-0.0015208914
1	0xba26e435	-0.0006366403
2	0xb9de9eeb	-0.00042461543
3	0xb9bbc5d8	-0.00035814825
4	0xb9fe9231	-0.00048555576
5	0xb9eea03b	-0.00045514278
6	0xba771685	-0.0009425658
7	0xb9843d2f	-0.00025222587
8	0xba6cf71f	-0.00090395095
9	0x3a2b5878	0.0006536315
10	0xba8a903a	-0.0010571547
11	0xba3d5639	-0.0007222626
12	0xb8c4036d	-9.3466464e-05
13	0x382b22bd	4.080193e-05
14	0xba222be2	-0.00061863486
15	0xba95132c	-0.0011373512
16	0xb899daa1	-7.336331e-05
17	0xba757b9f	-0.0009364429
18	0xbaaf07a4	-0.0013353718
19	0xb9094ed5	-0.00013094705
20	0xb9d30a09	-0.00040252533
21	0xba02a023	-0.00049829687
22	0xba5d24b5	-0.0008435951
23	0xba6bbb36	-0.0008992435
24	0xbaaf3b28	-0.001336907
25	0xba4e22b1	-0.0007863446
26	0xb9a73e04	-0.00031898927
27	0xb92e3a44	-0.00016615639
28	0xb994b85a	-0.00028366112
29	0x3a0824d7	0.0005193478
30	0xba2d81f6	-0.0006618792
31	0xb9856fe7	-0.0002545111
32	0xba8ccabf	-0.0010741575
33	0xba35c46f	-0.0006933873
34	0x3a61c212	0.00086119876
35	0x39bb6bfc	0.00035747874
36	0xbab7509c	-0.0013985815
37	0xb9be21bd	-0.0003626476
38	0xba59fdf3	-0.00083157344
39	0xba74e831	-0.00093424605
40	0xb7ba3e16	-2.2201839e-05
41	0xb9fe89d4	-0.00048549345
42	0xba1b3206	-0.0005920235
43	0xb9d89b40	-0.000413144
44	0xba0af67d	-0.0005301012
45	0xb99bb2f3	-0.0002969723
46	0xba6838c2	-0.0008858555
47	0xba97181f	-0.0011527574
48	0xba40d878	-0.0007356475
49	0xb8f5c636	-0.0001171943
50	0xb9b40ca2	-0.00034341688
51	0x38cf148b	9.8743556e-05
52	0xba1a8fc0	-0.0005896054
53	0x38c7cefa	9.527612e-05
54	0x3987fa58	0.00025935727
55	0xba612199	-0.0008588075
56	0x386930d6	5.559701e-05
57	0xba1c2e43	-0.0005957821
58	0xb958fad2	-0.00020692803
59	0xb9c56e9f	-0.00037657187
60	0xb914571b	-0.00014146829
61	0xba8e5a6c	-0.0010860688
62	0x39626c60	0.00021593412
63	0xba5d0edb	-0.00084326946
64	0xba2bbdc9	-0.00065514125
65	0xb8f3b49d	-0.00011620785
66	0x39aa4ff8	0.00032484508
67	0xb8d87c6f	-0.0001032286
68	0xba1939a8	-0.0005845078
69	0xb93dee1f	-0.00018113152
70	0xb950dd6e	-0.00019918915
71	0xba3f5536	-0.0007298769
72	0xb9db4e76	-0.00041829393
73	0xb9a16603	-0.00030784318
74	0xba2e31ef	-0.0006645014
75	0xb9b380dd	-0.0003423755
76	0xba55a1e7	-0.00081494305
77	0xb9de9770	-0.0004245597
78	0xba6885a1	-0.000887001
79	0xba6864a2	-0.0008865093
80	0xba067e17	-0.0005130483
81	0xb6a6ba4b	-4.968873e-06
82	0x39b41f5c	0.0003435564
83	0xbab126cf	-0.0013515594

bn2.running_mean f4 [84]
0	0x3d877f84	0.066161186
1	0xbf0ad724	-0.5423453
2	0x3d8f352e	0.06992565
3	0xbe78c384	-0.24293333
4	0x3e7cafc1	0.2467642
5	0xbeae6414	-0.3406073
6	0xbdb3d9de	-0.08781789
7	0x3eb75ca7	0.35812876
8	0x3d2de33f	0.042453047
9	0x3e1ad2c9	0.1511947
10	0x3e93a4e3	0.28836736
11	0x3d9a5a84	0.07536796
12	0xbe3f8433	-0.18702774
13	0x3ca3a3d9	0.01997559
14	0xbe9fd63d	-0.31218138
15	0xbd9ca503	-0.07648661
16	0x3d812b80	0.06307125
17	0x3d20c36e	0.039248876
18	0xbe43a01b	-0.19104044
19	0x3ebaf74b	0.36516795
20	0x3e48a345	0.19593532
21	0x3e00fe95	0.12597115
22	0xbd51de58	-0.051237434
23	0x3dd1c58d	0.10242758
24	0x3e9f31f4	0.310928
25	0x3d2d8d85	0.04237129
26	0xbea5632e	-0.3230223
27	0x3cc77d57	0.024351759
28	0x3e2b0cfc	0.16704172
29	0xbe447814	-0.19186431
30	0x3e8c1f66	0.27367705
31	0x3dcaac68	0.09896165
32	0x3ee31935	0.4435517
33	0xbe21dbab	-0.15806453
34	0xbd2dcad5	-0.042429764
35	0x3e2f1266	0.17096862
36	0x3e8fc9c9	0.28083637
37	0xbe05ec4d	-0.13078423
38	0xbb924a3e	-0.0044644168
39	0x3e1855d5	0.14876492
40	0x3e88f0df	0.2674627
41	0x3e133f50	0.1437962
42	0x3bcbf156	0.006223838
43	0xbe6dfd7e	-0.23241231
44	0x3d59a122	0.053132184
45	0x3e9a3393	0.30117473
46	0x3e1e25ac	0.15444058
47	0xbd327f70	-0.043578565
48	0x3d649e17	0.05581483
49	0xbe07f45c	-0.1327681
50	0xbcfbf5a8	-0.030756786
51	0xbe7f2498	-0.24916303
52	0x3ef97186	0.48719424
53	0xbe1d0b35	-0.15336306
54	0x3d08f17f	0.033433434
55	0x3e882879	0.26593378
56	0xbe9cbf53	-0.3061472
57	0xbe4bb925	-0.19894846
58	0xbd2c4f96	-0.042068087
59	0xbe39d930	-0.18149257
60	0xbe4f182f	-0.20224069
61	0xbe4e341a	-0.20137063
62	0xbe8c53e2	-0.27407748
63	0x3f156e3c	0.5837133
64	0xbd9bf648	-0.07615334
65	0x3d3b7691	0.04576737
66	0x3e5f39cf	0.21799396
67	0x3e82b118	0.25525737
68	0xbdf51e1c	-0.119686335
69	0xbe935220	-0.28773594
70	0x3c47387e	0.012159465
71	0x3e84a661	0.25908187
72	0xbee30c1f	-0.44345185
73	0xbe57fb0a	-0.21091858
74	0x3d82c30f	0.06384861
75	0x3cbd85f0	0.023135155
76	0xbc7f4418	-0.0155802
77	0xbd895cfa	-0.06707187
78	0xbd66c103	-0.056336414
79	0xbe3ba13a	-0.18323222
80	0xbe8289ac	-0.2549566
81	0x3e40f01a	0.18841591
82	0x3dfcdb2b	0.123464905
83	0xbdeee49b	-0.11664697

bn2.running_var f4 [84]
0	0x3e498324	0.19678932
1	0x3e076f6e	0.13226101
2	0x3e14ecbc	0.14543432
3	0x3e356c72	0.1771715
4	0x3e28dd64	0.16490704
5	0x3e1684ce	0.14699098
6	0x3e21e442	0.1580973
7	0x3e13018c	0.14356059
8	0x3e29c979	0.16580762
9	0x3e15b243	0.14618783
10	0x3e35d37b	0.17756455
11	0x3e4dcb4c	0.20097083
12	0x3e4cbcf3	0.19993953
13	0x3e31aa24	0.1735006
14	0x3e230b0b	0.15922181
15	0x3e523a0c	0.20529956
16	0x3e5f6ec3	0.21819596
17	0x3e2b76da	0.16744557
18	0x3e250237	0.16114126
19	0x3e621d14	0.22081405
20	0x3e514a4e	0.20438501
21	0x3e21c72d	0.15798636
22	0x3e4351d1	0.19074179
23	0x3e79ae6b	0.24382941
24	0x3e491965	0.19638593
25	0x3e5325ef	0.2061994
26	0x3e13787c	0.1440143
27	0x3e4fcd55	0.20293172
28	0x3e44dd7c	0.19225115
29	0x3e1f9ae4	0.1558643
30	0x3e3d4f7b	0.1848735
31	0x3e357d43	0.17723565
32	0x3e440dd4	0.191459
33	0x3e6b58e5	0.2298313
34	0x3e2566aa	0.16152444
35	0x3e360bf5	0.17777999
36	0x3e1cea48	0.15323746
37	0x3e821098	0.25403285
38	0x3e20fb38	0.15720832
39	0x3e22b04d	0.15887566
40	0x3e251729	0.16122116
41	0x3e44f38b	0.1923353
42	0x3e0b23d0	0.1358788
43	0x3e3f24e5	0.18666418
44	0x3e3c8934	0.18411714
45	0x3e3d73a2	0.18501142
46	0x3e2d7dd8	0.16942537
47	0x3e39e413	0.1815341
48	0x3e298e34	0.16558152
49	0x3e13cff7	0.14434801
50	0x3e35ec02	0.17765811
51	0x3e17c77e	0.14822194
52	0x3e286a0e	0.16446707
53	0x3e3194f6	0.1734198
54	0x3e2e658c	0.17030925
55	0x3e40df92	0.18835285
56	0x3e4fd894	0.20297462
57	0x3e3caf93	0.18426351
58	0x3e4c316d	0.1994073
59	0x3e25afdc	0.16180366
60	0x3e318d0a	0.17338958
61	0x3e497eba	0.19677249
62	0x3e309a22	0.17246297
63	0x3e1dc857	0.15408455
64	0x3e16db57	0.14732109
65	0x3e17e5bc	0.1483373
66	0x3e38f2cd	0.18061371
67	0x3e20d1b4	0.15704995
68	0x3e593dfe	0.21215054
69	0x3e1e947f	0.15486334
70	0x3e254a3b	0.16141598
71	0x3e00d07e	0.12579533
72	0x3e4f62ac	0.20252484
73	0x3e62c41b	0.22145121
74	0x3e19fcda	0.15037861
75	0x3e3b29ac	0.18277615
76	0x3e39fccb	0.18162839
77	0x3e08b103	0.13348775
78	0x3e1a92d3	0.15095071
79	0x3e30932e	0.17243645
80	0x3e504d36	0.20341954
81	0x3e1d6d37	0.15373693
82	0x3e446ad0	0.1918137
83	0x3e55613c	0.20837873

fc3.weight f4 [46, 84]
0	0xbcd95674	-0.026530482
1	0xba9f6235	-0.0012160005
2	0xbdc47709	-0.09593017
3	0x3ab9651e	0.0014144515
4	0x3dd5d6d9	0.104413696
5	0xbdc9ac35	-0.09847299
6	0x3cd259ee	0.025677647
7	0xbccca3d3	-0.024980461
8	0x3c672c32	0.014109658
9	0x3d9f56ac	0.07780203
10	0xbda58992	-0.0808288
11	0x3dac9558	0.084269226
12	0xbd36fa79	-0.044672463
13	0x3d6909f2	0.05689425
14	0xbdbd1135	-0.092317976
15	0xbd532fda	-0.051559307
16	0xbd54f4a3	-0.051991116
17	0xbd729906	-0.059227966
18	0xbd78b72b	-0.060721558
19	0x3d6f910e	0.058487944
20	0x3dd15889	0.10221965
21	0x3c2b0510	0.010438219
22	0x3ca38192	0.019959245
23	0xbdc17585	-0.09446243
24	0x3d4d6ea3	0.05015434
25	0xbdbb71b9	-0.0915255
26	0x3b9de23a	0.004818228
27	0xbba09f67	-0.0049018147
28	0x3dc65ea1	0.09686018
29	0x3d8c16d7	0.06840294
30	0xbd2c828d	-0.04211669
31	0xbdae75c5	-0.085185565
32	0xbdcadb1f	-0.09905075
33	0xbd8b95d3	-0.06815686
34	0x3dc6510c	0.09683427
35	0xbd53727f	-0.051622864
36	0x3c168404	0.009186748
37	0xbdd52202	-0.10406877
38	0xbdab878a	-0.083754614
39	0xbd54601c	-0.05184947
40	0xbd5cecad	-0.05393665
41	0xbd239253	-0.039934468
42	0x3dd9a87d	0.1062784
43	0xbd65cd6c	-0.05610411
44	0x3d4d2943	0.05008818
45	0xbdcd0c55	-0.10012118
46	0xbdb21120	-0.086946726
47	0xbd048ea5	-0.0323626
48	0xbd624fc8	-0.055251867
49	0xbc52762a	-0.012845555
50	0x3c808bd1	0.01569167
51	0xbcb54c34	-0.022131063
52	0xbdced657	-0.10099476
53	0xbd451ca5	-0.04812302
54	0xbdcb9156	-0.0993983
55	0x3d9e7144	0.077364475
56	0xbc356bff	-0.011073112
57	0x3b6310ab	0.0034647386
58	0x3d841374	0.06449023
59	0x3b1bd2dd	0.0023776807
60	0x3cea2dd3	0.028586304
61	0xbc46d96c	-0.012136798
62	0xbd198bdf	-0.037486907
63	0xbcefe49d	-0.029283816
64	0x3da058dc	0.078294486
65	0x3d450f7a	0.048110463
66	0xba1530b8	-0.00056911586
67	0x3cda3f27	0.026641442
68	0x3d1fba11	0.038995806
69	0x3cf559fb	0.029950133
70	0xbd7916ac	-0.060812637
71	0x3c31628e	0.01082672
72	0x3d8c5fca	0.06854208
73	0x3d069c1a	0.032863714
74	0xbd850f44	-0.06497052
75	0xbd4aa798	-0.049476236
76	0xbd5fda93	-0.054651808
77	0xbdacdda6	-0.084407136
78	0x3d9767a9	0.073928185
79	0xbd7f942f	-0.06239718
80	0xbcf237c0	-0.0295676
81	0xbd2d8ad5	-0.04236873
82	0x3dbf71de	0.0934789
83	0xbdae4d22	-0.08510806
84	0xbd9920ae	-0.07476936
85	0xbc70616e	-0.014671667
86	0xbd9148e7	-0.07093983
87	0xbd84303f	-0.06454515
88	0x3c770dd9	0.015078985
89	0xbd090057	-0.03344759
90	0x3ddc5a79	0.10759444
91	0xbd0b2c86	-0.033978008
92	0x3cf90169	0.03039618
93	0x3d8ecb61	0.06972385
94	0xbdc7cf51	-0.09756339
95	0xbd8ff0bf	-0.070283405
96	0x3b780180	0.003784269
97	0x3d40e19a	0.04709015
98	0x3d37a66b	0.044836443
99	0x3c99807c	0.018738024
100	0x3d9f8c0a	0.07790382
101	0x3c6c392e	0.01441793
102	0xbb89188d	-0.004183835
103	0x3dc05372	0.09390916
104	0xbdb6c390	-0.08924019
105	0xbd688d42	-0.05677534
106	0xbcbf3c14	-0.023344077
107	0x3d679f76	0.05654856
108	0xbd437416	-0.04771813
109	0x3d3d088f	0.04615074
110	0x3d145b43	0.036219846
111	0x3dd8bb9b	0.10582658
112	0xbd3ca2c5	-0.046053667
113	0x3dbcc2ec	0.09216866
114	0xbdb6b610	-0.089214444
115	0x3ca79caf	0.020460455
116	0xbd333963	-0.0437559
117	0xbd82e492	-0.063912526
118	0xbd80481e	-0.06263755
119	0x3d42d705	0.04756834
120	0xbd481822	-0.04885114
121	0xbd3c5a8b	-0.045984786
122	0xbb2eb669	-0.0026659018
123	0x3d1f6e11	0.038923327
124	0x3d22720b	0.03965954
125	0x3c3ccd0c	0.011523496
126	0xbd830985	-0.063983
127	0xbcf357e4	-0.029704995
128	0x3d944e3e	0.07241486
129	0xbdad6b33	-0.08467712
130	0x3d9f1a6a	0.0776871
131	0xbd8e18e9	-0.06938345
132	0xbccdf348	-0.02514042
133	0x3d57c9a4	0.052682534
134	0xbc3afb68	-0.011412479
135	0x3dc31979	0.09526343
136	0xbcc711e1	-0.024300518
137	0x3d6554b7	0.055988993
138	0x3d8202ac	0.06348166
139	0xbdd3f7df	-0.10350012
140	0xbd089413	-0.03334434
141	0xbd6388f0	-0.055550516
142	0x3daa2261	0.083073385
143	0xbdb544dd	-0.08851025
144	0xbd039fed	-0.03213494
145	0xbda7bfce	-0.08190881
146	0xbdb5f53c	-0.08884665
147	0xbd0c79c2	-0.034295805
148	0xbd4fa66e	-0.05069583
149	0x3dc3646b	0.095406376
150	0x3d86f5d8	0.0658986
151	0xbc8e0bd2	-0.01733962
152	0x3dca72d1	0.09885181
153	0xbc4a9d4e	-0.012366606
154	0x3c98e769	0.018665032
155	0x3dc07cdd	0.09398816
156	0x3c6a5c95	0.0143043
157	0xbd955c7b	-0.0729303
158	0xbdc88754	-0.09791437
159	0xbdbc62e5	-0.0919855
160	0x3d89bf45	0.06725935
161	0x3c0aa7db	0.008462871
162	0xbd9bb1c4	-0.076022655
163	0x3cd932e4	0.026513524
164	0x3daeb5d9	0.085307784
165	0x3ca67759	0.020320581
166	0xbd59ac52	-0.053142853
167	0x3d246f7a	0.040145375
168	0x3d20b650	0.039236367
169	0x3a10d0bd	0.00055242685
170	0xbd3bfe66	-0.04589691
171	0xbd86a711	-0.06574834
172	0xbd47daf2	-0.048792787
173	0x3c1b847c	0.009492036
174	0xbd8b35c3	-0.067973636
175	0x3db752bc	0.08951327
176	0x3c8c0732	0.017093275
177	0x3d6e1168	0.05812207
178	0xbda3ffb3	-0.08007755
179	0x3d629dd4	0.055326298
180	0xbd16de93	-0.036833357
181	0x3dd3e63a	0.103466466
182	0x3d285edc	0.04110609
183	0xbcaba94f	-0.020954756
184	0xbbab0d7e	-0.0052201143
185	0xbda90037	-0.08251994
186	0x3bc052c3	0.005869241
187	0x3dd4ed58	0.10396832
188	0xbd91c663	-0.071179174
189	0x3ccd5801	0.025066378
190	0xbd787678	-0.060659856
191	0xbdb813ef	-0.08988177
192	0xbd659e07	-0.05605891
193	0xbdcfa5d6	-0.101390526
194	0xbcb8bddd	-0.022551471
195	0x3ccfcdd1	0.025366696
196	0x3d91c1d4	0.07117048
197	0xbb2ee4ff	-0.0026686785
198	0xbdd09c95	-0.10186116
199	0x3da25c0c	0.07927713
200	0x3d3da60f	0.046300944
201	0xbdb24777	-0.08705037
202	0x3d6863c6	0.056735776
203	0x3d34a60e	0.044103675
204	0x3dd9edf2	0.106410876
205	0xbca9fb4d	-0.020749712
206	0x3d9642bd	0.07336948
207	0x3c9acff2	0.018897984
208	0xbce79ec3	-0.028273946
209	0x3cb8aab4	0.022542335
210	0xbc5716bc	-0.013127979
211	0xbda9ab20	-0.08284593
212	0xbd490813	-0.049079966
213	0xbdd96a0d	-0.10615931
214	0x3ca1fcdf	0.019773899
215	0x3d9e64ae	0.07734047
216	0x3db916ce	0.09037553
217	0xbd2bc3aa	-0.041934647
218	0xb9a2a1fc	-0.00031019736
219	0x3db39b33	0.08769836
220	0xbbd13fd9	-0.006385785
221	0x3cbdd677	0.023173554
222	0xbd84a064	-0.064759046
223	0x3c1c94b5	0.009556939
224	0xbd4c8c0a	-0.04993824
225	0x3d5da0cf	0.054108437
226	0xbdbe0f3f	-0.09280252
227	0xbda4b3ec	-0.0804213
228	0x3d01643d	0.031589735
229	0x3d52d2c6	0.05147054
230	0xbbc61d6a	-0.006045987
231	0x3d85a31b	0.065252505
232	0xbd7d67e0	-0.06186664
233	0xbd840b1d	-0.06447432
234	0x3d3c9e49	0.04604939
235	0x3db134b7	0.08652633
236	0x3d25bb16	0.040461622
237	0xbd9a87d9	-0.07545442
238	0x3c9b521a	0.018960048
239	0x3dd0fa0f	0.10203945
240	0x3d21d051	0.039505307
241	0x3d856599	0.06513519
242	0xbc2e5276	-0.010639777
243	0x3d3bc4a6	0.045841835
244	0x3cc2cd2b	0.023779472
245	0xbcfb1794	-0.030650891
246	0x3c3e6202	0.011620047
247	0x3db209dd	0.086932875
248	0x3c1b83d2	0.009491878
249	0xbdc5672e	-0.096388206
250	0x3cee3887	0.029079689
251	0xbd925190	-0.07144463
252	0xbdc119c5	-0.09428743
253	0xbcc38008	-0.023864761
254	0xbc9d10f2	-0.01917312
255	0xbb4a71ab	-0.0030890505

fc3.bias f4 [46]
0	0xbc80bd4b	-0.015715262
1	0xbd69b5f7	-0.0570583
2	0x3dbaaaea	0.091146305
3	0x3d98acb1	0.07454813
4	0x3d1c0c18	0.03809747
5	0x3b94a9da	0.0045368494
6	0x3d280664	0.04102172
7	0xbc2bd317	-0.010487339
8	0xbdc2e85a	-0.09516974
9	0xbd312516	-0.04324826
10	0xbd92ba2e	-0.07164417
11	0xbc6b028c	-0.014343869
12	0x3de301c9	0.11084325
13	0xbdda9b24	-0.10674122
14	0xbc2f8688	-0.010713227
15	0x3d92e2ce	0.07172166
16	0xbcc0895e	-0.023503002
17	0x3cc72432	0.024309251
18	0xbd418acd	-0.04725151
19	0xbd8b86c4	-0.06812814
20	0x3d9d3184	0.0767546
21	0x3db3977d	0.087691285
22	0xbd3bf60f	-0.045888957
23	0x3dd7d57b	0.10538765
24	0xbdb1f913	-0.08690085
25	0x3d4df9d4	0.050287083
26	0x3c46f7ea	0.012144068
27	0x3bb53bb7	0.0055308
28	0xbd6d66c3	-0.05795933
29	0xbd5ce062	-0.053924926
30	0x3dc2ff17	0.09521311
31	0x3d2bbd18	0.04192838
32	0xbd9193b4	-0.0710825
33	0x3d3a54d0	0.04549104
34	0xbd48cb9a	-0.049022295
35	0xbda95205	-0.08267597
36	0xbd85259b	-0.06501313
37	0xbb39127c	-0.0028239777
38	0xbd0560b5	-0.03256293
39	0x3d844f29	0.06460411
40	0x3bb336f8	0.0054691993
41	0xbd0df14b	-0.034653943
42	0x3d917f12	0.07104315
43	0xbcdbb52e	-0.026819792
44	0xbc76a069	-0.015052893
45	0x3c715b15	0.014731188
