mp4-machine-learning-template/model/model.pth (torch, 89342 bytes, 14 tensors)

fc1.weight f4 [120, 51]
0	0xbdc5156f	-0.09623229
1	0x3d595eef	0.05306905
2	0xbdb02323	-0.08600452
3	0xbe1557c1	-0.14584257
4	0xbe29553e	-0.16536424
5	0x3d9e539c	0.07730791
6	0xbd6d746a	-0.05797235
7	0x3f0857a1	0.5325871
8	0xbe28d8a6	-0.16488895
9	0x3c027ba2	0.007964047
10	0x3da1b6b5	0.07896177
11	0x3e172ab9	0.14762391
12	0xbd9093e2	-0.070594564
13	0xbdcc349d	-0.09970973
14	0xbdf9d97a	-0.121996835
15	0xbe03557f	-0.12825583
16	0xbe12d8ba	-0.14340487
17	0x3df1b648	0.118023455
18	0x3e054547	0.13014708
19	0x3d34f8a8	0.04418245
20	0x3e6a79f5	0.22898085
21	0xbe45868b	-0.19289605
22	0xbe888ae6	-0.2666847
23	0x3e5e2076	0.2169207
24	0xbdf452e0	-0.1192987
25	0xbea6e202	-0.32594305
26	0xbe3ce1d8	-0.18445528
27	0x3d2aae00	0.041669846
28	0xbd198a69	-0.037485514
29	0x3dc65545	0.096842326
30	0x3de20587	0.110362105
31	0x3e4239e0	0.1896739
32	0xbdd2d3ff	-0.10294341
33	0x3d3694b1	0.044575397
34	0x3cfc9dad	0.030836904
35	0x3c2d125f	0.010563462
36	0x3c994977	0.018711789
37	0xbdc66e6c	-0.0968903
38	0xbda58ad4	-0.0808312
39	0x3eae967f	0.34099194
40	0xbe01f151	-0.12689711
41	0x3d9aef6e	0.07565199
42	0x3e587ded	0.21141787
43	0x3e301088	0.17193806
44	0x3dff901d	0.12478659
45	0x3e3f8780	0.18704033
46	0xbc5c085c	-0.013429727
47	0x3d09ccf2	0.033642717
48	0x3bb0dba4	0.005397277
49	0xbd1a8a49	-0.037729535
50	0x3e1bb946	0.15207395
51	0xbd100d7a	-0.035169102
52	0x3debbf01	0.115110405
53	0xbe2b52c7	-0.16730796
54	0xbb9432f3	-0.004522675
55	0x3dc38e98	0.09548682
56	0x3d4c57dc	0.049888477
57	0xbc844d79	-0.016150223
58	0x3e0b7a6d	0.1362092
59	0xbd9158ed	-0.07097039
60	0x3ddd2cf9	0.107995935
61	0x3d27ffd4	0.04101546
62	0xbd6445ad	-0.05573051
63	0xbca19a0f	-0.019726781
64	0xbe994375	-0.29934278
65	0x3e12b438	0.1432656
66	0xbe0a8d94	-0.1353057
67	0xbd3d3667	-0.04619446
68	0xbe4bbb7f	-0.19895743
69	0x3e00b2ea	0.1256825
70	0x3cffde6a	0.031233985
71	0x3dad98b5	0.08476392
72	0xbda06be3	-0.07833078
73	0xbcd1466f	-0.02554628
74	0x3eca69d6	0.3953387
75	0xbd1e3666	-0.038626097
76	0x3ca1b0b3	0.019737577
77	0x3e1ae286	0.15125474
78	0x3ed360c2	0.41284758
79	0x3e036fc8	0.1283561
80	0x3c3818bf	0.011236369
81	0xbd896b0f	-0.06709873
82	0x3e6c5080	0.23077583
83	0xbd3bb8c7	-0.045830514
84	0x3e15f06f	0.146425
85	0xbd769d7b	-0.06020878
86	0x3c440e96	0.011966368
87	0xbe4d85dc	-0.20070595
88	0xbdca985a	-0.0989234
89	0x3ca57ae9	0.02020021
90	0xbd9616bd	-0.07328556
91	0x3d1068e8	0.035256296
92	0xbea3576c	-0.31902635
93	0xbd833e92	-0.06408419
94	0xbe0260d0	-0.12732244
95	0xbe38f54a	-0.1806232
96	0xbcd3ac8f	-0.025839118
97	0xbe2db0af	-0.1696193
98	0xbc167631	-0.009183452
99	0x3dc39b6f	0.09551131
100	0x3dd788af	0.10524117
101	0xbdd462e9	-0.10370428
102	0xbdaa74ab	-0.08323034
103	0x3d22912b	0.039689224
104	0xbb901165	-0.004396605
105	0x3dad5518	0.08463496
106	0xbd477a5e	-0.048700683
107	0xbbc4ae79	-0.006002244
108	0xbd5f24e3	-0.054478537
109	0x3c99fd88	0.018797651
110	0xbdd228ad	-0.102616645
111	0x3d735c42	0.059414156
112	0xbcc49267	-0.023995591
113	0x3dba5436	0.09098093
114	0x3ebbf8a7	0.36713144
115	0x3d225621	0.03963292
116	0xbd1f0bc2	-0.038829572
117	0x3d78b95a	0.06072364
118	0xbca5c71b	-0.020236542
119	0xbd8d139b	-0.06888505
120	0xbd219089	-0.03944448
121	0x3f097684	0.53696465
122	0xbea34452	-0.31888062
123	0x3d8d9c0f	0.069145314
124	0xbc774368	-0.0150917545
125	0xbe35a005	-0.17736824
126	0x3d79dcb4	0.061001495
127	0xbe60ddb5	-0.21959575
128	0xbe106455	-0.14100774
129	0x3b800269	0.0039065373
130	0xbd17e1c6	-0.03708055
131	0xbe102f18	-0.14080465
132	0x3df4cad1	0.11952747
133	0x3d7bf9ef	0.061517652
134	0xbde246fa	-0.11048694
135	0xbe7f1050	-0.24908566
136	0xbd21b227	-0.03947654
137	0xbebfaef2	-0.3743816
138	0xbdaabc78	-0.08336729
139	0x3d973862	0.07383801
140	0x3d0f987a	0.035057522
141	0x3ddba30d	0.10724459
142	0xbe0c9827	-0.13729917
143	0x3e1146e3	0.14187197
144	0x3eab7427	0.33487055
145	0x3e0dc6b1	0.13845326
146	0xbded460d	-0.11585627
147	0x3d3c3e12	0.045957632
148	0xbc36add5	-0.011149843
149	0xbcc47298	-0.023980424
150	0xbd988a9e	-0.07448314
151	0x3d432e5b	0.04765163
152	0xbcb32d37	-0.021872146
153	0x3dd77eef	0.105222575
154	0xbb463200	-0.0030242205
155	0xbc4f987a	-0.012670631
156	0xbeaf5978	-0.34247947
157	0x3ec206cf	0.3789582
158	0xbd3dcd41	-0.046338324
159	0x3e058b3c	0.13041395
160	0x3ded4f66	0.1158741
161	0x3e44d5df	0.1922221
162	0x3e066575	0.1312464
163	0x3d8d9dc5	0.06914858
164	0x3d1eea57	0.038797703
165	0xbc95ef28	-0.018302515
166	0x3e613723	0.21993689
167	0x3e004374	0.12525731
168	0x3e0f24b0	0.13978839
169	0x3cc9ea71	0.024647923
170	0xbd939b8a	-0.07207401
171	0x3d216834	0.039406016
172	0x39b90408	0.00035288953
173	0x3d7b7e75	0.061399896
174	0xbe8e62fd	-0.27809897
175	0xbc0e828c	-0.008698117
176	0x3f0b0f8d	0.54320604
177	0x3deea719	0.11652965
178	0xbe0b7be5	-0.13621481
179	0xbd6e939d	-0.058246244
180	0xbcbc38b8	-0.022976264
181	0xbda240ff	-0.07922553
182	0x3e5b4924	0.2141462
183	0xbbee7f5e	-0.007278367
184	0xbdf643e0	-0.12024665
185	0x3dd42b05	0.10359768
186	0xbda7bd7c	-0.08190438
187	0xbd2ba8e2	-0.041909106
188	0x3d99777c	0.07493493
189	0xbdf0f113	-0.11764731
190	0x3d7accbb	0.061230402
191	0xbdadc1ae	-0.08484207
192	0xbe08c1cd	-0.13355179
193	0x3e2b75ba	0.16744128
194	0xbe2dd1af	-0.16974519
195	0xbdb4b38d	-0.08823309
196	0xbd9bf2dc	-0.07614681
197	0x3dde66fe	0.10859488
198	0x3db4046e	0.087899074
199	0x3d57532c	0.052569553
200	0x3dcaa072	0.09893884
201	0x3db0ca1a	0.08632298
202	0x3d929d25	0.07158879
203	0xbce8a8dc	-0.02840083
204	0xbe3f52c7	-0.18683921
205	0xbb69ba6b	-0.0035664092
206	0x3d308f26	0.043105267
207	0xbdc243bd	-0.09485576
208	0xbc3c8ced	-0.011508209
209	0xbcf512ff	-0.029916285
210	0x3e3875dc	0.1801371
211	0xbeec020a	-0.46095306
212	0x3d11415c	0.035462722
213	0x3d6907c2	0.056892164
214	0x3dead767	0.11466866
215	0xbdcb2c8a	-0.099206045
216	0x3e28d5f7	0.16487871
217	0x3da37fca	0.07983358
218	0x3c67fa8d	0.014158857
219	0xbb4c0135	-0.003112865
220	0x3e1efd31	0.15526272
221	0xbe0bb953	-0.13644914
222	0xbbc58430	-0.006027721
223	0x3e17240e	0.14759848
224	0xbc688c94	-0.014193673
225	0xbef5d7e4	-0.48016274
226	0x3d26b453	0.040699314
227	0x3ef434bc	0.47696483
228	0x3e66b9bc	0.2253179
229	0xbe80855e	-0.2510175
230	0xbd18362e	-0.037161045
231	0x3d88f863	0.06688001
232	0xbd9444bc	-0.072396725
233	0xbd8c3829	-0.06846649
234	0xbe3f3dac	-0.1867587
235	0x3db6c8b0	0.08924997
236	0xbde8e6a9	-0.1137212
237	0x3cae8054	0.021301426
238	0xbd83f5b1	-0.06443346
239	0x3e9c07a4	0.3047458
240	0x3d3e55d8	0.046468586
241	0xbdf3edd0	-0.119105935
242	0xbdcea41c	-0.10089895
243	0x3e3af810	0.18258691
244	0xbe48f9ab	-0.19626491
245	0xbcf43150	-0.02980867
246	0x3e5960be	0.2122831
247	0x3d14717a	0.036241032
248	0xbd6c4da0	-0.057691216
249	0xbc07b490	-0.008282796
250	0xbda25e17	-0.079281025
251	0x3d58b1e3	0.05290402
252	0x3c3be960	0.011469215
253	0xbe8ff19b	-0.28114018
254	0x3e0e9b2f	0.13926385
255	0x3d4402b4	0.04785414

fc1.bias f4 [120]
0	0x3e074146	0.13208494
1	0xbd971c4b	-0.07378443
2	0xbd6936d9	-0.056937072
3	0x3db615c7	0.088908724
4	0x3d08e2d2	0.033419438
5	0x3d36dcc3	0.04464413
6	0xbd7ae88e	-0.061256938
7	0x3b051da6	0.0020311861
8	0xbc6ab8cc	-0.014326286
9	0xbd8a10c1	-0.06741477
10	0x3db08d9f	0.08620762
11	0xbe01a9ec	-0.12662476
12	0xbbd72eb6	-0.0065668477
13	0xbd2117dd	-0.0393294
14	0x3dfb64b0	0.12275064
15	0xbdcf0868	-0.10109025
16	0xbe0b8907	-0.1362649
17	0xbd848325	-0.06470326
18	0x3cc9c160	0.024628341
19	0xbc2baee3	-0.010478708
20	0x3d47b0b5	0.048752505
21	0xbccd5be3	-0.025068229
22	0x3c0baf98	0.0085257515
23	0xbd92fb2c	-0.071768135
24	0xbda37f34	-0.079832464
25	0xbe01dc70	-0.12681746
26	0x3d8cce67	0.068753056
27	0xbdedfbf9	-0.116203256
28	0x3bf6d4a7	0.0075326744
29	0xbd97a252	-0.07404007
30	0xbd252860	-0.040321708
31	0xbe09652f	-0.13417505
32	0xbd8a0384	-0.06738952
33	0xbdcedf08	-0.101011336
34	0xbd9fd225	-0.07803754
35	0xbd369052	-0.04457123
36	0x3d816f5c	0.06320068
37	0xbe069a91	-0.131449
38	0x3cba3b2b	0.022733292
39	0x3cae150f	0.021250276
40	0x3d72e475	0.059299905
41	0xbd126635	-0.035742003
42	0x3dd33315	0.103124775
43	0xbd9e48c2	-0.07728721
44	0x3de78a82	0.11305715
45	0x3d6b0878	0.057381123
46	0x3db1711e	0.086641535
47	0xbbc4af70	-0.006002359
48	0xbcd70593	-0.026247775
49	0x3c0e5ceb	0.008689146
50	0x3d81d363	0.06339147
51	0xbd1c6579	-0.03818271
52	0x3ddcd9f7	0.10783761
53	0x3db1cd8a	0.086817816
54	0xbd88a2d0	-0.06671679
55	0xbd727bdb	-0.05920015
56	0x3df9bfae	0.12194763
57	0x3e02553f	0.12727831
58	0x3b15899a	0.0022817613
59	0x3d185cf6	0.03719803
60	0xbd40b3cb	-0.047046464
61	0x3de51952	0.1118647
62	0x39bb66e9	0.00035744093
63	0x3d1b4ede	0.03791701
64	0x3c86126a	0.016366202
65	0xbd89aa29	-0.067219086
66	0x3d7c8955	0.061654408
67	0x3dc212fd	0.09476278
68	0x3dde6feb	0.108611904
69	0x3ce15171	0.027504655
70	0xbd2b63d8	-0.041843265
71	0x3e08e44b	0.13368337
72	0xbc7d294e	-0.015451742
73	0xbcc6427f	-0.02420163
74	0x3d689527	0.056782868
75	0x3db8402d	0.089966156
76	0x3db4e3bd	0.088325
77	0xbc8afa90	-0.01696518
78	0x3dab2be7	0.08357983
79	0x3d7970fd	0.06089877
80	0x3d348cec	0.044079706
81	0xbdbdd307	-0.09268766
82	0xbd2c2415	-0.042026598
83	0xbbe36149	-0.0069390875
84	0x3dca5c81	0.09880925
85	0x3df60005	0.120117225
86	0x3d9ba74d	0.076002695
87	0xbdec1622	-0.11527659
88	0x3da6d17b	0.08145424
89	0x3dfd5866	0.12370376
90	0x3d15ac59	0.036541317
91	0x3d8be157	0.068300895
92	0xbe03eab0	-0.12882495
93	0x3da6f03d	0.081512906
94	0x3d89ab7c	0.06722161
95	0x3cd7280f	0.026264219
96	0xbdabd912	-0.08391012
97	0x3ddb34ab	0.10703405
98	0xbd9c9401	-0.07645417
99	0x3d1acfa3	0.037795674
100	0xbdd2c7f1	-0.10292042
101	0xbd0e8055	-0.034790356
102	0x3d20dddf	0.039274093
103	0x3df7bf96	0.12097089
104	0xbdeeda9b	-0.116627894
105	0x3b909f58	0.0044135265
106	0x3d9c82f8	0.07642168
107	0xbd13d144	-0.036088243
108	0xbdfd9d17	-0.12383478
109	0xba7b7f21	-0.0009593834
110	0x3dcc3d08	0.09972578
111	0xbd5c483d	-0.05377983
112	0xbdab5dc0	-0.08367491
113	0x3dcb5bef	0.09929644
114	0xbe09bfed	-0.1345212
115	0x3cca17f8	0.024669632
116	0x3ded3c07	0.11583715
117	0x3de58b51	0.11208213
118	0x3de47bf5	0.111564554
119	0x3d263747	0.04058006

bn1.weight f4 [120]
0	0x3f8e4113	1.1113609
1	0x3f7b5070	0.9816961
2	0x3f83ca7c	1.0296168
3	0x3f838183	1.0273899
4	0x3f87d3df	1.0611533
5	0x3f804ef6	1.0024097
6	0x3f821fff	1.0166014
7	0x3f74c34e	0.9561051
8	0x3f6559cf	0.8959016
9	0x3f9e070e	1.2345903
10	0x3f84e6d3	1.0382942
11	0x3f8afc1a	1.0858185
12	0x3f8a6396	1.0811641
13	0x3f8e2efa	1.1108086
14	0x3f89a4f4	1.0753465
15	0x3f96c48f	1.1778735
16	0x3f880fc1	1.0629808
17	0x3f84be9d	1.037067
18	0x3f872447	1.0557946
19	0x3f7986a6	0.9747108
20	0x3f7c633f	0.9858894
21	0x3f86150d	1.0475174
22	0x3f80d937	1.0066289
23	0x3f81ffcc	1.0156188
24	0x3f8a7f7d	1.0820156
25	0x3f820442	1.0157549
26	0x3f7bf9ab	0.9842784
27	0x3f87d246	1.0611045
28	0x3f824a0c	1.0178847
29	0x3f7c2717	0.98497146
30	0x3f826c7e	1.0189359
31	0x3f8f2cad	1.1185509
32	0x3f775c29	0.96625
33	0x3f7b16dc	0.98081756
34	0x3f802b4a	1.0013211
35	0x3f81d8ed	1.0144325
36	0x3f795646	0.9739727
37	0x3f84829a	1.0352356
38	0x3f7b6ae8	0.9821
39	0x3f641eb6	0.8910936
40	0x3f789855	0.9710744
41	0x3f855984	1.0417943
42	0x3f62d20d	0.8860176
43	0x3f6f321a	0.93435824
44	0x3f8d3efb	1.1034845
45	0x3f80905e	1.0044057
46	0x3f89b350	1.0757847
47	0x3f7d7130	0.99000835
48	0x3f8a3b71	1.079939
49	0x3f7a1898	0.9769378
50	0x3f79d30b	0.9758765
51	0x3f8caab4	1.0989594
52	0x3f892411	1.0714132
53	0x3f80a250	1.0049534
54	0x3f800a18	1.000308
55	0x3f765523	0.9622366
56	0x3f7f54b1	0.99738604
57	0x3f838dc4	1.0277638
58	0x3f7b93e9	0.9827257
59	0x3f7ebab3	0.9950363
60	0x3f85cb7a	1.0452721
61	0x3f844226	1.0332687
62	0x3f72f4db	0.9490487
63	0x3f88ba5a	1.068187
64	0x3f807b66	1.0037658
65	0x3f7d8fba	0.99047434
66	0x3f83da4c	1.0300994
67	0x3f97270a	1.1808789
68	0x3f8328ca	1.0246823
69	0x3f833679	1.0250999
70	0x3f80bbd7	1.0057324
71	0x3f836b99	1.0267211
72	0x3f82a026	1.0205123
73	0x3f7fac9e	0.9987277
74	0x3f890545	1.0704733
75	0x3f82d0a6	1.0219924
76	0x3f822857	1.0168561
77	0x3f775a0c	0.96621776
78	0x3f8dcefc	1.1078792
79	0x3f7a5ec6	0.9780086
80	0x3f834e23	1.025822
81	0x3f8a59f1	1.0808698
82	0x3f68c68f	0.90927976
83	0x3f7fa98a	0.9986807
84	0x3f84a056	1.0361431
85	0x3f84b6a3	1.0368236
86	0x3f81e54c	1.0148101
87	0x3f7beb6e	0.9840611
88	0x3f83ca7e	1.0296171
89	0x3f882c69	1.0638553
90	0x3f74fe3c	0.9570043
91	0x3f83180a	1.0241711
92	0x3f7055b6	0.93880785
93	0x3f7461c5	0.95461684
94	0x3f7875cc	0.97054744
95	0x3f726283	0.94681567
96	0x3f86ca06	1.0530403
97	0x3f88fdd7	1.0702466
98	0x3f88d7b1	1.0690824
99	0x3f85f845	1.0466391
100	0x3f905f69	1.1279117
101	0x3f7d1d02	0.9887239
102	0x3f965075	1.1743304
103	0x3f8a05d3	1.0783027
104	0x3f87adec	1.0599952
105	0x3f770c98	0.9650359
106	0x3f747589	0.95491844
107	0x3f87a133	1.0596069
108	0x3f8ac396	1.0840938
109	0x3f809790	1.0046253
110	0x3f843c5b	1.0330919
111	0x3f888f94	1.0668817
112	0x3f800597	1.0001706
113	0x3f8d1249	1.1021205
114	0x3f8e0c4a	1.10975
115	0x3f8264f4	1.0187058
116	0x3f8ab746	1.0837181
117	0x3f91ddd5	1.1395823
118	0x3f80e1d8	1.0068922
119	0x3f61eadc	0.8824899

bn1.bias f4 [120]
0	0xbdd56981	-0.10420514
1	0x3e974d3a	0.29551107
2	0x3de3c4ce	0.11121522
3	0x3e290b36	0.16508183
4	0x3da68bb2	0.081321135
5	0x3e5d477c	0.216093
6	0x3dc7bd02	0.09752847
7	0xbd17b288	-0.037035495
8	0x3d398825	0.045295853
9	0xbde665c4	-0.11249879
10	0x39ad40bb	0.0003304536
11	0xbdefb822	-0.117050424
12	0x3aca2e7c	0.001542523
13	0x3d98336f	0.07431685
14	0x3dd5aead	0.104337074
15	0xbd91e9bd	-0.0712466
16	0x3e2b0942	0.1670275
17	0xbd9f4668	-0.07777101
18	0x3c751eae	0.014960928
19	0xbd92ebdb	-0.07173892
20	0x3e08f26e	0.1337373
21	0x3db4bd90	0.08825219
22	0x3d6beed6	0.05760082
23	0x3e49e8a7	0.19717656
24	0xbdc02267	-0.09381562
25	0x3df180b6	0.11792128
26	0xbc0c8bc6	-0.008578246
27	0x3d77a536	0.06046029
28	0x3e0e3cae	0.13890335
29	0x3ddbb3c1	0.10727645
30	0x3d8aa276	0.06769268
31	0xbdd63a0a	-0.10460289
32	0x3e330698	0.17482984
33	0x3d5ce9db	0.05393396
34	0xbd996321	-0.074896105
35	0x3d2f5f1d	0.042815316
36	0xbe258229	-0.16162933
37	0xb9a2593a	-0.00030965527
38	0x3e0ad633	0.13558273
39	0x3e03fe11	0.12889887
40	0xbe080b59	-0.13285579
41	0xbdaf3d6d	-0.08556638
42	0xbe0f575b	-0.13998167
43	0x3d32bdf6	0.043638192
44	0x3e08e5d9	0.1336893
45	0x3e125ef7	0.14294039
46	0xbd4a09f1	-0.049325887
47	0x3cfe1eb1	0.031020494
48	0xbdc5ede8	-0.09664518
49	0x3e02d7e0	0.12777662
50	0x3d651af0	0.055933893
51	0xbd82d2db	-0.06387874
52	0xbdcec34c	-0.10095844
53	0xbd230fc0	-0.039809942
54	0xbd1e961a	-0.038717367
55	0x3d2046e3	0.039130103
56	0xbd86a39c	-0.06574175
57	0x3c167185	0.009182339
58	0x3d7824c4	0.060581937
59	0x3d10b271	0.035326425
60	0xbbf437b4	-0.0074529294
61	0x3de0601f	0.10955834
62	0x3e724710	0.2365992
63	0xbd9255b8	-0.07145256
64	0x3d43415c	0.047669753
65	0xbd6176f3	-0.05504508
66	0x3c85cfe9	0.01633449
67	0xbd51c1fd	-0.051210392
68	0xbde1ad5f	-0.11019396
69	0xbdc99dfd	-0.09844587
70	0xbd8d9470	-0.06913078
71	0x3d336908	0.043801337
72	0x3d212603	0.03934289
73	0xbe186662	-0.14882806
74	0x3b57c861	0.0032925832
75	0x3db3b431	0.08774603
76	0xbc8a0da9	-0.016852217
77	0xbdbc1a4d	-0.09184704
78	0xbd0843db	-0.033267837
79	0x3dbf518a	0.09341724
80	0xbc0e1eae	-0.008674307
81	0x3cd24824	0.025669165
82	0x3d7b293f	0.061318632
83	0xbde42f66	-0.11141853
84	0xbd14bf08	-0.036314994
85	0x3db245a6	0.08704691
86	0x3c8e4bb6	0.017370086
87	0x3d0ebc92	0.034847803
88	0xbdb989d2	-0.0905949
89	0xbcff197e	-0.031140085
90	0x3dee1be7	0.11626416
91	0x3d5fed55	0.054669697
92	0x3d977f45	0.073973216
93	0x3d8e49da	0.0694768
94	0x3e4da7e1	0.20083572
95	0x3af48f09	0.001865835
96	0x3cf11dc7	0.029433144
97	0x3cde73cd	0.027154827
98	0x3d20b25d	0.0392326
99	0xbad65b25	-0.0016354067
100	0xbd9db403	-0.0770035
101	0xbda9b2fa	-0.0828609
102	0x3d7a6f85	0.06114151
103	0x3d55b3fd	0.052173603
104	0x3c46fd28	0.012145318
105	0x3e03fa2d	0.12888403
106	0x3d1ebf80	0.038756847
107	0xbd78901a	-0.0606843
108	0x3de9d0b2	0.114167586
109	0x3b900738	0.004395392
110	0xbd3cca60	-0.046091437
111	0x3dc8101a	0.09768696
112	0xbddb6bbf	-0.1071391
113	0x3dc79be8	0.09746534
114	0x3d6be668	0.05759278
115	0xbbd9bf0b	-0.0066450885
116	0x3de915a3	0.1138108
117	0x3c2a2a3c	0.010386046
118	0xbbf45117	-0.0074559557
119	0x3cab735b	0.02092903

bn1.running_mean f4 [120]
0	0x3e386225	0.18006189
1	0xbd15205c	-0.036407813
2	0xbca951e1	-0.020668926
3	0x3da2e778	0.079543054
4	0x3cf2be21	0.029631676
5	0x3c44fa84	0.012022618
6	0xbe155d52	-0.1458638
7	0x3df1c88d	0.1180583
8	0xbd8c6630	-0.06855428
9	0xbdcd71e4	-0.100314885
10	0x3de0dc3a	0.10979505
11	0xbe111555	-0.14168294
12	0x3da25750	0.0792681
13	0xbd160e4f	-0.03663474
14	0x3e6a3896	0.22873148
15	0xbd9f22e2	-0.07770325
16	0xbdeb60ea	-0.11493094
17	0xbe58d5b8	-0.21175277
18	0x3d495d3e	0.04916119
19	0xbcdd5702	-0.027019028
20	0x3b4a1fe0	0.0030841753
21	0xbd8af21d	-0.06784461
22	0x3d3456eb	0.044028204
23	0xbd68e8d4	-0.056862667
24	0xbc371036	-0.011173299
25	0xbdcc5d38	-0.099787176
26	0x3d881d2a	0.066461876
27	0xbd765637	-0.060140815
28	0x3dd780c6	0.105226085
29	0xbddba464	-0.107247144
30	0xbd117dc2	-0.035520323
31	0xbe4fbdf3	-0.20287304
32	0xbdb9edca	-0.09078558
33	0xbe0ac8ee	-0.13553211
34	0xbde893a0	-0.11356282
35	0xbd616a63	-0.0550331
36	0x3dcd15bc	0.10013911
37	0xbe0f19c4	-0.13974673
38	0x3d11f747	0.035636213
39	0x3d536a34	0.051614955
40	0x3c44637e	0.011986611
41	0xbdea68c6	-0.11445765
42	0xbc715fc4	-0.014732305
43	0xbe14d93f	-0.14535998
44	0x3d690c91	0.05689675
45	0x3cdc714a	0.02690949
46	0x3ded8374	0.11597338
47	0xbcbb5baf	-0.022870867
48	0xbd581b2c	-0.052760288
49	0x3bac0bc8	0.005250428
50	0x3cbb0bca	0.02283277
51	0xbdde2a1b	-0.10847875
52	0x3dbe34d5	0.09287421
53	0x3dca24dd	0.09870312
54	0xbe13e691	-0.14443423
55	0xbc549582	-0.012975099
56	0x3e3b273d	0.18276687
57	0x3e634d78	0.2219752
58	0xbc0b27d0	-0.008493379
59	0xbc683504	-0.014172796
60	0xbd56816f	-0.05236953
61	0x3d9f274a	0.07771166
62	0x3cc206be	0.023684856
63	0x3c9ba158	0.018997833
64	0x3d6ac210	0.05731398
65	0xbe0f487b	-0.13992493
66	0x3e2a6eec	0.16643876
67	0x3dbf5dee	0.093440875
68	0x3e08c1aa	0.13355127
69	0xbd277ae5	-0.040888686
70	0xbe19b8ac	-0.15011853
71	0x3dc366ce	0.09541093
72	0x3cce4c4e	0.02518287
73	0x3dbbdae8	0.091726124
74	0x3c2129fb	0.009836669
75	0x3e1099b3	0.14121132
76	0x3e30a948	0.17252076
77	0xbb8a629e	-0.004223182
78	0x3d7b1738	0.06130144
79	0x3e35f989	0.17770971
80	0x3e021b6b	0.12705772
81	0xbc2557ce	-0.010091735
82	0x3bef0640	0.007294446
83	0x3d75883e	0.059944384
84	0x3d4d089b	0.050057035
85	0x3d59c89b	0.053169828
86	0x3dc1837f	0.09448909
87	0xbe4eb2ef	-0.20185445
88	0xbd1263e7	-0.035739806
89	0x3e18a398	0.14906156
90	0x3d0c1510	0.034199774
91	0x3d1a7434	0.037708476
92	0xbe4b7dbb	-0.19872181
93	0x3e2db083	0.16961865
94	0x3e360d76	0.17778572
95	0x3d41b666	0.04729309
96	0xbe1509cc	-0.14554518
97	0x3d76733c	0.06016849
98	0xbde8a774	-0.11360064
99	0xbdd7b4c2	-0.10532524
100	0xbd9f819d	-0.07788394
101	0xbdabbea8	-0.08385974
102	0x3ddbbd5e	0.10729478
103	0x3cf99768	0.030467704
104	0xbe3128ba	-0.17300692
105	0x3db19a5e	0.08672021
106	0x3e24596b	0.16049735
107	0xbd377292	-0.044786997
108	0xbd0c07ed	-0.034187246
109	0xbc84bcc9	-0.016203301
110	0x3e457654	0.1928342
111	0xbbbfa858	-0.0058489256
112	0xbd313c17	-0.043270197
113	0x3d7af346	0.06126716
114	0xbe420be2	-0.18949845
115	0xbd4e762c	-0.050405666
116	0x3db342fb	0.0875301
117	0x3e54b02d	0.2077033
118	0x3d860b9b	0.06545182
119	0xbd0f39a9	-0.0349671

bn1.running_var f4 [120]
0	0x3fe06751	1.753153
1	0x3fa35c02	1.2762454
2	0x3fa2bf87	1.27147
3	0x3f922137	1.1416386
4	0x3fccd6fd	1.6003109
5	0x3f9a05bf	1.2033004
6	0x3f875b93	1.0574821
7	0x3fd964ec	1.6983924
8	0x3fda1ed6	1.704066
9	0x3fd3c4ac	1.6544394
10	0x3fde557d	1.7369839
11	0x3fabd024	1.3422894
12	0x40071acd	2.1110108
13	0x3fba63ea	1.4561741
14	0x3fcecc5b	1.6156114
15	0x404a688f	3.1626318
16	0x3faab05e	1.3335073
17	0x401bdc2e	2.4353137
18	0x3fdace85	1.7094275
19	0x3fcc6c94	1.5970635
20	0x3f909ccd	1.1297852
21	0x3fc705c0	1.554863
22	0x3fa1e187	1.264695
23	0x3fcb341b	1.5875276
24	0x40166ae4	2.350274
25	0x3fb8d809	1.4440929
26	0x3ff6760d	1.9254776
27	0x3f80e9a5	1.0071303
28	0x4006e45e	2.1076884
29	0x3faaaea5	1.3334547
30	0x3ff9fbc5	1.9529959
31	0x3fc5dc35	1.5457827
32	0x3fa14b33	1.2601074
33	0x3fd73f82	1.6816256
34	0x402a2d0b	2.6589992
35	0x4018d892	2.3882184
36	0x3fb215a8	1.3912859
37	0x3fcf705a	1.6206162
38	0x3fa79dce	1.3095033
39	0x3fbbeb17	1.4681119
40	0x401b95f7	2.4310281
41	0x403b67d5	2.9282124
42	0x40283618	2.6283016
43	0x3fa422cd	1.282312
44	0x3fb6c8f4	1.4280076
45	0x3fcfc9e2	1.6233485
46	0x3fafac49	1.3724452
47	0x3f99c74c	1.2013946
48	0x3fe0ad5c	1.7552905
49	0x3fb8594d	1.4402252
50	0x3f9f3886	1.2439125
51	0x407a7bf0	3.9138145
52	0x3fb1603d	1.3857495
53	0x3feafba4	1.8358045
54	0x3fbcc1d1	1.4746648
55	0x3fab7761	1.3395807
56	0x3fdb3078	1.7124166
57	0x3fb007a1	1.3752328
58	0x3fb20235	1.3906924
59	0x3fa3be53	1.2792457
60	0x3fb7917f	1.4341277
61	0x3fa764c5	1.3077627
62	0x3fa9e14c	1.327188
63	0x3fc866d5	1.5656382
64	0x3fccc57f	1.5997771
65	0x3f8843f6	1.064574
66	0x3ff0460f	1.877138
67	0x3fc592f6	1.5435474
68	0x3f9cb87b	1.2243799
69	0x40051833	2.079602
70	0x400b4e3a	2.1766496
71	0x3fd065bf	1.628105
72	0x3feddd42	1.8583148
73	0x401d4122	2.4571004
74	0x3fb2f00a	1.3979504
75	0x3ff22f21	1.8920633
76	0x3fbe8d3f	1.4886855
77	0x3fa918a1	1.3210641
78	0x3fbdafa3	1.4819225
79	0x3faff16e	1.3745553
80	0x401cccbf	2.4499967
81	0x3fbc7302	1.4722598
82	0x3fb7877b	1.433822
83	0x3f9ef143	1.2417377
84	0x3fdd9125	1.730992
85	0x3fca57d2	1.5808051
86	0x3facf0f2	1.3511031
87	0x3fbf6d9b	1.4955324
88	0x3ff3e68a	1.905473
89	0x3fe64e6c	1.7992682
90	0x3f8a9d3c	1.0829234
91	0x3fc3b140	1.5288467
92	0x3fc15349	1.5103542
93	0x3f955056	1.1665142
94	0x3fb1b933	1.3884643
95	0x3fe19f48	1.7626734
96	0x3f75ace4	0.95966935
97	0x3ff1c698	1.8888731
98	0x3f839fee	1.0283182
99	0x402bbeaa	2.6835122
100	0x3fa8baa2	1.3181956
101	0x3fb84c40	1.439827
102	0x3fc3dcd7	1.530177
103	0x3fbff2cc	1.4995971
104	0x3fcdae0b	1.6068739
105	0x3fbb998b	1.4656233
106	0x3fb667d5	1.4250437
107	0x3f8a501c	1.0805697
108	0x3fad835f	1.3555716
109	0x3fd31c8f	1.649309
110	0x3fb20cda	1.3910172
111	0x3f9993d8	1.1998243
112	0x3fc0b4f5	1.5055224
113	0x3fba8c30	1.4574032
114	0x3fb166c9	1.3859493
115	0x4008caf6	2.1373878
116	0x3fa3da19	1.2800933
117	0x3fbbf0fd	1.4682919
118	0x3fbeaf39	1.4897224
119	0x4000b619	2.0111144

fc2.weight f4 [84, 120]
0	0x3e2ea883	0.1705647
1	0x3ce82b70	0.028341025
2	0x3d4313ef	0.047626432
3	0xbdbebff4	-0.09313956
4	0xbdb3a4b9	-0.08771653
5	0x3de22856	0.1104285
6	0xbc8a17e5	-0.016857097
7	0xbe681d48	-0.2266742
8	0xbe706ab8	-0.2347821
9	0xbe02b88d	-0.12765713
10	0xbdf18166	-0.11792259
11	0xbdd4e7b2	-0.10395755
12	0xbe2758fd	-0.1634254
13	0xbd1d4408	-0.038394958
14	0x3d7e4a9a	0.062082864
15	0x3de3bf74	0.11120501
16	0x3d169ca7	0.03677049
17	0xbe3708fc	-0.17874521
18	0x3e4682b5	0.19385798
19	0x3de70321	0.11279894
20	0xbddfb810	-0.10923779
21	0x3d1ee232	0.038789935
22	0xbe21bc24	-0.15794426
23	0x3e1dd252	0.15412262
24	0x3e63ab5f	0.22233342
25	0x3e301d54	0.17198688
26	0xbd19caf5	-0.03754707
27	0xbdf1ce31	-0.11806906
28	0x3d84d57e	0.06486033
29	0x3c895fe6	0.01676936
30	0x3dd72277	0.105046205
31	0xbdfd89fc	-0.12379834
32	0xbea08941	-0.31354716
33	0xbe4c9b4b	-0.19981115
34	0x3d99598b	0.07487782
35	0xbdcb692f	-0.099321716
36	0x3da8f094	0.08249012
37	0x3eba33a0	0.36367512
38	0xbd97574d	-0.07389698
39	0xbd3a033d	-0.045413245
40	0xbd7370b9	-0.059433673
41	0xbdd479f0	-0.1037482
42	0xbed269b2	-0.41096264
43	0xbe889751	-0.26677945
44	0xbd9c4674	-0.07630625
45	0x3cb5717d	0.022148842
46	0xbd6ec365	-0.05829181
47	0x3d250bbf	0.040294405
48	0x3de0b2a4	0.10971573
49	0x3e23afb3	0.15984993
50	0xbd7dfb2b	-0.06200711
51	0xbe4ee268	-0.20203555
52	0xbe437823	-0.19088797
53	0x3d563def	0.05230516
54	0x3d038593	0.03210981
55	0x3d1b0e2e	0.03785532
56	0xbdb002b9	-0.08594269
57	0xbe81df87	-0.2536585
58	0xbb22cf6d	-0.0024842874
59	0x3c26031a	0.010132575
60	0xbd6000db	-0.054688316
61	0xbda45485	-0.08023933
62	0x3e83d925	0.25751606
63	0x3db7edc9	0.08980901
64	0x3dc12da5	0.09432534
65	0x3e1db813	0.1540225
66	0x3e17e55e	0.1483359
67	0xbca43fca	-0.020049948
68	0x3d8efaa3	0.06981399
69	0xbe43e236	-0.19129261
70	0xbde52f87	-0.11190706
71	0x3c9af85b	0.018917253
72	0x3e0163e6	0.12635764
73	0x3db53e07	0.088497214
74	0xbe8a64ee	-0.27030128
75	0xbde23923	-0.11046054
76	0x3e5d4970	0.21610045
77	0xbdd79dbf	-0.105281346
78	0x3d82e6be	0.06391667
79	0x3d3726cc	0.044714734
80	0xbdb1161f	-0.086467974
81	0xbce19569	-0.027537065
82	0xbc58803e	-0.013214169
83	0x3d065228	0.032793194
84	0xbda2841a	-0.079353526
85	0xbe89d7f4	-0.26922572
86	0xbccb3011	-0.024803193
87	0xbd7dcc68	-0.061962515
88	0xbe6fba49	-0.23410906
89	0x3dda26d5	0.10651938
90	0x3d01ea11	0.031717364
91	0xbd2f1b49	-0.04275063
92	0xbd894359	-0.06702299
93	0xbe8e9595	-0.27848497
94	0xbcb0f390	-0.021600515
95	0xbccc149a	-0.024912167
96	0xbcd1832b	-0.025575241
97	0x3e87e608	0.26542687
98	0x3e66e71a	0.22549096
99	0xbe60068a	-0.21877494
100	0x3e1aa559	0.15102138
101	0xbdcad4f4	-0.09903899
102	0xbd1d0597	-0.03833541
103	0xbd5d2ed3	-0.053999733
104	0x3bf3331e	0.007421865
105	0xbde0b1e3	-0.10971429
106	0xbe5e0cf4	-0.21684629
107	0xbc00f471	-0.007870779
108	0xbdec4518	-0.11536616
109	0x3c919f52	0.017776165
110	0x3ddad8e4	0.106859
111	0x3e169200	0.14704132
112	0x3d8ea8c6	0.06965785
113	0xbd2ded5a	-0.042462684
114	0x3dcd4d45	0.100245036
115	0xbd20275c	-0.039100036
116	0xbd12b8b0	-0.035820663
117	0x3cb31ac9	0.021863358
118	0xbe7ad384	-0.2449475
119	0xbd968f7f	-0.073515885
120	0x3b06e576	0.0020583547
121	0x3cf549d2	0.029942427
122	0xbe0cac9e	-0.13737723
123	0xbc75c64a	-0.015000889
124	0xbe01c4e7	-0.12672769
125	0xbe3bc4ae	-0.18336746
126	0xbe1ed4d6	-0.15510878
127	0xbcb0de9c	-0.021590523
128	0x3bf8857a	0.007584271
129	0x3c75f84d	0.015012813
130	0x3d009192	0.031388827
131	0xbe833e85	-0.25633636
132	0x3da85f4c	0.082213014
133	0xbecc9468	-0.39956975
134	0x3cf15a76	0.02946208
135	0x3e1652b3	0.14679985
136	0xbd19a2ac	-0.03750865
137	0xbd976c54	-0.07393709
138	0xbbd7101d	-0.0065632
139	0x3cb78ada	0.022405077
140	0xbcd51055	-0.026008764
141	0xbdb4b83c	-0.088242024
142	0x3dc6bf25	0.09704427
143	0xbd01944a	-0.03163556
144	0x3cd60a4d	0.026127959
145	0xbd4ea885	-0.05045368
146	0xbe06e518	-0.1317333
147	0xbe1b91ac	-0.15192288
148	0x3dbc1ac7	0.09184795
149	0x3db0cdab	0.08632978
150	0x3dddff41	0.108397014
151	0xbd9dab1a	-0.07698651
152	0xbe07ef3f	-0.13274859
153	0xbe2e2308	-0.17005551
154	0x3da476da	0.08030482
155	0xbde9fd31	-0.114252456
156	0xbd0b9a64	-0.034082785
157	0xbdbb98a4	-0.09159973
158	0x3dad7d62	0.084711805
159	0x3ed0fbd9	0.40817145
160	0xbcb0585a	-0.021526504
161	0xbd4ac0a3	-0.04950012
162	0xbcf43930	-0.029812425
163	0x3dd3b6f7	0.10337632
164	0x3c2de4ac	0.010613602
165	0x3da2e824	0.079544336
166	0xbe195f63	-0.14977793
167	0x3e3d6b0d	0.18497868
168	0xbe8334fe	-0.25626367
169	0x3d937f55	0.07202021
170	0xbe1cc93e	-0.15311143
171	0x3bc50430	0.006012462
172	0x3dcc15f3	0.09965124
173	0x3da362f7	0.079778604
174	0xbdbffaf1	-0.09374035
175	0x3da09863	0.078415655
176	0x3c139bd5	0.009009321
177	0xbd00f958	-0.031487793
178	0xbc67aecf	-0.014140799
179	0xbd31ed24	-0.043439046
180	0x3d00ce80	0.031446934
181	0xbbbc9b02	-0.005755783
182	0x3e11c0da	0.14233723
183	0xbe3040bd	-0.17212196
184	0xbe0020b2	-0.12512472
185	0x3d5451bf	0.05183577
186	0x3e1082a3	0.14112334
187	0x3d21d224	0.039507046
188	0x3cfe995a	0.031078983
189	0xbdc6b346	-0.097021624
190	0xbc46e961	-0.012140603
191	0x3ea43e26	0.32078665
192	0xbd04d4cc	-0.0324295
193	0xbd285b49	-0.04110268
194	0xbd8cac5e	-0.06868814
195	0xbe320141	-0.17383291
196	0x3d657402	0.056018837
197	0xbe4775b1	-0.1947849
198	0xbdb8f528	-0.09031135
199	0xbdd242cb	-0.10266646
200	0x3d92bd25	0.07164983
201	0xbe24f662	-0.16109613
202	0xbe50d2c8	-0.20392907
203	0xbe372c66	-0.1788803
204	0x3d01a9b3	0.03165598
205	0x3e026fb3	0.12737922
206	0xbe48cbbd	-0.1960897
207	0xbdb5adb3	-0.08871021
208	0xbe268833	-0.16262893
209	0x3dab27c4	0.08357194
210	0xbdf8b324	-0.12143543
211	0x3eb18897	0.34674522
212	0x3de383ff	0.11109161
213	0xbce13316	-0.02749018
214	0xbd984a0e	-0.07436
215	0xbe48810b	-0.19580476
216	0x3d643302	0.055712707
217	0x3e4ab38b	0.19795053
218	0x3d03c3af	0.03216904
219	0xbe7efa09	-0.24900068
220	0xbe5821ce	-0.21106645
221	0xbe336f98	-0.17523038
222	0xbe6f80f9	-0.23389043
223	0xbd96c6a0	-0.073621035
224	0x3e343ddf	0.17601727
225	0xbc6ea8fe	-0.014566658
226	0x3d1c00e6	0.038086794
227	0xbd312177	-0.043244805
228	0x3dd4609d	0.1036999
229	0xbd79d576	-0.060994588
230	0xbcd8665e	-0.026416
231	0x3d5d8f48	0.05409172
232	0xbe73897d	-0.23782916
233	0x3e2056ed	0.1565816
234	0x3d860630	0.06544149
235	0x3d80e955	0.062945046
236	0x3e2a941c	0.16658062
237	0xbe2a2851	-0.16616942
238	0x3d9b6ed3	0.075894974
239	0xbe9679af	-0.29389712
240	0xbea1bc43	-0.31588945
241	0x3c8ae644	0.016955502
242	0xbe3735c2	-0.178916
243	0x3d49bbbd	0.049251307
244	0x3e841c96	0.2580306
245	0x3e81eb7d	0.25374976
246	0x3ea60e58	0.32432818
247	0x3d282628	0.041052014
248	0xbd15eb51	-0.03660137
249	0xbd0b0420	-0.03393948
250	0x3e2ecaed	0.17069598
251	0xbcc8fe97	-0.02453546
252	0x3d763b8d	0.060115386
253	0x3dcced9a	0.100062564
254	0x3e802a37	0.25032207
255	0x3ce8e216	0.028428119

fc2.bias f4 [84]
0	0x3d315ccf	0.0433014
1	0x3ae25fa2	0.0017270932
2	0xbd34fd22	-0.04418672
3	0x3d40aa89	0.047037635
4	0x3c9e7aae	0.019345608
5	0x3c9ccb14	0.019139804
6	0x3da9f0fa	0.08297916
7	0xbd9fcc6a	-0.07802661
8	0x3d35feaf	0.04443234
9	0x3caf4d3e	0.021399137
10	0x3c3b63f0	0.011437401
11	0x3ceafd38	0.028685197
12	0x3c79a7b6	0.015237739
13	0x3dad44b7	0.08460372
14	0x3cf9a80f	0.030475644
15	0x3c8d2fff	0.0172348
16	0xbcd42a0d	-0.025898958
17	0x3cdaf3fd	0.02672767
18	0x3da4381d	0.08018515
19	0xbca26aab	-0.019826254
20	0x3d1202eb	0.035647314
21	0x3c128f3a	0.008945281
22	0xbbd07ee7	-0.006362784
23	0x3d32d44a	0.043659486
24	0xbc688ed4	-0.014194209
25	0x3cb16539	0.021654712
26	0xbc37a24f	-0.011208131
27	0x3d0e5c17	0.034755792
28	0x3ba1dbe5	0.0049395435
29	0x3d25f94a	0.040520944
30	0x3d59141c	0.052997693
31	0xbcbf72b0	-0.023370117
32	0x3d8de980	0.06929302
33	0xbc55e5fc	-0.013055321
34	0xbd8b20dc	-0.06793377
35	0x3baf362e	0.005347035
36	0xbc739b3a	-0.014868552
37	0x3da30038	0.07959026
38	0xbd810d2d	-0.06301341
39	0x3d3a0942	0.045418985
40	0xbd9fb851	-0.077988274
41	0xbd38a3e4	-0.045078173
42	0x3d82679b	0.063674174
43	0x3d38d621	0.045126084
44	0x3c770248	0.0150762275
45	0xbd588f4c	-0.052871034
46	0x3d564123	0.052308213
47	0x3d5e32d1	0.05424768
48	0xbc42b8b8	-0.011884861
49	0x3d1098df	0.03530204
50	0x3da5133e	0.08060311
51	0x3db91af7	0.09038346
52	0x3d834828	0.06410247
53	0xbd92bde7	-0.07165127
54	0x3d89f40c	0.06736001
55	0x3d956228	0.072941124
56	0x3d73f409	0.059558902
57	0x3d9b2bd9	0.07576723
58	0xbd6458eb	-0.05574886
59	0xbb908fa5	-0.004411655
60	0x3db41a8b	0.08794125
61	0xbd4ca757	-0.049964275
62	0xbdb82601	-0.08991624
63	0xbda50627	-0.08057814
64	0xbdb6d461	-0.08927227
65	0x3bc59371	0.0060295393
66	0xbd78fc28	-0.06078735
67	0xbd7c07f9	-0.06153104
68	0x3d8498af	0.064744346
69	0x3d7c272f	0.061560806
70	0x3d583d28	0.0527927
71	0xbd9b044e	-0.075691804
72	0xbba36099	-0.0049858806
73	0x3d230965	0.03980388
74	0xbd7337c1	-0.059379343
75	0xbdbb3d3e	-0.091425404
76	0x3d07ba1a	0.033136465
77	0xbd4b2e79	-0.049604867
78	0x3d8d936b	0.06912883
79	0xbbd2e671	-0.006436162
80	0xbcbad7d5	-0.022807995
81	0xbc2592b9	-0.010105782
82	0xbdb2eef1	-0.08736981
83	0xbd6a09e4	-0.05713834

bn2.weight f4 [84]
0	0x3fa8d6c0	1.3190536
1	0x3fc43cc2	1.5331042
2	0x3fa1a05b	1.2627062
3	0x3fb1fdc4	1.3905568
4	0x3fab916a	1.3403752
5	0x3fc05a56	1.5027568
6	0x3fab66fa	1.3390801
7	0x3fafa3ed	1.3721901
8	0x3fc5dbce	1.5457704
9	0x3fbb7eb1	1.4648038
10	0x3fac115c	1.3442798
11	0x3fae1d2e	1.3602655
12	0x3fb60c34	1.4222474
13	0x3fc7f8f7	1.5622853
14	0x3fb8a633	1.442572
15	0x3fb8785f	1.4411734
16	0x3fb1f43c	1.390266
17	0x3fb52810	1.4152851
18	0x3fb6f4b1	1.4293424
19	0x3fa5a7b5	1.2941805
20	0x3fb48fee	1.4106424
21	0x3fb358d5	1.4011484
22	0x3fbbcc4d	1.4671723
23	0x3fb56071	1.4170057
24	0x3fb5148d	1.4146897
25	0x3fb62701	1.4230653
26	0x3fbe35c0	1.4860153
27	0x3fb880d3	1.4414314
28	0x3fc22538	1.5167608
29	0x3fbed22f	1.4907893
30	0x3faac55e	1.3341482
31	0x3fae78ae	1.3630579
32	0x3fb1e73f	1.3898696
33	0x3f9bfb86	1.2186134
34	0x3fa7331b	1.3062471
35	0x3fb523c4	1.415154
36	0x3fccc688	1.5998087
37	0x3fa5560b	1.2916883
38	0x3fa6e375	1.3038164
39	0x3fc62014	1.547854
40	0x3fbddfb7	1.4833897
41	0x3fb75626	1.4323165
42	0x3fbd5b3c	1.4793468
43	0x3fc90ade	1.5706441
44	0x3fb0df7f	1.3818206
45	0x3fa8e4e5	1.3194853
46	0x3fb84817	1.4397
47	0x3fbc3623	1.4704021
48	0x3fbc8ba1	1.4730111
49	0x3fbe219e	1.4854009
50	0x3fb3a81e	1.403568
51	0x3fb42e48	1.4076624
52	0x3fc213d7	1.5162305
53	0x3fb3c09f	1.4043158
54	0x3fb3d86c	1.4050422
55	0x3fb38c0e	1.4027116
56	0x3fb1f131	1.3901731
57	0x3fb973c0	1.4488449
58	0x3fafcfba	1.3735268
59	0x3fae76a4	1.3629956
60	0x3fc10fcd	1.5082947
61	0x3fb98966	1.4495056
62	0x3fb9e3c4	1.4522634
63	0x3fbc70e2	1.4721949
64	0x3fb61fe9	1.4228488
65	0x3fb7b6d5	1.4352671
66	0x3fc2fb76	1.523299
67	0x3fb28e3f	1.394966
68	0x3fbe8f6b	1.4887518
69	0x3fb48477	1.4102925
70	0x3f9e2fae	1.2358301
71	0x3fb45ede	1.4091451
72	0x3fb328ec	1.3996863
73	0x3faac79b	1.3342165
74	0x3fb9f6f6	1.4528491
75	0x3fa161cb	1.2607969
76	0x3fbcdffd	1.4755856
77	0x3fabbb9f	1.3416632
78	0x3fb31009	1.3989269
79	0x3fbb652b	1.4640249
80	0x3fb7eee9	1.4369785
81	0x3fb5c125	1.4199568
82	0x3fb93d14	1.4471765
83	0x3fb12dbb	1.3842081

bn2.bias f4 [84]
0	0x3ed00938	0.40632033
1	0x3edae064	0.4274932
2	0x3e5a2118	0.21301687
3	0x3ecd5cd7	0.40109894
4	0x3eec8f5e	0.4620313
5	0x3ec1d013	0.3785406
6	0x3ede9997	0.43476555
7	0x3e404291	0.18775393
8	0x3f0217b8	0.5081744
9	0x3e72ef4c	0.23724097
10	0x3eac9c2b	0.33712897
11	0x3e853a1e	0.26020902
12	0x3ea8075c	0.32818115
13	0x3eaf519f	0.3424196
14	0x3f06dd0d	0.52681047
15	0x3ed27882	0.41107565
16	0x3e9e793e	0.30951875
17	0x3ee5a9bf	0.44856068
18	0x3e9422ae	0.28932709
19	0x3edc66f7	0.43047306
20	0x3ec5086a	0.38482982
21	0x3eac3450	0.3363366
22	0x3eb2ce8b	0.34923205
23	0x3e98a982	0.29816824
24	0x3e8ba60e	0.27275127
25	0x3ea268c2	0.3172055
26	0x3ebf05e5	0.37309185
27	0x3e9ed1ca	0.3101943
28	0x3ee78be9	0.4522393
29	0x3e848c6d	0.25888386
30	0x3e953b1f	0.29146668
31	0x3ea5567c	0.32292545
32	0x3e67d9ee	0.22641727
33	0x3e76fa24	0.24118859
34	0x3e3d20d9	0.18469562
35	0x3eb18622	0.34672648
36	0x3ea8221d	0.32838526
37	0x3ea6fb40	0.32613564
38	0x3ea4e1dc	0.32203567
39	0x3ed74499	0.42044523
40	0x3e9dfac8	0.30855393
41	0x3ebb23ae	0.3655066
42	0x3ecbced9	0.3980625
43	0x3eec6fba	0.4617899
44	0x3ea0abf9	0.31381205
45	0x3e4a3e52	0.19750336
46	0x3eb92f2f	0.3616881
47	0x3ebd645c	0.3699063
48	0x3ecefd60	0.40427685
49	0x3ee4f72d	0.4471983
50	0x3e94bd78	0.29050803
51	0x3ed91bfd	0.42404166
52	0x3f0b1e50	0.5434313
53	0x3e959cfa	0.29221326
54	0x3eb5d102	0.35511023
55	0x3eb42b9e	0.35189527
56	0x3eb42062	0.35180956
57	0x3e85b9a2	0.2611819
58	0x3ea5c473	0.3237644
59	0x3e8b4985	0.27204528
60	0x3ec7e2ce	0.39040226
61	0x3eca4e59	0.395129
62	0x3ed7cbb3	0.42147598
63	0x3ead6fba	0.33874303
64	0x3e9e1922	0.3087855
65	0x3eb1ce24	0.34727585
66	0x3ebc96d9	0.36833838
67	0x3ea62b85	0.32455078
68	0x3ec650c9	0.3873351
69	0x3ea215a0	0.31657124
70	0x3e348b77	0.17631327
71	0x3eadf6ee	0.33977455
72	0x3ea2b947	0.3178198
73	0x3e639a4a	0.22226825
74	0x3e9fdad4	0.3122164
75	0x3e80af20	0.2513361
76	0x3eff4754	0.49859107
77	0x3ebf4866	0.37359923
78	0x3e9d0cac	0.3067373
79	0x3efff3b1	0.4999061
80	0x3ec3a7f2	0.3821407
81	0x3eb723c4	0.35769475
82	0x3eb98a2e	0.36238235
83	0x3ea8c515	0.32962862

bn2.running_mean f4 [84]
0	0xbf754d1d	-0.9582079
1	0xbf95dff5	-1.1708971
2	0x3f055c47	0.5209393
3	0xc0105c98	-2.2556515
4	0xbf2e605e	-0.68115795
5	0xc02cb57e	-2.6985774
6	0xbf83ff42	-1.0312274
7	0xbfc9b620	-1.5758705
8	0xbf5b60f8	-0.8569484
9	0x3f1a72ba	0.6033131
10	0xbed51237	-0.4161546
11	0xbefef2b0	-0.4979453
12	0xbf3e26e7	-0.7427811
13	0xc00aaee8	-2.1669254
14	0xbe492388	-0.1964246
15	0xbf151609	-0.5823675
16	0xc01734a6	-2.3625884
17	0xbfed7690	-1.8551807
18	0xbf488201	-0.7832337
19	0xc036b5da	-2.8548493
20	0xbfa091b2	-1.2544463
21	0xbf083120	-0.5319996
22	0xbd4987b7	-0.049201693
23	0xbfcc7c4f	-1.5975436
24	0x3f6dd396	0.9290098
25	0xbfc87bf4	-1.5662827
26	0xbfa0c122	-1.255894
27	0xbf00360e	-0.5008248
28	0xbf48ef47	-0.7849011
29	0xbf381b90	-0.7191706
30	0xbf36ba68	-0.71378183
31	0xc0324f5e	-2.7860942
32	0x3d3e93e6	0.046527766
33	0xc027490e	-2.613834
34	0xbf930168	-1.1484804
35	0x3f0b01c0	0.54299545
36	0x3f18db2d	0.59709436
37	0xbe2ea699	-0.1705574
38	0xbdd40f64	-0.10354498
39	0xbf956ac7	-1.1673211
40	0xbfe267c5	-1.7687918
41	0xbf23d4bf	-0.639965
42	0x3eb49804	0.3527223
43	0xc0110ce5	-2.266412
44	0x3f3af0d8	0.7302375
45	0xbfc144c6	-1.5099113
46	0xbf78fde9	-0.97262436
47	0xbfae3a89	-1.3611614
48	0xbdcdaf8b	-0.10043248
49	0xc0018ea6	-2.0243316
50	0x3f4f8f14	0.81077695
51	0xbe2ab709	-0.16671385
52	0xbf3ee587	-0.7456898
53	0x3dd651b9	0.10464806
54	0xbfc5cfb7	-1.5454015
55	0xbf9195a7	-1.1373795
56	0xbfcb6bd1	-1.5892278
57	0x3fd45338	1.6587896
58	0xbec5ff9b	-0.38671574
59	0xbf60a1d3	-0.87746924
60	0x3a867804	0.0010259156
61	0xbff81ce2	-1.9383814
62	0xbea846c2	-0.32866484
63	0xc0198256	-2.39858
64	0xbfdd81c3	-1.7305225
65	0xbe88bfcd	-0.26708832
66	0x3f4f104f	0.8088426
67	0xc014ede0	-2.3270187
68	0xc044eabb	-3.0768268
69	0xbf18a2b9	-0.59623295
70	0xbeeb2f12	-0.4593435
71	0xbfeb947f	-1.8404692
72	0xbf18927f	-0.59598535
73	0xbecc7429	-0.39932373
74	0xbfc12087	-1.5088052
75	0xbfab8c47	-1.3402184
76	0xbf6836a8	-0.907084
77	0xbf0bb2b7	-0.5456957
78	0xbfbe93a5	-1.4888808
79	0xc02f37c5	-2.737779
80	0xbe0a4f59	-0.13506831
81	0x3f25775b	0.64635247
82	0xbfe07d9a	-1.753833
83	0xbe9123fe	-0.28347772

bn2.running_var f4 [84]
0	0x40528deb	3.289912
1	0x406599fc	3.5875235
2	0x403c7bd4	2.9450579
3	0x407bc320	3.9337845
4	0x4021a603	2.5257576
5	0x405d0517	3.4534357
6	0x404bbcf9	3.183409
7	0x404ec8d6	3.231008
8	0x406c743e	3.6945949
9	0x40a8b1ab	5.271688
10	0x4083e6c8	4.1219215
11	0x409a4959	4.8214536
12	0x40d69390	6.705513
13	0x406eb9f9	3.7301009
14	0x4032ab04	2.791688
15	0x402f0024	2.7343836
16	0x4043f4d5	3.0618184
17	0x4062fd59	3.546713
18	0x40222af3	2.5338714
19	0x402cd117	2.7002618
20	0x40728922	3.78962
21	0x408261cb	4.0744376
22	0x40826dd1	4.0759053
23	0x4083bd4b	4.116857
24	0x40a8a614	5.270273
25	0x408379bd	4.1086106
26	0x404f560a	3.2396264
27	0x4082b5bf	4.084686
28	0x40807b48	4.015049
29	0x408d6f6a	4.4198503
30	0x40666dc1	3.6004488
31	0x4050c11e	3.261787
32	0x40778238	3.867323
33	0x40140a74	2.313138
34	0x40b47034	5.6386967
35	0x40833274	4.099909
36	0x40832a30	4.0989
37	0x40966d26	4.700824
38	0x40597588	3.3977985
39	0x406e3844	3.7221842
40	0x407ed5fb	3.9818103
41	0x4080f3b5	4.0297494
42	0x408325d0	4.098366
43	0x4038920b	2.8839138
44	0x404d2cd4	3.205861
45	0x409f4aa5	4.977862
46	0x4094e3f2	4.6528254
47	0x403cc7dc	2.9496984
48	0x4048d034	3.1377077
49	0x40601b99	3.5016844
50	0x40a74a61	5.2278295
51	0x4073c74b	3.8090389
52	0x4077653a	3.8655534
53	0x40758bab	3.8366497
54	0x406b0aeb	3.6725414
55	0x403f0d1b	2.985175
56	0x40578d64	3.3680048
57	0x409591b1	4.6740346
58	0x408f8f6b	4.486257
59	0x409b9f30	4.863182
60	0x4081187f	4.0342402
61	0x4084f80b	4.1552787
62	0x4075766e	3.8353534
63	0x40496917	3.1470392
64	0x408b170b	4.346563
65	0x40476b4a	3.1159234
66	0x40879ce0	4.2379
67	0x4030d04e	2.762714
68	0x403d8df7	2.9617898
69	0x40680e6c	3.6258802
70	0x40a4bf65	5.1483636
71	0x403e545f	2.9738996
72	0x4062a7e8	3.5414982
73	0x4062ef64	3.5458612
74	0x4078d9b7	3.8882883
75	0x404adc74	3.1697054
76	0x405526ff	3.3305051
77	0x409633d1	4.6938252
78	0x406a51ce	3.661243
79	0x404b280d	3.1743195
80	0x40d668b6	6.700282
81	0x407a06a6	3.9066558
82	0x402fe6b3	2.7484558
83	0x407b52f1	3.9269373

fc3.weight f4 [46, 84]
0	0x3c1c21f3	0.0095295785
1	0xbece324e	-0.40272754
2	0x3cd3b57a	0.02584337
3	0xbef288dc	-0.4737004
4	0xbe06135e	-0.13093325
5	0xbe2ad82a	-0.16684023
6	0x3e12e3f5	0.14344771
7	0xbde2e4ea	-0.11078818
8	0x3ee2f775	0.4432942
9	0xbde5d65a	-0.11222525
10	0x3e156261	0.1458831
11	0x3e4be310	0.19910836
12	0x3d8a9d7c	0.06768319
13	0xbe901e24	-0.28147995
14	0x3e2cb5e1	0.16866256
15	0xbe4ec488	-0.20192158
16	0xbe1c3f27	-0.15258466
17	0x3ea7ffab	0.32812247
18	0xbdf6a666	-0.12043457
19	0xbe446f94	-0.19183189
20	0x3e1bf1fc	0.15229028
21	0xbe8a440e	-0.27005047
22	0x3e2d4425	0.16920526
23	0x3e0f6669	0.1400391
24	0x3e845d87	0.25852606
25	0xbec70e96	-0.38878316
26	0x3db242f5	0.08704177
27	0xbd008bf8	-0.031383485
28	0xbe26080a	-0.16214004
29	0xbe772d66	-0.24138412
30	0x3d0519d9	0.032495353
31	0xbe943467	-0.2894623
32	0xbe1eed3e	-0.15520188
33	0xbe4b6a97	-0.1986488
34	0x3c8e851c	0.017397456
35	0xbf02dac0	-0.51115036
36	0xbeaaa841	-0.33331493
37	0x3ea1540c	0.31509435
38	0xbe5d3b8c	-0.21604747
39	0x3cbb4917	0.022862
40	0xbc94e8a8	-0.018177345
41	0x3d933e1a	0.07189579
42	0xbe8d4cb8	-0.27597594
43	0xbe548ec9	-0.20757593
44	0xbb8d021f	-0.0043032314
45	0x3dc536f7	0.09629624
46	0xbd0d6dde	-0.034528606
47	0x3e679fff	0.22619627
48	0xbee1b2c3	-0.44081697
49	0xbe07299a	-0.13199463
50	0x3ee681c3	0.45020875
51	0x3e80992f	0.2511687
52	0x3e38e4dd	0.18056054
53	0xbe4f4e2e	-0.20244667
54	0xbea305fd	-0.31840506
55	0xbf0f8f72	-0.56078255
56	0xbe3c9a7e	-0.18418309
57	0xbe046efa	-0.12932959
58	0xbd5260b2	-0.051361747
59	0xbea87145	-0.32898918
60	0x3dc76e64	0.09737852
61	0xbe5c93f5	-0.21540816
62	0xbe891050	-0.26770258
63	0xbe622a3d	-0.22086425
64	0xbe47bde0	-0.19506025
65	0xbe8f4893	-0.27985057
66	0xbe22b52a	-0.15889421
67	0xbe3a3b63	-0.18186717
68	0x3cbd34b4	0.02309642
69	0x3ef2828f	0.47365233
70	0xbc2edc3e	-0.010672627
71	0x3dc4d45c	0.09610817
72	0x3d505ec4	0.050871626
73	0x3d977866	0.07396011
74	0xbe7ed1df	-0.24884747
75	0xbb210f26	-0.002457568
76	0x3d116370	0.03549522
77	0x3ec271a6	0.37977332
78	0xbe02d85a	-0.12777844
79	0xbd9f2490	-0.077706456
80	0x3e1570ba	0.14593783
81	0xbe3eeb73	-0.18644504
82	0xbdfce29f	-0.12347912
83	0xbe899806	-0.26873797
84	0x3e1e6b2e	0.15470573
85	0xbe8bb987	-0.27289984
86	0x3d7676d7	0.06017193
87	0xbeef79d9	-0.4677265
88	0xbe4dde6b	-0.20104377
89	0xbe441a7d	-0.1915073
90	0x3e269c85	0.16270645
91	0xbe05d9cf	-0.13071369
92	0x3e95c667	0.2925293
93	0xbe08ee0a	-0.13372055
94	0x3e617ad8	0.22019517
95	0x3ea1cc55	0.31601205
96	0xbdb98602	-0.09058763
97	0xbe6f6ede	-0.23382136
98	0x3e6066fe	0.21914288
99	0xbe915c95	-0.28390947
100	0xbdf7ff0e	-0.12109195
101	0x3ea15ef8	0.31517768
102	0xbd8c5990	-0.0685302
103	0xbddb784b	-0.107163034
104	0x3e147b6b	0.14500205
105	0xbeab23e0	-0.33425808
106	0x3e236800	0.15957642
107	0x3e43e08c	0.19128627
108	0x3e889ca0	0.26681995
109	0xbec3d87d	-0.38251105
110	0x3dcf5851	0.10124267
111	0xbe3ffa29	-0.18747772
112	0xbdc00679	-0.093762346
113	0xbe5ca884	-0.21548659
114	0xbd392edb	-0.0452107
115	0xbe996fdd	-0.29968157
116	0x3c955445	0.01822866
117	0xbe2dd81d	-0.16976972
118	0xbd91b0af	-0.07113778
119	0xbea28a5d	-0.31746188
120	0xbe66c9df	-0.22537945
121	0x3eb3951a	0.35074693
122	0xbe813d83	-0.25242242
123	0xbd001f8f	-0.031280097
124	0x3d33f5f5	0.043935735
125	0x3cf0e815	0.02940754
126	0xbe21c344	-0.15797144
127	0xbeae5014	-0.3404547
128	0x3dcd0eb5	0.10012571
129	0xbd9416fe	-0.07230948
130	0xbe13a3b5	-0.14417918
131	0x3e8acebe	0.27110857
132	0xbeb6fc2a	-0.3573926
133	0x3ba81ae0	0.005130157
134	0x3ebe7ef3	0.3720623
135	0x3e70d4a2	0.23518613
136	0x3e6006cf	0.21877597
137	0xbe02c88b	-0.12771814
138	0xbf097970	-0.53700924
139	0xbf134cef	-0.57539266
140	0xbdfdedb9	-0.123988576
141	0xbe48d9fe	-0.19614407
142	0xbe129d5a	-0.14317837
143	0xbe6a507d	-0.22882266
144	0x3e092de9	0.1339642
145	0xbe87caec	-0.26522005
146	0xbda18889	-0.0788737
147	0xbed6937e	-0.41909403
148	0xbea5a7da	-0.32354623
149	0xbe723769	-0.2365395
150	0xbd3a9e0b	-0.045560878
151	0xbe11e068	-0.1424576
152	0xbce849c4	-0.028355487
153	0x3e79ac48	0.24382126
154	0x3dc6d6c9	0.09708936
155	0xbd02b6f7	-0.03191277
156	0xbd7e9d6c	-0.062161848
157	0xbcf9f169	-0.030510621
158	0xbdb3d0e7	-0.08780079
159	0xbc2eceed	-0.010669452
160	0x3e20a94a	0.15689579
161	0x3e344c92	0.17607334
162	0xbd7e4edb	-0.06208692
163	0xbe17a56d	-0.14809199
164	0x3e1e82f4	0.15479642
165	0xbc25d38a	-0.010121236
166	0xbe4251f5	-0.18976577
167	0xbe31b1b1	-0.1735294
168	0x3d5e19c4	0.05422379
169	0x3e7f6daf	0.24944185
170	0x3c5adea8	0.013358749
171	0x3e7f0fd9	0.24908389
172	0x3db59c5a	0.08867712
173	0xbc91d9d4	-0.017804064
174	0xbe657bf1	-0.22410561
175	0xbe6de63a	-0.23232356
176	0xbf38d001	-0.7219239
177	0xbce8fac3	-0.028439885
178	0xbd64125c	-0.05568157
179	0xbf221626	-0.63315046
180	0xbe774994	-0.24149162
181	0xbe32d04b	-0.1746227
182	0xbe90b841	-0.28265575
183	0x3e27a630	0.16371989
184	0x3d531bdd	0.051540244
185	0xbece78e8	-0.4032662
186	0x3df08644	0.11744359
187	0xbe6713b3	-0.22566108
188	0xbe0c3d7d	-0.13695331
189	0x3eb99087	0.36243078
190	0xbe846b48	-0.258631
191	0xbef55625	-0.47917286
192	0xbf10ba22	-0.56534016
193	0x3db3b17f	0.08774089
194	0xbdf3256a	-0.118723705
195	0x3d967c1c	0.07347891
196	0xbde92a69	-0.11385042
197	0x3e1669a2	0.14688733
198	0x3ce2c270	0.027680606
199	0xbc8ed005	-0.017433176
200	0xbd8bfc6a	-0.068352535
201	0x3df58606	0.119884536
202	0xbe211231	-0.15729596
203	0x3ea4840c	0.32131994
204	0x3e81c1ab	0.2534307
205	0xbf175943	-0.5912058
206	0x3dec671b	0.11543103
207	0xbe2e5970	-0.17026305
208	0xbe01d405	-0.12678535
209	0x3e3dc26a	0.18531194
210	0x3e23b1fd	0.15985866
211	0x3e61e72b	0.2206084
212	0x3e37fbee	0.17967197
213	0xbe82d30d	-0.25551644
214	0xbeb2624e	-0.34840626
215	0xbe39f1c9	-0.1815864
216	0x3e5de50a	0.21669403
217	0xbca35c7b	-0.019941559
218	0xbef168fd	-0.47150412
219	0xbec9e006	-0.3942873
220	0xbe64c2d7	-0.2233995
221	0x3e9abb16	0.3022086
222	0x3e33d6b7	0.17562376
223	0x3ecaab21	0.39583686
224	0x3d9063c9	0.070502825
225	0x3ea6fa44	0.32612813
226	0x3dd8a86f	0.10579001
227	0xbd411456	-0.047138534
228	0xbe8d1662	-0.2755614
229	0xbe34455d	-0.17604585
230	0xbddef5fc	-0.108867615
231	0x3dc27b9c	0.09496233
232	0x3e0b921c	0.13629955
233	0xbc8b3948	-0.016995087
234	0xbd9a81b4	-0.0754427
235	0xbdde7931	-0.10862959
236	0xbf0192b1	-0.5061446
237	0xbf05a70f	-0.52208036
238	0x3c537aa4	0.012907658
239	0xbdd52e32	-0.10409202
240	0xbd329c11	-0.043605868
241	0x3d8106e7	0.06300145
242	0x3e9481e6	0.29005355
243	0x3c7576ef	0.014981969
244	0xbe5e0fd6	-0.21685728
245	0xbf0e8302	-0.5566865
246	0xbe36a776	-0.17837319
247	0xbdb8f3d4	-0.090308815
248	0xbca6e84e	-0.020374443
249	0x3d9f9ec9	0.07793958
250	0xbe093361	-0.13398506
251	0x3e9b33a0	0.30312824
252	0x3e954156	0.2915141
253	0xbd972398	-0.07379836
254	0xbba9d8b4	-0.0051833037
255	0xbea4421f	-0.32081696

fc3.bias f4 [46]
0	0xbaefc29f	-0.0018292255
1	0x3a4f7054	0.00079131615
2	0xbe517334	-0.20454103
3	0xbd6fc66e	-0.058538847
4	0xbdf68c63	-0.120384954
5	0xbd3963ca	-0.045261182
6	0xbe0d5b37	-0.13804327
7	0xbc4bb6b8	-0.0124337
8	0xbdafd2f9	-0.08585162
9	0xbd92ac2b	-0.07161745
10	0x3d065508	0.032795936
11	0x3d98b074	0.07455531
12	0xbe3fabca	-0.18717876
13	0xbd292cac	-0.041302368
14	0xbd7ed0c4	-0.062210813
15	0xbd32b78e	-0.043632083
16	0x3be6962b	0.0070369444
17	0xbdd564ba	-0.10419603
18	0xbdf71122	-0.12063815
19	0xbd911c0c	-0.07085428
20	0x3dac2902	0.08406259
21	0x3d7af6af	0.061270412
22	0xbe1b5276	-0.15168175
23	0xbdc00244	-0.09375432
24	0xb9fdf8ea	-0.00048441376
25	0x3ccebd3f	0.025236724
26	0xbdc8293d	-0.097734906
27	0xbd0d435f	-0.03448808
28	0xbd14b954	-0.036309555
29	0xbdbb11cf	-0.09134256
30	0xbdf42155	-0.1192042
31	0xbce26690	-0.027636796
32	0x3ba3bbea	0.0049967663
33	0x3db023cc	0.08600578
34	0xbdf27c4c	-0.11840114
35	0xbde3a955	-0.11116282
36	0xbbcd6a99	-0.006268811
37	0xbe108ba3	-0.14115767
38	0xbcf15fbb	-0.029464593
39	0xbe503e3c	-0.2033624
40	0x3d1f6131	0.03891105
41	0xbd90e72e	-0.07075344
42	0xbd9bf128	-0.07614356
43	0x3b6a7074	0.0035772594
44	0x3dbd6766	0.09248237
45	0xbdf5c9d8	-0.12001389
