mp4-machine-learning-template/model/model.pth (torch, 99326 bytes, 14 tensors)

fc1.weight f4 [120, 49]
0	0xbcf57db4	-0.029967166
1	0xbe0e46cf	-0.13894199
2	0xbcde3f2f	-0.027129738
3	0x3ecdfbf1	0.4023128
4	0xbaec7bb6	-0.001804224
5	0xbe9b00e4	-0.30274117
6	0xbd973dd0	-0.07384837
7	0x3da7d8e2	0.08195664
8	0xbd86d677	-0.06583875
9	0xbe1efc91	-0.15526034
10	0x3d3133ac	0.04326217
11	0xbe4214b0	-0.18953204
12	0x3ea9f78c	0.33196676
13	0xbeaa0538	-0.33207107
14	0xbcd618bd	-0.026134843
15	0x3f129e2a	0.5727259
16	0xbe2026fe	-0.15639874
17	0xbd301256	-0.042986237
18	0x3e31603a	0.17321864
19	0xbe7ff66b	-0.24996345
20	0x3b6bedf0	0.0035999976
21	0xbd01fba0	-0.03173411
22	0xbd45eb05	-0.048319835
23	0xbe405a65	-0.18784483
24	0x3e47818b	0.1948301
25	0xbeda58c7	-0.42645857
26	0xbe938c72	-0.2881809
27	0xbe847ff9	-0.25878885
28	0x3d1c4370	0.03815025
29	0xbe380a40	-0.1797266
30	0xbdef6989	-0.11690051
31	0xbd07f511	-0.033192698
32	0x3eafa9e1	0.34309295
33	0x3efa0a5a	0.48836023
34	0x3e343580	0.17598534
35	0x3f08f76b	0.5350253
36	0x3db7e27d	0.08978746
37	0x3e5aaf74	0.21355993
38	0x3c0f6fd6	0.008754691
39	0xbe32bb35	-0.17454226
40	0xbe21bc6d	-0.15794535
41	0xbe8cda55	-0.27510324
42	0x3c251ee4	0.010078166
43	0xbd9572b2	-0.07297267
44	0xbd5f07a8	-0.05445066
45	0xbbc548b3	-0.0060206293
46	0x3e6af0fa	0.22943488
47	0x3caad54f	0.020853667
48	0xbe5702f0	-0.20997214
49	0xbe3da495	-0.18519814
50	0xbe7aea5f	-0.24503468
51	0x3c0fb357	0.008770785
52	0xbeb93734	-0.3617493
53	0xbe2267a5	-0.1585985
54	0xbbbd969e	-0.0057857772
55	0xbdf97843	-0.12181141
56	0xbcd0aa14	-0.025471725
57	0x3dcb55c6	0.09928469
58	0xbd39ccb3	-0.045361232
59	0xbe8b5ede	-0.27220815
60	0x3d8dfe1f	0.069332354
61	0xbec7b120	-0.39002323
62	0xbe2937e5	-0.16525228
63	0xbb9ffb75	-0.004882271
64	0x3e268ac8	0.16263878
65	0xbe02b3bb	-0.12763874
66	0xbde823bf	-0.11334943
67	0x3e3dd23e	0.18537232
68	0xbed337c6	-0.4125349
69	0xbd8424be	-0.064523205
70	0xbeb64741	-0.35601237
71	0xbe8f42d9	-0.27980688
72	0x3ecaca84	0.39607632
73	0x3e5115dd	0.20418496
74	0x3e74d011	0.23907496
75	0xbd626acc	-0.05527763
76	0x3e1418eb	0.1446263
77	0xbf0f5d9b	-0.56002206
78	0x3c53ba10	0.012922779
79	0x3b4f6b20	0.0031649545
80	0x3ece9276	0.40346116
81	0xbe99957d	-0.29996863
82	0xbe1be454	-0.15223819
83	0x3dc4aeec	0.09603676
84	0x3efe0aaa	0.4961751
85	0xbcf407b9	-0.029788839
86	0xbc8290cb	-0.015938183
87	0xbdda62fe	-0.106634125
88	0x3ce01355	0.027352968
89	0x3e07d667	0.13265382
90	0xbc7b1477	-0.015324703
91	0xbcf941f3	-0.030426955
92	0xbdaa4118	-0.08313197
93	0xbcdf1550	-0.027231842
94	0x3d21e1aa	0.03952185
95	0xbe1fb867	-0.15597688
96	0xbe806d95	-0.25083604
97	0x3df0329f	0.11728405
98	0x3db4b9f1	0.08824528
99	0x3ca740d4	0.020416655
100	0xbcc533b8	-0.024072513
101	0x3d99cd5c	0.07509872
102	0x3e19f7f9	0.15036
103	0xbccda666	-0.025103759
104	0xbe108a0a	-0.14115158
105	0x3ee280a0	0.44238758
106	0x3cfbb50b	0.030725976
107	0xbe2eb516	-0.17061266
108	0xbde64aaf	-0.112447135
109	0xbe9d7a6a	-0.30757457
110	0x3c3c3552	0.011487322
111	0xbe557fa2	-0.2084947
112	0xbc649213	-0.013950842
113	0xbd81b758	-0.06333798
114	0xbd0bbc47	-0.034115102
115	0xbe1c469e	-0.15261313
116	0x3c88ad8c	0.016684316
117	0x3f280d76	0.6564554
118	0xbe274970	-0.16336608
119	0xbcefa6af	-0.029254286
120	0xbdb52930	-0.088457465
121	0x3bc8f28c	0.0061324295
122	0x3d8ddbc1	0.0692668
123	0x3d84802d	0.0646976
124	0xbd4c32d0	-0.049853146
125	0xbf09dcd8	-0.53852606
126	0x3e6764a7	0.2259699
127	0xbdf6689d	-0.12031672
128	0x3df028c4	0.117265254
129	0x3e9cc134	0.30616152
130	0x3ddeef30	0.10885465
131	0x3e11dce6	0.14244422
132	0xbe479674	-0.19490987
133	0xbe14bc55	-0.14524968
134	0xbe661c69	-0.22471775
135	0xbdc32104	-0.095277816
136	0x3ed44c42	0.4146443
137	0xbeb6addf	-0.35679528
138	0xbe43d506	-0.1912423
139	0xbe50223c	-0.2032556
140	0x3c0b7a72	0.00851308
141	0x3e35d7d0	0.17758107
142	0xbda81df5	-0.08208839
143	0x3d0c7ea4	0.03430046
144	0x3e42fb49	0.1904117
145	0x3c7e3784	0.015516166
146	0x3cfe566e	0.031047072
147	0xba702714	-0.00091610965
148	0xbd4ac376	-0.049502812
149	0xbdb96638	-0.090527
150	0xbdb25a08	-0.08708578
151	0xbd8dfe3d	-0.06933258
152	0x3d95e418	0.07318896
153	0x3cd2630c	0.025681995
154	0xbd96f4fa	-0.07370944
155	0x3c2a2ff9	0.010387414
156	0x3d5a1773	0.05324502
157	0x3c9fe6e5	0.019519279
158	0xbccba71f	-0.024859963
159	0xbcb9fa2f	-0.022702305
160	0xbd25b61b	-0.040456872
161	0xbd86f37b	-0.06589409
162	0xbe002073	-0.12512378
163	0xbd43cf37	-0.047805037
164	0x3aae78d7	0.001331116
165	0xbd14ba15	-0.036310274
166	0x3c6c42c8	0.014420219
167	0x3e1e7c7e	0.15477178
168	0xbd46f156	-0.04857
169	0x3d033a45	0.032037992
170	0xbd9cf526	-0.07663946
171	0xbcc1e0cb	-0.02366676
172	0xbd3de820	-0.04636395
173	0xbe1d3ab7	-0.15354429
174	0x3d50fe6e	0.051023893
175	0x3d7882ec	0.06067173
176	0xbe018e30	-0.12651896
177	0xbe6dc64d	-0.23220177
178	0xbea3fcc8	-0.32028794
179	0xbf01f5c7	-0.5076565
180	0xbdc53461	-0.09629131
181	0xbf22c270	-0.6357794
182	0x3f02b151	0.51051813
183	0xbf46b863	-0.776251
184	0xbe03c55b	-0.12868254
185	0xbdc47806	-0.09593205
186	0xbe47ae37	-0.19500051
187	0x3d9ccba3	0.07656028
188	0xbddbfb22	-0.10741259
189	0xbe756dc0	-0.23967648
190	0xbd63317d	-0.055467118
191	0x3b7ab641	0.0038255604
192	0xbd8e1cc6	-0.06939082
193	0xbee5ff30	-0.44921255
194	0xbfbad634	-1.459662
195	0x3e1039b4	0.14084512
196	0x3d56bcbd	0.05242609
197	0x3cb4ba57	0.02206151
198	0x3c52ff10	0.012878194
199	0xbc92fdf6	-0.017943364
200	0xbdd5add1	-0.104335435
201	0xbdea673c	-0.11445472
202	0x3c08edfa	0.008357519
203	0xbe057e4a	-0.13036457
204	0xbddb91af	-0.10721146
205	0x3cf990a2	0.030464474
206	0x3d6f96e5	0.058493514
207	0x3d4ff758	0.050772995
208	0x40275b95	2.6149647
209	0x3c3f65b6	0.011681965
210	0xbdfc36f3	-0.12315168
211	0xbd17ab86	-0.037028812
212	0xbd8e4695	-0.06947056
213	0xbce0d289	-0.027444141
214	0xbcdab543	-0.02669776
215	0x3c5f6f7c	0.01363742
216	0xbd71641b	-0.05893336
217	0x3c20840d	0.009797108
218	0xbdab1b3d	-0.08354805
219	0x3d5b0ccc	0.053479
220	0xbdd20ad5	-0.10255972
221	0x3a6d3ef3	0.00090502127
222	0xbd1db07e	-0.038498394
223	0xbd30881f	-0.043098565
224	0xbe0919b9	-0.13388719
225	0xbdb86a59	-0.09004659
226	0xbd0b6700	-0.034033775
227	0xbd806686	-0.06269555
228	0xbe0f995f	-0.1402335
229	0xbd02ae54	-0.031904534
230	0xbe0f8f42	-0.14019492
231	0x3ddc4ff6	0.10757439
232	0xbda4fb9e	-0.08055805
233	0x3a6d2503	0.00090463477
234	0x3e253ca4	0.16136414
235	0xbd13db1c	-0.03609763
236	0xbe0902cc	-0.13379973
237	0x3e841fb5	0.2580544
238	0xbce659b1	-0.02811894
239	0x3dabbca5	0.083855905
240	0x3dc68b8d	0.09694586
241	0x3d4e993d	0.05043911
242	0x3e40cf56	0.18829092
243	0x3e0a9d73	0.13536625
244	0xbe704fb8	-0.2346791
245	0x3bd5887e	0.0065165153
246	0xbcb5f542	-0.022211675
247	0xbe338eb4	-0.17534906
248	0x3e3b29f2	0.1827772
249	0xbaab1130	-0.0013051387
250	0x3d22f2aa	0.039782204
251	0x3d9663ef	0.073432796
252	0x3e3133b0	0.17304873
253	0x3d9441f2	0.072391406
254	0xbd609bc2	-0.054836042
255	0x3d314520	0.043278813

fc1.bias f4 [120]
0	0x3d8cd6df	0.06876921
1	0xbe0aebb4	-0.13566476
2	0x3e030810	0.12796044
3	0x3d75c3fc	0.06000136
4	0xbe047cb9	-0.12938203
5	0xbdcb5c9a	-0.09929772
6	0xbe06c868	-0.13162386
7	0x3df680c7	0.12036281
8	0xbdd61610	-0.10453427
9	0xbd3c77d3	-0.04601271
10	0xbe04baf6	-0.12961945
11	0x3d8ef5bd	0.069804646
12	0xbdd3c595	-0.1034042
13	0x3df15ef1	0.11785687
14	0x3c6cdc3d	0.014456806
15	0xbd4aa310	-0.049471915
16	0xbcc54707	-0.02408172
17	0x3e00c5ac	0.12575406
18	0xbdab4848	-0.08363396
19	0xbde658c7	-0.11247402
20	0x3d96f700	0.0737133
21	0xbd0b4220	-0.03399861
22	0xbe0bf1bf	-0.13666438
23	0x3e02bc8d	0.12767239
24	0xbdf26ee1	-0.11837555
25	0xbc141090	-0.009037152
26	0x3e09afc8	0.13445961
27	0x3e075833	0.13217239
28	0xbdd900c9	-0.10595853
29	0xbe09a731	-0.13442685
30	0xbe0b8484	-0.1362477
31	0xbc8862e5	-0.01664872
32	0xbdf04e20	-0.11733651
33	0xbe051829	-0.12997498
34	0x3d91d7e8	0.07121259
35	0xbc2a1c0d	-0.010382664
36	0x3cb7fa9f	0.022458373
37	0x3c8a4108	0.016876712
38	0xbd9c49ef	-0.07631289
39	0x3d7802a1	0.060549382
40	0xbda914d9	-0.082559295
41	0xbe11390d	-0.1418192
42	0x3d39a7e1	0.045326117
43	0xbde8e668	-0.113720715
44	0xbdc5d1cc	-0.09659156
45	0x3de31c35	0.110893644
46	0x3d96db87	0.0736609
47	0x3e03b0d3	0.12860422
48	0xbd7378e8	-0.059441477
49	0x3e0bd1b9	0.13654222
50	0xbdaca772	-0.08430375
51	0x3e098856	0.13430914
52	0xbcf319d3	-0.0296754
53	0x3d17d5f1	0.037069265
54	0xbe09284e	-0.13394281
55	0x3d5636ce	0.05229836
56	0x3db485fd	0.08814619
57	0xbe057171	-0.13031556
58	0x3e0e9df3	0.1392744
59	0x3cac8b45	0.021062503
60	0x3dcc5e8c	0.09978971
61	0xbcc2aa70	-0.023762912
62	0x3d221a7c	0.03957604
63	0x3c1951c4	0.009357873
64	0xbe09f099	-0.13470687
65	0xbdd9bf49	-0.10632188
66	0x3e0733a3	0.13203292
67	0x3d97789f	0.073960535
68	0xbbaeed30	-0.0053383335
69	0xbdc3d1ba	-0.095614865
70	0xbd05ac44	-0.03263499
71	0xbd93c58e	-0.07215415
72	0xbd036f40	-0.03208852
73	0xbd0e3a1b	-0.034723382
74	0x3c7da009	0.01548005
75	0x3e0d6031	0.13806225
76	0x3dffe61a	0.1249506
77	0x3d67fb23	0.056635987
78	0xbaaccabd	-0.0013182979
79	0x3dc389ca	0.095477656
80	0x3d0d3a06	0.034479164
81	0xbd860ce4	-0.065454274
82	0x3d9dcf3a	0.07705541
83	0x3ddf0bdd	0.108909346
84	0xbc80fe43	-0.015746241
85	0x3d2feb8c	0.042949244
86	0xbd67e079	-0.05661056
87	0xbc9e27ab	-0.019306025
88	0x3dfa0a2f	0.122089736
89	0xbcede501	-0.029039862
90	0x3da91304	0.0825558
91	0x3dba95a4	0.09110573
92	0xbd85a832	-0.06526221
93	0x3d547bec	0.051875994
94	0x3df7bc16	0.120964214
95	0xbd9037c0	-0.070418835
96	0x3def6f71	0.11691178
97	0xbc53a9de	-0.012918917
98	0x3d8399eb	0.06425842
99	0xbe0c15dd	-0.13680215
100	0x3d6a587a	0.057213284
101	0xbcccb8e2	-0.024990503
102	0xbe0486ad	-0.12942
103	0xbde3c1e2	-0.111209646
104	0x3da23254	0.079197556
105	0xbba4afee	-0.0050258553
106	0xbdddb429	-0.108253784
107	0x3d93b12b	0.072115265
108	0x3db14ed7	0.08657616
109	0x3ccdaa8f	0.025105743
110	0xbd5a7779	-0.053336594
111	0xbe0bdecb	-0.13659208
112	0xbd4da79e	-0.05020868
113	0x3da204fa	0.079111055
114	0xbd0bf72b	-0.034171265
115	0xbc00a158	-0.007850967
116	0x3c9e906f	0.01935598
117	0xbd9b3880	-0.07579136
118	0xbdb22191	-0.086978085
119	0xbd973cd7	-0.07384651

bn1.weight f4 [120]
0	0x4047e8ce	3.1235843
1	0x4022e825	2.545419
2	0x4046bdf4	3.1053438
3	0x405417b3	3.3139465
4	0x401ba56b	2.4319713
5	0x405278bf	3.2886198
6	0x40363228	2.8468113
7	0x401bb75d	2.4330666
8	0x4070c76f	3.7621725
9	0x400d64d3	2.2092788
10	0x40082297	2.1271112
11	0x403ef909	2.98395
12	0x4047153c	3.110671
13	0x401c7fc0	2.4452972
14	0x401094b5	2.2590764
15	0x3ff8ac9e	1.9427679
16	0x404244f5	3.0354588
17	0x3ffa5fc9	1.9560481
18	0x40368200	2.8516846
19	0x40338c69	2.805445
20	0x40128fb4	2.290021
21	0x403ced52	2.951985
22	0x40077183	2.1163032
23	0x402aff28	2.6718235
24	0x401dbdd3	2.464711
25	0x4025bbbe	2.5895839
26	0x3ffb6a41	1.9641801
27	0x401a4052	2.4101758
28	0x4018d339	2.387892
29	0x40356ffa	2.8349595
30	0x40185054	2.3799028
31	0x400948b5	2.1450627
32	0x403ca33d	2.9474633
33	0x403276dc	2.7885046
34	0x4070ac3e	3.7605128
35	0x40044b3c	2.067092
36	0x40111da5	2.2674344
37	0x400f50e7	2.239313
38	0x404906a2	3.1410298
39	0x401aae29	2.41688
40	0x40533288	3.2999592
41	0x40306d4c	2.756671
42	0x400dfe37	2.218641
43	0x404cae4a	3.1981378
44	0x401a0105	2.4063122
45	0x3fb72e8f	1.4311084
46	0x402c7595	2.6946766
47	0x402b94f6	2.6809669
48	0x403a6f75	2.9130528
49	0x402fd838	2.747572
50	0x4026ca4a	2.6060967
51	0x405e807d	3.4765923
52	0x4043ae2e	3.057506
53	0x4038df55	2.888631
54	0x401a8909	2.414614
55	0x400a51a0	2.161232
56	0x40268d3a	2.6023698
57	0x401d439a	2.457251
58	0x3ff6b6c6	1.9274528
59	0x40243c78	2.5661907
60	0x403f87d7	2.992666
61	0x404bb818	3.1831112
62	0x4045e26c	3.0919447
63	0x4047d897	3.1225946
64	0x402a6832	2.6626096
65	0x402c78e2	2.694878
66	0x40071fd1	2.111317
67	0x401828a3	2.3774803
68	0x401b3b4a	2.4254937
69	0x4034a587	2.822603
70	0x4018496b	2.379481
71	0x4040a104	3.0098276
72	0x3fec8bd8	1.8480177
73	0x40043038	2.065443
74	0x400bbea1	2.18351
75	0x401daac3	2.4635475
76	0x40418b45	3.0241253
77	0x4052cb41	3.2936556
78	0x4019c009	2.402346
79	0x40496e06	3.1473403
80	0x402ca68d	2.6976655
81	0x400b9bd6	2.1813865
82	0x40285ba5	2.6305935
83	0x402c8b5c	2.6960058
84	0x400a7303	2.1632698
85	0x4056b88d	3.355014
86	0x401142a0	2.2696915
87	0x405d29b0	3.4556694
88	0x40069512	2.1028485
89	0x400fff5b	2.2499607
90	0x40489c33	3.1345336
91	0x401c8c9e	2.4460826
92	0x401f0d98	2.4852047
93	0x3ff7759d	1.9332768
94	0x40295b7f	2.6462095
95	0x4049d192	3.1534162
96	0x3fffd795	1.9987665
97	0x401801dd	2.3751137
98	0x3ffe55bc	1.9869914
99	0x3ff7a6d4	1.9347787
100	0x4018acc7	2.3855455
101	0x4015350b	2.3313625
102	0x40407c42	3.007584
103	0x3fee87d5	1.8635203
104	0x404242f9	3.0353377
105	0x403e8cdd	2.9773476
106	0x4043c47b	3.0588672
107	0x40269132	2.602612
108	0x4066ae96	3.6044059
109	0x400e3966	2.2222533
110	0x401f914b	2.493243
111	0x400cdf4b	2.2011287
112	0x407e1874	3.9702425
113	0x4011970e	2.2748446
114	0x40555453	3.3332717
115	0x40214fb8	2.5204906
116	0x3ffaecb1	1.9603482
117	0x4037efd4	2.874013
118	0x40271d0d	2.611148
119	0x4040e765	3.0141232

bn1.bias f4 [120]
0	0xbc9d34fa	-0.0191903
1	0xbf026abf	-0.5094413
2	0x3c33eb8b	0.010981451
3	0xc02116bf	-2.5170133
4	0xc009ed72	-2.1551175
5	0xc0113cb8	-2.269331
6	0x3ded6a0e	0.11592494
7	0xbda192d7	-0.078893356
8	0x402581b0	2.5860405
9	0x3eaa6d63	0.3328658
10	0x3f244059	0.64160687
11	0x3f4c6630	0.79843426
12	0x4018e468	2.3889408
13	0x3fcfc8e1	1.6233178
14	0xbfbc11f8	-1.4692984
15	0x3faa0271	1.3281995
16	0x3ff21534	1.8912721
17	0x3eb94bca	0.36190635
18	0x3d5b056e	0.053471975
19	0xbf4b9232	-0.7951995
20	0xbf70529f	-0.9387607
21	0x3e731a74	0.2374056
22	0x3eb0a56d	0.3450121
23	0xbe93f2c3	-0.2889615
24	0x3e9a0ab5	0.30086294
25	0x3fdcbd89	1.7245342
26	0xbf906464	-1.1280637
27	0x3fcb0df0	1.5863628
28	0x3f018e06	0.50607336
29	0xbecb8abb	-0.3975428
30	0x3f80d257	1.0064191
31	0xbfb4666c	-1.4093757
32	0x401197f2	2.274899
33	0x3f3d7b86	0.74016607
34	0xc01d3bd4	-2.4567766
35	0xbfa98859	-1.3244735
36	0x3f07dc48	0.530705
37	0xbfbc9b26	-1.4734848
38	0xbda99f56	-0.08282344
39	0x3fccd851	1.6003515
40	0xbc998887	-0.01874186
41	0x3f67e0ac	0.905772
42	0xbe95e06d	-0.29272786
43	0x3c51e16c	0.012810092
44	0xbf1de505	-0.6167758
45	0x3e81b157	0.25330612
46	0xbfef7d45	-1.8710104
47	0xbfee4d5f	-1.8617362
48	0x4001ab29	2.0260718
49	0xbecb2d0b	-0.39682803
50	0x3fdc765c	1.722362
51	0xbee8ebb9	-0.45492342
52	0xbf19ef82	-0.60131085
53	0xbe30b190	-0.17255235
54	0xbfc24cb5	-1.5179659
55	0xbfc3abe0	-1.5286827
56	0x3fc611b4	1.5474153
57	0xbe497b25	-0.19675882
58	0xbf91adf0	-1.1381207
59	0xbe5565da	-0.20839635
60	0xbf1c0e0f	-0.6095895
61	0xbe63aca7	-0.2223383
62	0x3e65dfd6	0.22448668
63	0x3f04c0d9	0.5185676
64	0x3eab7a09	0.33491543
65	0x3feb214d	1.8369538
66	0xbef78878	-0.48346305
67	0x3f134edc	0.57542205
68	0x3eb746d4	0.35796225
69	0xbf2ad954	-0.66737866
70	0x3fc8f5ea	1.5700047
71	0xbf04ad63	-0.5182707
72	0x3fbf8b51	1.4964391
73	0x3fcb1755	1.5866495
74	0x3fbc8d7f	1.4730681
75	0xbf2e2ae1	-0.6803418
76	0x3ef54871	0.4790683
77	0x3ea273ea	0.3172906
78	0xbf1426bd	-0.5787161
79	0xbe7c588b	-0.24643151
80	0x3e1338ba	0.14377108
81	0xbf96f57d	-1.1793667
82	0x3ee75acb	0.45186457
83	0xbefaaa93	-0.48958263
84	0xbef07f55	-0.46972147
85	0xbedc1bd5	-0.42989984
86	0xbcbf5344	-0.023355134
87	0x3df7a8b3	0.12092724
88	0x3ea77305	0.3270494
89	0xbfba8055	-1.4570414
90	0x3e931016	0.2872321
91	0x3ee0c000	0.43896484
92	0xbf2bc148	-0.670918
93	0x3f5af082	0.85523236
94	0xbee401b6	-0.44532555
95	0x3f0ed079	0.55786854
96	0x3f1e409f	0.61817354
97	0xbf55b9e4	-0.8348677
98	0xbf15cc52	-0.58514893
99	0xbf51e0f8	-0.819839
100	0x3fcb8601	1.590027
101	0x3e427e6c	0.18993539
102	0xbf631a5b	-0.8871209
103	0xbfa0adc9	-1.2553035
104	0xbd56b836	-0.05242177
105	0x3d3438a6	0.043999337
106	0xc0032e32	-2.0496945
107	0x3bf89d28	0.007587094
108	0x401ea601	2.478882
109	0xbf88b919	-1.0681487
110	0xbfccdb3f	-1.6004409
111	0x3fddb7d4	1.7321725
112	0x402ee244	2.7325602
113	0xbf957835	-1.1677309
114	0x3e874f0e	0.264275
115	0x3f989244	1.1919637
116	0xbcbda0e4	-0.023148008
117	0xbebda1b7	-0.3703744
118	0xbf297a51	-0.66202265
119	0xbe4cd1c4	-0.20001894

bn1.running_mean f4 [120]
0	0x3d9f82ef	0.077886455
1	0xbe18abd4	-0.14909297
2	0x3e06a53b	0.13148968
3	0x3d45f98a	0.048333682
4	0xbdb688ef	-0.08912837
5	0xbd5d361b	-0.054006677
6	0xbe20513e	-0.15655991
7	0x3de8ed22	0.113733545
8	0xbdef24d9	-0.1167695
9	0xbd7bd776	-0.061484776
10	0xbdfc2072	-0.12310876
11	0x3d8767ac	0.06611571
12	0xbdf71a1b	-0.12065526
13	0x3e098074	0.13427907
14	0x3cc5a53c	0.024126641
15	0xbd60ced8	-0.05488476
16	0xbad62e30	-0.0016340669
17	0x3dfc0a98	0.12306708
18	0xbdc853e2	-0.097816244
19	0xbdd7e431	-0.10541571
20	0x3d9efb07	0.077627234
21	0xbd074f50	-0.033034623
22	0xbdf5d2ad	-0.12003074
23	0x3dd052d9	0.10172052
24	0xbdacd21b	-0.08438512
25	0xbbeaf194	-0.0071699116
26	0x3e25461e	0.16140029
27	0x3e201c48	0.15635788
28	0xbdcbd28a	-0.099522665
29	0xbe0011d9	-0.12506808
30	0xbe05ed21	-0.13078739
31	0xbca7c854	-0.020481266
32	0xbe0d3705	-0.1379052
33	0xbde2ae39	-0.110683866
34	0x3db97492	0.09055437
35	0x3c24de53	0.010062772
36	0x3c74085a	0.014894569
37	0xba106140	-0.00055076554
38	0xbdcd0f47	-0.100126795
39	0x3d76746c	0.060169622
40	0xbda6db86	-0.081473395
41	0xbe05efdc	-0.1307978
42	0x3d33fdf3	0.043943357
43	0xbde1c482	-0.11023809
44	0xbdc0c843	-0.09413197
45	0x3e080482	0.1328297
46	0x3de11c22	0.10991694
47	0x3e1e26c2	0.15444472
48	0xbd9dc418	-0.077034175
49	0x3dfbfd77	0.12304204
50	0xbdbc9885	-0.09208778
51	0x3e1e8a0b	0.15482347
52	0xbd082153	-0.033234905
53	0x3d6d99cc	0.058008
54	0xbe01e69c	-0.12685627
55	0x3d966414	0.07343307
56	0x3da4e09d	0.08050654
57	0xbe0c2db4	-0.1368931
58	0x3e0eff6b	0.13964622
59	0x3d4d2806	0.050086997
60	0x3e06ce04	0.13164526
61	0xbd152798	-0.036414713
62	0x3c55c455	0.0130472975
63	0x3b7052f8	0.0036670547
64	0xbdf5943d	-0.11991165
65	0xbd9d33e0	-0.0767591
66	0x3df14562	0.11780812
67	0x3d9b1ac4	0.075734645
68	0x3b8b73fb	0.0042557693
69	0xbdc160ad	-0.094422676
70	0xbd98c4fc	-0.07459447
71	0xbd1330ca	-0.0359352
72	0xbc60e34a	-0.013726065
73	0xbcd452cc	-0.025918387
74	0x3c60cef1	0.013721214
75	0x3e090db8	0.1338414
76	0x3de0461a	0.10950871
77	0x3d8d8bae	0.069114074
78	0x3d23d8c2	0.04000164
79	0x3dcb6723	0.09931781
80	0x3ca9b8d0	0.020718008
81	0xbd4e0239	-0.05029509
82	0x3d6b7e1e	0.05749332
83	0x3dd26905	0.10273937
84	0x3c3ab102	0.011394741
85	0x3c84e8b9	0.016224252
86	0xbd86f748	-0.06590134
87	0xbbb76486	-0.0055967
88	0x3e250d47	0.16118346
89	0xbd4c79b4	-0.049920753
90	0x3df2287e	0.118241295
91	0x3dc4eab6	0.0961508
92	0xbd9730a0	-0.07382321
93	0x3d8c9c00	0.06865692
94	0x3e009452	0.1255658
95	0xbd78f56b	-0.060780924
96	0x3df36930	0.11885297
97	0xbc6ff81e	-0.014646558
98	0x3d0eacac	0.03483264
99	0xbdf6ebde	-0.12056707
100	0x3c4cdc38	0.012503676
101	0xbd35333e	-0.04423832
102	0xbdb2fc8f	-0.08739578
103	0xbdff54f0	-0.124673724
104	0x3d95a5b7	0.07306998
105	0xbb553580	-0.003253311
106	0xbdd8c7bc	-0.10584971
107	0x3d865660	0.065594435
108	0x3dbba611	0.09162534
109	0x3c48deaf	0.012260123
110	0xbcf443cc	-0.029817484
111	0xbe097abb	-0.13425724
112	0xbd06fc4b	-0.03295545
113	0x3dae2382	0.08502866
114	0xbd09e780	-0.03366804
115	0xbc877dec	-0.016539536
116	0x3d0bcb34	0.034129336
117	0xbd8d61fe	-0.06903456
118	0xbdcbfd4e	-0.099604234
119	0xbd988d5c	-0.07448837

bn1.running_var f4 [120]
0	0x4020f38f	2.5148656
1	0x401b0e82	2.4227605
2	0x3fdf59b8	1.7449255
3	0x411e5d0a	9.897715
4	0x40ef46bc	7.4773846
5	0x4050d3e1	3.262932
6	0x40008803	2.0083015
7	0x4016903e	2.3525538
8	0x402fa170	2.7442284
9	0x3ffb2f05	1.9623724
10	0x3fea8740	1.8322525
11	0x403388cf	2.8052251
12	0x40c7fa68	6.249317
13	0x4148dfd9	12.55465
14	0x40c057bf	6.010711
15	0x3fc88ca4	1.566792
16	0x404ba0f8	3.1816998
17	0x4017992e	2.3687243
18	0x400c387b	2.1909473
19	0x40222ab6	2.5338569
20	0x401f105b	2.4853733
21	0x40060bfa	2.094481
22	0x40007e40	2.0077057
23	0x4015e7f7	2.342283
24	0x402b24ef	2.6741292
25	0x411aabf1	9.666978
26	0x401ecc22	2.4812093
27	0x40a0ef25	5.0291924
28	0x4071f46c	3.7805433
29	0x40241527	2.563791
30	0x3ffd9f09	1.9814159
31	0x40ebcb53	7.36857
32	0x40dc4947	6.883945
33	0x3fea084b	1.8283781
34	0x404bb0c8	3.1826649
35	0x40d17ee6	6.5467405
36	0x40008cc1	2.008591
37	0x41108c34	9.034229
38	0x40114ff7	2.2705057
39	0x407d4422	3.9572835
40	0x40152331	2.330273
41	0x404adc1d	3.1696846
42	0x401b61b3	2.427838
43	0x40348689	2.8207114
44	0x3ffe947c	1.9889064
45	0x3ffff2f7	1.9996022
46	0x4035f4fb	2.8430774
47	0x4051c841	3.2778475
48	0x4030fb66	2.7653441
49	0x4012e42a	2.295176
50	0x40481261	3.1261218
51	0x40291437	2.6418588
52	0x4043404a	3.050799
53	0x4012260c	2.2835722
54	0x402157c1	2.520981
55	0x4085809d	4.17195
56	0x409c8fe6	4.8925657
57	0x40026184	2.037202
58	0x40f6f149	7.7169538
59	0x4010a75b	2.2602146
60	0x402beb85	2.68625
61	0x404c0b66	3.1881957
62	0x4017b5a8	2.3704624
63	0x40381055	2.8759968
64	0x40301577	2.75131
65	0x40b09b16	5.5189314
66	0x402b1bf9	2.6735823
67	0x40028d39	2.0398695
68	0x3ff07b1e	1.8787572
69	0x4012b63e	2.2923732
70	0x412675d4	10.403767
71	0x40279464	2.618432
72	0x4044e17e	3.076263
73	0x4019d9ab	2.4039104
74	0x407f3b1e	3.9879832
75	0x40246811	2.5688517
76	0x40507938	3.2573986
77	0x40817f85	4.0468163
78	0x3ffc3f39	1.9706794
79	0x403faa9a	2.9947877
80	0x40175f6d	2.3651993
81	0x4057ef23	3.3739707
82	0x400e4641	2.223038
83	0x401d8d83	2.4617622
84	0x405ed381	3.4816592
85	0x401102d4	2.2657976
86	0x3ffa3a97	1.954913
87	0x404875bb	3.1321857
88	0x400ce484	2.2014475
89	0x40c0ccb4	6.024988
90	0x4015bba3	2.3395774
91	0x403b1d12	2.9236493
92	0x4047358f	3.112644
93	0x4009fa69	2.1559088
94	0x4010671c	2.2562933
95	0x4034f5cf	2.827503
96	0x3fe81669	1.8131839
97	0x405a68d4	3.4126482
98	0x400b2a91	2.174473
99	0x400f7a79	2.2418501
100	0x4026efd0	2.608387
101	0x3fe0385f	1.7517203
102	0x40203a4e	2.5035586
103	0x3fffdeb6	1.9989841
104	0x402c2480	2.6897278
105	0x40592f21	3.3935015
106	0x40385570	2.8802147
107	0x403faaea	2.9948068
108	0x407d0c37	3.9538705
109	0x4003a920	2.0571976
110	0x4129ef67	10.620948
111	0x3ff23c90	1.8924732
112	0x4127ef76	10.495962
113	0x3ffdca01	1.9827272
114	0x400f7729	2.241648
115	0x40386e5e	2.8817363
116	0x3ff49e27	1.9110764
117	0x4029223c	2.6427145
118	0x3ffe06c8	1.984582
119	0x4006f31a	2.1085877

fc2.weight f4 [100, 120]
0	0xbdae95ea	-0.085246876
1	0x3dd6069f	0.104504816
2	0xbb687c32	-0.0035474417
3	0x3eef18e7	0.46698686
4	0xbed8d977	-0.42353413
5	0x3d0b8ded	0.034070898
6	0xbca5d404	-0.020242698
7	0xbdc19651	-0.09452499
8	0x3e8e455b	0.2778729
9	0x3d83b37f	0.064307205
10	0xbd9723b6	-0.07379858
11	0x3e11c311	0.14234568
12	0x3cc99895	0.02460889
13	0xbdb47a3f	-0.08812379
14	0x3dfbd56a	0.12296565
15	0xbb707387	-0.0036689953
16	0xbe35b43b	-0.17744534
17	0xbe038570	-0.12843871
18	0x3d9ccfb6	0.07656805
19	0xbe750f6a	-0.23931661
20	0x3dd9c1a4	0.10632637
21	0x3e7a8f44	0.24468714
22	0xbc8ec63e	-0.017428514
23	0xbdc8ed13	-0.09810843
24	0xbe21f15d	-0.15814729
25	0xbe56592e	-0.20932457
26	0xbd71f5fb	-0.059072476
27	0xbdd9cf4a	-0.106352404
28	0x3d2c268c	0.04202895
29	0xbe1253cd	-0.1428978
30	0xbe917b51	-0.28414395
31	0x3dd6a1ce	0.104800805
32	0x3d808106	0.06274609
33	0xbe359623	-0.17733054
34	0x3e0a143c	0.13484281
35	0xbbf4780c	-0.0074605998
36	0x3e4d2808	0.20034802
37	0x3dcda4cd	0.10041199
38	0xbde8aa85	-0.11360649
39	0x3d0a4a32	0.033762164
40	0xbe31f22d	-0.17377539
41	0xbda86fe9	-0.0822447
42	0x3e18a61c	0.14907116
43	0xbd421a74	-0.04738851
44	0xbe8422c3	-0.2580777
45	0x3de227bd	0.11042736
46	0xbdde3f43	-0.1085191
47	0x3e667a43	0.22507577
48	0x3d5a9dcc	0.053373143
49	0xbe6bdb02	-0.23032764
50	0x3b84927b	0.004045782
51	0x3e3b14d1	0.1826966
52	0x3a2b5ecd	0.0006537259
53	0xbc9ff5eb	-0.019526443
54	0x3de1b939	0.110216565
55	0x3e904699	0.28178862
56	0xbd8b536c	-0.06803021
57	0x3e4c2ff4	0.19940168
58	0x3dd82213	0.10553374
59	0x3ea06bb0	0.3133216
60	0xbe5a72cd	-0.21332856
61	0x3e838e1f	0.25694367
62	0x3e295d64	0.16539532
63	0xbd2615ff	-0.04054832
64	0xbe744fd3	-0.23858576
65	0x3d96abac	0.073569626
66	0x3c69d48c	0.0142718665
67	0x3da1331d	0.07871077
68	0xbcf50a3f	-0.029912112
69	0xbd06ae4f	-0.032881077
70	0xbe1e2dcc	-0.15447158
71	0x3e1891f7	0.14899431
72	0x3ec5796c	0.385692
73	0xbd876e6a	-0.06612857
74	0xbdfdbf63	-0.1239002
75	0xbdee2fac	-0.116301864
76	0x3d991562	0.074747816
77	0x3dd5fbe3	0.10448434
78	0xbe543caf	-0.20726274
79	0xbd627f03	-0.05529691
80	0xbded0dc7	-0.115748934
81	0x3dcf8ca4	0.10134247
82	0xbe86ae10	-0.26304674
83	0xbe09732c	-0.13422841
84	0xbd55ec9b	-0.052227598
85	0x3e1cca52	0.15311554
86	0x3e2e8f2b	0.17046802
87	0xbddf8e52	-0.10915817
88	0x3de71f1c	0.112852305
89	0x3dba8a25	0.0910838
90	0x3d774b74	0.060374692
91	0xbea38305	-0.31935897
92	0x3ddd89e7	0.108173184
93	0x3e058f11	0.13042857
94	0x3df08657	0.11744373
95	0x3bd86563	0.006603883
96	0xbdfcf9f6	-0.12352364
97	0xbd7c5673	-0.061605882
98	0x3c1133b4	0.008862425
99	0xbe88752e	-0.266519
100	0x3d38ddab	0.045133274
101	0xbdd71593	-0.10502162
102	0x3e0368a9	0.12832893
103	0x3dcb1ef8	0.09918016
104	0xbe784c9c	-0.24247974
105	0xbd03e90d	-0.032204676
106	0x3c81b8a3	0.015835112
107	0xbe2b18f5	-0.16708739
108	0x3dd7ddfe	0.105403885
109	0xbe8753f9	-0.26431254
110	0xbd75e9b8	-0.060037345
111	0xbba45afa	-0.005015728
112	0x3d9ad80a	0.075607374
113	0x3d743d0b	0.059628528
114	0x3d1bd497	0.03804454
115	0x3e2520ec	0.1612584
116	0xbe75d685	-0.24007614
117	0x3e06ffc2	0.13183501
118	0xbd9e4ebf	-0.077298634
119	0xbd226218	-0.03964433
120	0x3df16d22	0.117883936
121	0x3dff5e8b	0.124692045
122	0x3e1b2fcb	0.1515495
123	0xbd2d1cbe	-0.04226374
124	0xbda602f7	-0.08106034
125	0xbbede26a	-0.0072596567
126	0xbdf7d09a	-0.121003345
127	0xbb65a816	-0.0035042814
128	0x3c998bc0	0.018743396
129	0x3da60d1b	0.081079684
130	0xbe3529db	-0.17691748
131	0xbde3fd50	-0.111323
132	0x3be788bd	0.007065861
133	0xbce82aff	-0.028340815
134	0x3d827e2e	0.06371723
135	0x3b05c625	0.0020412293
136	0x3c49dc40	0.012320578
137	0x3de2b0e8	0.110688984
138	0xbc6bf974	-0.014402736
139	0x3e23eeca	0.1600906
140	0x3c8a237a	0.01686262
141	0x3e47c894	0.19510108
142	0x3eb9b428	0.3627026
143	0xbe295699	-0.1653694
144	0x3e865224	0.26234543
145	0x3d494c02	0.049144752
146	0x3d8a95b6	0.06766836
147	0x3f65fd5c	0.8983972
148	0x3c4b94fd	0.012425658
149	0x3d7cf4e2	0.061756976
150	0xbc9b8993	-0.018986499
151	0xbeb84823	-0.35992536
152	0x3afe0e59	0.0019382938
153	0x3e44a19c	0.19202274
154	0xbe07b952	-0.13254288
155	0x3cfe2ae5	0.031026313
156	0xbddf9b9a	-0.109183505
157	0xbf042dda	-0.51632464
158	0xbe06f705	-0.13180168
159	0x3cbb5e7f	0.022872208
160	0x3d27422e	0.0408346
161	0xbdbef1a7	-0.09323435
162	0x3e98173d	0.2970523
163	0x3ea6cc6f	0.32577845
164	0x3e8fc636	0.2808091
165	0x3d0300ba	0.031983115
166	0x3d43651f	0.04770386
167	0xbc886501	-0.016649725
168	0x3caea272	0.021317694
169	0x3dc78c45	0.09743551
170	0xbb999bd7	-0.004687767
171	0x3e3fb976	0.18723091
172	0x3db42cd8	0.08797616
173	0xbe36e0a3	-0.1785913
174	0xbd4b5751	-0.04964382
175	0xbe6c2a47	-0.23063003
176	0xbda9e45b	-0.082955085
177	0x3e4384d4	0.19093639
178	0xbdd6cd62	-0.104883924
179	0x3d75dcec	0.06002514
180	0x3c9be102	0.01902819
181	0xbe2a1358	-0.16608942
182	0xbea4ff5e	-0.3222608
183	0xbcf3f924	-0.029781885
184	0x3e89a4c7	0.26883528
185	0xbd901206	-0.07034688
186	0xbec3bd4a	-0.38230354
187	0xbd0f17dd	-0.034934867
188	0x3d89c316	0.06726663
189	0x3e7d8611	0.24758174
190	0x3e3ddd65	0.18541487
191	0x3dd66766	0.104689404
192	0xbe19f46b	-0.15034644
193	0xbc9bafd2	-0.019004736
194	0xbe810cdd	-0.25205126
195	0xbe187e6b	-0.14891975
196	0xbd4fbefc	-0.050719246
197	0x3ed701e9	0.41993645
198	0x3dbf3226	0.09335737
199	0xbef17db2	-0.4716621
200	0xbd41ff97	-0.04736289
201	0xbdb172c3	-0.08664467
202	0x3e7b4545	0.24538143
203	0xbda2f2a0	-0.07956433
204	0xbd00f0fc	-0.03147982
205	0xbe0535c9	-0.13008799
206	0xbe12790d	-0.1430399
207	0x3d84d939	0.064867444
208	0xbe0761a9	-0.13220848
209	0xbfc5656a	-1.5421574
210	0x3dc1fa97	0.09471624
211	0xbdaacc10	-0.08339703
212	0xbe97a4f7	-0.29618046
213	0xbdb19985	-0.0867186
214	0xbe22c24f	-0.15894435
215	0x3e017ce8	0.12645304
216	0x3ea2aba5	0.3177158
217	0xbe129145	-0.14313228
218	0xbe97b5b0	-0.29630804
219	0x3e198aa7	0.14994298
220	0xbc21498e	-0.009844197
221	0x3dad6a07	0.08467489
222	0x3e788bdd	0.24272104
223	0xbc58b1b7	-0.013225964
224	0x3e122e35	0.14275439
225	0xbe79d60d	-0.2439806
226	0x3c3aaa15	0.01139309
227	0xbea5959d	-0.32340708
228	0x3cdabcd9	0.026701378
229	0x3d1c3cdd	0.03814398
230	0xbe6a18b4	-0.22860986
231	0xbcd1d993	-0.025616443
232	0xbdf71605	-0.12064747
233	0xbc188ced	-0.009310943
234	0x3d21a0b9	0.039459918
235	0xbdc953f8	-0.09830469
236	0x3c2912f9	0.010319465
237	0x3e1d0eaa	0.15337625
238	0x3e3af11d	0.1825604
239	0xbe216b97	-0.15763699
240	0x3d070c6b	0.032970827
241	0x3d0ff4a8	0.03514543
242	0x3ea02944	0.31281483
243	0xbc3ef24f	-0.011654451
244	0x3d989acb	0.074513994
245	0x3c9b2cea	0.018942315
246	0xbcf743f1	-0.030183764
247	0x3bf4ba21	0.0074684774
248	0x3c240774	0.010011543
249	0xbe36bd8e	-0.17845747
250	0x3de1e398	0.11029738
251	0x3dd5d5a5	0.1044114
252	0xbdb26fd3	-0.08712735
253	0xbcc9304e	-0.024559166
254	0xbd0905f7	-0.033452954
255	0xbdd451ea	-0.10367186

fc2.bias f4 [100]
0	0xbc80c307	-0.015717996
1	0x3dacd3d3	0.0843884
2	0xbc0aeebe	-0.008479772
3	0x3d45b9bc	0.048272833
4	0x3d2dd60f	0.04244047
5	0x3a07da7e	0.0005182399
6	0x3cd3b8fa	0.02584504
7	0xbdb9ac2c	-0.09066042
8	0x3d753f2e	0.059874706
9	0xbd9a024e	-0.07519971
10	0x3c800aed	0.01563021
11	0x3da6978a	0.081343725
12	0x3da1ebec	0.07906327
13	0x3cddd9a1	0.027081313
14	0xbd6c8f4c	-0.057753846
15	0xbd02a3f9	-0.031894658
16	0x3db54416	0.08850877
17	0x3c3a79d0	0.011381581
18	0xbd8ceebc	-0.068814725
19	0xbd7d2880	-0.061806202
20	0xbc48e528	-0.012261666
21	0x3db5d6b2	0.088788405
22	0x3d8ed002	0.06973268
23	0xbcb977bd	-0.022640103
24	0x3d8a75f9	0.06760783
25	0x3c2d00db	0.010559286
26	0x3d1d1f9e	0.03836023
27	0x3d8788be	0.066178784
28	0xbd6fd855	-0.05855592
29	0x3dae48a7	0.08509951
30	0x3db327c5	0.0874782
31	0x3d30dd5b	0.04317985
32	0xbdb0a3d6	-0.08624999
33	0x3d771b1f	0.0603286
34	0xbd962226	-0.07330732
35	0xbd09c580	-0.033635616
36	0xbd805fa6	-0.062682435
37	0x3d959807	0.073043875
38	0xbc6fa5e4	-0.014626954
39	0xbbc539f4	-0.0060188714
40	0xbcea9e00	-0.028639793
41	0x3cd3ddaa	0.025862534
42	0x3c917e61	0.017760457
43	0xbda5b53a	-0.08091207
44	0xbd52a25c	-0.05142437
45	0xbcccc3c8	-0.0249957
46	0x3da137af	0.07871949
47	0x3db43edc	0.08801052
48	0xbc1e0701	-0.009645225
49	0xbcc056ce	-0.023478892
50	0xbd424551	-0.047429387
51	0xbc600111	-0.013672129
52	0xbd04d898	-0.032433122
53	0xbd50237c	-0.05081509
54	0xbda21cdc	-0.07915661
55	0xbcf9d2e9	-0.030496078
56	0x3c5a779b	0.01333418
57	0xbd103c06	-0.035213493
58	0xbbf26a31	-0.007397913
59	0x3d26b86c	0.040703222
60	0x3c0b30e7	0.008495546
61	0x3acabce3	0.001546767
62	0x3d26a225	0.040681977
63	0x3d919af8	0.07109636
64	0xbc46b6cc	-0.012128543
65	0xbd54cb84	-0.0519519
66	0xbd966a42	-0.07344486
67	0xbd3fd002	-0.04682923
68	0xbd155d08	-0.036465675
69	0x3bfcb817	0.007712375
70	0x3da4f33b	0.08054205
71	0x3d1ce407	0.0383034
72	0x3c4db774	0.012555946
73	0x3db587af	0.0886377
74	0x3d21deb5	0.03951903
75	0x3db792da	0.089635566
76	0x3ab3f7a4	0.0013730419
77	0x3bbd5051	0.0057773967
78	0x3d9395aa	0.072062805
79	0x3da883e1	0.08228279
80	0x3d227595	0.039662916
81	0x3ae81340	0.0017705932
82	0xbd9adb23	-0.07561328
83	0xbce5b9c3	-0.02804268
84	0xbd3ec8c0	-0.04657817
85	0xbd84168d	-0.06449614
86	0xbcbed680	-0.023295641
87	0x3db827c1	0.089919575
88	0xbdae0340	-0.08496714
89	0xbd0ed519	-0.034871195
90	0xbd5acd14	-0.053418234
91	0x3cbb3b79	0.022855507
92	0x3cdfd22a	0.027321894
93	0xbd90e0bf	-0.07074117
94	0x3d2d5398	0.04231605
95	0x3c9a75f3	0.01885507
96	0xbda373f0	-0.07981098
97	0x3d26b7eb	0.04070274
98	0xbda345eb	-0.0797232
99	0x3da81355	0.08206812

bn2.weight f4 [100]
0	0x3ed08ec9	0.40733936
1	0x3fe0ea29	1.757146
2	0x3fcccd7f	1.6000212
3	0x3e89e675	0.26933637
4	0x3e04c983	0.12967496
5	0x3f91d78f	1.1393908
6	0x3fe2437d	1.7676846
7	0x3f8d4e2e	1.1039484
8	0x3fd22732	1.6418211
9	0x400000da	2.000052
10	0x3fd086e7	1.6291169
11	0x3dc9a755	0.09846369
12	0x3ed94310	0.42433977
13	0x3e2be786	0.16787538
14	0x3f6a2d8f	0.91475767
15	0x3e345a5b	0.17612593
16	0x3e7a1e56	0.24425635
17	0x3fc880bd	1.5664288
18	0x3e847026	0.25866812
19	0x3ed6d46b	0.41958937
20	0x3ce6fea0	0.028197587
21	0x3df25685	0.118329085
22	0x3fe62ff1	1.798338
23	0x3e37ebe4	0.17961079
24	0x3fd6fdfe	1.6796262
25	0x3dc47923	0.095934175
26	0x3fec5f58	1.8466597
27	0x3e0abce6	0.13548622
28	0x3f2e28c4	0.68030953
29	0x3ffc64ff	1.9718322
30	0x3fc9833a	1.5743172
31	0x3fb368a6	1.4016311
32	0x3ebeb912	0.37250572
33	0x3e221c2c	0.15831059
34	0x3eba8fad	0.3643774
35	0x3ecf1716	0.404473
36	0x3d77077d	0.060309876
37	0x3e9fee4a	0.31236488
38	0x3da09f4f	0.07842886
39	0x3ef2605c	0.4733914
40	0x3bbd3bc0	0.005774945
41	0x3ebd9a36	0.37031716
42	0x3e3740aa	0.17895761
43	0x3e5de420	0.21669054
44	0x3daa652e	0.0832008
45	0x3f1dad0f	0.6159219
46	0x3ff8a16b	1.9424261
47	0x3e16e222	0.147347
48	0x3e374c88	0.17900288
49	0x3c52d96f	0.012869223
50	0x3fa4bc6d	1.2870003
51	0x3fd01dbd	1.6259075
52	0x3e6c4bfe	0.23075864
53	0x3fc69dbe	1.5516889
54	0x3d586ce2	0.052838214
55	0x3fd1811a	1.6367524
56	0x3ee2997c	0.44257724
57	0x3f0e3d10	0.55561924
58	0x3ffa078d	1.9533554
59	0x3e305112	0.17218426
60	0x3e9883d3	0.29788074
61	0x3dc22220	0.09479165
62	0x3cc8bc4a	0.024503846
63	0x3e1921f9	0.14954366
64	0x3d3436cc	0.04399757
65	0x3d9045c9	0.070445605
66	0x3cb734d9	0.022364067
67	0x3fbf2c0d	1.4935318
68	0x3f024ea5	0.5090125
69	0x3e8f95c3	0.28043947
70	0x3fed0a5e	1.8518789
71	0x3e0f62b4	0.14002496
72	0x3fbdcbc0	1.4827805
73	0x3df0dd4c	0.11760959
74	0x3fdecf57	1.7407025
75	0x3e5dcdb1	0.21660496
76	0x3e76aed9	0.24090137
77	0x40034eda	2.0516877
78	0x3f9f2296	1.243243
79	0x3ea91a40	0.3302784
80	0x3e8be160	0.27320385
81	0x3f086be1	0.5328961
82	0x3e518a68	0.20462954
83	0x3da76bb9	0.08174843
84	0x3e3e5c4d	0.18589897
85	0x3e181f5b	0.14855711
86	0x3f8122ec	1.0088782
87	0x3eab6a8e	0.33479732
88	0x3e17146e	0.14753887
89	0x3feb5061	1.8383905
90	0x3e6b9140	0.23004627
91	0x4005fb65	2.093469
92	0x3dd37b38	0.103262365
93	0x3ea71f72	0.32641178
94	0x3eea17e5	0.45721355
95	0x3fef5096	1.8696468
96	0x400487ff	2.0708005
97	0x400608a8	2.0942783
98	0x3dc8fbe2	0.09813668
99	0x3ea079bb	0.31342873

bn2.bias f4 [100]
0	0x3dfa84f3	0.12232389
1	0x3f9ade16	1.2099025
2	0xbf8edfc9	-1.1162044
3	0xbdf5ef49	-0.12008531
4	0x3b97e3d4	0.0046353135
5	0x3f6823db	0.9067971
6	0x3fa695da	1.3014481
7	0x3f4d9636	0.8030733
8	0x3f8f54c0	1.1197739
9	0xbfacd829	-1.3503467
10	0x3fa64185	1.2988745
11	0x3dc40a4b	0.09572276
12	0xbe155d2d	-0.14586325
13	0x3c6af862	0.014341446
14	0x3f1a7a0b	0.6034247
15	0x3b95f27a	0.0045760246
16	0x3dc522cd	0.09625778
17	0x3f8b31ad	1.0874535
18	0xbd8102f2	-0.0629939
19	0xbe0e1ed6	-0.1387895
20	0xbce04b86	-0.027379762
21	0x3b983241	0.0046446626
22	0xbfa0ba09	-1.2556773
23	0xbbc41d62	-0.005984948
24	0x3f99dd55	1.202067
25	0x3cd845d4	0.026400484
26	0xbfa320a5	-1.2744337
27	0xbb30866d	-0.0026935593
28	0x3ebc21cf	0.36744544
29	0x3fabc2f8	1.3418875
30	0x3f84b408	1.0367441
31	0xbf8265ab	-1.0187277
32	0xbdf1d4bc	-0.11808154
33	0x3d572eed	0.052534986
34	0x3dd1c3ee	0.10242449
35	0x3b802bce	0.003911472
36	0x3dfdb3c7	0.123878054
37	0xbddb9f39	-0.10723729
38	0xbcdb4385	-0.026765594
39	0x3e685c31	0.22691418
40	0xbda0c7e3	-0.07850625
41	0x3e3fea3b	0.18741696
42	0x3b807b17	0.0039209235
43	0x3e1f31af	0.15546297
44	0x3d902023	0.070373796
45	0xbebcbbf6	-0.36862153
46	0xbfb6e52f	-1.4288691
47	0xbbe21a7d	-0.0069001303
48	0x3cfd321c	0.030907683
49	0x3c97d01b	0.01853185
50	0xbf783fc4	-0.969723
51	0xbfa0d079	-1.2563621
52	0xbd19d023	-0.03755201
53	0xbf9e7c45	-1.2381674
54	0xbe2a66e0	-0.16640806
55	0xbf9f6b9d	-1.2454716
56	0x3e86b9d1	0.26313642
57	0x3e7f7eff	0.24950789
58	0x3fb81bd4	1.4383492
59	0x3ced935e	0.029000934
60	0x3de017f5	0.109420694
61	0xbd791e2c	-0.06081979
62	0xbd3de08f	-0.046356734
63	0x3dfbf3e9	0.123023815
64	0x3d5a6651	0.053320233
65	0x3d721737	0.05910417
66	0x3dc92067	0.098206334
67	0x3f886905	1.065705
68	0x3e5e48aa	0.21707407
69	0x3e9a47b1	0.3013282
70	0xbfa06f87	-1.2534035
71	0x3c2d6c69	0.010584929
72	0x3f8b6ee3	1.0893215
73	0xbba8abe2	-0.005147443
74	0xbf94e0aa	-1.1631062
75	0xbd980036	-0.07421915
76	0x3cc647f1	0.024204226
77	0xbfc9a446	-1.5753257
78	0x3f84a814	1.0363793
79	0xbe2b8c7e	-0.16752812
80	0x3e4155db	0.18880408
81	0x3e395ad5	0.18101056
82	0xbde352d9	-0.11099786
83	0x3dd9cf9b	0.10635301
84	0xbe33e1dd	-0.17566629
85	0x3da81463	0.082070135
86	0x3f3fb863	0.74890727
87	0xbdf7e6d0	-0.12104571
88	0xbcb39957	-0.021923704
89	0x3f960631	1.172064
90	0x3df0193f	0.11723565
91	0x3fb6107d	1.4223782
92	0x3c84e59e	0.016222771
93	0xbdec6d21	-0.11544252
94	0x3e0c8f94	0.13726646
95	0x3f9ee776	1.2414386
96	0x3fad0b79	1.3519126
97	0x3fb696d4	1.4264779
98	0x3cc9b142	0.024620656
99	0xbe5ef5bd	-0.21773429

bn2.running_mean f4 [100]
0	0xbec86f11	-0.39147237
1	0x3fe65160	1.7993584
2	0xbf86f1ca	-1.0542538
3	0xbecf2282	-0.40456015
4	0x3e3f1634	0.18660814
5	0x3f792b21	0.97331434
6	0x3f7c5817	0.98571914
7	0x3f9e7406	1.2379158
8	0x3f8664c8	1.0499506
9	0xc02ce007	-2.7011735
10	0x3f5d8bb1	0.8654128
11	0x3e133560	0.1437583
12	0xbf00a215	-0.5024732
13	0xbd73cf94	-0.059524134
14	0x3f90c17b	1.1309046
15	0x3ea367e4	0.319152
16	0xbf696f99	-0.9118591
17	0x3fdaba2a	1.7088063
18	0x3f05f571	0.5232764
19	0xbf455b66	-0.7709259
20	0x3f62be4f	0.8857164
21	0xbe11186c	-0.14169472
22	0xc006a181	-2.1036074
23	0x3b9db9e6	0.0048134206
24	0x3fb08ddf	1.3793296
25	0xbeb8434a	-0.35988837
26	0xc0134e86	-2.3016677
27	0x3d87db5f	0.066336386
28	0x3e6ee6d8	0.23330247
29	0x401d7811	2.4604533
30	0x3f8144c4	1.0099111
31	0xbfb45882	-1.408951
32	0xbf8f3626	-1.11884
33	0x3e17fcd9	0.14842547
34	0x3ef3396a	0.4750474
35	0x3edcda10	0.43135118
36	0xbf70c4dd	-0.9405039
37	0xbf9ae38e	-1.2100694
38	0x3ebba86a	0.36651927
39	0x3f6576f5	0.8963464
40	0x3ed8af00	0.42321014
41	0xbf880f2a	-1.0629628
42	0x3ed4ff48	0.41601014
43	0x3d95e1b6	0.073184416
44	0x3d74af85	0.0597377
45	0xbf2db5c9	-0.6785551
46	0xbfce557c	-1.6119838
47	0x3f16660b	0.58749455
48	0xbf6f6015	-0.93505985
49	0x3e5c88b1	0.21536519
50	0xc01840e1	-2.37896
51	0xbfa43e90	-1.2831593
52	0x3ee9f400	0.4569397
53	0xbf099566	-0.5374359
54	0xbdb111b3	-0.08645954
55	0xbfe957a6	-1.8229873
56	0x3e13b326	0.14423808
57	0x3f4c1b6c	0.7972934
58	0x401500cf	2.3281744
59	0xbf627a66	-0.88468015
60	0xbf8d61d7	-1.1045483
61	0x3ed65928	0.41864896
62	0x3f0f0d69	0.5587984
63	0xbf11287e	-0.5670241
64	0xbf6449ce	-0.89175117
65	0xbf3fec22	-0.74969685
66	0xbf45f5d8	-0.7732825
67	0x3fc5ac70	1.5443249
68	0x3f8e2669	1.1105472
69	0x3e2c54e0	0.16829252
70	0xbff53d70	-1.9159374
71	0x3e9ed814	0.3102423
72	0x3fafb9ea	1.3728611
73	0x3e6da155	0.23206075
74	0xbfb9b487	-1.4508218
75	0x3f55abbc	0.8346517
76	0xbf31a664	-0.69394517
77	0xc0056846	-2.0844893
78	0x3f2f3316	0.68437326
79	0xbee2dc3b	-0.44308648
80	0x3e24792c	0.16061848
81	0x3ead6a10	0.33869982
82	0xbe87ee2a	-0.26548892
83	0xbf23551b	-0.63801736
84	0xbf02d590	-0.5110712
85	0x3f11d9b4	0.56972814
86	0x3f8a8e7c	1.0824733
87	0x3f907ed2	1.1288702
88	0xbed82b1b	-0.42220387
89	0x3fbf1547	1.4928368
90	0x3f49e362	0.78862584
91	0x4013493e	2.3013453
92	0x3f506808	0.8140874
93	0x3db9502c	0.09048495
94	0xbfac4454	-1.3458352
95	0x40021873	2.0327423
96	0x40146013	2.318364
97	0x40110fb0	2.2665825
98	0xbec677a2	-0.38763148
99	0xbfd0a655	-1.630076

bn2.running_var f4 [100]
0	0x40b850bf	5.7598567
1	0x41adf794	21.745888
2	0x41647d9a	14.280664
3	0x4097f824	4.7490406
4	0x4029ba3a	2.6519914
5	0x41736ab8	15.213554
6	0x41ae9836	21.824322
7	0x41139d6f	9.225936
8	0x41841326	16.50935
9	0x418069cd	16.05166
10	0x411fb140	9.980774
11	0x403e21da	2.9708161
12	0x41077847	8.466865
13	0x3fc8d18e	1.5688951
14	0x40e6cdbe	7.212615
15	0x401de3d6	2.467031
16	0x40a73663	5.225389
17	0x41a68dd7	20.819258
18	0x406b3655	3.6751912
19	0x40c273b8	6.076626
20	0x4026c68d	2.6058686
21	0x3fe3ca9f	1.779621
22	0x41990391	19.126741
23	0x3fa2b136	1.271033
24	0x41d62a74	26.77073
25	0x400d911f	2.2119825
26	0x42096f73	34.358837
27	0x405342a4	3.3009424
28	0x410021c5	8.0082445
29	0x41c79896	24.949505
30	0x41318880	11.095825
31	0x4139c81c	11.611355
32	0x40f0edb7	7.529018
33	0x404d3a82	3.206696
34	0x40f4900f	7.6425853
35	0x40abd8b5	5.3702035
36	0x402ba202	2.6817632
37	0x40b78f9e	5.7362814
38	0x4033eb43	2.8112342
39	0x40aee2cd	5.4651856
40	0x4013fd60	2.3123398
41	0x40c45588	6.135441
42	0x4068dd22	3.6384969
43	0x4095eb2e	4.6849585
44	0x3fdc2966	1.7200134
45	0x41233ca4	10.202305
46	0x41fd3bc4	31.654182
47	0x3ff32655	1.8996073
48	0x409f0d5e	4.9703817
49	0x4012fab2	2.2965512
50	0x420244c8	32.56717
51	0x41441fc6	12.257757
52	0x40573414	3.3625536
53	0x41c45a89	24.544207
54	0x4047a8f6	3.1196876
55	0x41bde4e6	23.736767
56	0x411a0259	9.625573
57	0x4100be63	8.046481
58	0x41e8d07b	29.101797
59	0x402d98e9	2.712458
60	0x40a4dccd	5.151953
61	0x3fea133a	1.8287117
62	0x401c93f6	2.4465308
63	0x4067d311	3.6222575
64	0x404ab929	3.1675513
65	0x402c8bc6	2.696031
66	0x400ce867	2.2016847
67	0x40f42e06	7.630618
68	0x41016eda	8.089563
69	0x40af4cee	5.478141
70	0x4192d990	18.356232
71	0x403df6fa	2.9681993
72	0x41683340	14.512512
73	0x40381fa0	2.8769302
74	0x414e6fcb	12.902293
75	0x40d9a96f	6.801933
76	0x40a093db	5.018049
77	0x419a0ef6	19.257305
78	0x414e6ea7	12.902015
79	0x40967908	4.7022743
80	0x40f14b9d	7.54048
81	0x41161402	9.379885
82	0x406b9b45	3.681352
83	0x4061af12	3.5263104
84	0x406f5f74	3.740201
85	0x405e4ed6	3.4735618
86	0x41148698	9.28286
87	0x40c965ff	6.2937007
88	0x3ffca713	1.9738487
89	0x416fd610	14.989761
90	0x405cfeed	3.4530594
91	0x41903e4d	18.03042
92	0x3fef1670	1.8678722
93	0x40cc921d	6.392836
94	0x40b680d7	5.7032275
95	0x412da0e5	10.851781
96	0x41892f28	17.148026
97	0x41bda265	23.704294
98	0x402fec59	2.7488005
99	0x40ba7228	5.826435

fc3.weight f4 [46, 100]
0	0x3d983d2a	0.07433541
1	0x3be79481	0.0070672636
2	0xbc95f5f6	-0.01830576
3	0xbbf4eba7	-0.007474381
4	0xbd8797d3	-0.06620755
5	0x3b9122cd	0.0044291974
6	0x3a883e64	0.001039457
7	0x3d583625	0.05278601
8	0xbca373e6	-0.019952726
9	0xbbffb383	-0.007803382
10	0xbb2e5d32	-0.0026605842
11	0xbe033a10	-0.12815118
12	0x3d47ee6a	0.048811354
13	0xbd5675e1	-0.05235851
14	0x3d221e8d	0.039579917
15	0xbcbf0dfc	-0.023322098
16	0xbd8ae74d	-0.067823984
17	0xbc38f74d	-0.01128943
18	0xbdd3d77d	-0.103438355
19	0xbdd48523	-0.10376956
20	0x3c5de1e2	0.013542624
21	0x3d8af939	0.06785817
22	0x3a82c5ac	0.0009977124
23	0xbd8f2f45	-0.06991438
24	0x3c1e85c6	0.009675449
25	0x3b92f83a	0.0044851573
26	0x3c14b09b	0.009075309
27	0x399afa4c	0.00029559655
28	0xbc9e0e71	-0.019293996
29	0xbbd0d48d	-0.0063729943
30	0xbc8add6a	-0.016951282
31	0xbd21b45b	-0.03947864
32	0x3d90da17	0.07072847
33	0xbd50f952	-0.05101902
34	0xbb6d666b	-0.0036224376
35	0x3c8eef89	0.017448204
36	0x3e0e444f	0.13893245
37	0xbdcf205d	-0.10113595
38	0xbdc4f343	-0.09616711
39	0x3d514db5	0.051099498
40	0xbda345f7	-0.07972329
41	0x3d5e7103	0.054306995
42	0x3de5ab7b	0.11214348
43	0x3d1e9e45	0.038725156
44	0x3e2b39bb	0.16721241
45	0xbce20ee5	-0.027594993
46	0xbb0c90a7	-0.0021448524
47	0xbd094749	-0.03351525
48	0xbb2bcc3d	-0.0026214265
49	0xbc7f4a62	-0.015581699
50	0x3cc59c09	0.024122255
51	0x3b2bd221	0.0026217776
52	0xbd10e6bc	-0.035376295
53	0x3c8bf2e2	0.017083589
54	0xbe38671f	-0.18008088
55	0x3b62788b	0.0034556712
56	0x3c8b3668	0.016993716
57	0x3cf4df42	0.029891614
58	0xbf22f730	-0.6365843
59	0x3d87023d	0.06592224
60	0x3cff60b7	0.031174047
61	0xbd78ba7c	-0.06072472
62	0xbd2539c6	-0.0403383
63	0x3de92e5b	0.11385795
64	0xbd8bceeb	-0.06826576
65	0xbd0edaef	-0.03487676
66	0x3da382a9	0.07983906
67	0x3cbb9f62	0.022903148
68	0x3d25685d	0.04038273
69	0x3c2a1d11	0.0103829065
70	0x3c8cf097	0.017204566
71	0xbcbee868	-0.02330418
72	0x3c58523f	0.013203203
73	0x3cd080ae	0.025451984
74	0x3b3f824e	0.0029221955
75	0xbcc1eb86	-0.023671877
76	0x3d84ddeb	0.0648764
77	0x3c746959	0.014917695
78	0x3c1343c6	0.008988326
79	0x3b7c59e2	0.0038505723
80	0x3c4d76ce	0.012540532
81	0x3dd757b7	0.10514777
82	0x3c25f992	0.010130303
83	0xbd078cc6	-0.033093236
84	0xbd87c231	-0.06628836
85	0x3dd2918d	0.10281668
86	0xbc86f7b1	-0.01647553
87	0x3daa8bf6	0.08327477
88	0xbc72e7f8	-0.0148258135
89	0xbaff1c47	-0.0019463383
90	0x3d0d4ade	0.034495227
91	0x3c1673e7	0.009182907
92	0xbc069559	-0.008214318
93	0x3d7705b4	0.060308173
94	0x3c4ed9cb	0.012625168
95	0xbc0da9b6	-0.008646419
96	0xbb4dffaf	-0.0031432917
97	0x3a9c3d78	0.0011920175
98	0x3df03ddc	0.11730549
99	0xbc9b645e	-0.018968757
100	0x3c6a16cf	0.014287665
101	0x3cc9b00e	0.024620082
102	0xbd1ad577	-0.037801232
103	0xbd240f9d	-0.040053952
104	0x3dc53dea	0.0963095
105	0xbb75b020	-0.0037489012
106	0xbcc8f80b	-0.024532339
107	0x3d313450	0.04326278
108	0xbb6f9013	-0.003655438
109	0x3bf0b784	0.0073460955
110	0xbcc2cd1b	-0.023779443
111	0x3de4412c	0.11145243
112	0xbd2d7a2d	-0.042352844
113	0x3dc28079	0.094971605
114	0xbc2815bc	-0.010259088
115	0x3d3f08e6	0.046639346
116	0xbdbdf641	-0.09275485
117	0x3c249d07	0.010047204
118	0x3beb8e45	0.0071885907
119	0x3cbf8901	0.023380758
120	0x3c517e7e	0.012786506
121	0xbd886665	-0.06660155
122	0x3c554c6e	0.013018711
123	0xbad3e92b	-0.0016167512
124	0xbbf923b5	-0.0076031336
125	0xba9d2dd8	-0.0011991812
126	0xbc94e5cf	-0.018175988
127	0x3d8bd4db	0.06827708
128	0xbccd0759	-0.025027918
129	0xbc780a17	-0.015139124
130	0x3c81ec9e	0.015859898
131	0xbba541d4	-0.0050432477
132	0x3d98c323	0.074590944
133	0xbd3a22f0	-0.045443475
134	0xbcf77564	-0.030207343
135	0xbb6f72a7	-0.0036536844
136	0x3dcc6607	0.09980398
137	0x3dadfe30	0.08495748
138	0x3d3ca5cc	0.046056554
139	0xbd764db4	-0.060132697
140	0xbd189b30	-0.037257373
141	0x3e2d775a	0.1694006
142	0xbca504c2	-0.02014387
143	0x3e00ba85	0.12571152
144	0xbce63747	-0.02810253
145	0x3d498392	0.04919774
146	0xbbe200fd	-0.0068970905
147	0xbd4855e6	-0.048910044
148	0x3d6bb562	0.057546027
149	0x3d8a6b26	0.06758718
150	0xbc5f526a	-0.013630489
151	0xbcb6c527	-0.022310806
152	0xbd87aee9	-0.06625158
153	0xb8b251da	-8.5029475e-05
154	0x3cc97896	0.024593633
155	0x3a088cc0	0.00052089617
156	0x3dc58bb6	0.09645788
157	0x3bbc946e	0.005754999
158	0xbf1db42e	-0.6160306
159	0x3db47fb6	0.088134214
160	0x3c24dbf3	0.010062206
161	0x3d0c2155	0.034211475
162	0xbd9ff9c6	-0.078113124
163	0x3d0a45a9	0.03375784
164	0x3c88b18a	0.01668622
165	0x3e27fc85	0.16404922
166	0x3ca57e7d	0.020201916
167	0xbb942f76	-0.0045222593
168	0x3d5b3b6b	0.053523462
169	0x3d8f115c	0.06985733
170	0xbce54bd0	-0.027990252
171	0x3c55859c	0.013032343
172	0xbc91f847	-0.017818583
173	0x3c735405	0.014851575
174	0x39ecb5ea	0.00045148964
175	0x3b188688	0.0023273546
176	0xbd8b7070	-0.06808555
177	0xbb3c76ce	-0.0028757337
178	0x3b0fbd10	0.0021932758
179	0xbe2c364a	-0.16817585
180	0x3da38c1b	0.07985707
181	0xbd691242	-0.056902178
182	0xbd7669f5	-0.060159642
183	0x3d1482e5	0.036257643
184	0xbcffd76d	-0.031230653
185	0xbd8d35bf	-0.06895017
186	0x3d755aa4	0.059900895
187	0x3cf601be	0.030030128
188	0xbc46e1c9	-0.012138792
189	0x3bdacc27	0.006677169
190	0x3d62c8fb	0.05536745
191	0xbbe27ef7	-0.006912108
192	0xbd94ea72	-0.072712794
193	0x3dd253f1	0.10269917
194	0xbcd07f4b	-0.025451323
195	0xba6a5aac	-0.0008939903
196	0xbaa63ded	-0.001268325
197	0xbb2e0284	-0.0026551792
198	0xbbb97557	-0.00565974
199	0xbd9dcf90	-0.07705605
200	0x3dcb35a0	0.099223375
201	0xbc4a16ba	-0.01233452
202	0x3b14ace6	0.0022686063
203	0xbe18610a	-0.14880767
204	0x3c853856	0.016262215
205	0x3dc27511	0.09494985
206	0xbc4e97f2	-0.012609469
207	0xbf38e654	-0.7222645
208	0xbd2682cd	-0.040652085
209	0x3c1795cc	0.009252023
210	0xbb9fc95f	-0.0048763
211	0x3d7aae12	0.061201163
212	0x3cc3c407	0.023897184
213	0x3d90f7a4	0.07078484
214	0x3da1cf9d	0.07900927
215	0x3d73cba3	0.059520375
216	0xbb2ab6dd	-0.0026048936
217	0x3c9d8835	0.019229988
218	0x3d2c8df7	0.042127576
219	0xbcf6da75	-0.030133465
220	0x3d8bfe50	0.06835616
221	0x3db5cc5d	0.0887687
222	0x3c0eff95	0.008727928
223	0x3d77a8fa	0.060463883
224	0xbc96c76f	-0.018405644
225	0xbde6222a	-0.11236985
226	0x3ce1ecc8	0.027578726
227	0xbd04cd1d	-0.032422174
228	0x3ba453f2	0.00501489
229	0xbbe99e8b	-0.0071294955
230	0x3befe2f6	0.007320757
231	0x3b05cefd	0.0020417564
232	0x3db7b7f2	0.08970632
233	0x3d6865f5	0.05673786
234	0x3d835b57	0.06413906
235	0xbd4502d4	-0.0480984
236	0x3ce1b58f	0.027552394
237	0xbe2ae749	-0.16689791
238	0x3c8a0535	0.016848186
239	0x3c909c87	0.017652763
240	0xbc7ebcea	-0.01554797
241	0x3da67871	0.08128441
242	0x3bd46fe8	0.006483067
243	0x3e2ed022	0.17071584
244	0x3d4a86b6	0.049444877
245	0xbda6589d	-0.081223704
246	0x3e01f8af	0.12692522
247	0x3c9e26c0	0.019305587
248	0xbc7a92f5	-0.015293826
249	0xbda26b8d	-0.0793067
250	0x3d896860	0.06709361
251	0xbc7168a8	-0.014734425
252	0x3d1dad48	0.038495332
253	0x3c8f7420	0.017511427
254	0xbe6d5ead	-0.23180647
255	0x3d6aac51	0.05729324

fc3.bias f4 [46]
0	0x3ebacaab	0.36482748
1	0x3eb1b8db	0.34711346
2	0x3ebcdde0	0.36888027
3	0x3ebcf646	0.36906642
4	0x3ed65727	0.41863367
5	0x3ede7520	0.43448734
6	0x3ee6b1e8	0.45057607
7	0x3edb48d1	0.42828992
8	0x3e88da06	0.2672884
9	0x3ee317c1	0.4435406
10	0x3e9257f8	0.2858274
11	0x3ec92d33	0.39292297
12	0x3edd0d12	0.43174034
13	0x3eec7d18	0.4618919
14	0x3edd2699	0.4319351
15	0x3ea10ddf	0.31455895
16	0x3ed5d8d4	0.4176699
17	0x3ed790aa	0.42102557
18	0x3ecd6b88	0.40121102
19	0x3ee22e5c	0.44175994
20	0x3eaa2c90	0.33237123
21	0x3ea7a339	0.32741717
22	0x3ebec6d4	0.3726107
23	0x3eca6b57	0.3953502
24	0x3ed2043f	0.41018865
25	0x3e6cc46a	0.23121801
26	0x3ea545f5	0.32279935
27	0x3e932275	0.28737226
28	0x3ea4aaf0	0.32161665
29	0x3ed18f7d	0.40929785
30	0x3eb61b78	0.35567832
31	0x3ed8ebbe	0.42367357
32	0x3ed8f593	0.42374858
33	0x3ec92677	0.3928716
34	0x3ea7e51e	0.3279199
35	0x3e81b424	0.2533275
36	0x3ebfd58f	0.3746762
37	0x3ed64c53	0.41855106
38	0x3e9c4b2e	0.30526108
39	0x3ea2936e	0.31753105
40	0x3eb47091	0.3524213
41	0x3ece9234	0.4034592
42	0x3e9fa232	0.31178433
43	0x3eb1fe20	0.34764194
44	0x3ea9da05	0.33174148
45	0x3ea14d2e	0.31504196
