mp4-machine-learning-template/model/model.pth (torch, 89342 bytes, 14 tensors)

fc1.weight f4 [120, 51]
00000000: 4d2c 393d 53f7 ae3b 23b0 dc3c 7fda e1bc
00000010: 6ed1 56bd 1e69 d3bb e1bb 20bb b295 cf3c
00000020: 328f cbbd ea2c 543b 0c3d 1bbd f669 19bb
00000030: 6fce 16bb 5b45 68be 144b 5ebd b701 7fbe
00000040: f491 1abd 9a37 9abd 7d0f ebbb 4ed2 b3be
00000050: a60a 193d 7a4e 2dbe 1b54 10bd 24d5 f5bd
00000060: 3d11 873c a748 65be 7077 0d3d a153 863c
00000070: 9a56 f6bd 2c13 923e 2ff8 e3bc 769f 343f
00000080: b0e0 4cbe 31ec e43e df41 0cbd ec74 193f
00000090: 7953 e63b 7fdb 85bb 732c 71bd e057 8f3e
000000a0: 96ce 79bd 6d4a b6bd 5911 b43d 01fe 233c
000000b0: a07d 943d 78ca 04be 7565 71bd b340 bb3d
000000c0: e1eb ad3e 5b02 11bd 8e1e db3d 0830 c2bd
000000d0: 231d 47bd c0f4 a5be 7643 0e3d f307 b1bd
000000e0: 473a eb3d 3411 b6bc a6d7 c6bb 5f0c fbbd
000000f0: b4ad 713d ecb5 3dbd f865 853e 2447 513e
00000100: fd27 b23e 4b57 243e d740 2e3e 8e95 453d
00000110: 37d3 61bd bd67 553e 2e98 2f3e df2f 2f3e
00000120: 068f 66bd 4d5e de3d 79d7 203e a004 f33d
00000130: f2f0 d63d 6ca1 4f3e fbd5 14be e51a 923d
00000140: 5b75 57be 04ce 6e3e 776d a83d e569 4e3d
00000150: 444c e8bd 9d73 00be 03a1 4cbe d097 103e
00000160: be12 b13d 32a0 a73d adde a93e 8583 403d
00000170: 1bd3 66bd 0c7a 38be 0cf4 8fbe a8a1 73be
00000180: a104 0f3e 5ac5 07be 2a97 7ebd ea9a 69be
00000190: 3e99 a0bd 7d07 5ebd 8bed 323e 847a 83be
000001a0: a24b 093e 7622 cebd 5a4f b23b 04a5 593d
000001b0: 27aa 52bd d022 09bc fe77 65be 3985 8fbd
000001c0: aa3e 06be 76ac 993d b348 63be de92 a4bc
000001d0: eeae 0bbd 9fa8 76bd 06db 29be f977 163e
000001e0: 0cdc 19be 0e2b b3be 92c6 143d 9cd1 a9be
000001f0: 444c 383c e875 053f a07f 463c 89e7 6c3e
00000200: a9d0 ee3d bba6 523e 5ba6 ea3d 74f3 a9bd
00000210: cdaf 923d d7f1 cfbd c181 1c3d b19b 83be
00000220: 428b 153d 2771 e4bc b997 8e3c 84d6 f63b
00000230: 6c19 3ebd d56d 5d3e 99a9 babc 7fa6 0c3d
00000240: e2a3 583e 5c2c cebd 427f 1bbd 380b b0bd
00000250: c0b5 22be f301 553d dc72 eebd bcff 0dbd
00000260: 0376 163d 9c32 173d a3b6 79bb 6670 4fbe
00000270: 7daa 7dbd af1e 46bc 1fa6 5c3e 80e5 cc3d
00000280: 4e4e cdbd e78f f4bc ac56 e8bd 3965 193e
00000290: 4698 693d b1ae a13d 4e4d 693e fc8f 053e
000002a0: 6b9f 553e c2be 763e a2b8 fbbd 874a 593e
000002b0: 1383 ac3e 3ea3 9fbe 22ec 8ebd 4967 943e
000002c0: e69a 6cbd daf7 ffb9 b73b c93d b254 bb3e
000002d0: 85a2 5e3e ffc0 80bd 8896 8e3d 019c 33bd
000002e0: 5840 1b3e 3f70 023e 690f 75be 3e26 103e
000002f0: e177 80bd 41df 333e 2ab4 4f3b 1e97 2d3d
00000300: 70e7 ce3d fa9a dc3d bdc3 7dbe 7300 843e
00000310: abee 233e c386 61be 34f3 ed3d b82f b43c
00000320: 485b 99bc 0421 c1bc ede0 ce3d ef74 62bd
00000330: 6ca5 36bd 79d3 6a3d ef16 35be f980 cfbd
00000340: 56d0 11be cc3e 7d3e 48e4 ffbc 70de 643e
00000350: 8fed 10bd 3e77 863d 08ba e1bb 025a e13c
00000360: 8ff7 e4be 784e 82bd 011e b83c 5a32 bebe
00000370: 1a79 8c3d c00a 26bd 1be8 cd3b 426a 903e
00000380: 78c4 fbbd 627c 713d dddf 303e 1d39 63bd
00000390: bad5 fabc 63ec 913d 40ba 033e 7562 e03d
000003a0: 6fa4 e4bd 81c5 37bb 24b9 bcbd 0587 81be
000003b0: 3f9c b8be fac3 9cbc 57b0 17be 1135 1ebe
000003c0: 66ea b13d eb9e 8c3c 685b 2dbd e926 033e
000003d0: 09d1 a33c d951 b53c 5022 e13d 6b06 c53d
000003e0: cb00 50bd 9efa 6ebc 35b7 b33a c1d0 333d
000003f0: 1a3d a1bd 4344 08be 0877 603e 1caa 0c3e
0.045208264 0.005339542 0.026939457 -0.027570007 -0.05244582 -0.00645174 -0.0024526047 0.025339935
-0.09939422 0.0032375404 -0.037900016 -0.0023409105 -0.0023011228 -0.22682707 -0.05427082 -0.24902998
-0.037736848 -0.075301364 -0.007173477 -0.35121387 0.03736367 -0.16924468 -0.03523646 -0.12003544
0.016487712 -0.22390996 0.034537733 0.0163973 -0.12028237 0.28530252 -0.027828304 0.7055582
-0.20007586 0.4471145 -0.034242507 0.59944034 0.0070289937 -0.004085004 -0.05888028 0.2799673
-0.06098803 -0.08900914 0.08792371 0.01000929 0.072505236 -0.1296786 -0.058934648 0.091432
0.33969024 -0.035402637 0.10699187 -0.094818175 -0.04861177 -0.32413292 0.034732305 -0.08644094
0.11485725 -0.022225 -0.0060681878 -0.12258219 0.059003547 -0.046316072 0.26054358 0.20437294
0.34796134 0.16048925 0.17016922 0.04823833 -0.05513307 0.20840354 0.17147896 0.17108105
-0.05628874 0.1085783 0.15707196 0.118661165 0.104951754 0.20276421 -0.14534752 0.07134036
-0.21040861 0.23320776 0.08224004 0.050393958 -0.113426715 -0.12544103 -0.19983296 0.14120412
0.08646153 0.08184852 0.331777 0.047000427 -0.05635367 -0.18015307 -0.2811588 -0.23792136
0.1396661 -0.13258877 -0.06215588 -0.22813001 -0.07841729 -0.05420636 0.17473428 -0.2567941
0.13407758 -0.10065167 0.0054415883 0.053135887 -0.0514318 -0.008370116 -0.22409055 -0.07007832
-0.13109842 0.075035974 -0.22195701 -0.020089563 -0.034102373 -0.060219403 -0.16587457 0.14694203
-0.15025347 -0.34993786 0.036322184 -0.33167732 0.011248652 0.52133036 0.012115389 0.23135199
0.116608925 0.20571415 0.11457511 -0.08298388 0.071624376 -0.10153549 0.03820968 -0.2570472
0.03650976 -0.027885986 0.017406331 0.0075328965 -0.046410963 0.21623929 -0.022785949 0.03433847
0.21156266 -0.10067055 -0.03796316 -0.0859589 -0.15889645 0.052003812 -0.116430014 -0.034667715
0.03673364 0.0369135 -0.0038103245 -0.2025772 -0.06193017 -0.0120922765 0.21547745 0.10004711
-0.10024701 -0.029853774 -0.11344656 0.1498002 0.057029985 0.07894648 0.22783396 0.13043207
0.20861594 0.24096206 -0.12291075 0.21219836 0.33693752 -0.3117923 -0.069786325 0.2898505
-0.05776491 -0.00048822054 0.09825843 0.36588055 0.21741684 -0.06286811 0.06962305 -0.04384995
0.15161264 0.12738131 -0.2393166 0.14077088 -0.06272865 0.17565633 0.003169308 0.042380445
0.10102737 0.10771747 -0.247817 0.25781593 0.16009013 -0.22024064 0.11618653 0.02199541
-0.018720284 -0.023575313 0.10101495 -0.055287298 -0.044591352 0.057330582 -0.1768453 -0.101320215
-0.1423963 0.24730986 -0.031236783 0.22350478 -0.035382804 0.065657124 -0.0068886317 0.02750874
-0.44720122 -0.06362623 0.022475244 -0.3714779 0.06859036 -0.040537596 0.0062837726 0.28206068
-0.12293333 0.05895651 0.17272897 -0.05547439 -0.03061949 0.07125165 0.12864017 0.10956279
-0.11164176 -0.0028041305 -0.09215 -0.25298324 -0.36056706 -0.019136418 -0.14813362 -0.1544993
0.08687286 0.017165622 -0.0423235 0.12807812 0.019997137 0.022133755 0.10992873 0.09620365
-0.050782006 -0.014586119 0.0013711216 0.043900255 -0.07872982 -0.1330729 0.21920407 0.13736767

fc1.bias f4 [120]
00000000: 0294 493d f658 ecbd 4f85 26bd 0960 88bd
00000010: 3780 8f3d 208d fd3d 452d 03be 30a3 c5bc
00000020: 5866 b8bb d844 00be ce48 093e 0dca 023e
00000030: 8336 093e a72a 7abd 24b7 03be 79a2 b6bc
00000040: 6abc 72bc 9ec7 7e3c 2dd9 b43d c888 95bd
00000050: 5d87 d3bb 6c4b 843d 26c3 a7bd 428a 583d
00000060: 6fc7 893d e90d fc3d 7bd9 f03d 5338 31bc
00000070: 15e9 dabd 1c44 ca3d acf2 0cbe e9a1 043e
00000080: c51e 6e3d f386 f33d 0acc b4bd 3b32 0e3e
00000090: 9a77 2e3d 11c6 04be 8dbb 6b3d 0481 c63d
000000a0: 07be 81bd 4f4e 3bbd 206a 35bd 8ecc d0bd
000000b0: 8a4c 0dbd 88ac 4dbd 014d 1e3d ef03 da3c
000000c0: 2b37 433d 263e 583d b86d 203d c6ba e4bd
000000d0: 4d28 cb3d 27a8 853c 18da 4d3c e491 debd
000000e0: 4c5c fbbd b004 fd3d c1bd 013e e7a8 0cbe
000000f0: dafa bebc 48bf f2bd fc65 e5bd 2bba 08be
00000100: 5af3 8e3c 10be 98bd f884 8abd f27f 81bd
00000110: 6576 ae3d a0eb dd3d 3a6f d3bd c686 d3bd
00000120: 3fff a0bd df33 e63c 5075 373d 8381 52bc
00000130: 038b 853d 3918 d1bc 0d40 f43d 1a2e efbd
00000140: 0c44 e73d 6291 54bd 8894 f83d 71f3 6bbd
00000150: e1f0 eabb 2886 fbbd 8563 16bd 3f01 c8bd
00000160: 4459 853c dee7 a43d 67e5 f53c b399 033d
00000170: 5d55 053d f97d 223d c04d 27bd bc6d e5bb
00000180: d47b d53d bf53 d23d 23df 0b3e 150b 07bd
00000190: eafb 0c3d 6fcf 59bd c382 843d 91e5 5fbb
000001a0: 1ebe 043e 8018 aebd 4404 b9bd f41f ad3c
000001b0: ab77 4c3c a9ec a1bd 6e97 703d 1586 e33d
000001c0: 22d8 d0b9 dfad fabc 87eb 023d cc90 e23d
000001d0: 9448 d7bd 2712 c33d 83ab 4e3d 8714 ca3d
0.049213417 -0.115404055 -0.040654477 -0.06658942 0.07006877 0.12380433 -0.12810238 -0.024125665
-0.0056274347 -0.12526262 0.13406679 0.12772389 0.13399701 -0.061075833 -0.12862831 -0.02229427
-0.014815429 0.015550522 0.088304855 -0.073014796 -0.0064553455 0.06459698 -0.081915185 0.052866228
0.06727492 0.12307341 0.11760231 -0.010816651 -0.10688988 0.09876272 -0.13764447 0.12952389
0.058134813 0.11890974 -0.0882798 0.13886349 0.04259453 -0.12966181 0.05755191 0.096925765
-0.06335073 -0.045728978 -0.04429066 -0.10195266 -0.03449682 -0.050213367 0.038647655 0.026613204
0.047660034 0.052793644 0.039167136 -0.11168437 0.09919796 0.016315533 0.012564205 -0.1086767
-0.122734636 0.1235441 0.12670042 -0.13736306 -0.023312975 -0.1185289 -0.112010926 -0.13352267
0.017450023 -0.074581265 -0.06763643 -0.06323232 0.08518676 0.108359575 -0.10323949 -0.1032844
-0.07861184 0.028100906 0.044789612 -0.012848261 0.06520655 -0.025524246 0.11926279 -0.11678715
0.11292276 -0.05189646 0.12137705 -0.05760521 -0.0071698283 -0.12281448 -0.036716003 -0.09765863
0.016277917 0.08052038 0.030016614 0.032129 0.032552112 0.039670918 -0.040845633 -0.0070016067
0.10424009 0.102698795 0.13659339 -0.032969553 0.03441993 -0.05317634 0.06470253 -0.0034163932
0.12963149 -0.08500767 -0.09034017 0.0211334 0.012479703 -0.079064675 0.058738165 0.111095585
-0.00039833883 -0.030600486 0.031962898 0.11062774 -0.1051189 0.09524947 0.050456535 0.098671965

bn1.weight f4 [120]
00000000: 232b 2840 5ff1 db3f 4a53 ae3f d90d d93f
00000010: a55d de3f 78d5 bb3f a5b4 cb3f ac54 e43f
00000020: f86d b23f 7018 ce3f 9f06 af3f 598c bd3f
00000030: e13a a93f 8283 d63f e2c9 c63f 3eed 9f3f
00000040: a552 e03f 7bed e03f 0c61 2740 0754 bd3f
00000050: 32da d93f 64b4 d53f 8e79 eb3f 99b9 d23f
00000060: d4db cd3f 9101 b53f bc68 bb3f cef3 ee3f
00000070: 7d3d eb3f 18f7 ea3f da02 c13f b544 f83f
00000080: a484 9b3f d755 a73f ae56 ff3f 44cf 2240
00000090: e145 da3f 9bb7 b93f 0a65 c63f 2d92 ee3f
000000a0: 1ca7 d63f 2b30 bb3f 5ee3 c63f 71f8 de3f
000000b0: aa59 cb3f 7b68 bf3f d52d fd3f d9c1 b53f
000000c0: bacb c53f d7f3 963f 3e4c da3f 06b5 b03f
000000d0: 9a0b c93f f3f7 ca3f 40eb e13f 296d b93f
000000e0: b896 d23f ad2b cf3f 6f83 db3f 3145 bc3f
000000f0: 2d1e e13f d85d 0440 594f b83f 9b13 0340
00000100: 9877 df3f 92d5 c83f 1db8 0c40 ec22 ce3f
00000110: 4ca4 c13f 0dd0 1640 8c26 0740 b9c7 b93f
00000120: dab2 ef3f 8d17 e73f fa29 b43f a6eb db3f
00000130: 08f4 b73f d0a3 c93f d21d cb3f ab14 cc3f
00000140: 1bec d33f 4fea 0040 eda9 b93f a3a0 ae3f
00000150: 6889 1340 37ef bc3f d5cc e33f 6586 eb3f
00000160: 6fde dd3f d135 c23f 659f a43f 15e4 943f
00000170: 993c b53f 962e ea3f 75e7 b53f 566d ec3f
00000180: 8994 de3f 8b8a f43f 1d26 cf3f dd30 1040
00000190: dc25 e53f 1b68 e63f 2895 d53f 9f8e e13f
000001a0: 994d e73f 55db a73f 5792 1940 2f3a ab3f
000001b0: 63de c23f 8a68 ae3f 52ed d73f 585a dc3f
000001c0: ca68 c73f 47e5 df3f 6c64 da3f 2987 cc3f
000001d0: 798a f13f 67a9 0b40 b8b5 c33f 8278 1340
2.6276329 1.7183036 1.3619168 1.6957351 1.7372328 1.467452 1.5914503 1.783834
1.393981 1.6101208 1.3673896 1.4808456 1.3221093 1.6758883 1.553036 1.2494276
1.7525221 1.7572473 2.6152983 1.4791268 1.7019713 1.6695676 1.839647 1.646289
1.6082711 1.4141103 1.4641337 1.8668153 1.837814 1.8356657 1.5078995 1.9395968
1.2149854 1.3073071 1.9948328 2.5439005 1.7052575 1.4509157 1.5499585 1.8638359
1.6769748 1.4624075 1.5538137 1.7419568 1.5886738 1.495376 1.9779612 1.4199783
1.5452797 1.1793164 1.7054517 1.3805244 1.5706666 1.5856918 1.7649918 1.4486438
1.6452246 1.6185204 1.7149485 1.4708616 1.7587334 2.0682278 1.4399215 2.0480716
1.7458372 1.5690176 2.1987374 1.6104407 1.5128264 2.3564484 2.1117277 1.4514076
1.8726456 1.8054062 1.407531 1.7181289 1.4371347 1.5753117 1.5868475 1.5943807
1.6556429 2.014301 1.4504982 1.3642772 2.3052616 1.4760503 1.7796885 1.8400389
1.7333506 1.5172673 1.2861143 1.1632105 1.4159118 1.8295467 1.421126 1.8470867
1.7389079 1.910478 1.6183506 2.2529824 1.7902179 1.800052 1.6686144 1.762165
1.8070556 1.311381 2.3995569 1.3377131 1.5224117 1.3625653 1.68693 1.7215071
1.5578854 1.7491845 1.7061896 1.5978748 1.8870384 2.1822145 1.5289831 2.3042302

bn1.bias f4 [120]
00000000: 13db debf 8bef 103f c89d 673e 30ab ba3e
00000010: 1978 4e3e 83a6 4b3f ef5f ae3d 4bf4 cf3d
00000020: 853b da3d 06ce f83d 9df8 1dbf dbec 3f3f
00000030: 549a 303e c2dc e63d 43ba 27bf ff84 39be
00000040: 5236 34bc 6ad7 493f 9f35 0040 db68 043d
00000050: dd61 6dbe 7cc6 be3e 2c8f b23e 49cb 343f
00000060: 67b6 3dbe 8913 fabe 0877 923d 47c9 8fbf
00000070: c165 b8be 97cd 9f3f 761c 03be 322a a43f
00000080: 8032 cd3e 4243 73be edc4 b2bf 80fd de3f
00000090: 30a4 1b3f 7b23 05bf 18ce 6ebe c5af 7ebd
000000a0: 775b 91be 5ba6 b33e f90a c53e aa64 033f
000000b0: 2cf7 a5be d48a b7be 6f6f 8a3e 3974 8cbe
000000c0: a8b7 ddbe 1205 0abe ce12 343e 6694 8abe
000000d0: 0132 67bf 85d2 153e 8230 8cbe 848d 94be
000000e0: de24 6fbf 97b8 823f fedc 9cbd 1fd1 a4be
000000f0: 8c34 183f f48d b3bf a923 663f 93c9 be3f
00000100: ca8a 873e 1e87 7ebe ac28 f2bf cea5 f23e
00000110: 2b08 bcbe 45a5 ca3f 1c37 b33f ef65 22be
00000120: 6555 263e 78a0 94bf 9042 14be cae1 79bf
00000130: 4633 123e 8acf 4abf 0e0f d2be 7db6 d13d
00000140: e8b1 b5bf 2258 51be e789 203f e449 a43d
00000150: e51d c1bf 9ee2 043f a746 8c3f 1b0d 85bf
00000160: 6317 e1bc 5f38 9bbe b793 5fbe ead4 c13e
00000170: 58cb 5f3e eda2 a0bf 800c 39be 42d8 f63e
00000180: c025 3bbd 63b4 dc3e 2028 1fbe 9e68 d53f
00000190: b35d 09be 269f 7bbe 6a80 c8bd 5012 12bf
000001a0: 7c03 f1be 53aa 13bf 8d3c d7bf 4df4 d73d
000001b0: 9d24 503f a56e 403e 89d5 2e3f 3d69 623f
000001c0: 8109 ebbe 7003 8d3f f089 8dbf f2b8 6c3e
000001d0: f158 9e3f c320 c03f 427d 21bd 57cf c43f
-1.7410606 0.56615514 0.22618783 0.3645873 0.20163001 0.7955095 0.08514392 0.10154017
0.10655884 0.12148671 -0.6170748 0.7497079 0.17246372 0.11272575 -0.6551859 -0.1811714
-0.010999279 0.7884432 2.0032728 0.03232656 -0.23181863 0.37260807 0.34874856 0.7062269
-0.18526612 -0.4884303 0.0715161 -1.12333 -0.36015132 1.2484616 -0.12803826 1.2825377
0.4007759 -0.23756126 -1.3966347 1.7421112 0.60797405 -0.52007264 -0.23320806 -0.062179346
-0.28390095 0.35087857 0.38484934 0.51325476 -0.3241514 -0.35848105 0.27038142 -0.2743242
-0.4330418 -0.13478497 0.17585298 -0.27066344 -0.90310675 0.14631088 -0.2738076 -0.29014218
-0.9341563 1.0212582 -0.076593384 -0.32190797 0.5945518 -1.4027696 0.89898163 1.4905266
0.26473075 -0.2485623 -1.8918662 0.47392124 -0.36724982 1.5831686 1.4001193 -0.15859197
0.16243513 -1.1611471 -0.14478517 -0.9761015 0.14277372 -0.7922293 -0.4102711 0.10239885
-1.4194918 -0.20443776 0.6271042 0.08021906 -1.5087248 0.5190829 1.0959061 -1.0394624
-0.027476972 -0.30316445 -0.21833692 0.37857753 0.21854913 -1.2549721 -0.18071175 0.48211867
-0.045690298 0.43106374 -0.1554265 1.6672552 -0.1341465 -0.24572429 -0.09790118 -0.5705919
-0.4707297 -0.5768177 -1.6815354 0.105446436 0.8130587 0.18792208 0.6829458 0.8844183
-0.45905688 1.1016674 -1.105772 0.23117426 1.2370893 1.5009998 -0.039426096 1.5375775

bn1.running_mean f4 [120]
00000000: 7251 143d adda 02be 3401 28bd 5b78 90bd
00000010: 0cb7 873d d0e6 e93d 7d26 07be 49d1 00bd
00000020: 5479 953b d8a7 ccbd 7b09 113e e579 ef3d
00000030: 6ad1 0f3e c4a9 bbbd 68b3 18be ec97 2ebc
00000040: ef1f d3bc 6619 2d3c 70ae b53d 5342 95bd
00000050: 80ba d1ba 4caa 533d 1a72 83bd 1826 883d
00000060: 9893 403d 8777 e33d c27c fd3d 5141 35bd
00000070: 3ccd 01be 9438 a63d 1a62 d2bd dde1 273e
00000080: c0ac af3d 8a7e d63d 1c39 9ebd bd74 033e
00000090: 3d9e 563d 3a0c 04be 29a6 6f3d 906a db3d
000000a0: e1ec 5fbd 4a03 39bd 4165 00bd a061 d0bd
000000b0: 4d3d 05bd bb1c 19bd b747 463d 027f 173c
000000c0: 738e 293d ddfb 553d bcd8 5e3d 20d8 bdbd
000000d0: c698 8c3d 24d9 193d b8c1 0c3d 55d9 d8bd
000000e0: 96a1 11be 84ba eb3d f82e 063e 038a 12be
000000f0: 21c7 96bc ebd1 c5bd e6db e3bd 2c5e eabd
00000100: 40cf 873c b945 a0bd 4e7c bebd 648e 8fbd
00000110: 923b 883d 6b57 b93d ef83 c1bd 9a8a d8bd
00000120: 4521 94bd 9a8b f83c be6b 473d f2af d8bc
00000130: 5933 653d 4097 02bd 3d03 e23d 3058 edbd
00000140: 69ba bc3d 187a 73bc 4f46 f83d e23e 3ebd
00000150: 3ba6 40bc c22c cfbd 7ce6 26bd 1f0e b9bd
00000160: d055 c33c 80be a03d 067c b73c 994c 833d
00000170: 70f1 d03b 2723 623d f9c7 5bbd b2fa 4c3b
00000180: 7b65 b73d 68b6 ae3d add0 0c3e 5055 c73b
00000190: f4f9 1f3d d1bd 58bd 42b1 cb3c 2630 453c
000001a0: d7ad 143e e23f a8bd 3e44 adbd eae0 b03c
000001b0: f89e ea3c e668 c7bd a27e 943d 9962 d63d
000001c0: dc53 f63b 6868 b43b 72ee 083d d598 c43d
000001d0: 404f a6bd f72d ee3d f872 423d 26df 923d
0.036210485 -0.1277873 -0.041016772 -0.07054206 0.0662671 0.11420977 -0.13198276 -0.03144959
0.0045615826 -0.09992951 0.14163773 0.116931714 0.14044729 -0.091632396 -0.14912188 -0.010656338
-0.025772063 0.0105651375 0.08871162 -0.07288041 -0.0016001016 0.05167608 -0.064182475 0.06647891
0.047015756 0.111067824 0.12377311 -0.044251744 -0.12675947 0.0811626 -0.10272618 0.16394754
0.08577871 0.10473354 -0.077257365 0.12837501 0.052397 -0.12895289 0.058508072 0.107136846
-0.054669265 -0.045169152 -0.031346563 -0.101748705 -0.032529164 -0.037380915 0.048408236 0.00924659
0.041395616 0.05224215 0.054405913 -0.09269738 0.06865077 0.037560597 0.034364432 -0.10588328
-0.14221796 0.115101844 0.13103855 -0.1431046 -0.018405499 -0.09659179 -0.11125927 -0.11443743
0.016578317 -0.078257985 -0.09301053 -0.07009581 0.06651987 0.09049877 -0.094489925 -0.10573311
-0.07232908 0.030340005 0.048686735 -0.026451085 0.055957172 -0.031882524 0.11035774 -0.11589086
0.092152424 -0.014860652 0.12122785 -0.04644669 -0.011758382 -0.10115959 -0.04074715 -0.090358965
0.02384463 0.07848835 0.022398006 0.06411094 0.006376438 0.055209305 -0.053657506 0.0031277356
0.08954903 0.08530885 0.13751478 0.006083168 0.039056733 -0.052915398 0.024864797 0.012035405
0.1451944 -0.0821531 -0.08460282 0.021591622 0.028640255 -0.09736805 0.07250716 0.10468025
0.007517321 0.0055056103 0.033430524 0.09599463 -0.081205845 0.11629861 0.047472924 0.071714684

bn1.running_var f4 [120]
00000000: 0cf4 ff3f 3f46 9d3f d457 9e3f 6b91 aa3f
00000010: b320 953f 1f07 c83f 8f86 9b3f 361b a63f
00000020: dbaf 7e3f f042 8e3f 6898 7d3f 977d 8e3f
00000030: 30c6 a53f abe7 ae3f 7c01 ea3f ffbd 883f
00000040: 247c b13f ab5c 9d3f 96a8 8940 f983 9b3f
00000050: c6d5 843f 150d b23f 072a a83f 8b1e a73f
00000060: c8a4 b23f 20cc f93f 0ed3 953f 5985 3440
00000070: 5bfe 863f bba1 0b40 62a3 a43f 2e5f 3940
00000080: bb85 c53f 429e b43f 770f dc3f 4ba0 c33f
00000090: 0241 d43f be4b 753f de26 883f 9c8b 993f
000000a0: d509 8c3f 71f5 893f 097a 0040 33cc c73f
000000b0: 7218 a83f 241b aa3f 20b3 983f 9f83 953f
000000c0: bbf0 c13f 531f 893f a98b b53f ca39 e33f
000000d0: 2359 0a40 5f52 a23f 53c5 c23f a413 a83f
000000e0: 0322 c83f f415 a040 cc4b 9c3f d60b aa3f
000000f0: 1dce a03f 3a77 fd3f a03e 1340 a01a 0040
00000100: 58e4 7b3f c02f 823f e199 0640 166d 883f
00000110: b93c b63f 5d55 cb40 5dc2 2c40 7e66 c73f
00000120: cbae 813f e0d8 ae3f 9e67 8c3f a3c3 bb3f
00000130: 7973 8a3f 80d9 de3f 82b4 993f 5183 bc3f
00000140: 95a0 c73f de70 8d3f c02f 9a3f a8e2 9a3f
00000150: 4733 0d40 86df ae3f aa13 8440 efdf 6f40
00000160: 7699 9e3f 7422 a63f 54cc 973f d047 c13f
00000170: 610f 913f 5ac9 c53f 8434 af3f a907 b23f
00000180: 5c06 a03f 285a cd3f 3c9e 9d3f 9e93 6f40
00000190: 49b2 a23f e114 773f 4d23 b23f c4ef a43f
000001a0: fd71 af3f 3996 983f 4068 c63f 8551 833f
000001b0: 8990 af3f af4b 8f3f ac27 a83f 8028 9a3f
000001c0: b506 a53f fe10 6640 84ef 7f40 8991 6a3f
000001d0: 6118 2940 6ec2 f63f 8a42 cc3f 4e73 1140
1.9996352 1.2287062 1.2370553 1.3325628 1.1650604 1.5627173 1.2150439 1.2977054
0.99487084 1.1114178 0.9906068 1.1132077 1.2951107 1.366445 1.8281703 1.0682982
1.386601 1.2293905 4.3018293 1.214965 1.0377738 1.3910242 1.3137826 1.3056196
1.3956537 1.9515419 1.1705034 2.820639 1.0546373 2.1817462 1.286236 2.8964343
1.5431436 1.4110796 1.719222 1.5283293 1.6582339 0.958187 1.0636861 1.199573
1.09405 1.0778028 2.0074484 1.5609192 1.313246 1.3289533 1.1929665 1.1680793
1.515159 1.0712684 1.4183246 1.7752011 2.1616905 1.2681388 1.5216469 1.3130994
1.563538 5.00268 1.2210631 1.3284862 1.2562901 1.980201 2.3006973 2.001625
0.983953 1.0170822 2.103142 1.065829 1.4237281 6.3541703 2.699363 1.5578153
1.0131468 1.3659935 1.0969121 1.4669079 1.081649 1.7410126 1.2008212 1.4727575
1.5595881 1.1050069 1.2045822 1.210042 2.2062547 1.3661964 4.1274004 3.7480428
1.2390583 1.2979264 1.1859231 1.510004 1.1332818 1.5452073 1.3687901 1.3908588
1.2501941 1.6043139 1.2313914 3.7433848 1.2710658 0.96516234 1.3917023 1.2885671
1.3706661 1.1920844 1.5500565 1.0259253 1.3715984 1.1194972 1.3137107 1.204361
1.2892672 3.5947871 3.9989939 0.9162832 2.642113 1.9278085 1.5957806 2.2726626

fc2.weight f4 [84, 120]
00000000: 2236 a63d 2b4c 6fbe 3830 2ebd 2118 1b3c
00000010: 23e6 783d cea9 133e c345 15be bbcd 43be
00000020: c9c7 c73d 4a07 eb3d 5636 1ebe e2b3 55bd
00000030: 5029 15be 68c2 f63c c3de a73c 029b 033c
00000040: 95c9 d53d 7241 71be 3ed3 78be 45a5 03be
00000050: 32be 1c3b ef97 8f3d 4471 9b3c bc33 2e3a
00000060: b7ae 193e 7cbf 6c3d 7292 3fbd dcaa bb3d
00000070: 2883 08be 095d 103e 28d8 a13c c7ec dabb
00000080: 764d a73c 679f 073e 6a48 e8bd f39e 563c
00000090: 1a75 eebd 6e90 a8bc e413 fcbd 086a 423d
000000a0: b7a3 1cbd d1de bfbb 9907 0ebe 0855 b23d
000000b0: ee5e 393e f184 29be c71a a03d daa3 ea3c
000000c0: afa2 11bd cbd2 f73d 588e 19be 27a4 0abd
000000d0: 1d07 e33d 728e 193e 7a96 8bbb 75d7 193d
000000e0: a8b2 c0bd 5564 8dbd 2ec0 d9bd 7a04 91be
000000f0: 1f35 9ebd c804 453e 6b11 333e 91de 1ebe
00000100: 97ab 063e d547 d0bd e53f 4ebe 24a4 863d
00000110: 0ab9 cdbc 53f4 83bd 77e3 10be f4cf b6be
00000120: d47e 733d 80b8 1abd 6f2a bebd c353 7b3c
00000130: 0492 f63b 3a47 d53d 2d62 cdbd 3187 e33d
00000140: 941c b9bd f1f9 ffbc cb62 7a3d 5e19 3b3c
00000150: 2822 a0bd 4be2 3c3e 7fdc 9fbe 394d 3b3e
00000160: 1b07 da3c 7465 c33c 0627 bf3d 720e 293e
00000170: 4ca6 c6bd e3c1 c33d 89de 9f3d 6c80 3d3e
00000180: bfc1 f5bc 2cb2 0dbc 691d 1e3d ce8e 663d
00000190: c7d8 11be 1c7d 19be 92fd a53d dd26 d0bd
000001a0: 9d6e 0f3e 44d3 b8bd 6849 633c 6b9f b73d
000001b0: f6a9 103e 24de f3bd 55de c43c 5975 8cbc
000001c0: 53a3 72bc c2f0 03bd 7d6a 143e cf6c 213e
000001d0: 3e2c acbc 360c adbd 609f 733e 5c37 87bd
000001e0: f908 57be 17a4 d0bd 84f9 483e a4bd c63c
000001f0: 8261 a7bd d2fc b0bd 30e7 b1bc 74e7 f9bd
00000200: f291 353e 3d37 d3bd acca 08be a8b9 453c
00000210: b690 433e 1939 9839 d773 6a3d 2fe6 f83d
00000220: e65f 1a3d d455 44be 6918 063e a59b 363e
00000230: 7fed ebbd f2c4 efbb 0d72 883e de69 c7bc
00000240: e07e 6abe 4f9e abbc e840 72be 731a 07be
00000250: 7727 adba 8441 7b3d 4631 83be 8cb0 87be
00000260: 3f31 923d 7068 823c a247 e9bd 02e1 a53e
00000270: 3a8a 81bd 9bfa 17be 83ed 62bd f9f5 92bc
00000280: 1ffa b5bd c115 81bd 862c b4bb 937f 93bc
00000290: 2917 3fbe 2767 983c 45c4 21be 3a0c e0bc
000002a0: e47c 8e3e 97fe bf3d 5a87 2dbe 98ed bebd
000002b0: 9edc d43d e716 943d 5ff6 c83c b341 963d
000002c0: c2c9 a03d ccfd d33b c10f a5be 1cba 92bd
000002d0: 2083 7abe 2307 7a3d 23f6 10bd bc12 393e
000002e0: ccee c33d 86f4 31be dd2f 9fbd d900 0fbe
000002f0: cb71 9ebd 0f4e 0e3e eb3c 17bc 80b4 08be
00000300: a61e 5dbe 6582 30be 1f83 c1bd 1d5b 973d
00000310: 471a 113e 363e ac3d 5fae 51bd c370 5f3e
00000320: 9794 dabc 588e 0e3d 2513 57bd a25d 1d3c
00000330: 7f11 fe3b b3a1 3e3d da18 4bbe 0f4c 7d3d
00000340: 6786 36bc 8f59 22be 9ab8 cebd 8ce0 193e
00000350: 9528 e63c bd4a 303e 2bee 24be bf32 e0bc
00000360: d5cf 2abd c68d 313c e7fb eb3b 585b a23d
00000370: 932b 36be b222 4dbd 886e 363e 464b 42bd
00000380: 4379 7d3b 48a7 3e3d 498c 9cbe e7fd 1d3e
00000390: a226 40bd 686c cfbd 06c7 483e 7eaa 60be
000003a0: bfea da3b dee2 5d3d c63a f5bd c496 923c
000003b0: d1f8 c43d 345f 083e 5df7 d7bd c48f 863d
000003c0: 16de a6bd c0c1 cd3c 1174 113e ffe2 423e
000003d0: a80f 5b3d 2ba8 af3d 8067 003d 1315 7b3d
000003e0: 5fbe 1b3e 24b1 f8bd 7b14 0b3e 8f61 4c3d
000003f0: 873b 0a3d b052 833b acf0 d63c 05a2 123d
0.08115794 -0.233689 -0.042526454 0.009466202 0.06076635 0.14420244 -0.14577393 -0.19121449
0.09754903 0.11476 -0.15450415 -0.052173503 -0.1456654 0.030121997 0.020491963 0.008032562
0.10438839 -0.23560122 -0.24299332 -0.12856014 0.0023917076 0.07011401 0.018974908 0.0006645282
0.15008055 0.0577998 -0.04677052 0.09163448 -0.13331282 0.1409799 0.019756392 -0.006681058
0.020422678 0.13244401 -0.11341937 0.01309942 -0.11643429 -0.020576682 -0.12308481 0.0474644
-0.03824207 -0.005855419 -0.13870086 0.08707625 0.18102619 -0.1655462 0.078176074 0.028642584
-0.035555538 0.121007524 -0.14995706 -0.033847954 0.11085341 0.14995745 -0.0042598816 0.03755899
-0.09409076 -0.069039024 -0.106323585 -0.28323728 -0.07724976 0.19240105 0.17487113 -0.1551459
0.13151394 -0.10169951 -0.20141561 0.06574276 -0.025112648 -0.064430855 -0.14149271 -0.3570553
0.059447125 -0.03777361 -0.09285437 0.015339795 0.0075247306 0.10413976 -0.10028491 0.1110977
-0.09038654 -0.031247111 0.061129373 0.011419622 -0.07819015 0.18445699 -0.31222913 0.18291177
0.026614716 0.023852088 0.09333615 0.16509417 -0.09699687 0.09558465 0.07806117 0.1850602
-0.029999612 -0.0086484365 0.038602266 0.056288533 -0.1424285 -0.14989132 0.08105005 -0.101636626
0.1400704 -0.09024671 0.013872482 0.089659534 0.14127335 -0.11907604 0.024031797 -0.0171458
-0.014809447 -0.032212026 0.14493747 0.15764163 -0.02101719 -0.08449595 0.23791265 -0.06602356
-0.20999517 -0.10187548 0.19626433 0.02426035 -0.08172895 -0.08641972 -0.021716684 -0.12202349
0.17731455 -0.1031327 -0.13358563 0.01206819 0.19098172 0.0002903424 0.05723938 0.12153279
0.037689112 -0.19173366 0.13095249 0.17832811 -0.11519908 -0.007317179 0.26649514 -0.024342474
-0.22899961 -0.02094951 -0.23657572 -0.13193683 -0.0013210614 0.061341777 -0.2562353 -0.26501882
0.07138299 0.01591894 -0.11390616 0.3239823 -0.06325193 -0.14841692 -0.05540229 -0.017939555
-0.088855974 -0.06302977 -0.0054984717 -0.018005168 -0.18661179 0.018603874 -0.15797527 -0.02734958
0.2782966 0.09374731 -0.16946164 -0.09322661 0.10393642 0.07230931 0.024531541 0.0733675
0.07850982 0.006469464 -0.32238582 -0.07164404 -0.24464083 0.061041962 -0.035390984 0.18073553
0.09567031 -0.17378435 -0.07772801 -0.13965167 -0.07736548 0.13896964 -0.009230833 -0.13350105
-0.21593723 -0.17237242 -0.094488375 0.07390425 0.1417018 0.08410303 -0.051191684 0.21820359
-0.026682181 0.03480372 -0.052508492 0.009604843 0.0077535505 0.046540927 -0.19833699 0.061840113
-0.011140442 -0.15854476 -0.10093804 0.15027064 0.028095523 0.1721601 -0.16106479 -0.027367948
-0.04170211 0.010837024 0.00720166 0.07927579 -0.1779006 -0.050081916 0.17815602 -0.047435068
0.0038677014 0.04654625 -0.3057578 0.15428887 -0.046911843 -0.10128099 0.19607171 -0.21940038
0.006680816 0.054171436 -0.11974101 0.017894156 0.096177705 0.13317567 -0.10545228 0.0657039
-0.08147828 0.025116801 0.14204432 0.19031905 0.053481728 0.08576997 0.031348705 0.061299395
0.1520934 -0.12143162 0.13582031 0.049897727 0.033748176 0.00400766 0.026237808 0.035799045

fc2.bias f4 [84]
00000000: 5073 153d 060e 35bc 6aaa 40bd 507f 633b
00000010: 0cc3 4ebd c857 b23c 6406 ad3c 2699 973d
00000020: 16c3 1ebd ca32 56bd 9034 63bd f8fa 4ebd
00000030: 5fc6 2d3d 42dc 03bd 6b9b a2bd 69d3 ae3a
00000040: 5a95 cd3c 3100 563c fbff 463c 5af9 af3c
00000050: 6e55 90bc 8ae9 5ebd 6e51 40bd 9643 03bd
00000060: 8ba6 83bd a82a 673d 695a f53c 1eb0 66bd
00000070: a921 23bd 96cd 6bbd b5e3 b63d 0960 a83d
00000080: 04db b93d 8b61 d73c aa3b a73d 329a 233c
00000090: dfd8 71bc e7ab 19bd 7436 59bd 1761 b3bd
000000a0: 845e 89bd 0703 ae3d 8e15 333d 43df 9ebd
000000b0: b0d7 fc3b 4919 b03d a75d 1ebd 4104 b6bd
000000c0: f127 813d eaab 4cbc a04d 943d 30fa 5c3d
000000d0: 8f3c 63bd b800 943b 27f2 c43b 50bf 97bd
000000e0: c7b4 a83d a28a a23d 821a ae3d 9231 363d
000000f0: d5bc ff3c 22c8 743d 3428 13bc 5770 fc3c
00000100: 990c 993d bbbc 9bbd a616 793d 1e1e 22bd
00000110: dffc ca3c e737 b3bb 7146 5bbd 79e5 bd3b
00000120: 9ee8 cc3c 6b2b a6bb 698c 723d 082c 1b3d
00000130: 2830 f23a f845 d93c f57a 97bd f91a ab3d
00000140: c4d6 0a3c e2ea a0bd f43b 12bd 76e1 9b3d
0.036486924 -0.011050707 -0.04703752 0.0034713335 -0.05047898 0.021770373 0.021121211 0.074022576
-0.038760267 -0.05229453 -0.05547005 -0.05053231 0.04242551 -0.032192476 -0.079398 0.0013338152
0.02509563 0.013061569 0.012145991 0.021481205 -0.017618861 -0.05442194 -0.046952657 -0.032046877
-0.0642825 0.056437165 0.029950337 -0.056320302 -0.039827023 -0.05756911 0.089301504 0.08221442
0.09074977 0.02629163 0.08165677 0.0099854935 -0.014761179 -0.037517454 -0.053030446 -0.08758753
-0.067074805 0.08496671 0.043721728 -0.077574275 0.0077161416 0.08598573 -0.038663533 -0.0888753
0.06306446 -0.012492159 0.07241368 0.053949535 -0.055477675 0.0045166872 0.006010312 -0.07409537
0.082376055 0.07936598 0.0850115 0.044480868 0.031217972 0.059761174 -0.008981753 0.030815287
0.07473106 -0.07604357 0.060812615 -0.039579503 0.024778781 -0.0054693106 -0.053533975 0.0057951775
0.025013264 -0.005071094 0.059215937 0.03788379 0.0018477486 0.026522622 -0.07396499 0.08354754
0.008474056 -0.078573 -0.035701707 0.07611363

bn2.weight f4 [84]
00000000: 5d17 1b3f 3f8b e53e 204c d23e a75e f73e
00000010: fd85 a63f 0741 a93f f6d9 043f 10f4 dd3e
00000020: 5e3b 153f f331 723f 1e27 ac3e fcad ee3e
00000030: 8796 a43f 4bee 9c3f 3e45 143f 9377 d53e
00000040: 1e39 983f 3dec a03f f0d9 913f 9568 fa3e
00000050: 0acc e13e 53d1 083f 3cd0 1c3f cb62 953e
00000060: 4afc e53e c7cc 5e3f 98b8 d73e 8151 183f
00000070: dad9 773f 2ff6 5f3f eadd 583f c6d1 113f
00000080: 72c7 e73e e8a7 913f c7cf 023f 9396 923f
00000090: fd07 fe3e 6d60 c63f 603b fd3e 7074 4c3f
000000a0: d2e6 5a3f cdff ec3e 32b1 123f 5fb2 ad3e
000000b0: 7c63 cb3f 93e5 f03e f53b 1d3f 9c71 383f
000000c0: 974e aa3f 8016 2f3f 4d71 813f 8aed c93e
000000d0: 8bc6 f63e c7ad d13e 9e76 c43f 1de5 ac3f
000000e0: c5ec 053f ad1f 273f 5a97 0d3f 030d f23e
000000f0: 6edd 4e3f 3d36 ae3f 6d23 cf3e 0699 923f
00000100: 3242 a43e 3d8f 1d3f 948c 0d3f e952 a33f
00000110: 95ec b33f f17c c13f ab9b 053f da07 053f
00000120: 2953 bb3e 7c48 b83e f001 c83e bafe 2f3f
00000130: dbeb 203f edb5 173f 62fb b03f dd9f 893f
00000140: 6778 063f 7711 9b3f 5a17 983e 6613 bc3f
0.60582525 0.448328 0.41073704 0.48314402 1.300964 1.322297 0.5189508 0.43350267
0.5829371 0.94607466 0.33623594 0.46617115 1.2858437 1.2260221 0.57918155 0.4169279
1.1892431 1.2572094 1.1394634 0.48907915 0.44100982 0.53444403 0.6125524 0.29176936
0.44919044 0.87031215 0.4213302 0.59499365 0.9681679 0.8748502 0.84713614 0.56960714
0.45269352 1.1379366 0.51098293 1.1452202 0.4961547 1.5498177 0.49459362 0.7986517
0.85508454 0.4628891 0.5730163 0.3392515 1.5889735 0.4705015 0.6141961 0.72048354
1.3305234 0.6839371 1.0112702 0.3943904 0.4819835 0.40952894 1.5348699 1.350742
0.52314407 0.6528271 0.5530907 0.47275552 0.80806625 1.3610302 0.40456715 1.1452949
0.32081753 0.6154669 0.5529263 1.2759677 1.4056574 1.5116254 0.52190655 0.51965106
0.36586884 0.359928 0.39063978 0.68748057 0.62859887 0.5926197 1.3826716 1.0751911
0.5252747 1.2114705 0.29705316 1.469342

bn2.bias f4 [84]
00000000: 0053 153e 6c98 35be d8d4 67bc 06a2 653c
00000010: 7490 63bf e8b5 88bf 690c 2f3e 0083 623e
00000020: 7c03 8d3e 3c89 29bf 8559 46be 0576 79be
00000030: b5cb 68bf d2eb 4d3f 4005 fabd c2f4 51bd
00000040: 7f10 613f 42b0 35bf c1d7 50bf be2f 13be
00000050: 6b95 9ebd b219 d63d 20f9 d63d 2eb5 88bd
00000060: 9438 7cbe f41e 1b3f 5597 673e 17cd 8b3e
00000070: 0fc1 22bf bf9a 183f 806f 3cbf 3551 2dbe
00000080: e6c2 f43e bc92 62bf d5e3 683e 7e6f 6f3f
00000090: e57b 203d dbc7 993f c7d6 693e c4ec ee3e
000000a0: 4d7e f23e 577a 553e f4f5 8fbe b688 7c3e
000000b0: 95f5 8d3f a74f 193e 8f0e 6d3e cfcb 353e
000000c0: 030c 5b3f 264a 23be 0a75 2abf 90a9 743e
000000d0: 2a73 98be 215b 863e 3824 8bbf f871 703f
000000e0: 9ad4 1ebe ed76 ebbe b254 3bbe a91c a23e
000000f0: 045e e8be b7a3 73bf 970f a7bd 3c15 31bf
00000100: 44f4 3e3e 2a8b ec3e ce4e 1dbe 1241 743f
00000110: bdfd 8b3f 15c2 953f cb2a 1e3e 770c a0be
00000120: f0b5 b93e 7266 313d df12 073e 16b8 fe3d
00000130: 5d45 0d3e 0730 84be b33a 75bf b45a 46bf
00000140: a019 89be 6f12 543f 5f7f 89bd 04fd 743f
0.14582443 -0.17733926 -0.014149867 0.01401568 -0.8889229 -1.0680513 0.17094578 0.22120285
0.2754172 -0.6622503 -0.19370086 -0.24361427 -0.9093583 0.8043796 -0.122080326 -0.05125881
0.87915796 -0.70972073 -0.81579214 -0.14373681 -0.07743343 0.1045412 0.104967356 -0.06675182
-0.24630958 0.60594106 0.22616322 0.2730491 -0.63575834 0.59611124 -0.73607635 -0.1692551
0.47804946 -0.8850515 0.22743161 0.935295 0.039180655 1.2014116 0.22835837 0.46665013
0.47361985 0.2084745 -0.28117335 0.24661526 1.1090571 0.14971791 0.23150085 0.17753528
0.85565203 -0.15946254 -0.6658484 0.23892808 -0.29775363 0.262414 -1.0870428 0.939239
-0.15510789 -0.4598917 -0.18294027 0.3166249 -0.45384228 -0.95171684 -0.081572704 -0.69173026
0.18647867 0.46199924 -0.15362093 0.9541179 1.093681 1.1699854 0.15446012 -0.3125951
0.3627162 0.04331059 0.13190793 0.12437455 0.13795991 -0.25817892 -0.9579269 -0.7748215
-0.26777363 0.8284063 -0.06713747 0.9569857

bn2.running_mean f4 [84]
00000000: c87f 72be 71d1 263f 1722 873f 46f1 4f3f
00000010: a0da c1bf 68e2 fdbe afa7 303f 37b8 3dbf
00000020: 1a56 a43e b664 0ebf d509 91bf 2785 1bbf
00000030: ce70 08c0 fc3b 983f 3dc6 94bf fe90 503f
00000040: 2bb3 a53f 323c bbbf a281 0d3d e885 cbba
00000050: 713f 033f c21f 52bf 682a d4be 9e53 0b3f
00000060: 20ab 19bf 66a8 e63e 1e6a 243f 09c7 5c3f
00000070: a4f1 5cbf ceed 5f3f 1c6f e7be d4f8 15bf
00000080: 41bc 673f e86d a0bf f4f6 bebe 46c4 abbe
00000090: 2b94 edbd 2e98 a23f 9c22 e7be 1de8 bc3e
000000a0: 3168 1b3f 5b59 7b3f 7e4b 07bf 89f7 2cbf
000000b0: d8f7 973f 45e3 8b3d 626f 8e3e d1cb 3fbe
000000c0: e370 453f cc24 ecbe fafc 96bf f5e9 04be
000000d0: 4521 b23e 3af7 74be fd3e a1bf 82de ba3f
000000e0: 00bc 713f 7691 0abf 16f3 67bf d32c 4abf
000000f0: f64b bbbe 329b c5bf 2947 62bf 5a75 93bf
00000100: c7a2 0dbf 021c cebd 921f 223f b3d8 7c3f
00000110: 98f2 c43d c211 b13f b9ec cbbe bbe5 cd3c
00000120: 962e 1f3f 82ef 91bf 772e 47bf 8f04 053e
00000130: f147 51bf 0dcc 3f3f 6886 8ebf 0a95 dfbe
00000140: 0de5 2fbe 02b6 d13f 1957 913e c373 a73f
-0.23681557 0.6516333 1.0557278 0.8122753 -1.5144844 -0.49586797 0.69005865 -0.74109215
0.3209694 -0.5562242 -1.1331125 -0.6075005 -2.131885 1.1893306 -1.1622998 0.8147124
1.2945303 -1.4627745 0.034547456 -0.0015527578 0.5126868 -0.8207971 -0.41438603 0.54424465
-0.6002674 0.45050353 0.6422442 0.86241204 -0.86306214 0.87472236 -0.45201957 -0.58582807
0.9052163 -1.2533541 -0.37297785 -0.33548182 -0.116005264 1.2702692 -0.45143592 0.36895838
0.6070586 0.9818322 -0.52849567 -0.6756521 1.1872511 0.068304576 0.27819353 -0.18730094
0.77125376 -0.46121824 -1.1795952 -0.12979873 0.34791008 -0.23922434 -1.2597347 1.4599154
0.9442749 -0.54128206 -0.90605295 -0.78974646 -0.3658139 -1.5437987 -0.8838983 -1.1520188
-0.55326504 -0.10063936 0.6332942 0.98768157 0.096165836 1.3833544 -0.39829043 0.025133958
0.6218046 -1.1401217 -0.77805275 0.1299002 -0.817504 0.7492073 -1.1134768 -0.43668395
-0.1717722 1.6383669 0.28386763 1.3082203

bn2.running_var f4 [84]
00000000: 3f88 9a40 9070 2140 50cb 0e40 ca3e 9e40
00000010: 2e08 c340 aba4 b340 c41f 1940 4ff6 8b40
00000020: b9b0 a240 fb2b d240 6690 0c40 f486 9940
00000030: 739c 6941 d40e 1841 73e3 3640 93be 1740
00000040: d682 a840 6be8 f140 67ea e240 1e41 4a40
00000050: 9302 1c40 2e78 3d40 dc0f 2240 c1cc fe3f
00000060: 0fbf 0b40 7795 b840 4647 4540 cdc4 5240
00000070: aa52 bd40 88ca a540 ba60 f340 37e4 4c40
00000080: e4ee 8340 416b 2341 1804 6040 e238 0841
00000090: a789 1340 b9bb 9241 86aa 3a40 e048 9740
000000a0: e451 a340 a49c 2a40 cd4e 4b40 854c 5540
000000b0: c92a 0c41 31be 3940 6c64 5f40 f969 f840
000000c0: 425b e540 fdc2 3e40 d60b fc40 5c3e 2540
000000d0: 7ea9 1d40 8f88 3a40 acad 5041 22ea f340
000000e0: 6bda 4740 883e 2840 713d 1f40 ad80 2540
000000f0: 1d22 9040 9c7a 0e41 d2d5 0e40 448a c240
00000100: 12ba 0e40 141a 8540 d2f5 1840 9050 d140
00000110: 97b4 1541 a9b4 5141 eadd 1b40 1839 6b40
00000120: d14d 0e40 1316 0440 a54a 2740 a61f 7540
00000130: 4ef9 4940 dfe2 c840 afbb 1c41 afca d540
00000140: a79e 3e40 a6cc f340 c22d fb3f d501 8d41
4.8291316 2.5224953 2.2311592 4.9451647 6.0947485 5.613851 2.3925638 4.373817
5.0840726 6.5678687 2.1963134 4.797724 14.600696 9.50362 2.8576324 2.3710067
5.265971 7.5596213 7.0911136 3.1602244 2.437657 2.9604602 2.532218 1.9906236
2.1835363 5.768245 3.0824752 3.2932618 5.916341 5.180973 7.6055574 3.2014291
4.1229115 10.213685 3.5002499 8.513887 2.3052766 18.341661 2.916658 4.727646
5.1037464 2.6658106 3.1766846 3.3327954 8.760446 2.9022334 3.4905043 7.762936
7.16739 2.9806511 7.876445 2.581931 2.46347 2.9145849 13.0424 7.6223307
3.1227062 2.6288166 2.488125 2.5859787 4.504164 8.904934 2.2318006 6.079378
2.2301068 4.1594334 2.3900037 6.5410843 9.356589 13.1066065 2.4354196 3.6753597
2.2234995 2.0638473 2.613931 3.8300567 3.1558414 6.277694 9.795821 6.6809916
2.9784334 7.6187315 1.9623339 17.625895

fc3.weight f4 [46, 84]
00000000: 601d 303d acf5 54bd ebe3 8cbb b74a 4a3c
00000010: f5b4 b23c 5178 46bc a57f f43b 184f 93bd
00000020: dd09 c33d 1da1 423c 4e19 07bd 7c2b 40bd
00000030: ddf4 0abd e726 67bc 8198 f4bc 52e2 9fbc
00000040: b496 3fbb 03b7 e23c e536 b4bb b727 64bc
00000050: 5a21 573d f487 fb3c bf8b 27bc 2f6f 333d
00000060: f065 6dbd 8ea0 c9bc c826 313d 1e32 d3bb
00000070: b7cc aabd e72b 94bd 089d 98bd aed7 afbc
00000080: 7756 503d c2e2 b1bb 38fd f73c 0293 333d
00000090: baa3 f93a c793 34bd fd19 233d 65ea 6d3c
000000a0: 4b92 073c d6f3 27bd eb83 fcbc 325a d73c
000000b0: 8b05 a7bb 2f29 c83d 71f5 873d 4577 cbbc
000000c0: 5ec0 0dbc 548b c1bc 0134 223c 0654 813d
000000d0: c0ac 7abd 10d4 6f3d b16a 49bc bb08 643b
000000e0: c5fd 58bd 1b39 723c 0ff4 dbbc 35ac c43c
000000f0: a0d3 c93c c108 933c b135 e53c a991 373b
00000100: 344d 26bd 6056 c23c 6dbe 67bd bb5d b63b
00000110: 1ee5 123c 85bf 37bf 800e 69bd 60c6 8fbd
00000120: 98fe 8f3d 790c 4ebd da82 e43c 21b1 ecbb
00000130: fada 5bbd ce53 8e3d a1dd 643c 477e 7ebd
00000140: 00c6 eabc 7ae2 2e3d e93f 06bd 42ad 23bd
00000150: add8 633d 6dea 24bc feb4 e639 bcdf e13d
00000160: 59ae 44bd cc1a 5d39 9ba4 4c3d 67be f83c
00000170: 9b10 6f3d 7422 b6bc b187 363b 4676 58bd
00000180: 270d 19bc cc0e 333c 93d5 88bb d270 d03c
00000190: aa73 333c ab0f 8e3c 607f 04bd 6c8a 073d
000001a0: 9732 e2bb b56b 43bc 31c0 003d c067 13bd
000001b0: bdd6 efbc f5bc a63b f4d4 813d 5353 f23c
000001c0: e249 27bd 1d8d e4ba e631 123c f5a8 fdbc
000001d0: 411c 873d a84f 543c 43b1 803a 3f68 2dbc
000001e0: 580e 663b 9b67 1f3d f083 8c3d 8717 84bd
000001f0: 1d75 d2bc f02b 9dbc 5e70 dabc a626 523c
00000200: 7967 aabc 90b9 5e3d 2165 f33b 1f61 b43c
00000210: a8a9 c93b 8abc 3abd 5c45 f13c afaa 353d
00000220: 4e97 6bbd 05d3 b43c 5dc8 673b 565e 9b3c
00000230: 1b6f abbd 912d 48ba 6ea6 31bc 95fe 7f3d
00000240: 209a 53bd eb90 bebb 525c 50bd 9132 e83c
00000250: 6bfb 2c3e dd3c 0e3d 7e00 84bc e28f b53c
00000260: 180f 8fbc cdc2 40bf f6b1 873d b018 3cbd
00000270: 3f7f af3c 5468 483d dccb 1c3d e43c 1b3d
00000280: 269a ac3c b687 173c 76c0 cbbb c795 7bbc
00000290: a483 4dbd d316 313d 81a2 04bc bdc0 aa3c
000002a0: e3e3 b7bd 86dc e23c 6db2 2abd fe51 3d3e
000002b0: 8f25 a3bd eb63 ccbc de30 4fba fa60 dbb9
000002c0: b24e 05bd ddd8 e9bc 345c dbbc 94eb f9bc
000002d0: 1840 27bd a4a4 9abd b858 17be 5ddc 8dbc
000002e0: 16ba fc3b ab2d 66bd d632 c5bc f402 84ba
000002f0: 6c0f 893c 2acb 3dbd eb65 03bd b807 143d
00000300: 7bc7 4fbd 8af6 3f3d 8b8d 553d b712 583c
00000310: 037a 063e 510e f13d 4c00 4fbd b3cd b5bd
00000320: b47f 833d 51df 4ebd 29aa a8bd 0451 83bc
00000330: 20f7 7abd 22e0 dabe b25f e43b 3327 cebb
00000340: 5925 ffbe dd12 393c 6193 23bc 171f 493d
00000350: 508d 283c f8a3 5b3d e115 813c cb80 a2bd
00000360: cb51 33bd 63ed cfbd 42f2 643d 866d 993b
00000370: c2d6 78bd 19ac b33d f565 6d3c ddae 3cbd
00000380: cf30 07be 62dd afbd 7e43 973d c171 023e
00000390: 3b65 3f3d 70ff d53c a140 8fbd 8baa 56bd
000003a0: 82a6 743d 3865 ca3c 9e41 15bd 6683 73ba
000003b0: ac62 23bc 120f f9bd 207b a13d c162 18be
000003c0: 6726 7f3c 5791 9a3c f667 42bc c01e 3dbc
000003d0: bb86 2a3e 3229 9a3e eacf 8b3d 22b1 9cbd
000003e0: ae56 ff3c 4211 843d 5293 da3d 6f4e e63c
000003f0: 908d 9c3d 0f35 89bd c989 91ba 9d3c 76bd
0.042996764 -0.051992103 -0.004299631 0.012346915 0.021814803 -0.012113647 0.0074615055 -0.0719282
0.09523366 0.011879233 -0.032983117 -0.04691647 -0.033924926 -0.014108396 -0.029857876 -0.019517098
-0.0029234113 0.027675157 -0.005499708 -0.013925484 0.05252204 0.030704476 -0.010226189 0.043807205
-0.057958543 -0.024612691 0.043249875 -0.0064451834 -0.083398275 -0.07234936 -0.07451826 -0.021465149
0.05086371 -0.005428643 0.030272111 0.04384137 0.0019045987 -0.044086244 0.039819706 0.014521216
0.008274625 -0.041004024 -0.030824622 0.026288126 -0.0050970963 0.0977348 0.06638611 -0.024837146
-0.008651821 -0.023626007 0.009900094 0.06314854 -0.061199903 0.058551848 -0.012293504 0.0034795243
-0.05297639 0.014784123 -0.026849775 0.024007896 0.024637043 0.01794851 0.027979704 0.0028010404
-0.04060097 0.023722827 -0.05657809 0.0055653728 0.008965759 -0.7177661 -0.056898594 -0.07020259
0.07030982 -0.050304864 0.027894426 -0.007223264 -0.05367563 0.06949578 0.013968856 -0.062132146
-0.028658867 0.042696454 -0.032775793 -0.039960153 0.05562656 -0.010065657 0.00044003868 0.11029002
-0.048017833 0.00021086185 0.049961668 0.030364228 0.058365446 -0.022233225 0.0027851874 -0.05284717
-0.009341515 0.010928821 -0.0041758507 0.025444422 0.010952869 0.017341455 -0.032348037 0.033090994
-0.0069030034 -0.011927535 0.031433288 -0.035987616 -0.0292772 0.0050884434 0.06339446 0.029580748
-0.040841945 -0.0017437075 0.0089230295 -0.030964354 0.06597186 0.012958445 0.0009818453 -0.010583936
0.0035103764 0.038917165 0.068611026 -0.064498 -0.02569061 -0.01918599 -0.026664909 0.012826597
-0.020801293 0.054376185 0.007427827 0.022018967 0.006154258 -0.04558996 0.029452018 0.04435223
-0.057517342 0.022073278 0.0035367229 0.018965881 -0.08370801 -0.00076361845 -0.010842903 0.062498648
-0.051660657 -0.0058156154 -0.050869294 0.028344424 0.16892783 0.034726012 -0.016113516 0.022163335
-0.017463252 -0.7529724 0.0662574 -0.04592198 0.02142298 0.04892762 0.038280353 0.037899867
0.021069597 0.009248665 -0.0062180115 -0.015355534 -0.05017437 0.043234657 -0.008095385 0.020843858
-0.08979013 0.027693044 -0.041674066 0.18488309 -0.07966148 -0.024949988 -0.0007903705 -0.00041843188
-0.032545753 -0.028545791 -0.026777364 -0.03050784 -0.04083261 -0.07550934 -0.14779937 -0.017316991
0.007712613 -0.056195896 -0.024072092 -0.0010071681 0.016730987 -0.04633633 -0.03207962 0.036140174
-0.05072735 0.046865977 0.05213694 0.013188056 0.13132481 0.11770309 -0.050537392 -0.08877125
0.06420842 -0.05050594 -0.082355805 -0.016029842 -0.061270833 -0.42749125 0.0069694156 -0.006291294
-0.49833182 0.011296001 -0.009983868 0.049101915 0.010287598 0.05362317 0.015757503 -0.079347216
-0.043779176 -0.101527 0.055895098 0.0046822457 -0.060751684 0.087730594 0.0144896405 -0.0460652
-0.13202213 -0.08587147 0.0738592 0.12738706 0.0467274 0.026122779 -0.06994749 -0.052408736
0.059729107 0.024706468 -0.03643953 -0.0009289294 -0.009972256 -0.121610776 0.07884812 -0.14881422
0.015573121 0.018868132 -0.0118656065 -0.011542976 0.16652958 0.30109555 0.06826766 -0.07650973
0.031169262 0.06448604 0.1067263 0.028113572 0.076441884 -0.06699573 -0.0011103685 -0.0601164

fc3.bias f4 [46]
00000000: e02f af3e 97eb 7c3e 47fe b73e 90a9 873e
00000010: 5dc1 713e 86e5 cc3e c199 cc3e 89d8 9b3e
00000020: 77ad 923e e6b6 ac3e 4812 e73d 314b 8e3e
00000030: 201f 8f3e b5ee b33e d61b 5e3e 285d bb3e
00000040: 73c7 8a3e 64ca 6a3e 27b9 ac3e b536 903e
00000050: f52e 903e 6bfc 933e cd80 c73e 60fd 963e
00000060: 9169 a33e fabc a43e 2572 bf3e 7d7e 8f3e
00000070: 1795 6c3e 3d05 8c3e a631 9d3e 31eb b93e
00000080: cf74 903e f7ba 453e f3e7 893e 5ced 923e
00000090: 7bb1 973e 4bd5 aa3e 68f3 7a3e b300 913e
000000a0: 1d54 633e 8ef0 b23e 8442 9d3e 2bac 963e
000000b0: 1490 073e 3ee7 343e
0.34216213 0.24699245 0.35936186 0.26496553 0.23608918 0.40018862 0.39961055 0.3043864
0.28647968 0.3373329 0.11282784 0.27791741 0.27953434 0.35143057 0.21690306 0.3659451
0.27105293 0.22928768 0.3373501 0.28166738 0.28160825 0.28903517 0.38965455 0.29490185
0.31916478 0.32175428 0.37391773 0.2802619 0.23103748 0.27347746 0.3070194 0.3631225
0.28214118 0.19309603 0.26934776 0.28696716 0.29627594 0.33365855 0.24506915 0.28320846
0.22200055 0.34949154 0.3071481 0.2942823 0.13238555 0.17666337
