mp4-machine-learning-template/model/model.pth (torch, 89342 bytes, 14 tensors)

fc1.weight f4 [120, 51]
0	0x3e8404e5	0.25784984
1	0x3b32c0b4	0.0027275505
2	0x3e9cd0bb	0.30628
3	0x3e3808e5	0.17972143
4	0xbd2a78af	-0.041619
5	0x3d3d3a5e	0.04619824
6	0xbd1fd60f	-0.0390225
7	0x3e236382	0.15955928
8	0xbd89b37c	-0.06723687
9	0x3dfc96cc	0.1233345
10	0x3e004273	0.12525348
11	0x3d2c6587	0.04208901
12	0xbeb91755	-0.36150613
13	0xbeb5c2f5	-0.35500303
14	0xbd150a15	-0.036386568
15	0xbef4d65f	-0.47819802
16	0x3d90d569	0.07071955
17	0x3ea48c0d	0.321381
18	0xbda8b27a	-0.08237167
19	0xbf1855aa	-0.59505713
20	0x3d920800	0.07130432
21	0x3eb65c90	0.35617495
22	0xbe78ff0f	-0.24316047
23	0xbf08a725	-0.5338004
24	0xbe6f8cf8	-0.23393619
25	0xbf1912cc	-0.59794307
26	0xbec817b7	-0.39080593
27	0x3d8f53cc	0.06998405
28	0x3d7f28ff	0.062294956
29	0x3e2f5707	0.17123042
30	0xbce4612b	-0.027878365
31	0x3f392f58	0.72337866
32	0xbeafcb86	-0.34334964
33	0x3da50940	0.08058405
34	0x3d3c1403	0.045917522
35	0xbb25e8f3	-0.002531585
36	0xbc63ba34	-0.013899375
37	0x3ea57d67	0.32322237
38	0xbd01dd90	-0.03170544
39	0xbd0bd59e	-0.034139268
40	0x3d8bf27a	0.06833358
41	0x3cb99f8e	0.02265909
42	0xbbb8eaf1	-0.0056432416
43	0xbc878bb1	-0.016546102
44	0x3d927f0f	0.07153141
45	0xbdb71d57	-0.08941143
46	0xbe2e26ce	-0.1700699
47	0xbe30936e	-0.1724374
48	0x3e0acdcc	0.13555068
49	0x3e878c05	0.26474014
50	0x3daf90e9	0.08572561
51	0x3f0a632d	0.5405758
52	0x3d4f4868	0.05060616
53	0xbc2efe8a	-0.010680804
54	0xbd79af3c	-0.060958132
55	0x3d63a62a	0.05557839
56	0xbf5d94ef	-0.8655538
57	0xbe404a2e	-0.18778297
58	0xbe7082f1	-0.2348745
59	0xbdc7f9a7	-0.09764414
60	0x3e2dc4fc	0.16969675
61	0x3e451ba9	0.19248833
62	0xbd52205e	-0.0513004
63	0xbe85a887	-0.2610514
64	0x3e8b7596	0.27238148
65	0x3ded0955	0.115740456
66	0xbe38f195	-0.18060906
67	0x3d229197	0.039689627
68	0xbdcd1b21	-0.1001494
69	0x3e3bbe11	0.18334223
70	0xbc89d98f	-0.016827373
71	0xbe2bf41f	-0.16792344
72	0xbe362f06	-0.17791376
73	0x3c047f6d	0.008087021
74	0xbf554515	-0.83308536
75	0xbd7989a6	-0.060922287
76	0x3da6ac8e	0.08138381
77	0x3ebe287c	0.37140262
78	0x3e4c18e6	0.19931373
79	0xbe47ddf9	-0.1951827
80	0xbe1603f4	-0.14649945
81	0xbd93b4bc	-0.07212207
82	0xbddbd7dd	-0.10734532
83	0xbe9b6cab	-0.30356345
84	0xbf2a30ce	-0.6648072
85	0xbe6c2a34	-0.23062974
86	0xbf08963d	-0.53354245
87	0xbe840015	-0.25781313
88	0x3c9500f0	0.018188924
89	0xbcff60e3	-0.031174129
90	0x3e4a2696	0.19741282
91	0x3e3a8d42	0.18217948
92	0x3dcff7d1	0.10154689
93	0xbe877e6c	-0.2646364
94	0xbe8bbd20	-0.27292728
95	0x3df499d8	0.11943406
96	0x3de09070	0.10965049
97	0x3dfc64df	0.12323927
98	0x3e087bfa	0.13328543
99	0xbd3e9b76	-0.046534978
100	0xbe16c616	-0.14724001
101	0x3e2c2358	0.16810358
102	0x3e5b9f72	0.21447542
103	0xbcce1249	-0.025155203
104	0x3e092355	0.13392384
105	0xbe05ada0	-0.13054514
106	0x3eff49a0	0.4986086
107	0xbdd3b595	-0.103373684
108	0x3d167113	0.03672893
109	0x3dd8bc00	0.10582733
110	0x3e1990df	0.1499667
111	0x3e150d23	0.14555793
112	0xbd751dc5	-0.059842844
113	0x3b89ce29	0.0042054844
114	0xbcee4d4e	-0.029089596
115	0x3e9612f2	0.2931133
116	0x3f2e2ec4	0.6804011
117	0xbd68faeb	-0.05687992
118	0xbf028e12	-0.5099803
119	0xbe8a81e8	-0.27052236
120	0x3e730b0d	0.23734684
121	0x3e9413ad	0.2892126
122	0xbe4ada9c	-0.19809955
123	0x3e80917e	0.25111002
124	0x3e19c59b	0.15016787
125	0x3f1cb229	0.6120935
126	0xbd2dcaa9	-0.0424296
127	0xbe8b76b3	-0.27238998
128	0xbe0a9378	-0.13532817
129	0x3e8991ce	0.26869053
130	0x3d943733	0.07237091
131	0xbeb7293f	-0.35773656
132	0x3ae1eb44	0.0017236252
133	0xbec963a4	-0.39333832
134	0x3ec789d2	0.38972336
135	0xbe6db9fb	-0.23215477
136	0x3ed6e13b	0.41968712
137	0x3eb3f89b	0.35150608
138	0xbe2ce8a2	-0.16885617
139	0xbe9dd875	-0.30829206
140	0xbd97a9cd	-0.07405434
141	0xbe9a482b	-0.30133185
142	0xbdcdc5b5	-0.10047475
143	0xbeb261e0	-0.34840298
144	0xbda0dd1c	-0.07854673
145	0xbe18e89f	-0.14932488
146	0xbe1d942a	-0.15388551
147	0xbd909122	-0.07058932
148	0xbe4956f6	-0.19662079
149	0xbe442040	-0.19152927
150	0x3d888d06	0.06667523
151	0xbdd8a5fb	-0.10578533
152	0xbec38e37	-0.3819444
153	0xbdcd0823	-0.100113176
154	0xbce84e0e	-0.028357532
155	0x3e0b254a	0.13588443
156	0xbd72d8fc	-0.059288964
157	0x3e65a1d6	0.22425017
158	0xbe774bb7	-0.24149977
159	0xbe379a6b	-0.1793
160	0x3e8bdd34	0.27317202
161	0x3df6f7b1	0.12058962
162	0x3d8a32d2	0.067479745
163	0xbe42a0e6	-0.1900669
164	0x3eca184f	0.3947167
165	0xbee6ee96	-0.45103902
166	0x3e54ebe9	0.20793118
167	0xbe836e40	-0.25670052
168	0x3d2c7d1b	0.042111497
169	0x3e046047	0.12927352
170	0x3dfa73e5	0.122291364
171	0x3ec39cca	0.38205558
172	0x3e9fe163	0.31226644
173	0xbd5f7360	-0.05455339
174	0xbe4f08ca	-0.20218197
175	0x3ea06616	0.31327885
176	0x3e446cae	0.19182083
177	0x3ea3d383	0.31997308
178	0xbf6e0dc8	-0.9298978
179	0xbdb9604d	-0.09051571
180	0xbe29c362	-0.16578439
181	0x3ebb2c2e	0.36557144
182	0xbd21cd83	-0.039502632
183	0x3dea5213	0.11441436
184	0x3f19a382	0.6001512
185	0x3e5dda77	0.21665369
186	0x3d063168	0.03276196
187	0x3da38512	0.079843655
188	0x3f34f3c0	0.70684433
189	0xbe324d03	-0.1741219
190	0xbe22285e	-0.15835711
191	0xbb4756c9	-0.0030416718
192	0xbe7fd701	-0.24984361
193	0xbca619ea	-0.020276029
194	0xbe7b4945	-0.24539669
195	0xbd7ad54e	-0.06123858
196	0xbbcef2a9	-0.0063155484
197	0xbd0c5dfa	-0.03426931
198	0xbd407250	-0.046984017
199	0x3d0f0799	0.034919355
200	0x3cdd08ed	0.026981795
201	0x3eabdbf8	0.3356626
202	0xbe027331	-0.12739255
203	0x3d14d7a9	0.036338482
204	0x3e868c87	0.2627909
205	0xbbc907cf	-0.006134964
206	0xbe7bd7d2	-0.24594048
207	0xbe4e20e4	-0.20129734
208	0xbdb0c6dc	-0.086316794
209	0xbea4c892	-0.32184273
210	0xbdd7a53d	-0.105295636
211	0x3eb104b5	0.34573904
212	0xbd652574	-0.05594392
213	0x3d70c4c8	0.058781415
214	0x3dc464ef	0.09589564
215	0x3955e928	0.0002040012
216	0x3ed7d2f5	0.42153135
217	0xbe4d1517	-0.20027576
218	0x3e05aefe	0.13055035
219	0xbf4042d2	-0.7510196
220	0x3e44f0c1	0.19232465
221	0xbcae350f	-0.021265535
222	0x3cae30c1	0.021263482
223	0xbf3421dc	-0.70364165
224	0xb935036e	-0.00017262783
225	0xbed5ff3b	-0.41796288
226	0xbd0d3de0	-0.034482837
227	0x3ebb1402	0.36538702
228	0x3db09600	0.0862236
229	0xbee45a8b	-0.4460033
230	0xbe2d32b8	-0.16913879
231	0x3de2fe5c	0.110836715
232	0xbe85710f	-0.2606282
233	0x3e38eb44	0.18058497
234	0x3e2c8dd8	0.16850984
235	0x3df12758	0.11775082
236	0xbe30bc6f	-0.17259382
237	0x3ef362e5	0.47536388
238	0xbe8c9d30	-0.27463675
239	0x3f0dd7ff	0.5540771
240	0x3e17be9b	0.14818804
241	0xbe1dd7eb	-0.15414397
242	0xbedda5ba	-0.43290502
243	0x3ed77038	0.42077804
244	0xbe32ca06	-0.17459878
245	0x3d3d099c	0.046151742
246	0xbd75f7c6	-0.06005075
247	0x3de434c2	0.11142875
248	0x3e94672e	0.2898497
249	0xbe0f65a7	-0.14003621
250	0x3b886312	0.0041622007
251	0x3d96cda1	0.07363439
252	0xbe07c155	-0.13257344
253	0xbe03187a	-0.12802306
254	0x3e0c643f	0.13710116
255	0x3cab45bd	0.020907277

fc1.bias f4 [120]
0	0xbcfce3f9	-0.030870425
1	0x3d91316c	0.070895046
2	0xbe08c490	-0.13356233
3	0x3dc35e4c	0.0953947
4	0xbe0268c0	-0.12735271
5	0xbe00a1c8	-0.12561715
6	0x3dc86e33	0.09786644
7	0x3d4d29e5	0.050088782
8	0xbd290ef0	-0.04127401
9	0x3db277af	0.08714234
10	0x39db7da7	0.00041864553
11	0xbdbda13f	-0.09259271
12	0xbdf3734b	-0.11887225
13	0x3e0e7fe4	0.13915974
14	0xbdfd9fab	-0.1238397
15	0x3d94cce5	0.07265643
16	0x3db19384	0.086707145
17	0xbe06d507	-0.13167201
18	0xbe0b717a	-0.13617507
19	0x3c98ff43	0.018676406
20	0x3d6c44e4	0.057682887
21	0x3db6dd41	0.089289196
22	0x3d89421a	0.06702061
23	0xbda79a87	-0.081837706
24	0xbdb8acc5	-0.09017328
25	0xbbe34b7a	-0.0069364877
26	0xbd66466e	-0.05621951
27	0xbd19f6aa	-0.037588753
28	0xbcc9ff6a	-0.024657924
29	0xbdd99ed6	-0.10625999
30	0x3e08295f	0.13297032
31	0x3df50541	0.11963893
32	0xbb8f586c	-0.0043745544
33	0x3cd0c17c	0.025482886
34	0x3daa2aa6	0.08308916
35	0x3da2072a	0.07911523
36	0x3d83787f	0.06419467
37	0x3d6a0e16	0.05714234
38	0x3d093ff5	0.03350826
39	0x3de6e78c	0.11274633
40	0xbdc5ae1e	-0.09652351
41	0x3b9aa432	0.0047192806
42	0xbdc80da0	-0.09768224
43	0xbe021a42	-0.12705329
44	0x3ded24df	0.11579298
45	0x3d4be087	0.049774673
46	0xbd9977c7	-0.07493549
47	0xbdbc4891	-0.091935284
48	0x3dc71fe7	0.09722882
49	0x3df91470	0.12162101
50	0xbd1e8f34	-0.038710788
51	0x3d7d1e50	0.061796486
52	0x3e0ea921	0.13931705
53	0xbd33c818	-0.043891996
54	0x3e04e0e1	0.1297641
55	0x3c1a51ac	0.009418886
56	0x3b0510e8	0.0020304266
57	0xbd86dced	-0.06585107
58	0xbcda71e6	-0.02666564
59	0xb9f529a8	-0.00046761078
60	0xbce6ee0e	-0.028189685
61	0x3dda3b7b	0.10655876
62	0xbccda374	-0.025102355
63	0xbd9a9aba	-0.07549043
64	0x3df33237	0.11874812
65	0x3ba28b3d	0.004960446
66	0xbd3b36b0	-0.04570645
67	0xbdbcde00	-0.09222031
68	0xbc2bf747	-0.010495967
69	0xbe0689d5	-0.13138516
70	0x3dde02a3	0.10840347
71	0xbda3efe8	-0.08004743
72	0x3dfc6603	0.12324145
73	0x3e10cfc5	0.14141758
74	0xbdee63bd	-0.11640117
75	0xbd94f446	-0.07273154
76	0xbc82c562	-0.01596326
77	0x3d4eadcd	0.050458718
78	0xbc5a0eda	-0.013309205
79	0x3d191f54	0.037383392
80	0xbde09f27	-0.10967856
81	0x3d5b91c0	0.053605795
82	0x3e0197a5	0.12655504
83	0xbd6ca68b	-0.057776015
84	0xbd96baa5	-0.07359818
85	0x3ca90080	0.020630121
86	0xbd8e28fe	-0.069414124
87	0xbc98c63b	-0.018649211
88	0xbd0c4531	-0.034245674
89	0xbcbbee36	-0.022940736
90	0x3de674de	0.112527594
91	0xbe0bc23e	-0.13648316
92	0xbd6a7724	-0.057242528
93	0xbe0838b2	-0.13302878
94	0xbd9c1403	-0.076210044
95	0xbe064317	-0.1311153
96	0xbdbbe6f0	-0.09174907
97	0x3dc6962d	0.096966125
98	0x3d5bb500	0.053639412
99	0x3cb1650c	0.021654628
100	0xbd25f60e	-0.04051786
101	0xbde345b9	-0.11097283
102	0x3d72d3d0	0.05928403
103	0x3d87f239	0.06637997
104	0x3caa9999	0.020825194
105	0x3db74ddd	0.08950398
106	0xbcf6ad60	-0.030111969
107	0xbc9b78af	-0.018978445
108	0x3da48aa8	0.08034259
109	0xbdc1ded9	-0.09466333
110	0x3e055aec	0.13022965
111	0x3ddbd725	0.10734395
112	0x3d733465	0.05937614
113	0x3dd23297	0.102635555
114	0x3cb691ce	0.022286322
115	0x3d71bae4	0.059016123
116	0xbd73a971	-0.059487764
117	0x3db1e18b	0.08685597
118	0xbd289d06	-0.041165374
119	0x3d9c0742	0.07618572

bn1.weight f4 [120]
0	0x3f8fb0ca	1.1225827
1	0x3f89cf4a	1.0766385
2	0x3f9019c4	1.1257863
3	0x3f81fde9	1.0155612
4	0x3f8de52e	1.1085565
5	0x3f9d950e	1.2311113
6	0x3f924081	1.1425935
7	0x3f69d25f	0.91336626
8	0x3fa20a7e	1.2659452
9	0x3f752266	0.9575561
10	0x3f8740ce	1.0566652
11	0x3f9a94fc	1.2076716
12	0x3f824b99	1.017932
13	0x3f81a1a8	1.0127459
14	0x3f85de6c	1.0458503
15	0x3f8b0d8c	1.0863509
16	0x3fa371f4	1.2769151
17	0x3f650a74	0.89469075
18	0x3f8d6f1c	1.1049533
19	0x3f739504	0.95149255
20	0x3f833d6f	1.0253123
21	0x3f884978	1.0647421
22	0x3f859eb8	1.0439062
23	0x3f890d78	1.0707235
24	0x3f6f3643	0.9344217
25	0x3f8130bc	1.0092998
26	0x3f88ca5e	1.0686758
27	0x3f6bc79b	0.9210145
28	0x3f5be23d	0.8589209
29	0x3f7c215e	0.98488414
30	0x3f966143	1.1748432
31	0x3f862f47	1.0483178
32	0x3f6c9bae	0.9242505
33	0x3f861c28	1.0477343
34	0x3f954bea	1.1663792
35	0x3f8a23a2	1.0792124
36	0x3fa57efd	1.2929379
37	0x3f83739d	1.0269657
38	0x3f812cb6	1.009177
39	0x3f889fca	1.0673764
40	0x3f9af2fe	1.2105405
41	0x3f8ce0e4	1.1006131
42	0x3f852700	1.0402527
43	0x3f8561f0	1.0420513
44	0x3f8b8090	1.0898609
45	0x3f8ee65e	1.1164052
46	0x3f71032f	0.9414548
47	0x3f8dfbc9	1.1092464
48	0x3f81385d	1.0095326
49	0x3f9124d3	1.1339363
50	0x3f8f12dd	1.1177632
51	0x3f822d80	1.0170135
52	0x3f808f5b	1.0043749
53	0x3fad1f12	1.3525107
54	0x3f9015eb	1.1256689
55	0x3f88a514	1.0675378
56	0x3f8dd1dd	1.107967
57	0x3f78cc33	0.97186583
58	0x3f88ed6e	1.0697458
59	0x3f7ca5d6	0.98690546
60	0x3f68815a	0.90822375
61	0x3f92dfd1	1.1474553
62	0x3f800ca3	1.0003856
63	0x3f83527d	1.0259548
64	0x3f9578bb	1.1677469
65	0x3f7cfbf5	0.98821956
66	0x3f960fc8	1.1723566
67	0x3f8d5a36	1.1043155
68	0x3f82fd0d	1.0233475
69	0x3f8046e3	1.0021633
70	0x3f8c0115	1.093783
71	0x3f71b190	0.94411564
72	0x3f7a258d	0.9771355
73	0x3fb2a057	1.3955182
74	0x3f51d01f	0.8195819
75	0x3f809afd	1.0047299
76	0x3f8a633d	1.0811535
77	0x3f83e77a	1.0305016
78	0x3f85acf0	1.0443401
79	0x3f804687	1.0021523
80	0x3f863687	1.048539
81	0x3f85b9ff	1.0447387
82	0x3f750b96	0.95720804
83	0x3f8a54ca	1.0807126
84	0x3f7c57a6	0.9857124
85	0x3f5db52a	0.8660456
86	0x3f7c945d	0.98663884
87	0x3f85c0ed	1.0449501
88	0x3f7e07c6	0.9923061
89	0x3f900e76	1.1254413
90	0x3f879922	1.0593607
91	0x3f7a233c	0.97710013
92	0x3f86f3be	1.0543134
93	0x3f8f427d	1.1192166
94	0x3f87d76d	1.0612618
95	0x3f945edc	1.1591449
96	0x3f7089aa	0.9396006
97	0x3f9af151	1.2104894
98	0x3f7822b4	0.9692795
99	0x3f84fd69	1.0389835
100	0x3f867f69	1.0507632
101	0x3f7e489a	0.9932953
102	0x3f5e929e	0.8694247
103	0x3f873315	1.0562464
104	0x3f91fc3b	1.14051
105	0x3f7a5bbe	0.9779624
106	0x3f72ed4f	0.94893354
107	0x3f688920	0.90834236
108	0x3f7c0e05	0.9845889
109	0x3f82674a	1.0187771
110	0x3f8fe5f1	1.1242048
111	0x3f96328d	1.1734177
112	0x3f803c3e	1.0018384
113	0x3f8733bf	1.0562667
114	0x3f7ff7f9	0.9998775
115	0x3f885846	1.0651939
116	0x3f82cd55	1.0218912
117	0x3f87ea1d	1.0618321
118	0x3f983bc1	1.1893235
119	0x3f82922e	1.020086

bn1.bias f4 [120]
0	0xbe929a52	-0.28633362
1	0xbebda389	-0.3703883
2	0xbd8cc766	-0.0687397
3	0xbe398492	-0.18116978
4	0xbe8b3064	-0.27185357
5	0xbedfeab1	-0.43733743
6	0xbed53704	-0.41643536
7	0x3d5d8889	0.05408529
8	0xbf08300b	-0.5319831
9	0xbe347827	-0.1762396
10	0xbe0ebdbf	-0.1393957
11	0xbf0a9d98	-0.5414672
12	0xbe527392	-0.20551899
13	0xbe0a93d6	-0.13532957
14	0xbd92c867	-0.0716713
15	0xbe6f6d7d	-0.2338161
16	0xbeb9580b	-0.36199984
17	0xbdc685dd	-0.09693501
18	0xbe3d20de	-0.18469569
19	0xbe41abfb	-0.18913262
20	0xbe823c78	-0.2543676
21	0xbe97c7df	-0.29644677
22	0xbe5cbdc2	-0.21556762
23	0xbe9b7279	-0.30360773
24	0xbdaee0f4	-0.08539
25	0xbe07d3f7	-0.13264452
26	0xbe4840d9	-0.19555987
27	0xbdfaf0a6	-0.12252931
28	0x3d1c0cba	0.038098074
29	0xbdffd2f8	-0.12491411
30	0xbefc65f7	-0.49296543
31	0xbe6af94f	-0.22946666
32	0xbdeec11c	-0.116579264
33	0xbe79a072	-0.24377611
34	0xbedaa3a6	-0.4270298
35	0xbeaa3352	-0.3324228
36	0xbeb5734f	-0.35439536
37	0xbd7629a2	-0.060098298
38	0xbdda3951	-0.106554635
39	0xbedd9be4	-0.43282998
40	0xbefafb5f	-0.49019906
41	0xbecdfba7	-0.40231058
42	0xbd76fe4e	-0.060301118
43	0xbe80d0ad	-0.25159207
44	0xbe2ec7a3	-0.17068343
45	0xbe0e757f	-0.13912009
46	0x3c127ba7	0.008940614
47	0xbe93538f	-0.28774688
48	0x3cc3dcfa	0.02390908
49	0xbe8081ef	-0.2509913
50	0xbe849e73	-0.25902137
51	0xbdb5465d	-0.08851311
52	0xbe443dee	-0.1916425
53	0xbf157637	-0.58383507
54	0xbe76c19b	-0.24097292
55	0xbe647730	-0.22311091
56	0xbe93fc73	-0.2890354
57	0xbdc215c0	-0.09476805
58	0xbe4afeb9	-0.19823731
59	0xbe7a8568	-0.24464953
60	0x3d12bcc5	0.035824556
61	0xbef8e105	-0.48609176
62	0xbe6d613a	-0.2318162
63	0xbe8a96a2	-0.2706805
64	0xbeb5d55b	-0.3551434
65	0xbe04dd91	-0.12975146
66	0xbec53c70	-0.38522673
67	0xbe64c6e0	-0.2234149
68	0xbdaa97a1	-0.08329702
69	0xbd2f1024	-0.042740002
70	0xbe9abaea	-0.3022073
71	0xbe4592ee	-0.1929433
72	0xbe3284d2	-0.1743348
73	0xbf206a7e	-0.62662494
74	0x3e307f82	0.1723614
75	0xbdfc4724	-0.123182565
76	0xbe73893e	-0.23782822
77	0xbe738436	-0.23780903
78	0xbe5fb408	-0.2184602
79	0xbe00f339	-0.12592782
80	0xbe3344eb	-0.17506759
81	0xbea24316	-0.31691808
82	0xbdc15e89	-0.09441859
83	0xbe19f8d7	-0.15036331
84	0xbe0cf6f0	-0.13766074
85	0x3d0edc05	0.034877796
86	0xbe18e11d	-0.14929624
87	0xbe5ac999	-0.21365966
88	0xbe86ff0f	-0.2636647
89	0xbe310e55	-0.17290623
90	0xbe84598e	-0.25849575
91	0xbdda7dd7	-0.10668533
92	0xbd50dd49	-0.050992284
93	0xbe9715a3	-0.29508695
94	0xbe8eab1c	-0.2786492
95	0xbe817fc7	-0.252928
96	0xbe3cce96	-0.18438181
97	0xbf23904a	-0.6389204
98	0xbde729b3	-0.1128725
99	0xbe64541c	-0.2229771
100	0xbeb1eb14	-0.34749663
101	0xbdccb851	-0.09996093
102	0x3dd93dfc	0.10607526
103	0xbe49e15a	-0.19714871
104	0xbe893b16	-0.26802891
105	0x3d635e59	0.0555099
106	0xbe0bef7f	-0.1366558
107	0x3cd06223	0.02543742
108	0xbdaa1d9f	-0.08306431
109	0xbe3aa2cc	-0.18226165
110	0xbf01e456	-0.5073904
111	0xbedc80d9	-0.43067053
112	0xbe137a94	-0.14402229
113	0xbde96e7c	-0.11398026
114	0xbe9662eb	-0.29372343
115	0xbe5433c4	-0.20722872
116	0xbeb3a08c	-0.35083425
117	0xbe41a0b6	-0.18908963
118	0xbedf11d5	-0.43568292
119	0xbe275593	-0.16341238

bn1.running_mean f4 [120]
0	0xbd0bdfcf	-0.034148987
1	0x3d40c493	0.047062468
2	0xbe031068	-0.12799227
3	0x3e0017a4	0.12509018
4	0xbe101c16	-0.14073214
5	0xbe28b663	-0.16475825
6	0x3dee4dce	0.11635934
7	0x3c9cc7c4	0.019138224
8	0xbd876e70	-0.06612861
9	0x3d8be4b4	0.06830731
10	0xbcb67d12	-0.022276435
11	0xbdd24638	-0.102672994
12	0xbd959756	-0.07304256
13	0x3e15903e	0.14605805
14	0xbdf99057	-0.12185734
15	0x3d453b04	0.048151985
16	0x3d961208	0.07327658
17	0xbe29ca81	-0.16581155
18	0xbe42bacb	-0.19016568
19	0x3d827873	0.0637063
20	0x3ddc3057	0.107514076
21	0x3dd7dcba	0.10540147
22	0x3d964351	0.07337058
23	0xbc9b4e3b	-0.018958202
24	0xbdac883e	-0.08424424
25	0x3d36ac66	0.044598006
26	0xbd965782	-0.073409095
27	0xbd4d2406	-0.050083183
28	0xbd569bb2	-0.052394576
29	0xbd887e96	-0.06664769
30	0x3e29ed22	0.16594365
31	0x3dee62bc	0.11639926
32	0x3ca6f551	0.020380648
33	0x3c3a3f08	0.011367567
34	0x3da98941	0.08278132
35	0x3d5c6e61	0.053816203
36	0x3d8bae10	0.06820309
37	0x3d88c6f4	0.06678572
38	0x3d97dec2	0.074155346
39	0x3db77581	0.08957959
40	0xbe0b5d6a	-0.13609853
41	0x3b502d10	0.003176514
42	0xbddbc608	-0.10731131
43	0xbe0be705	-0.13662346
44	0x3dad76ec	0.08469948
45	0x3d4c19a0	0.049829125
46	0xbd203cc3	-0.039120447
47	0xbda90cc7	-0.0825439
48	0x3d1066c4	0.035254255
49	0x3dc00029	0.093750305
50	0xbd7fc206	-0.062440895
51	0x3d3845d3	0.044988465
52	0x3dfc12d0	0.12308276
53	0xbce72847	-0.028217448
54	0x3e138f14	0.14410049
55	0xbc928aab	-0.017888388
56	0xbc9881ea	-0.018616635
57	0xbdbf4ea7	-0.093411736
58	0xbcfd4005	-0.030914316
59	0x3c696bed	0.014246923
60	0x3d10aa74	0.035318807
61	0x3dc9be68	0.0985077
62	0xbb85abbf	-0.0040793116
63	0xbd4ff43c	-0.05077003
64	0x3da4f1ba	0.08053918
65	0x3b016cb0	0.001974862
66	0xbd99c77c	-0.07508752
67	0xbe10a060	-0.14123678
68	0x3d5fe8b7	0.054665294
69	0xbdb8f653	-0.090313576
70	0x3dac1bc6	0.08403735
71	0xbdb9da36	-0.090748236
72	0x3e2979c0	0.1655035
73	0x3de651db	0.112460814
74	0xbdbcc913	-0.09218039
75	0xbdf35d8b	-0.11883076
76	0xbd3f1772	-0.04665322
77	0x3d5f1bd0	0.054469883
78	0xbc78167c	-0.015142079
79	0x3dc546d2	0.096326485
80	0xbdd4a418	-0.10382861
81	0x3da2e1b7	0.07953208
82	0x3e543b52	0.20725754
83	0xbdd11f64	-0.102110654
84	0xbd299e8b	-0.041410964
85	0xbaef92c8	-0.0018277997
86	0xbdb46b62	-0.08809544
87	0xbcf54bc0	-0.029943347
88	0xbd8eff8c	-0.069823354
89	0x3c438d5c	0.011935558
90	0x3d9063e2	0.07050301
91	0xbe4a1c3a	-0.1973733
92	0xbc9fdd06	-0.019514572
93	0xbddaa2fe	-0.106756195
94	0xbdb420db	-0.08795329
95	0xbdd47725	-0.103742875
96	0xbd91557a	-0.070963815
97	0x3db827d5	0.08991972
98	0x3d90f704	0.070783645
99	0x3c08ebed	0.00835703
100	0xbc833e52	-0.016020928
101	0xbd582807	-0.052772548
102	0x3dd228b6	0.10261671
103	0x3dee7568	0.11643487
104	0x3ca8e5f2	0.020617459
105	0x3dc2b968	0.0950802
106	0xbdbe98d9	-0.09306497
107	0xbd0ac166	-0.033875845
108	0x3dda927f	0.10672473
109	0xbd9f91f2	-0.07791509
110	0x3de05752	0.10954155
111	0x3e019f7e	0.12658498
112	0x3cef3c2f	0.029203502
113	0x3daee14f	0.08539068
114	0x3ba78ccc	0.00511322
115	0x3d7d755f	0.061879512
116	0xbd6706b3	-0.056402873
117	0x3dc575c0	0.096416
118	0xbd6c833b	-0.05774234
119	0x3d9136a9	0.07090504

bn1.running_var f4 [120]
0	0x404dd636	3.2161994
1	0x4094904d	4.642615
2	0x408713cf	4.221168
3	0x40711406	3.7668471
4	0x407ac5ec	3.9183302
5	0x40af88c9	5.4854474
6	0x408349c6	4.1027555
7	0x409135b5	4.537806
8	0x40ed0eaa	7.40804
9	0x40af79be	5.483611
10	0x40898a40	4.298126
11	0x40a48c83	5.1421523
12	0x40662d18	3.5965023
13	0x407202e6	3.781427
14	0x40882398	4.254345
15	0x4065dbf3	3.5915496
16	0x4091c4cf	4.5552745
17	0x40e4c44e	7.148963
18	0x40aee59d	5.465529
19	0x40c9f1d3	6.3107696
20	0x40dead87	6.9586825
21	0x4081c32d	4.055075
22	0x40aca1a0	5.3947296
23	0x408dc180	4.4298706
24	0x408e5a1c	4.4484997
25	0x40a8ab14	5.2708836
26	0x40d8b684	6.7722797
27	0x40bdb5c7	5.9284396
28	0x4074e93d	3.8267357
29	0x40a5cb12	5.181039
30	0x40e7ddb0	7.2458115
31	0x40b57013	5.669931
32	0x40ad4b3a	5.415433
33	0x4093dae4	4.62047
34	0x408cd6de	4.401229
35	0x405446ae	3.316814
36	0x419c13dc	19.509697
37	0x40e94c05	7.2905297
38	0x40844988	4.133976
39	0x40a8923b	5.2678504
40	0x409922e7	4.7855105
41	0x406d1b6c	3.7047987
42	0x407cf815	3.9526417
43	0x409760be	4.7305593
44	0x40bac6e3	5.836778
45	0x40f75599	7.729199
46	0x4082f92d	4.092917
47	0x4076a17f	3.853607
48	0x40be1809	5.940434
49	0x408df572	4.4362116
50	0x409c931d	4.892958
51	0x40980d28	4.751606
52	0x40a08c4b	5.0171256
53	0x4144c831	12.298875
54	0x40ab81db	5.3596015
55	0x409806e7	4.7508426
56	0x408d779c	4.4208508
57	0x407339bf	3.8003995
58	0x4089afec	4.302725
59	0x40858900	4.1729736
60	0x40871f91	4.2226033
61	0x4081a7cb	4.0517325
62	0x40831424	4.0962086
63	0x40bf9cd0	5.987892
64	0x40ae72f5	5.451533
65	0x40d4e915	6.6534524
66	0x4083862d	4.110129
67	0x40830bba	4.0951815
68	0x408fdfc7	4.4960666
69	0x40948a09	4.64185
70	0x4093742b	4.6079307
71	0x40af212f	5.4728007
72	0x4074320f	3.8155553
73	0x414a733e	12.653135
74	0x406e62ef	3.7247884
75	0x40ba4e4f	5.822059
76	0x40c730bd	6.2246995
77	0x40f52a2e	7.661399
78	0x4069e411	3.654545
79	0x40a17c82	5.0464487
80	0x4083c8f3	4.11828
81	0x40848b12	4.1419764
82	0x4092502d	4.572287
83	0x4077b3c3	3.8703468
84	0x40acc1f1	5.3986745
85	0x40aec0ef	5.4610515
86	0x409b84ed	4.8599763
87	0x40a36eaa	5.107259
88	0x40a61461	5.1899877
89	0x4088afe7	4.2714725
90	0x408f1270	4.4710007
91	0x408f5f68	4.4803963
92	0x405c7512	3.4446454
93	0x4081aae1	4.0521092
94	0x408c6e2f	4.38845
95	0x40918ac8	4.548191
96	0x40fe2b7e	7.942809
97	0x40c1c4a6	6.055255
98	0x40913b2e	4.538474
99	0x40763217	3.8468072
100	0x411c8b94	9.784077
101	0x409f5eee	4.980338
102	0x4086ae89	4.2088056
103	0x40a59d0a	5.17542
104	0x405ffdd5	3.4998677
105	0x406c8567	3.6956422
106	0x4064fc91	3.5779154
107	0x40b7060d	5.7194886
108	0x4075237f	3.8302915
109	0x40b2eeee	5.591666
110	0x40a3eebd	5.122893
111	0x4099e49e	4.8091574
112	0x40914fd9	4.540997
113	0x406c579d	3.6928475
114	0x408adc27	4.339374
115	0x40da7197	6.826366
116	0x408ffe84	4.499819
117	0x4075b2ee	3.839046
118	0x4093f03d	4.623076
119	0x40b5b4eb	5.6783347

fc2.weight f4 [84, 120]
0	0x3db25521	0.08707643
1	0x3dea4024	0.11438015
2	0xbd05659c	-0.032567605
3	0xbf1aaa22	-0.6041585
4	0xbe7f30ee	-0.24921009
5	0xbe4afea5	-0.19823702
6	0x3e07cf06	0.13262567
7	0x3e960f2f	0.2930846
8	0xbe03cf87	-0.12872134
9	0xbd794cd2	-0.060864277
10	0x3e20de3d	0.15709777
11	0xbaf8ffef	-0.0018997173
12	0xbe93b34d	-0.28847733
13	0xbf256571	-0.6460791
14	0xbe28deb7	-0.16491209
15	0xbe1e3424	-0.15449578
16	0xbd2675bc	-0.040639624
17	0x3dbfb0b6	0.09359877
18	0x3eec0ff8	0.46105933
19	0xbe8f341f	-0.27969453
20	0xbe1a8bf3	-0.15092449
21	0x3c8b8daa	0.017035324
22	0x3def2ad7	0.11678093
23	0xbe2b3b1f	-0.16721772
24	0x3cd2c8de	0.025730547
25	0xbf52a76d	-0.8228672
26	0x3d4f6040	0.0506289
27	0x3d9061d1	0.07049907
28	0x3e70e8d3	0.23526315
29	0xbde09689	-0.10966212
30	0xbe3de1ed	-0.18543215
31	0xbe2c467f	-0.16823767
32	0xbcb89e98	-0.02253656
33	0x3e02c3ec	0.12770051
34	0xbd92f663	-0.07175901
35	0x3d4e92cd	0.05043297
36	0xbe64ef12	-0.22356823
37	0xbee51bd0	-0.44747782
38	0xbeecfd89	-0.46287182
39	0x3ef422a0	0.47682667
40	0x3e0ba3ee	0.13636753
41	0xbec71855	-0.3888575
42	0xbd8f8bcf	-0.07009088
43	0xbdf99fe5	-0.121887006
44	0x3e9e994a	0.30976325
45	0xbf13bc7a	-0.5770947
46	0xbd8c6346	-0.068548724
47	0xbeaf62e3	-0.34255132
48	0x3da5c660	0.08094478
49	0xbecc0508	-0.3984759
50	0xbe0b6cdb	-0.13615744
51	0x3d9d28cb	0.07673796
52	0xbd852e94	-0.06503025
53	0xbeadc550	-0.339396
54	0xbe9df5eb	-0.30851683
55	0xbceb3cba	-0.02871548
56	0x3e9180f4	0.28418696
57	0xbea39dc7	-0.31956312
58	0x3e2e895f	0.1704459
59	0x3e9f0c54	0.31064093
60	0xbda3aed5	-0.07992331
61	0x3e018769	0.12649311
62	0xbd50e46b	-0.050999086
63	0xbebf1d74	-0.37327158
64	0xbdb474b8	-0.08811325
65	0xbe2510d4	-0.161197
66	0xbdcd47ca	-0.10023458
67	0x3d0abaea	0.03386966
68	0xbf3bfbc3	-0.7343103
69	0x3d891eff	0.06695365
70	0x3c8f711e	0.017509993
71	0x3d83cfa1	0.064360864
72	0xbec3b040	-0.38220406
73	0x3dff3ea5	0.1246312
74	0xbdfc29a4	-0.1231263
75	0x3e8c55ca	0.27409202
76	0x3e80effc	0.25183094
77	0xbed4c06b	-0.41553053
78	0xbd495372	-0.049151845
79	0x3dba6cfb	0.091028176
80	0xbe1e6f78	-0.1547221
81	0x3ed2ad9f	0.41148087
82	0xbd5fe63e	-0.054662935
83	0x3d97995f	0.074023
84	0xbf17a27b	-0.592323
85	0x3f3b3cde	0.7313975
86	0xbdd5bf7a	-0.10436912
87	0x3c4f028c	0.012634885
88	0xbd946c7a	-0.07247253
89	0xbd673c36	-0.056453906
90	0x3eb1c529	0.34720734
91	0x3e6da6b5	0.23208125
92	0x3dcb16cc	0.099164575
93	0xbd85411d	-0.0650656
94	0x3e184fcc	0.1487419
95	0xbef8ef6d	-0.48620167
96	0x3e3fd570	0.18733764
97	0x3e3999fb	0.18125145
98	0xbda8f95f	-0.08250689
99	0x3e8c17b5	0.27361837
100	0xbe857f60	-0.26073742
101	0xbe54d812	-0.2078555
102	0x3e87d1b6	0.26527184
103	0xbe4a2596	-0.197409
104	0xbf1a15c6	-0.60189474
105	0x3e071cec	0.13194627
106	0x3e0d26e3	0.13784365
107	0x3e6710a2	0.22564939
108	0xbdd3d210	-0.103428006
109	0xbe024885	-0.12722977
110	0x3f09c301	0.5381318
111	0xbd3117f5	-0.043235738
112	0x3e452e32	0.19255903
113	0x3e5382a7	0.20655309
114	0xbdcdf333	-0.10056152
115	0x3de1279e	0.109938845
116	0xbf1b2085	-0.60596496
117	0xbd8f3fad	-0.06994567
118	0xbe999499	-0.29996184
119	0x3c376d15	0.011195441
120	0xbf212e8c	-0.6296165
121	0x3e31ef58	0.17376459
122	0xbd359286	-0.04432919
123	0x3c846a67	0.016164018
124	0xbdb8e99e	-0.09028934
125	0x3e9a89aa	0.30183154
126	0xbe63f78e	-0.22262403
127	0x3e1220db	0.14270346
128	0xbeb57bdf	-0.3544607
129	0x3e57fc81	0.21092416
130	0xbe57a1ed	-0.21057864
131	0x3e252e52	0.16130951
132	0xbd46e5b9	-0.048558924
133	0x3e5307f4	0.20608503
134	0x3e92d513	0.28678188
135	0xbe895a54	-0.26826727
136	0x3ecb7939	0.39740923
137	0xbebfd2bc	-0.37465465
138	0x3eb82b7c	0.35970676
139	0x3db0806b	0.08618244
140	0xbd7c89b3	-0.061654758
141	0x3ee2e386	0.44314212
142	0xbe29ae19	-0.16570319
143	0xbbe8797b	-0.0070945597
144	0xbd4541a0	-0.048158288
145	0x3e8987c5	0.26861396
146	0xbd917679	-0.07102675
147	0xbcc5b457	-0.024133844
148	0x3df85f80	0.1212759
149	0x3e344fdd	0.1760859
150	0xbedc2af1	-0.43001512
151	0xbe913e9d	-0.28368083
152	0xbdf6a46f	-0.12043082
153	0x3e55cd50	0.20879102
154	0xbbc118e9	-0.005892862
155	0xbd54f3bd	-0.05199026
156	0x3e22a532	0.1588333
157	0xbec90729	-0.39263275
158	0x3edf0f4c	0.43566358
159	0xbe24c7b3	-0.16091804
160	0xbc9ce5b4	-0.0191525
161	0xbe5eafd3	-0.21746759
162	0xbe8e56b7	-0.27800533
163	0x3ed1e071	0.40991548
164	0xbe535532	-0.20637968
165	0xbd156c59	-0.03648028
166	0x3d8a2299	0.0674488
167	0xbd479160	-0.048722625
168	0xbd25bb9d	-0.040462125
169	0xbed94777	-0.42437336
170	0xbd6187f7	-0.055061307
171	0x3e9637c0	0.2933941
172	0x3e77d66d	0.2420289
173	0x3dda52f6	0.10660355
174	0xbf1bff2f	-0.60936254
175	0xbea027c0	-0.31280327
176	0xbe4c5280	-0.19953346
177	0xbd8440dd	-0.06457684
178	0xbe6c6d0e	-0.23088476
179	0xbeac06c2	-0.33598906
180	0x3e83056e	0.2559008
181	0xbd2bbe80	-0.04192972
182	0xbe49f2e0	-0.19721556
183	0xbeb792ab	-0.35854086
184	0xbea70d0b	-0.32627138
185	0xbe898ec9	-0.2686675
186	0x3ee01cc3	0.43771943
187	0xbf0e9c5d	-0.5570734
188	0x3cc1e1a1	0.023667159
189	0x3e35305f	0.17694233
190	0xbda20c0c	-0.07912454
191	0x3e1c73ef	0.152786
192	0x3d293779	0.04131267
193	0x3ce23405	0.027612695
194	0x3d44b842	0.048027284
195	0xbbc3efb1	-0.005979501
196	0xbe9aaf6f	-0.3021197
197	0xbee7b506	-0.45255297
198	0xbf2ac896	-0.6671232
199	0x3ba67fb7	0.0050811428
200	0xbe5a2bb0	-0.21305728
201	0xbe2b1621	-0.1670766
202	0x3d6b12e0	0.057391047
203	0x3d8067b1	0.062697776
204	0xbe84fecb	-0.25975642
205	0x3e350b58	0.17680109
206	0xbdeab71e	-0.11460708
207	0xbec1d5af	-0.3785834
208	0xbec10d01	-0.37705234
209	0x3e19c10b	0.15015046
210	0xbe9610ac	-0.29309595
211	0xbe81857b	-0.2529715
212	0xbe500b00	-0.20316696
213	0xbeca70c3	-0.39539155
214	0xbe905898	-0.28192592
215	0xbeb4f392	-0.3534208
216	0xbd63f79a	-0.055656053
217	0x3ea794bd	0.32730666
218	0xbe93eb73	-0.2889057
219	0xbd882d77	-0.06649297
220	0xbece7756	-0.4032542
221	0x3e04f2f4	0.12983304
222	0xbe896070	-0.26831388
223	0x3e40e88e	0.18838713
224	0x3e491b96	0.1963943
225	0xbe6a40ea	-0.22876325
226	0x3e1106bc	0.14162725
227	0xbeb9a4cf	-0.3625855
228	0xbe5d3ce4	-0.21605259
229	0xbdfad1fc	-0.122470826
230	0xbe508a86	-0.20365342
231	0xbe8f00e7	-0.27930376
232	0x3d6b602b	0.05746476
233	0xbd856ebc	-0.065152615
234	0xbe1c861b	-0.15285532
235	0x3d2e7021	0.042587403
236	0xbe078d9a	-0.1323761
237	0xbea5d25c	-0.32387054
238	0x3ea0967f	0.3136482
239	0xbf158bd7	-0.58416504
240	0x3e83fdc0	0.25779533
241	0xbea862ec	-0.3288797
242	0x3d9c491d	0.07631133
243	0x3edbf0a8	0.42957044
244	0x3e076b5f	0.13224553
245	0x3e210c9e	0.1572747
246	0xbe4d81e1	-0.20069076
247	0xbce518fe	-0.027966019
248	0x3e56d1ae	0.20978424
249	0x3cb4abf2	0.022054646
250	0xbeb3d5be	-0.3512401
251	0xbe960ac1	-0.2930508
252	0xbdd12fdd	-0.10214207
253	0xbe6b024b	-0.22950093
254	0xbf111b32	-0.5668212
255	0x3de34774	0.11097613

fc2.bias f4 [84]
0	0xbd3186a9	-0.043341313
1	0xbcce9810	-0.025218993
2	0x3d9f42fc	0.07776448
3	0xbd90ada0	-0.07064366
4	0x3d5bbcd5	0.05364688
5	0xbbd3498c	-0.0064479765
6	0x3cbbd6b5	0.022929529
7	0xbba0fe58	-0.0049131326
8	0xbd97860a	-0.07398613
9	0xbd308ce6	-0.04310312
10	0xbda4f30f	-0.08054172
11	0xbc745786	-0.014913445
12	0x3d81e4e7	0.06342488
13	0x3d7ba855	0.06143983
14	0x3d9a3674	0.07529917
15	0xbd4b2ffb	-0.049606305
16	0xbd16453e	-0.03668713
17	0xbc875174	-0.016518332
18	0x3d04cb7a	0.032420613
19	0x3d2c52c1	0.042071108
20	0xbd36adb9	-0.04459927
21	0x3cd9b203	0.02657414
22	0x3d82f225	0.06393842
23	0x3dbd55af	0.092448585
24	0x3c7a1ab6	0.015265157
25	0xbd7bfbd6	-0.061519466
26	0x3c1ee203	0.00969744
27	0xbd65c85a	-0.056099273
28	0x3d153727	0.03642955
29	0x3cfccaf0	0.030858487
30	0x3c6a599b	0.01430359
31	0xbadf4080	-0.0017032772
32	0xbd82e695	-0.06391636
33	0x3b7f80e2	0.0038986732
34	0x3d961b96	0.0732948
35	0xbd8ae23d	-0.06781433
36	0xbc5bbbe7	-0.013411499
37	0xbcda78b1	-0.026668878
38	0xbcfd8898	-0.030948922
39	0x3cd36bfc	0.025808327
40	0x3da32a94	0.079671055
41	0x3d971c75	0.073784746
42	0xbc936122	-0.017990652
43	0xbd53265b	-0.05155025
44	0xbd03683d	-0.03208183
45	0xbda85b5a	-0.08220549
46	0x3d6b16fc	0.057394966
47	0xbd46bb8d	-0.048518706
48	0x3b01fa9a	0.0019833208
49	0x3c984438	0.018587217
50	0x3cdbf2cc	0.026849173
51	0xbd8c85e7	-0.06861477
52	0xbd6a877b	-0.05725811
53	0x3bea9731	0.0071591367
54	0x3d649196	0.055802904
55	0xbd9a092d	-0.075212814
56	0x3d92d677	0.07169812
57	0x3d557205	0.05211069
58	0x3c979e33	0.018508052
59	0xbcebf055	-0.028801123
60	0xbd13e324	-0.03610529
61	0x3b1bbff1	0.002376553
62	0xbbed5847	-0.0072431895
63	0xbbd6df8a	-0.0065574097
64	0x3d805a5b	0.06267234
65	0xbcbc1ff1	-0.02296445
66	0x3d119b6b	0.03554861
67	0x3d713ac0	0.05889392
68	0xbd8ce92a	-0.0688041
69	0xbc504245	-0.012711112
70	0x3cd41158	0.025887176
71	0x3b3f93cb	0.0029232379
72	0xbd7c02de	-0.061526172
73	0x3c1156b8	0.008870773
74	0xbb70fff5	-0.0036773656
75	0x3d95b671	0.073101886
76	0x3d1c72c8	0.0381954
77	0xbd1b0803	-0.037849437
78	0xbd53ee39	-0.05174086
79	0xbcd52954	-0.026020683
80	0xbc79d00f	-0.015247359
81	0x3d7f7b69	0.062373552
82	0x3d7216f8	0.059103936
83	0x3ce2670c	0.027637027

bn2.weight f4 [84]
0	0x40010253	2.0157669
1	0x3fee1189	1.8599101
2	0x3ff876e7	1.9411286
3	0x3fdde283	1.7334751
4	0x3fdbd661	1.7174798
5	0x3fdd0bfb	1.7269281
6	0x3fefdac6	1.8738639
7	0x3fe8e163	1.8193783
8	0x3fcf79ce	1.6209047
9	0x3fd60aed	1.6722084
10	0x3ff4eea4	1.9135327
11	0x3fe01b0e	1.7508256
12	0x3fe78780	1.8088226
13	0x3ff1fb6b	1.8904852
14	0x3feeec3d	1.8665844
15	0x3fbbe950	1.4680576
16	0x3fe6b659	1.8024398
17	0x3fe42b16	1.7825649
18	0x4004754e	2.0696597
19	0x3fd0a242	1.6299517
20	0x3fd40790	1.6564808
21	0x3fdca6fa	1.7238457
22	0x3fecacc0	1.8490219
23	0x3fdbd1b5	1.7173373
24	0x3fdc3ab7	1.7205418
25	0x3ff2ca22	1.8967936
26	0x3fe23a94	1.7674127
27	0x3fd417c3	1.6569752
28	0x3fe967a7	1.8234757
29	0x3fd99dc2	1.7001269
30	0x3fd1683a	1.6359932
31	0x3fe490de	1.785671
32	0x4004e792	2.076634
33	0x3fe22b23	1.7669414
34	0x3fd9c36a	1.7012761
35	0x3fd062ef	1.6280192
36	0x3fe248c8	1.7678461
37	0x3fe7601d	1.8076206
38	0x3fe0d429	1.7564746
39	0x3ffd223f	1.9776076
40	0x3fec97a5	1.8483778
41	0x3fdcafc8	1.7241144
42	0x3fffc8e8	1.9983187
43	0x3fcf8455	1.621226
44	0x3ff49bc2	1.9110034
45	0x3ffbf386	1.9683692
46	0x3fd0d547	1.6315087
47	0x3feece86	1.8656776
48	0x3fe3092b	1.7737173
49	0x3fe8420d	1.8145157
50	0x3fe3fd37	1.781165
51	0x3fe6540f	1.7994403
52	0x3fe1ca52	1.7639868
53	0x4000b792	2.0112042
54	0x3fe0be8d	1.7558151
55	0x3fe7ed1d	1.8119236
56	0x3fdbb509	1.7164623
57	0x3fed824f	1.8555392
58	0x3fdccd59	1.7250167
59	0x3fcf5dda	1.6200516
60	0x3feb5bdc	1.8387408
61	0x3fe1ae7a	1.7631371
62	0x3fdb10bd	1.7114483
63	0x3fd88250	1.6914768
64	0x3fda3518	1.7047453
65	0x3fd09250	1.6294651
66	0x3fe4b6f4	1.7868333
67	0x3fdd9c6a	1.7313359
68	0x3fe94139	1.8223029
69	0x3fcdfd96	1.6093013
70	0x3fd83085	1.6889807
71	0x3fe4a78d	1.7863632
72	0x3ff0ece7	1.8822297
73	0x3fe4b593	1.7867912
74	0x3fdd6480	1.7296295
75	0x3fd89eda	1.6923478
76	0x3fe49358	1.7857466
77	0x3fe8ecf8	1.8197317
78	0x3fddecec	1.7337928
79	0x3fd9970f	1.6999224
80	0x3fe72a92	1.8059866
81	0x3ffd4351	1.9786168
82	0x4007b713	2.120549
83	0x3fe4786d	1.7849251

bn2.bias f4 [84]
0	0x3e5ad7f3	0.2137144
1	0x3dc31315	0.09525124
2	0x3e771197	0.24127804
3	0x3e4d5cbd	0.20054908
4	0x3eb0e312	0.3454824
5	0x3e1b42b6	0.15162167
6	0x3c31632c	0.010826867
7	0x3e8974a7	0.2684681
8	0x3e9d9cea	0.30783778
9	0x3ed06d44	0.40708363
10	0x3daa2bda	0.08309145
11	0x3e5f617b	0.2181453
12	0x3d8d2bfa	0.068931535
13	0x3e8dc2ef	0.27687785
14	0x3e8b1450	0.27163935
15	0x3e50f853	0.20407228
16	0x3e8139dd	0.2523946
17	0x3e60ec13	0.21965055
18	0x3e991239	0.29896715
19	0x3eae9f47	0.34105894
20	0x3ea98a87	0.331135
21	0x3e8f988f	0.2804608
22	0x3ecd29c3	0.40070924
23	0x3e4f0de6	0.20220146
24	0x3e85f824	0.2616588
25	0x3e19b20f	0.1500933
26	0xbd8e16ce	-0.069379434
27	0x3e85c678	0.26127982
28	0x3c817a41	0.015805366
29	0x3e8527a0	0.26006794
30	0x3e385459	0.18000926
31	0x3e49c091	0.19702365
32	0x3e95c8a5	0.29254642
33	0x3e5ad236	0.21369252
34	0x3e6c65d3	0.23085718
35	0x3ea328c5	0.31867042
36	0x3e14970d	0.14510746
37	0x3eb772df	0.35829827
38	0x3e57ffae	0.21093628
39	0x3e06b58d	0.13155194
40	0x3e846b31	0.2586303
41	0x3de41110	0.11136067
42	0x3ebc09f4	0.36726344
43	0x3e144873	0.14480762
44	0x3e9c247e	0.3049659
45	0x3e24e842	0.16104224
46	0x3e8481b5	0.2588021
47	0x3e3412d3	0.17585306
48	0x3ea559ea	0.3229516
49	0x3ec36d39	0.38169268
50	0x3ea683f2	0.3252254
51	0x3da66647	0.081249766
52	0x3e9046c7	0.28179
53	0x3e547d19	0.20750846
54	0x3e9dd155	0.3082377
55	0x3eb41ca1	0.35178092
56	0x3e446662	0.19179681
57	0x3e8dc5e6	0.27690047
58	0x3ea73d01	0.3266373
59	0x3e5bbfab	0.21459834
60	0x3e08f517	0.13374744
61	0x3d9e578d	0.07731543
62	0x3e77dc31	0.2420509
63	0x3e8775d6	0.2645709
64	0x3e8a5608	0.27018762
65	0x3d3c07ca	0.045905866
66	0x3e3e21ff	0.18567656
67	0x3e539560	0.20662451
68	0x3e6cfd75	0.23143561
69	0x3e93b819	0.28851393
70	0x3e4fc863	0.20291285
71	0x3e4610d2	0.19342354
72	0x3e6874c1	0.22700788
73	0x3e2e5721	0.17025425
74	0x3ec15b19	0.37764814
75	0x3eedd758	0.46453357
76	0x3f0bb7a4	0.5457709
77	0x3e084bec	0.13310212
78	0x3e3a887a	0.18216124
79	0x3e398fab	0.18121211
80	0x3eb755c3	0.35807618
81	0x3ec083b9	0.37600496
82	0x3e967fa5	0.2939426
83	0x3dece8be	0.115678295

bn2.running_mean f4 [84]
0	0xc0098205	-2.1485608
1	0xc03e7616	-2.9759574
2	0xc05f38e6	-3.4878478
3	0xbf2377ec	-0.6385486
4	0xbfa24bfe	-1.2679441
5	0x3f3e1457	0.74249786
6	0x4013cefe	2.3095088
7	0x3f2cba30	0.674716
8	0xbf4b1ec7	-0.7934384
9	0xbfbb168c	-1.4616256
10	0xbf4e0605	-0.80477935
11	0xc02d28a4	-2.7056055
12	0xbf9e247d	-1.2354885
13	0xbfbbb8f2	-1.4665816
14	0xbfdd38e2	-1.7282984
15	0xbd35a739	-0.04434893
16	0x3f4acf40	0.7922249
17	0xc037a5bc	-2.8694906
18	0xc01229ca	-2.2838006
19	0xbff2aeba	-1.8959572
20	0xc035bda3	-2.8396995
21	0xbfc9fb77	-1.5779866
22	0xbf6351ad	-0.887965
23	0xbfdccf39	-1.7250739
24	0xbf6158ff	-0.8802642
25	0x3f11fc14	0.57025266
26	0xc01454d2	-2.317677
27	0xc010cbc5	-2.262437
28	0xc0036da6	-2.0535674
29	0x3f0899c0	0.53359604
30	0xc027aba0	-2.6198502
31	0x3f035af6	0.5131067
32	0xbf3d5cf9	-0.7396999
33	0xbfced0cc	-1.615747
34	0xbf2c5a17	-0.67324966
35	0xc00047ef	-2.0043905
36	0xbf7577b0	-0.95885754
37	0x3f147f40	0.5800667
38	0xbfb2710f	-1.3940753
39	0xbf781638	-0.96908903
40	0xbfcec13f	-1.6152724
41	0x3f2f2212	0.6841136
42	0xbee15b44	-0.44014943
43	0x40144185	2.316499
44	0xbf57a1d7	-0.84231323
45	0xc0338e14	-2.8055468
46	0x4020b825	2.5112393
47	0xbeddb954	-0.43305457
48	0xbfc42541	-1.5323869
49	0xbf79d074	-0.975837
50	0xbfe29c8c	-1.7704024
51	0xc0185983	-2.3804634
52	0xbfccdc24	-1.6004682
53	0x3e88c8bd	0.2671565
54	0xbf92da71	-1.1472913
55	0xbfff1458	-1.9928083
56	0xbe32c252	-0.1745694
57	0xbf8b7848	-1.0896082
58	0x3efab00d	0.4896244
59	0xbe0ed62c	-0.13948888
60	0x3f3d5d2c	0.73970294
61	0xbdbfc5be	-0.09363888
62	0xbfaaa2b9	-1.3330909
63	0xbff39ca2	-1.9032176
64	0xc0084f11	-2.1298258
65	0xbf9e6894	-1.2375665
66	0x3fa5bf4b	1.2949003
67	0xbfaa62f6	-1.331145
68	0xbfa7b26b	-1.3101324
69	0xbfaed4e9	-1.3658725
70	0x3f1c7be4	0.6112654
71	0xbfe034c4	-1.7516103
72	0xbc7b66d0	-0.015344337
73	0xbed4ae19	-0.41539076
74	0xbfed43f7	-1.8536366
75	0xbfe4e7aa	-1.7883198
76	0xbf82bc6f	-1.0213755
77	0xbffd1d48	-1.9774561
78	0x40101940	2.2515411
79	0xbf8537b1	-1.0407621
80	0xbfe955f9	-1.8229362
81	0xbfe4ca29	-1.7874194
82	0xbf8c6025	-1.0966841
83	0x3e80eead	0.25182095

bn2.running_var f4 [84]
0	0x41134039	9.203179
1	0x40eee5dc	7.465559
2	0x40d7cc4e	6.7436895
3	0x40e49020	7.1425934
4	0x40a20d3c	5.0641155
5	0x41169502	9.411379
6	0x40db9346	6.8617277
7	0x410a055d	8.626309
8	0x4094b2d6	4.6468306
9	0x40ccb550	6.397133
10	0x40c63df8	6.1950645
11	0x40b8bb89	5.7728925
12	0x40a90c1d	5.2827287
13	0x40d4a48c	6.6450863
14	0x40bc2724	5.879778
15	0x41107529	9.028604
16	0x40ed4b39	7.4154325
17	0x40f6f07a	7.716855
18	0x4127de07	10.491706
19	0x409b7cf1	4.8590016
20	0x409c8ca5	4.8921685
21	0x40db9963	6.862474
22	0x40e5019e	7.1564474
23	0x40bae7e3	5.8408065
24	0x40edef1b	7.4354377
25	0x40c31746	6.096591
26	0x40fd38df	7.9131923
27	0x40d55209	6.666264
28	0x409473d7	4.6391406
29	0x40aa79b0	5.3273544
30	0x40bfd2b5	5.994471
31	0x40e64213	7.1955657
32	0x4137e191	11.49257
33	0x4123bba1	10.233308
34	0x40b4aa37	5.645778
35	0x409694c6	4.705661
36	0x40f18fbe	7.5487967
37	0x40e55f34	7.1678715
38	0x40eafee0	7.3436127
39	0x4115c22b	9.359904
40	0x40e74617	7.227306
41	0x40c4c500	6.149048
42	0x411db272	9.856066
43	0x40e8bfe6	7.273425
44	0x40de36e9	6.944203
45	0x40ffccae	7.9937353
46	0x40b39668	5.61211
47	0x40dda16d	6.9259553
48	0x40a9e165	5.308764
49	0x40ac359a	5.381543
50	0x4099ff92	4.8124475
51	0x40adb1c7	5.4279513
52	0x40a18225	5.047137
53	0x40d0a9d9	6.5207334
54	0x40bc536a	5.8851824
55	0x40e2f962	7.092942
56	0x40c5c039	6.1797147
57	0x40dcfd95	6.905955
58	0x4095f710	4.686409
59	0x40f1a62f	7.551536
60	0x40ee924c	7.4553585
61	0x40a54390	5.1644974
62	0x41063b31	8.389451
63	0x40ce806d	6.453177
64	0x4097145e	4.721236
65	0x412de042	10.86725
66	0x40beae07	5.9587436
67	0x40ab5d6e	5.355155
68	0x40dc693f	6.8878474
69	0x40c669cd	6.200415
70	0x40cae5d7	6.3405566
71	0x40ad3039	5.4121366
72	0x40d171ce	6.545142
73	0x409bc468	4.8677254
74	0x40910706	4.5321074
75	0x4104ed54	8.307941
76	0x411295f7	9.1616125
77	0x4093abcb	4.614721
78	0x40ebc5a8	7.367878
79	0x4093b1d0	4.6154556
80	0x40ea3b3f	7.319732
81	0x40ffc7aa	7.993123
82	0x411e71be	9.902769
83	0x409835d2	4.75657

fc3.weight f4 [46, 84]
0	0xbe5d99ef	-0.21640752
1	0xbf8111ee	-1.0083597
2	0xbed53a6a	-0.4164613
3	0x3eeaeb48	0.4588263
4	0x3ce900f5	0.02844284
5	0x3dfaeb3e	0.122519
6	0xbd9eb282	-0.077488914
7	0xbd58e124	-0.052949086
8	0xbd9153b7	-0.070960455
9	0xbee0d00a	-0.4390872
10	0xbed90809	-0.42388943
11	0xbeaa51ce	-0.33265537
12	0xbe3905d8	-0.18068635
13	0xbf195906	-0.59901464
14	0xbd26af13	-0.040694308
15	0x3d948e8e	0.07253753
16	0xbe4ec75c	-0.20193237
17	0x3bb3fb59	0.0054926095
18	0xbf10c68e	-0.5655297
19	0x3f06a2eb	0.52592343
20	0x3dfd8341	0.1237855
21	0x3ee7dcf0	0.4528575
22	0xbf791a2b	-0.97305554
23	0xbdae3084	-0.08505347
24	0x3e23bb67	0.15989457
25	0x3e33ef5a	0.17571774
26	0xbf09d03d	-0.5383337
27	0x3e9f5aed	0.31124058
28	0xbdf3de72	-0.119076625
29	0xbcd19562	-0.025583927
30	0x3e8562b4	0.26051867
31	0x3d7434ee	0.05962079
32	0xbd41c3bd	-0.04730581
33	0x3eed32c9	0.46327808
34	0x3ccff868	0.025387004
35	0x3e67f195	0.2265075
36	0xbe8d27cc	-0.27569425
37	0xbf36b94c	-0.7137649
38	0x3dc81a91	0.09770692
39	0xbef290a7	-0.47375986
40	0xbe2ecdce	-0.17070696
41	0x3ee0d527	0.43912622
42	0x3e14d7c3	0.14535432
43	0x3ead26df	0.3381872
44	0xbeda70d7	-0.42664215
45	0x3e24bbfb	0.16087334
46	0x3e211a9f	0.15732811
47	0xbe840914	-0.25788176
48	0x3e91e5be	0.28495592
49	0x3e9748b8	0.29547668
50	0xbf14c692	-0.58115494
51	0xbe68fc0d	-0.227524
52	0x3cb278b6	0.021786075
53	0x3e60c615	0.21950562
54	0xbe1bebf5	-0.15226729
55	0xbdc6226e	-0.09674536
56	0xbde2afd3	-0.11068692
57	0xbe2a6114	-0.16638595
58	0x3ed3c9c1	0.41364864
59	0xbecc0ab8	-0.39851928
60	0xbe86adaf	-0.26304385
61	0x3e47f449	0.19526781
62	0xbc359791	-0.0110834995
63	0x3dcd4b54	0.10024133
64	0x3e6c7352	0.23090866
65	0xbc126d6c	-0.008937221
66	0xbe43c42d	-0.19117804
67	0xbd2b2314	-0.0417815
68	0x3e61fa72	0.22068194
69	0x3e86d664	0.26335442
70	0x3ec88538	0.39164138
71	0xbc90476d	-0.017612183
72	0xbf2ade3d	-0.6674536
73	0x3dad1faf	0.08453309
74	0x3bae6de8	0.0053231604
75	0xbe2d1345	-0.16901882
76	0xbf05128a	-0.51981413
77	0xbd3d3a63	-0.04619826
78	0x3e9e5bb6	0.30929345
79	0xbdc41c25	-0.09575681
80	0xbe87357a	-0.26407987
81	0xbfa88b5c	-1.3167529
82	0xbf0897f4	-0.5335686
83	0x3df47480	0.11936283
84	0xbec4cf1b	-0.3843926
85	0xbf06bc2c	-0.5263088
86	0xbe56e298	-0.20984876
87	0x3ea67250	0.3250909
88	0xbdc28695	-0.09498326
89	0x3d82dbe2	0.063895956
90	0xbe38fd95	-0.18065484
91	0xbc999b1c	-0.01875072
92	0xbedd6f1c	-0.43248832
93	0xbe30b01b	-0.17254679
94	0xbf03fca2	-0.5155736
95	0x3d92ac70	0.07161796
96	0x3decd7aa	0.11564572
97	0xbf852a83	-1.0403599
98	0xbc51fa08	-0.01281596
99	0x3ef9502d	0.48693982
100	0xbe0c62ed	-0.13709612
101	0xbe707251	-0.23481108
102	0xbedc3638	-0.43010116
103	0x3f214dd7	0.630094
104	0x3dba7803	0.09104922
105	0x3e81d9b7	0.25361416
106	0xbea21008	-0.31652856
107	0xbe277c0e	-0.16355917
108	0xbe84356c	-0.25822008
109	0xbbb00a6d	-0.0053723366
110	0xbea9f2f2	-0.33193165
111	0x3ed1450b	0.40872988
112	0xbe09a95a	-0.13443509
113	0x3de2d36e	0.11075483
114	0x3c187bcb	0.009306858
115	0xbdffdea6	-0.12493639
116	0xbf0efb18	-0.5585189
117	0x3eef465b	0.46733364
118	0xbe23095b	-0.15921538
119	0x3d343b70	0.044001997
120	0xbe228c86	-0.15873918
121	0xbf21caaf	-0.63199896
122	0xbc7de815	-0.015497227
123	0xbe2a46a3	-0.16628508
124	0xbe3beb6b	-0.18351524
125	0x3f2ecdf0	0.68282986
126	0xbd71be7f	-0.05901956
127	0x3ed94e38	0.4244249
128	0xbe324c37	-0.17411886
129	0x3e29b8b0	0.16574359
130	0xbd7b5ca1	-0.061367635
131	0xbe07d2b6	-0.13263974
132	0x3e21ae9e	0.15789267
133	0xbdfd63b9	-0.12372536
134	0xbeba3606	-0.36369342
135	0xbe9cb91b	-0.30609974
136	0xbe0a1634	-0.13485032
137	0x3df0db6a	0.117606
138	0x3dde18a8	0.108445466
139	0xbd7402b6	-0.059572898
140	0x3e9448a9	0.28961685
141	0x3e48f8b5	0.19626124
142	0x3f08b94f	0.5340776
143	0xbd86c44f	-0.06580412
144	0x3d0e9d89	0.034818206
145	0xbe0a875a	-0.13528195
146	0xbdddfca3	-0.10839202
147	0x3d887170	0.066622615
148	0xbc9092c3	-0.017648106
149	0x3e07d5c8	0.13265145
150	0xbeccc42d	-0.3999342
151	0xbdbaa5f7	-0.091136865
152	0x3eaebd96	0.34129018
153	0x3e42a6aa	0.1900889
154	0x3f097d3a	0.53706706
155	0x3deacfbb	0.11465403
156	0xbf60f106	-0.8786777
157	0x3a880a78	0.0010379096
158	0xbccb6a11	-0.02483085
159	0xbe993c20	-0.29928684
160	0xbe408771	-0.18801667
161	0xbeaa803d	-0.33300963
162	0x3e782807	0.24234019
163	0x3ddec6e2	0.10877778
164	0xbe6c91e6	-0.23102531
165	0xbf99e536	-1.2023075
166	0xbefffad2	-0.49996048
167	0x3d6ff906	0.058587097
168	0x3e1eab81	0.15495111
169	0x3ae82ca3	0.0017713498
170	0x3da76b15	0.08174721
171	0xbf1f6c0d	-0.6227425
172	0xbed87ae0	-0.42281246
173	0xbe44fb0e	-0.19236395
174	0x3ed1894f	0.4092507
175	0xbe02ba31	-0.12766339
176	0x3dafb16d	0.08578763
177	0x3e541803	0.20712285
178	0x3e87c9c8	0.26521134
179	0xbd18a64f	-0.03726798
180	0x3e20efe4	0.15716511
181	0x3de90771	0.113783725
182	0xbe6e7bc3	-0.23289399
183	0xbee5b3b8	-0.44863677
184	0x3e169292	0.1470435
185	0xbf66b71c	-0.9012315
186	0x3ea4938b	0.32143816
187	0xbf332bcb	-0.699887
188	0xbdcaacb8	-0.09896225
189	0xbe2dc5de	-0.16970012
190	0x3eed3ff8	0.46337867
191	0xbe41a27c	-0.18909639
192	0x3e7e59f7	0.24839006
193	0xbea136e9	-0.31487206
194	0x3ea383a8	0.31936383
195	0xbfb91280	-1.4458771
196	0xbf1b025d	-0.6055048
197	0xbd8341e4	-0.06409052
198	0xbf0afc46	-0.5429119
199	0xbd379221	-0.044817094
200	0x3e1b1bb4	0.15147287
201	0xbebfd3e5	-0.3746635
202	0x3cc20445	0.023683676
203	0xbf8b3031	-1.0874082
204	0x3e056ce3	0.13029818
205	0x3ee492ba	0.44643193
206	0xbf656c5d	-0.89618474
207	0x3def5d20	0.11687684
208	0x3e96b0f8	0.2943189
209	0xbecddbb2	-0.40206677
210	0xbe9d4a02	-0.30720526
211	0xbfaced61	-1.3509942
212	0xbda915a2	-0.08256079
213	0xbf308e9b	-0.689676
214	0x3ec09f6b	0.37621626
215	0x3e3b7f73	0.18310337
216	0xbe34c7d4	-0.17654353
217	0xbe8638a6	-0.26215094
218	0x3f2730ea	0.6530901
219	0x3e4fe9b8	0.20304
220	0xbca53781	-0.020168068
221	0x3e3ef0f0	0.18646598
222	0xbcb8eb8a	-0.022573251
223	0x3b42f80a	0.0029749894
224	0x3e19416a	0.1496636
225	0xbdb3b5d0	-0.08774912
226	0xbea9ee57	-0.3318965
227	0xbd850e1f	-0.06496834
228	0x3d0f4e29	0.03498665
229	0xbd8e38bd	-0.06944416
230	0xbf65c922	-0.8976003
231	0xbe9bd7b1	-0.30437997
232	0xbe7f802a	-0.24951234
233	0xbf114860	-0.5675106
234	0x3e89a849	0.26886204
235	0xbed3f634	-0.41398776
236	0xbe5531a0	-0.20819712
237	0xbe17031e	-0.14747283
238	0xbf3b4979	-0.73158985
239	0x3c14108f	0.009037151
240	0x3ee799f1	0.45234635
241	0xbedcdce4	-0.43137276
242	0xbd835df6	-0.06414406
243	0x3c8ecee1	0.017432632
244	0x3ebca85b	0.36847195
245	0x3c5d7202	0.013515951
246	0xbc8d9a33	-0.017285442
247	0xbd53b150	-0.05168277
248	0x3ef6f74f	0.48235556
249	0x3edd3fe9	0.43212822
250	0x3e93cfc1	0.2886944
251	0xbe05d399	-0.13069
252	0xbdea8852	-0.11451782
253	0xbf8e9460	-1.113903
254	0xbf1b8584	-0.60750604
255	0x3e526da4	0.20549637

fc3.bias f4 [46]
0	0xbdd9b495	-0.106301464
1	0x3d8a775a	0.06761046
2	0xbd942952	-0.07234444
3	0x3e27c478	0.1638354
4	0xbc52b791	-0.012861148
5	0xbdf1a36c	-0.117987484
6	0xbcbecd0b	-0.023291131
7	0xbe293af3	-0.16526394
8	0xbd824777	-0.06361287
9	0xbc54d1c0	-0.012989461
10	0xbdd3e461	-0.10346294
11	0x3d1487fa	0.03626249
12	0xbe3d1ae8	-0.18467295
13	0x3da43302	0.080175415
14	0xbd683d9c	-0.05669938
15	0xbc27a2c6	-0.010231679
16	0xbd52b359	-0.05144057
17	0xbe244947	-0.16043578
18	0xbd876441	-0.06610919
19	0x3caa3b41	0.020780208
20	0x3dbdcab2	0.09267177
21	0x3c854ab7	0.016270978
22	0xbd7231bf	-0.059129473
23	0xbe0fa185	-0.14026459
24	0xbd1c4434	-0.03815098
25	0x3cfe2465	0.031023214
26	0xbe221be4	-0.15830952
27	0x3bb8f7b1	0.0056447615
28	0xbd06d946	-0.03292205
29	0x3e13fed5	0.1445268
30	0xbe34e066	-0.17663726
31	0xbe824d5a	-0.2544964
32	0xbd86663d	-0.06562469
33	0xbd8c19e0	-0.06840873
34	0xbdd7225a	-0.10504599
35	0xbe8bfbf9	-0.27340677
36	0x3d1c986d	0.038231302
37	0x3cce9430	0.025217146
38	0xbcb81005	-0.022468576
39	0xbe260194	-0.1621154
40	0x3d2a3a56	0.04155954
41	0xbcdcd024	-0.026954718
42	0xbd1202c0	-0.035647154
43	0x3d74fcd5	0.059811432
44	0x3d281650	0.041036904
45	0x3cfa7457	0.030573053
