mp4-machine-learning-template/model/model.pth (torch, 89342 bytes, 14 tensors)

fc1.weight f4 [120, 51]
0	0x3d245396	0.040118776
1	0xbc827c8e	-0.015928533
2	0xbdd4d990	-0.10393059
3	0xbdf011c3	-0.11722138
4	0xbdece315	-0.1156675
5	0x3e02ec9d	0.12785573
6	0x3e0c8ae2	0.13724855
7	0x3dbad13b	0.09121939
8	0xbd0100d7	-0.03149494
9	0x3dd1a4fc	0.102365464
10	0xbd2b14a2	-0.041767724
11	0x3ce5a9d9	0.028035091
12	0xbda9a961	-0.082842596
13	0xbdbe83f6	-0.09302513
14	0xbc88ecae	-0.01671442
15	0xbdd3bc18	-0.103386104
16	0x3ce1e64e	0.027575638
17	0x3c44991d	0.011999396
18	0x3e097b47	0.13425933
19	0x3cd23b5a	0.025663067
20	0xbdf85f7e	-0.12127589
21	0xbe02dc8b	-0.12779443
22	0x3c82735c	0.015924148
23	0xbc3670aa	-0.01113526
24	0xbdd98e47	-0.106228404
25	0x3d84f54e	0.06492101
26	0xbda8254b	-0.08210238
27	0xbda991a7	-0.08279734
28	0x3e0b6ada	0.1361498
29	0x3d0bf4e0	0.034169078
30	0xbdd02d8c	-0.101649374
31	0x3dc7f71e	0.09763931
32	0x3d9934c8	0.0748077
33	0x3da12fc8	0.07870442
34	0x3d8b6c1a	0.06807728
35	0xbdd9a65a	-0.10627432
36	0xbb173d3c	-0.002307727
37	0x3dd7b64a	0.10532816
38	0x3da210d5	0.07913367
39	0x3d30638c	0.043063685
40	0x3cddd740	0.027080178
41	0x3c39f906	0.011350876
42	0xbd2e7057	-0.042587604
43	0x3d293f26	0.04131999
44	0xbdf9cc0b	-0.12197121
45	0xbdb884a5	-0.09009675
46	0x3da46bbc	0.08028361
47	0xbca54256	-0.020173233
48	0xbdc993b9	-0.09842629
49	0x3c8db7bc	0.017299525
50	0x3de05b46	0.10954909
51	0xbe008f32	-0.12554625
52	0x3d16de73	0.036833238
53	0xbdeb8550	-0.11500037
54	0x3db7bbd7	0.089713745
55	0xbddd7b61	-0.10814548
56	0x3cfe77b7	0.031062944
57	0x3dfe2376	0.124091074
58	0x3c485fad	0.012229842
59	0xbd6e381e	-0.058158986
60	0x3ba353f4	0.004984373
61	0xbd579b7a	-0.05263851
62	0xbc055d2f	-0.0081398925
63	0xbbf56365	-0.0074886554
64	0x3c030b5d	0.007998315
65	0xbd8f0d43	-0.06984951
66	0xbe0d0fe9	-0.137756
67	0xbc4adb3b	-0.01238137
68	0x3de69ef6	0.11260788
69	0x3df08e16	0.11745851
70	0x3cca4507	0.024691118
71	0x3d469550	0.04848224
72	0x3c0de1ae	0.008659763
73	0xbe00d1f4	-0.12580091
74	0xbd0c7187	-0.034287956
75	0xbd2a47ee	-0.041572504
76	0x3deaccb3	0.114648245
77	0x3db05631	0.0861019
78	0xbd743a4f	-0.05962592
79	0x3cb828cb	0.02248039
80	0xbd1255be	-0.0357263
81	0x3e0f02b9	0.13965882
82	0xbd86b86e	-0.06578146
83	0xbdbcd95b	-0.09221145
84	0xbd08cbb0	-0.033397377
85	0x3db1729e	0.086644396
86	0x3d393427	0.045215752
87	0xbd2e3bd2	-0.042537518
88	0xbc1197e2	-0.008886309
89	0x3d84e764	0.06489447
90	0xbdd54924	-0.10414341
91	0x3d8a591e	0.06755279
92	0x3aaf9f5c	0.0013398933
93	0xbdafdc5d	-0.08586953
94	0x3d84a3aa	0.06476529
95	0xbd438378	-0.0477328
96	0xbd976bb6	-0.07393591
97	0xbdae4e6a	-0.0851105
98	0x3d45b7a5	0.04827084
99	0x3dbddae7	0.09270268
100	0x3cab6596	0.020922463
101	0x3dc75cbe	0.09734486
102	0xbe0d5e00	-0.1380539
103	0x3dee4c4c	0.11635646
104	0x3dc00adf	0.093770735
105	0xbe045fa4	-0.12927109
106	0xbd5ed896	-0.05440577
107	0x3d75e544	0.060033098
108	0xbdeed83d	-0.11662338
109	0x3d81c9fb	0.06337353
110	0xbd82bb22	-0.06383349
111	0x3e0a02f8	0.13477695
112	0x3ccce3ac	0.025010906
113	0x3db690b6	0.0891432
114	0x3e050576	0.12990364
115	0x3aec3a60	0.0018022768
116	0xbcce85c0	-0.025210261
117	0xbd113d1e	-0.035458677
118	0x3d901d4c	0.07036838
119	0x3bf678fd	0.007521747
120	0xbd1cbcef	-0.03826612
121	0xbc8706c5	-0.01648272
122	0xbd7b2211	-0.061311785
123	0xbd853653	-0.06504502
124	0xbd2a88da	-0.041634418
125	0x3dd30625	0.10303906
126	0x3dfc69b5	0.123248495
127	0xbd928f3a	-0.071562245
128	0x3e13916a	0.1441094
129	0x3c50c4b7	0.012742213
130	0xbdecb958	-0.11558789
131	0xbd398c66	-0.04529991
132	0xbc526d42	-0.012843432
133	0x3dcd9463	0.10038068
134	0x3d1c5b77	0.038173165
135	0xbda12d30	-0.07869947
136	0xbd41cd46	-0.047314905
137	0xbe0f6206	-0.14002237
138	0xbbbc95e6	-0.005755174
139	0x3ca30f4f	0.01990476
140	0x3bbc5c02	0.005748273
141	0xbde856aa	-0.11344655
142	0x3d3906de	0.045172565
143	0xbd8281be	-0.063724026
144	0x3d591f28	0.05300823
145	0x3c176a0d	0.009241593
146	0x3cafe068	0.02146931
147	0x3d238926	0.039925717
148	0x3df827ed	0.1211699
149	0xbc9e79ac	-0.019345127
150	0x3d288fb7	0.041152682
151	0x3e05d654	0.13070041
152	0xbd6664a9	-0.05624834
153	0x3d2dd84b	0.0424426
154	0xbdb4146f	-0.0879296
155	0xbdbb8de1	-0.09157921
156	0x3e072e0e	0.13201162
157	0x3cfe73e4	0.03106112
158	0xbd737fd5	-0.059448082
159	0xbe0a84da	-0.13527241
160	0xbe00e12c	-0.12585896
161	0xbcb83d42	-0.022490148
162	0xbd7f6760	-0.062354445
163	0x3de37560	0.11106372
164	0x3c77486a	0.015092948
165	0x3d48d1f9	0.04902837
166	0x3d804096	0.06262319
167	0x3aa78465	0.0012780546
168	0x3d9749e5	0.07387141
169	0xbe000169	-0.12500538
170	0x3d945829	0.07243378
171	0x3d830a44	0.063984424
172	0xbde71d07	-0.112848334
173	0xbd8b5ff8	-0.06805414
174	0xbde3d74f	-0.11125051
175	0x3d621643	0.05519701
176	0x3e04b7d6	0.12960753
177	0x3de09d16	0.10967462
178	0x3d5d4338	0.054019183
179	0xbc580658	-0.013185106
180	0xbdee645f	-0.11640238
181	0xbdd07cc6	-0.10180049
182	0x3d492595	0.049108107
183	0x3d0c6707	0.034277942
184	0xbc229d6b	-0.009925227
185	0x3d24384c	0.04009275
186	0x3d23b4d7	0.039967384
187	0xbc4f17da	-0.012639964
188	0x3d2a7104	0.041611686
189	0x3a99ead0	0.0011742953
190	0xbcc6f2d6	-0.024285715
191	0x3d89654f	0.06708776
192	0xbdc5e115	-0.096620716
193	0x3d5c0420	0.05371487
194	0x3d20a9df	0.0392245
195	0x3da8bd15	0.082391895
196	0x3d0c345f	0.034229632
197	0x3d460427	0.048343804
198	0x3e01b06a	0.12664953
199	0xbdeb282e	-0.11482273
200	0x3d29e337	0.041476455
201	0xbdfa6c0b	-0.12227639
202	0x3d7d5c61	0.061855678
203	0x3c66354a	0.014050791
204	0x3dc7ec51	0.09761871
205	0x3d5151af	0.05110329
206	0xbdc94cd3	-0.09829106
207	0xbcee1e17	-0.029067082
208	0xbd8837b1	-0.06651247
209	0x3ccdc36c	0.025117598
210	0x3db060de	0.08612226
211	0xbd75dc2b	-0.06002442
212	0x3dbc5b52	0.091971055
213	0x3dbfbd21	0.09362245
214	0x3de3751c	0.11106321
215	0xbde84b09	-0.11342437
216	0xbd89255d	-0.066965796
217	0x3dc33cfe	0.09533118
218	0x3d647a11	0.055780474
219	0x3d9071c6	0.070529506
220	0xbd50b41f	-0.050953027
221	0x3dffd43f	0.124916546
222	0xbdc81746	-0.09770064
223	0xbe0ad126	-0.13556346
224	0x3dacd2b9	0.0843863
225	0xbccd25c4	-0.025042422
226	0x3d49ee28	0.04929939
227	0xbbb9dedc	-0.005672319
228	0xbd8f7d71	-0.07006348
229	0x3d804c19	0.062645145
230	0xbc909dd8	-0.01765339
231	0xbd92fb85	-0.0717688
232	0x3d9c524a	0.07632883
233	0x3d86879b	0.065688334
234	0x3d64a424	0.0558206
235	0xbc6908d7	-0.014223299
236	0x3d86abf8	0.06575769
237	0x3d555246	0.052080415
238	0xbd517c9a	-0.05114422
239	0xbca03c66	-0.01956005
240	0xbdd517d5	-0.10404936
241	0x3d9e343f	0.07724809
242	0x3dd8d25d	0.105869986
243	0x3e07ac34	0.13249284
244	0xbcac7a1c	-0.02105432
245	0xbd85ab3a	-0.065267995
246	0x3d8c2f21	0.068449266
247	0x3d5fe42c	0.05466096
248	0xbe0a3cd7	-0.13499771
249	0xbc33b52c	-0.010968488
250	0x3ce84809	0.028354662
251	0x3e113fe9	0.14184536
252	0x3e107497	0.14106975
253	0x3d5230b4	0.05131598
254	0x3c74238a	0.014901051
255	0xbdad4bef	-0.08461749

fc1.bias f4 [120]
0	0xbc9b8080	-0.018982172
1	0xbbfdde60	-0.0077474564
2	0xbddce092	-0.10785021
3	0x3c9af220	0.018914282
4	0x3ded116a	0.11575587
5	0xbcaab1bc	-0.020836703
6	0x3e01d687	0.12679492
7	0x3cf25288	0.02958037
8	0xbddb3ba4	-0.10704735
9	0xbdcff0c5	-0.10153345
10	0x3e07093f	0.13187121
11	0x3cab5fb8	0.020919666
12	0x3d9fee0e	0.07809077
13	0xbe025780	-0.12728691
14	0xbb885cc0	-0.0041614473
15	0xbdf5d3c9	-0.120032854
16	0x3dae2a4e	0.08504163
17	0x3c29edf0	0.01037167
18	0xbdbafdb4	-0.09130421
19	0xbdacbf12	-0.08434881
20	0x3d105154	0.03523381
21	0xbd88b040	-0.06674242
22	0xbc94b86c	-0.018154345
23	0xbd90b555	-0.07065836
24	0x3da073e8	0.07834607
25	0xbe0a151e	-0.13484618
26	0x3df237b6	0.11827032
27	0xbdf64356	-0.12024562
28	0xbdd4f4df	-0.10398268
29	0x3d15bd70	0.036557615
30	0xbded1826	-0.115768716
31	0xbb273140	-0.0025511533
32	0x3ccc2a60	0.02492255
33	0x3e063279	0.13105191
34	0xbce73b04	-0.028226383
35	0xbdb0c59b	-0.0863144
36	0x3d067108	0.03282264
37	0xbe069aac	-0.1314494
38	0xbe0d6615	-0.13808472
39	0xbc834f54	-0.016029038
40	0x3c203860	0.009779066
41	0x3caf1010	0.021369964
42	0xbe01ba55	-0.12668736
43	0xbdb6390e	-0.08897601
44	0x3c651d40	0.0139840245
45	0xbdd5f444	-0.104469806
46	0xbd40fd16	-0.04711636
47	0x3d1955f0	0.037435472
48	0x3db74ef6	0.089506075
49	0x3debfede	0.115232214
50	0xbda4f165	-0.08053855
51	0xbd4a5fe2	-0.049407847
52	0xbdb0b60c	-0.08628473
53	0xbd7a7a74	-0.061151937
54	0x3dca64f4	0.098825365
55	0x3ddb38b8	0.107041776
56	0x3ccd3300	0.025048733
57	0x3dcd4642	0.10023166
58	0xbcb4ece4	-0.022085615
59	0x3dbe1cea	0.09282859
60	0x3c893670	0.01674959
61	0x3df3cdc2	0.119044796
62	0x3ddb536e	0.10709272
63	0xbc8d0934	-0.017216302
64	0x3d2828c0	0.041054487
65	0xbd31a7ca	-0.043372907
66	0x3dd49cc6	0.10381465
67	0xbd12139e	-0.03566324
68	0xbdae5294	-0.08511844
69	0x3d074618	0.03302583
70	0xbe06a990	-0.1315062
71	0xbd827b12	-0.0637113
72	0x3d9f2564	0.077708036
73	0xbd0bd086	-0.03413441
74	0xbcb1f640	-0.021723866
75	0xbc084c60	-0.0083189905
76	0x3dd2b066	0.102875516
77	0xbe0b809f	-0.13623284
78	0x3dbc0c6a	0.09182055
79	0x3cca4058	0.024688885
80	0x3dbdc394	0.09265819
81	0x3dfae3b6	0.12250464
82	0x3dad3766	0.08457832
83	0x3d4adfa8	0.0495297
84	0x3de4f66e	0.11179815
85	0x3b995fe0	0.0046806186
86	0xbd42f97a	-0.0476012
87	0x3da91326	0.082556054
88	0x3dd81148	0.10550171
89	0xbd9e2719	-0.07722301
90	0xbd6f2fe4	-0.05839528
91	0x3d345020	0.044021726
92	0x3dc3c354	0.0955874
93	0x3aee1900	0.001816541
94	0xbdcad4de	-0.099038824
95	0xbc49ea20	-0.012323886
96	0x3da17066	0.078827664
97	0x3cc722d0	0.024308592
98	0xbe070e65	-0.13189085
99	0xbcbeccdc	-0.023291044
100	0x3db29408	0.08719641
101	0xbdb83d3c	-0.089960545
102	0xbd3b8bf2	-0.04578776
103	0xbe03596e	-0.12827083
104	0xbcf363b4	-0.029710628
105	0x3c2d68c0	0.010584056
106	0x3deae872	0.11470117
107	0xbdc2ddbe	-0.0951495
108	0x3d32bf88	0.04363969
109	0x3d8713ee	0.06595598
110	0x3e04f195	0.12982781
111	0xbd435c90	-0.047695696
112	0x3d6c49dc	0.057687625
113	0x3cb6c770	0.022311896
114	0x3cfd5ea8	0.030928925
115	0xbd24b712	-0.040213652
116	0xbaee0480	-0.00181593
117	0xbdcae060	-0.099060774
118	0x3cc502b0	0.024049133
119	0xbd014270	-0.0315575

bn1.weight f4 [120]
0	0x3f7f8416	0.9981092
1	0x3f7fac70	0.99872494
2	0x3f80110e	1.0005205
3	0x3f80081f	1.0002478
4	0x3f80298b	1.0012678
5	0x3f7f6511	0.9976359
6	0x3f80133b	1.0005869
7	0x3f7f8926	0.99818647
8	0x3f7fcab9	0.99918705
9	0x3f7e8a85	0.99430114
10	0x3f806853	1.0031837
11	0x3f8004b8	1.000144
12	0x3f7f4dd0	0.9972811
13	0x3f7f5997	0.9974608
14	0x3f803228	1.0015306
15	0x3f802227	1.0010422
16	0x3f7fca1a	0.9991776
17	0x3f80373e	1.0016859
18	0x3f7f6cba	0.9977528
19	0x3f80283e	1.0012281
20	0x3f7fa5ce	0.9986237
21	0x3f7dd378	0.991508
22	0x3f807d7f	1.0038298
23	0x3f7f4355	0.99712116
24	0x3f7f7d57	0.9980063
25	0x3f8067c7	1.003167
26	0x3f7f94bf	0.99836344
27	0x3f7f9a0c	0.9984443
28	0x3f8014e5	1.0006377
29	0x3f7fcb6d	0.9991978
30	0x3f800c01	1.0003663
31	0x3f7f84e1	0.9981213
32	0x3f8016f3	1.0007004
33	0x3f7fbc61	0.9989682
34	0x3f802668	1.0011721
35	0x3f804879	1.0022117
36	0x3f7f7bdb	0.99798363
37	0x3f801ede	1.000942
38	0x3f8005a3	1.000172
39	0x3f8053cc	1.0025573
40	0x3f8045a5	1.0021254
41	0x3f8036b3	1.0016693
42	0x3f8089fa	1.0042107
43	0x3f7ed7c3	0.99547976
44	0x3f7fa950	0.99867725
45	0x3f805a46	1.0027549
46	0x3f7f7451	0.9978686
47	0x3f8069db	1.0032305
48	0x3f7ff72f	0.9998655
49	0x3f802607	1.0011605
50	0x3f7f6ca5	0.99775153
51	0x3f800041	1.0000077
52	0x3f808018	1.0039091
53	0x3f8012cf	1.000574
54	0x3f7f589e	0.99744594
55	0x3f803a8c	1.0017867
56	0x3f7fc5cc	0.9991119
57	0x3f7f1870	0.99646664
58	0x3f802378	1.0010824
59	0x3f8063c3	1.0030445
60	0x3f802b8e	1.0013292
61	0x3f7f1cf0	0.9965353
62	0x3f7f6d8d	0.99776536
63	0x3f80a02b	1.0048879
64	0x3f802cf9	1.0013725
65	0x3f7fa9e0	0.99868584
66	0x3f7f804d	0.99805146
67	0x3f8068cc	1.0031981
68	0x3f7f765a	0.99789965
69	0x3f7f7115	0.99781924
70	0x3f7fb072	0.9987861
71	0x3f802c42	1.0013506
72	0x3f7f855e	0.9981288
73	0x3f7fed5d	0.9997156
74	0x3f7f94ef	0.9983663
75	0x3f803873	1.0017227
76	0x3f7f8a8a	0.9982077
77	0x3f7f66c7	0.997662
78	0x3f80bb14	1.0057092
79	0x3f8017df	1.0007285
80	0x3f801ff6	1.0009754
81	0x3f7f594b	0.99745625
82	0x3f8072f6	1.0035083
83	0x3f800926	1.0002792
84	0x3f800b80	1.000351
85	0x3f8048c4	1.0022206
86	0x3f80754a	1.0035794
87	0x3f8015ce	1.0006654
88	0x3f7fc62b	0.99911755
89	0x3f7fd11d	0.99928457
90	0x3f7f7e06	0.9980167
91	0x3f7f57f1	0.9974356
92	0x3f7fa38d	0.99858934
93	0x3f806197	1.0029782
94	0x3f803fcc	1.0019469
95	0x3f802d60	1.0013847
96	0x3f7dd553	0.9915363
97	0x3f803e16	1.0018947
98	0x3f7ff6b2	0.999858
99	0x3f807f72	1.0038893
100	0x3f801ad9	1.0008193
101	0x3f7fe318	0.9995589
102	0x3f7fd1b9	0.99929386
103	0x3f803074	1.0014787
104	0x3f80b0de	1.0053976
105	0x3f7f6c44	0.99774575
106	0x3f8039f5	1.0017687
107	0x3f804fc7	1.0024346
108	0x3f7fae38	0.9987521
109	0x3f7f8e18	0.9982619
110	0x3f7fb0e3	0.9987928
111	0x3f7fb87c	0.99890876
112	0x3f804ba8	1.0023088
113	0x3f805b12	1.0027792
114	0x3f808281	1.0039827
115	0x3f7f7355	0.9978536
116	0x3f7fd2d3	0.9993107
117	0x3f7efe50	0.996068
118	0x3f8064bd	1.0030743
119	0x3f7f909f	0.9983005

bn1.bias f4 [120]
0	0xba85500b	-0.0010170949
1	0xba22c789	-0.00062095426
2	0x39c4bc8e	0.00037524517
3	0x39a9c22b	0.00032378858
4	0x3a759e22	0.0009369572
5	0xba98d6c0	-0.001166068
6	0x396ef54a	0.00022788826
7	0xba117025	-0.0005548022
8	0xb9dec7b8	-0.00042491942
9	0xbb86be0e	-0.0041120118
10	0x3b36c0fb	0.0027886021
11	0x3a1a72c2	0.0005891734
12	0xbaf6bee9	-0.0018825206
13	0xbab2dede	-0.0013646742
14	0x3a551ba8	0.0008129426
15	0x3aa799d4	0.0012786933
16	0xb9b6e1f6	-0.000348821
17	0x3ab42bc4	0.0013745953
18	0xba5ad141	-0.00083472213
19	0x3a0def59	0.0005414389
20	0xba87c27e	-0.0010357646
21	0xbba67c84	-0.0050807614
22	0x3b47121a	0.003037578
23	0xbb0abc1b	-0.0021169249
24	0xba7ef381	-0.0009725616
25	0x3b1b812c	0.0023728115
26	0xbac01c89	-0.0014656942
27	0xb9e16d3f	-0.0004299674
28	0x39c2e4c7	0.00037173016
29	0xba71a2a0	-0.00092176534
30	0xb975cb64	-0.0002344079
31	0xbac07be8	-0.0014685364
32	0x3ac7a03f	0.0015230252
33	0xb963b68e	-0.00021716414
34	0x37b01f7e	2.09955e-05
35	0x3b24ccf0	0.0025146566
36	0xba334de1	-0.0006839913
37	0x3a167ed5	0.00057409453
38	0x38adb2d3	8.2825914e-05
39	0x3b21d78a	0.0024695122
40	0x3af4ecf9	0.0018686346
41	0x3b226643	0.002478019
42	0x3b87ad70	0.0041405484
43	0xbb3a3ac1	-0.0028416368
44	0xb99e56ba	-0.00030200725
45	0x3b1e5255	0.002415796
46	0xbab21e33	-0.0013589322
47	0x3b02db69	0.0019967204
48	0x3a120d2c	0.0005571421
49	0x3ab894f5	0.0014082479
50	0x39879880	0.00025862828
51	0x39e2917a	0.00043214468
52	0x3b6ac928	0.0035825465
53	0x3b0d63ac	0.0021574302
54	0xbb03a5b4	-0.002008778
55	0x3adf2552	0.0017024672
56	0xba964ef4	-0.0011467622
57	0xbb279d42	-0.002557591
58	0x3a200bd0	0.0006105276
59	0x3a95f284	0.0011440073
60	0x3a6e95b7	0.0009101289
61	0xbb12df91	-0.0022411088
62	0xba96548b	-0.0011469288
63	0x3b8a7e6d	0.004226497
64	0x3aee446f	0.0018178354
65	0xbaba2236	-0.001420087
66	0xba21dbc6	-0.00061744114
67	0x3b215ef5	0.002462325
68	0xbb1230e1	-0.0022306966
69	0xba83c4fe	-0.0010053215
70	0xbaaf5f63	-0.0013379868
71	0x39ffb846	0.00048774685
72	0xbaa800e8	-0.0012817653
73	0xb946725c	-0.00018925354
74	0xba51c529	-0.00080020964
75	0x3afd7acc	0.0019338964
76	0xba906912	-0.0011017642
77	0xbab2339a	-0.0013595701
78	0x3ba3373d	0.00498095
79	0x3adc07dc	0.001678701
80	0x3a8bdcfe	0.0010670719
81	0xbae576b3	-0.0017506689
82	0x3b1b6a58	0.002371451
83	0x3a8b1898	0.0010612188
84	0x3a72d23b	0.0009262894
85	0x3ac5a0bd	0.0015077811
86	0x3b639b54	0.0034730034
87	0x3a19502d	0.0005848434
88	0x399b5981	0.0002963059
89	0x38df8eb0	0.00010660046
90	0xba768d32	-0.0009405195
91	0xbb0b1958	-0.0021224823
92	0xba8c8d82	-0.0010723325
93	0x3b13e084	0.0022564242
94	0x3ad628b4	0.0016339035
95	0x3aad130c	0.0013204529
96	0xbba77fc4	-0.0051116664
97	0x3aabf52b	0.001311933
98	0x39925c48	0.00027916045
99	0x3b3c1718	0.0028700288
100	0x3a0533c6	0.0005081262
101	0x38e42e94	0.00010880563
102	0xb94ff311	-0.00019831608
103	0x3ab9e68a	0.0014183086
104	0x3b962f58	0.0045832805
105	0xbabd9781	-0.0014464707
106	0x3ac2993b	0.0014846692
107	0x3af3b198	0.0018592356
108	0x389e6f87	7.554801e-05
109	0xba597ad1	-0.0008296194
110	0x38a8f621	8.056709e-05
111	0xba7f59cd	-0.00097408594
112	0x3aba7c4d	0.0014227718
113	0x3b2c0674	0.0026248964
114	0x3b8564b6	0.0040708436
115	0xbaa0e653	-0.0012275673
116	0xb98c8f77	-0.0002680977
117	0xbb3b3ff0	-0.0028572045
118	0x3b3027d9	0.002687922
119	0xbaba81f6	-0.0014229405

bn1.running_mean f4 [120]
0	0xbcce9e3c	-0.025221936
1	0xbca61f72	-0.020278666
2	0xbda83a4a	-0.08214243
3	0x3ce95394	0.028482236
4	0x3e092346	0.13392362
5	0xbcee6db9	-0.029105054
6	0x3dd9313f	0.10605096
7	0x3d23db3a	0.040003993
8	0xbd8d7e32	-0.069088355
9	0xbdbd31bc	-0.09238002
10	0x3df8022e	0.12109791
11	0x3c22e310	0.009941831
12	0x3d80590e	0.06266986
13	0xbe242142	-0.16028312
14	0xbd193ff0	-0.03741449
15	0xbdb95710	-0.09049809
16	0x3da27738	0.079328954
17	0x3ce9c418	0.028535888
18	0xbd7c9e9b	-0.061674695
19	0xbd97e72b	-0.07417139
20	0x3cc41d20	0.02393967
21	0xbd614d49	-0.055005345
22	0xbcd81142	-0.026375417
23	0xbdb8b834	-0.09019509
24	0x3d7ba844	0.061439767
25	0xbddbc1a9	-0.10730297
26	0x3de9021b	0.11377355
27	0xbdd741d5	-0.10510603
28	0xbddd5aab	-0.10808309
29	0x3c4da2be	0.012551008
30	0xbe144dee	-0.14482853
31	0x3b203488	0.0024445374
32	0x3d3e61d1	0.046480004
33	0x3e065390	0.13117814
34	0xbcf6d525	-0.030130932
35	0xbd64e8a6	-0.055885933
36	0x3ce8e45a	0.028429199
37	0xbdc1e3b5	-0.0946726
38	0xbe059fa7	-0.13049184
39	0xbcb7847e	-0.022402044
40	0xbc84ef68	-0.016227439
41	0x3c79f0c6	0.015255159
42	0xbe3b4413	-0.18287687
43	0xbd9a9f51	-0.075499184
44	0xbc91a73d	-0.01777994
45	0xbddae14d	-0.10687504
46	0xbd15962d	-0.036520172
47	0x3d254835	0.040352065
48	0x3dc5678c	0.096388906
49	0x3dd35fd3	0.103210114
50	0xbde7e3f7	-0.11322778
51	0xbd754ca0	-0.05988753
52	0xbdb2ee14	-0.08736816
53	0xbda0c5df	-0.07850241
54	0x3daba81c	0.08381674
55	0x3de3e2a1	0.111272104
56	0x3ca75764	0.020427413
57	0x3da1d544	0.07902005
58	0x3a153c70	0.0005692905
59	0x3dde9bc4	0.10869554
60	0x3be4a6ca	0.0069778906
61	0x3de46c50	0.111534715
62	0x3dd0ddb8	0.101985395
63	0xbc49dffa	-0.012321467
64	0x3c61b192	0.013775246
65	0xbd0243d5	-0.03180297
66	0x3daf12eb	0.0854853
67	0xbced0a3c	-0.028935544
68	0xbd6140b1	-0.054993335
69	0x3d37f6fa	0.04491327
70	0xbe1e0cfe	-0.15434644
71	0xbd3ee6ee	-0.04660695
72	0x3da5e3d8	0.08100098
73	0xbd356a99	-0.044291113
74	0xbcd8cb65	-0.026464174
75	0xbba5306d	-0.005041173
76	0x3e084685	0.13308151
77	0xbe32bc78	-0.17454708
78	0x3daf763c	0.08567473
79	0x3cb70fc8	0.022346392
80	0x3daa5d66	0.083185956
81	0x3e0223a1	0.12708904
82	0x3dae7baa	0.08519681
83	0x3cd679c1	0.026181104
84	0x3e232bec	0.15934724
85	0x3c2fb495	0.010724206
86	0xbd215fc2	-0.039397962
87	0x3dd5d7e8	0.104415715
88	0x3d89888c	0.067154974
89	0xbd9e458f	-0.07728111
90	0xbd58d11a	-0.05293379
91	0x3d3f447e	0.04669618
92	0x3de9a9aa	0.11409314
93	0x3cfec921	0.031101765
94	0xbdf9a495	-0.12189595
95	0xbcb6b2a9	-0.022301989
96	0x3d86d3cd	0.065833665
97	0x3d1f653b	0.0389149
98	0xbdffd7f0	-0.12492359
99	0x3b6ee138	0.0036450159
100	0x3de959de	0.11394094
101	0xbd970899	-0.07374687
102	0xbd5a6ae5	-0.0533246
103	0xbe0285fe	-0.12746426
104	0xbd3c07ad	-0.045905758
105	0xbc9f01e0	-0.019410074
106	0x3e1f20c6	0.15539846
107	0xbdaf0f82	-0.0854788
108	0x3d71945d	0.05897938
109	0x3dbe3dae	0.09289108
110	0x3dd04b4d	0.101706125
111	0xbda5b4cc	-0.08091125
112	0x3cdca58a	0.026934404
113	0x3bfbd784	0.0076856036
114	0x3c8f9fc1	0.017532231
115	0xb96c7600	-0.00022550672
116	0xbc915e4c	-0.01774516
117	0xbdd44b25	-0.10365895
118	0x3d037e44	0.03210284
119	0xbd1ea0e0	-0.03872764

bn1.running_var f4 [120]
0	0x3ec64495	0.387242
1	0x3e8e2a72	0.27766758
2	0x3e9f3819	0.31097487
3	0x3e79fa16	0.24411806
4	0x3ea27321	0.3172846
5	0x3ebe6ee5	0.3719398
6	0x3e9dfc3e	0.30856508
7	0x3eac76fc	0.33684528
8	0x3e9f77fd	0.3114623
9	0x3eb4afbb	0.35290322
10	0x3e748803	0.2388001
11	0x3e76f536	0.24116978
12	0x3eae94f3	0.34098014
13	0x3eb37ae7	0.35054705
14	0x3e9f965b	0.311694
15	0x3ea7d32b	0.32778296
16	0x3e90ee2b	0.28306708
17	0x3e9be0f0	0.3044505
18	0x3e90bb61	0.2826796
19	0x3eda71f6	0.4266507
20	0x3ed3a16c	0.41334093
21	0x3eaa01fe	0.33204645
22	0x3f00c897	0.50306076
23	0x3e95b7cb	0.29241785
24	0x3eb76ec3	0.35826692
25	0x3ebb70d3	0.36609516
26	0x3ebf7221	0.3739176
27	0x3ea3d8ef	0.32001445
28	0x3e8a23c8	0.26980424
29	0x3ead0f9f	0.3380098
30	0x3e923180	0.2855339
31	0x3ead4b08	0.33846307
32	0x3e9e6ec2	0.30943877
33	0x3ea34e24	0.31895554
34	0x3ead81f8	0.3388822
35	0x3ed09656	0.40739697
36	0x3e9d3aaf	0.30708835
37	0x3eb54398	0.35403132
38	0x3ea79044	0.32727253
39	0x3eb941d2	0.3618303
40	0x3e9d17c8	0.30682206
41	0x3ebde94a	0.37092048
42	0x3ea9df6c	0.3317827
43	0x3e85be7d	0.26121894
44	0x3ea806e5	0.3281776
45	0x3ea41ef6	0.3205487
46	0x3ecb7fe4	0.3974601
47	0x3efd49bd	0.4947032
48	0x3ebefcf1	0.37302354
49	0x3e8e19c0	0.2775402
50	0x3f019a67	0.50626224
51	0x3eb23e92	0.34813362
52	0x3f063896	0.52430093
53	0x3ec5c44c	0.38626325
54	0x3eb4c234	0.35304415
55	0x3e93bc1d	0.28854457
56	0x3ea0278e	0.31280178
57	0x3e9d1f42	0.3068791
58	0x3e9c75ca	0.30558616
59	0x3f018bee	0.5060414
60	0x3eb21df8	0.3478849
61	0x3e9f3e09	0.31102017
62	0x3ed8ab9c	0.42318428
63	0x3ea186a1	0.31548026
64	0x3e95c895	0.29254594
65	0x3ec0fb64	0.37691796
66	0x3edf145a	0.43570215
67	0x3e4e83cc	0.20167464
68	0x3ef6a20d	0.4817051
69	0x3eae6b2b	0.34066138
70	0x3e88a12e	0.2668547
71	0x3eb51721	0.35369208
72	0x3ea2f03c	0.3182391
73	0x3e74ece1	0.23918487
74	0x3eb3ddd5	0.35130182
75	0x3ea53b73	0.3227192
76	0x3e951b78	0.2912252
77	0x3eabd4d6	0.33560818
78	0x3ef3a1e7	0.4758446
79	0x3eddc371	0.43313172
80	0x3e745e21	0.23864032
81	0x3e994bb2	0.29940563
82	0x3ea55f15	0.32299104
83	0x3e61e6e0	0.22060728
84	0x3eb62105	0.35572067
85	0x3eb673ac	0.35635126
86	0x3ea6a83d	0.3255023
87	0x3ecfa3a1	0.40554526
88	0x3e8c10e2	0.2735663
89	0x3eb011d9	0.34388617
90	0x3e8032ff	0.25038907
91	0x3eaae372	0.33376652
92	0x3e715cbb	0.2357053
93	0x3e8bf3ec	0.27334535
94	0x3ea69973	0.32538947
95	0x3e97f054	0.29675543
96	0x3eb4e070	0.35327482
97	0x3e915c2a	0.28390628
98	0x3ebbb465	0.36661068
99	0x3f194ccd	0.59882814
100	0x3e99b9e1	0.30024627
101	0x3e858aa1	0.26082328
102	0x3e3b49ac	0.18289822
103	0x3f058373	0.521537
104	0x3ee1a35b	0.44069943
105	0x3e9d993d	0.30780974
106	0x3e950917	0.29108498
107	0x3ec76c90	0.38950014
108	0x3f0926de	0.5357493
109	0x3e9adb12	0.30245262
110	0x3eb2b02b	0.3490003
111	0x3e8b4c24	0.27206528
112	0x3e97be58	0.29637408
113	0x3e99e704	0.30059063
114	0x3ec29392	0.38003212
115	0x3ea0f199	0.31434324
116	0x3ea1866b	0.31547865
117	0x3e66fe44	0.22557932
118	0x3eacd138	0.3375337
119	0x3e8c1f4c	0.27367628

fc2.weight f4 [84, 120]
0	0x3d1adce9	0.037808333
1	0x3d8a9f34	0.06768647
2	0x3da47367	0.08029824
3	0xbcad99d4	-0.021191515
4	0xbd4d240c	-0.050083205
5	0x3b89f370	0.004209928
6	0x3d8f5524	0.06998661
7	0xbd98714c	-0.07443485
8	0x3d496744	0.049170747
9	0xbd927530	-0.07151258
10	0xbc95536a	-0.018228251
11	0x3d94a404	0.07257846
12	0xba920fa2	-0.0011143575
13	0x3ba9f5dd	0.00518678
14	0x3d99bb40	0.07506418
15	0xbda04aca	-0.07826765
16	0x3cab095a	0.020878483
17	0xbbfe1580	-0.007754028
18	0x3d27a490	0.040928423
19	0x3cef2b9a	0.029195596
20	0x3d77d64c	0.060507104
21	0x3da6c4dc	0.08143017
22	0x3d7b7b75	0.061397035
23	0x3d95f68e	0.07322417
24	0xbd101cb5	-0.035183627
25	0x3ce38fb1	0.027778478
26	0x37673093	1.37799825e-05
27	0xbc252c7b	-0.010081406
28	0x3dae3e7e	0.08508013
29	0xbda24fb9	-0.07925362
30	0x3ca31007	0.019905103
31	0x3d667a98	0.05626926
32	0xbd9949ea	-0.07484801
33	0xbd2ec4ff	-0.04266834
34	0xbd65aab0	-0.056070983
35	0xbd9a8db5	-0.0754656
36	0x3ccd2803	0.025043493
37	0xbd616790	-0.055030406
38	0xbd723bbc	-0.059139
39	0x3d63dfc7	0.055633333
40	0xbd743153	-0.05961735
41	0xbd66342e	-0.056202106
42	0x3cb67775	0.022273758
43	0x3d92fde7	0.07177334
44	0x3ce14cb0	0.027502388
45	0xbd1d4d9f	-0.038404103
46	0xbd60e7a5	-0.054908413
47	0x3d20c602	0.039251335
48	0x3d9aec8b	0.07564648
49	0xbc415a57	-0.011801324
50	0x3c479ba2	0.012183102
51	0x3ca4a0c2	0.020096187
52	0x3c8ab467	0.016931726
53	0x3cbaa6d2	0.022784624
54	0xbb9f7b30	-0.00486698
55	0xbd8082b4	-0.0627493
56	0x3d432020	0.04763806
57	0x3d853b67	0.06505471
58	0xbcc66f59	-0.024223017
59	0x3cc34e50	0.023841053
60	0x3d86fb4e	0.06590901
61	0xbd8d0256	-0.06885211
62	0xbc48ea88	-0.012262948
63	0xbd67ca54	-0.05658944
64	0x3d72952f	0.059224304
65	0x3ce99789	0.02851464
66	0xbd334f6f	-0.043776926
67	0x3c91c333	0.017793274
68	0xbdb739dc	-0.08946583
69	0xbd0f9399	-0.03505287
70	0xbdbbc436	-0.09168284
71	0x3d9ddfde	0.07708715
72	0xb9cc6d20	-0.00038991217
73	0xbcbf0f02	-0.023322586
74	0x3c85c131	0.016327472
75	0xbd8c520a	-0.06851585
76	0x3d84d692	0.064862385
77	0xbb3a76a7	-0.002845207
78	0x3da60722	0.08106829
79	0x3d236b37	0.03989717
80	0xbd369b21	-0.044581536
81	0xbd392889	-0.045204673
82	0xbda13ee9	-0.07873327
83	0x3daf7bd9	0.08568544
84	0x3c38233e	0.011238871
85	0x3d215f36	0.03939744
86	0x3d0abebb	0.0338733
87	0x3c89d564	0.016825385
88	0x3d546caf	0.05186146
89	0xbca3e9c6	-0.020008933
90	0x3d0b8a4b	0.034067433
91	0xbd897562	-0.06711842
92	0xbd203da4	-0.039121285
93	0x3d76dd4a	0.06026963
94	0xbdb0178e	-0.08598243
95	0x3d903bd1	0.07042659
96	0x3b08ae90	0.0020856
97	0x3d6dd132	0.058060832
98	0x3da650a0	0.08120847
99	0xbd1946ab	-0.03742091
100	0x3d9ed57a	0.07755561
101	0x3d886cb7	0.06661361
102	0x3d8cdf31	0.06878508
103	0x3d31ab04	0.043375984
104	0xbd000df7	-0.031263318
105	0x3cbf9255	0.023385206
106	0xbdae6c89	-0.08516795
107	0xbdac256c	-0.08405575
108	0x3d96740f	0.07346355
109	0x3bedcfe8	0.0072574504
110	0x3dc8cef1	0.09805096
111	0xbdb2239e	-0.086982
112	0xbb814acb	-0.0039456836
113	0xbcddef86	-0.027091753
114	0xbd3c1ac0	-0.04592395
115	0x3d32b2b5	0.04362746
116	0xbd338af1	-0.043833677
117	0xbc9432ed	-0.01809069
118	0x3d1adeb0	0.037810028
119	0x3d7ecba3	0.06220592
120	0xbd3fd82a	-0.04683701
121	0x3d39ef25	0.04539408
122	0x3d92ec53	0.071739815
123	0x3cb58bcc	0.022161387
124	0xbce43d65	-0.027861306
125	0x3d942130	0.072328925
126	0xbdb082bd	-0.08618686
127	0x3d9222fb	0.07135578
128	0xbda50ee8	-0.08059484
129	0xbd859e0a	-0.06524284
130	0x3c8f131e	0.01746517
131	0x3c0cd08a	0.008594641
132	0x3d5064d2	0.0508774
133	0xbdb0a141	-0.08624507
134	0xbd0a7ace	-0.033808522
135	0xbda8db85	-0.08244995
136	0xbc415fc0	-0.011802614
137	0x3d13fb45	0.0361283
138	0xbd711af6	-0.058863603
139	0x3d87d045	0.06631521
140	0x3cc4c6c6	0.024020564
141	0xbd660c03	-0.0561638
142	0xbd9042ad	-0.070439674
143	0xbd7334f7	-0.059376683
144	0xbda9ab4f	-0.08284628
145	0xbcade392	-0.021226678
146	0xbd6bbec1	-0.057554964
147	0xbd283e2e	-0.041074924
148	0xbcf04cc0	-0.029333472
149	0x3c3d53b4	0.011555601
150	0xbc956661	-0.018237295
151	0x3da8ebab	0.08248075
152	0xbd450e19	-0.048109148
153	0xbd72bba9	-0.059260998
154	0xbd88f149	-0.066866465
155	0xbdabae0a	-0.08382805
156	0x3da0d706	0.078535125
157	0xbbb6e843	-0.005581887
158	0x3d585e9f	0.052824613
159	0x3be28e3b	0.006913928
160	0xbca26db6	-0.019827705
161	0xbd8f8780	-0.070082664
162	0x3d9102ef	0.07080638
163	0x3c906573	0.0176265
164	0x3d454e8f	0.048170622
165	0xbd624696	-0.055243097
166	0xbbe8cbd3	-0.007104376
167	0xbcd0035e	-0.02539223
168	0x3cdd01fe	0.026978489
169	0xbda6f7c3	-0.081527255
170	0xbd3a9057	-0.04554781
171	0xbd826f7f	-0.063689224
172	0x3d56ca04	0.05243875
173	0x3cd8e29c	0.026475243
174	0xbd7bdc06	-0.061489128
175	0xbd73b961	-0.059502963
176	0x3cb222ea	0.021745164
177	0x3b878c41	0.0041365926
178	0x3d872a0f	0.06599819
179	0xbd6e0adb	-0.05811582
180	0x3cc80f86	0.024421465
181	0xbbbf90b7	-0.005846109
182	0x3cd541a7	0.026032282
183	0xbc89d93b	-0.016827216
184	0xbd0e8782	-0.0347972
185	0xbc2f2509	-0.010689982
186	0xbc99cad1	-0.018773468
187	0xbcf33393	-0.029687678
188	0xbaf4bf2b	-0.0018672695
189	0x3d1f5be7	0.038906004
190	0xbd41ec20	-0.047344327
191	0x3dc511a3	0.096225046
192	0xbd1df69e	-0.03856527
193	0x3da58fc7	0.08084064
194	0x3db2b151	0.08725227
195	0xbc3a1a76	-0.011358848
196	0xbda80b6a	-0.08205302
197	0x3d4290c3	0.047501337
198	0xbd47e0a5	-0.048798222
199	0xbd6002dc	-0.054690227
200	0x3d99dc84	0.07512763
201	0x3dafe9c4	0.08589509
202	0xbd5ea6a6	-0.054358147
203	0x3d339114	0.04383953
204	0x3d4c2f56	0.04984983
205	0x3d6a32da	0.057177402
206	0x3d33a80d	0.043861438
207	0x3c1f3713	0.009717721
208	0xbd88f766	-0.066878125
209	0xbd966806	-0.0734406
210	0x3c01c3c7	0.007920212
211	0xbd003ce6	-0.031308077
212	0xbd581559	-0.052754734
213	0xbc11069c	-0.008851673
214	0x3c2653a6	0.010151779
215	0xbc7c9283	-0.0154157905
216	0x3cdc985e	0.026928123
217	0x3c62f9c5	0.013853495
218	0xbc6dde3b	-0.014518316
219	0x3d3eff46	0.046630166
220	0xbcd469f5	-0.02592943
221	0xbdaac967	-0.08339196
222	0xbcfc078f	-0.030765323
223	0x3d18359b	0.037160497
224	0xbd8dd695	-0.06925694
225	0x3d72cc7a	0.059277035
226	0x3d5d9d11	0.05410487
227	0x3daf24f3	0.085519694
228	0xbbba107e	-0.0056782356
229	0xbd906fbe	-0.07052563
230	0xbdb1fc84	-0.08690742
231	0x3c02bf8f	0.007980241
232	0x3da59915	0.08085839
233	0xbd41e536	-0.047337733
234	0x3c9fe5f0	0.019518822
235	0x3b9fbee4	0.004875051
236	0x3d88c4ff	0.06678199
237	0x3ced3e41	0.028960349
238	0x3ba869ff	0.005139589
239	0x3b379900	0.002801478
240	0x3d6dc34d	0.05804758
241	0x3d2e9468	0.042622
242	0x3ce13c1f	0.027494488
243	0x3d78168e	0.060568385
244	0x3da157be	0.078780636
245	0xbc210264	-0.00982723
246	0x3d59d7f4	0.053184465
247	0x3c50ec5b	0.012751664
248	0xbd83d354	-0.06436792
249	0x3c7e5a19	0.015524411
250	0xbca3f80d	-0.02001574
251	0x3d0d26ce	0.034460835
252	0x3d89425f	0.067021124
253	0x3d874a90	0.066060185
254	0xbd9fbeef	-0.078000896
255	0xbabce985	-0.0014412856

fc2.bias f4 [84]
0	0x3c928304	0.017884739
1	0xbdb220d6	-0.08697669
2	0x3c8e9e1c	0.017409377
3	0x3d8e4104	0.069459945
4	0x3c11f760	0.008909076
5	0xbc108e40	-0.008822978
6	0x3d90e2e6	0.070745274
7	0xbd91d9e7	-0.0712164
8	0x3bbd96d0	0.0057858005
9	0xbb4d0520	-0.0031283572
10	0x3db9b0b2	0.09066905
11	0xbc830e48	-0.01599802
12	0xbc688210	-0.014191166
13	0xbc3ace88	-0.01140178
14	0x3d56f4d8	0.052479595
15	0x3b89a510	0.004200585
16	0x3d2592a4	0.04042305
17	0xbc55c740	-0.013047993
18	0x3bddf9f0	0.0067741796
19	0x3d14e024	0.03634657
20	0x3d2f13e8	0.042743593
21	0x3b4f97c0	0.0031676143
22	0xbd0bd627	-0.03413978
23	0xbd18a5ea	-0.037267603
24	0x3d975932	0.073900595
25	0xbd6d511f	-0.05793869
26	0x3db328e8	0.087480366
27	0x3dab507c	0.083649606
28	0xbbabc240	-0.0052416623
29	0xbd6c2c58	-0.057659477
30	0xbdaa19ff	-0.083057396
31	0xbd221cb6	-0.039578162
32	0x3c10c670	0.008836374
33	0xbd8dc9f2	-0.06923284
34	0xbc5cd860	-0.013479322
35	0x3da551c0	0.08072233
36	0x3d9fd76e	0.07804762
37	0x3c9d0c74	0.019170977
38	0xbc4a7708	-0.012357481
39	0x3d31ddb0	0.04342431
40	0x3daf02de	0.08545469
41	0xbd80fcab	-0.062981926
42	0x3af2a8c0	0.0018513426
43	0x3cdc483c	0.026889913
44	0xbd35ad3e	-0.04435467
45	0x3d64df58	0.05587706
46	0x3d9e44ae	0.07727943
47	0x3d3f27d8	0.046668857
48	0x3d3b20bc	0.045685515
49	0xbbe26700	-0.006909251
50	0x3ce6c498	0.028169915
51	0xbd00390f	-0.031304415
52	0xbda00b7c	-0.078146905
53	0x3d92a088	0.07159525
54	0x3d85c5ee	0.06531893
55	0xbd3f8af4	-0.046763375
56	0xbd978496	-0.07398336
57	0xbce10148	-0.027466431
58	0x3c3a3b20	0.011366636
59	0x3ce1d2b4	0.027566291
60	0xbd2c9d92	-0.04214246
61	0xbbf4bf60	-0.0074691027
62	0xbbad83c0	-0.005295247
63	0xbd526d07	-0.051373508
64	0xbd4c2865	-0.04984321
65	0xbbf65290	-0.0075171664
66	0xbcf8446c	-0.030306064
67	0x3d9d586a	0.07682879
68	0xbd8f8c32	-0.07009162
69	0x3d1f9370	0.038958967
70	0xbd79d5a2	-0.06099475
71	0x3d71ad64	0.05900325
72	0x3d3c88c8	0.046028882
73	0xbd68aebc	-0.056807265
74	0x3db2ccb6	0.08730452
75	0x3d1c5210	0.0381642
76	0xbd1d1a06	-0.038354896
77	0xbc3f2e58	-0.011668764
78	0x3db0ab90	0.08626473
79	0x3c595378	0.013264529
80	0x3cd98f4c	0.026557587
81	0xbd5a0877	-0.05323073
82	0x3b621080	0.0034494698
83	0xbc9f323c	-0.019433133

bn2.weight f4 [84]
0	0x3f7bc888	0.9835286
1	0x3f7d50de	0.9895152
2	0x3f7d7eb0	0.99021435
3	0x3f7a56cc	0.9778869
4	0x3f7e6f3f	0.993885
5	0x3f7bd161	0.9836636
6	0x3f7e6524	0.9937308
7	0x3f7ec498	0.9951873
8	0x3f7c9c48	0.98675966
9	0x3f7d6f8a	0.9899832
10	0x3f7cb9de	0.9872111
11	0x3f7e7053	0.99390143
12	0x3f7ce099	0.9878021
13	0x3f7ba54c	0.982991
14	0x3f7c866b	0.98642606
15	0x3f7d690a	0.989884
16	0x3f7ce8af	0.98792547
17	0x3f7b4895	0.98157626
18	0x3f7f29ac	0.9967296
19	0x3f7d41ee	0.98928726
20	0x3f7ca245	0.98685104
21	0x3f7cc7c0	0.98742294
22	0x3f7c1d4d	0.9848221
23	0x3f7bcf48	0.9836316
24	0x3f7b518a	0.98171294
25	0x3f7cf133	0.9880554
26	0x3f7e26a5	0.99277717
27	0x3f7b98fd	0.98280317
28	0x3f7d7369	0.99004227
29	0x3f7de0ed	0.99171335
30	0x3f7ae4e7	0.9800553
31	0x3f7ac03e	0.9794959
32	0x3f7c0a94	0.9845364
33	0x3f7d5f37	0.9897341
34	0x3f7f19e5	0.99648887
35	0x3f7d853c	0.99031425
36	0x3f7d8aaf	0.9903974
37	0x3f7d1f43	0.98875827
38	0x3f7b7d42	0.98238003
39	0x3f7cf585	0.98812133
40	0x3f7c83fb	0.98638886
41	0x3f7d6570	0.98982906
42	0x3f7bd085	0.9836505
43	0x3f7e1c3b	0.99261826
44	0x3f7bc046	0.9834026
45	0x3f7d5268	0.98953867
46	0x3f7df094	0.9919522
47	0x3f7dab30	0.99089336
48	0x3f7c9de0	0.986784
49	0x3f7d7d74	0.9901955
50	0x3f7e1dea	0.99264395
51	0x3f7d759a	0.9900757
52	0x3f7d3a12	0.98916733
53	0x3f7bb018	0.9831557
54	0x3f7c4bc4	0.9855311
55	0x3f7b33e1	0.98126036
56	0x3f7c5873	0.9857246
57	0x3f7f5db0	0.9975233
58	0x3f7dc921	0.99135023
59	0x3f7cd583	0.98763293
60	0x3f7d087a	0.9884106
61	0x3f7cc7eb	0.9874255
62	0x3f7c4455	0.98541766
63	0x3f7db87d	0.9910963
64	0x3f7dac9f	0.99091524
65	0x3f79a6e5	0.97520286
66	0x3f7e6de7	0.9938645
67	0x3f7c2891	0.984994
68	0x3f7b04c8	0.9805417
69	0x3f7eaab6	0.99479234
70	0x3f802f7a	1.0014489
71	0x3f7f7ee6	0.99803007
72	0x3f7db23a	0.9910008
73	0x3f7b9908	0.9828038
74	0x3f7cee6d	0.9880131
75	0x3f7c7735	0.98619395
76	0x3f7f85c1	0.9981347
77	0x3f7bb3fc	0.9832151
78	0x3f7ccee7	0.9875321
79	0x3f7df3c0	0.9920006
80	0x3f7b96a9	0.98276764
81	0x3f7d5f67	0.989737
82	0x3f7e9a5c	0.99454284
83	0x3f7c6d1d	0.98603994

bn2.bias f4 [84]
0	0xbc12645d	-0.008935061
1	0xbb976119	-0.0046197292
2	0xbbd25d8c	-0.006419843
3	0xbc877cb3	-0.016538953
4	0xbb972f63	-0.0046138032
5	0xbc6a7a63	-0.014311406
6	0xba519d64	-0.00079961703
7	0x39ddbdf1	0.00042293922
8	0xbbc9c73b	-0.0061577833
9	0xbbc813ba	-0.006105867
10	0xbc09b32f	-0.008404537
11	0xba1053bc	-0.00055056415
12	0xbba63bd2	-0.005073049
13	0xbc4d57dd	-0.012533155
14	0xbbad8327	-0.0052951756
15	0xbba0e944	-0.00491062
16	0xbbf48cf9	-0.0074630943
17	0xbc6aef20	-0.014339238
18	0x3910da68	0.00013814273
19	0xbbb1a7fb	-0.005421636
20	0xbbaef049	-0.005338703
21	0xbbf9813a	-0.007614282
22	0xbc1f58f8	-0.009725802
23	0xbc2293c5	-0.009922926
24	0xbc685981	-0.014181496
25	0xbbe4b930	-0.006980084
26	0xbab3e5e4	-0.0013725129
27	0xbc3f1f6c	-0.011665206
28	0xbb80c6d8	-0.003929954
29	0xbafcb24c	-0.0019279211
30	0xbc57de26	-0.013175523
31	0xbc8733ca	-0.016504187
32	0xbc141628	-0.009038486
33	0xbb48855c	-0.0030597067
34	0xba322c71	-0.00067967834
35	0xbaf04e82	-0.0018333944
36	0xbb2839a0	-0.0025669113
37	0xbb94befe	-0.0045393696
38	0xbc5bc7e4	-0.013414357
39	0xbb99c3cc	-0.0046925303
40	0xbc17c5e6	-0.009263491
41	0xbb848195	-0.0040437677
42	0xbc4d1d57	-0.012519202
43	0xbb16a6c6	-0.0022987588
44	0xbc0d3024	-0.008617435
45	0xbbd22e32	-0.0064141983
46	0xbb938343	-0.0045017316
47	0xbb1b3030	-0.0023679845
48	0xbc083301	-0.0083129415
49	0xbb2cfbaf	-0.0026395132
50	0xbb04fa39	-0.0020290746
51	0xbb826110	-0.003978856
52	0xbbc448ff	-0.005990147
53	0xbc2586d8	-0.01010295
54	0xbc1d7e4e	-0.009612633
55	0xbc628b30	-0.01382713
56	0xbbf8184b	-0.0075712553
57	0x3b645bc5	0.0034844738
58	0xbb7e793f	-0.0038829593
59	0xbc195b8b	-0.009360204
60	0xbbedbccc	-0.0072551724
61	0xbc07d49f	-0.008290439
62	0xbc310645	-0.010804717
63	0xbb809bfe	-0.0039248457
64	0xbb88b703	-0.0041722073
65	0xbc9faaaa	-0.019490559
66	0xbb290e0d	-0.0025795728
67	0xbc3be95b	-0.0114692105
68	0xbc683986	-0.014173871
69	0xbb672d59	-0.0035274832
70	0x3bdd3565	0.00675075
71	0x3adde906	0.0016930408
72	0xbb68bb5d	-0.0035512068
73	0xbc3d1189	-0.011539825
74	0xbb96fd0f	-0.0046078037
75	0xbc1b5ef9	-0.009483092
76	0x3badd58d	0.0053049983
77	0xbc49d18d	-0.012318027
78	0xbba68055	-0.0050812163
79	0xbb15864d	-0.0022815645
80	0xbc35bdff	-0.011092662
81	0xbbbfb55c	-0.005850477
82	0xbab58a50	-0.0013850424
83	0xbbe55416	-0.006998549

bn2.running_mean f4 [84]
0	0x3e9d8a9b	0.3076981
1	0xbea49666	-0.32145995
2	0xbe356f90	-0.17718339
3	0xbe7dae63	-0.24773555
4	0x3c81e500	0.015856266
5	0xbeccfff0	-0.40039015
6	0xbea2633c	-0.31716335
7	0x3e16d736	0.14730534
8	0x3ed4a348	0.41530824
9	0x3e86cee2	0.26329714
10	0x3e244490	0.1604178
11	0xbe1ac9a0	-0.15115976
12	0xbec231c9	-0.37928608
13	0x3db535ae	0.08848129
14	0xbeb30d01	-0.3497086
15	0x3db5daa4	0.08879593
16	0xbe92553f	-0.28580663
17	0xbc3539d4	-0.011061151
18	0x3cdeae50	0.027182728
19	0xbcf65a9f	-0.030072508
20	0x3e7ed3c4	0.2488547
21	0xbdbc9dbb	-0.09209772
22	0xbc44ced9	-0.012012207
23	0x3ece22e7	0.40261003
24	0x3d062d01	0.032757763
25	0xbd2da6ea	-0.04239551
26	0x3e74498c	0.23856181
27	0x3e5f1f31	0.21789242
28	0xbe50ffbd	-0.20410056
29	0x3da09f19	0.078428455
30	0x3d1800d1	0.037110154
31	0x3e3b21ca	0.18274608
32	0xbcd3209b	-0.025772383
33	0xbe65bfb2	-0.22436407
34	0x3d831e03	0.06402209
35	0x3e139945	0.14413936
36	0xbdcf7c17	-0.1013109
37	0x3e1691c3	0.14704041
38	0x3d8e6d13	0.06954398
39	0x3e028b88	0.1274854
40	0x3e907482	0.28213888
41	0xbebebf63	-0.3725539
42	0xbd49b194	-0.049241617
43	0xbed4d529	-0.41568878
44	0xbf06d991	-0.5267573
45	0xbd63f1d8	-0.055650562
46	0x3e258b79	0.16166486
47	0x3e196e4c	0.14983481
48	0x3e16e332	0.14735106
49	0x3e2d36af	0.16915391
50	0xbc8791d4	-0.016549028
51	0xbe741421	-0.23835804
52	0xbf094e18	-0.53634787
53	0x3e9fb1b6	0.3119027
54	0x3e67e0ca	0.22644344
55	0xbc6ec9dc	-0.014574494
56	0xbd990f44	-0.07473615
57	0xbd1ebe54	-0.03875573
58	0xbdd5b027	-0.10433989
59	0xbe967dfe	-0.29393
60	0x3d3fcc07	0.046825435
61	0xbe74cef7	-0.23907076
62	0x3e423746	0.18966398
63	0x3c875d94	0.016524114
64	0xbde4f9a6	-0.11180429
65	0x3c881a35	0.016614059
66	0xbe675bc1	-0.22593595
67	0xbd97dd7b	-0.07415291
68	0x3e87a1d7	0.26490662
69	0x3f2160f9	0.63038594
70	0xbe404986	-0.18778047
71	0x3c27a29b	0.010231639
72	0x3cc8f7e7	0.024532272
73	0xbe3c3dab	-0.183829
74	0xbe8ca1ec	-0.27467287
75	0xbdd58300	-0.10425377
76	0xbea1f335	-0.31630865
77	0xbd035b8a	-0.03206972
78	0x3f055e44	0.5209696
79	0xbde6cd1c	-0.1126959
80	0x3e93d67d	0.2887458
81	0xbe8f60a4	-0.28003418
82	0xbdedcfe3	-0.11611917
83	0x3deeae4b	0.116543375

bn2.running_var f4 [84]
0	0x3e54fa66	0.20798644
1	0x3e2695d1	0.16268088
2	0x3e0ce8a1	0.13760616
3	0x3e20dbb4	0.1570881
4	0x3e58765e	0.21138903
5	0x3e65d36a	0.2244393
6	0x3e3aabf8	0.18229663
7	0x3e8fc0b0	0.28076696
8	0x3e0bbd7f	0.13646506
9	0x3e317315	0.17329057
10	0x3e2f700e	0.17132589
11	0x3e8bf4ec	0.27335298
12	0x3e2095c6	0.15682134
13	0x3e4030fe	0.18768689
14	0x3e84ee07	0.2596285
15	0x3e0be074	0.13659841
16	0x3e282283	0.16419415
17	0x3e01a53b	0.12660687
18	0x3e5dad95	0.21648248
19	0x3e20f79a	0.15719453
20	0x3e59dc10	0.21275353
21	0x3e0e2db4	0.13884622
22	0x3e1bd092	0.15216282
23	0x3e354c90	0.17704988
24	0x3e257e46	0.1616145
25	0x3e294f55	0.16534169
26	0x3e27e2fe	0.16395184
27	0x3e5dcb58	0.216596
28	0x3e2d8c77	0.16948114
29	0x3e24727d	0.16059299
30	0x3e2c4d77	0.16826425
31	0x3e2506d5	0.16115887
32	0x3e147d46	0.14500913
33	0x3e368850	0.17825437
34	0x3e83ce0d	0.25743142
35	0x3e185614	0.14876586
36	0x3e0a5248	0.1350795
37	0x3e29b1a8	0.16571677
38	0x3e1614c3	0.14656357
39	0x3e19104a	0.1494762
40	0x3e309e8f	0.17247985
41	0x3e0d3c13	0.13792448
42	0x3e2ad80a	0.16683975
43	0x3e0f53c6	0.13996801
44	0x3e0d1ab6	0.1377972
45	0x3decbc15	0.11559311
46	0x3e40261b	0.18764536
47	0x3e0a1eac	0.13488263
48	0x3e21ea58	0.15812051
49	0x3e6dcb88	0.23222172
50	0x3e2d55c2	0.16927245
51	0x3e7031a1	0.23456432
52	0x3e261be7	0.16221581
53	0x3e054518	0.13014638
54	0x3dd454c8	0.10367733
55	0x3e319f0e	0.17345831
56	0x3e20cd01	0.15703203
57	0x3e63486d	0.22195597
58	0x3e2984fe	0.16554639
59	0x3e1a8a9d	0.1509194
60	0x3e0f9181	0.14020349
61	0x3e1ca451	0.15297057
62	0x3e3089a5	0.17240007
63	0x3def7eb1	0.11694086
64	0x3e39fd44	0.1816302
65	0x3e3c6e0f	0.18401359
66	0x3e1c7b5e	0.15281436
67	0x3e1bc0f5	0.15210326
68	0x3e0742ad	0.13209029
69	0x3e41452e	0.18874046
70	0x3e133b26	0.14378032
71	0x3e366fc5	0.17816074
72	0x3e26f55b	0.16304533
73	0x3e34ae8c	0.1764471
74	0x3e0f41c2	0.13989928
75	0x3e2ba8f8	0.16763675
76	0x3e32d557	0.17464195
77	0x3e1f640c	0.15565509
78	0x3e533acd	0.206279
79	0x3e157daa	0.14598718
80	0x3dfaae4a	0.12240274
81	0x3e2c4d00	0.16826248
82	0x3e49d20e	0.19709036
83	0x3e2b6b63	0.16740184

fc3.weight f4 [46, 84]
0	0xbced737f	-0.028985737
1	0x3dc7aa0e	0.09749232
2	0xbd7d7e4e	-0.06188803
3	0x3ce75948	0.028240815
4	0xbce185fe	-0.027529713
5	0x3cba4660	0.022738636
6	0x3ca095e7	0.019602729
7	0xbcd95f06	-0.026534569
8	0x3db85841	0.09001208
9	0x3d87b4ac	0.06626257
10	0x3d2a5a32	0.041589923
11	0x3dc5e5b1	0.09662951
12	0xbd05323e	-0.032518618
13	0x3d128e22	0.03578008
14	0xbdb6a534	-0.08918229
15	0xbd1864ff	-0.037205692
16	0x3d39dc87	0.045376327
17	0x3d57b848	0.05266598
18	0x3dbb09a8	0.09132701
19	0x3d95650c	0.07294664
20	0x3b6e9781	0.0036406221
21	0xbb8a702f	-0.004224799
22	0x3d9310e3	0.07180955
23	0xbd9bd4dc	-0.07608959
24	0xbd149f29	-0.0362846
25	0x3d148fe4	0.036270037
26	0xbd206c00	-0.039165497
27	0x3c92c5e5	0.01791663
28	0xbcde1713	-0.027110612
29	0x3da3860a	0.0798455
30	0x3d7cb56d	0.06169646
31	0x3d8624f8	0.0655002
32	0xbd5c3ea8	-0.05377069
33	0xbdab60fb	-0.08368107
34	0x3bdb22ee	0.0066875136
35	0x3c153547	0.009106941
36	0x3a697f54	0.0008907218
37	0xbd392fcc	-0.0452116
38	0x3d573baa	0.052547134
39	0xbce0159b	-0.027354052
40	0xbd9570a6	-0.072968766
41	0xbba5a130	-0.0050546154
42	0xbd6962ec	-0.056979105
43	0xbc49fea2	-0.012328776
44	0x3dd09293	0.10184207
45	0xbc98f4c3	-0.018671399
46	0xbd5cac60	-0.053875327
47	0xbd797f20	-0.06091225
48	0x3daa0f71	0.083037265
49	0x3dcf1dd0	0.10113108
50	0x3d4e3b22	0.050349362
51	0xbd3549ca	-0.044259824
52	0xbc61a6f7	-0.013772718
53	0xba26fd2f	-0.0006370125
54	0xbd90ef27	-0.07076865
55	0x3db44b63	0.088034414
56	0x3dd0611f	0.101747744
57	0xba00e7e6	-0.0004917368
58	0x3c62492d	0.013811392
59	0x3dced037	0.100983076
60	0xbc813cb0	-0.015776008
61	0x3d79c927	0.06098285
62	0xbd78f4ea	-0.060780443
63	0xba11bc10	-0.00055593345
64	0x3d4558f5	0.04818054
65	0xbdac5f22	-0.08416583
66	0x3c19fbfa	0.009398455
67	0xbd93ff7c	-0.07226464
68	0xbdb581b8	-0.088626325
69	0xbbb755b7	-0.005594935
70	0x3d91c6ce	0.07117997
71	0x3db1b391	0.08676828
72	0xbdab3046	-0.08358817
73	0x3d635b0d	0.055506755
74	0x3d6bad67	0.057538416
75	0x3d4c2b1e	0.049845807
76	0xbd4c01ba	-0.049806334
77	0x3c328eab	0.0108982725
78	0x3c51e548	0.012811013
79	0xbdaccc24	-0.08437374
80	0x3db2e29b	0.08734628
81	0x3dc5d1e3	0.09659173
82	0x3d5c7503	0.05382253
83	0xbdcd21f3	-0.10016241
84	0x3cd082cc	0.025452994
85	0x3dddff37	0.10839694
86	0x3d85e058	0.06536931
87	0xbd9cf9c9	-0.0766483
88	0x3c1bf99b	0.00951996
89	0x3cf3c770	0.029758185
90	0xbc8db4e5	-0.017298171
91	0x3d139333	0.036029052
92	0x3c096d98	0.008387946
93	0xbd5fde86	-0.054655574
94	0x3dbd4874	0.09242335
95	0xbdd1f140	-0.10251093
96	0xbcc1820a	-0.023621578
97	0x3ceb17d1	0.02869788
98	0x3d689335	0.056781013
99	0xbc98e2be	-0.018662807
100	0x3d3fa6a2	0.046789773
101	0xbd04d852	-0.03243286
102	0xbdaf76f0	-0.085676074
103	0x3d55e078	0.052216023
104	0x3d5b61a1	0.053559903
105	0x3cc391bd	0.023873204
106	0x3d483cd2	0.048886128
107	0x3d90d5de	0.07072042
108	0x3b9d9dcb	0.00481007
109	0xbd8d67a3	-0.06904533
110	0x3cec3260	0.028832614
111	0x3d7b28c8	0.06131819
112	0xbdc28fa0	-0.095000505
113	0xbb42e1f9	-0.002973674
114	0xbcf6910a	-0.030098457
115	0xbdd23d3e	-0.10265587
116	0x3ce8c515	0.028414289
117	0x3dcfbad0	0.101430535
118	0xbc4fc955	-0.012682279
119	0x3d804169	0.06262476
120	0x3da652e5	0.081212796
121	0xbc64923b	-0.01395088
122	0x3db7df82	0.089781776
123	0x3b9615db	0.004580242
124	0xbda2f85c	-0.07957527
125	0xbb7aaf86	-0.0038251593
126	0x3d827ffc	0.06372067
127	0xbd1d0506	-0.03833487
128	0x3dc38788	0.09547335
129	0xbda63207	-0.08115011
130	0x3dc5f056	0.09664981
131	0x3b16af43	0.0022992648
132	0x3da42894	0.08015552
133	0x3daba8d0	0.08381808
134	0xbd3c6416	-0.045993887
135	0xbd290240	-0.04126191
136	0xbd43aace	-0.047770314
137	0x3d73352d	0.059376884
138	0x3d2f703b	0.04283164
139	0xbd1f9750	-0.038962662
140	0x3dab84b5	0.08374921
141	0x3d345b7b	0.044032555
142	0x3caeb31d	0.021325642
143	0xbda30eae	-0.07961784
144	0xbd7f8e56	-0.0623916
145	0xbd05e83e	-0.032692187
146	0x3d6aa38e	0.057284884
147	0x3d4c18f5	0.04982849
148	0xbcb7aac3	-0.022420293
149	0x3d2b8e28	0.041883618
150	0xbd5a76d4	-0.05333598
151	0x3d9c710d	0.0763875
152	0xbd848811	-0.06471265
153	0xbd95a733	-0.07307281
154	0x3d41f182	0.04734946
155	0x3d84709e	0.064667925
156	0xbd8c65f0	-0.068553805
157	0xbcc10d72	-0.023565982
158	0xbdc04ada	-0.09389277
159	0xbd8feec0	-0.0702796
160	0x3c9a6c2f	0.018850414
161	0x3d90bb9e	0.07067035
162	0x3d7fefc0	0.062484503
163	0xbdcc83cf	-0.09986078
164	0x3be72eb4	0.007055128
165	0xbd674a82	-0.05646754
166	0x3d2abbe2	0.041683085
167	0x3cd356be	0.025798198
168	0xbd555857	-0.0520862
169	0x3c8329ed	0.016011203
170	0xbcc89737	-0.024486167
171	0xbbedf61b	-0.007262004
172	0xbd635860	-0.055504203
173	0x3d97dbe5	0.074149884
174	0xbd7f71ad	-0.06236427
175	0x3db513d2	0.08841671
176	0xbdc9dde0	-0.098567724
177	0x3d32cc5d	0.043651927
178	0x3d289d20	0.04116547
179	0xbd848bfc	-0.064720124
180	0x3da53943	0.080675624
181	0x3d997de0	0.07494712
182	0x3b374872	0.0027966765
183	0x3cf9e57d	0.030504936
184	0x3dc48de7	0.09597378
185	0x3d96716f	0.073458545
186	0x3ced38bc	0.028957717
187	0xbd27f1cc	-0.04100208
188	0x3d07a5f6	0.033117257
189	0x3d90c3ff	0.07068633
190	0xbd78a071	-0.060699884
191	0x3d896d24	0.0671027
192	0x3d9da355	0.07697169
193	0x3d8b1ec0	0.067929745
194	0x3d86fc7b	0.065911256
195	0x3ce3cfc1	0.027809026
196	0xbd87f334	-0.06638184
197	0x3d1f4a15	0.03888901
198	0x3d45393a	0.04815028
199	0xbcd5bc2d	-0.026090706
200	0x3dcc8611	0.09986509
201	0xbd8d1cde	-0.068902716
202	0x3da37041	0.07980395
203	0xbd9b6b7e	-0.07588862
204	0x3d714d54	0.058911636
205	0xbc6f7fee	-0.014617903
206	0x3cf5cce8	0.030004933
207	0xbd9180dc	-0.07104656
208	0xbd39bc73	-0.045345735
209	0x3dc4031e	0.09570907
210	0xbd234005	-0.039855976
211	0x3d09391f	0.03350174
212	0x3dcf6637	0.10126918
213	0x3cb275d3	0.021784699
214	0xba8f5a84	-0.001093701
215	0xbd86fefb	-0.065916024
216	0xbbf78c9a	-0.007554603
217	0x3c9aeef5	0.018912772
218	0x3dc459a3	0.09587409
219	0xbca7f658	-0.020503208
220	0xbd12b999	-0.03582153
221	0xbda60ef9	-0.081083246
222	0xbcfecc39	-0.03110324
223	0x3d4a272b	0.04935376
224	0x3bc3638c	0.0059627946
225	0xbd819fa9	-0.06329281
226	0xbcd6af55	-0.026206652
227	0x3da09a6d	0.078419544
228	0xbd7e89a1	-0.062142972
229	0x3db5e588	0.0888167
230	0x3cea671d	0.028613621
231	0xbd624e09	-0.0552502
232	0xbd978034	-0.073975
233	0x3c8bf882	0.017086271
234	0x3bb678e9	0.005568613
235	0xbcccd1d4	-0.025002398
236	0xbd8cecbc	-0.06881091
237	0xbce9be96	-0.028533261
238	0x3c23a69e	0.009988455
239	0xbc486049	-0.012229987
240	0x3cfa239b	0.030534556
241	0xbda0d517	-0.07853144
242	0xbd3bed5b	-0.045880657
243	0x3d42df0e	0.047576003
244	0x3d40324a	0.04692296
245	0x3d058172	0.03259415
246	0x3dc9613f	0.09833001
247	0x39e3339f	0.00043335275
248	0x3c385b49	0.011252233
249	0xbd525ba8	-0.05135694
250	0x3de3e5b8	0.111278
251	0x3c8449da	0.016148496
252	0xbafb3d91	-0.0019168128
253	0x3d8e9211	0.06961454
254	0x3d32f8a0	0.04369414
255	0x3da9d168	0.08291894

fc3.bias f4 [46]
0	0xbd8eef20	-0.06979203
1	0x3ca80634	0.02051077
2	0xbd64822f	-0.055788215
3	0x3c4f165b	0.012639607
4	0x3d8722dc	0.06598446
5	0x3d53f25c	0.051744804
6	0x3da7c66e	0.08192144
7	0xbd054e56	-0.03254541
8	0x3ddf4abb	0.109029256
9	0xbc07f6d8	-0.008298598
10	0x3d024b29	0.03180996
11	0x3cb8d10d	0.02256062
12	0x3dbb9012	0.091583386
13	0xbd31b508	-0.043385535
14	0xbc91a7d6	-0.017780226
15	0xbd9d4e82	-0.0768099
16	0x3d30e7bb	0.043189745
17	0x3d9f52f8	0.07779497
18	0x3c6543ee	0.0139932465
19	0x3ba41b34	0.0050081257
20	0x3d5b53af	0.053546604
21	0xbd9afd91	-0.07567895
22	0xbd97b825	-0.0740817
23	0xbdcd8c1a	-0.10036488
24	0xbd9bba43	-0.07603886
25	0xbd0100c6	-0.03149488
26	0xbd8eca0e	-0.069721326
27	0xbdd9fec1	-0.106442936
28	0xbdb2e378	-0.087347925
29	0x3d8b8a46	0.06813483
30	0x3dce9418	0.100868404
31	0xbd3826b9	-0.044958804
32	0x3c0c8c62	0.008578392
33	0x3ca02e84	0.01955343
34	0x3d9143e3	0.070930265
35	0xbd6db9f0	-0.058038652
36	0x3abb9ac1	0.0014313088
37	0xbd0bec5f	-0.034160968
38	0x3c798114	0.0152285285
39	0xbd4f6b63	-0.05063952
40	0xbcdd0f74	-0.026984908
41	0x3bc068af	0.0058718543
42	0x3cfb2b47	0.030660285
43	0x3cbcc999	0.023045348
44	0x3994a817	0.00028353996
45	0xbcd9b965	-0.02657766
