mp4-machine-learning-template/model/model.pth (torch, 100286 bytes, 14 tensors)

fc1.weight f4 [120, 51]
000000 b2 e4 36 bc d6 64 15 3d 60 50 20 bd 85 45 3b bd
       -0.011162924 0.036473118 -0.03913915 -0.045720596
000010 8f b4 16 be ae 39 0e bd 0c 34 85 bd ce 13 96 bd
       -0.14717315 -0.034722976 -0.06504068 -0.07327996
000020 28 c0 a1 bc 36 5b 16 3d 8c dd 21 bd 33 95 0e 3d
       -0.019744948 0.03670808 -0.039517924 0.034810256
000030 8d 51 00 be 20 60 0e bd 3c 43 57 be 5f 35 23 bd
       -0.12531109 -0.03475964 -0.21021742 -0.03984582
000040 c4 fe 16 bd 64 52 f3 bd 20 de 9d bd ca f7 d8 bf
       -0.036864057 -0.11880949 -0.077083826 -1.6950619
000050 cd ab 02 bd db a1 00 3d 42 25 1a be 8c a4 90 3d
       -0.031902123 0.031404357 -0.15053275 0.07062635
000060 7e b7 ba bd ff d3 12 3c e6 e4 24 be d5 72 21 3d
       -0.091170296 0.008961677 -0.16102943 0.039416153
000070 93 11 97 bb eb ac 72 bb 6b 54 5a bd 39 2f 9d bd
       -0.0046102493 -0.0037029337 -0.053303163 -0.07675023
000080 d8 63 20 be 3d 47 b9 3b d1 f9 f0 bd 85 30 d3 3d
       -0.15663087 0.005654244 -0.11766399 0.10311989
000090 b0 27 8e bd 3d 7b 03 3d db 4b 12 3d 06 3e 8c bb
       -0.069411635 0.03209995 0.035716873 -0.0042798547
0000a0 8c a5 b1 3d f0 f7 5f bc 9e c9 c6 bd dc 23 94 ba
       0.08674154 -0.013669953 -0.09706424 -0.0011302191
0000b0 ca 3c dd 3e 1b a9 8c be 9b 29 32 3e 6c b6 89 3c
       0.4321044 -0.27472767 0.17398684 0.016810618
0000c0 83 19 5c bd 2b c7 02 3e fb 09 ab bd f7 69 fd bd
       -0.053735267 0.12771289 -0.08351513 -0.12373727
0000d0 07 fd 0d bd cc 19 6f be f8 e0 ec 3e 88 ab 73 3e
       -0.034665134 -0.23349684 0.46265388 0.23795903
0000e0 c4 56 03 be a8 ea 07 3d 1b 4c 98 3d 1e 8b f5 3e
       -0.12826067 0.03318277 0.07436391 0.479577
0000f0 33 03 0b 3d 2d 5c 19 3c 65 fb d8 3d 1e 64 83 be
       0.033938598 0.009360355 0.10594825 -0.2566232
000100 01 dc ba bd 32 9c a7 3d f9 7a f0 bc 7f 65 e9 bd
       -0.09123994 0.08184089 -0.029355513 -0.11396312
000110 d7 4a cf 3e 02 98 94 3e 09 41 ce 3e 02 c0 3c 3e
       0.40486786 0.29022223 0.40283993 0.1843262
000120 0c b2 ab be 51 45 72 3e 99 e2 be be 98 af 5c be
       -0.33534276 0.23659255 -0.37282255 -0.21551359
000130 4e 31 97 be 43 27 f6 bd c7 fe fd 3d 1e 29 70 be
       -0.29529804 -0.12019207 0.124021105 -0.23453185
000140 e7 50 90 3d 19 5e 97 bd 27 7c 41 3e c0 69 96 bc
       0.07046681 -0.073909946 0.18895017 -0.018360972
000150 fc cd bd bd 89 76 a8 bd 83 44 6c 3f f5 49 97 3d
       -0.09267804 -0.08225734 0.9229204 0.07387153
000160 b8 35 b1 3a 66 6a 34 3e 80 6e dc 3c 25 62 19 bd
       0.0013520038 0.17618713 0.02690816 -0.037447114
000170 55 ab 20 be 16 d9 13 3d 73 05 96 3d 7c ba 04 bd
       -0.15690358 0.0360957 0.07325258 -0.032404408
000180 ac 55 43 3e 55 6d bf 3d 86 ac d9 3d 30 cd 69 bd
       0.1907565 0.09347025 0.10628609 -0.057080448
000190 4a 71 1a be af fa 06 3b 33 d3 3c be 66 f9 03 be
       -0.15082279 0.0020596196 -0.18439941 -0.12888107
0001a0 65 2b 22 3e 7b 22 00 3f ee 6b 85 be 3f 1a 62 3d
       0.15836866 0.50052613 -0.26058906 0.05520081
0001b0 f1 79 df 3e f0 6b f5 be 12 75 a0 3d 7d 0a f3 3d
       0.4364772 -0.47933912 0.078348294 0.11867235
0001c0 46 20 13 3e 41 f9 7b bd a6 0e 1e be 4c 69 8f be
       0.1436778 -0.061517004 -0.15435275 -0.28010023
0001d0 cf 8d bf bd 44 d5 83 3e 39 14 cf 3e 89 0a fc bd
       -0.0935322 0.25748646 0.40445116 -0.12306697
0001e0 e7 85 b4 bd d3 74 99 3e 28 00 8f be 16 00 a2 3d
       -0.08814602 0.29971942 -0.27929807 0.07910173
0001f0 f7 f8 35 3e b4 09 47 3e cb c1 3c 3e e1 28 1c be
       0.17770754 0.19437295 0.18433301 -0.15249969
000200 ea 81 b5 bd af 8c ed 3e 98 10 89 bc 54 ed 26 3e
       -0.0886267 0.46396396 -0.016731545 0.16301471
000210 a0 ad 17 3e a2 05 06 3d ae d0 df be 44 ec 4c 3e
       0.14812326 0.032720216 -0.43713897 0.20012003
000220 6c 6d f8 bd 55 35 0b bf a3 35 23 be 0e ca ed bd
       -0.121302456 -0.54378253 -0.1593843 -0.116108045
000230 6b bb 52 be ad 8a ee 3d 5a e8 69 be 93 76 81 bd
       -0.20579307 0.11647544 -0.22842541 -0.06321444
000240 3a 93 4b 3e 01 63 a6 3d 90 a8 be bd dd 3f bb bd
       0.19880381 0.08124352 -0.093094945 -0.0914304
000250 fe 40 23 bd 41 b2 5f bd e2 49 7c 3e 76 7b 82 3d
       -0.039856903 -0.054613356 0.24637559 0.063712046
000260 b6 0a 51 3d 47 a0 b1 bd 83 3c 03 3e c0 bb 52 3e
       0.051035605 -0.086731486 0.12816052 0.20579433
000270 a2 b1 3c 3e 1d d4 a3 3e 9d 0f 49 bf b6 17 35 3d
       0.18427137 0.31997767 -0.7853945 0.044212066
000280 00 2d 8d bf e5 ca 73 3e 9e c8 9f bc 1d af 85 3d
       -1.1029358 0.23807867 -0.019504841 0.06527541
000290 b9 aa 8a 3d 32 ae 26 3e 17 33 c7 3d 4c 2a 64 3e
       0.06770844 0.16277388 0.097265415 0.2228176
0002a0 bb c5 1a 3e b8 ce 46 bd b1 84 4c bd 9a 0d 4e bc
       0.1511449 -0.048536986 -0.049931232 -0.012576485
0002b0 8a 38 3a 3a 1f 97 3d 3c bb bc 73 3e 40 b7 5f 3d
       0.0007103762 0.011571675 0.23802464 0.05461812
0002c0 09 8c 13 3d b1 e9 cf bb d3 ea b8 3d 25 5d b9 3d
       0.03602222 -0.006344997 0.09029164 0.09050969
0002d0 fe bc 9c bd dd da 56 bc 0d 0b 2d bc d8 93 af bd
       -0.07653235 -0.0131137045 -0.010561717 -0.08573121
0002e0 52 76 2d 3d c4 6d 5c 3c ff ab 3c bd 13 72 1a 3d
       0.042349167 0.013453905 -0.046062466 0.037706446
0002f0 74 70 83 bd b7 32 5a 3d ce bd dc 3d 7d 15 49 3d
       -0.06417933 0.05327102 0.1077839 0.04909276
000300 2b 44 36 bf ce 59 a2 3e f0 b9 93 be c7 e7 4f bf
       -0.71197766 0.3170914 -0.28852797 -0.8121304
000310 23 a3 a9 be ba 51 36 bd 0e 73 c5 bc b8 b7 33 3d
       -0.33132276 -0.044511534 -0.024102714 0.04387638
000320 6c 23 f8 bc 0d 66 09 3d 2a af b4 3c d3 9a c8 be
       -0.030290328 0.03354459 0.022056181 -0.39180622
000330 d0 3d 09 3c fa 77 81 be bd de c9 3e 9c 11 cb 3e
       0.008376554 -0.25286847 0.39427748 0.39661872
000340 ee 3e a0 bc be c3 54 bd b6 6a 89 3d af 82 a2 3e
       -0.019561257 -0.051944487 0.067098066 0.3174033
000350 d6 c0 4b be 94 c0 40 3b 45 1b 57 bd 58 d7 44 bd
       -0.1989778 0.002941166 -0.05251624 -0.04805693
000360 8b 6f c8 3e 49 27 03 bf c2 b8 2d be e6 d4 75 be
       0.391476 -0.5123182 -0.16965011 -0.24006996
000370 3e ff 45 be 5d c9 0d 3e 26 dc 9e 3d da c5 86 be
       -0.19335648 0.13846345 0.07756834 -0.26322824
000380 d0 10 a4 3e 3f dc a8 be 96 23 a6 bc 02 f6 ad be
       0.32044077 -0.32980534 -0.02028064 -0.33976752
000390 02 4d ce 3d 6d 36 1d be 69 b4 22 be 86 e8 9b bd
       0.10073282 -0.15352793 -0.15889134 -0.0761271
0003a0 bd 95 fd be b8 f1 3f 3d de a7 0b bc b3 53 dc 3e
       -0.49528304 0.04686138 -0.008523909 0.43032607
0003b0 e4 f1 a1 bd cb 07 e4 3e d2 5d d0 be f0 d1 14 3d
       -0.07907465 0.44537196 -0.4069658 0.036333025
0003c0 96 41 8f 3e 8e de b3 bd 9a 7f 90 3b 8d d6 5e 3e
       0.27979726 -0.08782683 0.0044097425 0.21761532
0003d0 df 77 0e 3c ab 23 e7 bc 56 fb be bc 7d df cc bd
       0.008695572 -0.02821525 -0.023313206 -0.100035645
0003e0 53 86 4b bc cb ad 2c 3e 4f 62 98 3d 19 58 39 bd
       -0.012422162 0.16863172 0.07440626 -0.045250032
0003f0 e9 40 dc bd 6d 7d 2c be 07 a2 8d 3d fa ff 0d bc
       -0.10754568 -0.16844721 0.0691567 -0.008666987

fc1.bias f4 [120]
000000 bb 02 91 bd d9 f6 aa bd ce 3c 79 3d 56 e8 b9 bd
       -0.07080599 -0.08347864 0.060849003 -0.09077518
000010 0b 57 0e 3e 24 75 6d bc 57 26 b4 3d 17 eb 59 3d
       0.13900392 -0.0144932605 0.08796375 0.053202715
000020 f0 2d a9 bd 78 c4 f5 3c 6b b2 d6 bd bf a9 94 bd
       -0.08260715 0.03000091 -0.10483249 -0.07258939
000030 f4 73 da bd 45 9e 31 bd 2c ed db bc 81 76 85 3d
       -0.106666476 -0.04336383 -0.02684649 0.065167435
000040 79 a1 b1 bc 82 dd 06 3e 14 c0 cf 3d 20 6d d3 3c
       -0.021683441 0.13170436 0.10144058 0.02580887
000050 a4 e8 f5 bd 32 6f 8f bd 6e b9 63 3c 80 a6 bb bc
       -0.12007263 -0.07003631 0.01389919 -0.022906542
000060 14 58 80 bd 53 10 c2 39 43 d8 d2 3d 19 3f f3 bd
       -0.062667996 0.00037014726 0.10295155 -0.11877269
000070 71 37 08 be 4f 75 0d be 0d a7 d0 3d a0 9e f8 bd
       -0.13302399 -0.13814281 0.101881124 -0.1213963
000080 50 62 8b bd a8 fd c3 3a 91 27 b7 3d 9d 71 e3 3d
       -0.06805861 0.0014952915 0.089430936 0.111056544
000090 cd 4b 8a 3b d5 1d 4e 3d a5 ca cc 3d 40 80 54 3d
       0.004220462 0.05032142 0.09999589 0.05188012
0000a0 97 56 24 bd 94 14 e3 3d 3d 22 02 be d0 bc 6a bd
       -0.04012164 0.11087909 -0.12708373 -0.057308972
0000b0 d8 96 ec bd 68 9a b6 bc 09 c9 b4 bd c0 d3 d9 bd
       -0.11552209 -0.022290424 -0.08827407 -0.10636091
0000c0 00 a3 ed 3d 36 f4 5e bc 29 f3 b4 3c bc 0c 0a be
       0.116033554 -0.013608029 0.022088604 -0.1348142
0000d0 e6 88 25 3c 09 7f 8e 3d 6e f0 02 3e c8 ff 0e 3e
       0.01010344 0.06957824 0.12787029 0.1396476
0000e0 e3 7c f5 bd 9b cd 11 3c 79 f7 aa 3b 0b b7 0e bd
       -0.11986711 0.008899118 0.0052174893 -0.034842532
0000f0 f8 bf e4 3d dc 42 05 be 1f 58 db bd a4 99 d0 3d
       0.11169428 -0.13013786 -0.10710167 0.101855546
000100 46 ed f9 3d 80 c5 08 3e fc 1f b2 bc ad 80 8c bc
       0.122034594 0.1335659 -0.021743767 -0.017151201
000110 cf 7b 9d 3d cf 51 c6 bd 48 10 dc bc 4b 03 3e 3d
       0.0768963 -0.096835725 -0.026863232 0.04638986
000120 47 3d 05 3d 2f 89 b8 bd c3 83 9f bd 6b 5d 87 3d
       0.03252914 -0.09010541 -0.077888034 0.06609615
000130 3e fb 07 be 3b fd 7e 3d 93 ea 52 bd 23 78 9e 3d
       -0.13279435 0.06225322 -0.05149324 0.07737758
000140 e2 cc 15 bd a8 c0 00 be d6 e4 ec 3d 25 ca 8a bb
       -0.036572345 -0.12573493 0.115670845 -0.0042355233
000150 db c0 10 3d f8 67 a8 3d 1b 3b 5f 3c ba f0 d3 3d
       0.03534017 0.082229555 0.013624932 0.10348649
000160 35 19 61 bc b9 3b fb bc 43 45 b1 3d cb 3c ed bd
       -0.01373892 -0.030668126 0.08655789 -0.11583861
000170 27 3c 10 3d 89 b5 f3 3d c6 49 d4 3d 8e 59 b8 bd
       0.035213616 0.118998595 0.10365634 -0.09001456
000180 44 4c dd 3d fb 1a e6 3d d7 00 2e 3d 6f 85 cb bd
       0.10805562 0.11235615 0.04248127 -0.0993756
000190 5d 54 bf bd f4 8e c7 bd e0 d9 4b 3b 28 d3 05 be
       -0.09342263 -0.09744063 0.0031105205 -0.13068831
0001a0 18 81 51 3d f7 b3 04 3e fd 25 0b be ea 9b 96 bd
       0.051148504 0.12959276 -0.1358871 -0.07353957
0001b0 b4 24 01 3d 28 fc d7 3d 01 9f d7 bd a3 6f 89 bd
       0.031529143 0.10546142 -0.105283745 -0.06710746
0001c0 9c 5a 9b bd bc 1c 2f 3d 62 34 c5 bc 37 34 25 bd
       -0.07585642 0.042752013 -0.02407283 -0.040333
0001d0 c4 23 1f 3d e6 fc 71 3d dd ea c7 bd 45 63 aa bd
       0.038852468 0.059079073 -0.097615935 -0.083197154

bn1.weight f4 [120]
000000 43 93 37 40 0b ce 4b 40 b1 db 37 40 81 d6 13 40
       2.8683631 3.1844509 2.872784 2.3099673
000010 a9 00 35 40 fd ce 46 40 66 70 33 40 0e 43 18 40
       2.8281653 3.1063836 2.8037353 2.3790927
000020 b0 f9 3c 40 5a 3a 37 40 bb 99 2c 40 a8 58 48 40
       2.9527397 2.8629365 2.696883 3.1304111
000030 06 9e 23 40 bf 8f 59 40 26 84 1f 40 05 94 2b 40
       2.55652 3.3993986 2.4924407 2.6809094
000040 59 f7 36 40 75 f7 6a 40 9d 69 21 40 d6 cc 63 40
       2.858847 3.6713536 2.5220711 3.5593772
000050 10 3e 25 40 5c 93 1c 40 61 b1 02 40 4e 09 2f 40
       2.581913 2.446494 2.0420763 2.734943
000060 ab b3 12 40 b2 a6 1d 40 f1 d9 fa 3f 19 f3 5b 40
       2.292216 2.4632993 1.959776 3.4367125
000070 6a 4f 33 40 b6 ff 3d 40 2f 8b f5 3f 78 18 49 40
       2.801722 2.9687324 1.91831 3.1421185
000080 a7 53 3b 40 b9 89 23 40 c0 26 30 40 cc 6c 39 40
       2.9269807 2.555281 2.752365 2.8972654
000090 3e df 3c 40 ab 70 2f 40 31 b7 16 40 57 03 29 40
       2.9511256 2.7412517 2.354931 2.6408288
0000a0 82 ff 05 40 ea a2 32 40 51 85 0e 40 68 70 0d 40
       2.09372 2.7911935 2.226887 2.2099857
0000b0 dd f5 37 40 30 d1 27 40 66 32 0f 40 08 10 33 40
       2.8743813 2.6221428 2.237451 2.7978535
0000c0 b9 58 69 40 d7 b7 5c 40 1b a1 4d 40 29 08 07 40
       3.6460402 3.4487207 3.212958 2.109873
0000d0 cd 71 48 40 0e 49 66 40 be 54 0a 40 03 05 22 40
       3.1319458 3.598209 2.1614223 2.531556
0000e0 2e 47 19 40 e0 de 50 40 2e e2 09 40 90 4f 4f 40
       2.3949695 3.2636032 2.15443 3.239231
0000f0 ab ab 44 40 67 9f 4f 40 ca 85 5c 40 f6 35 29 40
       3.0729778 3.2441041 3.4456658 2.6439185
000100 78 45 4d 40 17 45 29 40 64 f5 07 40 73 ec 1e 40
       3.207365 2.644842 2.1243525 2.4831817
000110 ac 9f 2d 40 56 d3 1d 40 05 e1 29 40 5a 49 19 40
       2.7128706 2.466024 2.654359 2.395102
000120 6e 85 13 40 46 40 50 40 df c2 1a 40 15 90 21 40
       2.305019 3.253923 2.418144 2.524419
000130 6f 80 4d 40 8a ce 4a 40 57 5c 19 40 9a 1b 28 40
       3.210964 3.1688561 2.396261 2.6266847
000140 be 24 20 40 ae 50 41 40 ef ee 18 40 6b e1 4e 40
       2.5022426 3.0205493 2.3895833 3.2325084
000150 be 74 3d 40 5a bd 13 40 eb c7 31 40 67 7e 23 40
       2.9602504 2.308432 2.777827 2.55459
000160 62 38 4b 40 a1 18 50 40 28 f7 44 40 f8 6d 4e 40
       3.1753163 3.2515032 3.0775852 3.225462
000170 07 a6 5c 40 dd 5b 2e 40 70 69 f2 3f a3 1c 1a 40
       3.4476335 2.724357 1.8938427 2.4079978
000180 84 1b 05 40 85 2a 54 40 cd 97 1e 40 57 57 27 40
       2.0798044 3.3150952 2.4780152 2.6147058
000190 11 0b 3b 40 75 0a 54 40 e2 6e 4e 40 7c 0d 35 40
       2.9225504 3.3131382 3.2255177 2.828948
0001a0 c0 d1 32 40 94 0a 3f 40 b2 c2 12 40 6b e7 1a 40
       2.7940521 2.9850206 2.2931333 2.4203746
0001b0 db 3f 14 40 08 58 7c 40 b4 d2 1d 40 c8 40 28 40
       2.3163974 3.942873 2.4659853 2.628954
0001c0 0f c5 37 40 23 74 30 40 d7 f2 08 40 c4 bc 40 40
       2.8714025 2.7570884 2.1398218 3.0115213
0001d0 ef 67 4e 40 91 a1 08 40 ca e1 5b 40 49 82 5f 40
       3.2250936 2.1348612 3.435656 3.492327

bn1.bias f4 [120]
000000 b8 2d 21 c0 44 44 b8 3e 00 11 69 3b 33 d5 b6 3f
       -2.5184155 0.35989583 0.0035563111 1.4283813
000010 88 e4 75 bf ec a1 0f bf 22 68 81 3f 49 90 18 bf
       -0.96051836 -0.5610645 1.0109904 -0.5959516
000020 9c b9 73 be e3 c5 cd 3c 99 1b f3 be b8 8d 2b 3e
       -0.23801273 0.025118774 -0.47481993 0.1675328
000030 cc 29 3a bf a0 73 5c 3e 94 d8 01 bf f9 50 a3 3d
       -0.72720027 0.21528482 -0.50721097 0.07974429
000040 87 85 fe bf 09 eb 26 40 ee cc dc 3e e2 cb 15 c0
       -1.9884499 2.6080954 0.431251 -2.340569
000050 a2 65 46 3f 81 3b 61 bf c1 1c b2 3f 57 5f f6 3d
       0.7749883 -0.8798142 1.3915025 0.120299034
000060 0f 19 98 3f 2b d9 cb bf 55 84 59 3f b9 3d 18 c0
       1.1882647 -1.592565 0.8496755 -2.3787673
000070 90 2b 08 40 f1 5a 27 bf 8f d9 8e bf 3c 98 5d 3f
       2.1276588 -0.6537314 -1.1160144 0.86560416
000080 45 63 3c bf a7 6f 95 3f c7 02 ea 3f ca 95 71 3e
       -0.73588973 1.1674699 1.8282098 0.23592296
000090 79 5e 17 c0 bb 12 09 40 f4 3c 5e 3f 24 03 f7 be
       -2.3651412 2.1417682 0.8681176 -0.48244584
0000a0 75 15 a5 bf c7 c3 eb 3e da fb ca 3f 13 1f f6 bf
       -1.2897173 0.46047804 1.5858109 -1.9228233
0000b0 5a 6d 9e 3c 49 5f 5c bf 66 4c c3 bf be 77 32 bf
       0.019339252 -0.86082894 -1.525769 -0.6971396
0000c0 bd ee 23 c0 d9 e2 0f 40 d3 4b fb be e4 32 b1 bf
       -2.5614464 2.2482207 -0.49081287 -1.3843656
0000d0 ce 8d f8 bf 3b 00 e6 bd 1f ec ee bf ba 8f cd bf
       -1.9418275 -0.11230513 -1.8665808 -1.6059487
0000e0 d6 0c 57 bf a6 d6 15 40 ad e5 d1 3f 58 92 d2 3e
       -0.8400396 2.341226 1.6398216 0.41127276
0000f0 da 72 a4 3d 9e 1c 22 3f 8b 1b 25 3f 93 90 46 3d
       0.08029719 0.63324916 0.6449515 0.04847772
000100 d8 45 1d c0 9b 43 56 bf f2 ed b6 3f 54 1e ce bf
       -2.457388 -0.8369691 1.4291365 -1.6103005
000110 93 86 82 be 3a a7 0c bf 57 20 e0 3e 2b f7 0a 3f
       -0.25493297 -0.5494267 0.43774673 0.542834
000120 e9 44 97 3f 4b 97 06 bd d1 9c d6 bf bf fb d3 3f
       1.1817905 -0.032859128 -1.6766607 1.6561202
000130 1e d0 01 c0 54 db 67 bd 30 9d c3 3d d0 66 b3 3e
       -2.0283275 -0.056605652 0.095514655 0.35039377
000140 02 e0 95 bf f9 97 e0 3e b3 c2 7b bf db a4 4a 3e
       -1.1708987 0.43865946 -0.9834396 0.1978945
000150 af 0c f8 bf 99 49 40 bf 76 4a f0 3f 87 10 ab 3e
       -1.9378871 -0.751123 1.8772724 0.33411047
000160 cc 53 41 3e a2 0c 21 40 e4 d4 df be 71 17 13 bf
       0.18879622 2.516396 -0.4371711 -0.57457644
000170 a2 ba 4c 3f 76 86 ac 3e bf 2a 80 bf 6d e7 d1 bf
       0.7997228 0.33696336 -1.0013045 -1.639875
000180 4b 20 da bf 5b d0 2d be 6c 77 d8 3e 30 f6 63 3b
       -1.7041105 -0.16974013 0.42278612 0.003478419
000190 f1 9e 3c bf 9d 4c 2d be 3b a2 4b 3f cf 0d 26 3f
       -0.73680025 -0.16923757 0.7954442 0.6486482
0001a0 5b b2 04 40 6c 6a 4a 3f df ef c0 3f 83 6c f6 3f
       2.073386 0.79068637 1.5073203 1.9251865
0001b0 9e b1 d2 bf 0e 07 f3 bd 54 12 95 bf 4e 7d e1 bf
       -1.6460454 -0.1186658 -1.1646218 -1.7616365
0001c0 f6 ef 69 3e 52 55 f5 bf 8f fa d6 bf d2 e0 cf be
       0.22845444 -1.9166663 -1.6795214 -0.40601212
0001d0 42 41 94 3e 51 40 93 3c e8 ff 10 40 d3 e7 2b bf
       0.28956038 0.017975004 2.2656193 -0.6715061

bn1.running_mean f4 [120]
000000 0d fb ab bd 86 b7 e7 bd fd 37 80 3d a2 ce e9 bd
       -0.083974935 -0.11314301 0.06260679 -0.11416365
000010 08 8b 13 3e 54 6d e4 bc 18 ad c9 3d d7 95 32 3d
       0.14408505 -0.027884163 0.09847468 0.04359993
000020 38 24 9a bd f4 ef 94 3b e4 8c e4 bd 0d 4f a6 bd
       -0.075264394 0.004545206 -0.11159685 -0.081205465
000030 ec 55 d8 bd 61 65 cd bc 50 69 c0 bc 84 04 40 3d
       -0.10563263 -0.025072755 -0.023487717 0.046879306
000040 91 3a 01 bd 34 c4 37 3e 0e 77 c0 3d 17 41 05 3d
       -0.031549994 0.1794594 0.09397708 0.032532778
000050 ec 7a ce bd 40 63 95 bd fd 3c 62 3c fd 6a 80 bc
       -0.10082039 -0.07294321 0.013808486 -0.015676016
000060 25 1b a4 bd 38 45 9c bb ea 96 af 3d bc 76 fd bd
       -0.0801299 -0.0047689937 0.085737064 -0.123761624
000070 2a 25 dc bd b2 be 0e be 56 d3 fc 3d 54 c0 ee bd
       -0.10749276 -0.13939932 0.12344997 -0.116577774
000080 65 b0 db bd f1 a7 1e bc 9c bc e3 3d be b6 f0 3d
       -0.10727004 -0.009683595 0.11119959 0.11753605
000090 d1 99 46 bc 79 7b 87 3d 6b 05 08 3e 9a 64 01 3d
       -0.012121634 0.066153474 0.13283317 0.03159008
0000a0 46 3d 34 bc 60 fe 01 3e 89 29 13 be 84 ff dd bc
       -0.011000937 0.12694693 -0.14371313 -0.027099378
0000b0 95 80 06 be 0a 81 2c 3c c3 0d 96 bd dc 42 e5 bd
       -0.13134988 0.010528812 -0.073268436 -0.11194393
0000c0 c2 f2 96 3d 7b ec 8c 3c 04 5c 53 3c 1b 99 0d be
       0.07370521 0.017202606 0.012900356 -0.13827936
0000d0 8a 43 21 3d 2f a6 a5 3d 34 83 20 3e 1a a2 16 3e
       0.03937105 0.08088338 0.1567505 0.14710274
0000e0 fe 6a f8 bd 1e ea 17 3d 66 f5 8c 3c ff 95 d0 bc
       -0.12129782 0.037088506 0.017206859 -0.025462149
0000f0 f2 a1 e5 3d 6b 98 14 be ce 04 cd bd 8a 87 b7 3d
       0.11212529 -0.14511268 -0.10010682 0.08961399
000100 39 4b 10 3e 4d eb 08 3e 86 e1 0f bd fd 01 1b bc
       0.14091195 0.1337101 -0.035127185 -0.009460923
000110 c2 80 0a 3d c2 d2 ce bd 56 42 df bc e8 4f 69 3d
       0.0338142 -0.100987926 -0.027253311 0.05696097
000120 c4 d7 32 3d ee 0b 97 bd 97 4f 36 bd 1e 50 a7 3d
       0.0436628 -0.07375322 -0.044509497 0.08169578
000130 e6 6d 06 be 5e da a5 3d 7e b6 ac bd 7b fb b6 3d
       -0.1312786 0.08098291 -0.08433245 0.08934685
000140 6e 95 67 bd ba 3e 03 be 08 3e ca 3d 80 2f 96 3c
       -0.05653899 -0.12816897 0.09875113 0.018333197
000150 cc 06 c2 3c dc 33 c5 3d b8 09 95 3b f1 49 dd 3d
       0.023684882 0.09629032 0.0045482777 0.10805119
000160 b3 c0 82 bc 60 e6 0e bd 0e 32 8f 3d 78 9a e1 bd
       -0.015961027 -0.03488767 0.06991969 -0.11015791
000170 cf 32 3d 3d 23 d3 fd 3d b2 7a fe 3d b9 21 b7 bd
       0.046191033 0.12393787 0.12425746 -0.08941979
000180 fe dc b5 3d 7f c2 ef 3d 9c 2f b9 3c 0a 08 d4 bd
       0.088800415 0.11707019 0.02260571 -0.10353096
000190 a3 48 e7 bd 12 ca 84 bd 40 09 0c 3b 92 50 dc bd
       -0.11293151 -0.06483854 0.0021367818 -0.10757555
0001a0 f4 4f 31 3d 09 0a 1d 3e 5d c4 13 be ee 30 5c bd
       0.04328914 0.1533586 -0.14430375 -0.0537576
0001b0 21 c7 06 3d d8 f7 e8 3d e3 e7 c1 bd f5 1d 85 bd
       0.032904748 0.113753974 -0.09468057 -0.064998545
0001c0 5b f9 92 bd bb 4a a1 3d 2f cf 22 bd 98 09 e9 bc
       -0.07176467 0.07875582 -0.039748367 -0.028446957
0001d0 a3 50 5d 3d 3c d9 80 3d a7 fe a2 bd a2 34 bd bd
       0.05403198 0.06291434 -0.07958727 -0.092385545

bn1.running_var f4 [120]
000000 63 39 60 40 b5 a3 37 40 7c 80 34 40 94 63 d8 40
       3.5035026 2.869367 2.820342 6.7621555
000010 94 09 2d 40 94 2c 7a 40 35 43 35 40 da b0 28 40
       2.7037096 3.9089708 2.832227 2.6357942
000020 a5 89 67 40 62 d9 3d 40 d9 5a 49 40 78 16 63 40
       3.6177762 2.966393 3.14617 3.5482464
000030 a7 58 66 40 03 c4 47 40 bc ec 23 40 5f 2f 1b 40
       3.599161 3.1213386 2.5613241 2.4247663
000040 a0 9c 65 40 28 95 84 40 a7 12 27 40 aa 0f b2 40
       3.5876846 4.1432076 2.6105134 5.564412
000050 9e a1 97 40 b1 58 37 40 5b e3 3a 40 a3 28 1e 40
       4.7384787 2.8647883 2.9201267 2.4712303
000060 73 11 82 40 f1 ee ed 40 83 a6 81 40 d5 7d 5a 40
       4.06463 7.4354177 4.051576 3.4139302
000070 55 dd a7 40 9d e4 55 40 bb c5 40 40 1b 08 88 40
       5.245768 3.3420784 3.0120685 4.2509894
000080 c0 e5 2d 40 a0 bf 6e 40 bc a4 8c 40 b0 48 24 40
       2.7171478 3.7304459 4.395109 2.5669365
000090 b4 6c 3d 40 4f 8c 40 41 a3 5a 51 40 31 d6 34 40
       2.9597597 12.034255 3.271157 2.8255732
0000a0 e5 f1 44 40 04 5d 27 40 b0 19 c4 40 12 a2 e7 40
       3.077264 2.6150522 6.1281357 7.238534
0000b0 7c 47 39 40 b4 ef 4b 40 5a ee b4 40 07 3b 1d 40
       2.894988 3.1865053 5.6540956 2.4567277
0000c0 9d 4e 54 40 f9 b0 7c 40 27 2e 74 40 a5 c7 88 41
       3.3172982 3.9483016 3.815317 17.097483
0000d0 cf ed 96 40 d2 cb 55 40 fc bb fa 40 70 bd 51 41
       4.7165294 3.3405652 7.8354473 13.108749
0000e0 41 f7 6d 40 08 e9 6c 40 ef bc d4 40 5f 0f 34 40
       3.7182162 3.701723 6.648063 2.8134382
0000f0 e3 d6 3a 40 8a 47 43 40 15 0a 32 40 86 a8 1e 40
       2.9193656 3.0512414 2.7818654 2.4790359
000100 51 67 a8 40 ec e7 30 40 b7 a4 99 40 bf e8 85 41
       5.262612 2.7641554 4.801357 16.738646
000110 0e ba 29 40 f9 b9 37 40 3b d5 47 40 af 28 57 40
       2.6519809 2.8707259 3.1223896 3.3618581
000120 dc df 36 40 ea 0b 30 40 87 63 78 40 b6 77 2d 41
       2.8574133 2.7507272 3.8810747 10.841726
000130 ac df 3b 41 25 37 56 40 c3 1a 26 40 c0 10 43 40
       11.742107 3.3471158 2.5953834 3.0478973
000140 fc 40 33 40 c1 91 96 40 e8 a7 4a 40 49 c5 33 40
       2.8008413 4.705292 3.1664982 2.8089163
000150 4d 60 5e 41 53 45 44 40 9b 3a a4 40 a6 30 33 40
       13.898511 3.0667312 5.132154 2.7998443
000160 66 14 3e 40 35 95 1c 41 24 bb 50 40 ed 83 44 40
       2.969995 9.7864275 3.2614222 3.070552
000170 45 40 3f 40 a5 29 42 40 ec 39 b2 40 f3 97 1f 41
       2.9882977 3.0337918 5.5695705 9.974597
000180 31 3c f0 40 1b dd 43 40 ed f1 3a 40 13 4a 68 40
       7.5073476 3.0603702 2.921016 3.6295211
000190 f0 2d 46 40 b3 04 42 40 1d 20 59 40 56 53 66 40
       3.0965538 3.0315368 3.392585 3.5988364
0001a0 91 5e ee 40 7f 6e 2b 40 5d c0 bb 40 8d 01 e1 40
       7.4490438 2.6786191 5.867232 7.0314393
0001b0 51 13 b0 40 b0 6e 41 40 03 b0 40 40 d1 8d 0a 41
       5.502358 3.0223808 3.010743 8.659623
0001c0 2d 48 38 40 1c f8 73 40 42 70 b4 40 3d 2d 55 40
       2.8794053 3.8120184 5.6387033 3.3308861
0001d0 b4 6a 37 40 da 12 23 40 97 8e 77 40 e3 ad a6 40
       2.8658876 2.5480256 3.868078 5.2087264

fc2.weight f4 [100, 120]
000000 36 17 1f be 5b e7 00 be ca c2 0f 3d 5b 4b 3e 3d
       -0.15536198 -0.12588255 0.035097875 0.046458583
000010 79 a5 1c 3c fd 95 2d 3e a1 6b b0 bd 3a 84 d8 3d
       0.009560936 0.16951747 -0.086142786 0.10572095
000020 64 10 d1 3d 29 4b 8f bd 5d de a1 bd 3c bd 64 bd
       0.102082044 -0.069967575 -0.079037406 -0.05584453
000030 db 69 4a bd 82 26 f1 bd 22 a4 d7 bc 83 fa 68 3d
       -0.049417358 -0.11774923 -0.026323382 0.05687953
000040 91 16 83 3e a6 bc 6d be 28 56 e6 3d ac c4 2f 3e
       0.25603154 -0.23216495 0.11246902 0.17164868
000050 19 9b d8 bd c8 bb 25 3d a1 9f 1d 3e 25 cf af 3c
       -0.105764575 0.040462285 0.15392925 0.021461079
000060 41 f2 e1 3d aa 13 27 3e a2 d8 27 bd 1f 33 c0 3d
       0.110325344 0.16316095 -0.04097808 0.093847506
000070 ad 35 35 3e f1 3b 00 3d d5 12 dc bd ac 83 3b 3e
       0.17696257 0.031307165 -0.107457794 0.18311948
000080 cd aa 1a 3e 48 27 6e bd b9 ca 72 3e 67 22 3c 3c
       0.15104218 -0.05814293 0.23710145 0.0114828115
000090 11 c6 01 3f d1 6c 93 3e ac 34 9e 3d 03 69 a1 3e
       0.5069285 0.28793958 0.0772489 0.3152543
0000a0 74 4c b5 3d cd 2f 3c bd f0 23 95 3e ca d7 1a be
       0.08852473 -0.045944024 0.2912898 -0.1512138
0000b0 c0 48 8e bc e9 f0 9f 3b c6 af 07 be 03 1e 09 3e
       -0.017368674 0.0048810137 -0.13250646 0.13390355
0000c0 70 e6 5d 3e 14 fe 71 be 9d 0b 42 bb 78 2c b3 3d
       0.21669936 -0.2363208 -0.0029608973 0.08748716
0000d0 0a 91 13 bd 63 4d 8a bb 49 4a 1e be 81 12 e0 bd
       -0.036026992 -0.004220651 -0.15458025 -0.10941029
0000e0 1f bb 78 3d 06 a7 a6 3d 47 60 f5 3d 0a 29 9c 3d
       0.060725328 0.08137326 0.11981254 0.07625015
0000f0 a1 a1 19 be 59 5b b7 be cb 95 83 be 22 2e dd 3d
       -0.15003063 -0.3581188 -0.2570022 0.10799815
000100 13 ad 99 3e e7 68 c5 3d d8 65 1f 3e 1d 43 5a be
       0.30014858 0.09639149 0.15566194 -0.21314664
000110 55 4d 11 3d 18 a8 2c 3e ef 56 b0 bc 83 11 8d 3d
       0.03547414 0.16860998 -0.021525828 0.06888106
000120 4a 19 74 be c7 6c f5 bc fc 5b 9e 3d 76 40 5e bc
       -0.23837772 -0.029959096 0.077323884 -0.013565173
000130 b3 6d 12 be 3c 81 b0 bc 69 ae 4b 3e 9b 5c 3b bd
       -0.1429966 -0.021545999 0.19890751 -0.045742612
000140 15 ed ee bd 87 0b 19 3e 69 ec 22 3d 40 02 af bc
       -0.116663136 0.14945804 0.03977624 -0.021363378
000150 c7 91 e8 3d 00 8a 33 be e4 77 5c 3e e8 2d 2b bc
       0.1135593 -0.17533112 0.2153011 -0.010447957
000160 f5 9b f3 3d 4b b9 69 3e 0c e0 b5 3d 09 01 db 3c
       0.11894981 0.2282459 0.08880624 0.026733892
000170 e6 26 b4 3d 44 94 52 3e 8e 0f 0e 3d a2 85 93 3d
       0.08796482 0.20564371 0.034682803 0.07203223
000180 31 72 cb 3d 9e df 7c 3e ca d1 e6 3d ec 03 1d 3e
       0.0993389 0.24694678 0.11270483 0.15333527
000190 66 dc 54 3e 26 1b 6c bd 70 82 f5 bd a4 24 27 bd
       0.207872 -0.05764308 -0.119877696 -0.040806428
0001a0 98 54 bb b9 2c b9 1e be d3 52 52 be 3d 31 ca bc
       -0.00035730447 -0.15500325 -0.20539407 -0.024681682
0001b0 05 dc 92 be 97 35 79 3e e5 a2 3e be f1 43 9a 3e
       -0.28683487 0.24336849 -0.18616827 0.3012996
0001c0 da 12 7d 3e b2 f4 4e 3c 22 a0 8a 3c 69 18 ad be
       0.24714223 0.012631582 0.01692206 -0.33807686
0001d0 04 6a 73 3d 0d 16 a4 3d e6 42 53 be c2 41 ee bc
       0.059427276 0.08012018 -0.20630988 -0.02908409
0001e0 52 4d 5d be ac 5c 18 be 46 b0 f0 bd b8 bb f0 3d
       -0.21611527 -0.14879102 -0.117523715 0.117545545
0001f0 d5 d7 16 bf 5d 20 d6 be 4d 89 de 3c 8f 76 97 bd
       -0.58923084 -0.41821566 0.02716508 -0.0739566
000200 19 8c 83 bc a1 c4 78 3e 45 79 8b be ec 31 f8 bc
       -0.016058015 0.24293758 -0.2724096 -0.030297242
000210 64 d9 63 3c 44 95 b5 be 74 19 cc 3c e5 5e 0c 3e
       0.01390681 -0.35465443 0.02491448 0.13708074
000220 9b 86 12 be d2 01 7b 3d 30 0d 6e be 3e bc 8b bd
       -0.1430916 0.061281033 -0.23247218 -0.06823014
000230 7c 57 e2 3e ec a2 80 bd f8 15 68 3d b6 01 b2 be
       0.4420737 -0.06281075 0.056661576 -0.3476693
000240 b8 06 3c be 6c 61 32 3d d7 37 04 3e 7c 55 05 3e
       -0.18361938 0.04354994 0.12911926 0.13020891
000250 16 33 10 bc 61 a6 56 3e d2 1d fe 3c 73 80 b2 3e
       -0.008801242 0.20961906 0.031020079 0.34863624
000260 0a a0 67 3e dd 4c 04 be 9a 8f 51 3e ef cc 32 3e
       0.22619644 -0.12919946 0.20464936 0.17460988
000270 ca 71 e5 ba 21 62 56 bc ac 48 30 3f 97 94 03 be
       -0.0017505225 -0.013084919 0.6886089 -0.12849651
000280 fe 57 27 3e 21 b5 5c bc 60 e4 84 3d 4f 6f 03 3d
       0.1634216 -0.013470919 0.064888716 0.032088574
000290 03 c0 94 3d bc ed 93 3e 7e 15 e7 bd b3 1a a1 3e
       0.07263186 0.28892314 -0.11283396 0.31465682
0002a0 a6 f4 15 bd 34 fa 76 3e 81 3b 29 be 38 f3 e6 3d
       -0.036610268 0.24118882 -0.16526605 0.11276859
0002b0 89 5f 7b 3b 17 a2 48 3d ae cc 57 3d 4c 72 4c 3c
       0.0038356504 0.048982706 0.052685432 0.012478422
0002c0 a5 9f e8 3d 9c a4 83 3e df f3 bb 3c 73 4f 17 3e
       0.11358575 0.25711524 0.022943435 0.14776401
0002d0 1b cc c8 3d 81 50 fd 3c 8c 57 ed bd b8 34 a6 3c
       0.09804555 0.030922176 -0.11588964 0.02028881
0002e0 cb b5 bc 3c c4 a1 8e 3e 03 62 a9 3d 09 8d 85 3d
       0.023035904 0.27857792 0.082706474 0.06521041
0002f0 cb d1 0f be 7b a7 21 bf e1 f2 24 bd 78 a0 41 be
       -0.14044873 -0.6314618 -0.04027069 -0.1890887
000300 bb a0 41 bd fd 75 03 3e 34 fa 1d bd 59 39 df 3d
       -0.047272425 0.12837978 -0.03856869 0.1089961
000310 0d ba 9f bd 7e 2c d9 3e 3e 38 d1 3d b5 58 c6 3e
       -0.07799158 0.42416757 0.102158055 0.38739553
000320 e4 6f 4e be fa d5 03 3f 79 1a 8a bf 48 9b c1 be
       -0.2015987 0.5149838 -1.0789329 -0.37813783
000330 4e b9 c2 3c ad c1 47 3e 7e 9a d5 bc 65 24 06 bd
       0.02377 0.19507475 -0.026074644 -0.032749552
000340 92 d6 69 3e 7f f9 e0 bc d1 33 63 be 32 5c a7 be
       0.22835758 -0.027462719 -0.22187735 -0.32687527
000350 ea 66 df bd 08 e8 85 3e 74 b7 48 be 10 8d 08 bd
       -0.10908301 0.26153588 -0.19601232 -0.033337653
000360 a4 45 d7 bc 72 db 8d be 6d 5f 38 bd fa 59 43 be
       -0.026278324 -0.27706486 -0.04501288 -0.19077292
000370 a1 41 ab 3d 63 00 63 be c0 33 2b 3e 0d 3b 86 be
       0.08362127 -0.22168116 0.1671896 -0.26216927
000380 c2 ad f2 bc 81 26 6b 3e eb f0 1c be d5 cb 04 3e
       -0.02962387 0.22963907 -0.15326278 0.12968381
000390 3a 0f 5d 3d fa 3d c8 3d 72 04 9c 3d 03 f1 f8 3c
       0.0539696 0.09777446 0.076180354 0.03038836
0003a0 d3 bb 35 be 36 2f 39 bd bb ec 03 be 70 09 92 3e
       -0.1774743 -0.04521104 -0.12883274 0.28522825
0003b0 4f a4 0b 3f ae 58 92 3e dd c6 84 3e 9d 1e dc bd
       0.5454759 0.28583282 0.2593297 -0.107480265
0003c0 60 99 07 be f6 f1 a6 3d 62 28 36 bd 8d c1 12 bf
       -0.13242102 0.08151619 -0.044472106 -0.57326585
0003d0 4a 9a 11 be e9 b7 c8 3e ad 1c ce bd 30 1e bf bd
       -0.14219013 0.39202812 -0.10064063 -0.0933193
0003e0 25 11 9c be e3 41 bd bd 19 c2 a3 3d b3 62 c2 3d
       -0.3048183 -0.092410825 0.079960056 0.09491482
0003f0 6d ec 52 3e 37 3a f8 3e 45 b5 1c 3e e3 f0 5a 3c
       0.20598002 0.48481914 0.15303524 0.013363096

fc2.bias f4 [100]
000000 f1 e8 30 bd c7 44 04 bd 6f b4 0c bd aa 51 27 bd
       -0.0431909 -0.032292154 -0.034351762 -0.040849365
000010 c6 40 43 bc 38 67 b0 bd ab 9f 9e 3c df 2f 6f 3d
       -0.011917299 -0.086134374 0.019363245 0.058395263
000020 19 7d c4 bc 0c 33 b2 3d 27 3d 0d 3d f9 56 8d 3d
       -0.023985432 0.08701143 0.034482148 0.06901354
000030 6e 8a e1 3b 70 9c ea 3b b2 67 42 bc 69 3f 3a 3d
       0.006882957 0.007159762 -0.011865543 0.04547063
000040 8a 53 b0 bd 71 34 d6 bc c5 02 d3 3c 70 4b 46 39
       -0.08609684 -0.026148053 0.025758157 0.00018910854
000050 48 0f a1 bd ad e5 3f bd da 85 20 bd c4 fc ab 3d
       -0.07864243 -0.046849895 -0.03919015 0.083978206
000060 ad ce a9 bd 60 ad 95 3d 75 ba 89 b9 75 ca 4d 3d
       -0.082913734 0.07308459 -0.00026269598 0.050241906
000070 6c ba 46 bd 3e 7c 9b bd 25 f4 64 3d ea 66 04 3d
       -0.04851763 -0.07592057 0.055896897 0.03232471
000080 1a 8a 3b 3d dd 04 4e bd 82 9f a2 bd c4 e8 07 3d
       0.045786 -0.050297607 -0.0794058 0.033180967
000090 b3 2b 62 bc 0e 6b 92 bd a5 d5 c1 3c d8 09 2f bd
       -0.013804364 -0.07149325 0.023661444 -0.042733997
0000a0 47 65 a2 bd cd 65 57 3d eb e6 16 3d 35 d6 66 3d
       -0.07929473 0.05258732 0.036841314 0.056356627
0000b0 14 4a 80 bc ad 13 78 bd 38 30 ae bd 33 06 34 3d
       -0.015660323 -0.06056564 -0.08505291 0.043951225
0000c0 40 07 45 bd 72 90 06 bd fb 55 b4 bd a4 0f 85 3c
       -0.048102617 -0.032852598 -0.08805462 0.01624281
0000d0 f9 fc 13 bd f2 3d 47 3d e9 81 3f 3d 97 e7 3b 3c
       -0.036129925 0.04864306 0.04675475 0.01146879
0000e0 88 07 21 3d e2 67 a7 bd 17 06 98 3d 84 f2 9d bd
       0.039313823 -0.08174111 0.074230365 -0.07712272
0000f0 2a 9f 5e bc bc 88 4c bc 4a 35 78 bd 9c 26 a2 bd
       -0.013587752 -0.012483772 -0.060597695 -0.079175204
000100 61 93 22 3d 35 bf d5 3c 04 2e 1e 3d 1c 5d 6a 3c
       0.039691333 0.026092151 0.038618103 0.014304426
000110 bb 85 0f 3d 8d f5 12 bd 2d 12 2d bd 84 0b 04 3d
       0.035039645 -0.035878707 -0.042253662 0.032237545
000120 d6 35 0d bd 8a 19 fd 3c ed 29 d2 3c 2a df f4 3c
       -0.03447517 0.030895967 0.025654757 0.02989157
000130 72 81 a1 bc 81 d8 d1 bc 2d c8 8b 3d 5d 03 7a bd
       -0.019715045 -0.025615932 0.0682529 -0.061038364
000140 3f 08 b7 bd da 75 42 bd a7 5d 2e bc cd df 9f bc
       -0.0893712 -0.047475673 -0.010642446 -0.019515896
000150 10 c7 7b bc 19 bb b3 3d 9a bc 9a bd 7b 5b 04 bd
       -0.015367284 0.087759204 -0.07555504 -0.032313805
000160 90 e2 a5 bd 16 7f ee 3c 2c 50 89 bd c0 79 88 bd
       -0.08099854 0.029113334 -0.06704745 -0.06663847
000170 ec 5e e3 bc bc ae ac bc c6 25 ba 3d 6f eb 9d 3c
       -0.027755223 -0.021079414 0.09089236 0.019277303
000180 76 0d 53 bd 1c 06 4a 3c 8b ac 96 3d 23 b5 f5 bc
       -0.05152651 0.012330558 0.07357129 -0.0299936

bn2.weight f4 [100]
000000 0b 18 47 3e ef aa df 3f bb 60 f0 3f 57 2a 73 3e
       0.19442765 1.747404 1.877952 0.2374662
000010 46 e0 1d 3e 51 92 8c 3e 44 81 e5 3f 34 6b a9 3e
       0.15417585 0.2745538 1.7930074 0.33089602
000020 57 f1 a7 3f 20 a4 68 3c 58 01 1e 3e b4 6d ca 3d
       1.3120526 0.014199287 0.154302 0.098842055
000030 6c 9a ec 3f 49 8e 1f 3e b6 3e 08 3e f2 7e 40 3e
       1.8484626 0.15581621 0.13305172 0.18798426
000040 e4 d0 11 3e 56 a0 d8 3f 44 87 00 40 73 77 d1 3f
       0.14239842 1.6923931 2.008256 1.6364578
000050 7b cb 09 40 1f 97 cf 3f 26 09 00 40 ba df 94 bd
       2.1530445 1.6217993 2.0005584 -0.07269235
000060 1a de cc 3f ec ec 32 bd 68 44 1b 3e 00 3e 00 40
       1.600528 -0.043682978 0.15162814 2.0037842
000070 d1 07 08 3e 03 7b 07 3e 77 dd a6 3e 18 ae 2c 3e
       0.13284232 0.13230519 0.3259084 0.16863286
000080 9c 46 4a 3e f1 c1 d0 3f ac 8c 4e 3f ca da 6c 3d
       0.19753498 1.6309186 0.806834 0.05782584
000090 ce 2f 19 3e ce a0 76 3e 0a b6 90 3e 55 93 26 3e
       0.14959642 0.2408478 0.28263885 0.1626714
0000a0 94 ac b1 3f fd 88 f0 3f 7f 27 e5 3d af a7 08 3e
       1.3880792 1.8791806 0.11189174 0.13345216
0000b0 17 8e eb 3d ef 27 02 40 d3 7a 05 3e bd 1d db 3f
       0.11501711 2.0336874 0.13035135 1.711845
0000c0 77 38 20 3e f9 b4 c8 3e 62 73 48 3e b4 a0 04 3f
       0.1564654 0.3920057 0.19575265 0.51807714
0000d0 7e cc 60 3e 5b 76 2a 3e 6a e5 1e 3e 2d 2b 24 3e
       0.21953008 0.16646712 0.15517202 0.16032095
0000e0 0f ce 3f 3e c0 e8 d7 3d dd 35 ca 3c 4c 4e 5d 3e
       0.18730949 0.105424404 0.024683887 0.21611899
0000f0 52 dc fa 3f db c8 f6 3d 12 5c 06 40 08 75 de 3d
       1.9598486 0.12050029 2.0993695 0.10862166
000100 a1 d0 1c 3e 23 84 24 3f df 22 24 3e d6 71 07 3e
       0.1531396 0.64264125 0.16028927 0.13227019
000110 5a 1d e0 3f 2f a9 ec 3f 94 6d 16 3e e6 40 96 3d
       1.7508957 1.8489131 0.14690238 0.07336597
000120 9f 70 85 3e 60 6a 0c 3e 0d cb fc 3f d4 a0 53 be
       0.26062486 0.13712454 1.9749466 -0.2066682
000130 31 ce 6b 3e f0 ef e7 3f ca 3a 06 40 d8 10 01 40
       0.23027875 1.8120098 2.0973382 2.016653
000140 80 5e 57 3f 93 0d 3c bd ca 3c 30 3e 55 4d 33 3e
       0.8412857 -0.045911383 0.17210689 0.17509969
000150 9e 63 99 bd 2e 9d c4 3c 36 f7 98 3e fc 99 e9 3f
       -0.074897036 0.02400073 0.29876107 1.8250117
000160 d3 0f b2 3d 46 47 cd 3f 3c 15 0c 3e 4e 92 0d 40
       0.086944245 1.6037376 0.13679975 2.2120547
000170 4b d4 30 3e f5 66 f2 3f 70 7a f2 3f e6 a2 26 3e
       0.17268483 1.893767 1.8943615 0.16273078
000180 0b 33 18 3e d2 b8 3b 3d 74 44 8b 3d 94 07 a4 3e
       0.14863221 0.045830555 0.06800166 0.32037032

bn2.bias f4 [100]
000000 21 dd dc 3c 03 3c 9d 3f 55 18 a4 bf 2d 93 30 3d
       0.026960911 1.2283939 -1.2819926 0.043109108
000010 ab 1c 0d be 6a 14 25 3e ca bf a8 bf 47 4c f9 bd
       -0.13780467 0.16121069 -1.3183529 -0.12172752
000020 38 0f 77 3f e1 b0 02 be 47 fb 14 bd 58 83 d1 3c
       0.96507597 -0.12762786 -0.03637245 0.025575325
000030 9f 34 a4 3f 53 0b c6 bc 1a 84 4f bc 3b 23 2e bd
       1.2828559 -0.024175322 -0.012665773 -0.042514067
000040 05 7d 08 3e 74 e1 ad bf c9 1f af 3f 21 83 8e bf
       0.13328941 -1.3584428 1.3681575 -1.1133767
000050 af e7 b9 bf 89 16 9b bf 5f 19 9f bf 74 0c 1d bd
       -1.4523829 -1.2116252 -1.2429618 -0.038341954
000060 ae e9 9c 3f f6 92 18 3c e7 69 f2 bb 94 9e aa 3f
       1.2258813 0.009312382 -0.0073978784 1.3329644
000070 26 16 e2 bd b6 87 75 3d e0 2f a9 3d ab 07 54 bd
       -0.11039381 0.059943877 0.082610846 -0.051765125
000080 01 8c 03 3d 17 18 92 3f fe 9f 1d 3f 3a 08 a2 3d
       0.03211594 1.1413602 0.61572254 0.07911725
000090 07 c5 13 bd 87 15 89 bd a1 25 00 be 84 0b 34 bd
       -0.03607657 -0.06693559 -0.12514354 -0.043956295
0000a0 46 27 6f 3f d4 6d a0 3f 99 5a 43 bd bf c8 ac bb
       0.934193 1.2533517 -0.047693823 -0.0052729542
0000b0 8f b9 da 3c 64 ca be 3f 06 12 d7 bb 12 b3 93 3f
       0.02669981 1.4905515 -0.006563428 1.1539023
0000c0 02 41 bb bc e8 14 56 be 18 83 cd bd 74 eb db 3d
       -0.022858147 -0.20906413 -0.1003477 0.107382685
0000d0 36 fd dd 3c c1 ae ad 3d 16 fe f0 3b 60 3a 52 3c
       0.02709828 0.08480597 0.007354508 0.0128313005
0000e0 2e 1e 4f bd 18 c8 c6 bb 87 eb bf 3d c5 00 b3 3d
       -0.05056589 -0.0060663335 0.09371095 0.08740381
0000f0 5e 1d b6 3f 77 30 ad 3d 6b 58 b5 bf ed 4c 9b 3d
       1.4227712 0.084565096 -1.4167608 0.07583032
000100 e7 83 f2 3c 6d d5 c1 3e 4b 48 f2 bc 15 d8 5c bd
       0.029603912 0.37858143 -0.029575488 -0.05391701
000110 91 79 a7 3f 46 7f ae 3f bc 61 f7 bc ad f3 b2 bd
       1.3083974 1.3632591 -0.03019797 -0.08737884
000120 50 da 8a bd 27 a1 24 be 5a a7 b2 3f b4 b1 c0 ba
       -0.06779921 -0.160771 1.3957322 -0.0014701397
000130 90 eb dc bc ce c5 98 bf 8d 22 aa 3f 20 b6 be bf
       -0.026967794 -1.1935365 1.3291794 -1.489933
000140 fe ac 1e bf 3f 89 1b be eb 82 94 3d 31 fc fb bc
       -0.61982715 -0.15189074 0.07251533 -0.030759903
000150 f0 25 38 bd 4b 3b 46 be 18 cd 4d 3d fa 94 a5 3f
       -0.044958055 -0.19358556 0.05024442 1.2936089
000160 1d 0b 14 3e 08 4f 90 bf 1a 6b 1d bd 72 d2 d2 bf
       0.14457364 -1.1274118 -0.038432218 -1.6470473
000170 05 ff ea bd 43 10 b0 bf 12 96 a9 bf 75 7c ad 3b
       -0.11474422 -1.3754963 -1.3248923 0.0052943774
000180 5a d4 14 bd 88 14 cf 3d c0 16 b5 bc 97 be 1a be
       -0.036335327 0.10111338 -0.022105575 -0.15111767

bn2.running_mean f4 [100]
000000 c2 ec 8c be a8 4e c9 3f 01 82 36 c0 87 08 e8 3f
       -0.27524382 1.5727129 -2.8516848 1.8127602
000010 b3 ac 73 bf a0 7d d5 bf d9 77 22 c0 38 ff 5b bf
       -0.95185393 -1.6678963 -2.538565 -0.8593631
000020 f8 a9 ff 3f 1e 5b 58 3e 9e a8 e6 be d2 31 74 bf
       1.9973745 0.21128508 -0.4505052 -0.9538852
000030 d6 89 be 3f 8c 63 91 be 55 63 25 bf 15 18 ed be
       1.4885814 -0.2839626 -0.64604694 -0.46307436
000040 ae 7f 66 bf ab 60 b0 be 57 39 38 40 57 a6 e0 bf
       -0.90038574 -0.34448752 2.8784997 -1.7550763
000050 f4 bf 1e c0 e3 fa f8 bf 1f 0f ec bf 90 b9 8b 3e
       -2.480466 -1.9451565 -1.8442115 0.2729001
000060 73 e5 ae 3f 4f 0b a5 bf a1 3f 81 be 37 5d 18 40
       1.3663772 -1.2894076 -0.25243858 2.3806894
000070 82 eb 24 bf 3d bc 35 be 26 87 cb bd 24 03 50 bf
       -0.64421856 -0.17747588 -0.09937887 -0.8125479
000080 ac b5 19 bd 81 cb e5 3f 4e 1b f6 3f f2 6a 2e bf
       -0.03752677 1.795273 1.9227083 -0.68131936
000090 ab e1 e1 3d 6f 7b 74 3f fe 0c 10 bf 5e ea 9e 3e
       0.11029371 0.95500845 -0.56269825 0.31038183
0000a0 b8 a2 b8 3f 88 6d 22 40 cf ce c3 be cd ff 30 3f
       1.4424658 2.5379353 -0.3824372 0.6914032
0000b0 db f3 70 bf c0 ce fe 3f 80 16 a1 3e 03 ee d0 3f
       -0.94122094 1.9906845 0.3146248 1.6322635
0000c0 5a b2 30 3e fd 09 6b bf a3 eb 24 bd 8a 2b 42 3f
       0.17255536 -0.91812116 -0.040263783 0.75847685
0000d0 ca 09 cd be ee c3 30 3f 61 ea f4 bd 92 f7 77 be
       -0.4004653 0.69048965 -0.11958767 -0.24215534
0000e0 f1 b2 c4 bf 52 0d 22 bf 07 e1 ed bd fa a6 85 be
       -1.5367109 -0.63301575 -0.11615186 -0.26103956
0000f0 fb 24 ef 3f 9a 17 92 bd 7e c0 b7 bf 3c 3c db 3e
       1.868316 -0.07133408 -1.4355619 0.42819393
000100 e7 6c c6 3f 8e 4d d1 3f df a8 fc 3e 3c 6c b2 3e
       1.5501984 1.6351793 0.49347588 0.348482
000110 51 3e a9 3e 88 64 bf 3f 5b d6 29 bf a2 ea 1a be
       0.33055356 1.4952555 -0.66342705 -0.15128568
000120 33 66 84 3f 31 05 fb 3d a0 c3 98 3f 6a 8a 38 be
       1.0343689 0.122568496 1.19347 -0.18021551
000130 13 1c 97 3f 3c 60 e8 bf cb 10 b5 3f b5 fd 1f c0
       1.1805443 -1.8154368 1.414575 -2.49986
000140 04 59 2c c0 82 91 c2 3f d3 47 d4 3f 83 0f ad be
       -2.692933 1.5200655 1.6584419 -0.33800897
000150 bc 1d 41 3f fd 2c 24 3f c5 0d ea 3f f2 82 07 40
       0.75435996 0.64131147 1.8285452 2.1173673
000160 91 8c 24 bf 00 bd d1 bf 7d 46 38 bd d0 a2 e0 bf
       -0.6427699 -1.6385803 -0.044989098 -1.7549686
000170 e4 d3 45 3f e3 01 11 c0 35 61 29 c0 c3 e8 23 3f
       0.77276444 -2.2657402 -2.646558 0.6402704
000180 1e 38 14 bf 87 dc d1 be b6 db 40 3f 1e 26 82 be
       -0.5789813 -0.40988562 0.7533525 -0.25419706

bn2.running_var f4 [100]
000000 f0 b5 8b 40 56 61 b3 41 84 96 10 42 46 8f b6 40
       4.365959 22.422527 36.146988 5.7049894
000010 be 0d 88 40 58 85 0f 41 8d b0 e2 41 62 6c 1e 41
       4.2516775 8.970055 28.336206 9.901461
000020 16 55 b0 41 5b 95 81 40 6f 3e 38 40 7f b4 18 40
       22.041546 4.049482 2.8788106 2.3860166
000030 36 61 68 41 5d 4d 1c 40 b6 28 83 40 6e 8c a6 40
       14.523733 2.4422219 4.0987196 5.2046423
000040 3c c8 aa 40 0a db b6 41 d3 e0 bd 41 9e e0 4c 41
       5.3369427 22.856953 23.734777 12.804838
000050 5b 34 fa 41 ac 55 58 41 5b b9 7b 41 03 7b 3d 40
       31.275564 13.520916 15.732753 2.960633
000060 8b d2 25 41 34 62 47 40 f0 6d 38 40 35 ae b7 41
       10.363902 3.1153688 2.88171 22.960062
000070 ea 9e 9c 40 6a 9a 29 40 1e d5 08 41 15 09 a7 40
       4.8943987 2.6500497 8.552031 5.2198586
000080 e7 9b 87 40 59 5b 69 41 ef 77 40 41 4b 8d 46 40
       4.237781 14.584802 12.029281 3.1023738
000090 83 70 2f 40 c8 b4 ef 40 00 24 6d 40 17 8f 7f 40
       2.7412422 7.490818 3.7053223 3.9931085
0000a0 38 ba 68 41 89 2d 9b 41 d7 5e 56 40 94 bc 2b 40
       14.545464 19.397234 3.3495386 2.683385
0000b0 b9 82 52 40 8b b0 e9 41 73 ad 00 40 44 36 38 41
       3.2892287 29.211203 2.0105865 11.513248
0000c0 3e e5 49 40 ff 50 cb 40 e4 35 ee 40 49 3a 25 41
       3.1546168 6.353637 7.4440784 10.32673
0000d0 8c a2 62 40 9d b0 2e 40 fe 9e 5b 40 48 64 41 40
       3.541171 2.7295296 3.431579 3.0217457
0000e0 74 ef 23 40 62 d5 4d 40 98 d6 72 40 41 3c bb 40
       2.56149 3.2161489 3.7943478 5.851105
0000f0 c8 b9 1a 42 5e 95 a3 40 f2 c2 b6 41 b7 e7 9e 40
       38.681427 5.1119833 22.845188 4.9657855
000100 2a 9d 4a 40 f6 ec 03 41 cf 80 28 40 69 6d 2f 40
       3.1658425 8.245352 2.6328619 2.7410529
000110 cc 5b c4 41 0f f5 32 42 b0 ea 57 40 cf 6f 5b 40
       24.544823 44.739315 3.3736992 3.4286993
000120 b8 fa fc 40 70 10 e0 40 ac 3c 98 41 32 ae d6 3f
       7.9056053 7.0020065 19.029625 1.677191
000130 fe 7a 8a 40 92 f6 79 41 73 d2 81 41 8f b0 a2 41
       4.3275137 15.622698 16.227758 20.33621
000140 ee 33 7e 41 ba cb 50 40 03 a4 61 40 98 16 0b 40
       15.887678 3.2624345 3.5256355 2.173254
000150 4b 25 17 40 55 90 5c 40 63 ba c6 40 d2 87 9a 41
       2.3616512 3.4463093 6.2102523 19.316319
000160 63 dc 77 40 43 53 c8 41 8e 27 3c 40 d9 54 be 41
       3.8728263 25.040655 2.9399142 23.79143
000170 45 ee 97 40 3b 4f 7d 41 24 55 bc 41 9a 68 41 40
       4.7478356 15.831843 23.541573 3.0220094
000180 27 ab 45 40 2c f2 39 40 ed 0a 53 40 11 4f 6d 41
       3.0885713 2.905406 3.2975419 14.831803
