mp4-machine-learning-template/model/model.pth (torch, 99326 bytes, 14 tensors)

fc1.weight f4 [120, 49]
0	0x3d91dc41	0.07122088
1	0xbe449729	-0.19198288
2	0x3e57de17	0.21080814
3	0x3dca4f27	0.09878378
4	0x3e1140b5	0.1418484
5	0xbd63e88b	-0.055641692
6	0xbe1ecf96	-0.15508875
7	0xbddf235d	-0.10895417
8	0x3b42f7a0	0.0029749647
9	0xbdea04df	-0.1142671
10	0x3ca0189e	0.019542988
11	0x3c74e6b4	0.014947582
12	0x3d881ad4	0.06645742
13	0x3bda7e2b	0.0066678724
14	0xbdb35f1b	-0.08758374
15	0x3e326ac7	0.17423545
16	0xbd37acd6	-0.044842564
17	0x3d38d8c7	0.04512861
18	0x3e0f9de2	0.14025071
19	0xbe5e6d02	-0.2172127
20	0x3e3393f2	0.17536905
21	0x3db86372	0.09003343
22	0xbd18e8f9	-0.037331555
23	0xbe9b2cc6	-0.30307597
24	0xbd849e57	-0.064755134
25	0x3db0a9cf	0.086261384
26	0x3e031907	0.12802516
27	0x3e3de914	0.18545943
28	0xbe84fe22	-0.25975138
29	0x3e353bc2	0.17698577
30	0x3df91e18	0.12163943
31	0x3bc99f52	0.0061530257
32	0x3eabbf6a	0.33544475
33	0xbef486f0	-0.477592
34	0x3d899d72	0.067194834
35	0x3fabfca0	1.343647
36	0x3e73935f	0.23786686
37	0x3d53ca8d	0.05170684
38	0xbe433c94	-0.19066077
39	0xbe6bc2cc	-0.23023528
40	0x3e926962	0.28596026
41	0xbcb0080e	-0.021488216
42	0xbe352e2c	-0.17693394
43	0xbdb47fa4	-0.08813408
44	0x3e366be3	0.17814593
45	0x3cd79aca	0.026318926
46	0xbdf1afb6	-0.11801092
47	0xbe774dd1	-0.24150778
48	0x3e0fc5c1	0.14040281
49	0x3e3d2d10	0.18474221
50	0x3bf4862d	0.007462284
51	0x3ec0d531	0.37662652
52	0xbc9bde88	-0.01902701
53	0x3e9ebb2e	0.31002182
54	0xbe7bd5fd	-0.24593349
55	0x3dc18676	0.094494745
56	0x3e8138b8	0.25238585
57	0x3b54db02	0.0032479172
58	0xbd734eaa	-0.05940119
59	0x3e71ce4e	0.23613855
60	0xbead6fd5	-0.33874384
61	0x3d36ca26	0.044626378
62	0xbe074074	-0.1320818
63	0x3e34cab2	0.17655447
64	0xbdafc515	-0.08582512
65	0x3c7255f5	0.014791002
66	0xbca1783e	-0.019710656
67	0x3e88172f	0.26580188
68	0x3f00b91d	0.5028246
69	0x3dbc9d65	0.09209708
70	0x3e8a8a40	0.270586
71	0x3eaa1fa8	0.33227277
72	0xbf338bd9	-0.70135266
73	0xbe7895e6	-0.24275932
74	0xbcb1ac66	-0.021688651
75	0x3e5c8038	0.21533287
76	0x3db12b86	0.086508796
77	0x3e91cf6c	0.28478563
78	0xbec3a809	-0.38214138
79	0x3c55fb90	0.013060465
80	0xbde793db	-0.11307498
81	0xbcba7762	-0.022762004
82	0xbda63da3	-0.08117225
83	0x3e034966	0.12820968
84	0xbea1f47b	-0.31631836
85	0xbe47dd70	-0.19518065
86	0x3e14e9b5	0.14542277
87	0xbd6de51b	-0.05807982
88	0xbdf1f24c	-0.118137926
89	0x3dacc2c1	0.08435584
90	0x3d961bcd	0.07329521
91	0x3c17de5e	0.009269325
92	0x3df9e497	0.12201803
93	0x3dc78e12	0.09743895
94	0xbe817cb3	-0.2529045
95	0x3c8528c7	0.016254796
96	0xbdad6581	-0.08466626
97	0xbe3cd912	-0.18442181
98	0x3e9db241	0.3080006
99	0xbdf8c172	-0.12146272
100	0xbe442ab8	-0.19156921
101	0x3e6e883c	0.23294157
102	0x3e0e8224	0.13916832
103	0xbe0fcd1c	-0.14043087
104	0x3de04490	0.10950577
105	0x3f161ca4	0.5863745
106	0x3e2abfe4	0.16674763
107	0x3c54cb50	0.012987927
108	0x3d80a350	0.062811494
109	0xbe1ade67	-0.15123902
110	0xbe1aaa1d	-0.15103956
111	0x3e3bd741	0.18343832
112	0x3d48d815	0.049034197
113	0x3ec4807c	0.38379276
114	0x3c8c6e73	0.01714251
115	0x3e1f8574	0.15578252
116	0xbe4fa19d	-0.20276494
117	0x3f0457d7	0.5169653
118	0x3db9a2e4	0.09064272
119	0x3e360307	0.17774592
120	0x3d3ea4e4	0.04654397
121	0x3ef79baa	0.4836095
122	0xbe190f28	-0.14947188
123	0xb95f3547	-0.00021286785
124	0xbdbaa9c8	-0.091144145
125	0xbebe50cc	-0.37171018
126	0xbe495609	-0.19661726
127	0xbd2e91b1	-0.04261941
128	0x3eab144a	0.33413917
129	0xbe357b7e	-0.1772289
130	0x3c291821	0.010320694
131	0xbe9c0761	-0.3047438
132	0x3e24d85c	0.1609816
133	0xbd395ed8	-0.045256466
134	0x3e480d62	0.19536355
135	0xbdb6b773	-0.08921709
136	0x3de7ff7f	0.11328029
137	0xbe9bdf28	-0.30443692
138	0xbda196c8	-0.07890087
139	0xbe67de06	-0.22643289
140	0xbd7070f0	-0.058701456
141	0x3dbc3cfa	0.09191318
142	0xbe7f8b26	-0.24955425
143	0xbb9335b2	-0.004492485
144	0xbdda9f98	-0.10674971
145	0x3e47f64e	0.19527552
146	0xbe4cc657	-0.19997536
147	0xbddbe114	-0.107362896
148	0xbd8d9417	-0.069130115
149	0x3db8be9c	0.09020731
150	0x3eacf75a	0.33782464
151	0x3c2b5712	0.010457771
152	0xbe1fc2c2	-0.15601638
153	0xbda34992	-0.07973017
154	0xbe846cd1	-0.2586427
155	0x3e3c4cd0	0.18388677
156	0x3efdfb9c	0.49606025
157	0x3db0e22b	0.08636888
158	0xbcea88b6	-0.028629642
159	0xbd567ff1	-0.05236811
160	0xbed7a0de	-0.4211492
161	0x3e887043	0.2664815
162	0x3cd18d80	0.025580168
163	0x38dd8b7a	0.00010564081
164	0x3d7058fe	0.05867862
165	0x3de385b5	0.11109487
166	0xbe9a261b	-0.30107197
167	0x3dc59c79	0.096489854
168	0x3ed0cc90	0.4078107
169	0x3e88b443	0.2670003
170	0x3e3633b1	0.17793156
171	0xbcefbd84	-0.029265173
172	0x3e699d7e	0.22813985
173	0xbded17d0	-0.115768075
174	0xbe81c6f2	-0.25347096
175	0xbedb6ff5	-0.42858854
176	0xbd68ce06	-0.056837104
177	0x3c475d8e	0.012168301
178	0xbebfcbef	-0.37460276
179	0xbd1174ef	-0.035511907
180	0x3eef2251	0.4670587
181	0x3d4da40b	0.05020527
182	0x3ef98c88	0.4874003
183	0x3dc3c204	0.0955849
184	0xbdba81f1	-0.091068156
185	0xbe21af6b	-0.15789573
186	0xbdc4f040	-0.096161366
187	0xbd02e0b6	-0.031952582
188	0xbd7f16b6	-0.06227752
189	0x3c465a54	0.012106497
190	0xbe61605b	-0.22009413
191	0x3d9d0b8d	0.07668219
192	0x3d3de798	0.046363443
193	0xbe5d8a63	-0.21634822
194	0xbe681617	-0.22664677
195	0x3e32e5c8	0.17470467
196	0x3a6c0361	0.0009003189
197	0xbe241b43	-0.16026025
198	0xbcb173c7	-0.021661652
199	0x3da0e8a7	0.07856875
200	0xbd9adc73	-0.075615786
201	0x3d367466	0.0445446
202	0x3d8cb527	0.068704896
203	0x3dfc1aca	0.12309797
204	0x3cfa7fc7	0.030578507
205	0xbc1977e6	-0.009366965
206	0x3e22ecbb	0.15910618
207	0x3d0550bf	0.03254771
208	0x3d33dddb	0.04391275
209	0x3e164a9c	0.14676899
210	0x3c8608be	0.01636159
211	0x3e142e85	0.14470871
212	0xbc7d4cb6	-0.015460184
213	0x3dc51583	0.09623244
214	0xbdbadd87	-0.09124284
215	0x3e9c12ab	0.30482993
216	0x3e19237a	0.1495494
217	0x3dd3a4a1	0.10334135
218	0x3dde5de4	0.10857752
219	0x3d9262fd	0.07147787
220	0x3e0caa43	0.13736825
221	0x3d8130e3	0.063081525
222	0x3ddac02a	0.10681184
223	0x3eaad2c7	0.33363935
224	0xbe2cd952	-0.16879776
225	0x3e2424a5	0.16029604
226	0xbcdbcb06	-0.026830208
227	0x3e639e21	0.2222829
228	0x3cc826e4	0.024432607
229	0x3e8b9327	0.27260706
230	0x3d3ee2e2	0.04660309
231	0x3eabcad3	0.3355318
232	0x3da9f36e	0.08298384
233	0x3d72d324	0.05928339
234	0x3eb8e2f2	0.36110646
235	0xbfb57b78	-1.4178305
236	0xbe14400f	-0.14477561
237	0xbeefa419	-0.46804884
238	0xbe994a34	-0.29939425
239	0x3d6fa2f2	0.058505006
240	0x3cd1db2d	0.025617206
241	0xbe27cb01	-0.16386034
242	0xbca443f4	-0.020051934
243	0xbe510a4d	-0.20414086
244	0xbf01ccf8	-0.5070338
245	0xbd1b259e	-0.03787767
246	0xbe05a808	-0.1305238
247	0xbd0bfb34	-0.034175113
248	0x3e2467af	0.16055177
249	0xbebbd51e	-0.36686033
250	0x3dcc6922	0.0998099
251	0xbe522318	-0.205212
252	0x3e4d261e	0.20034072
253	0xbea69557	-0.32535812
254	0x3df7096e	0.120623454
255	0xbe67b6a6	-0.22628269

fc1.bias f4 [120]
0	0x3d5fa178	0.054597348
1	0xbdd8b0d8	-0.10580605
2	0x3dba162e	0.09086262
3	0xbdffc03e	-0.12487839
4	0x3dad9a35	0.08476678
5	0x3d8421ac	0.06451735
6	0x3d9046ea	0.07044776
7	0x3bfa8587	0.007645312
8	0x3dc6796f	0.0969113
9	0x3e104fb7	0.14092909
10	0x3d9454b5	0.07242719
11	0xbe0b677e	-0.13613698
12	0xbd8b88b8	-0.068131864
13	0x3d81ca52	0.06337418
14	0x3ddc59f6	0.10759346
15	0x3da51c2f	0.08062016
16	0xbde15524	-0.110025674
17	0xbd73ca31	-0.059518997
18	0xbdfef438	-0.12448925
19	0x3d627fd6	0.055297695
20	0xbe0a4694	-0.13503486
21	0x3d43efd3	0.047836136
22	0xbd9bf2f5	-0.076147
23	0xbd6ba1f7	-0.05752751
24	0xbdfc3dbf	-0.12316465
25	0xbd77aa25	-0.060464997
26	0xbd13c092	-0.03607232
27	0xbd65642d	-0.05600374
28	0x3d2fb548	0.042897493
29	0xbd74683b	-0.059669714
30	0xbad9a8aa	-0.0016606052
31	0xbd9c3741	-0.07627726
32	0xbdf28c80	-0.118432045
33	0xbc7f6895	-0.015588899
34	0xbd3d63ab	-0.04623763
35	0xbce60a92	-0.028081212
36	0x3da02cc5	0.07821039
37	0xbdee6639	-0.11640591
38	0xbe0f7337	-0.14008795
39	0xbe0afe66	-0.13573608
40	0x3d3ab775	0.045585115
41	0x3d030ff4	0.031997636
42	0xbde88e37	-0.1135525
43	0x3c96b490	0.018396646
44	0xbddc070d	-0.10743532
45	0xbe013567	-0.12618028
46	0xbd69037b	-0.056888085
47	0xbc3b7d51	-0.011443452
48	0xbb8b7e1d	-0.0042569772
49	0x3d206228	0.03915611
50	0xbce2f16c	-0.02770301
51	0xbdbae0b7	-0.09124892
52	0xbcd4de7e	-0.025984999
53	0xbd102806	-0.03519442
54	0x3dcf4ecd	0.10122452
55	0x3db7df5a	0.08978148
56	0xbc333d58	-0.010939918
57	0x3e0f8b60	0.14018011
58	0xbd26ff37	-0.040770736
59	0xbe0131b1	-0.12616612
60	0x3d2aae73	0.041670274
61	0x3deae780	0.11469936
62	0xbd31014d	-0.04321413
63	0xbdf94372	-0.12171067
64	0x3dc605ef	0.096691005
65	0xbde29620	-0.1106379
66	0x3d2c7baa	0.042110123
67	0xbaac0c12	-0.0013126156
68	0xbe0315ac	-0.12801236
69	0xbdfc48fd	-0.12318609
70	0x3d8d431e	0.06897567
71	0xbc64b39a	-0.013958836
72	0x3d84f83f	0.06492662
73	0x3da05730	0.0782913
74	0x3d838c51	0.064232476
75	0xbdeeb245	-0.11655096
76	0xbc9cb415	-0.019128839
77	0xbdd125d9	-0.10212297
78	0xbdbdd126	-0.092684075
79	0x3db4da40	0.088306904
80	0xbd8f101f	-0.06985497
81	0x3d6b009e	0.057373635
82	0xbd6d7636	-0.057974063
83	0x3cdeef8e	0.027213838
84	0xbdf76e58	-0.12081593
85	0x3dbbfdd9	0.09179277
86	0xbd05d69f	-0.03267538
87	0x3b05b22c	0.0020400388
88	0xbddcc665	-0.10780028
89	0xbd6b4348	-0.05743721
90	0x3c877d79	0.016539322
91	0xbce99c01	-0.028516771
92	0x3db1cb51	0.08681358
93	0x3d53cd39	0.051709387
94	0xbd2e7c44	-0.042598978
95	0xbe093f8c	-0.13403147
96	0x3ae85224	0.0017724675
97	0x3d04cf20	0.032424092
98	0xbe07296e	-0.13199398
99	0x3d54d977	0.051965203
100	0xbe0b8586	-0.13625154
101	0xbd282552	-0.041051216
102	0x3cccbf97	0.0249937
103	0xbd3b407e	-0.0457158
104	0xbcfc5525	-0.030802319
105	0x3e026322	0.12733129
106	0xbdee95ea	-0.116496876
107	0x3df9c5aa	0.121959046
108	0xbc6b3928	-0.014356889
109	0x3e126559	0.14296474
110	0x3cd81edd	0.026381904
111	0x3d70cfa6	0.05879178
112	0xbdf7a95d	-0.1209285
113	0x3ceff153	0.029289877
114	0x3e05124b	0.1299526
115	0x39d52308	0.00040652626
116	0x3daac0e6	0.08337574
117	0x3d89973e	0.067183
118	0xbcff4050	-0.031158596
119	0xbd6fe221	-0.058565263

bn1.weight f4 [120]
0	0x401eab7b	2.4792163
1	0x4030d708	2.7631245
2	0x40346997	2.8189447
3	0x4042ecbc	3.0456991
4	0x401fcee7	2.4970033
5	0x4005b003	2.088868
6	0x401ab866	2.4175048
7	0x405b1895	3.4233754
8	0x4039603f	2.8964994
9	0x40155fe7	2.3339784
10	0x401b969e	2.431068
11	0x400f42b4	2.2384462
12	0x4040eee6	3.0145812
13	0x402fa0bd	2.7441857
14	0x403d26d5	2.955495
15	0x400e7352	2.2257886
16	0x4044d638	3.0755749
17	0x401b7760	2.429161
18	0x3ff77449	1.9332362
19	0x4017835e	2.367393
20	0x40456d56	3.0847983
21	0x40176145	2.3653119
22	0x4019dbde	2.4040446
23	0x402deaa8	2.7174473
24	0x4027cffb	2.6220691
25	0x402cd4b3	2.7004821
26	0x402f83ad	2.7424119
27	0x4010d7d8	2.263174
28	0x40378a6d	2.8678238
29	0x4023e5eb	2.560908
30	0x402c4d85	2.6922314
31	0x4013e805	2.3110363
32	0x3fe45aea	1.7840245
33	0x400ccd0f	2.2000158
34	0x400d07bc	2.203597
35	0x400abfea	2.1679635
36	0x407218b7	3.7827585
37	0x40537f58	3.3046474
38	0x401ff2b8	2.4991894
39	0x401bdfae	2.4355273
40	0x404a7ec3	3.163987
41	0x4062e8db	3.5454624
42	0x400eca98	2.2311153
43	0x4016aabe	2.3541713
44	0x404e0a21	3.2193682
45	0x4038cdc2	2.8875585
46	0x4050e60f	3.2640417
47	0x40234dfc	2.5516348
48	0x403c4079	2.941435
49	0x4017c1c8	2.3712025
50	0x4042ec2c	3.0456648
51	0x4045c1bd	3.0899498
52	0x40171b07	2.3610246
53	0x4033c8a4	2.8091211
54	0x405d2e27	3.455942
55	0x403f5d57	2.990072
56	0x400c3fc7	2.1913927
57	0x40527f74	3.2890291
58	0x3fe09b1b	1.7547334
59	0x40272798	2.6117916
60	0x40452f76	3.0810218
61	0x4015d4a1	2.3411028
62	0x40293773	2.6440094
63	0x40391f15	2.892522
64	0x4014ebe6	2.326898
65	0x4036ef65	2.8583615
66	0x40303c62	2.7536855
67	0x3ffe807b	1.9882959
68	0x4020977d	2.509246
69	0x4017a68d	2.3695405
70	0x40241a2f	2.5640981
71	0x4010a39f	2.2599866
72	0x401545ae	2.332378
73	0x403be720	2.9359818
74	0x40217ca4	2.5232325
75	0x4021657f	2.5218198
76	0x401ed433	2.4817016
77	0x40365388	2.8488483
78	0x4067c777	3.6215494
79	0x4000dcaa	2.0134683
80	0x402384bb	2.5549762
81	0x401020a2	2.2519917
82	0x40551dc9	3.329943
83	0x40086e63	2.1317375
84	0x3feb2dd3	1.837336
85	0x402d8851	2.711445
86	0x401a1823	2.4077232
87	0x40176bad	2.365947
88	0x3ff82bdf	1.9388388
89	0x4046b638	3.1048717
90	0x4020c8aa	2.5122476
91	0x4049fade	3.1559367
92	0x4007dd85	2.1228955
93	0x4048958e	3.134128
94	0x401bea13	2.4361618
95	0x40186901	2.381409
96	0x4009a0df	2.1504438
97	0x403f92b2	2.9933286
98	0x400bcf67	2.1845338
99	0x4020cc9e	2.5124888
100	0x402e1cea	2.7205148
101	0x3ff8f521	1.9449807
102	0x4035b6d3	2.8392837
103	0x4047c05f	3.1211164
104	0x402a49c2	2.6607518
105	0x400436b4	2.0658388
106	0x40032b1e	2.0495067
107	0x4019ccd5	2.403127
108	0x4001d4f4	2.0286226
109	0x40240d6d	2.5633194
110	0x40432e67	3.0497072
111	0x402205ed	2.5316117
112	0x401d62a6	2.459146
113	0x40285bd1	2.630604
114	0x400d074f	2.203571
115	0x403c8bf9	2.9460433
116	0x40127d69	2.2889044
117	0x4029e0c8	2.6543446
118	0x401e53ce	2.473865
119	0x4031d189	2.778414

bn1.bias f4 [120]
0	0x3fd0fb09	1.632661
1	0x3f2570b5	0.646251
2	0x3e7bcbcf	0.24589466
3	0x3e34a1d9	0.17639865
4	0x3fcfda3b	1.6238474
5	0xbfad2f50	-1.3530064
6	0x3f208c30	0.6271391
7	0xc01764ec	-2.3655348
8	0xbffc89d1	-1.9729558
9	0x3fe8e3b5	1.8194491
10	0x3fc32683	1.5246128
11	0x3ead36c9	0.3383086
12	0x3e377dee	0.17919132
13	0xbe1f8a5c	-0.15580124
14	0xbe141656	-0.14461645
15	0xbe08aea0	-0.13347864
16	0x3f19bed8	0.6005683
17	0xbfd33824	-1.6501508
18	0x3eda7939	0.4267061
19	0x3f339b10	0.7015848
20	0x3e0ef5c4	0.1396094
21	0xbeb8b3e1	-0.36074737
22	0xbeea4917	-0.45758888
23	0x3e6f41ce	0.23364946
24	0xbd87e3d5	-0.066352524
25	0xbef5c544	-0.48002064
26	0xbdc5e48a	-0.09662731
27	0xbfc74939	-1.5569221
28	0x40019e87	2.0253007
29	0x3f2355e9	0.63802963
30	0x3dffcc82	0.12490179
31	0xbfc24d72	-1.5179884
32	0xbfad7726	-1.3551986
33	0xbfb418fa	-1.4070122
34	0x3fb13be2	1.38464
35	0xbfb20590	-1.3907948
36	0xc0361b5c	-2.84542
37	0x3e590cce	0.21196291
38	0xbf4b9bcf	-0.7953462
39	0xbee23498	-0.4418075
40	0xbe03ec16	-0.12883028
41	0x3def9be0	0.11699653
42	0xbf832571	-1.0245801
43	0xbf4a8295	-0.791055
44	0xc000988b	-2.0093105
45	0xbf1efb86	-0.62102544
46	0x3dac5074	0.08413783
47	0xbfdf1b1f	-1.7430152
48	0xbef4813e	-0.47754854
49	0xc005ce19	-2.0907042
50	0xc006a7e0	-2.1039963
51	0xbddff81e	-0.109359965
52	0xbeca89d8	-0.3955829
53	0xbf360339	-0.7109867
54	0x4016b4d0	2.354786
55	0xbe573cd4	-0.21019298
56	0x3dbca021	0.0921023
57	0x3e97e318	0.29665446
58	0xbd4704e6	-0.048588656
59	0xbe4f5e91	-0.20250918
60	0x3ce052f8	0.027383313
61	0x3f632aba	0.8873707
62	0xbf3cda08	-0.7377019
63	0xbf0286e9	-0.50987107
64	0x3f19dd8e	0.6010369
65	0xbd320d32	-0.043469615
66	0x3f497a17	0.7870192
67	0xbfa8ef90	-1.3198109
68	0xbf3b814f	-0.73244184
69	0x3e25e686	0.16201219
70	0x3fff7580	1.9957733
71	0x3ebd3551	0.3695474
72	0x3fbf654d	1.495279
73	0x3f1e0729	0.61729676
74	0xbea079c2	-0.31342894
75	0x3f3e2d14	0.74287534
76	0x3ecfa621	0.40556434
77	0x400c432c	2.1915998
78	0x402c6b52	2.6940503
79	0xbfacd44d	-1.3502289
80	0xbf7d1ee6	-0.9887527
81	0x3fbe5ada	1.4871476
82	0x3eb29543	0.34879503
83	0xbed6606c	-0.4187044
84	0x3f9899ed	1.1921974
85	0x3c2b5cb8	0.010459118
86	0xbf10acab	-0.5651347
87	0x3fcada5f	1.5847892
88	0xbfad6441	-1.354622
89	0x3e34f6af	0.17672227
90	0x3ed4b810	0.4154668
91	0x3eab9d63	0.33518514
92	0x3fb78fef	1.43408
93	0xbea49f6b	-0.32152876
94	0xbfc5f25d	-1.5464588
95	0x3fc7589b	1.5573915
96	0xbfb814a9	-1.4381305
97	0xbed74e04	-0.4205171
98	0x3f8a029c	1.0782046
99	0xbfe35375	-1.7759844
100	0x3fe6af4d	1.8022248
101	0xbfd40418	-1.6563749
102	0xbfe366ee	-1.7765787
103	0x3edf1851	0.4357324
104	0x3f0b4d7a	0.54415095
105	0x3f7dd7cc	0.99157405
106	0x3dbe86d9	0.09303064
107	0xbf266473	-0.64997023
108	0x3f6ce619	0.925386
109	0xbea3188e	-0.3185467
110	0x3f3803c0	0.7188072
111	0xbf7626c2	-0.9615289
112	0x3d623854	0.0552295
113	0x3f22a46d	0.63532144
114	0x3f170f38	0.59007597
115	0x3ff80dac	1.9379172
116	0xbf67b3a5	-0.9050849
117	0xbe5c3140	-0.21503162
118	0xbdc72745	-0.09724287
119	0x3e40a892	0.18814304

bn1.running_mean f4 [120]
0	0x3cd754fe	0.026285645
1	0xbda9da13	-0.082935475
2	0x3db4b54c	0.08823642
3	0xbe044dd4	-0.12920314
4	0xbc6c47a8	-0.014421381
5	0x3dfc4e34	0.123196036
6	0x3d6381d2	0.05554373
7	0x3d50262d	0.050817657
8	0x3de7bb61	0.113150366
9	0x3df5958e	0.11991416
10	0x3d81b5fc	0.06333539
11	0xbe15ed2b	-0.14641254
12	0xbd8d86b1	-0.06910456
13	0x3cd4ea74	0.025990702
14	0x3d68b5de	0.056814067
15	0x3d8ab040	0.06771898
16	0xbddabf6c	-0.10681042
17	0xbcc3a1be	-0.023880836
18	0xbe1f2fd4	-0.15545589
19	0x3d2475a0	0.04015124
20	0xbe17d5b7	-0.1482762
21	0x3ce6b4b7	0.028162343
22	0xbd6f607c	-0.058441624
23	0xbd867442	-0.06565143
24	0xbdbfdad6	-0.093679115
25	0xbd3a027e	-0.045412533
26	0xbb67c2f8	-0.0035364013
27	0xbd2e2f30	-0.04252547
28	0x3ca8a204	0.020585068
29	0xbd603ad1	-0.05474359
30	0xbb6f9e0c	-0.003656271
31	0x3d430a78	0.047617406
32	0xbdc292de	-0.09500669
33	0x3d7588d2	0.059944935
34	0xbd6b55b0	-0.057454765
35	0x3d2d7a1e	0.04235279
36	0x3d6bea99	0.057596777
37	0xbdaea866	-0.08528213
38	0xbe0dbbae	-0.13841125
39	0xbdedba76	-0.1160783
40	0x3d83247a	0.06403442
41	0x3d273b15	0.04082783
42	0xbdde496a	-0.10853846
43	0x3cdd9106	0.027046692
44	0xbdd3d991	-0.10344232
45	0xbe0f522c	-0.1399619
46	0xbd498dbb	-0.04920743
47	0xbd53379d	-0.05156671
48	0x3d220d9e	0.039563768
49	0x3d854fb4	0.06509343
50	0x3c19a06b	0.0093766255
51	0xbdaf62b8	-0.08563751
52	0xbd2b7a28	-0.041864544
53	0xbd4d8acb	-0.05018119
54	0x3df41e28	0.11919814
55	0x3d707e9a	0.058714487
56	0xbc9e8496	-0.019350331
57	0x3deec926	0.1165946
58	0xbd71cac2	-0.059031256
59	0xbdee2227	-0.11627608
60	0x3d6a5112	0.05720622
61	0x3e1a9965	0.15097578
62	0xbb902e0c	-0.0044000205
63	0xbe0b5c01	-0.13609315
64	0x3d15f902	0.036614425
65	0xbdf06636	-0.11738245
66	0x3cc34ae9	0.02383943
67	0x3c35ef76	0.011104455
68	0xbdfcee0e	-0.12350093
69	0xbde91ebc	-0.11382815
70	0x3d9ce86c	0.076615185
71	0xbd4420b0	-0.047882736
72	0x3ca1d70c	0.019755863
73	0x3dba7a24	0.09105328
74	0x3d61320b	0.054979365
75	0xbe00638c	-0.12537974
76	0xbd42a620	-0.04752171
77	0xbe431e3f	-0.19054507
78	0xbdc1ff2a	-0.09472497
79	0x3dd7e51f	0.10541748
80	0xbd776129	-0.060395394
81	0x3c994b32	0.018712614
82	0xbd6948ee	-0.056954317
83	0x3c7518f2	0.014959561
84	0xbe64da70	-0.22348952
85	0x3dc6e1a7	0.097110085
86	0xbc92e434	-0.017931081
87	0x3cc483ce	0.02398863
88	0xbdefdc87	-0.11711984
89	0xbb751870	-0.00373986
90	0xbc49a31c	-0.012306955
91	0xbd7d66fd	-0.061865795
92	0x3dc70c74	0.09719172
93	0x3d6933f8	0.056934327
94	0xbd024a3f	-0.031809088
95	0xbe54e990	-0.20792222
96	0x3cce6dbf	0.025198815
97	0x3d7fa9fe	0.062417977
98	0xbe52a701	-0.2057152
99	0x3d8d87b7	0.06910651
100	0xbe3ab90d	-0.18234654
101	0xbcb0bcd6	-0.021574419
102	0x3d8a5274	0.06754008
103	0xbd41d402	-0.047321327
104	0xbd27f78d	-0.041007567
105	0x3da6ca72	0.08144082
106	0xbe174474	-0.14772207
107	0x3e16ff7c	0.14745897
108	0x3ab9ff0c	0.001419039
109	0x3e04154e	0.12898752
110	0x3cdb8483	0.026796585
111	0x3cf60220	0.03003031
112	0xbe15996a	-0.14609304
113	0xbbd9cb61	-0.006646559
114	0x3e00d2b7	0.12580381
115	0x39388ec0	0.00017600786
116	0x3de36c91	0.11104692
117	0x3d945522	0.072428
118	0xbb0bc0b8	-0.0021324586
119	0xbcfbf3f8	-0.030755982

bn1.running_var f4 [120]
0	0x4042a8d2	3.041554
1	0x40068c88	2.1023273
2	0x4021cacf	2.5280035
3	0x401d312f	2.456127
4	0x40e4886a	7.141652
5	0x40e01310	7.002327
6	0x40039eb4	2.0565615
7	0x405e0ca6	3.469522
8	0x40863929	4.1944776
9	0x400ffe37	2.249891
10	0x408238a6	4.069415
11	0x40192f1c	2.3935003
12	0x4017ce6a	2.3719735
13	0x400eddf8	2.232298
14	0x402dc8cb	2.7153804
15	0x40151d8d	2.3299286
16	0x4004501e	2.06739
17	0x40690401	3.6408694
18	0x3ffadab6	1.9597995
19	0x400d9fb5	2.2128727
20	0x40124cac	2.2859297
21	0x40150212	2.3282514
22	0x3fddd072	1.7329237
23	0x402c6f97	2.694311
24	0x4034cec4	2.82512
25	0x4021e07f	2.5293272
26	0x40264dc7	2.5984972
27	0x40506a52	3.2564893
28	0x4080f6e0	4.030136
29	0x3ffe58e2	1.9870875
30	0x3fda72c2	1.7066271
31	0x417c9d35	15.788381
32	0x40030da2	2.047707
33	0x4101d00a	8.113291
34	0x401ec752	2.4809155
35	0x415c6174	13.773792
36	0x411e0e42	9.878481
37	0x4022e085	2.5449536
38	0x40394214	2.894658
39	0x401af0f6	2.420957
40	0x4034128c	2.813632
41	0x4015dbc8	2.3415394
42	0x400e2538	2.2210217
43	0x40359a89	2.837557
44	0x401f7dd4	2.492055
45	0x4020b8e8	2.5112858
46	0x401cd341	2.450394
47	0x40e486b6	7.141444
48	0x4080a389	4.019963
49	0x40d9fb93	6.8119597
50	0x405a2bb3	3.4089172
51	0x400d18d2	2.20464
52	0x4014552d	2.3176987
53	0x400fb99e	2.2457042
54	0x40f4562b	7.6355186
55	0x40549201	3.3214114
56	0x3ff79818	1.934329
57	0x4027b0a0	2.6201553
58	0x3ffcb94a	1.9744046
59	0x3ff880b7	1.9414281
60	0x40228547	2.5393846
61	0x402d1b1d	2.7047799
62	0x40331c4f	2.7986028
63	0x402bad06	2.6824355
64	0x4008f9f4	2.140256
65	0x40103822	2.253426
66	0x4011ad6a	2.2762094
67	0x403183f0	2.7736778
68	0x40221955	2.5327961
69	0x3ffdcc86	1.9828041
70	0x4000b8e0	2.0112839
71	0x400521a4	2.0801783
72	0x4051f9c1	3.2808688
73	0x40174547	2.3636034
74	0x401590c9	2.336962
75	0x40147fe6	2.3203063
76	0x4000fcc2	2.015427
77	0x412bb066	10.730566
78	0x40708fc8	3.7587757
79	0x406d0e15	3.7039845
80	0x40104150	2.2539864
81	0x40cf374d	6.4755006
82	0x402137a7	2.5190217
83	0x400b6bd9	2.1784575
84	0x4123c47c	10.23547
85	0x402acd29	2.668772
86	0x401b5511	2.427067
87	0x404e16a4	3.2201319
88	0x405b120d	3.4229767
89	0x40584775	3.3793614
90	0x40073457	2.1125696
91	0x40538a12	3.3053021
92	0x404ba689	3.1820395
93	0x40403f50	3.0038643
94	0x4011f998	2.280859
95	0x4165c24f	14.359939
96	0x40a441fa	5.133054
97	0x402f85d0	2.7425423
98	0x40dabe74	6.8357487
99	0x4085a044	4.1758137
100	0x407cdf27	3.9511201
101	0x405106a2	3.2660298
102	0x40bbb714	5.8660984
103	0x40114fd6	2.2704978
104	0x400cafa6	2.1982207
105	0x40394e0c	2.8953886
106	0x4016df6e	2.357387
107	0x40324a75	2.7857945
108	0x40025559	2.0364592
109	0x402a98e6	2.6655822
110	0x40345afa	2.8180528
111	0x3ff1c4b5	1.8888155
112	0x40195482	2.395783
113	0x401b160c	2.4232206
114	0x3ffff9a2	1.9998057
115	0x4041307a	3.0185838
116	0x404b9a61	3.1812975
117	0x40313582	2.7688909
118	0x400e2d70	2.2215233
119	0x40034dd5	2.0516255

fc2.weight f4 [100, 120]
0	0x3dc89ad4	0.09795156
1	0xbda39081	-0.07986546
2	0x3cb8d82e	0.02256402
3	0xbe1124d3	-0.14174204
4	0x3e731856	0.23739752
5	0x3c86bb08	0.016446605
6	0x3e860c57	0.2618129
7	0xbe884ed6	-0.26622647
8	0xbda2c53c	-0.07947776
9	0x3db0a12f	0.08624493
10	0xbcf821da	-0.03028958
11	0xbe1d0b43	-0.15336327
12	0xbdba6d6a	-0.091029
13	0x3bda33d4	0.0066590104
14	0xbe217284	-0.1576634
15	0xbe04d1d2	-0.12970665
16	0xbe2a80f1	-0.1665075
17	0xbe943c3d	-0.28952208
18	0x3e8a7a01	0.27046207
19	0x3e4cdbfe	0.20005795
20	0xbb0826c7	-0.0020775066
21	0xbe2dc84c	-0.16970938
22	0x3e153ab2	0.14573172
23	0x3e167092	0.1469138
24	0x3db7a0fe	0.08966254
25	0x3da0be7a	0.078488305
26	0x3e3583b2	0.17726019
27	0xbcc0533f	-0.023477195
28	0xbebce0a9	-0.36890152
29	0xbd3c37be	-0.045951597
30	0x3dfe4cd6	0.12416999
31	0xbca9773f	-0.020686744
32	0xbdca0af0	-0.098653674
33	0xbe0d2f0b	-0.13787477
34	0xbd7622ce	-0.060091786
35	0x3dc358ba	0.095384076
36	0x3e87ad93	0.26499614
37	0x3dd0bb60	0.10191989
38	0x3d765309	0.060137782
39	0xbe8495f4	-0.25895655
40	0xbdbf7462	-0.0934837
41	0x3cc429ce	0.023945715
42	0x3ea5e185	0.3239862
43	0xbcf1a682	-0.029498342
44	0xbecfe332	-0.40603024
45	0xbd53ef2d	-0.051741768
46	0xbca1d309	-0.01975395
47	0xbe80480c	-0.25054967
48	0xbe53d56d	-0.20686884
49	0x3e280cf8	0.16411197
50	0x3c7499f5	0.014929284
51	0xbc4e6fa6	-0.012599861
52	0xbdd96578	-0.10615057
53	0x3e0d974b	0.13827245
54	0x3e285318	0.16437948
55	0xbe4cc51c	-0.19997066
56	0xbe42d537	-0.19026648
57	0x3c8af97a	0.016964663
58	0xbcde07d1	-0.027103337
59	0x3d8600b3	0.06543102
60	0x3ca7ecc0	0.020498633
61	0xbe27b9ad	-0.16379423
62	0xbdfcacdb	-0.12337657
63	0x3ea80de0	0.32823086
64	0xbd0dce18	-0.034620374
65	0x3dc4b1a6	0.09604196
66	0x3e1c4ec6	0.15264425
67	0xbe94e681	-0.2908211
68	0xbe8795a4	-0.26481354
69	0x3d012111	0.031525675
70	0x3d899fff	0.0671997
71	0x3df2b06f	0.11850058
72	0xbe37a2bb	-0.1793317
73	0xbe2468c5	-0.16055591
74	0xbdbcbb83	-0.092154525
75	0xbe50bb5a	-0.20383969
76	0xbd80a5f4	-0.06281653
77	0xbdc65f76	-0.096861765
78	0xbe592c43	-0.21208291
79	0xbd15a744	-0.03653647
80	0xbe0e7679	-0.13912381
81	0xbe366682	-0.17812541
82	0x3dff99cd	0.12480507
83	0x3e07ebc9	0.13273539
84	0xbd201b46	-0.03908851
85	0xbe3b1c66	-0.18272552
86	0xbd91ed98	-0.071253955
87	0xbec38cd1	-0.38193372
88	0xbd8c60ed	-0.068544246
89	0x3e08ea90	0.13370728
90	0xbe280ee5	-0.16411932
91	0xbe43a3fe	-0.19105527
92	0x3ddcdfd4	0.10784879
93	0xbd8ab3af	-0.06772553
94	0xbf36d857	-0.7142386
95	0xbdf8f4ab	-0.12156042
96	0x3d147375	0.03624292
97	0x3e95d2c2	0.29262358
98	0xbddf6b2b	-0.109091125
99	0xbc30c4db	-0.0107891215
100	0x3d521a00	0.051294327
101	0x3e492c10	0.19645715
102	0x3e82e298	0.25563502
103	0x3d0d750e	0.03453546
104	0x3de2019d	0.11035464
105	0xbd055bbe	-0.032558195
106	0x3e58b90b	0.21164338
107	0x3d003e3a	0.031309344
108	0xbcddc9e3	-0.027073806
109	0x3e40d110	0.18829751
110	0x3dd83b0c	0.10558137
111	0x3e7f647a	0.24940673
112	0x3e3a3b17	0.18186603
113	0x3e34ba39	0.17649163
114	0x3e01a092	0.12658909
115	0x3dcaca17	0.09901827
116	0x3d4256cd	0.04744606
117	0x3d774c24	0.060375348
118	0xbe0c76cb	-0.13717191
119	0xbe353d8f	-0.17699264
120	0xbde2939c	-0.110633105
121	0xbe37d5fb	-0.17952721
122	0xbe54388e	-0.20724699
123	0x3e80033a	0.25002462
124	0xbeba952c	-0.36441934
125	0xbb2ba57f	-0.0026191173
126	0x3cb25511	0.021769078
127	0x3e84cbb2	0.25936657
128	0x3d85869b	0.065198146
129	0x3dc0c350	0.09412253
130	0x3cdcbb8b	0.026944896
131	0x3e513de8	0.20433772
132	0xbc439a4d	-0.011938644
133	0xbdd532cd	-0.1041008
134	0x3d3bd89f	0.045860883
135	0x3e3ae863	0.18252711
136	0xbe377535	-0.17915805
137	0xbd5f79a4	-0.054559365
138	0xbe3a1a73	-0.18174152
139	0x3daf6363	0.085638784
140	0xbe617f1e	-0.22021148
141	0xbd05805b	-0.032593112
142	0x3e67176a	0.22567526
143	0xbdc7763b	-0.097393475
144	0x3e77a0f3	0.24182491
145	0x3e62319c	0.22089237
146	0xbe0ff1e1	-0.14057113
147	0xbe3bd8a2	-0.18344358
148	0xbce6683d	-0.028125877
149	0xbca00c74	-0.019537188
150	0x3d4191b1	0.047258083
151	0xbcc191a4	-0.023629017
152	0xbd088bd1	-0.033336464
153	0xbda8e331	-0.08246458
154	0xbdd4aebc	-0.103848904
155	0x3e5160f7	0.20447145
156	0xbe325cca	-0.17418209
157	0xbe337f3a	-0.17529002
158	0x3e31e1f6	0.17371354
159	0xb9f81393	-0.0004731683
160	0xbde830a0	-0.113373995
161	0x3d9e9dd5	0.07744948
162	0xbe284f63	-0.16436534
163	0x3db40e90	0.0879184
164	0x3ebcab60	0.368495
165	0xbbe81b6c	-0.007083347
166	0xbe0f2bf9	-0.13981618
167	0xbce8f9f3	-0.028439498
168	0x3dcf4a45	0.10121588
169	0xbdf6d0a2	-0.12051512
170	0xbe3fdfc5	-0.18737705
171	0x3d0b1bbd	0.033962
172	0x3dadb9ed	0.08482728
173	0xbd74da42	-0.05977846
174	0x3c4dc776	0.012559762
175	0xbd0eacba	-0.034832694
176	0xbd48fcb6	-0.04906913
177	0x3cb22d33	0.021750068
178	0x3da86060	0.08221507
179	0xbd77ce3c	-0.060499415
180	0xbe1a4b48	-0.1506778
181	0x3e2586b8	0.16164672
182	0x3d907e64	0.07055357
183	0x3e8ed853	0.27899417
184	0xbe69aa75	-0.2281893
185	0xbdf0aee0	-0.11752105
186	0x3dfb757e	0.12278269
187	0x3e03d2d8	0.128734
188	0x3e1f9779	0.15585126
189	0xbc2f0612	-0.0106826
190	0xbcd8863d	-0.026431197
191	0xbdd93936	-0.10606615
192	0xbe495955	-0.19662984
193	0x3dd64dd5	0.10464064
194	0x3d416231	0.047212783
195	0xbb850be1	-0.004060254
196	0x3b5d7fea	0.0033798167
197	0xbed892a2	-0.42299372
198	0xbcad6cb5	-0.02117
199	0x3e45b94c	0.19308966
200	0xbda02c69	-0.078209706
201	0xbd3d597c	-0.046227917
202	0xbca62c71	-0.020284863
203	0xbb944e9b	-0.004525972
204	0xbd612662	-0.054968245
205	0xbd6f5550	-0.05843097
206	0x3ce6dd83	0.028181797
207	0xbddd8cae	-0.10817848
208	0x3e304fe9	0.17217983
209	0x3e2c30a6	0.16815433
210	0x3e345556	0.17610678
211	0xbdab29cb	-0.08357581
212	0x3e57f9d9	0.21091403
213	0xbd0b3eee	-0.03399556
214	0xbca87921	-0.020565571
215	0xbdaeb59c	-0.08530733
216	0xbd1d513b	-0.038407546
217	0x3d1446a1	0.03620017
218	0x3dfb8c4e	0.1228262
219	0xbd2c89ae	-0.04212349
220	0xbe2679f4	-0.16257459
221	0x3d28c5d0	0.041204274
222	0x3db87e2b	0.0900844
223	0xbe1e6b27	-0.15470563
224	0x3e82df5f	0.25561044
225	0xbdb1bb53	-0.086783074
226	0xbd489379	-0.048968766
227	0xbcc5d2d9	-0.024148392
228	0xbeb55944	-0.35419667
229	0x3c8bd9af	0.017071573
230	0xbe0ee608	-0.13954937
231	0xbe13052b	-0.1435744
232	0xbe47d8e7	-0.19516335
233	0x3d490e63	0.049085986
234	0x3c398dc8	0.011325307
235	0x3e298edb	0.16558401
236	0x3dd30e29	0.10305435
237	0x3c242a08	0.010019787
238	0x3d7da28e	0.061922602
239	0x3d00647b	0.031345826
240	0xbd16166b	-0.036642473
241	0xbdab1267	-0.08353119
242	0xbde9fb5a	-0.11424895
243	0x3e49c85c	0.19705337
244	0xbe5ccac9	-0.21561731
245	0xbe5e1693	-0.21688299
246	0xbda7d10a	-0.08194168
247	0x3e54a045	0.20764263
248	0xbdc22c4e	-0.09481107
249	0x3d49bffd	0.04925536
250	0x3f50957f	0.8147811
251	0x3e364104	0.17798239
252	0x3c53c4c7	0.012925333
253	0xbe12db6a	-0.14341512
254	0xbc7299e2	-0.014807196
255	0x3e31e597	0.17372738

fc2.bias f4 [100]
0	0x3a3efc8d	0.0007285558
1	0x3db12212	0.086490765
2	0xbd7efc19	-0.062252138
3	0xbc86777d	-0.016414398
4	0xbd79c401	-0.06097794
5	0xbdb11025	-0.086456574
6	0x3d8378a1	0.064194925
7	0xbcd9bfc2	-0.026580695
8	0xbc6bf39e	-0.014401345
9	0xbdb65110	-0.0890218
10	0x3d519fb1	0.051177684
11	0xbd740003	-0.059570324
12	0x3d0cae9c	0.034346208
13	0xbcff633b	-0.031175246
14	0x3d3098a8	0.043114334
15	0xbc01f2ea	-0.00793145
16	0xbd8f75cd	-0.070048906
17	0x3da271d3	0.079318665
18	0xbcf90cb7	-0.03040157
19	0x3d99d40b	0.07511147
20	0xbd55f903	-0.05223943
21	0x3cf94f09	0.030433195
22	0x3d7fd875	0.06246229
23	0xbd3403d0	-0.04394895
24	0x3d09da42	0.033655412
25	0xbda5a8df	-0.0808885
26	0xbd1e0357	-0.038577404
27	0xbd15f368	-0.036609083
28	0x3d73e3a9	0.059543286
29	0xbd4b4714	-0.049628332
30	0xbdb502ef	-0.0883845
31	0x3db2ebc7	0.08736377
32	0xbd942c81	-0.07235051
33	0xbd7b3c97	-0.06133708
34	0xbd7b784c	-0.06139402
35	0x3cf7bef5	0.030242423
36	0x3d9054de	0.07047437
37	0x3d2adc09	0.041713748
38	0x3d0a5bdf	0.03377902
39	0x3da8c5cf	0.08240854
40	0x3d8a68a8	0.06758243
41	0xbc88af0e	-0.016685035
42	0xbd87bb34	-0.06627503
43	0xbb4178b1	-0.00295214
44	0x3c6d40a0	0.01448074
45	0x3d95c757	0.07313412
46	0x3d3209f9	0.043466542
47	0x3c66576c	0.014058929
48	0x3d86fe48	0.06591469
49	0x3d722c8b	0.05912451
50	0x3db1eb95	0.08687512
51	0x3d5e9493	0.05434091
52	0xbca1640b	-0.019701025
53	0xbdb1d762	-0.08683659
54	0x3d855ec7	0.06512218
55	0x3da34b4a	0.079733446
56	0x3d975408	0.073890746
57	0xbd6029ce	-0.054727368
58	0x3dacde95	0.08440892
59	0x3d22dcc2	0.039761312
60	0x3c1697ec	0.009191494
61	0xbd9b5906	-0.07585339
62	0x3d12884c	0.035774514
63	0x3da65c63	0.0812309
64	0xbda364c2	-0.079782024
65	0xbd3302ac	-0.04370372
66	0xbd5a4204	-0.053285614
67	0x3d756d92	0.059918948
68	0xbc782ceb	-0.015147428
69	0xbcb992d8	-0.022653028
70	0xbdad8ad8	-0.08473748
71	0xbcc9e481	-0.024645092
72	0x3c973ad0	0.018460661
73	0x3d112e55	0.035444576
74	0xbcaebae5	-0.021329353
75	0x3d515602	0.051107414
76	0x3dab1289	0.08353145
77	0xbdb0aced	-0.08626733
78	0xbda2dc2f	-0.07952153
79	0x3d891f96	0.06695478
80	0x3d7db1ed	0.06193726
81	0x3cbda6d0	0.023150831
82	0x3d890eda	0.06692286
83	0x3d3596ec	0.044333383
84	0xbc21167b	-0.00983202
85	0xbda3420f	-0.07971584
86	0x3d20fb00	0.039301872
87	0x3ca2d18b	0.019875308
88	0xbdaa9dad	-0.083308555
89	0xbd806d58	-0.06270856
90	0xbd89579f	-0.067061655
91	0xbd9aef10	-0.07565129
92	0xbc3714f5	-0.01117443
93	0x3b215266	0.0024615764
94	0x3d42916b	0.047501963
95	0xbc891e67	-0.01673813
96	0x3c2f332e	0.0106933545
97	0xbb82257f	-0.003971755
98	0x3d4c3792	0.049857683
99	0x3d784022	0.060608037

bn2.weight f4 [100]
0	0x3ef350b0	0.47522497
1	0x3d4f6fe0	0.0506438
2	0x3f876bf3	1.0579818
3	0x3e0b4f86	0.13604555
4	0x3ff8b0e7	1.9428986
5	0x3fe32a87	1.7747353
6	0x3e6e1282	0.23249248
7	0x3ffc513e	1.9712293
8	0x3e16207a	0.14660826
9	0x3e089289	0.13337149
10	0x3e7c6152	0.246465
11	0x3deb12e1	0.1147821
12	0x3e31aeff	0.17351912
13	0x3e87972f	0.2648253
14	0x3dff4222	0.12463786
15	0x3fd5e92a	1.6711781
16	0x40016062	2.0215077
17	0x3ced509a	0.028969098
18	0x3e041ac0	0.1290083
19	0x3fef5779	1.869857
20	0x3d51f352	0.05125744
21	0x3e5a1877	0.21298395
22	0x3e7f073d	0.24905105
23	0x3ff3650a	1.901521
24	0x3e3906a4	0.1806894
25	0x3e71d1d6	0.23615202
26	0x3edda9a1	0.4329348
27	0x4012c21f	2.2930982
28	0x3e75b288	0.23993886
29	0x3e67f43a	0.22651759
30	0x3cbc3a31	0.022976967
31	0x3dd87994	0.10570064
32	0x3ffad7aa	1.9597065
33	0x3f1dc737	0.616321
34	0x3e8dd720	0.2770319
35	0x3dbaca04	0.09120563
36	0x3d4e0db9	0.050306056
37	0x3fe2dec8	1.7724237
38	0x3c3fdc78	0.011710279
39	0x3ff58e32	1.918402
40	0x3fc66b42	1.5501482
41	0x3fe781e3	1.8086513
42	0x3f3efb61	0.74602324
43	0x3eef8941	0.46784404
44	0x3e700294	0.23438483
45	0x3e11f4f4	0.14253598
46	0x3ff62081	1.922867
47	0x3feb3ee1	1.8378564
48	0x3e96885f	0.29400918
49	0x3e664d86	0.2249051
50	0x3e06006c	0.13086098
51	0x3e49703a	0.19671717
52	0x3df29f0a	0.118467405
53	0x3fe7c63a	1.8107369
54	0x3fa64c41	1.2992021
55	0x3e3a6917	0.18204151
56	0x3e22d0e8	0.15900004
57	0x3dbc5203	0.0919533
58	0x3e867590	0.26261568
59	0x3e9159ea	0.2838891
60	0x3eec4ec5	0.46153846
61	0x3e4811c1	0.19538023
62	0x3fddb4a3	1.7320751
63	0xbd2e71ff	-0.042589184
64	0x3e92379d	0.28558055
65	0x3e172ed4	0.14763957
66	0x3e99658d	0.2996029
67	0x3e2b650a	0.16737762
68	0x3fb9a087	1.4502114
69	0x3fcfb9cf	1.6228579
70	0x3d720357	0.059085216
71	0x3e56b0db	0.20965903
72	0x3fd06793	1.6281608
73	0xbc5cf8e1	-0.013487072
74	0x3fe740e1	1.8066674
75	0x3e5966f9	0.21230687
76	0x3e7ebea3	0.2487741
77	0x3e60323b	0.21894161
78	0x3dc5affb	0.09652706
79	0x3ebd50f3	0.36975822
80	0x3fcdb9ad	1.6072289
81	0x3dc0a0e9	0.09405691
82	0x3e5a9845	0.21347149
83	0x3dea5693	0.11442294
84	0x3e256495	0.1615165
85	0x4004e76f	2.0766256
86	0x3ffcedb0	1.9760036
87	0x3e69ebc6	0.22843847
88	0x3e20d388	0.15705693
89	0x3fbbfd14	1.4686608
90	0x40025138	2.0362072
91	0x3fc3ef40	1.5307388
92	0x3fc7df46	1.5615013
93	0x3fdcc847	1.724862
94	0x3f02888c	0.50989604
95	0x4002caa7	2.043619
96	0x3ddc0422	0.10742976
97	0x3e25ec83	0.16203503
98	0x3e39b4c0	0.18135357
99	0x3ecdee06	0.4022066

bn2.bias f4 [100]
0	0x3e9f4318	0.31105876
1	0xbccc31d8	-0.024926111
2	0x3f3b022c	0.7305019
3	0x3e3dee18	0.18547857
4	0x3fb5dd13	1.4208091
5	0xbfa90e5e	-1.320751
6	0x3d6c7cf9	0.05773637
7	0xbfaf791c	-1.3708835
8	0xbb0c5f08	-0.0021418948
9	0xbcca01dd	-0.024659092
10	0x3d3b4575	0.045720536
11	0xbd986d84	-0.074427634
12	0x3c2f3e0f	0.010695948
13	0x3d97e805	0.07417301
14	0xbc2deaec	-0.010615092
15	0xbf9094c5	-1.1295401
16	0xbfafdd83	-1.3739475
17	0x3d6782cc	0.056521222
18	0xbe0a3171	-0.13495423
19	0xbfc6493b	-1.5491098
20	0xbc8ffb33	-0.017575836
21	0x3c955f54	0.018233933
22	0xba95836f	-0.0011406968
23	0x3fb1bcbd	1.3885723
24	0x3d948fec	0.072540134
25	0x3d9205ce	0.071300134
26	0xbe068827	-0.13137875
27	0xbfbffcdf	-1.4999045
28	0xbd87c37c	-0.066290826
29	0xbe40bceb	-0.18822066
30	0x3df515d2	0.119670525
31	0xbdad9b55	-0.08476893
32	0xbfa8692c	-1.3157096
33	0xbe509d94	-0.20372611
34	0x3d818a92	0.06325258
35	0x3db0f4cd	0.08640442
36	0x3da9415a	0.08264418
37	0x3fa14129	1.259801
38	0xbda56ccd	-0.08077393
39	0x3fb6b1ab	1.427297
40	0x3f86b8f9	1.0525199
41	0xbf9da944	-1.2317281
42	0x3f30429e	0.6885165
43	0xbe12c7af	-0.14333986
44	0x3cd25ad6	0.02567808
45	0x3de47bd7	0.11156433
46	0x3f9e0882	1.2346346
47	0xbfa99424	-1.3248334
48	0x3e231ee9	0.1592976
49	0x3c570a14	0.013124961
50	0xbc62b8de	-0.013838021
51	0x3c1ae107	0.009453065
52	0xbdd30ba7	-0.10304957
53	0x3f9f41eb	1.2441992
54	0xbf5cba1c	-0.8622148
55	0xbda465ec	-0.080272526
56	0xbe1cfd69	-0.15331043
57	0x3d4968f2	0.04917235
58	0xbdd06968	-0.10176355
59	0x3e0f8b8c	0.14018077
60	0x3e9fcb99	0.3121002
61	0xbc9ac523	-0.01889283
62	0x3f8d28c0	1.1028061
63	0xbd8f2794	-0.06989971
64	0xbc8a47e0	-0.016879976
65	0x3c027c6a	0.007964233
66	0xbe87da08	-0.26533532
67	0xbd850b3c	-0.064962834
68	0xbf836f1a	-1.026828
69	0xbfa7cecb	-1.3109983
70	0xbd6039e7	-0.05474272
71	0x3d2bb430	0.041919887
72	0xbf914a0d	-1.1350724
73	0xbda3a0dc	-0.07989666
74	0xbf97b751	-1.1852819
75	0xbdb7149b	-0.08939477
76	0xbd5727fd	-0.05252837
77	0x3db3c528	0.08777839
78	0xbe2aa385	-0.1666394
79	0xbe02f042	-0.12786964
80	0x3f8f3c2f	1.1190242
81	0xbddbcae9	-0.107320614
82	0xbd4f7d93	-0.050656866
83	0xbc076473	-0.008263695
84	0x3cb60359	0.022218393
85	0x3faf4b10	1.3694782
86	0xbfac7ae9	-1.3475009
87	0x3daa2b66	0.08309059
88	0x3cc2934c	0.023751877
89	0xbf8ed54f	-1.1158847
90	0x3fb13648	1.384469
91	0x3f8e9537	1.1139287
92	0xbf98d8bb	-1.1941141
93	0x3f9ff40d	1.2496353
94	0xbe3f84ac	-0.18702954
95	0x3fc4aa30	1.5364437
96	0x3d62a292	0.05533082
97	0xbc050a07	-0.0081200665
98	0x3dc6a3a1	0.096991785
99	0xbdebe4ad	-0.11518226

bn2.running_mean f4 [100]
0	0x3e80b805	0.25140396
1	0xbf7122d3	-0.9419376
2	0x3f772581	0.965416
3	0xbdb81f64	-0.08990362
4	0x3fea5171	1.8306104
5	0xbf3b5542	-0.7317697
6	0x3c3cc0e1	0.011520595
7	0xc00319f8	-2.04846
8	0xbf7ffacf	-0.9999208
9	0xbf4c4a3c	-0.7980077
10	0xbf6edf2e	-0.93309295
11	0xbe926796	-0.28594655
12	0x3f0c78ac	0.5487163
13	0xbd45fdfc	-0.04833792
14	0x3e788f76	0.24273476
15	0xbfdf4c5c	-1.7445178
16	0xc013a9ce	-2.307239
17	0xbe54ca09	-0.20780195
18	0x3f24f0da	0.6443001
19	0xbdb44a51	-0.08803237
20	0x3f5591ef	0.834258
21	0x3f039bba	0.51409495
22	0xbf7014fb	-0.93782014
23	0x400ed54f	2.2317693
24	0xbe92e9e8	-0.2869408
25	0xbf764be8	-0.96209574
26	0x3ecda3a4	0.4016391
27	0xc01a6c19	-2.4128478
28	0xbf9b0233	-1.2110046
29	0x3deee1ff	0.11664199
30	0xbfa59849	-1.2937099
31	0x3d09af27	0.033614304
32	0xbff52226	-1.9151046
33	0xc000e25e	-2.0138164
34	0x3f16cce2	0.58906376
35	0x3e036d07	0.1283456
36	0xbf05fe7a	-0.52341425
37	0x40163058	2.3467007
38	0x3e15cda6	0.1462923
39	0x3fe80bcb	1.8128599
40	0x3fb8c278	1.4434347
41	0xc02655fd	-2.5989983
42	0x3fd82dea	1.6889012
43	0xbebabc0c	-0.36471593
44	0xbe8450a2	-0.25842768
45	0xbd5fe3cc	-0.054660603
46	0x3fb14540	1.3849258
47	0xbfb2a9cd	-1.3958069
48	0xbf55245e	-0.83258617
49	0xbed4bb13	-0.41548976
50	0xbed72e42	-0.4202748
51	0xbfab68f1	-1.33914
52	0x3e8eb83b	0.27874932
53	0x40181fde	2.376945
54	0xbfa13163	-1.2593197
55	0xbebd6988	-0.36994576
56	0xbee3002b	-0.44336066
57	0x3e087550	0.13326001
58	0xbf9aa172	-1.2080519
59	0x3f183910	0.5946207
60	0xbf1bd7d7	-0.6087622
61	0xbf52c06f	-0.8232488
62	0x3f83c43d	1.0294262
63	0x3f302fe3	0.6882307
64	0xbf06bbf2	-0.5263053
65	0xbf42a78a	-0.76036894
66	0x3e9d95c0	0.30778313
67	0x3f5cdaf8	0.8627162
68	0xbfef9562	-1.8717463
69	0xbec63299	-0.38710478
70	0xba8e9440	-0.0010877922
71	0xbf08d2e3	-0.5344679
72	0xbfef73fc	-1.8707271
73	0xbe76765f	-0.24068592
74	0xbfc047ce	-1.5021913
75	0xbf6c3916	-0.92274606
76	0xbf40aba0	-0.7526188
77	0x3e9bb9de	0.30415243
78	0xbefea04b	-0.4973167
79	0xbe650d75	-0.22368415
80	0x3fde20a9	1.7353717
81	0xbd2af3a7	-0.04173627
82	0xbf032082	-0.5122148
83	0xbdab29ed	-0.08357606
84	0x3f423d27	0.7587456
85	0x400fdecc	2.2479734
86	0xbf404a69	-0.7511354
87	0xbf0ed36c	-0.55791354
88	0x3d69f562	0.05711878
89	0xbfbecb9c	-1.4905887
90	0x4002b756	2.04244
91	0x400ad8da	2.1694856
92	0xbfdef62a	-1.7418873
93	0x3f025686	0.50913274
94	0x3f577f59	0.8417869
95	0x4005ac46	2.0886397
96	0x3e7f7e16	0.24950442
97	0x3d39b19d	0.0453354
98	0xbbb7af5d	-0.0056056217
99	0x3f0cc4bd	0.549877

bn2.running_var f4 [100]
0	0x411bf79f	9.747954
1	0x408cddf7	4.4020953
2	0x4173bd14	15.233662
3	0x4075b833	3.8393676
4	0x41fd0537	31.627546
5	0x4187dd1d	16.982965
6	0x407fd7f2	3.9975553
7	0x41744dee	15.269026
8	0x4010a3f6	2.2600074
9	0x40462430	3.0959587
10	0x408a7605	4.3269067
11	0x40197808	2.3979511
12	0x403e4d0b	2.9734523
13	0x408edd5e	4.4645224
14	0x401f969a	2.493567
15	0x41737a63	15.21738
16	0x41a3b724	20.464424
17	0x403090ae	2.7588305
18	0x408868be	4.262786
19	0x41a246d2	20.28458
20	0x401e51e9	2.4737494
21	0x4018a80d	2.385257
22	0x4041ac1a	3.0261292
23	0x41cc8650	25.565582
24	0x40592b5b	3.3932712
25	0x405a4939	3.4107192
26	0x4103eef5	8.245839
27	0x41b68677	22.815657
28	0x403d152e	2.9544177
29	0x40c5231c	6.160536
30	0x4050632f	3.2560537
31	0x4083d794	4.1200657
32	0x417d2bf5	15.823232
33	0x411f9555	9.973958
34	0x40467d90	3.1014137
35	0x405f1e85	3.4862378
36	0x3fdee955	1.7414957
37	0x41f37dbd	30.436396
38	0x40164979	2.3482344
39	0x416b5c81	14.710084
40	0x415cca67	13.799415
41	0x42039a21	32.900517
42	0x416d330d	14.824964
43	0x4116a6df	9.41574
44	0x40512aaf	3.2682302
45	0x405189dd	3.2740395
46	0x4149ab6c	12.604351
47	0x41536dbd	13.214292
48	0x4071c8ec	3.7778883
49	0x40813ac6	4.0384245
50	0x40319e3e	2.7752833
51	0x40896065	4.293017
52	0x40634431	3.551037
53	0x419e00ae	19.750332
54	0x411a96f8	9.661858
55	0x404a4607	3.1605241
56	0x4065bf9d	3.5898201
57	0x400710b5	2.1103947
58	0x4070a281	3.7599185
59	0x40a38373	5.109796
60	0x40fc0da2	7.876664
61	0x404cd1e9	3.200312
62	0x411e9910	9.912369
63	0x3fd948ae	1.6975305
64	0x40a4557f	5.1354365
65	0x40189244	2.3839273
66	0x4105ebf9	8.3701105
67	0x40467764	3.101037
68	0x41557a75	13.342397
69	0x41a80c14	21.005898
70	0x402a10ec	2.6572828
71	0x403f06e2	2.984795
72	0x420b398e	34.806206
73	0x403ecf52	2.9814038
74	0x417ea67a	15.915644
75	0x4061293a	3.5181413
76	0x40540008	3.312502
77	0x4065a30b	3.5880764
78	0x40637894	3.5542345
79	0x40ae5649	5.448033
80	0x4169ed36	14.620413
81	0x400c7aff	2.195007
82	0x408421d8	4.1291313
83	0x3fe563a2	1.792103
84	0x40926db2	4.5758905
85	0x4195a331	18.704683
86	0x417899ca	15.537546
87	0x40528597	3.2894037
88	0x404ff25d	3.2491677
89	0x418d6afa	17.677235
90	0x41b64b20	22.786682
91	0x41c7ee3c	24.991325
92	0x419a179f	19.261534
93	0x4167b9a8	14.482826
94	0x41497ca9	12.592935
95	0x418dbf04	17.71827
96	0x40148da3	2.3211448
97	0x400eb285	2.229646
98	0x405b10cf	3.422901
99	0x41102b77	9.010612

fc3.weight f4 [46, 100]
0	0x3cc35e7a	0.02384876
1	0xbdb4ae20	-0.08822274
2	0x3d2ef9c8	0.04271868
3	0x3e1be115	0.1522258
4	0x3b69d516	0.0035679988
5	0xbc5da023	-0.013526949
6	0x3d49eef0	0.049300134
7	0xbcec03e9	-0.028810458
8	0x3c97925c	0.018502407
9	0x3d3ca5d8	0.0460566
10	0x3d12dde1	0.03585613
11	0xbdc563af	-0.09638154
12	0xbc8fbb6f	-0.01754543
13	0x3d7365fb	0.059423428
14	0x3be2ad79	0.006917652
15	0x3c6c7bb4	0.01443379
16	0xbb884601	-0.0041587357
17	0x3cb491f7	0.022042258
18	0x3c48f913	0.012266415
19	0x3bda5095	0.006662438
20	0x3cfb9d9e	0.030714806
21	0xbce1e4a2	-0.027574841
22	0x3dc300c5	0.09521631
23	0xbf227e3a	-0.63473856
24	0x3d007ae2	0.03136719
25	0x3d1cd676	0.038290463
26	0x3d7cd6f0	0.061728418
27	0xbbf49079	-0.0074635115
28	0x3cd9bde8	0.026579812
29	0xbe0e16c4	-0.13875872
30	0x3d3f77aa	0.04674498
31	0xbddcc638	-0.10779995
32	0xb946dae8	-0.000189643
33	0xbce8c03b	-0.028411975
34	0x3da58cc2	0.08083488
35	0x3dc18a8e	0.09450255
36	0x3d82c1b2	0.06384601
37	0xbd149df8	-0.036283463
38	0x3cae2e99	0.021262454
39	0xbb728bac	-0.003700952
40	0xbba6862e	-0.0050819134
41	0x3d1b77e8	0.03795615
42	0x3dc8dca8	0.09807712
43	0xbd14687e	-0.036232464
44	0xbc04e3ad	-0.008110923
45	0x3c633a5b	0.0138688935
46	0xba6f61ea	-0.0009131717
47	0x3bd51887	0.006503168
48	0xbccc098c	-0.024906896
49	0x3cc50f18	0.024055049
50	0x3da4e271	0.08051003
51	0xbd86333a	-0.065527394
52	0xbce23b7a	-0.027616251
53	0xbb8bb5fd	-0.004263638
54	0xbd60c3f7	-0.054874387
55	0x3d05152e	0.0324909
56	0xbdbb23e4	-0.09137705
57	0xbc33c511	-0.010972277
58	0xbe39757f	-0.18111227
59	0xbd51d631	-0.05122966
60	0x3d04f6f4	0.032462075
61	0xbd3f86c6	-0.04675939
62	0x3be9b09c	0.007131649
63	0xbd3a0a17	-0.04541978
64	0xbd1d468c	-0.038397357
65	0xbdbb3f35	-0.09142915
66	0xbdabe461	-0.08393169
67	0xbdb95fbe	-0.090514645
68	0x3aeeadda	0.0018209771
69	0x3c9b5cc8	0.01896514
70	0xbd97a0e3	-0.074037336
71	0x3e0153fd	0.12629695
72	0x3c092154	0.008369762
73	0xbd1cf4ca	-0.038319387
74	0x3c73f3ca	0.014889667
75	0xbe1cfd16	-0.1533092
76	0xbc0afe4e	-0.0084834825
77	0x3b32b408	0.0027267952
78	0xbd45d70e	-0.048300795
79	0x3ddfe859	0.10932989
80	0x3c9389ca	0.018010039
81	0xbd9e4a9f	-0.077290766
82	0xbb4a588e	-0.0030875537
83	0x3c1a64c2	0.009423437
84	0x3d49131c	0.04909049
85	0xb9c74108	-0.0003800469
86	0x3c56d4cf	0.013112261
87	0x3dc6dd0a	0.097101286
88	0x3e1c4c9b	0.15263598
89	0xbad6cde6	-0.0016388267
90	0x3b05ab60	0.0020396337
91	0xbc16c8a8	-0.009203114
92	0xbc0e6087	-0.008690006
93	0x3be41cbf	0.0069614346
94	0xbd8c3cab	-0.06847509
95	0xbc9077a9	-0.017635183
96	0x3c430a6e	0.011904342
97	0x3d3d0bc1	0.046153788
98	0x3c660d5e	0.014041273
99	0xbd10f6a8	-0.03539148
100	0x3c83ed80	0.01610446
101	0x3d42f8e2	0.047600634
102	0x3cd4a256	0.025956314
103	0xbc82cf84	-0.015968092
104	0x3c8ce952	0.0172011
105	0x3cbe86ef	0.0232577
106	0x3b188b6a	0.0023276457
107	0x3b919ed6	0.0044439835
108	0xbe0452bf	-0.1292219
109	0xbe0acc79	-0.13554563
110	0xba56fcb3	-0.0008201107
111	0x3d52d94c	0.05147676
112	0x3d77a6f3	0.06046195
113	0x3cfba70c	0.030719303
114	0xbc822616	-0.015887301
115	0xbce487b5	-0.027896741
116	0x3c8483b1	0.016176077
117	0x3d8cbc5c	0.06871864
118	0xbe250562	-0.16115335
119	0xbb026588	-0.0019896943
120	0xbda38fbe	-0.07986401
121	0x3d8a79a7	0.067614846
122	0x3ca6a144	0.02034057
123	0xbf1be163	-0.6089079
124	0x3dda7a5c	0.106678694
125	0xb943cd60	-0.00018673157
126	0x3df4ced3	0.11953511
127	0x3be15644	0.0068767387
128	0x3ba3a137	0.0049935835
129	0xbdb407b4	-0.08790532
130	0x3dd535a8	0.10410625
131	0x3cd755d9	0.026286053
132	0xbaa33dca	-0.0012454328
133	0xbc436799	-0.011926555
134	0x3cf15808	0.029460922
135	0x3e0eefe4	0.13958699
136	0x3d730a84	0.0593362
137	0xbc6d8f2a	-0.014499465
138	0xbd8d4097	-0.06897085
139	0xbb8915f6	-0.004183526
140	0xbcbdc89e	-0.02316695
141	0xbcb73460	-0.022363842
142	0xbca4c31c	-0.020112567
143	0x3c79c3fb	0.015244479
144	0x3d495201	0.04915047
145	0x3d719a09	0.05898479
146	0x3b8108ec	0.003937831
147	0xbc6b45df	-0.01435992
148	0x3d7a4536	0.06110116
149	0x3d47337e	0.04863309
150	0x3d26a564	0.040685073
151	0x3d811e0e	0.063045606
152	0xbe2e72ef	-0.17036031
153	0xbb7a156c	-0.003815974
154	0xbd5d9d5e	-0.054105155
155	0x3c28930a	0.010288963
156	0xbd7546a8	-0.059881836
157	0x3d75305e	0.05986058
158	0xbd943366	-0.07236366
159	0x3dd36b45	0.103231944
160	0x3d7c1fb4	0.061553672
161	0x3dc32b36	0.09529726
162	0xbc15781c	-0.009122875
163	0xbb93fe54	-0.0045164023
164	0xbc77e830	-0.015131041
165	0x3db3c1e6	0.087772176
166	0xbe210c8e	-0.15727445
167	0x3d347c3c	0.04406379
168	0x3b707251	0.0036689232
169	0x39d63310	0.00040855305
170	0x3c643390	0.013928309
171	0x3d33248d	0.04373603
172	0xbbdc666b	-0.0067260764
173	0xbcbe95f4	-0.023264863
174	0xbbd37074	-0.0064526144
175	0x3a764d29	0.0009395653
176	0xbdb20d07	-0.08693891
177	0xbd6d6173	-0.057954263
178	0xbd4241bf	-0.04742598
179	0x3c1eceba	0.009692842
180	0xbc608d76	-0.013705602
181	0xbd812d5b	-0.06307479
182	0xbda18bdc	-0.07888004
183	0x3d331eca	0.043730535
184	0x3d55ba70	0.052179754
185	0xba81ad4a	-0.0009893563
186	0x3b5d9803	0.003381253
187	0x3d92ba0c	0.07164392
188	0xbda331f6	-0.07968514
189	0xbbe6d3b1	-0.0070442786
190	0xbcc0545b	-0.023477724
191	0x3c434c23	0.011920008
192	0xbc6ef184	-0.014583949
193	0x3d0413e1	0.03224552
194	0xbdf0ec74	-0.1176385
195	0x3b8577d6	0.0040731234
196	0x3e015553	0.12630205
197	0xbb5b53e4	-0.003346675
198	0x3e1971d7	0.14984833
199	0x3d91c23d	0.07117126
200	0x3d83bfac	0.06433043
201	0xbd24c97e	-0.04023122
202	0x3c9d873f	0.01922953
203	0x3d8be13e	0.06830071
204	0xbc90abdd	-0.017660076
205	0xb95540e3	-0.00020337435
206	0xbc1552da	-0.009113992
207	0x3a630130	0.000865954
208	0x3cbae9f3	0.022816634
209	0xbde87b79	-0.113516755
210	0xbe082d2a	-0.13298479
211	0xbe037223	-0.12836508
212	0x3ddb385d	0.1070411
213	0x3b21371c	0.0024599498
214	0xbce39d9b	-0.027785113
215	0xbc377bd5	-0.011198957
216	0xbb9a66cd	-0.004711962
217	0x3d1eb939	0.03875086
218	0xbc04b2f2	-0.0080993045
219	0xbac25feb	-0.0014829611
220	0xbb6acced	-0.0035827712
221	0x3d198d4d	0.03748827
222	0x3d57f26c	0.052721426
223	0xbb8976a8	-0.004195053
224	0x3db672e5	0.08908633
225	0x3dd9855e	0.10621141
226	0xbd619c49	-0.055080686
227	0x3b57ef0b	0.0032948877
228	0xbd1e4e76	-0.038649045
229	0xbd3d1ee2	-0.04617203
230	0x3c517117	0.01278331
231	0xbd478f19	-0.048720453
232	0xbb9f3ee9	-0.0048597944
233	0xbcf63fd9	-0.030059742
234	0xbd82bacf	-0.06383287
235	0xbd381010	-0.044937193
236	0xbc776cdd	-0.015101639
237	0xbbdb1995	-0.006686399
238	0xbd5e5eaa	-0.054289497
239	0x3b17bd7c	0.0023153713
240	0xbbc30470	-0.0059514567
241	0x3c246c1d	0.010035542
242	0x3d3b3902	0.045708664
243	0xbd543214	-0.05180557
244	0xbd761877	-0.060081925
245	0x3cb2d3c1	0.021829488
246	0x3b892e8e	0.004186458
247	0x3f28a6ff	0.65879816
248	0x3a5399e3	0.0008071942
249	0x3dc20e07	0.09475332
250	0x3c575139	0.013141924
251	0xbcf88c06	-0.030340206
252	0xbdbf8489	-0.09351451
253	0x3a639e0d	0.0008682914
254	0x3cc22f01	0.023704054
255	0xbdcd4a7e	-0.10023974

fc3.bias f4 [46]
0	0x3e971724	0.29509842
1	0x3e8a8bcb	0.2705978
2	0x3ec4c994	0.38435042
3	0x3ecd12a7	0.40053293
4	0x3ec5e555	0.3865153
5	0x3eb70fb9	0.35754183
6	0x3efbff72	0.49218327
7	0x3ef5d49e	0.48013777
8	0x3ea8ba83	0.32954797
9	0x3ed2ebf6	0.4119565
10	0x3ec42477	0.3830907
11	0x3ec0252b	0.37528357
12	0x3ed9e087	0.42554113
13	0x3ed78c02	0.42099005
14	0x3e8aae4d	0.27086106
15	0x3ecea3b1	0.40359262
16	0x3ec67860	0.38763714
17	0x3eb8f92a	0.36127597
18	0x3ecbc49f	0.39798447
19	0x3ed31e9e	0.41234297
20	0x3e98ae3b	0.29820427
21	0x3eab2152	0.3342386
22	0x3ea9378e	0.33050197
23	0x3e8c6103	0.27417764
24	0x3ee53c73	0.44772682
25	0x3ea2bfbb	0.31786904
26	0x3ed99376	0.42495316
27	0x3ea214ed	0.3165659
28	0x3ea7ad8b	0.3274959
29	0x3eb0de2b	0.345445
30	0x3eba0e34	0.3633896
31	0x3ebf922b	0.37416205
32	0x3ee7c8ab	0.45270285
33	0x3ec218d9	0.37909582
34	0x3ec8db17	0.39229652
35	0x3eaffa5c	0.34370697
36	0x3ebdf3fe	0.37100214
37	0x3e601eb3	0.21886711
38	0x3edd3a5f	0.43208596
39	0x3ec6d0ad	0.38831082
40	0x3eee905e	0.46594518
41	0x3e9c7d11	0.30564168
42	0x3ed5dec1	0.4177151
43	0x3ebfe11d	0.37476435
44	0x3ea724c2	0.3264523
45	0x3e221867	0.15829621
