mp4-machine-learning-template/model/model.pth (torch, 99326 bytes, 14 tensors)

fc1.weight f4 [120, 49]
00000000: d729 7a3d 15c0 ed3c d12e 82bc 23f2 37be
00000010: ff08 0fbd 37f5 9bbc 3f32 8cbd 6e5c 13be
00000020: 92f7 09be 663d 07bd a78d b0bd 4b48 29bd
00000030: 3ec7 12bd 09b5 71be bac9 b23c d8ff 89be
00000040: c837 1d3d a83d 81bd 252b 063d be9f 0cbf
00000050: 6a55 0a3e 284e 3abe 93c3 1a3c 32be 43be
00000060: baf5 2dbd dd0f 80be 4769 673d a6e5 f63e
00000070: 24b4 113e 9a07 1a3f 9d00 883d 597c 01bf
00000080: 45a5 023e c306 393f acff 133e 7b02 5b3f
00000090: 39ca 4a3e 3bfa 973b 14f0 c0be c9c9 903d
000000a0: 0c1d c53e df25 523e 6878 13be 8427 88bd
000000b0: 4a5c 513c aaee df3d 960e 96be a11a a4be
000000c0: b6c0 ce3e 3ad7 4d3d 3a3b 4a3e e505 833e
000000d0: 3f56 303e 1879 d83d 4901 833d 8cf2 92bc
000000e0: fd4a 013f a084 2dbd 9250 5d3d 3ddc be3d
000000f0: d201 6db8 1e38 62bd b3ab fe3d b545 66bd
00000100: 99a1 a83b cf35 c73d 4ad0 6abd 0f34 6d3e
00000110: b114 8c3d 9cf6 b1be 96ae 89be c41f ef3d
00000120: 9a1e 873e 99f2 c03d 2187 383e 6464 b13d
00000130: 3ec6 b33e dbbd 6abe 8270 a9bc 9a98 72be
00000140: ba3e 0e3e 0a21 08bd 22e9 203e e46c 15be
00000150: 54e9 fe3e e91b 63be 4f6e 6dbd c440 203e
00000160: 1850 13bf 266e 6dbe 95ce 27be fdfe f23d
00000170: 123e 093d 1531 7ebd a56e aa3d 93c1 9d3e
00000180: db68 273e 51a6 eebe 9b72 683d 0fbb 46be
00000190: 975b a53e 52d4 d7be 99dd 02bd ef94 1dbe
000001a0: d542 2d3e 2fae 313e df79 d43d 3253 423e
000001b0: 8cb9 3e3d d89e f9bd e4b4 013e 3482 23be
000001c0: 8567 abbe 4532 96be 2f0f 103e 0781 e83e
000001d0: 0cca 1a3c 8483 bbbe 913a aabd 5b47 0fbf
000001e0: 3d55 0a39 8d8e 173e b079 963d 43cc 4cbe
000001f0: 330c 893e a324 353e 5d71 053e 2ec4 373d
00000200: 023e cfbd b96d dbbe 0139 8dbd 1ea9 53bd
00000210: eca2 1e3e 551e fbbd 13b6 903e 1a6e cdbd
00000220: 5623 04be 3d48 ac3e 4993 a7be 5d89 6fbd
00000230: e8c3 3ebc 2fb5 5f3c 15cd c83d a3cf fdbc
00000240: 6a6a 15bd 1389 2a3e 0f95 a13e b841 4bbd
00000250: 9a27 a3bc 1ab9 c4bd 4cdc 6bbe 4712 81be
00000260: 297e f63d 9508 3fbe 369d e3be 471e 9dbd
00000270: 72ea 45be 1924 8dbd 73eb ec3d c339 92bd
00000280: 788c 62be e34b 8dbe ea9c 303e daa7 603e
00000290: 0d0f afbe 8c40 20be 1f7d a83c ee92 193e
000002a0: 89bd 92bc 2bba 003d d4f4 f33c 863c 493e
000002b0: 2464 0fbe 734a c13d fcd5 0d3e 3b67 88be
000002c0: 9bbf 3ebd 5c09 663e e26d 00bf 799a ebbd
000002d0: 95c8 bfbd 9679 3dbe ed21 a4be eab3 6cbc
000002e0: ac3d b23d 2589 fcbe 3140 b43e 95b9 1d3e
000002f0: 95e8 883d 29e4 54be 5aac 28be 3545 6bbd
00000300: 5a26 193e 4aac b8be 365f f8bd 84bf dd3e
00000310: 0115 8fbd ff73 8f3d 0999 a73b 7d6b 5c3d
00000320: 2114 773d 4b6a d2bb 6572 49bd 148c ed3b
00000330: e68c 0fbd 0079 6d3d 3851 1f3d bfad 863d
00000340: 1e9c 6ebb 0d90 a1bd c0b0 95bd 2b22 1cbd
00000350: 72b6 973d b71d 02be e24b c1bc be2a c53d
00000360: c9d3 6a3e 610b b53d 4a56 32be d6d7 10bc
00000370: c935 8dbf e258 45bd d702 aebe 169d af3d
00000380: 578b 893d f7a8 e93d 2ec9 763d 9b48 b4bc
00000390: c2a4 053e 74e2 db3d 6376 9a3d f867 74bd
000003a0: 56dd 143d 4fce 3f3d 6dff 12bd fef9 0cbe
000003b0: 57c1 dc3d 9d70 803d c407 8ebe 3b1e d2bd
000003c0: 0925 58bf bcff a5bf 8bab a5be 1af8 26be
000003d0: b1de 743d d84c d7bb ecc2 ed3d 9254 003e
000003e0: 96f4 b63e 93e2 4b3e ebc5 d7bd 212f 823e
000003f0: 5b20 13bf a3e9 1c3d 40e4 c53c f4e3 10bd
0.061075058 0.029022256 -0.015891464 -0.17963462 -0.03492069 -0.019037826 -0.06845521 -0.14390728
-0.13473347 -0.03301754 -0.08620768 -0.04132871 -0.035834543 -0.23604216 0.021824706 -0.26953006
0.038383275 -0.06310588 0.03275599 -0.5493125 0.13509145 -0.18193877 0.009446043 -0.19115523
-0.04247067 -0.25012103 0.056496885 0.48222083 0.14228874 0.6016785 0.06640742 -0.50580364
0.12758358 0.7227594 0.14453 0.8555066 0.19803704 0.004637984 -0.37683165 0.070697375
0.38498724 0.20522259 -0.144014 -0.06648162 0.012778351 0.109341934 -0.29308003 -0.32051566
0.40381402 0.050254084 0.19749156 0.25590435 0.172204 0.10569972 0.063967295 -0.017937921
0.5050505 -0.04236281 0.054031916 0.09319351 -5.65069e-05 -0.0552293 0.12435093 -0.05621882
0.005146217 0.0972706 -0.057327546 0.2316439 0.06839884 -0.3475846 -0.2689101 0.11675981
0.26390535 0.09421272 0.18020298 0.08661726 0.35112184 -0.22923987 -0.02068353 -0.23691025
0.13891116 -0.033234634 0.15713933 -0.1459232 0.4978739 -0.22178616 -0.057966527 0.15649706
-0.5754409 -0.2318655 -0.16387399 0.118650414 0.03350646 -0.062058527 0.08321885 0.30811748
0.16348593 -0.46611264 0.05674992 -0.19407295 0.3229644 -0.42154175 -0.031949613 -0.15388845
0.16920026 0.17351602 0.103748076 0.18977049 0.04656367 -0.121885 0.1266666 -0.15967637
-0.33477417 -0.29335228 0.14068292 0.4541094 0.009447586 -0.36623776 -0.08311952 -0.55968255
0.0001319246 0.14800473 0.07347429 -0.19999795 0.2676712 0.17689757 0.13031526 0.044864826
-0.10119249 -0.4285715 -0.06895638 -0.051674955 0.15491837 -0.12261645 0.28263912 -0.10030766
-0.12904105 0.33648863 -0.32729557 -0.05848061 -0.011643387 0.013654037 0.09804741 -0.030982798
-0.036478437 0.16653852 0.31559035 -0.04962322 -0.019916344 -0.09605618 -0.23033255 -0.25209257
0.12035782 -0.18655618 -0.4445588 -0.076717906 -0.19327715 -0.06891651 0.11568346 -0.071399234
-0.22123897 -0.2759696 0.17247358 0.2193903 -0.3419117 -0.15649623 0.020567475 0.14997455
-0.017912643 0.031427544 0.02977983 0.19651994 -0.14003044 0.09438028 0.1385116 -0.2664126
-0.046569448 0.22464508 -0.5016767 -0.11504073 -0.0936443 -0.18503413 -0.32057133 -0.014447192
0.08703169 -0.49323383 0.35205224 0.15402825 0.066849865 -0.20790161 -0.16471997 -0.057439048
0.14956036 -0.36068946 -0.12127535 0.43310177 -0.06986428 0.070045464 0.0051146788 0.053813446
0.06032193 -0.0064213625 -0.04918136 0.0072493646 -0.03504648 0.057976723 0.038895816 0.06576108
-0.003640897 -0.07888804 -0.07309103 -0.038118523 0.074078456 -0.12706648 -0.023595754 0.09627293
0.22932352 0.08840061 -0.17415729 -0.008840522 -1.1032039 -0.04818047 -0.33986542 0.08574884
0.0671603 0.114091806 0.060250454 -0.022007277 0.13051131 0.10736552 0.07542112 -0.059669465
0.036343895 0.04682761 -0.035888124 -0.1376724 0.10779064 0.06271479 -0.277403 -0.10259672
-0.8443151 -1.2968669 -0.3235744 -0.1630558 0.059782688 -0.00657044 0.11609444 0.12532261
0.3573348 0.1991065 -0.10535797 0.25426582 -0.57471246 0.03830875 0.02415669 -0.035373643

fc1.bias f4 [120]
00000000: 98c6 0ebe 62d6 a23d 41b5 07be 5495 10be
00000010: 5d5c d9bc 2f50 d4bd e711 a7bd 7756 8cbd
00000020: 3de0 d6bc 76f9 093d 56d4 6e3d 6298 e83d
00000030: 83d2 4e3c 3f78 81bd 38c6 633d 89ac cebd
00000040: c20e 423d 144c 713d f5d4 45bd f9ca 6bbc
00000050: 2e21 eebc 8617 9bba eb9b 06bd f7c9 e23c
00000060: 81c9 913d e8a7 9c3d fb33 3e3d 73c8 f33d
00000070: ae6b 70bc 6b72 1a3d 43d0 0cbe fd30 c1bd
00000080: 02a3 a2bd bfb1 843d d3b2 713d c54a 90bd
00000090: 1613 87bc ee70 c93d 5d4d 88bb 2e44 54bd
000000a0: 2f55 c4bd 0b56 a93d 0565 b73d f754 b8bc
000000b0: 8fdb bebd 0b4e a9bc 1e8c 3ebd 3852 c3bd
000000c0: c12f 063d 5501 ea3c 0219 623d 9b42 12be
000000d0: 75db 9c3d 1152 033e 6ae4 05be ac3c 0abb
000000e0: 213d 15bd 2c3a 0a3e 800a f63c db38 78bd
000000f0: 7373 cbbd 75f8 0cbe 6c40 e33d de5c 913d
00000100: 0f2e c5bd bef2 db3d e6ee 063e bb73 583d
00000110: cde7 d13d 480b 0fbe 7e50 d03d 569c e3bd
00000120: 7146 fc3d 992d 0ebe 6784 da3d bf25 403c
00000130: 8e54 e03d 1a21 b9bd f7cb 20bd 5648 52bd
00000140: ae8a 103d 795e e43d 9eef 33bd e296 ed3d
00000150: 6124 023e b01a ad3d 6a46 f5bd ce61 d5bd
00000160: cde5 d23d 33e1 82bc 56e1 bfbd d210 0abe
00000170: 54dd a1bc 7b5c 7b3d f704 073c 3512 e23d
00000180: dfcb b2bd a869 febd e3d7 97bd 7302 bbbd
00000190: d750 2f3d 8dd2 e83d bdb7 88bd bff6 07bc
000001a0: 0c69 363d 3505 ffbd ab3a 8d3d a893 003d
000001b0: e3c1 0a3e 1002 a23c 333c 3b3d 0b47 693d
000001c0: 5001 423d 0b25 e63d 0ca2 0d3e a940 bfbd
000001d0: 1db8 923d f1e1 53bd 0185 d9bd 2dd6 7abc
-0.13942945 0.079510465 -0.13252737 -0.14119464 -0.0265333 -0.10366856 -0.081577115 -0.06852429
-0.026229972 0.03368517 0.058307968 0.1135719 0.012623432 -0.06321763 0.055608958 -0.10091502
0.047377355 0.058910444 -0.048298795 -0.014391654 -0.029068556 -0.0011832572 -0.03286354 0.027684195
0.07118512 0.07649213 0.04643629 0.11903467 -0.01467411 0.037706774 -0.1375132 -0.09433172
-0.079412475 0.06479215 0.05900843 -0.07045511 -0.016488593 0.09835993 -0.004159613 -0.051822834
-0.0958656 0.082683645 0.08954815 -0.022501452 -0.09319221 -0.020667097 -0.046520345 -0.09537166
0.032760385 0.028565088 0.05519963 -0.1428322 0.076590456 0.12824275 -0.13075414 -0.0021093292
-0.03643525 0.13498753 0.030034304 -0.060601097 -0.099341296 -0.13766654 0.11096272 0.07097791
-0.096279256 0.10739659 0.1317707 0.052844744 0.102492906 -0.13969147 0.10171603 -0.11113803
0.12318123 -0.13884582 0.10669785 0.011727749 0.109536275 -0.09039517 -0.039257016 -0.051338516
0.035288505 0.11150832 -0.04392969 0.11601044 0.1270919 0.08452356 -0.11976321 -0.104190454
0.10297737 -0.015976524 -0.09369151 -0.13482979 -0.019758858 0.061367493 0.00824093 0.11038629
-0.087302916 -0.12422496 -0.07414224 -0.091313265 0.042801704 0.113682844 -0.0667567 -0.008298575
0.044533774 -0.12452165 0.06895956 0.031390816 0.13550524 0.019776374 0.045711707 0.056952517
0.047364533 0.11237534 0.13831347 -0.09338505 0.07164023 -0.051729146 -0.106210716 -0.015309853

bn1.weight f4 [120]
00000000: 0493 3540 8049 1c40 1959 0d40 77a8 1f40
00000010: 4a05 1e40 783f 3c40 fecf 1740 69bb 0740
00000020: 0d50 3c40 d252 1340 5a81 3740 82f0 1840
00000030: ebd3 3940 489f 3040 4779 2f40 90f1 1640
00000040: 7cae 1b40 080d 2540 7281 3140 762a 3c40
00000050: 13fd 6540 00db 5f40 6b11 2040 8462 3f40
00000060: 2713 2540 2617 0e40 3020 2b40 f7c2 4640
00000070: f043 5b40 003d 5340 ad05 3440 4d3c 2e40
00000080: 46e4 3340 0bc8 3140 43f3 6040 2b83 2140
00000090: 9c6a 3540 8791 1040 307b 2c40 2451 1d40
000000a0: c23a 1f40 609e 1540 0515 4540 9820 6a40
000000b0: 1f55 2c40 c043 3240 03b5 2540 49c9 1840
000000c0: 171f 3740 21d7 2e40 9cd1 4340 2147 2840
000000d0: 4a27 2f40 98a3 1e40 1b64 3940 a49a 1340
000000e0: b25f ef3f 217f 1d40 7ce4 3b40 deea 1640
000000f0: 13f7 1840 2cba 2040 4c61 cf3f 9589 e93f
00000100: 6902 2d40 42be 3f40 7035 2a40 aa53 4a40
00000110: 6f65 3940 5d34 0040 f31f 4340 dad5 1c40
00000120: 4948 4c40 98d8 4040 adb9 4640 7ef3 3e40
00000130: b572 2040 1267 3740 d74c 5840 8c7f 1a40
00000140: f06e 4040 b407 6940 d7ac 1d40 b271 1640
00000150: 133c 3840 e1b9 5140 65fe 0540 1231 1640
00000160: 17ef 3e40 6351 1940 4a58 f63f 8692 4340
00000170: 2143 0140 0bbb 5240 c22d f33f d5e9 1540
00000180: 8662 1740 62d5 2d40 6a42 2140 05a2 2540
00000190: 7753 4140 8761 0140 8eb6 4640 7bdb 1a40
000001a0: a4ea 5140 d992 0640 2be6 e43f 78f2 0840
000001b0: d8d5 3f40 5d54 f73f 0ac4 0e40 5983 0240
000001c0: 0049 0440 2348 3840 5cbb 3840 847c 0640
000001d0: f201 5340 2038 0040 37f5 2e40 f3e1 0040
2.8370981 2.441986 2.208563 2.4946573 2.4690728 2.9413738 2.3720698 2.1208136
2.942386 2.30193 2.86727 2.3896794 2.9035594 2.7597218 2.7417772 2.3584938
2.4325247 2.5789204 2.7735257 2.9400916 3.5935714 3.4977417 2.501063 2.990388
2.579294 2.2201629 2.6738396 3.1056497 3.4260216 3.3005981 2.8128464 2.7224305
2.8108077 2.7778347 3.5148475 2.5236309 2.834632 2.2588823 2.6950188 2.4580774
2.4879613 2.3377914 3.079408 3.6582394 2.6926954 2.7853851 2.589173 2.3872855
2.8612726 2.7318804 3.0596685 2.6293414 2.736773 2.478735 2.896735 2.3063135
1.8701079 2.4608843 2.9358206 2.3580852 2.3900802 2.511363 1.6201568 1.8245112
2.703272 2.9959874 2.6595116 3.1613564 2.896816 2.003196 3.048825 2.4505525
3.191912 3.0132198 3.1050828 2.9836116 2.5070012 2.865666 3.37969 2.4140348
3.006771 3.6410952 2.4636743 2.3506894 2.8786666 3.2769701 2.093652 2.346745
2.983343 2.3955925 1.9245694 3.055818 2.0197222 3.2926662 1.8998339 2.342397
2.3653884 2.7161489 2.5196786 2.588014 3.0207193 2.0215776 3.1048923 2.419646
3.2799463 2.1027129 1.7882742 2.139799 2.997427 1.9322621 2.2307153 2.0392668
2.0669556 2.8794029 2.8864355 2.1013498 3.2969937 2.0034256 2.7337167 2.0137908

bn1.bias f4 [120]
00000000: ff86 e13f 0b83 283f 5e21 2cbe 7cbd 70bd
00000010: d9c6 d03f cf28 2abd bb7d 523f bb8d a53f
00000020: 7413 2240 938e 2dbf 851e 17bf 33e7 393f
00000030: ff87 91bf 5135 12bf 4d58 f7bf 22dc 93bf
00000040: 04dd aabe 4afe 5dbf c513 103f 039a 13bf
00000050: 9662 1c40 b26b 2cc0 2987 d13e 36d8 2c3f
00000060: bf6e e33f b54e 9bbf ca18 13c0 af7e ce3d
00000070: dcf9 9a3e b3ad 233e f1fc 85be 6cc7 ef3f
00000080: 99e8 aa3f 6730 fbbf 0527 6fbe 2ac5 9ebf
00000090: f5c9 a1bd 6d29 ae3e deb7 043d d4ba 4fbf
000000a0: 59bb 45bf 4659 c2bf b632 0cc0 5f9d 2140
000000b0: c056 993e b01c 81bd 6a45 d93e de55 3fbd
000000c0: a78d 1f3f 695f 1f3e c8f1 3ebf 4ddc 303f
000000d0: a02f 32bf 9f97 83bf 1d24 093f f81e e2be
000000e0: 30e0 0dbe 10df febe 17d5 203e 26ef 023f
000000f0: 9f86 c53f 1db1 da3f 5243 b7bd 5602 b9bf
00000100: e0ef ab3e 03d0 273f 4630 48be 25b7 18c0
00000110: d45b 8a3e e9b2 28be a4b1 0540 7539 823f
00000120: c22f 3b3f c418 55be 3e5b 75be a594 81be
00000130: aa84 d3bf 75d2 ba3d 0be3 6e3e 5722 e43e
00000140: 4b3d 0540 5592 c63d d92f 47bf ddaf 813f
00000150: f147 2e3f 4ac8 20c0 1a2b 2c3d 7018 953f
00000160: af5b 06c0 0d9f 0d3e e971 fa3e 9e55 08c0
00000170: 749e a73f 9f25 10c0 de51 f3be 4a98 e93f
00000180: f162 63bf 4b0b f03d 66d0 d4bf 6d8e 36bf
00000190: c8d8 29c0 fe57 9ebf 574c 2bbf 8763 cd3f
000001a0: 178a c1ba ff76 ab3f d7e3 05bf 8bba b4bf
000001b0: 9730 d9be 5784 833e b72c 683f 8a6f 9a3f
000001c0: 8532 60bf be89 1f3f 9817 f13f 7dd5 8abf
000001d0: 07f2 18c0 c639 19bf 5d24 f5be 189c b3bf
1.7619323 0.65824956 -0.16809604 -0.058774456 1.6310683 -0.041542824 0.822231 1.2933878
2.5324373 -0.67795676 -0.59030944 0.72618407 -1.1369628 -0.57112604 -1.9323822 -1.1551554
-0.33371747 -0.8671614 0.56280166 -0.5765688 2.4435172 -2.6940732 0.40923432 0.6751741
1.7768172 -1.2133394 -2.298388 0.10082757 0.30268753 0.1598423 -0.2616954 1.8732734
1.3352233 -1.9624146 -0.23354729 -1.240392 -0.07899848 0.3401598 0.032401912 -0.8114445
-0.77238995 -1.5183494 -2.1905951 2.5252302 0.29948997 -0.063043 0.4243577 -0.04671275
0.6232552 0.1556374 -0.7458768 0.6908615 -0.6960392 -1.0280646 0.5357073 -0.44164252
-0.13855052 -0.49779558 0.15706287 0.5114616 1.5431708 1.7085301 -0.08948387 -1.4453838
0.33581448 0.65551776 -0.19549665 -2.3861783 0.27023184 -0.16474499 2.0889673 1.0173784
0.7311975 -0.20810229 -0.23960587 -0.2530872 -1.6524861 0.09122173 0.23328798 0.4455745
2.081866 0.09695879 -0.77807385 1.0131794 0.68078524 -2.5122247 0.042033292 1.1648083
-2.099346 0.13830204 0.48915032 -2.1302257 1.3095231 -2.2522962 -0.47523397 1.82496
-0.8882285 0.11720904 -1.6626098 -0.71311074 -2.6538563 -1.2370603 -0.6691336 1.6045998
-0.0014765885 1.339569 -0.5230078 -1.4119428 -0.42419884 0.25686905 0.9069323 1.2065289
-0.87577087 0.6231955 1.8835325 -1.0846401 -2.3897722 -0.5985378 -0.47879305 -1.4032011

bn1.running_mean f4 [120]
00000000: 4ed6 0dbe 207a b03d 1449 13be f5f7 23be
00000010: 7603 663d 358d 08be a1bf 15bd e40d b1bd
00000020: 1001 11bd 8709 283d 1776 8a3d 1b52 ad3d
00000030: c23f b73c 855c e6bd 44ed a63d 48dc 06be
00000040: 30be 253d 344a ba3d 3c4b a9bd 188d 63bb
00000050: 528e 63bd 1b5d 213c 3b0d 0ebd 8064 fab9
00000060: f65e c43d ab5d 003d a478 413d 4a1c 083e
00000070: d027 2ebd 3007 403d ce20 21be eb3f 0ebe
00000080: 167b f7bd 1cd2 ae3d 4f94 5b3d 2875 b8bd
00000090: 9cdd 95bc 1247 d73d b281 803c 0422 34bd
000000a0: a238 e4bd c49f 273d 81ab 033e 9484 9abd
000000b0: bb98 7ebd 1c42 8cbc 0833 9ebd 8c3e 95bd
000000c0: 7a29 9e3d db2d bc3c 2059 c93d c116 07be
000000d0: bd4d 823d 6d94 163e 7a87 0ebe d5d5 b63c
000000e0: 05c0 91bc 320b 0d3e 6070 6dbc d0ff 8bbd
000000f0: dce4 eebc 12dd 01be 09bd 043e 2632 493d
00000100: b711 f2bd 716f 003e 0536 cd3d b3a4 df3c
00000110: 530e 053e f9cb 21be c8ed 4e3d ce65 c4bd
00000120: ba83 a13d f56a 08be fc37 043e 02a4 2e3d
00000130: f7b0 493d 044e 92bd 9208 f6bc 92ac 85bc
00000140: 94a7 eb3c ddab f73d 081b a1bd fe2a ff3d
00000150: 2dbb e93d 9156 c53d 3a56 19be b999 d0bd
00000160: d825 f13d 3650 b1bc 14ce 9fbd 28ba d0bd
00000170: d5dc 473d c405 733d 9809 8e3b a03a 163e
00000180: d0a3 f7bd 3c68 23be c0f8 64bd 0cb3 eabd
00000190: 8148 2a3d dc97 793d a175 d7bd 9d3e 4b3c
000001a0: bdd6 ee3c 65e5 74bd e1b1 823d c0cd 33bb
000001b0: 0522 0f3e 7e34 c03b 6cd5 983d 5425 0e3e
000001c0: d04a 3e3d d422 da3d b4d1 2c3e 27d4 bcbd
000001d0: 8109 ae3d 7808 9ebd 1649 bfbd c8a4 3b3b
-0.13851282 0.086170435 -0.14383346 -0.16012557 0.056155644 -0.13335116 -0.036559705 -0.086452276
-0.035401404 0.04102471 0.06760805 0.08462926 0.02236927 -0.112481155 0.081507236 -0.13169968
0.04046458 0.090961844 -0.08266303 -0.003472155 -0.05555565 0.009848858 -0.034680586 -0.00047758594
0.09588425 0.03133933 0.047234192 0.13292041 -0.042518437 0.046881855 -0.1573517 -0.1389157
-0.12084024 0.08536169 0.053608235 -0.09006721 -0.018294148 0.105116025 0.015686844 -0.043977752
-0.11143614 0.04092385 0.12858392 -0.075448185 -0.062157374 -0.017121367 -0.07724577 -0.072873205
0.07722755 0.022971084 0.09831452 -0.13192274 0.06362484 0.14705057 -0.13918868 0.02231876
-0.017791757 0.13773802 -0.014492124 -0.06835902 -0.029161863 -0.12681988 0.12962736 0.04912009
-0.11819785 0.12542512 0.10020069 0.027300214 0.12993746 -0.15800466 0.050519735 -0.0958973
0.07886453 -0.13322051 0.12911981 0.04263688 0.049241032 -0.071437865 -0.030033384 -0.01631764
0.02876643 0.12093327 -0.07866484 0.12459372 0.11412654 0.09635652 -0.14974299 -0.1018557
0.11774796 -0.021644693 -0.07802978 -0.101917565 0.048794586 0.05933167 0.0043346398 0.14670801
-0.12091792 -0.15957731 -0.05590129 -0.11459932 0.04157305 0.06093584 -0.10520483 0.012405065
0.02915513 -0.05978908 0.06381584 -0.002743587 0.13977821 0.0058656326 0.07462582 0.13881427
0.046458066 0.10651174 0.1687687 -0.09220152 0.084979065 -0.07716459 -0.09340112 0.0028632153

bn1.running_var f4 [120]
00000000: a49d 4040 b998 0740 4eec 0f40 e73e f83f
00000010: 19ad 3f41 4cfb 2840 d363 1b40 6213 2640
00000020: dc77 8040 900b 0840 9156 0340 5f84 f93f
00000030: 58b0 1140 c6f2 1840 cb13 2340 982f da40
00000040: 41ab fb3f 6403 f73f c0b9 4f40 8a2b 4940
00000050: 7b6c 5d40 31d3 9c40 c3d8 3240 059f f93f
00000060: fa12 6240 6873 6c40 2b6e a040 316f 1440
00000070: 20bf 2740 fb6a 1840 f408 d43f 5005 fe40
00000080: 7387 2340 c5c2 6940 d00c 5240 0a47 2140
00000090: 2ee5 1d40 9005 2640 f958 0540 3a5e 1740
000000a0: dff8 e13f a1f6 e440 2ca4 2640 aa03 5b40
000000b0: 112a f23f 5144 2940 4f46 0f40 15e9 4640
000000c0: 5537 2440 2ea0 ce3f 2506 1940 30cc f83f
000000d0: e4a4 0d40 c78c 2440 5739 1240 d63c 0040
000000e0: 8283 0e40 e286 fb3f 1336 7e40 bb21 2f40
000000f0: 5006 5741 1624 8c40 a2b7 fd3f 5bef dd3f
00000100: 3536 6940 a5ab 2640 356a 1940 34c2 2241
00000110: c01c 2a40 ebe7 1f40 c6de 4b40 effa 1140
00000120: 6adf 1440 7306 1140 b26d 2b40 2e03 3540
00000130: f359 f540 28a3 3e40 2425 1a40 86ab 2c40
00000140: a0c2 4740 f0ab 3240 69b7 4940 55b0 0d40
00000150: 8eca 0540 ac1b d140 3b67 dc3f a780 2840
00000160: 9d82 4140 aba7 fe3f 8120 2640 0dd2 4340
00000170: 285e 1f41 b6e6 4a41 b445 0c40 9b92 3240
00000180: 6cb0 4e40 0daa 0040 eb64 3440 077b 1140
00000190: 156c b540 6c25 5a40 c59d 3d40 c158 7340
000001a0: 3afb 1640 14b3 1841 8a9a f03f 1e5c 1841
000001b0: f113 0440 c622 e63f 7bc8 1640 eddb f440
000001c0: fe84 1040 4622 1440 e4bf 9740 03c7 2b40
000001d0: 760d 6040 eca0 4440 9f20 3040 fd04 e73f
3.0096216 2.1186965 2.248798 1.9394196 11.97976 2.640338 2.4279678 2.594933
4.0146313 2.1257057 2.0521586 1.9493521 2.2763882 2.3898177 2.548083 6.81831
1.9661638 1.929791 3.2457123 3.1432824 3.4597461 4.90078 2.79448 1.9501654
3.5324082 3.6945438 5.013448 2.3192866 2.6210403 2.3815296 1.6565232 7.9381485
2.5551422 3.6525128 3.282032 2.5199609 2.467113 2.5940895 2.0835555 2.3651261
1.7654074 7.155106 2.6037703 3.4220986 1.8919088 2.6447947 2.2386663 3.1079762
2.5658772 1.6142633 2.391 1.9437313 2.2131891 2.5710924 2.2847497 2.0037131
2.2267766 1.9650538 3.9720504 2.7364337 13.439041 4.379405 1.9821665 1.733867
3.6439335 2.6042264 2.3971074 10.172413 2.6580048 2.4985301 3.185472 2.2809408
2.326136 2.2660186 2.6785703 2.828319 7.66723 2.9787083 2.408517 2.697969
3.121254 2.7917442 3.1518195 2.2138875 2.090488 6.534628 1.7219003 2.6328523
3.023597 1.9894918 2.595734 3.0596955 9.960487 12.681326 2.1917543 2.790198
3.229518 2.010379 2.8186595 2.273134 5.6694436 3.408534 2.9627545 3.802292
2.3590837 9.54372 1.8797162 9.52249 2.0637171 1.7979362 2.3559864 7.6518464
2.2581172 2.314592 4.742174 2.6840217 3.5008216 3.072322 2.751991 1.8048397

fc2.weight f4 [100, 120]
00000000: 9c17 4bbd 3eea 00bd e536 b4bd 138d dabd
00000010: 2935 723c 1d65 603d 52fa e6bb a790 95be
00000020: b49a 823e 0fb0 433e 67f5 e1bd acf0 5ebd
00000030: 20c6 053e d779 8b3d 9003 4cbd 4a82 b3bd
00000040: 0f56 0fbe e464 61be 2faf e8bc 5a8d 883d
00000050: 9c8f 5cbe 3f88 6dbe 76b5 d63c bfbe 11bc
00000060: b58d 493e b8da 2dbe 2c1b fe3d 25c9 debd
00000070: 4dc5 b03d d90a 5f3e 4286 303e 574e 15bd
00000080: 3759 86bd cef0 8bbd 86bc 703b c63c 67bd
00000090: 140e 3cbe 2385 2c3d 3bd7 08bc 5526 45be
000000a0: b3b4 09be 0dc1 efbd 3500 a3be c798 323e
000000b0: cf96 07be 8df3 09bc 71e1 143c 5ad6 42bc
000000c0: 35dc 15be 78bc 0d3d 6134 6a3e bd92 32be
000000d0: 84fd b63e 0ff4 913e 600d b13d 84cc 703d
000000e0: 263f 68bd 0c70 a13c 7cbc 96bd 2d88 a4bd
000000f0: c570 6bbc e846 17be 1f97 b23d e653 0ebe
00000100: c30b e6bb ee92 033e f1b5 b8bd 38d9 b13d
00000110: 30d7 803e 1385 ea3c 3176 3c3e 7714 8dbe
00000120: 552c 8dbd 6575 c33d ae0c 443d 14b8 9b3c
00000130: a91d c6bd 9458 73be f577 38bd c90f 3c3d
00000140: a91b fabd 0f01 503e 2dfa 443d f329 18bd
00000150: 3dc0 c0bd 825f 68be 7c23 f43d 37d4 053c
00000160: 450c 16be 7142 32be cf37 1a3e 217b 86be
00000170: fedd bd3d 4d0e 783d a21d b23d 536a c53d
00000180: 8c24 19be 3529 423e ec8e c73e 839f 093e
00000190: 6e59 13bd 417d 8dbe e051 713d f5fb 09bd
000001a0: 4b49 31be a27d 453e 26d2 613d 43a0 68be
000001b0: 5ab8 b8be e8f2 91bc 5c4c 643e 10f2 a33d
000001c0: 8e7c 22bd 435b acbc 6d44 4c3e 7035 29be
000001d0: 507f cc3d 9694 79bd af78 893e 97a1 1cbe
000001e0: a508 093e 5820 133e 4a75 22bd 45a1 92bd
000001f0: 26db 1cbe 9e26 0bbe 7f9f d0bd 2a2c 083e
00000200: 6e23 633e 6b2a 463e 6111 833c c3b2 313a
00000210: f264 d33d 3889 01bd 215a 3b3e b3b5 1bbe
00000220: aee2 d0bc 9fe0 e53d 92bf af3d a904 b53d
00000230: b09f 99be ed8f 05be e903 debc 43be 13be
00000240: 7169 7a3d 74ad 443e 0219 99bc 6f08 043d
00000250: bfb0 663e dd7f 28be 200e 7b3e ffbf f6bd
00000260: f053 64be 432a d2bd 7d9f 5e3d 3330 94be
00000270: 80c4 b8bd e9ac febd 6c13 8d3d 72af 63be
00000280: a9cb 13be 497c febd ed67 f33e cb76 a2bd
00000290: b5eb 6e3d 5e25 143e d630 393d 19a8 d7ba
000002a0: 323e 4cbe c54a 13be ac4f bc3d d380 c73c
000002b0: 77ce 703d f5c8 8e3d ab26 663d 0b57 12be
000002c0: 7dc6 a73c de52 e93d 392c c6bd a686 1bbe
000002d0: adf0 1ebe 7004 f7bc dc9b 28be fb1e c0bd
000002e0: 336b 2c3e a32c d23d 9322 e0bd a45b 7f3e
000002f0: 4263 053e 3b1a 14be f8fd 84be 7bb0 003e
00000300: 1dd6 02bd bd48 893e dff3 493e da3d 6b3b
00000310: 248d 71bd 5569 a23e d000 81bd baa7 663d
00000320: bb6e 73bc 388d d0bc 2ba5 5b3d 4a1c e8bd
00000330: 1b38 bebd 6830 77bd 4acc c33c 36ef 713d
00000340: eea2 c0bd 4440 11be 2e5b 043e 91df 5b3e
00000350: 6b52 f0bd f4c0 1cbe c5ad 9bbd ebbb 883e
00000360: d59d 3abc 2f03 273d 871e 3fbd 2bc6 80bd
00000370: 59ba 283d 24fc 143e c9f5 213e ca13 acbb
00000380: aaf1 38bd 6082 e9bd 7a83 80bd fdd7 34bc
00000390: dc5d 343e 4a2e 39bb a6b3 073e 7492 31be
000003a0: 8f10 bdbd 7081 83bd 7d65 10be d90a 3e3e
000003b0: b9c6 133e 5f47 c2bc bcb6 e4bd 96af 6fbd
000003c0: 5f89 da3d 9696 873d 03b6 133f 74f4 5e3d
000003d0: 4a71 6ebd 25a1 b6bd 93b6 093b 8e02 eebe
000003e0: fa19 383e 091d 713e 4003 4fbe 1c78 93bc
000003f0: 4906 f3bd 7e90 0ebe 80a0 233e 391a 563d
-0.049583063 -0.03147339 -0.08799533 -0.10671439 0.014783182 0.05478393 -0.0070488835 -0.29211923
0.25508654 0.1911013 -0.11033135 -0.05442874 0.1306386 0.068103485 -0.049808085 -0.08765085
-0.13997672 -0.22011143 -0.028403847 0.06667586 -0.21539158 -0.23196505 0.026209574 -0.008895575
0.19682963 -0.16977966 0.124075264 -0.10878209 0.08631382 0.21781482 0.17238715 -0.036451664
-0.06559985 -0.06833039 0.0036733462 -0.056454442 -0.18364745 0.042119157 -0.008352096 -0.19252904
-0.13447838 -0.117067434 -0.31836095 0.17441092 -0.13241123 -0.008419883 0.009086953 -0.011891926
-0.14634784 0.034603566 0.22871543 -0.17438789 0.35740292 0.28506514 0.08645129 0.05878879
-0.056700848 0.019706748 -0.07360169 -0.08033786 -0.014370148 -0.14773142 0.0872023 -0.13899192
-0.007020445 0.12849018 -0.090190776 0.08684009 0.25164175 0.028627908 0.18404461 -0.27554676
-0.06893221 0.095438756 0.047863655 0.019008674 -0.09673626 -0.23764259 -0.045036275 0.04591349
-0.12212307 0.20312904 0.04809015 -0.03714938 -0.094116665 -0.22692683 0.119208306 0.008168272
-0.14653118 -0.17408158 0.15060352 -0.26265815 0.09270857 0.060560513 0.08697058 0.0963942
-0.14955348 0.18961032 0.38976228 0.13439755 -0.03597396 -0.27634624 0.058915973 -0.03368755
-0.17313115 0.19286206 0.055132054 -0.22717385 -0.3607815 -0.017816022 0.22294754 0.08005154
-0.039669566 -0.02103961 0.19947977 -0.16524291 0.099852204 -0.06093272 0.26849887 -0.15296017
0.13382204 0.14367807 -0.039662637 -0.07159666 -0.15317973 -0.1358895 -0.101866715 0.13298097
0.22181484 0.19352119 0.015999498 0.0006778652 0.10321988 -0.031625003 0.182961 -0.15206032
-0.025498714 0.11224484 0.08581461 0.088387795 -0.30004644 -0.13043185 -0.027101474 -0.14428048
0.061135713 0.19206792 -0.018688682 0.032234605 0.22528361 -0.16455026 0.24517107 -0.12048339
-0.22297645 -0.10261967 0.05435132 -0.28943023 -0.090218544 -0.12435324 0.0688847 -0.22234896
-0.14433159 -0.12426049 0.47540227 -0.07932814 0.058330256 0.1446738 0.04521259 -0.0016453295
-0.199456 -0.14383991 0.09194884 0.02435342 0.05879065 0.06971923 0.05618922 -0.14291017
0.020480389 0.11392759 -0.096764036 -0.15188083 -0.15521498 -0.030153483 -0.16465706 -0.09380909
0.16837768 0.1026242 -0.109440945 0.24937302 0.13026145 -0.14463131 -0.25975013 0.12567322
-0.031942476 0.26813307 0.19721936 0.003589502 -0.058972493 0.31720987 -0.06298983 0.0563123
-0.014857943 -0.025457963 0.053624313 -0.11333521 -0.09288045 -0.0603489 0.023901124 0.05906602
-0.09406076 -0.14184672 0.12925407 0.21472003 -0.1173447 -0.15307981 -0.07601503 0.2670587
-0.011390169 0.04077452 -0.046659973 -0.062877975 0.04119334 0.14549309 0.15816416 -0.0052513825
-0.045152344 -0.1140182 -0.06275077 -0.011037824 0.1761393 -0.002825635 0.13252124 -0.17341024
-0.09231674 -0.064211726 -0.14101215 0.18558826 0.14431275 -0.023715673 -0.11167666 -0.05851706
0.10670733 0.06620519 0.576996 0.054432347 -0.05821351 -0.08917455 0.0021013364 -0.46486324
0.1797866 0.23546232 -0.20216084 -0.018001609 -0.11866433 -0.13922307 0.15979195 0.0522711

fc2.bias f4 [100]
00000000: 66d8 b9bb db08 08bd 71f6 993d 0da7 37bd
00000010: 77b3 a6bd 6e22 65bd c6a5 a4bd 7c1c 03bc
00000020: bb16 4b3c 65d2 843b 47fb b13d 967f 53bd
00000030: 590c aabc bcfe a3bc 086b b4bc 5d05 1dbd
00000040: 72c0 223c 0f8e 33bd 8dce aabd d470 a03d
00000050: e2a3 6f3d eded 1b3d df14 a4bb 6d91 993d
00000060: 4285 af3d 43f4 5b3d 7244 75bd ade6 aabd
00000070: 1408 883d b7fa 233d 7c7e 4d3c 097f e4bc
00000080: 6bfd a2bd 78ea 61bd d6f5 12bd e8a4 a33d
00000090: 1183 56bd ac70 93bd 4437 383d 5211 253d
000000a0: e176 b2bc 1834 4ebb 97c3 9dbb b9ae b43d
000000b0: 677e dd3b d130 dd3c 1f53 88bc a8f1 373d
000000c0: 8920 883d dad9 5abd b82d 1fbd 3351 253d
000000d0: d7c3 ecbc 1910 a53d 4ddb ea3c 7ecc 00bb
000000e0: 0ace 7cbb 61fa 62bd 7f96 a43d 474f 4b3d
000000f0: caab 48bc 4b1f 58bd ae8c 753d 3a19 a63d
00000100: 9367 a73c 68c8 9b3d 08bd 8b3d 0ed8 1fbd
00000110: e88a babd 410b 7bbd 8b97 47bb ac24 69bd
00000120: e747 ac3d 9b86 a7bd e483 703d cbed afbd
00000130: 6bcb 76bd 09f8 7dbd 18c8 8cbd a53d 74bd
00000140: c9a8 163d e4d3 9dbd 529e 95bd 6d07 91bd
00000150: 68b0 d9bc 6645 c9bc 2197 4abd eacd fabc
00000160: 2894 2abb 9edb ebbb e8b4 06bd 96e5 ae3d
00000170: 87f2 f83c 323e c8bb f63c 66bd 72aa 9bbd
00000180: cc27 b93d 64a1 a03d e8d8 18bd 52ad 9abd
-0.0056715487 -0.03321157 0.07517708 -0.044837046 -0.08139699 -0.055941038 -0.08039431 -0.008002397
0.012395556 0.0040534013 0.086905055 -0.051635347 -0.020757841 -0.020018928 -0.022023693 -0.038335193
0.009933578 -0.04383665 -0.08340178 0.0783402 0.0585059 0.0380687 -0.005007371 0.07498441
0.08570339 0.053699743 -0.059879728 -0.08344779 0.06642166 0.040034022 0.012542363 -0.027892606
-0.07958492 -0.055155247 -0.03587898 0.07990438 -0.05237109 -0.07199225 0.04497458 0.04029972
-0.021785202 -0.0031464156 -0.004814576 0.08822388 0.006759453 0.027000817 -0.016641198 0.044908196
0.066468306 -0.053430416 -0.03886196 0.04036064 -0.028901977 0.08059711 0.028669024 -0.0019653137
-0.0038574957 -0.05541456 0.08036517 0.04963615 -0.012247989 -0.05276422 0.059948616 0.0811028
0.02043513 0.07606584 0.06823164 -0.039024405 -0.091085255 -0.06129003 -0.0030455317 -0.05691974
0.08412152 -0.08179971 0.05871953 -0.08590277 -0.06025259 -0.062004123 -0.06874102 -0.0596291
0.03678206 -0.077064306 -0.07305588 -0.070814945 -0.026573375 -0.024569225 -0.049460534 -0.030615766
-0.002602825 -0.0071978113 -0.03288737 0.08539884 0.030389084 -0.00611093 -0.05621048 -0.07600869
0.09040794 0.07843283 -0.037316233 -0.075525895

bn2.weight f4 [100]
00000000: 7454 983e a69b 053e 3a83 ce3f f97e d13f
00000010: 406a da3e 1c6a dc3f a425 273e 8500 643e
00000020: 8b0b 903d 08c3 c93f 901f d03f ba9f 1c3e
00000030: d808 1d3e 7c67 6a3c 5705 b33f 6fa7 c03f
00000040: 18a5 0b3e 9f01 193e 07dd 8c3e 8a5b 0040
00000050: 0f3f f93f 1829 e53f 21f7 033e b762 f53d
00000060: a97f 153e 6e17 1b3c d302 373e ceb2 873e
00000070: 41e7 2f3e c849 783e b147 a63d c790 323e
00000080: 1cdb 533e 666d 2a3e ee18 053e a83c 0340
00000090: 7c80 953e 39c9 dc3f 2941 0040 4c91 e13e
000000a0: 8e9c 2f3f d014 543e 31ab bb3f e5bf 6a3e
000000b0: 24c0 d23f 49ba 3c3e 3982 df3f 29eb 193f
000000c0: 5b6e 0040 50cd 593d 1034 783d 3de1 e73f
000000d0: b1cc 643e bb59 b03e c608 f13e ef94 ee3f
000000e0: 406a f3bc f232 273e 8aef e13f c1c8 ff3f
000000f0: 9a19 b73f 11a6 043f 5838 f33f 9e0f 963e
00000100: 53b1 693e 686a d13f 234f ca3f e9fb 0f40
00000110: 2cb6 993e 2e40 2e3f 6b39 023e dd0e 0240
00000120: 44d2 b23e 6184 013f 541a f63f 4592 ca3e
00000130: cf3f 003f 1f73 e73e 1abd c23f ae24 b73e
00000140: c0d7 68bd 39fb 5a3e a738 5a3e bd32 1d3e
00000150: 857e d73d 9493 7d3d fdcc f43f 9e82 c63f
00000160: 1084 173e b82a 053e 57cc 533e a201 f13d
00000170: 3b00 273e 044e d63e b2bd 323e ac03 bb3e
00000180: 9414 693e 4272 d2bc 5632 e1bc 0c7e 473e
0.29751933 0.13047656 1.6133797 1.6366874 0.42659187 1.7219882 0.16322953 0.22265823
0.07033452 1.5762644 1.6259632 0.15295306 0.15335405 0.014306899 1.3986005 1.5051097
0.13637197 0.14942025 0.2751238 2.005587 1.9472369 1.7903166 0.12887241 0.11981719
0.1459948 0.009466035 0.17872171 0.26503605 0.1717806 0.24246895 0.08119143 0.1743804
0.20689052 0.16643295 0.12997791 2.0505772 0.29199588 1.7248908 2.003977 0.44056165
0.6859826 0.20711064 1.4661618 0.22924764 1.6464887 0.18430437 1.7461616 0.6012445
2.0067356 0.053174317 0.060596526 1.8115612 0.22343709 0.3444346 0.47077006 1.8639201
-0.02971375 0.16328028 1.7651227 1.998314 1.4304688 0.518159 1.900157 0.2930879
0.2282155 1.6360598 1.5805401 2.2497504 0.300218 0.6806668 0.12717216 2.0321572
0.34926045 0.5059262 1.9226785 0.3956472 0.50097364 0.45205018 1.5213959 0.35770172
-0.05684638 0.21384896 0.21310674 0.15351386 0.105221786 0.06190832 1.9125057 1.5508611
0.14796472 0.13004577 0.20683418 0.117678896 0.16308682 0.41856396 0.17455176 0.3652624
0.22761756 -0.025689248 -0.027489822 0.19481677

bn2.bias f4 [100]
00000000: bdf6 04be c0f1 4b3d 2bb7 97bf e4b2 903f
00000010: 6402 193e a8a7 a63f e60a d439 bca9 b5bd
00000020: f130 aa3d 278e a4bf 1c28 94bf 8890 86bd
00000030: 5346 ec3d d97f d7bd 0948 70bf fb5a 81bf
00000040: 73f8 2a3d f13c 013e 1878 b23d d7fc ad3f
00000050: a9a2 b1bf 5580 9cbf 741e 98bc d576 6d3c
00000060: b0cb e13c e368 7cbd de25 30bd 0bd6 23bd
00000070: 50ec 013e ee91 6dbc 335b 4dbd 6c0b b23c
00000080: 6e34 823c f7ed 373d 51d5 8cbd ef2f b23f
00000090: f0c7 193e ba86 a2bf 09a9 bdbf 72cb bebe
000000a0: 5acd ccbe 90b3 8a3c 793c 8cbf 530e c23a
000000b0: b3c3 943f 90b1 523c cc61 a13f a7b4 9bbd
000000c0: 17a6 af3f 200d f03d 401b 74bd 7479 aa3f
000000d0: 77a4 ec3c f2da f93d 48f5 92be b641 98bf
000000e0: 01f2 1fbd 5a5e 69bc d3c5 a3bf 7ab0 b93f
000000f0: 9756 893f e3fb 14be 2683 b63f abd8 ac3d
00000100: f634 e13d a5db a3bf b65e 9cbf 8f81 bfbf
00000110: 5c8d 1cbe cc6b b9be 9254 733d f2d7 ad3f
00000120: 61f4 57bd 5e4e 513e 10e4 a23f 5c2b 06be
00000130: 32e2 05be 01e4 a6be ad8e 6e3f e4dc c5be
00000140: a662 253c 783a 12bd 2628 a63d 0f0d 5fbd
00000150: 9504 b9bd e36f 11bc 4ddb a53f 447d 893f
00000160: 5ef5 bcb9 17bd 76bd 07ac 1ebd da4a 0cbe
00000170: 65df 80bc 2842 d13e 1692 2f3d 8b99 3dbe
00000180: ab68 26be 0e96 e43d 412d a03d 491c 043d
-0.12984748 0.049791098 -1.1852773 1.1304593 0.14942318 1.3019915 0.0004044391 -0.08870265
0.08310116 -1.2855881 -1.157474 -0.06570536 0.11536851 -0.10522432 -0.93859917 -1.010589
0.041740846 0.12620904 0.08714312 1.3592786 -1.3877765 -1.2226664 -0.018569209 0.014493664
0.027562946 -0.061623465 -0.043004863 -0.03999905 0.12687802 -0.014500124 -0.050135802 0.021733962
0.015894141 0.044904675 -0.068766244 1.3920878 0.15017676 -1.2697365 -1.481721 -0.3726459
-0.4000042 0.016931325 -1.0955955 0.0014805294 1.1622223 0.012859717 1.260797 -0.07602816
1.3722562 0.117212534 -0.0595963 1.3318315 0.028887017 0.12199964 -0.2870276 -1.1895053
-0.039049152 -0.014243687 -1.2794746 1.4506981 1.072955 -0.14549212 1.4258773 0.08439764
0.109964296 -1.2801405 -1.2216403 -1.4961413 -0.152883 -0.36215055 0.059406824 1.3581526
-0.052723292 0.20440051 1.2725849 -0.13102478 -0.13074568 -0.32595828 0.93186456 -0.3864509
0.01009432 -0.03570029 0.081131265 -0.054455813 -0.09034077 -0.0088767735 1.295755 1.0741353
-0.00036040967 -0.060238924 -0.038738277 -0.13700429 -0.015731523 0.40870786 0.042863928 -0.18515603
-0.16250865 0.11161433 0.078211315 0.032253537

bn2.running_mean f4 [100]
00000000: 72c6 6e3f 0865 35bf 1859 debf c54f d13f
00000010: 974a acbd 6fb9 f93f 6e27 a0bc ef0d 833f
00000020: 7a48 6a3f ac2c a9bf 9b8b d1bf 183d 2d3f
00000030: ab17 7cbf a57d 703f 96fc 74bf c3e4 01c0
00000040: 637f 90be 2f5a afbf 6a57 9cbf 613c 0240
00000050: 1b88 2bc0 a66a 35c0 b435 d1be b393 87bf
00000060: f9ee 073f b09d 32bf bc3e c0be 7d83 f3be
00000070: 4493 0fbf 2c29 4b3f 2c0f 03bf c256 a23e
00000080: 806d a2be b30f 463e dad0 453e 3877 2d40
00000090: b7bb da3e 27ee 37bf 8451 d3bf 3ffd edbf
000000a0: 6ed4 0abf 73cd 8dbe 0a81 a4bf bd3c 90bf
000000b0: 1559 ad3f f80c 833e dec5 f23f 2f9c 44bf
000000c0: 9f37 1940 54be aabf 1615 a33e 8516 683f
000000d0: 41ea f2be 1122 24bf d4fd 94bf e1ad e3bf
000000e0: adb5 d93d e050 b5bf bed4 98bd a214 e03f
000000f0: 73d4 d63f 8270 c23e c651 1940 1444 2abf
00000100: 3598 29bf 932a 40bf 2520 89bf 301e 0fc0
00000110: c411 f43e 3441 bcbd cd2b aabe f1ef 1940
00000120: 0e39 ac3c 37f9 a83f c6de d53f 5ecc 0a3c
00000130: 56c2 ce3d d027 c4bf f323 a63f aeaf 95bf
00000140: 2dfc ec3e dc85 89be 5d2a 35bf a4e7 1c3f
00000150: 1b92 0abe aaf6 33be dcfa 1140 443d a43f
00000160: c28b 1bbf 3c14 8d3e c243 063e 6a73 8dbe
00000170: 85d9 7d3f 803f d23f 0226 af3f 3be2 a7bf
00000180: d6da 98be d35e 1abf dcaf 1ebf e1bc 77bf
0.93271554 -0.70857286 -1.7370939 1.6352469 -0.084126644 1.9509715 -0.019550052 1.0238627
0.9151684 -1.3216758 -1.6370729 0.67671347 -0.98473614 0.9394172 -0.95697916 -2.0295875
-0.28222188 -1.3699397 -1.2214177 2.0349352 -2.6801822 -2.8346343 -0.40861285 -1.0591949
0.5309902 -0.6977186 -0.37547863 -0.47561255 -0.56084085 0.793597 -0.51195025 0.31706816
-0.31724167 0.19341926 0.19317952 2.7104015 0.4272134 -0.71847767 -1.6509252 -1.859291
-0.5423039 -0.27695808 -1.285188 -1.1268536 1.3542811 0.25595832 1.8966634 -0.7680082
2.3940198 -1.3339334 0.31852025 0.9065936 -0.47444347 -0.6411448 -1.1639962 -1.7787439
0.10630355 -1.4165306 -0.07462452 1.7506297 1.6783584 0.37976462 2.395616 -0.6651013
-0.66247874 -0.75064963 -1.0712935 -2.2362175 0.47669804 -0.09192124 -0.33236542 2.4052699
0.0210233 1.3201054 1.670861 0.0084715765 0.100956604 -1.532465 1.2979721 -1.1694238
0.46286145 -0.2685994 -0.70767766 0.61290956 -0.13532297 -0.17574564 2.2809362 1.2831197
-0.6076013 0.275545 0.13111785 -0.27627116 0.99160033 1.6425629 1.3683474 -1.3115915
-0.2985446 -0.6030094 -0.6198709 -0.9677258

bn2.running_var f4 [100]
00000000: 8288 c240 e962 4240 9de3 ea41 7ca0 6c41
00000010: 6c30 a240 da5a ae41 af4f 4440 3015 a840
00000020: 23b3 7940 1048 8341 9696 bf41 a5eb 3240
00000030: 85e5 8240 25b3 5c40 2045 3541 7033 3f41
00000040: 133e 1040 e2eb 8c40 cb8d 8640 c659 7641
00000050: 611a c141 bb06 a441 24a1 2440 1ada 6240
00000060: dc93 4440 6177 3040 cdcc 3740 ebd7 be40
00000070: df78 8040 0430 7140 a06c 4c40 8cce 5440
00000080: c38c 1c40 903f 5e40 5066 a840 96ba 9c41
00000090: cf8c 8d40 11de c641 d482 da41 03d5 5c41
000000a0: 2ab6 2b41 3bce 3b40 80ce 4941 429e a740
000000b0: de9a 7241 d057 5f40 f09e 4f41 e4b6 4541
000000c0: 32c6 b841 769a 1e40 cb28 1e40 a1f1 3741
000000d0: c1ab a540 355a a340 b6e6 df40 6dd0 5541
000000e0: 60a4 3640 207f e33f db35 9441 ef26 0942
000000f0: 8bea 5541 b592 2441 c562 e741 8dd4 d240
00000100: 8488 ca40 6484 4a41 8843 3d41 5841 c641
00000110: 2b84 d040 37a9 3f41 3ce5 3740 d5de 8341
00000120: 990d d040 46e0 cb40 e5a5 9e41 0bc6 b840
00000130: b308 2941 6bf6 ca40 d96b 1c41 53c0 0241
00000140: d373 6040 7e62 1a40 2735 1b40 bb24 3f40
00000150: 3bed 3140 a9d6 2840 43a9 f241 30fe 3841
00000160: b4ea 4840 9b0c 5040 742f 9540 fddd 4340
00000170: df63 1340 cd8c 2641 d061 f33f d3a1 ce40
00000180: d44f b440 3dc5 0740 c75d 0040 35a4 2840
6.0791636 3.037287 29.36114 14.789181 5.068411 21.794361 3.0673635 5.2525864
3.9015586 16.410187 23.948528 2.7956326 4.0905175 3.448434 11.329376 11.950058
2.2537887 4.4037943 4.2048087 15.396917 24.13788 20.503286 2.5723352 3.5445619
3.0715246 2.7572863 2.871875 5.963857 4.014755 3.7685556 3.19413 3.3251066
2.4460914 3.4726295 5.2624893 19.591106 4.4234385 24.85843 27.31388 13.802005
10.731974 2.9344623 12.612915 5.2380686 15.162809 3.4897346 12.976303 12.357151
23.096775 2.4781775 2.4712398 11.496491 5.177216 5.1047616 6.996913 13.363385
2.8537827 1.777317 18.526297 34.28802 13.369761 10.285817 28.923227 6.588446
6.3291645 12.657322 11.828987 24.781906 6.516134 11.978812 2.8733664 16.483805
6.50166 6.371127 19.831003 5.774175 10.564624 6.3425803 9.77633 8.171954
3.5070693 2.4122615 2.4251192 2.9866168 2.7801044 2.6381018 30.332647 11.5620575
3.1393251 3.2507694 4.6620426 3.060424 2.3029706 10.409375 1.9014225 6.457254
5.6347446 2.1214135 2.0057237 2.6350224

fc3.weight f4 [46, 100]
00000000: 27fc c1bd 4c9c 793d b1e0 e2ba 21f7 26bc
00000010: 6373 cabd fac8 433c bfcf abbd 2d53 1f3b
00000020: 326d 123d 99dc 2b3c 699e 63bb cb5e babd
00000030: 4d90 743c c880 583d 00d6 503c d086 bcbc
00000040: 2d30 48bd c843 3cbc dd81 273c 9d45 9abc
00000050: dee8 c13c 1495 c93b ef62 643d 98ae 81bc
00000060: e705 693d 4a1a b6bc 96b2 2d3d 8499 a9bc
00000070: 439d 383d 874d 59bd db00 32be b801 6a3c
00000080: 2a03 0b3c 20ea 413d 9695 253d a1e4 2f3a
00000090: 0464 223d 6981 9bba 43e4 dabc 760f d4bd
000000a0: 7939 07bd d711 f7bb ed8f 843c d6e1 3e3d
000000b0: 8efc 863c ca29 523d 0794 a8bc 91db ef3c
000000c0: 694c c43b 2300 7a3d 0b09 cabc 0f73 333b
000000d0: 88a8 a23d 8029 bd3c 9104 7ebd 14ee d33a
000000e0: 6246 8a3d 3c92 ca3d 3a10 6b3c a42a 713b
000000f0: f8d9 a93b b494 293a 32d3 25bf d926 b83b
00000100: db1d 1a3d d1ac 1b3a 8db0 093b 8b59 78bc
00000110: 706a 7d3d 14be 90bd 1666 493c 8a55 88bb
00000120: d31b 00be f8eb 8b3d c69c 0ebc 1eb7 92bc
00000130: 956e b1bd 7a86 ebbc 891e 6bbc 169d bdbd
00000140: 4c5b 42bd 2fc2 9d3b 4287 73bb 4c0d 063e
00000150: 34d4 d1bd d297 383c fd7d 0fbd e0a7 703b
00000160: 9b24 8abc 42fa 013d aece adbd 73a4 9e3b
00000170: 6f7c 2bbd 9b0b 1a3e 14bc 34bd e2d9 96bd
00000180: ba50 8a3c 2218 32bc 7179 99ba 727a 13be
00000190: 3423 09bd d112 c03d 4b0f 4bbc 350e 17bb
000001a0: 31a8 ca3c dbcc 933b 0389 96bd a81b c5bd
000001b0: d79d 953d 59a7 923c 6c34 2dbc 0c67 6e3c
000001c0: 39f4 833d e16e 5fbd ee5b 02bb ad03 b4bc
000001d0: cce3 14bc 75a0 fb3d 7001 ac3d 046b e03c
000001e0: 015f e33c 5feb 3fba a7f3 d5bb 1e21 4ebd
000001f0: fe03 84bd 89ed 70bd 14ef 08bc 84de 3fbd
00000200: 63e0 0fbd d916 083d 1e9e 253d 61ba 92bc
00000210: 0342 a43d d4d0 8ebc 3ac7 8bbc 5d4d 0bbc
00000220: ebca 553d 9c24 e33c 9f6b 61bc 2f4b f7bc
00000230: 5654 47bb 2844 963d 0fc1 9ebc 97dd 243d
00000240: 16c7 51bc 9e6a e2bd c845 143b 4e44 01bc
00000250: b8e6 d2bc 457a d13b e93b e2bc 7b1d 7c3c
00000260: 40e3 16bd 1f6b 45bd 1eea 52bc dc91 a23b
00000270: 595e f1bc 8ac6 32bd 33da 27bd 9610 b73c
00000280: d95a d73c 072e 04be bd4d 21bf a22b 903c
00000290: cd50 4dbd bf6c b43c 0f50 8cbc 14a5 f23b
000002a0: c074 bebc 39da efbc 5b7d b2ba 0989 9dbb
000002b0: 97ed 1e3e d78a c43c 3147 123c f92c 14bd
000002c0: 6096 f3bb ef8b b8bc d1ae c13c f454 83bb
000002d0: f084 03bc 2acc 62bd 2892 ba3d ef8e 6cbc
000002e0: 9572 a139 e56f 9fbd 251f c639 50c0 a2bb
000002f0: 5cf7 803d 34d1 b33c 90bc c63d 68e4 69bc
00000300: 243e f4bc e7c2 f33b c0b7 ad3c 167e cfbb
00000310: 4be5 d9bd 2f58 a93d 6b3f 0cbd af11 933c
00000320: f460 f5bc 97b4 783c cd92 0b3d 1aea ca3c
00000330: fe0b 8ebc 7579 33bd c326 213d 7ed6 9ebd
00000340: 941f 713d 3631 0e3b 02a1 efba 5017 9d3c
00000350: 95cf f1bb feec 09be d358 b0ba 10cb 243c
00000360: fc2a b63d 540d 0abc 3835 56bd 20df 9c3b
00000370: 9412 1d3c 1d68 753b eb6a 463c 9ef1 7abc
00000380: 01a8 5abd 5a0e 32bd 01bb 3abd ace5 b8bd
00000390: 53d4 86bd 0ef2 df3b f6cd f1bc 08dc c23c
000003a0: eb51 01bd f862 12bd 36f8 f9bb 64ec d93a
000003b0: bae2 a03d 7389 cebb 424b 243d 4b61 2b3d
000003c0: ae8d 3d3c f50a 06bd af82 373f 1e9a 733d
000003d0: 8dbf c53b a119 d1bd 077e 04bc 4c16 a3bd
000003e0: d2ca 9aba 71b4 263d 7bc1 ff39 8cc8 abbc
000003f0: 5252 8e3d cd5d 56bc a7a1 25bd 978e 70bc
-0.09471922 0.060940072 -0.0017309395 -0.010190756 -0.098852895 0.011949772 -0.08389234 0.0024311051
0.035748668 0.010489606 -0.003473187 -0.091001116 0.014926982 0.05285719 0.012746334 -0.023013502
-0.04887407 -0.01149077 0.010223833 -0.018832022 0.02367061 0.0061518047 0.055758413 -0.015830323
0.056890395 -0.022229332 0.04240664 -0.020703085 0.04507185 -0.05305245 -0.17383139 0.014282636
0.008484641 0.04734242 0.04042586 0.00067097886 0.039646164 -0.0011864129 -0.026720172 -0.103545114
-0.033013795 -0.0075399685 0.01618191 0.046602093 0.01647785 0.051309384 -0.020578397 0.029279502
0.005990554 0.061035287 -0.024662515 0.0027381813 0.07942301 0.023091078 -0.062016074 0.0016168975
0.06751706 0.09891173 0.01434713 0.0036799097 0.0051834546 0.0006468997 -0.64775383 0.0056198654
0.03762613 0.00059385324 0.0021009773 -0.015158067 0.061869085 -0.070675045 0.012292406 -0.0041605877
-0.12510614 0.06832117 -0.00870437 -0.017909583 -0.0866367 -0.028750647 -0.014350542 -0.092584774
-0.04745035 0.0048144083 -0.0037159477 0.1309101 -0.10245553 0.0112666655 -0.03503226 0.0036721155
-0.016863158 0.031732805 -0.08486687 0.004841381 -0.041866716 0.1504349 -0.044124678 -0.073657766
0.016884197 -0.0108700115 -0.0011709166 -0.14402178 -0.033480838 0.09378589 -0.012393783 -0.002304924
0.024738403 0.0045105047 -0.07350352 -0.09624416 0.07305496 0.017902063 -0.01057158 0.0145509355
0.06443066 -0.0545491 -0.001989122 -0.021974409 -0.009087514 0.12286464 0.08398712 0.027394779
0.027755262 -0.0007321145 -0.0065292898 -0.05032455 -0.06446074 -0.05882028 -0.008357782 -0.046843067
-0.0351261 0.033224914 0.040433995 -0.017911138 0.08020403 -0.017433561 -0.017062772 -0.008502332
0.05219547 0.027727418 -0.013758569 -0.030187218 -0.0030415258 0.073372185 -0.019379167 0.040250387
-0.012803813 -0.11055492 0.00226246 -0.00788982 -0.02574478 0.0063927495 -0.027616458 0.015387888
-0.036837816 -0.04819786 -0.012873201 0.0049612354 -0.029463934 -0.043646373 -0.040979575 0.022346776
0.026288437 -0.12908183 -0.63009244 0.01759893 -0.050125886 0.02202451 -0.017128019 0.0074049328
-0.02324903 -0.029278861 -0.0013617681 -0.0048075956 0.15520321 0.023991985 0.008928106 -0.0361757
-0.0074336976 -0.022527663 0.02364293 -0.00400793 -0.0080273 -0.055370487 0.09109908 -0.014438375
0.00030793683 -0.07785014 0.00037788707 -0.004966773 0.0629718 0.021950342 0.09703934 -0.014275648
-0.029814787 0.0074390057 0.021205783 -0.0063321693 -0.10639437 0.08268773 -0.034240168 0.017952768
-0.029953457 0.015179775 0.034075547 0.024769831 -0.017339703 -0.043817002 0.039343607 -0.07755755
0.058868006 0.0021696812 -0.0018282237 0.019176155 -0.007379482 -0.13469312 -0.0013454206 0.0100581795
0.08894917 -0.008426029 -0.052296847 0.0047873408 0.009586949 0.003744609 0.012110452 -0.015316395
-0.053382877 -0.043470718 -0.045588497 -0.090281814 -0.065834664 0.006834275 -0.029517155 0.02378656
-0.031572264 -0.035738915 -0.007628466 0.0016626236 0.07855745 -0.0063030063 0.040110834 0.041840833
0.011569424 -0.032725293 0.7168378 0.05947315 0.0060347975 -0.102099665 -0.008086688 -0.07963237
-0.0011809713 0.040699426 0.00048781544 -0.020969652 0.06949295 -0.013083887 -0.040437367 -0.014682434

fc3.bias f4 [46]
00000000: 68f3 be3e 2142 b93e 7a14 cd3e 9fe1 bd3e
00000010: 0db9 d33e 36e1 df3e 67c6 c13e 376d c33e
00000020: 0ffb 993e 0bc6 b63e ccb8 b73e b071 bb3e
00000030: bcf9 dd3e 243d d23e 921f de3e 0db9 c73e
00000040: 68ec bd3e ec71 be3e 2bfc e13e 17d9 ea3e
00000050: db84 aa3e ff80 8e3e 64fc e73e f61e a93e
00000060: a49f f03e 1036 c63e ab6e cc3e 874f 8b3e
00000070: b4ce ab3e 7d66 ea3e 3b10 853e 71fc b13e
00000080: f1cf ec3e 8a48 853e e5ad 9f3e 7e7f a63e
00000090: de47 ce3e b133 bb3e c508 9d3e 988e ac3e
000000a0: d248 ce3e 665d 883e b71e a63e 46c1 d13e
000000b0: e3d8 683e 0f46 883e
0.3729508 0.36183265 0.40054685 0.37086198 0.4135212 0.4372651 0.3784668 0.38169262
0.30074355 0.3569797 0.35883176 0.36610174 0.43354595 0.41062272 0.4338346 0.3900837
0.37094426 0.3719629 0.441377 0.4586875 0.33304486 0.2783279 0.45309746 0.33031434
0.46996796 0.3871312 0.39928183 0.27209112 0.3355614 0.45781317 0.25988945 0.3476291
0.46252397 0.26031905 0.31187358 0.32519144 0.40289205 0.36562875 0.30670753 0.3370254
0.40289932 0.26633757 0.3244531 0.40967768 0.22738986 0.2661595
