mp4-machine-learning-template/model/model.pth (torch, 89342 bytes, 14 tensors)

fc1.weight f4 [120, 51]
000000 9c c3 50 bd 8a 37 60 3d e6 0b fb 3e 7e 57 d6 3e
       -0.050967798 0.054740466 0.49032515 0.41863626
000010 60 de 24 3d 06 43 4d 3e 04 44 6d be 60 c7 df 3c
       0.040251136 0.20045099 -0.23170477 0.02731675
000020 60 2a 9b 3e 3d 39 34 be ff 6f c4 bd d0 8c f7 bd
       0.30305767 -0.1759996 -0.09591674 -0.12087405
000030 16 fe 37 3e a7 d6 83 be 5b fe b2 be 05 46 61 be
       0.1796802 -0.25749704 -0.34959683 -0.21999367
000040 ee df 3a 3e 19 0c f7 bd 1b 94 f0 bc ab 06 be bd
       0.18249485 -0.12062854 -0.029367497 -0.092786156
000050 61 a3 b6 be 2c ad 1d 3e 7f 00 0f 3e fb ef 32 be
       -0.35671523 0.15398091 0.13965033 -0.17474358
000060 5a d2 1c be 11 00 cf be 5c 8c d2 be ef 4a ae 3d
       -0.15314618 -0.40429738 -0.4112271 0.08510386
000070 45 24 8a bd 46 47 9d be 3d d9 64 bc 4e 69 80 be
       -0.06745199 -0.3071844 -0.013967809 -0.2508034
000080 04 fb 30 be fc 59 17 3e 50 8b cf 3d 02 e2 f1 3d
       -0.17283255 0.1478042 0.101339936 0.11810686
000090 0c 21 5f bd f6 23 72 bd 80 98 88 3d 39 a5 0b bd
       -0.054474875 -0.059116326 0.06669712 -0.034093115
0000a0 d9 ba 5c be 19 90 85 3e 9e 77 ae 3e 8e ca b5 3e
       -0.21555652 0.260865 0.34075636 0.355061
0000b0 15 c8 66 be 6e 37 89 be ad bf e4 3d 0e 90 a7 bd
       -0.22537263 -0.26800102 0.11169372 -0.08181773
0000c0 fa 30 2d 3c 04 68 0a be 60 45 d0 bc 0f 56 30 be
       0.010570759 -0.13516241 -0.025423706 -0.17220329
0000d0 db 66 af bd 0c a1 62 3e 71 3e 0c 3e 22 5d 23 be
       -0.0856454 0.22131747 0.13695695 -0.15953496
0000e0 a2 eb 8e bb e4 b5 94 be 52 8a a1 be 90 2f 05 bd
       -0.0043615857 -0.29045022 -0.31550843 -0.032516062
0000f0 33 3c 73 bd 80 e8 15 be 5e 54 d9 3c c7 45 8b be
       -0.059383582 -0.14639473 0.026529487 -0.27201673
000100 5f 93 c8 3d ff 28 51 3c cc cf 42 bd 81 87 07 3e
       0.09793734 0.012766122 -0.04756145 0.13235284
000110 1c d6 fa bc c5 c2 20 3d df c8 20 be 71 b8 cc 3d
       -0.030619673 0.039248247 -0.15701626 0.09996117
000120 04 1d 85 3e 55 f1 13 3d 19 85 15 bf 49 69 05 3e
       0.259987 0.036118824 -0.58406216 0.13028444
000130 7e a5 64 bd 0b 16 e7 bd 29 2a b7 be a8 dd 7c bc
       -0.05582189 -0.11283501 -0.35774353 -0.015433706
000140 da 40 95 3d 85 0b 8a 3e db 0b 27 bf 50 12 e2 ba
       0.0728776 0.26961914 -0.65252465 -0.0017247889
000150 ec d4 9b be f1 3d dd bd 27 04 b9 bd c2 5c f2 3d
       -0.30435884 -0.1080283 -0.09033995 0.118340984
000160 20 bf 3c be 6c 6a f7 bd e1 5a 43 3e 5b 6a 68 bd
       -0.18432283 -0.12080845 0.19077636 -0.056742053
000170 19 00 ef 3e 4e 6f 65 be 2e 9c 43 be 9d b3 bc 3c
       0.46679762 -0.2240574 -0.19102547 0.023034865
000180 a3 a3 00 3e 12 09 53 3b fa a3 1c 3e 7e aa a6 be
       0.12562422 0.0032201451 0.15296927 -0.3255195
000190 f2 a9 a5 3d 2d c3 01 3e 48 6b fe 3c 51 a5 13 3e
       0.08089055 0.1267211 0.031057015 0.14418532
0001a0 68 0b ec bd 9b 50 9d 3d 7a 93 23 3e ba a5 82 3c
       -0.11525613 0.0768139 0.15974227 0.015948165
0001b0 b5 61 a6 bb 96 50 f7 bd 50 19 89 3e bb 7a 65 3e
       -0.0050775656 -0.120759174 0.26777124 0.22410099
0001c0 45 d7 65 be a8 1f a1 3e 3b 10 9d be 17 05 1f 3f
       -0.224454 0.31469464 -0.30676445 0.6211714
0001d0 29 1b 25 bc bb f5 b2 3e 78 c5 2d 3e 1c 99 d7 bd
       -0.010077276 0.34953102 0.1696986 -0.1052725
0001e0 15 6f ce 3b 93 7d c4 3e d3 f3 28 3e e6 ce bc 3e
       0.006299863 0.38377056 0.16499262 0.368766
0001f0 76 65 c4 be d9 ae 11 bf 2d d2 29 bd f9 9e 94 3d
       -0.3835866 -0.5690742 -0.041460205 0.07256884
000200 69 e1 4e 3d 3a 60 b5 be df 86 be bd 6b 23 d4 be
       0.050507937 -0.35424978 -0.09303068 -0.41433272
000210 65 66 0b bd fe a2 8a 3e 8f b2 c9 3c 77 4e 1e 3e
       -0.034033198 0.27077478 0.024621276 0.1545962
000220 cb 98 1a be 4e 40 9c be 47 e8 09 be d0 9d ed 3d
       -0.15097348 -0.3051781 -0.13467513 0.11602366
000230 3e 26 c6 bd 8a c4 ff bd dd f0 7b be 0f 44 e5 3c
       -0.09675263 -0.12488659 -0.24603601 0.027986554
000240 43 41 61 3e 3f 25 59 3c 5f 68 06 3e 1b d0 aa 3e
       0.21997552 0.013253509 0.13125752 0.33361897
000250 b2 87 8d bd ce f3 07 bc 0b 63 d6 3c b6 59 5f 3e
       -0.069106475 -0.008297874 0.026170274 0.21811566
000260 84 c8 80 bd 6f 60 68 3e f9 a3 ea 3d dd a9 07 be
       -0.06288245 0.22693036 0.114570566 -0.13248391
000270 ff c3 b6 be 67 ac 04 bd eb 05 32 be 4b 5b dd 3d
       -0.35696408 -0.03239098 -0.1738507 0.108084284
000280 f8 7f 39 be f2 68 63 bd 4b d3 81 3e 7b 61 b9 bd
       -0.18115222 -0.055520006 0.25356516 -0.09051796
000290 28 74 5d 3e 89 1a 94 be 6a 14 b2 3d 5c dd b3 3d
       0.21626341 -0.28926495 0.086953 0.08782455
0002a0 ec 1b b0 3d 54 8d 8c be c6 da b6 3b cf 5f 11 be
       0.08599076 -0.27451575 0.005580279 -0.14196704
0002b0 d6 bc c2 3e 1f 04 9e be fb 0c fa 3d 4c 65 1d 3e
       0.38034695 -0.3086252 0.12209507 0.15370673
0002c0 d8 cb 61 be 3c 9f 9b bd 5f b2 2b 3e c3 f2 38 be
       -0.22050416 -0.07598731 0.16767262 -0.18061356
0002d0 c8 0a ad 3e a2 be 02 be 31 d2 88 3e 78 f5 0d be
       0.33797288 -0.12768033 0.26722863 -0.1386317
0002e0 66 eb e4 be 4d a8 60 be c8 8b ea be 7c ef c8 3b
       -0.44710845 -0.21939202 -0.4580977 0.0061320644
0002f0 fd d8 16 bf 90 72 3c be 8b 9a 59 bd 67 c4 28 be
       -0.5892485 -0.18403077 -0.0531259 -0.16481172
000300 c5 8c 9b 3e 6f 0f 4e bd c8 88 0c 3e 5b 14 60 3d
       0.30380836 -0.050307687 0.13724053 0.054706912
000310 73 35 2f bd bc c0 ba bd 66 6c 50 bd 71 a0 05 be
       -0.042775583 -0.091187924 -0.050884627 -0.13049485
000320 b1 72 81 bc 62 a0 29 be ec 27 0a 3e c0 94 96 3e
       -0.01580176 -0.16565087 0.13491791 0.29410362
000330 4d 86 da 3d 69 d3 5c bd 91 79 3f 3e f3 0b a3 3e
       0.10670147 -0.053912554 0.18698718 0.31845054
000340 52 a6 48 be 51 69 fa bd 52 58 f8 bd 2b ca b2 3e
       -0.19594696 -0.12227119 -0.12126221 0.34919867
000350 ce 08 9c bd f0 2a c3 3c 67 ee 6e bd a0 b7 07 3d
       -0.07618867 0.023824185 -0.058332827 0.033134103
000360 c9 7d 72 be fb de cd be 04 d7 4e be 5d c4 46 be
       -0.23680796 -0.40209183 -0.2019921 -0.19410844
000370 15 17 85 be f8 4d 0a 3e 12 8a 92 be 3b 32 28 be
       -0.25994173 0.13506305 -0.28620964 -0.16425411
000380 bd a2 c8 3c bb 33 7f 3e 6f d7 f8 bd ad 4a 2a 3f
       0.024491662 0.24922077 -0.12150466 0.66520196
000390 b2 4c 49 3e ba e9 25 3f ad fe cb 3e 35 2a 0e be
       0.19658163 0.64809763 0.3984274 -0.13883288
0003a0 bd a6 4e be e0 2b f0 bd f9 6f da b9 25 b3 2c 3d
       -0.20180793 -0.117271185 -0.00041663626 0.042163033
0003b0 c5 fa 1a 3e 3d de 0d 3e 0d c5 05 3e 08 ba 83 3e
       0.15134723 0.13854308 0.1306345 0.25727868
0003c0 b6 87 0c 3e a2 c6 7d bd 06 94 42 be 1e 40 ab 3c
       0.13723645 -0.06195701 -0.19001779 0.020904597
0003d0 5b f3 54 be 05 e0 a2 bd 4a 9a 51 3e 13 c0 b4 bd
       -0.20795958 -0.079528846 0.20469013 -0.08825698
0003e0 28 01 56 be 09 75 35 be 65 a6 19 be 7c b0 9f 3d
       -0.20898879 -0.17720427 -0.1500488 0.077973336
0003f0 d7 9b 20 3e c3 78 b0 3d 11 d7 90 bd 47 29 3b be
       0.15684448 0.086167835 -0.07072271 -0.18277465

fc1.bias f4 [120]
000000 5a b2 d7 bd 64 8f 3b bc 5b 24 06 3e 39 63 f6 bd
       -0.10532065 -0.011447761 0.13099806 -0.12030644
000010 3f 9d 00 be cf 5f c1 3d 1e ee 08 be 2d 3b cf bd
       -0.12559985 0.09442102 -0.13372084 -0.10118709
000020 92 fd 49 3d a3 ab af 3d 29 ca 10 3d 0f e0 fd bd
       0.04931409 0.08577659 0.035349045 -0.123962514
000030 1d 2c d6 bc 81 67 24 bd 62 4f 32 3d f7 79 08 be
       -0.026144082 -0.04013777 0.043532737 -0.13327776
000040 ce 9a 7d 3d 52 7d 39 3d bd 74 62 3c 95 25 b6 bd
       0.06191521 0.04528553 0.013821778 -0.08893887
000050 3f 56 14 bd 68 a8 ff bd 2b 0a cc bc e3 d2 f5 bd
       -0.036215063 -0.12483293 -0.024907192 -0.12003114
000060 56 f1 42 bd f6 9a 0d be f5 c8 b4 3d c8 62 f8 3d
       -0.047593437 -0.13828644 0.08827392 0.12128216
000070 bf 74 a0 3d e2 86 99 3d 8f 32 f6 3d 05 bc 04 3d
       0.078347676 0.0749643 0.12021362 0.032405872
000080 1c 10 51 bd 32 b0 29 3c f8 b2 30 bd 21 c9 0d 3e
       -0.051040754 0.01035695 -0.043139428 0.13846256
000090 9c 85 42 3d e5 c2 68 bd 98 1c cd bd e9 d7 cf bd
       0.0474907 -0.05682649 -0.100152194 -0.101486035
0000a0 f7 60 65 bc d3 e1 d4 bd ff 5c 2b bd 79 e7 90 bd
       -0.014000169 -0.10394635 -0.041836735 -0.070754
0000b0 19 34 ec 3d 6e bd af bd 25 1d aa 3d b1 bb f6 3d
       0.11533374 -0.08581053 0.0830634 0.12047518
0000c0 7b 74 bb 3d 7a 72 8f 3d 58 47 f0 3c 90 25 02 3e
       0.09153076 0.070042565 0.029330894 0.12709641
0000d0 a9 d7 bd 3d 6c e9 8a bc 36 29 f2 bd 7d 4a 37 bd
       0.092696495 -0.016957007 -0.118242666 -0.044748772
0000e0 45 7a e4 3d ba 6a 9b 3d 59 4f 15 3d 40 70 07 3e
       0.111561336 0.07588716 0.036452625 0.13226414
0000f0 da 55 fe 3d 57 df 01 be 4a e7 af bd 01 1c 85 3d
       0.12418719 -0.12682854 -0.08589037 0.06499482
000100 84 c3 80 38 63 3a d4 bd 2b d8 00 be 6b b9 ec bd
       6.139933e-05 -0.10362699 -0.12582462 -0.11558803
000110 f9 3c 28 bd e8 31 d5 bd f2 56 ca bc d2 ec 09 3d
       -0.041073773 -0.104099095 -0.024699662 0.033673115
000120 21 b7 53 bc 70 d2 f7 bd c7 04 a8 3d 44 7a 57 3d
       -0.012922079 -0.12100685 0.08204036 0.052606836
000130 c4 77 03 3e b4 21 b8 bc bf ea 24 bc 42 0b ce 3d
       0.12838656 -0.022477008 -0.010065733 0.10060741
000140 0f 99 82 bd 86 39 de 3d 83 9d 4e 3b 33 52 1e 3c
       -0.0637685 0.108508155 0.003152699 0.0096631525
000150 83 80 ff 3d 0e c3 12 bd d5 5a 4c 3d 51 e6 c4 bc
       0.124756835 -0.03583055 0.04989131 -0.024035605
000160 14 94 0b 3e f9 67 9e 3d 71 d7 2e 3d bf 64 8b bd
       0.13630706 0.07734675 0.04268593 -0.06806325
000170 a2 5d 68 3d fe ba be 3d 84 46 af 3b 73 33 0a be
       0.05672992 0.0931301 0.0053489823 -0.13496189
000180 d2 f3 0c be f9 33 98 bd 80 9c bf 3c e0 26 b4 bd
       -0.13764885 -0.07431788 0.023390055 -0.08796477
000190 73 b9 87 3c db d6 b5 3d 88 00 ae bd ed 9c cf 3d
       0.016567921 0.08878871 -0.08496195 0.10137353
0001a0 61 99 2d bd 98 88 81 3d 85 6d 0c 3e 35 d6 35 3d
       -0.0423826 0.06324881 0.13713653 0.044393737
0001b0 39 80 93 bd c9 f0 ae 3c 1d 82 fd bc 25 68 4b bd
       -0.07202191 0.02135505 -0.030945832 -0.049659867
0001c0 b7 dd 89 3d 44 72 eb 3a 9c cb 9a 3c 5e da 1e bd
       0.06731742 0.0017963131 0.018895917 -0.03878247
0001d0 4a 61 1f 3d 07 56 21 3d dd b8 3f bc 09 05 b6 3d
       0.03891114 0.039388683 -0.01170179 0.08887679

bn1.weight f4 [120]
000000 66 96 ce 3f 44 b2 9f 3f 5b 05 b8 3f af f4 aa 3f
       1.6139648 1.2476277 1.4376634 1.3355922
000010 6d 9c ab 3f 14 89 84 3f 03 fb 74 3f 8c b9 c3 3f
       1.3407112 1.0354333 0.95695513 1.5291
000020 b9 c5 9b 3f e7 38 75 3f ee a6 85 3f f1 28 70 3f
       1.2169715 0.9578995 1.0441568 0.9381247
000030 8c fc 81 3f d6 51 a7 3f 02 bd a6 3f d1 ce b3 3f
       1.0155196 1.3071849 1.3026431 1.404749
000040 df 26 a2 3f 21 0c 88 3f 94 4a 9d 3f 9e 57 9e 3f
       1.2668113 1.0628701 1.2288384 1.2370489
000050 9e e2 7f 3f b6 d4 68 3f 72 39 ab 3f 02 72 76 3f
       0.99955165 0.9094957 1.3376906 0.9626771
000060 81 af 94 3f b9 d8 9a 3f 0e b0 ca 3f e7 31 51 3f
       1.161606 1.2097389 1.5834978 0.8171677
000070 21 d0 ab 3f bd f3 a1 3f af cb 86 3f 2a ef 93 3f
       1.3422891 1.2652508 1.0530909 1.1557362
000080 16 86 b1 3f e5 cd 9c 3f 90 c1 98 3f c4 99 8f 3f
       1.3869045 1.2250334 1.193407 1.12188
000090 7f a5 8e 3f 83 f0 ea 3f 2d 9e a5 3f 46 6a a9 3f
       1.1144255 1.8354648 1.2938896 1.3235557
0000a0 c4 b3 94 3f 88 62 b2 3f b8 ed c5 3f 18 8b d3 3f
       1.161736 1.3936319 1.5463171 1.6526823
0000b0 30 33 a1 3f 5a 40 c5 3f 99 b4 a8 3f 44 f0 b0 3f
       1.2593746 1.5410264 1.3180114 1.3823323
0000c0 f0 31 bc 3f 41 3c 89 3f 47 37 ac 3f e3 f8 85 3f
       1.470274 1.0721513 1.3454369 1.0466579
0000d0 5f 33 46 3f 2b 43 bc 3f c1 4f ba 3f b0 8a 94 3f
       0.77422136 1.4707998 1.4555589 1.1604824
0000e0 22 86 b0 3f 30 44 ca 3f 92 4a 8f 3f 4c b5 ac 3f
       1.3790934 1.5802059 1.1194632 1.3492827
0000f0 55 6d 92 3f 69 86 8c 3f a0 2a bb 3f 88 08 7a 3f
       1.1439615 1.0978519 1.4622383 0.9766927
000100 62 c1 a3 3f ad d5 9c 3f 66 c9 92 3f 2b 7c b2 3f
       1.2793391 1.2252709 1.1467712 1.3944143
000110 0f 41 ca 3f c9 fd bd 3f e3 83 98 3f 3b da a3 3f
       1.5801104 1.4843074 1.1915249 1.2800974
000120 10 71 92 3f fc 44 b1 3f 5b 8b bd 3f 5e 24 9b 3f
       1.1440754 1.3849177 1.4808153 1.2120473
000130 86 0a 99 3f eb 36 9b 3f 8e f6 81 3f be ff 83 3f
       1.1956336 1.2126135 1.0153368 1.0312421
000140 07 c6 8a 3f 7c 2e 95 3f 81 65 d6 3f 6b e5 b7 3f
       1.0841683 1.1654811 1.6749727 1.4366888
000150 f2 df 73 3f 5b ac d4 3f e8 ec 74 3f 88 bd b7 3f
       0.9526359 1.6615099 0.9567399 1.4354715
000160 a1 77 da 3f 57 8e 8e 3f f7 a3 dc 3f ff a4 d1 3f
       1.7067758 1.1137189 1.7237538 1.6378478
000170 39 69 a0 3f ab c7 a4 3f 41 a1 46 3f 74 71 de 3f
       1.2532111 1.2873434 0.77589804 1.7378373
000180 f2 2a 8a 3f 41 62 9e 3f 6b a1 b8 3f d4 a8 a6 3f
       1.0794356 1.2373735 1.4424261 1.3020272
000190 a0 23 88 3f 0a 21 7b 3f 84 db 92 3f 5b 24 72 3f
       1.0635872 0.9809729 1.1473241 0.94586724
0001a0 c0 ca bf 3f a6 88 ad 3f 8a 0d ba 3f 57 e0 b1 3f
       1.4983749 1.3557327 1.4535382 1.3896588
0001b0 43 8d e6 3f a8 86 ac 3f f8 4f a7 3f 0d 6e 9c 3f
       1.801186 1.3478594 1.307128 1.2221085
0001c0 c7 7b 9e 3f 57 f0 c5 3f c7 9e bc 3f 85 c2 b7 3f
       1.2381524 1.5463971 1.4735955 1.4356238
0001d0 62 6a a2 3f bc 7a 8e 3f dc 29 67 3f c9 f1 b7 3f
       1.2688715 1.1131206 0.9029825 1.4370662

bn1.bias f4 [120]
000000 b7 ff d0 3b 9a c6 44 be cd cc 08 be d1 53 c2 bc
       0.00637814 -0.19216385 -0.13359375 -0.023721607
000010 04 15 22 3e f0 cd e2 3e c6 57 3a be f4 f6 8c be
       0.1582833 0.44297743 -0.18197545 -0.2753216
000020 b3 44 c7 be 74 92 e7 3e 02 a1 17 be 3a bb 2d be
       -0.389196 0.45228922 -0.14807513 -0.16965953
000030 56 cc e6 3e a2 da 2f be c9 09 18 bf a9 1d fd 3d
       0.4507777 -0.17173246 -0.5938993 0.12359173
000040 0a d0 a0 3e b1 2a 81 3e d5 d9 8d 3c 03 65 f2 be
       0.3140872 0.25227883 0.017315784 -0.4734269
000050 8e c5 af 3e 41 9b 09 be c1 0d 3d be 7c 12 5b 3e
       0.3433041 -0.13438131 -0.18462278 0.2139377
000060 0b d4 31 bd 32 9d 65 3e 33 29 96 be 4a 56 6b 3e
       -0.04341511 0.22423247 -0.29328308 0.22982135
000070 79 33 13 3e d9 6b 3e 3d ce 20 bf bd 07 dd ab be
       0.14375104 0.04648957 -0.09332429 -0.33567068
000080 64 ca 86 bc 73 0a 93 be 74 44 01 be c6 7d b3 be
       -0.01645393 -0.2871891 -0.12623769 -0.35056895
000090 38 e1 a4 3d 8c 9b 12 be 56 37 d1 bd 61 7e de 3d
       0.080507696 -0.14317149 -0.102156326 0.108639486
0000a0 47 b4 77 3d 96 54 66 bf 7c 20 c9 bd a4 67 b2 3e
       0.06047466 -0.8997282 -0.09820649 0.34844697
0000b0 15 76 11 3f e4 28 0b 3e 69 27 58 be 80 74 7c be
       0.56820804 0.13589817 -0.21108784 -0.24653816
0000c0 4e a4 2d be 89 cf 22 3c 95 8e 09 3e 42 58 ad 3e
       -0.16957209 0.009937176 0.13433297 0.33856398
0000d0 6e 28 80 3e 60 6c 66 bf 5f ad 27 3e 6b 0f 7c 3b
       0.25030845 -0.9000912 0.1637473 0.0038461338
0000e0 d2 f0 50 3e 19 bc 90 be 93 4e 1f 3e 94 4c 08 bf
       0.20404366 -0.28268507 0.15557317 -0.5324185
0000f0 2c 80 50 be 80 be 96 3e 6f 54 78 3e d4 1f 9f be
       -0.20361394 0.29442215 0.24250959 -0.3107897
000100 7d 5d 03 bd 61 ac c6 3e 01 10 5d 3e a3 08 89 be
       -0.03207158 0.3880339 0.21588136 -0.26764402
000110 89 67 c1 3c ea f4 26 be 81 c5 25 bf c5 f9 c6 3e
       0.02360894 -0.16304365 -0.6475449 0.38862434
000120 56 2e b2 3e 0c 0d f5 3e fe 34 91 3e e6 22 2a 3e
       0.34800977 0.47861516 0.28360742 0.16614875
000130 e7 ab 90 3e e3 2b 61 bd 72 76 a1 3e 96 f3 5b be
       0.2825615 -0.054973494 0.3153568 -0.2147964
000140 84 32 bb be 07 da 22 be 07 0c c7 bd 43 d4 85 be
       -0.36561978 -0.15903483 -0.09719091 -0.26138505
000150 a3 0b 8c 3e aa 19 f3 3c fb 97 a8 3d 32 e9 d0 3d
       0.27352628 0.029675324 0.08232113 0.102007285
000160 df 2b c5 3c 01 18 89 3d 33 76 95 3e 1d 12 c8 3d
       0.02406877 0.066940315 0.2919174 0.0976908
000170 95 6e aa bc 01 b2 14 3d fa 0f ce bd cd 26 52 be
       -0.020804683 0.03630257 -0.10061641 -0.20522614
000180 77 4c 44 3d 78 ee 45 bf 7b e2 5a bf 8c 21 d2 be
       0.047924485 -0.77317 -0.8550183 -0.4104122
000190 61 5e b5 3d f6 a6 2f be 52 74 e6 3e c0 93 07 bc
       0.08855892 -0.17153534 0.4501062 -0.008274972
0001a0 1f 9c 00 3f 1a e1 85 3d f7 40 02 be 69 27 07 3d
       0.5023822 0.06537075 -0.12720095 0.03299657
0001b0 17 44 91 3d 63 5f 98 3d 3d 76 34 3d 79 b2 b0 3d
       0.07093065 0.074400686 0.044058073 0.08627791
0001c0 79 50 a9 be e8 03 93 3d d5 42 8a 3d ea d5 82 3f
       -0.33069208 0.071784794 0.067510284 1.0221531
0001d0 b8 a7 bf be a1 82 53 be ca c9 27 be 4e 0c 87 3e
       -0.37432647 -0.206553 -0.1638557 0.26376575

bn1.running_mean f4 [120]
000000 7f fa e9 bd ac 00 38 bd 3d 60 25 3e d3 65 ca bd
       -0.114247315 -0.044922516 0.16149993 -0.09882703
000010 8c 9d 25 be fb ae d2 3d 11 fb f5 bd 78 90 ec bd
       -0.1617338 0.10287281 -0.12010778 -0.11550993
000020 39 b1 22 3d 82 24 cc 3d 2c 4e 6d 3d 2e c5 e3 bd
       0.039719794 0.09967901 0.05793588 -0.111215934
000030 94 7a 1c bd 2b fe 5b bd e1 b8 07 3d d4 83 1f be
       -0.038202837 -0.05370919 0.0331353 -0.15577632
000040 4a ca 8d 3d ac 65 0a 3d 96 1a 31 3c 08 49 b2 bd
       0.06923349 0.033788368 0.010809561 -0.08705336
000050 70 9b 18 bd 56 04 17 be 72 b9 5c bc 0d b1 c6 bd
       -0.03725761 -0.14747748 -0.013471948 -0.097017385
000060 74 ae 3a bd ee 9a 39 be 72 b8 ae 3d e0 dc 0d 3e
       -0.045576528 -0.18125507 0.08531274 0.13853788
000070 de 60 5a 3d 2b a1 a0 3d 7c 9b f0 3d 55 ff 44 3d
       0.053315036 0.0784324 0.11748406 0.048095066
000080 40 7a 11 bd f9 ca 71 bc 08 d7 12 bd 9a b1 ad 3d
       -0.035516977 -0.014757865 -0.0358496 0.084811404
000090 be cc 7d 3d 36 f2 ea bc 94 0e e0 bd a9 ba e0 bd
       0.061962835 -0.028679948 -0.109402806 -0.109731026
0000a0 e2 4c 55 3c 72 7c e7 bd 7b 8f 5f bd 26 08 b0 bd
       0.013018819 -0.11303033 -0.054580193 -0.08595304
0000b0 de ff 12 3e ae ce a5 bd e4 93 e5 3d 87 76 e7 3d
       0.14355418 -0.08096062 0.112098485 0.11301904
0000c0 76 60 13 3d b0 50 ab 3d 3d b3 8e 3c 8b d0 06 3e
       0.035980664 0.08364999 0.017419452 0.1316549
0000d0 70 5d b3 3d c2 20 33 bd 0f f4 db bd 80 c4 13 bd
       0.08758056 -0.043732412 -0.1073991 -0.03607607
0000e0 63 40 d4 3d 40 c6 d8 3d fc a5 23 3c b4 1b 12 3e
       0.10363843 0.10584688 0.009988304 0.1426838
0000f0 7e 9e ae 3d d6 a5 06 be 8c 87 f2 bd eb 94 84 3d
       0.08526324 -0.13149199 -0.1184226 0.06473716
000100 c6 0b 94 3c 5e 95 ad bd 2d c2 e4 bd 24 1a 17 be
       0.01807202 -0.08475755 -0.111698486 -0.14756066
000110 6a f2 5b bd fa 5c b8 bd 4c 96 a3 bd ce ce 80 3c
       -0.05369798 -0.09002109 -0.07987651 0.015723612
000120 74 56 aa bc 5e a8 2e be 91 46 f7 3d 92 f7 c1 3d
       -0.020793177 -0.17056414 0.12074006 0.094710484
000130 d4 65 e9 3d 70 b0 a0 ba 80 5d 7d bc 88 32 f3 3d
       0.11396375 -0.0012259614 -0.015464187 0.118748724
000140 d4 c7 b1 bd 30 3a da 3d a1 65 4d bc 40 66 a9 3c
       -0.08680692 0.1065563 -0.012536437 0.02067864
000150 27 a5 d7 3d a0 22 00 bd 80 b4 46 3d d2 28 ea bc
       0.10529547 -0.03128302 0.048511982 -0.028583918
000160 cd 1b c0 3d bc 98 be 3d b0 9e 82 3c d8 48 ac bd
       0.093803026 0.093064755 0.015944809 -0.08412331
000170 88 9a d1 3c f2 da ad 3d 40 b8 5c bb 76 11 32 be
       0.025586382 0.08489026 -0.0033679157 -0.17389473
000180 4a 3b ea bd fa b7 85 bd 1b 5d 7d 3c 46 02 0a be
       -0.1143709 -0.06529231 0.015464093 -0.1347743
000190 d2 f2 cd 3c 9c c5 ca 3d 9f ca eb bd f4 56 a8 3d
       0.0251402 0.09900972 -0.11513256 0.0821971
0001a0 0c 2f 0d bd f0 a3 93 3d 10 7e 0f 3e c0 6d ef 3c
       -0.034468696 0.07209003 0.14012933 0.029227138
0001b0 d6 d3 50 bd df 2e 3c 3d 69 5b 23 bd e2 b6 4a bd
       -0.050983272 0.045943137 -0.039882097 -0.049490817
0001c0 d4 93 5f 3d 4a 62 0b 3d 52 a5 ee 3c d5 aa 61 bd
       0.05458434 0.034029283 0.029131565 -0.05509456
0001d0 a5 82 a7 3b 20 17 95 ba 7b 8a 83 bc d8 e3 8e 3d
       0.0051120096 -0.001137469 -0.016057244 0.069770515

bn1.running_var f4 [120]
000000 b3 43 3b 40 77 6d 39 40 06 81 45 40 c8 c3 1b 40
       2.926007 2.8973062 3.086 2.4338245
000010 34 cf 27 40 7c db 35 40 3c 99 55 40 8e c8 2b 40
       2.6220217 2.8415213 3.3374777 2.684116
000020 03 bf 4b 40 ff 5e 56 40 74 4a 89 40 8f a9 3e 40
       3.1835334 3.349548 4.2903385 2.979099
000030 f0 e5 5b 40 fe 15 20 40 34 d3 45 40 71 8d 35 40
       3.4359093 2.5013423 3.0910158 2.836758
000040 d5 b9 1c 40 d2 f0 60 40 52 31 5a 40 16 03 2a 40
       2.4488423 3.5146985 3.4092603 2.6564384
000050 7a 5e 45 40 0b d4 7b 40 6e 2f 41 40 6d 24 d9 40
       3.0838914 3.934817 3.0185199 6.7856965
000060 75 5c 1a 40 34 ec 6d 40 3a 3e 30 40 86 02 b6 40
       2.4118931 3.7175417 2.753798 5.687808
000070 4b e1 1e 40 c3 e5 38 40 6a 2f 4b 40 ed 29 42 40
       2.4825008 2.8890235 3.174769 3.033809
000080 0c bd 40 40 50 d9 6d 40 3c 4f 45 40 97 89 d7 40
       3.0115385 3.7163887 3.082961 6.7355456
000090 ba 93 5c 40 81 29 49 40 f5 f5 57 40 2e 96 33 40
       3.4465165 3.1431582 3.374387 2.8060412
0000a0 3d 80 57 40 17 ee 26 41 8a 75 40 40 2d 45 54 40
       3.367202 10.433127 3.007174 3.3167222
0000b0 78 ac 2f 40 b5 15 3f 40 e5 09 65 40 19 95 32 40
       2.7449017 2.9857 3.578729 2.7903502
0000c0 bd 39 4e 40 1d 7d 43 40 27 5a 44 40 c1 33 11 40
       3.222274 3.0545113 3.0680025 2.2687838
0000d0 c4 fb b9 40 69 fe 10 41 6c 01 6a 40 66 2c 18 40
       5.811983 9.062112 3.6563368 2.3777099
0000e0 ed 1c 3c 40 c0 fe 3e 40 f7 24 61 40 5b 6a 39 40
       2.9392655 2.9842987 3.5178812 2.8971164
0000f0 e2 59 4b 40 96 50 30 40 74 cd 43 40 df cf a7 40
       3.177361 2.7549186 3.0594149 5.244125
000100 05 60 33 40 fd 61 4b 40 50 63 4f 40 d0 ca 86 40
       2.8027356 3.1778557 3.2404366 4.2122574
000110 9e 75 4a 40 69 6e 34 40 72 33 3b 41 e0 b4 31 40
       3.1634288 2.819239 11.70006 2.7766647
000120 dd 6f 43 40 7b b8 38 40 38 58 21 40 e9 0a 2c 40
       3.0537026 2.8862598 2.5210094 2.688166
000130 07 5e 1d 40 f3 0a 15 40 cd 8a aa 40 99 f7 48 40
       2.458864 2.3287933 5.3294435 3.1401122
000140 e0 d4 42 40 09 b8 6c 40 d4 e5 43 40 de 0f 2a 40
       3.0442429 3.6987326 3.0609026 2.6572185
000150 0e cc 28 40 fb d6 5e 40 74 dc 53 40 dd c6 3a 40
       2.6374545 3.4818714 3.3103304 2.9183877
000160 cb f6 38 40 08 2e 3b 40 56 77 5b 40 cc c5 5a 40
       2.890063 2.9246845 3.4291587 3.4183226
000170 d9 6b 71 40 bd bc 59 40 b7 f9 2e 40 30 7e 1d 40
       3.7722075 3.4021447 2.7339914 2.4608269
000180 e0 a9 3a 40 fc 13 8e 40 a6 fb 57 40 ac f5 2f 40
       2.9166183 4.4399395 3.3747344 2.7493696
000190 97 93 18 40 db ef 3b 40 44 e0 7e 40 c9 8c 2a 40
       2.3840082 2.9365146 3.982438 2.6648428
0001a0 1e 65 21 40 e7 06 38 40 b5 67 2a 40 6f 42 3e 40
       2.5217967 2.8754213 2.6625798 2.9728048
0001b0 2a 80 4a 40 70 72 3b 40 89 65 78 40 81 9a 2d 40
       3.1640725 2.9288597 3.8811972 2.7125552
0001c0 14 68 31 40 6f 33 32 40 81 9f 25 40 ad 36 30 40
       2.7719774 2.7843893 2.5878603 2.7533371
0001d0 f6 fe 27 40 88 db 21 40 39 0c 1a 40 40 66 0f 40
       2.6249366 2.5290241 2.406996 2.2406158

fc2.weight f4 [84, 120]
000000 30 be 21 be 80 a6 3f bf fe d1 33 bd 07 0c 45 3e
       -0.15795207 -0.74863434 -0.043901436 0.1924287
000010 95 c5 5d 3e 51 0d 0e 3c 66 94 97 3e 3c dd 4f be
       0.21657403 0.008670167 0.29605407 -0.20299238
000020 ec a7 5a be 83 24 34 be f8 82 9c be ff 19 9f bd
       -0.2135312 -0.17592053 -0.3056867 -0.0776863
000030 a3 82 0f be 92 67 40 be b8 0c 69 3e c4 7c 1b 3e
       -0.14014678 -0.18789509 0.22758758 0.15184313
000040 0a 1d 3a bc 74 64 5c 3d 1e bd 02 3d b2 3e 9a 3c
       -0.0113594625 0.053806737 0.031918637 0.018828724
000050 7c ca 44 3e cc 5c 0d be f4 d2 2b bd 50 0e 61 be
       0.19217867 -0.1380493 -0.041949227 -0.21978116
000060 ad 85 11 be d0 00 1c 3c 66 44 8d 3e 98 c8 09 be
       -0.1421115 0.009521678 0.27591246 -0.13455427
000070 b4 00 54 3d ef 2e d2 b9 e0 7c 2a be 1b be 10 3d
       0.051758483 -0.0004008929 -0.16649199 0.03533755
000080 38 13 4f 3e cc 89 2a 3d d2 1a 22 3e 51 fc be 3b
       0.20222175 0.04163532 0.15830544 0.0058284183
000090 07 13 08 bd 9c 0a e8 3d 62 84 e7 bc 77 72 8a 3e
       -0.03322127 0.113301486 -0.028261367 0.27040455
0000a0 91 51 24 be 54 41 b0 be ab 3c 2f 3e 38 4d 96 3d
       -0.1604674 -0.3442484 0.17112987 0.07338947
0000b0 2e a7 d1 3e 7a 67 09 be d6 6a 0e be 3d 33 9f 3e
       0.4094786 -0.1341838 -0.13907942 0.3109378
0000c0 71 6a 96 be f0 cd 00 3f c2 53 5c bd ae 6f e9 bd
       -0.29378083 0.50314236 -0.053790815 -0.11398254
0000d0 e6 38 d4 3d d9 58 6e 3e d7 5f c1 be 3e 5a fb 3d
       0.10362415 0.2327608 -0.37768432 0.12273072
0000e0 2e 46 4f 3d 79 a3 59 be 81 95 7c 3e 36 46 84 3d
       0.050604038 -0.21253766 0.24666406 0.06458704
0000f0 2c d7 1a be 86 dc fe be 04 57 5d 3e 49 d6 6c 3d
       -0.15121144 -0.4977762 0.21615225 0.057821546
000100 9e e3 a8 bd 87 c2 f7 bd 6b 50 f9 3d 5e ff b4 bd
       -0.082465395 -0.1209765 0.12173542 -0.0883777
000110 c5 67 99 bd 0c f9 ac bd db ca 12 3e 93 8e 89 3e
       -0.074904956 -0.084459394 0.14335196 0.26866588
000120 57 c2 22 be c3 35 dd be 27 3a d1 3d 8c 84 bb 3e
       -0.15894447 -0.4320508 0.1021617 0.36624563
000130 d5 3c 83 be 85 65 a3 3e 18 c8 ad bd 5c 85 63 be
       -0.2563235 0.3191339 -0.084854305 -0.22218841
000140 c2 81 c2 bd 5e 06 6e bd e8 35 45 3e 61 d8 43 bd
       -0.094974056 -0.05811154 0.19258845 -0.047813777
000150 b1 b7 41 bd 9d 90 a3 be 38 77 74 3e 95 4d 1a 3d
       -0.047294322 -0.3194627 0.23873603 0.037671644
000160 f8 f7 be bd 67 a9 16 bd 91 e2 dd bc 51 d9 a4 3e
       -0.0932464 -0.03678265 -0.027085574 0.3219705
000170 b7 a8 14 be 05 96 8e be 97 e1 be be e5 f5 e8 be
       -0.14517485 -0.2784883 -0.37281486 -0.45500103
000180 9e d2 44 be 9d cc 99 be 58 06 12 be b9 e4 a8 be
       -0.19220969 -0.3003892 -0.14260232 -0.32987002
000190 92 d0 ce 3d e9 b1 c6 3d f3 14 46 bd c4 96 a4 3d
       0.100983754 0.097019024 -0.048359822 0.08036569
0001a0 68 76 7a be 2d e1 23 bc 91 56 d8 bd a1 87 c7 3c
       -0.24459231 -0.010002417 -0.10563386 0.024356665
0001b0 d5 cd 1a be 86 9e 64 3d ad 0e a6 3b df 4c cd 3e
       -0.15117581 0.055815242 0.0050676675 0.4009771
0001c0 89 97 48 bd 0c 73 14 bd a9 f5 2e 3e 28 f1 bf 3c
       -0.04897264 -0.03624253 0.170859 0.023430422
0001d0 45 be bc 3d 3e b0 e2 bd 39 bd 9a 3e bd 27 70 3e
       0.092159785 -0.11068772 0.3022249 0.23452659
0001e0 cf af f1 3d ef 05 2f be f7 64 ad 3c 18 80 af 3e
       0.11801111 -0.17092107 0.021166308 0.34277415
0001f0 16 bb a6 bd 10 70 1f be 5f c2 af bd 72 1f ad 3d
       -0.081411526 -0.15570092 -0.08581995 0.08453263
000200 c7 d0 1a bd b1 58 03 3e 1c eb 05 3e 07 11 56 be
       -0.03779676 0.12826802 0.13077968 -0.20904933
000210 ba 57 10 3e 7c e1 fa 3d 9f 29 ac 3e 31 ba 8a be
       0.14095965 0.12250039 0.33625504 -0.27095178
000220 a8 55 a7 bd 73 d5 1a 3c 31 36 93 bc 48 f3 3e be
       -0.081706345 0.009450304 -0.017970176 -0.18647492
000230 f2 4b 81 be 0b d6 0b be 78 13 6b ba 1e bf 76 bd
       -0.25253254 -0.1365587 -0.00089674396 -0.060240857
000240 12 22 cf 3e b4 22 2b bd bb c1 bb be e8 0c a9 b8
       0.4045568 -0.041781142 -0.36671242 -8.060952e-05
000250 6a 7a da 3d 7a db c0 3d d9 cf cb be 1a e6 1c bd
       0.1066788 0.09416862 -0.39807013 -0.03830538
000260 a3 33 5b be 0f a3 c2 bc f7 48 74 bd f0 cb b1 3d
       -0.21406417 -0.023759393 -0.059639897 0.08681476
000270 df 13 6e bd ed 47 58 be 79 1e c2 bd 61 ba 6b 3e
       -0.05812442 -0.21121188 -0.094784684 0.23020317
000280 f5 d0 41 bd f6 3a 3c be 1f b6 d3 bb 7d 0b bf 3e
       -0.047318418 -0.18381867 -0.0064609195 0.37313452
000290 e5 17 82 bd 35 96 bb 3e 36 5d ce bd 91 9c 0f 3e
       -0.06352214 0.36638036 -0.10076372 0.14024569
0002a0 5b d2 c5 be ab a4 5c be 8d 54 7c 3e 43 6c 61 3e
       -0.3863705 -0.21547191 0.24641629 0.22013955
0002b0 36 a0 12 be ed f8 80 3d 7e 86 04 bf 7f b9 02 3f
       -0.14318928 0.06297479 -0.5176772 0.51064295
0002c0 6b fc ae 3d 65 94 78 3d 6c 0e 89 bd 7e 47 8a 3c
       0.08544239 0.060688395 -0.06692204 0.016879793
0002d0 de 89 6f bd 98 96 cb be 82 15 8d 3e 1c cd 0d 3e
       -0.05848109 -0.3976333 0.27555472 0.13847774
0002e0 5a ec f2 bd 16 53 60 3e 3f 16 fb 3d 63 3f 0c bd
       -0.11861487 0.21906695 0.122601025 -0.034240138
0002f0 e9 d8 e7 be ed ca f6 3c 21 09 98 bd 80 8e 6a bd
       -0.45282677 0.03012606 -0.07423616 -0.057264805
000300 98 2a 44 be 92 fa 76 be b6 ad 78 3e 63 93 1b 3c
       -0.19156873 -0.24119022 0.24285015 0.009495589
000310 c0 66 a7 be 39 2e 66 3e a3 97 dc bc c2 8c b2 3d
       -0.3269558 0.2247857 -0.026927775 0.08718254
000320 e4 78 fd bd 56 77 74 be df 78 54 3d 68 e6 79 bd
       -0.12376574 -0.23873648 0.051873084 -0.06101075
000330 c0 5b 49 be 8a cd f4 3d 0f 82 3f 3d ba d8 0d be
       -0.19663906 0.11953266 0.046754893 -0.13852206
000340 df c0 55 be c4 06 68 3e c1 c6 bb 3d cd 63 d3 ba
       -0.20874356 0.22658831 0.09168769 -0.0016127765
000350 8c ae 30 bd b1 2c 8e bc 1c a1 d0 be 87 3b 86 3e
       -0.04313521 -0.017355295 -0.40747917 0.2621729
000360 d4 ba 06 3c 76 ed 0c 3d 9d 46 40 bd 37 80 e1 3a
       0.008223254 0.034406148 -0.046942342 0.0017204349
000370 3c 84 d0 3e 05 95 c1 be ca 89 19 be d5 a4 2f 3e
       0.40725887 -0.37809005 -0.14993969 0.17152722
000380 7d 91 c3 3e bf 7e 77 3e fe ac 0b bd 43 77 f3 3d
       0.38196936 0.24169444 -0.034100525 0.11887982
000390 30 14 3d be ba b3 89 3d 54 28 2d bd 94 9a 98 3e
       -0.18464732 0.06723733 -0.042274788 0.29805434
0003a0 9f 7a 9b 3e df 41 09 3e 5f 25 cf bd 4a a9 08 3f
       0.3036699 0.13404034 -0.1011455 0.53383315
0003b0 5e c6 b0 be 9e 8b 40 bd f6 cc b8 3e 73 6d 21 bd
       -0.34526342 -0.04700815 0.36093873 -0.03941102
0003c0 44 7c cc be f7 63 d8 3d a2 4d 2c 3e 69 5d d1 bc
       -0.39938557 0.10565942 0.1682649 -0.025557237
0003d0 b2 1a cc bd ad 6e a5 be b1 40 8f 3d 8d 70 98 bd
       -0.09966029 -0.32311 0.06994761 -0.07443342
0003e0 9e ad 93 3d b8 e7 f6 3d e6 da 38 3e 29 3f ad 3e
       0.07210849 0.120559156 0.18052253 0.3383725
0003f0 08 2e 16 3d 89 1f 36 3e b4 37 4f be 48 50 59 3e
       0.036664993 0.17785467 -0.20236093 0.21222031

fc2.bias f4 [84]
000000 de 32 94 bd ac 06 f8 3c 18 2a b5 bd 10 a5 6e bc
       -0.07236265 0.030276619 -0.08845919 -0.014565721
000010 32 21 95 3d 8f 59 90 bd e7 be 74 bd 82 63 62 bd
       0.07281722 -0.07048332 -0.05975237 -0.05527068
000020 67 6c c5 3c 9e 8f e1 bb 18 5a 57 bc 8d 63 0b bd
       0.024099542 -0.0068835756 -0.013144039 -0.034030486
000030 47 29 4c 3c 15 b7 1f bd bc 13 e3 bc fa 09 85 bd
       0.012461013 -0.03899296 -0.027719371 -0.064960435
000040 00 ec 92 3d 9c 6b 3c bd a0 1d be bb 94 58 34 bd
       0.0717392 -0.04600106 -0.0058018714 -0.044029787
000050 22 d0 aa bd 7c 61 9c bd d2 da 97 bd 4b 60 84 3d
       -0.083404794 -0.07635781 -0.074147835 0.06463679
000060 8e d3 b0 bd f6 7f 97 bd fd a7 2e 3c 18 2b de 3c
       -0.08634101 -0.073974535 0.010660169 0.027120158
000070 92 d5 3a 3d 7b 62 27 bc 97 90 32 bc 41 ba 8f bd
       0.045613833 -0.010216351 -0.010898731 -0.07017947
000080 d7 9a db 3c 4c a7 9a bd 1b ab a5 bd 1b 92 3c 3d
       0.026807232 -0.075514406 -0.080892764 0.046037775
000090 22 fe a8 3d f6 c2 7a bd 10 94 45 3d f4 6c 72 bc
       0.08251597 -0.061221085 0.048236907 -0.014796484
0000a0 7a a7 32 bd c2 08 80 bc 13 2c e1 b9 d7 ac 9c bd
       -0.04361675 -0.015629176 -0.00042948182 -0.07650154
0000b0 db 1c bd bd 15 88 ad bb fd 01 6d 3b d9 5b 3d 3c
       -0.09234019 -0.0052957633 0.0036164515 0.011557543
0000c0 4c 72 04 bc 87 00 b8 bd 97 a2 86 3d aa 68 62 3c
       -0.008083891 -0.089844756 0.0657398 0.013818899
0000d0 8a 41 0c bc c3 33 79 3d e7 67 36 3d c0 96 8d bd
       -0.008560548 0.06084038 0.044532683 -0.06913519
0000e0 84 12 b3 bc b2 e6 2f 3b ef fe c1 3c af d0 97 3c
       -0.021859415 0.0026840386 0.023681132 0.018532125
0000f0 c4 f3 5c 3d f1 c1 9c bd 4e 78 a7 bc 52 d1 2c 3d
       0.05394341 -0.07654179 -0.020443108 0.04219181
000100 31 06 9d 3d 0c 85 ae 3d c7 95 62 bd 96 dc 2f bd
       0.076671965 0.085214704 -0.05531862 -0.042934977
000110 0f 45 8d bd 62 ba d2 bc cb 79 9b bd 06 1e 0f bd
       -0.068979375 -0.02572364 -0.075915895 -0.034940742
000120 f8 a6 9b 3c d1 9a 70 3d 56 bf 98 3d 57 3a bc 3d
       0.019000515 0.058741394 0.074583694 0.09190815
000130 d3 2b 73 3d 3d 75 92 bd 8f 7b 9b bd bb ca 24 3d
       0.059367966 -0.07151268 -0.07591926 0.0402324
000140 f2 5b 0e bc f8 88 3c bd 1f 3c 5c bd e8 e7 58 bc
       -0.008688914 -0.04602906 -0.053768273 -0.0132388845

bn2.weight f4 [84]
000000 28 ac a3 3f af e5 a9 3f 57 a3 c2 3f d3 3d da 3f
       1.2786913 1.3273219 1.5206097 1.7050117
000010 7c 93 f1 3f a8 24 de 3f 50 21 ad 3f 0e 3b b8 3f
       1.8873134 1.7354937 1.3525791 1.4393022
000020 fb 98 ae 3f 55 0a 9e 3f ee e5 b7 3f a6 90 99 3f
       1.3640436 1.2346903 1.4367044 1.1997268
000030 c2 d2 b1 3f f2 40 b6 3f 30 34 ac 3f 96 be d5 3f
       1.3892443 1.423857 1.3453426 1.6698787
000040 09 4c a7 3f 9e 66 d0 3f 11 34 c4 3f 84 cb c1 3f
       1.3070079 1.6281316 1.532839 1.5140233
000050 80 a7 c0 3f 5d aa cf 3f 4b 70 d4 3f 45 02 a9 3f
       1.5051117 1.6223866 1.6596769 1.3203818
000060 c8 03 0b 40 3e 95 9d 3f 29 69 a1 3f e2 1b ad 3f
       2.1721058 1.231117 1.2610217 1.3524134
000070 67 4f dc 3f f9 fd f0 3f 15 7f c2 3f 03 1e a1 3f
       1.7211732 1.8827506 1.5195032 1.2587284
000080 fb ec a8 3f 27 7b b6 3f 6c 44 9f 3f 84 d2 c3 3f
       1.3197321 1.4256333 1.2442756 1.5298619
000090 5e 5f c7 3f 8d ff b8 3f 66 6c cf 3f 8d 06 9e 3f
       1.5575979 1.4452988 1.6204956 1.2345749
0000a0 ec ee cc 3f cc ae cb 3f ac f1 e4 3f 2c be c8 3f
       1.6010413 1.5912719 1.7886252 1.5683036
0000b0 32 11 e5 3f 52 95 c2 3f f5 83 a2 3f ea e1 d2 3f
       1.7895873 1.5201819 1.269652 1.6475194
0000c0 2b 79 aa 3f 52 ff d9 3f c2 56 c7 3f c5 17 cc 3f
       1.3318228 1.7031043 1.5573351 1.5944754
0000d0 43 c1 df 3f 62 5d d2 3f 76 cc c5 3f 14 b5 9c 3f
       1.7480854 1.6434748 1.5453022 1.2242761
0000e0 59 f7 d1 3f a0 81 f9 3f f9 e0 ae 3f b5 10 9d 3f
       1.640361 1.9492683 1.3662406 1.2270724
0000f0 61 cb c9 3f 21 38 c9 3f 96 c1 ba 3f de c3 b6 3f
       1.5765191 1.5720254 1.4590328 1.4278524
000100 4f ad b7 3f fd f6 9c 3f 21 93 ab 3f 23 5f 91 3f
       1.4349765 1.2262875 1.3404275 1.1357158
000110 51 cb b1 3f 4a bc e0 3f 75 b5 c1 3f a2 2a b5 3f
       1.3890172 1.7557461 1.5133501 1.4153636
000120 1c 68 bb 3f 10 27 b7 3f 68 01 96 3f be f4 af 3f
       1.4641147 1.4308796 1.1719179 1.3746564
000130 2a 4d bb 3f 24 a4 d3 3f fc ff b0 3f 1c 3e e4 3f
       1.4632924 1.6534467 1.382812 1.7831454
000140 35 7d b3 3f 13 08 d0 3f 0e 10 9b 3f 8e a8 d2 3f
       1.4022585 1.6252464 1.2114275 1.6457689

bn2.bias f4 [84]
000000 74 1d 1f 3f 54 1e 12 3f 48 54 01 3f 2b f4 a3 3e
       0.62154317 0.5707753 0.5051923 0.32022223
000010 b4 8a 3d 3d 78 01 ea bd fa f0 23 bf 5c 9b 11 3f
       0.046274856 -0.114260614 -0.64039576 0.56877685
000020 f3 63 0f bf cc ae 00 3f 32 cf ee be d5 60 0b bf
       -0.56011885 0.5026672 -0.46642452 -0.5444463
000030 ff 6b 1d bf 66 8c 43 bf a1 2c 39 3f 15 5c 08 be
       -0.61492914 -0.76386106 0.72333723 -0.13316377
000040 39 e0 36 3f 2f 78 20 3f 83 40 24 3f d6 b1 07 3f
       0.71435887 0.62683386 0.6416094 0.5300573
000050 8a 46 38 3f 13 e8 ec be 7e e3 26 3f 59 83 e2 be
       0.71982634 -0.4627081 0.65190876 -0.44240835
000060 04 5a 70 ba 2b fd 1a 3f f6 1e 29 bf a7 7e 4f 3f
       -0.0009168687 0.60542554 -0.6606287 0.8105263
000070 2e 2a 32 3f 6b 5d dc 3e 6f 6b 0a 3f 29 e8 36 3f
       0.6959561 0.43040022 0.5407018 0.71448
000080 d2 a3 31 bf 75 29 04 3f ad f7 2f bf a9 c8 4a bf
       -0.69390595 0.5162576 -0.687373 -0.79212433
000090 84 4e 13 bf e9 2d 21 3f ce 8b 3a bf 09 32 19 3f
       -0.5754168 0.6296068 -0.72869575 0.5984197
0000a0 1c 90 5a bd cb 7a 33 3f e9 64 4b bd 1d 5f e2 3e
       -0.05336009 0.7010924 -0.049656782 0.4421319
0000b0 e7 2d 3d be 26 eb 26 bf 75 98 30 3f df ef 88 3e
       -0.18474542 -0.6520256 0.6898263 0.26745507
0000c0 6e 73 2b bf 07 87 d3 be 96 03 a8 be 27 19 12 bf
       -0.66973007 -0.41313955 -0.32815236 -0.5706963
0000d0 5c 0b 7f 3e c2 9b e6 3e 7f 3b 04 3f 57 8c 21 bf
       0.24906677 0.4504071 0.51653284 -0.63104767
0000e0 63 09 cf 3e 0a 06 22 3e 9d fa eb be a5 92 30 3f
       0.4043685 0.15822616 -0.4608964 0.6897376
0000f0 7d a7 0a bf b7 b6 02 3f 75 32 3a bf fa 63 1a bf
       -0.54161817 0.5106005 -0.7273324 -0.603088
000100 e6 da 1c 3f 61 ba 41 bf 48 0b 1f 3f 15 42 31 3f
       0.6127151 -0.75675017 0.6212659 0.6924146
000110 63 84 a0 3e 12 b6 b3 be 2f 88 40 bf ba 60 36 3f
       0.31351003 -0.35099846 -0.752078 0.71241343
000120 e3 dc 22 3f 16 f9 2f 3f 4e 90 3a 3f d7 95 0d 3f
       0.63618296 0.6873945 0.7287644 0.5530676
000130 a8 80 47 bf a3 62 e8 be a2 00 3c bf c9 7f 0b be
       -0.7793069 -0.45387754 -0.73438466 -0.13622965
000140 f8 4a 36 3f be 66 04 3f 8a 00 1e 3f 01 00 9f be
       0.71208143 0.5171927 0.6171957 -0.3105469

bn2.running_mean f4 [84]
000000 0b f1 39 3e 73 98 d9 3e 19 ee 94 3e 0a 3a ff bd
       0.18158357 0.42499122 0.29087904 -0.12462242
000010 e2 11 21 bf 86 39 76 bf e6 a2 a2 bf a0 4d a6 be
       -0.6291791 -0.96181524 -1.2705963 -0.32481098
000020 8d 30 41 be d6 1d 75 3e e4 33 26 bf 49 6a 24 bf
       -0.18866177 0.23937163 -0.6492293 -0.6422468
000030 13 c0 bd be 28 c5 92 bf 4b c4 8c be 3f 54 e9 bd
       -0.37060603 -1.1466417 -0.2749351 -0.11393022
000040 ea 8a a4 bb b0 c4 7c 3e 84 17 a0 be 94 be c2 3e
       -0.0050214427 0.24684405 -0.3126794 0.38036025
000050 80 3a 3c be 9a 91 9d bf 38 b1 c4 3e d0 ab 82 be
       -0.18381691 -1.2310059 0.38416457 -0.25521708
000060 0d ab 30 3e 46 e5 2f 3f bd c4 31 bf 19 b5 52 3f
       0.1725275 0.6870922 -0.69440824 0.82307583
000070 2a 24 8c 3f d0 4c be 3e bc 86 9c 3e 13 f7 7f 3d
       1.0948536 0.37167978 0.30571544 0.062491488
000080 fc fa 1f bf f8 f2 02 3f 96 26 3e 3e 1a 72 3b 3f
       -0.62492347 0.5115199 0.18569407 0.7322098
000090 ac 3d f3 3e e6 c5 33 be a3 d1 05 3f dd 98 0b 3e
       0.4750799 -0.17555961 0.52273005 0.13632531
0000a0 d2 55 15 3e 48 94 59 3e 55 0f 0f 3e 99 e1 02 3f
       0.14583519 0.21247971 0.13970692 0.51125485
0000b0 98 cc d6 be bb e1 5d bf 2d ea 27 3f 61 8d 88 be
       -0.41952968 -0.8667256 0.655917 -0.26670364
0000c0 c8 e0 9a 3f b0 f3 5b bf 8c 9a b4 be b6 a4 4d 3e
       1.2099848 -0.8591871 -0.3527416 0.20082363
0000d0 db 5a 92 3f a3 8e 93 3f 95 3f 67 3f b0 72 72 be
       1.1433977 1.1527904 0.90331393 -0.23676562
0000e0 6a fe 71 3f 76 98 db bd 3f e9 0a bf 58 71 cb 3d
       0.9452883 -0.10722439 -0.54262155 0.09933728
0000f0 34 71 cb 3d 23 e2 22 bf 48 d2 e8 bd 0b bd 2f bf
       0.09933701 -0.6362631 -0.11368233 -0.6864783
000100 de 2a 82 3f ca 05 7c be 0a f0 42 3f b7 25 dc be
       1.0169332 -0.24611583 0.7614752 -0.42997524
000110 89 82 ab 3e a1 6e 06 3f a5 5c a2 be a0 bc 3e 3f
       0.33498028 0.52512556 -0.31711307 0.7450657
000120 d8 5d f1 bd fb ea 3f 3d d8 2c 0c be 9f 44 16 3f
       -0.117854774 0.046854954 -0.13688982 0.5869846
000130 8f 71 29 bf f4 19 d5 be 70 79 42 be 9d a0 b3 be
       -0.661889 -0.41621363 -0.18991637 -0.35083476
000140 82 21 0a 3f 57 3f 2f be 13 07 c3 3e 7b 66 0f bf
       0.5395738 -0.17114006 0.38091335 -0.5601575

bn2.running_var f4 [84]
000000 51 58 04 41 d8 2c ff 40 98 ac 4e 41 ae ed 2f 41
       8.271562 7.974224 12.917137 10.995527
000010 94 5c 15 41 af 3d 2b 41 fd 09 20 41 db da 1d 41
       9.335102 10.702559 10.002439 9.8659315
000020 8b 24 02 41 0c d3 e2 40 77 30 68 41 17 10 03 41
       8.133922 7.0882626 14.511832 8.191428
000030 f8 b1 0b 41 7b 40 2d 41 6b e3 32 41 ce 13 26 41
       8.730949 10.828242 11.180522 10.379835
000040 a3 28 48 41 bd bb 3b 41 71 4d 16 41 d8 df 32 41
       12.509921 11.733335 9.393907 11.179649
000050 ec 36 8a 41 1f af 36 41 fa b1 5a 41 ed de 12 41
       17.276817 11.417754 13.668451 9.179425
000060 55 b4 2d 41 54 ce fc 40 b4 98 fa 40 a5 7b 87 41
       10.856526 7.9001865 7.8311405 16.935373
000070 72 a7 86 41 47 1e 48 41 22 aa 46 41 2a 6b cf 40
       16.83176 12.507392 12.416536 6.4818316
000080 0f 47 0d 41 eb 6b 11 41 d8 02 07 41 12 82 84 41
       8.829848 9.088847 8.438194 16.56351
000090 23 e0 22 41 e4 90 0a 41 eb d7 5a 41 46 04 0d 41
       10.179721 8.660374 13.677714 8.813543
0000a0 d2 7d fd 40 ab d1 86 41 45 2d 12 41 e8 f3 31 41
       7.921609 16.852377 9.136052 11.122047
0000b0 53 d1 14 41 ee fc 33 41 63 9d d3 40 44 64 18 41
       9.301105 11.24925 6.6129622 9.524479
0000c0 ba fa 1b 41 63 93 2a 41 7d cf 20 41 aa 6f 69 41
       9.748713 10.660983 10.050656 14.589762
0000d0 74 8e 75 41 e8 31 3c 41 8b 29 25 41 8d 78 09 41
       15.347279 11.762184 10.322642 8.591931
0000e0 6c 9f 2b 41 85 36 1c 41 ff c1 23 41 07 b9 f9 40
       10.726421 9.76331 10.234862 7.8038363
0000f0 ee 98 16 41 ec b0 26 41 40 1e 20 41 1d c9 6f 41
       9.412336 10.418194 10.007385 14.9866
000100 30 c6 57 41 4f 6f 1a 41 bc c1 0e 41 06 60 ff 40
       13.485886 9.652175 8.922298 7.9804716
000110 1b 2b fe 40 3d b9 40 41 09 58 6d 41 a0 ef 7c 41
       7.942762 12.045224 14.833993 15.808502
000120 4e ae 30 41 7f 9f 11 41 82 aa 10 41 86 a8 fd 40
       11.042555 9.101439 9.041628 7.9268217
000130 7a f4 7c 41 07 77 21 41 fb 9a 09 41 e9 83 34 41
       15.809687 10.091559 8.600337 11.282205
000140 4d e8 53 41 48 26 15 41 29 cc 15 41 0a 0e 0d 41
       13.244214 9.321846 9.362344 8.8159275

fc3.weight f4 [46, 84]
000000 ed 30 ef be ed dd a4 be e7 a5 66 bf 92 f4 41 3d
       -0.46717015 -0.32200566 -0.90096897 0.04735238
000010 67 3c ce 3e da 3e 01 bf c7 3c ea 3e d2 7a 53 3f
       0.40280458 -0.5048653 0.45749494 0.82609284
000020 76 26 95 3e e4 79 c5 be ed d1 5d 3f 25 51 93 3e
       0.29130906 -0.38569558 0.86648446 0.28772846
000030 ec 67 8f 3f 7d f4 0d 3e b7 0b 15 bf 47 55 fa be
       1.120359 0.13862796 -0.58221 -0.48893186
000040 02 18 76 bd f1 b5 9e be 83 bf a4 be 3f 96 90 bf
       -0.06008149 -0.30998185 -0.32177362 -1.1295851
000050 3c aa 3d be ac 3f 4b 3f 50 66 ba 3e b4 45 3f 3f
       -0.1852197 0.7939403 0.36406183 0.74715734
000060 b9 3f dc be 09 14 3b be 4d 61 68 3f f4 6c a0 be
       -0.43017367 -0.18269362 0.9077347 -0.31333125
000070 1e 50 7b bf d7 1f 6b 3e d1 1f 29 bf 55 98 06 bf
       -0.98169124 0.22961365 -0.66064173 -0.5257619
000080 9e 20 fe 3e e0 2c 36 bd 07 0f 29 3f 72 c4 ba be
       0.4963426 -0.04447639 0.66038555 -0.36478
000090 c4 b0 08 3e 82 4e bb 3d b4 06 10 be 16 c0 37 be
       0.1334868 0.091458336 -0.14065057 -0.17944369
0000a0 a9 91 91 bc f3 21 01 be e6 b6 26 3e 91 c1 aa bf
       -0.017769651 -0.12610607 0.16280708 -1.3340322
0000b0 72 8e 88 3e 4e 6d 1c 3e 1e 67 f7 be c9 73 e8 ba
       0.26671177 0.15276071 -0.4832086 -0.0017734702
0000c0 0e 41 53 3d 64 0c c4 3e 97 d9 aa be c3 ca e8 be
       0.051575713 0.38290703 -0.33369133 -0.45467195
0000d0 0f b9 2a bf ab e3 65 bf 77 28 a0 be cb 8a 90 be
       -0.66688627 -0.8980052 -0.31280872 -0.2823089
0000e0 4c b2 7a 3c 98 28 23 be f0 56 8f be a1 6f 51 3b
       0.015301298 -0.15933454 -0.27996016 0.0031957405
0000f0 b6 d3 e5 be 3a 7b 5f bf 6b dd 18 3e 5d 85 f6 3e
       -0.44888085 -0.87297404 0.14928214 0.48148623
000100 9f 6c 3f bf 07 a1 0a be 9e 96 41 bc d6 d5 93 be
       -0.7477512 -0.1353799 -0.011815695 -0.2887408
000110 7b 3b cc 3e bd 7f 3d bf 1b cb 8c 3d 32 96 85 be
       0.3988913 -0.7402304 0.06874677 -0.26091152
000120 6a af 8b bf bb 93 0b bf 79 8f 10 be 53 45 d0 be
       -1.0912907 -0.54522294 -0.1411723 -0.4067789
000130 d1 37 cf 3d d0 66 61 3f 05 92 ac 3d da fd c4 be
       0.10118068 0.88047504 0.084262885 -0.38474923
000140 c8 d1 b6 be dd 04 de 3d 0b 3e 20 bf 28 6a 45 3c
       -0.35706925 0.10840771 -0.6259467 0.012049235
000150 63 87 60 bf 42 12 90 bc d8 c5 3d bf 65 8d 65 3d
       -0.87706584 -0.017586831 -0.7413001 0.056043047
000160 55 c7 42 3e d3 b4 1f 3e c7 e6 4d 3f ef f5 f7 3e
       0.19021352 0.15596323 0.80430263 0.4842982
000170 68 38 21 3f 00 0c 83 bd 97 4c 0a 3f 48 3c df 3e
       0.62976694 -0.06398773 0.54023117 0.43600678
000180 f9 bb c0 3f 71 03 87 3e e5 9d 4e bf ed 82 8a be
       1.5057365 0.26369813 -0.8070968 -0.27053013
000190 5a 8d 08 3c 33 a3 72 be c6 68 1c 3b f4 6b 12 bf
       0.008334482 -0.23695068 0.002386616 -0.57195973
0001a0 1b f3 04 be f3 67 6e 3d 9b 96 20 bf db fa 1c 3f
       -0.12983362 0.058204602 -0.62729806 0.61320275
0001b0 bd 69 06 bf 6c 61 1d 3d 65 92 32 3f 8f a7 93 be
       -0.52505094 0.038422987 0.6975463 -0.28838775
0001c0 ec 88 28 bf b9 22 84 bd fd 8f 9b bd e5 52 c9 be
       -0.65833926 -0.06451935 -0.07595823 -0.39321056
0001d0 5c d5 37 3e 45 6e 21 be 55 19 c7 3e eb 4f 8d bd
       0.17952484 -0.1576472 0.38886514 -0.06900009
0001e0 8b bc 38 3f dc dd 68 3e eb 29 0c bf b0 8a bd 3e
       0.72162694 0.22740883 -0.5475146 0.37019873
0001f0 fe a0 7d be d8 7a 0a bd 29 71 62 be 05 2a 71 bf
       -0.24768445 -0.03380856 -0.2211348 -0.9420474
000200 30 c6 4a be 09 a3 34 3e 7a 89 4c be e9 58 d2 3d
       -0.19802165 0.17640318 -0.19974318 0.102708645
000210 5a 32 c5 bd 5b 50 50 3c cb 72 16 3e 64 36 e5 be
       -0.096287444 0.012714471 0.14692228 -0.4476806
000220 2f a3 7b bf a2 51 30 bf 14 01 36 bf a2 1d 24 3e
       -0.98295873 -0.6887456 -0.71095395 0.16026929
000230 90 55 75 be ac bf 0c bf 75 0f 68 3e 19 6d cb bd
       -0.23958421 -0.5497997 0.22662146 -0.09932918
000240 d8 d4 78 bd 52 44 6f bf 52 9a 37 3e b1 26 94 3f
       -0.06074986 -0.93463624 0.17929962 1.1574308
000250 4c fa 02 bf e8 68 d3 be 18 cf ab bc 0a 7d 29 be
       -0.5116317 -0.41290975 -0.020972773 -0.16551605
000260 d2 eb 04 3f 09 db 3d bf aa 3b e3 ba 28 9b b8 be
       0.51922333 -0.74162346 -0.0017336507 -0.36055875
000270 42 ca 4d bf f6 30 0e bf 01 33 71 bd 5f 9c 56 be
       -0.80386746 -0.5554346 -0.05888653 -0.20958088
000280 4d d8 c1 bd 74 3c 22 3f 79 54 12 be b5 28 1e 3c
       -0.09465084 0.63373494 -0.14290036 0.00965326
000290 c2 38 5e 3e 2d 36 0e 3e 2f b8 3f bf 1f 91 3a 3e
       0.21701339 0.13887854 -0.74890417 0.18219422
0002a0 13 b9 04 bf a8 b1 8c 3d 7e 4e 98 3e c1 3e e5 bd
       -0.518449 0.06869823 0.29747385 -0.1119361
0002b0 97 9a e5 be 60 0e a6 3e d4 30 7a be ac 94 af bf
       -0.44844505 0.32432842 -0.24432689 -1.3717246
0002c0 28 74 35 3e 79 dc 92 be 64 56 21 be 98 a7 1c 3e
       0.17720091 -0.28683832 -0.15755612 0.15298307
0002d0 fe 9c 86 be 0f f3 b2 3c df 4d 44 3e 21 b6 1f 3f
       -0.2629165 0.021844415 0.1917033 0.6238728
0002e0 f1 69 29 be 91 43 50 bf b8 81 0d bf 2e c7 41 3e
       -0.1654432 -0.813531 -0.5527606 0.18923637
0002f0 64 9b e8 bd d7 f9 fa be 37 ba a8 be eb 0d 9a 3c
       -0.113577634 -0.49018738 -0.3295457 0.018805465
000300 87 43 8c 3c ee bc 33 bf 5f 48 9f be 64 fe 87 ba
       0.017122043 -0.7021016 -0.31109902 -0.0010375497
000310 2e c2 0d 3e bd e9 5e bf 0f 32 f3 3d 41 f0 0d be
       0.13843605 -0.87075406 0.11874782 -0.13861181
000320 3a 5f 88 3e 8e 86 d3 be fc 1f c9 be 03 66 fb 3f
       0.26635152 -0.41313595 -0.39282215 1.9640507
000330 d5 0a 38 3f af a6 27 be da 66 2f 3f b6 9d 69 3e
       0.7189153 -0.16372178 0.68516314 0.22814068
000340 6a 06 31 3e 2d 7f 81 bf 6b e4 f6 3d 73 c1 11 3f
       0.17287603 -1.0116936 0.12055286 0.56935805
000350 c7 fc 67 bf 28 d0 8a 3e f8 ff 0a 3f 1c c9 a9 3e
       -0.9062008 0.27111936 0.5429683 0.33161247
000360 43 fd 83 3f dd 5d 09 bf 8f 85 27 3f 24 fe 8a 3f
       1.0311664 -0.5365885 0.6543817 1.0858808
000370 19 03 24 3f 02 dc 92 3e 84 63 cc be be 7d 7f 3e
       0.64067227 0.28683478 -0.39919674 0.2495031
000380 3f eb 91 3e 07 4c 2b 3f 99 c9 a5 3e 42 67 a6 bf
       0.2849979 0.66912884 0.3238037 -1.3000262
000390 ae 23 28 3f 67 76 d9 3e 9c a7 06 bd 1d 00 ea be
       0.6567944 0.42473146 -0.03287469 -0.4570321
0003a0 33 59 ab be b9 bc 30 3f 60 20 8b be 27 b6 0d bf
       -0.3346649 0.6903797 -0.27173138 -0.5535607
0003b0 9a f2 97 bf cf 96 72 3f bd 19 63 be 15 ce bf bd
       -1.1870911 0.94761366 -0.22177787 -0.09365479
0003c0 35 82 2c 3f a0 b1 d9 be fe 43 95 bf 73 47 94 be
       0.6738618 -0.4251833 -1.1661375 -0.2896076
0003d0 91 48 7a 3e 79 51 28 3d 22 3f 0c 3f 11 eb fd be
       0.24441744 0.041093323 0.54783833 -0.49593404
0003e0 2b ae db be 3a ae 02 bf 76 f2 d9 3a e7 fa 54 be
       -0.42906317 -0.510471 0.0016628045 -0.20798837
0003f0 08 4c 58 bf 2d 0e 03 bf 4d 6a 01 3f c6 9c ee bd
       -0.84491014 -0.51193506 0.5055283 -0.11650996

fc3.bias f4 [46]
000000 a3 10 1a bf 3d 6e df be 29 ec 3f bf 51 e3 b1 be
       -0.60181636 -0.43638793 -0.74969727 -0.3474374
000010 67 74 cc be 87 5f 1c 3e 48 60 44 bb d1 f5 27 bf
       -0.39932558 0.15270816 -0.0029964615 -0.6560946
000020 e3 d8 e7 be f6 4f e0 be 1d 92 18 bf e6 c4 bc be
       -0.4528266 -0.43811005 -0.5959795 -0.36868972
000030 76 c6 2f bf 1d ce ce be 07 bb 0b bf 58 30 1e bf
       -0.686622 -0.40391627 -0.54582256 -0.61792517
000040 55 c3 2c bf c3 80 19 bf 2f 54 00 bf 25 c8 d5 be
       -0.67485553 -0.599621 -0.50128454 -0.4175426
000050 b8 c6 18 bf 83 c7 03 bf 93 9a e2 be f8 b0 12 bf
       -0.5967822 -0.51476306 -0.44258556 -0.5730128
000060 63 0a fa be 23 4a 04 bf 8e 4e 3b bf ae aa 00 bf
       -0.4883605 -0.51675624 -0.7316674 -0.50260437
000070 f8 e6 27 bf 44 93 1a bf ee 4f d7 be 8f 71 55 bf
       -0.65586805 -0.6038096 -0.4205317 -0.833764
000080 cb f0 e1 be 0b 63 fa be 6c bd 3e bf 61 b4 52 bf
       -0.44129023 -0.4890369 -0.74507785 -0.82306486
000090 7a 45 00 bf 58 40 db be 70 0f b6 be c5 b0 0e bf
       -0.5010601 -0.42822528 -0.35558653 -0.5573848
0000a0 f8 00 1e bf 7d f0 d9 be d3 d8 1a bf c4 aa 08 bf
       -0.6172023 -0.4256629 -0.604871 -0.5338557
0000b0 0a 7a 07 bf 4f 97 fd be
       -0.5292059 -0.49529502
