mp4-machine-learning-template/model/model.pth (torch, 89342 bytes, 14 tensors)

fc1.weight f4 [120, 51]
00000000: a321 29be 69a7 ef3c 3ddc 39be 0b40 acbe
00000010: 3424 08bc bb9b b3bd 3ced ad3d 268b 6e3d
00000020: f3fa 15be dd34 503d 3413 243e c694 5b3d
00000030: 14ed e23d 3733 bf3e b0d2 abbc b8fe d63e
00000040: ad3d bebd 9456 30bb a537 f9bd 1521 e83e
00000050: df4f 11be 1755 8f3e 81c3 6b3e 41f7 423e
00000060: d0ba 2a3e ccd6 ba3e e5a6 653d 59bf 93be
00000070: 5552 50bd df30 e6bc 8ed9 b7bd 3762 343e
00000080: 9876 64bd c129 1d3e 05d6 f3bd feee 2abe
00000090: 0426 9a3c e9d6 6c3d ae5a 043e 3585 ff3a
000000a0: 2199 66bc 632e 3bbe 3426 723e 6244 853d
000000b0: 2684 46bb 92f7 513e 1a57 40be ef9f 703d
000000c0: bf12 973d c82b be3c bdfe 9b3d 8f48 e23d
000000d0: a691 04be f315 833d 9ff0 bebe 5a99 633d
000000e0: 1923 583d 7a5b f2bc dc92 193c 86d2 e33c
000000f0: 271f d5bd b06a 3d3d d477 e33b 0324 cc3e
00000100: 8783 c8be 861f cb3c 134f 003e 9b7b fdbd
00000110: ae66 ce3e 97fc 32be 8249 a1be 0ccd a7bb
00000120: e29b 68bd ef4a 1c3e 3543 8fbe b4bc 4abe
00000130: da96 efbe ec24 48be 372a ce3e 637f bcbd
00000140: 6a2e 0b3e 847c 6dbc ea34 963d f612 10be
00000150: 1116 a83b f178 96be 1e14 41bd 9662 25bc
00000160: bc16 1d3e 8e55 83bd 4482 033e a154 c5bd
00000170: baa3 9dbd 972a 8abd 7935 b53d 12a2 233d
00000180: 57fc b13d 3c75 96bd e588 843c cf4b 4e3d
00000190: 601e 15be 8149 173e 569b 683e c205 8d3d
000001a0: 232f 1d3e 7df5 873d 6cbc 12be fc4a 4abb
000001b0: 0832 1b3e e7c6 07bf a783 123e e65d a43c
000001c0: 8b9d 1ebe 6885 803d c668 dc3e e380 543e
000001d0: 471f 553d 1a35 623e 49f0 123e efc9 3c3e
000001e0: d1c4 41be eab7 163e 04a1 023e 6288 a73d
000001f0: 551a 64bd 6bd4 7ebc 8fc7 33bd 9335 883b
00000200: eb87 0fbe b7c2 f03d 3814 33be 99ce a53e
00000210: 4488 20be b5f5 ce3e 3715 87bc 1f1c 833d
00000220: ccbf 81bd 021f b43d 7d49 e53d d42d b93c
00000230: 0dfa d63c d771 0dbc 2717 e33d f14a ccbe
00000240: 40ad fdbc abc8 80bd a753 0c3d be9d 2a3e
00000250: 4d05 a7bd b01c 26be bc5d f0bd 7c73 b93d
00000260: c9f0 b3bd fe28 4bba 8690 a93d e345 96bd
00000270: 8028 adbd 4d7d a1bd 241a 4c3e 44c5 913d
00000280: a165 133e c33f cdba d096 16bd 22b7 e0bd
00000290: 03e5 623c 438d 62be 0938 483d d92e 4ebe
000002a0: 81f8 c9bd 62b9 05be 303f 423e 9294 c03d
000002b0: b82f 793d 0c87 8dba bd11 d33d 3ad6 a93d
000002c0: 0e66 aa3e 69c5 36be a05c c93e a8a7 873e
000002d0: c94c 9e3c ae7d a9bc 1971 2b3e ef9f c3bd
000002e0: 7ad4 07be 7d56 f5bd 9b24 c5bd 713f 93be
000002f0: 2fef 9dbe e9ea 54bd 4ba1 10be 9aff a5bb
00000300: ec12 233e a295 e03c 1a75 7c3e e46c ad3e
00000310: 3579 443e e9d4 183d 26c4 f23d afd4 473d
00000320: c9ca 0ebe e7e0 bebd 1cc3 f33d 5d34 a13e
00000330: 1245 603e 5856 aa3d bc6e 29be 4597 c6be
00000340: ec82 5d3e da8e 233d c535 58bd 3353 e83d
00000350: 69af 133e 9e1d 9bbc 2c42 213e b503 ce3d
00000360: 07c0 fcbb 53bf 76bd a63e 61be 96eb 48be
00000370: 51d9 943d 46b7 343e 7598 543e e1eb 39be
00000380: c53d 953e 60b1 b63e c482 163e 4801 edbe
00000390: dcf6 44bd 5082 c9be f18f 12be 830e 52bd
000003a0: 249c bb3d 78f6 643c aa05 333e 3ca5 81bd
000003b0: 786b 7fbc 6fb1 0fbd b8e2 8c3e 65a7 543e
000003c0: 0e07 9e3d 3856 103c bf52 823d 114c 7ebe
000003d0: b228 a83d 2ede 063e 0363 11be 792f 95be
000003e0: a91a 95bd e805 5a3e 3596 fc3d a4ce 4abc
000003f0: af1e 61bd d9d5 943e b3aa 37bd e336 fa3d
-0.16516738 0.029254632 -0.1815042 -0.3364261 -0.008309413 -0.087699376 0.084925145 0.05823817
-0.14646511 0.050831664 0.1602295 0.05360868 0.11080375 0.3734376 -0.020974487 0.4199121
-0.092891075 -0.0026907073 -0.121688165 0.4533774 -0.14190625 0.27994606 0.23023798 0.19039632
0.16672826 0.36492002 0.056067366 -0.28856924 -0.050859768 -0.028099475 -0.08977042 0.17615591
-0.055777162 0.15347959 -0.11906055 -0.16692731 0.018816955 0.05782214 0.12925217 0.0019494655
-0.014074595 -0.18279414 0.23647386 0.065071836 -0.003029117 0.20504597 -0.18783227 0.058746275
0.073766224 0.023214236 0.07616947 0.11048996 -0.12946185 0.06400671 -0.37292954 0.05556617
0.052767847 -0.029584635 0.009373393 0.027810346 -0.104063325 0.046244323 0.006941775 0.39871225
-0.39162847 0.024795305 0.12530164 -0.123770915 0.40312713 -0.17479168 -0.31501395 -0.005120879
-0.056789286 0.1526296 -0.27980962 -0.19798547 -0.46794778 -0.19545335 0.40266582 -0.092039846
0.13591924 -0.014495019 0.07334311 -0.14069733 0.0051295836 -0.29389146 -0.047138326 -0.0100943055
0.15340704 -0.06412803 0.12842661 -0.09635282 -0.07697244 -0.067464046 0.0884809 0.039949484
0.08690708 -0.073465794 0.016178558 0.050365265 -0.14562368 0.14774133 0.22715506 0.06885864
0.15350012 0.0663862 -0.1432969 -0.0030867448 0.15155804 -0.53037876 0.14308034 0.020064306
-0.15489785 0.06275445 0.43048686 0.20752291 0.05203178 0.22090569 0.14349474 0.18436407
-0.18922736 0.14718595 0.12756735 0.0818031 -0.055689175 -0.015553574 -0.043891486 0.004156777
-0.14016692 0.11755889 -0.17488182 0.32384184 -0.15676981 0.40421835 -0.016489608 0.06401848
-0.063354105 0.08794977 0.111956574 0.02260486 0.02624228 -0.008633099 0.110884 -0.39900926
-0.030966401 -0.062882744 0.034259465 0.16661736 -0.08155308 -0.16221881 -0.117366284 0.0905523
-0.087861605 -0.0007749944 0.08279519 -0.073375486 -0.084549904 -0.07885227 0.19931847 0.071177036
0.14394237 -0.0015659261 -0.03676492 -0.1097243 0.013848546 -0.221242 0.048881564 -0.20135058
-0.098618515 -0.13058999 0.18969417 0.094033375 0.060836524 -0.0010797693 0.10306118 0.082928136
0.33280987 -0.17848743 0.3932848 0.264951 0.019323723 -0.020689812 0.16742362 -0.09551989
-0.13264647 -0.11979387 -0.096261226 -0.2875934 -0.30846545 -0.05198184 -0.14124028 -0.0050658705
0.15925187 0.0274151 0.24654046 0.3387214 0.19186862 0.037312422 0.118538186 0.048786815
-0.13944544 -0.093202405 0.119024485 0.31485263 0.21901348 0.0831725 -0.16546148 -0.38787284
0.21631974 0.039931156 -0.052785654 0.11343994 0.14422382 -0.018935021 0.15747899 0.10059301
-0.007713321 -0.060241055 -0.21996555 -0.19621119 0.07268012 0.17648038 0.20761283 -0.18156387
0.2914869 0.356822 0.1469832 -0.4629004 -0.048086986 -0.39357233 -0.14312722 -0.05128337
0.09160641 0.013974778 0.1748263 -0.06330344 -0.015589587 -0.035081323 0.27516723 0.20766981
0.07716189 0.008809619 0.06363439 -0.24833705 0.08210887 0.13170692 -0.14197926 -0.2913778
-0.07280476 0.21291316 0.12333337 -0.0123783685 -0.054960903 0.29069403 -0.044840526 0.122175

fc1.bias f4 [120]
00000000: d299 88bd 5047 87bd 869a 1bbd ebcb 70bd
00000010: 4601 773d 6c18 b5bd 286a 9e3d 8b26 24bd
00000020: 2972 3abd ad31 003e 543e eebd 9463 bfbb
00000030: 64f5 fd3d 323a babd dc6c 0a3e 8f1b c5bc
00000040: dffb 8d3d 0046 073e 967a 043d f721 0d3e
00000050: 0d1d 87bd a95e 9dbc f06d df3d 0179 e5bd
00000060: 9433 efbd ee89 98bd 7ee7 e83d 8fa1 ac3b
00000070: df85 7c3d fac5 b5bd 9d7c d0bd b630 abbd
00000080: a11c ffbd fdba f63c 7e04 663d 0e94 05be
00000090: b897 acbb d605 28bd 050e 3f3d 9f75 b33d
000000a0: b81b a13d 9cc4 f43d 096a c4bc 006b 16bd
000000b0: 2f4d 89bd 9e36 c3bd dcd7 d63c cda7 eebd
000000c0: 0865 bc3d a62b cabc f90d 0a3e ac4c f3bd
000000d0: 89a1 4abb 3cb9 653c 9df4 a23c ca9c f0bd
000000e0: 7059 40bd c451 c9bd 6b60 66bd 2557 c23d
000000f0: 5bd1 b2bd 82ba 1ebd a67c 39bd 7d57 85bc
00000100: fb89 0dbe e6ad c63c 783d 40bd f013 0dbe
00000110: a1b4 0d3e ae0d 9e3d 08e2 a83d 1894 eb3d
00000120: 259c a93d 43cd 9c3c 9711 903d 87bc 823d
00000130: 8c75 07be a4e7 d4bd 6313 c53d 9e82 053c
00000140: 193a 9ebd e393 0abe b6f1 d3bb ea0f 3bbd
00000150: 7165 1cbd 3071 2a3d 7be0 fd3d f003 a4bd
00000160: 944b c33d f522 bfbd 44a9 083e 09c7 a2bd
00000170: cfcb c53c 91e0 e43d f432 173c d989 9abd
00000180: 6fff d33c 9766 7b3d 2ff1 a23c 6a65 073e
00000190: 8499 083e 900f 973d b80b 163d 185e 63bd
000001a0: 8b83 bebd 51ed efbd 2a97 aa3d b301 dfbd
000001b0: 670d 07be 4ec3 94bd 9636 983d f735 d8bd
000001c0: ba46 84bd a109 683d a550 843d 014c da3c
000001d0: 8840 d9bd 84b6 c53d 4193 f03c dd71 f3bd
-0.06669964 -0.06605399 -0.037989162 -0.05878822 0.06030395 -0.08842549 0.077350914 -0.04007582
-0.045519028 0.1251895 -0.11632982 -0.005840728 0.1240032 -0.09093131 0.13518089 -0.024060993
0.06932806 0.13210297 0.03234347 0.13782488 -0.06597338 -0.019210177 0.10909641 -0.1120472
-0.116797596 -0.07448183 0.11372279 0.0052682827 0.061651107 -0.08875652 -0.10180018 -0.083589
-0.124566324 0.03011846 0.056156628 -0.1304476 -0.0052671097 -0.04102119 0.04664423 0.08762669
0.07866615 0.11951563 -0.023976343 -0.036723137 -0.06704175 -0.09531902 0.026225977 -0.11653099
0.09198958 -0.024679016 0.13481893 -0.118798584 -0.0030919036 0.014021214 0.019892031 -0.11748655
-0.046960294 -0.09830049 -0.056244295 0.09489278 -0.08731338 -0.038752086 -0.04528489 -0.01627707
-0.13822167 0.024252843 -0.04693362 -0.13777137 0.13838436 0.07717453 0.08246237 0.11502856
0.08281735 0.019140845 0.07034605 0.06383615 -0.13228434 -0.103957444 0.09622838 0.008148817
-0.07725925 -0.13532977 -0.006468023 -0.045669474 -0.03818268 0.04161185 0.12396332 -0.080085635
0.095359 -0.093328394 0.1334582 -0.07948119 0.024145035 0.11175645 0.009228457 -0.075458236
0.025878636 0.061377134 0.019890396 0.1322228 0.13339812 0.07376015 0.03663227 -0.055509657
-0.093024336 -0.117151864 0.083296135 -0.10888996 -0.13188706 -0.07263814 0.074322864 -0.10557168
-0.064588025 0.056649808 0.06460694 0.02664757 -0.106080115 0.09653953 0.029367091 -0.11886952

bn1.weight f4 [120]
00000000: 3c24 9c3f 5453 eb3f 5a9f 913f 3d42 8d3f
00000010: e6cb cf3f aa8e e23f fcaf 5a3f 8ae0 a83f
00000020: 352a 8e3f 95e7 d13f c6b1 ca3f 5599 a23f
00000030: ac62 a63f 85b1 cd3f 15db 893f e2a2 ba3f
00000040: b239 833f 9e4f e93f 99ec a43f b117 aa3f
00000050: a6b6 b23f 8f9e a73f 954d 8c3f 0520 a73f
00000060: 79fd a63f 5e1e ba3f ef0a 953f edfb 833f
00000070: 90b5 853f 1601 963f e20d bc3f 70fd 893f
00000080: 958e c03f 530b ec3f 2601 a03f ac84 ae3f
00000090: 2f93 8f3f 9f49 c03f de74 963f e5b8 a83f
000000a0: cbce b03f 23db 9e3f bfcc 9b3f 1519 863f
000000b0: ede0 aa3f dc15 9f3f 8fd7 a73f 0b0e 903f
000000c0: 261b b13f 73da b63f fad5 aa3f b4cb c53f
000000d0: a493 8a3f 3a37 e03f b312 a43f 2a22 9b3f
000000e0: b914 983f 683e 883f 3d74 a13f 6026 be3f
000000f0: dc51 9a3f c0ba 933f fdfe 943f a603 9c3f
00000100: 94a0 853f 8e85 b23f 3a51 9f3f 76d1 873f
00000110: 323e be3f 90d5 713f 7f4c 843f 0c32 983f
00000120: 1ad8 9a3f 4481 8f3f dd5c aa3f 7c10 c13f
00000130: fb20 d13f f52f ad3f 87e8 b33f b9b7 a53f
00000140: 4f59 b83f e64c a33f df7e 8e3f 297e b13f
00000150: 78e6 b53f 5d0d aa3f 5fb2 ad3f bca7 df3f
00000160: b8bb ad3f b803 a93f 8aeb 963f c53f e03f
00000170: ba09 ac3f 7f07 a53f 434d ac3f 8707 b13f
00000180: 3f98 893f cadc 6c3f ee2b a93f 649b b63f
00000190: 21a3 c53f 31e8 9f3f 2b4e 9e3f 260c a33f
000001a0: 9013 8d3f c4b2 733f c505 953f f16e a33f
000001b0: 8e52 a43f c151 c63f 3c7f 8e3f 67ed 833f
000001c0: e036 a63f 620f 973f bfb4 bb3f 7a29 8f3f
000001d0: 8630 b03f 53df a63f c8b0 843f 177e 6c3f
1.2198558 1.8384805 1.1376755 1.1035839 1.62341 1.7699788 0.8542478 1.3193524
1.110663 1.6398798 1.5835502 1.2703043 1.2998862 1.60698 1.0769984 1.4580958
1.0251982 1.8227422 1.2884704 1.328848 1.396199 1.3095263 1.0961176 1.3056647
1.3046104 1.4540517 1.1643962 1.0311257 1.0446033 1.1719081 1.4691737 1.0780468
1.5043513 1.8440956 1.250035 1.3634238 1.1216792 1.5022467 1.1754415 1.3181425
1.3813108 1.2410625 1.2171859 1.0476404 1.3349892 1.2428546 1.3112658 1.1254286
1.383641 1.4285415 1.334655 1.545279 1.0826306 1.7516854 1.2818207 1.2119801
1.1881324 1.0644045 1.2613598 1.4855461 1.2056231 1.1541367 1.1640316 1.2188613
1.043963 1.3947008 1.2446663 1.0610797 1.486273 0.94466496 1.0335845 1.1890273
1.2097199 1.1211324 1.330959 1.5083156 1.633819 1.353026 1.4055337 1.2946693
1.4402255 1.2757843 1.1132468 1.3866626 1.4210958 1.3285328 1.357006 1.7473063
1.3572912 1.320426 1.1790631 1.7519461 1.3440468 1.2892913 1.3461078 1.3830422
1.0749587 0.925244 1.3216531 1.4266171 1.5440408 1.2492734 1.2367605 1.2738082
1.1021595 0.9519465 1.1642386 1.2768232 1.2837694 1.5493699 1.1132579 1.0306824
1.2985497 1.180157 1.4664534 1.1184533 1.3764808 1.3036903 1.0366449 0.923799

bn1.bias f4 [120]
00000000: 8bd2 0d3f d306 08be 4cd5 cd3e 681e 60be
00000010: d220 7ebe c96e 18bf 400d 89be 306f b5bd
00000020: 263d babe 82c8 723e 204d 79bf ae3e 04bf
00000030: c503 07bd 7e18 1f3e 8f4b b23e 541d b3bd
00000040: 8096 7cbd 4544 2a3e 974f 293f ae2a cbbe
00000050: 0b91 abbd 97f5 c73e 99b5 073e ee89 fb3c
00000060: 6df5 21be a0ca 4abd 72d1 8b3d 58da 453d
00000070: 0da6 f8bc 9b21 29be 58cb cabe 6378 22be
00000080: c8fc 87be 7c86 a23d a3e3 4abe d10f 943e
00000090: bcdd 823e b881 593c 7c93 a73e 25ea a33e
000000a0: 8f9d cdbd b8c0 2f3e edd8 0cbe 29c4 833e
000000b0: 027f 64be 0d96 4f3f 0510 86be 4566 b0be
000000c0: 359d 8d3d a145 03bf e2d2 67be 2534 03be
000000d0: dcad fc3e 1335 c7bd 1173 533e f88a 50be
000000e0: d651 d03c 3f0b 9dbc 3d82 e1be abda 373e
000000f0: 28c7 39bf 4ffe e7be 9d79 703e 785d f4be
00000100: 80e6 2abe 25af babd 7cd1 efbe 292c 86be
00000110: bf24 453e f85e 9e3e d67f c0be 51bf b03e
00000120: a5a2 073f c688 90be 8c16 41bd 62b2 8c3e
00000130: e86a cd3d f88a 1d3f 0012 83be b1e1 02bd
00000140: df6c afbd 25f3 123e 1fda 28bf 3ed6 7c3e
00000150: 05aa 423d 6b25 c4bd ed25 3fbd c038 96be
00000160: 6dbc e83d 4454 343e 86cc b6be 1884 613e
00000170: 966b c53e 3058 20be 48b4 08be aa1e abbd
00000180: d13b 86bd 9859 93be 147d 9dbe f1b0 8e3e
00000190: 1bd5 a8bd 8524 0e3e f544 ad3e f7d1 c13e
000001a0: ea6a 2b3e 5ddc de3c 0a23 f0bd 70ba c73e
000001b0: dd3b e93d fd58 1fbe 4831 d23e 3c94 06bb
000001c0: 46d6 673e 54d5 afbd 3a98 62bf 9c03 9e3c
000001d0: ae1b 073e 37e8 40bd d091 b73d 0c63 b13e
0.5539939 -0.13283853 0.40201795 -0.21886599 -0.24817207 -0.59544045 -0.2676792 -0.08859098
-0.36374778 0.237093 -0.9738331 -0.5165814 -0.03296258 0.15536687 0.34823272 -0.08745828
-0.061666965 0.16627605 0.6613707 -0.39681 -0.08377274 0.39054558 0.13252868 0.030705418
-0.15816279 -0.049509645 0.06827058 0.048303932 -0.030352617 -0.16516726 -0.39608264 -0.15866236
-0.26560044 0.07935807 -0.19813399 0.28918317 0.25559795 0.013275556 0.3272971 0.32014576
-0.100398175 0.1716336 -0.13754626 0.25735596 -0.22314075 0.81088334 -0.26184097 -0.34453025
0.069147505 -0.5127812 -0.22639039 -0.1281286 0.49351394 -0.0972692 0.20649363 -0.20365512
0.025429647 -0.019170402 -0.44044676 0.17954509 -0.72569513 -0.4531121 0.23483892 -0.4772756
-0.16689491 -0.091154374 -0.4683951 -0.26205567 0.19252299 0.3093183 -0.3759753 0.34520963
0.5298255 -0.2822935 -0.047140643 0.27479845 0.100301564 0.61540174 -0.2559967 -0.031953517
-0.085656874 0.14350565 -0.65957826 0.24691102 0.047525425 -0.095774494 -0.04666703 -0.29340172
0.11364064 0.1761027 -0.35702914 0.22023046 0.38558644 -0.15658641 -0.13350022 -0.08355458
-0.06554378 -0.28779292 -0.3075949 0.2786937 -0.08243772 0.13881119 0.33841673 0.37855503
0.16740003 0.027204687 -0.11725433 0.39009428 0.11388371 -0.1556129 0.41053224 -0.0020535132
0.22640333 -0.08585611 -0.8851353 0.01928883 0.13194153 -0.047096457 0.089633584 0.3464588

bn1.running_mean f4 [120]
00000000: 3e5a 5fbd d245 73bd 4e4c e8bc 36a6 3fbd
00000010: ddff 8d3d c1aa aebd 459e ae3d e0ce 37bd
00000020: 18e1 c8bc 7bd1 283e a01f a1bd 1c77 ab3c
00000030: 6abd 183e a51d c8bd b2b0 e13d f81a 8bbc
00000040: 1315 343d bae2 f43d 7918 af3c c500 0a3e
00000050: 99ef 34bd e1e1 97bc 1d93 fc3d dd66 ebbd
00000060: aa04 00be 8d7c acbd f99f df3d 4ca3 bbbb
00000070: f26d 8c3d 0796 bbbd b741 cbbd 60f3 08be
00000080: d5be 0abe 98e5 273d 72d3 823d d8d4 cbbd
00000090: 2e4a 24bc 90ad 79bd aae0 3f3d 0dc4 ba3d
000000a0: b44d b03d 93af e03d 572a 5bbd 5dfb fbbc
000000b0: 5093 93bd 69d0 b2bd 297a 153d 415c dcbd
000000c0: 1058 c43d c4c8 c2bb c892 073e fb03 0abe
000000d0: 669f c6bb 59e1 c73c a004 513d 1eb7 06be
000000e0: 0d9f f5bc f17e ccbd 4024 00bd 4251 9c3d
000000f0: 9a03 ccbd add8 65bd 6e94 35bd 90e9 7abc
00000100: 045d 1ebe 70ee a13c 4149 3abd d844 1dbe
00000110: 75f0 143e 899e b13d a25d a13d a748 f83d
00000120: 634d c23d 04c2 8ebb 3882 673d 4981 a63d
00000130: cc51 2cbe cb38 d7bd 1c6a 763d cb86 d73c
00000140: 3c04 a7bd e3d2 e6bd 6aa9 9abc f2c9 21bd
00000150: e0c8 edbc 7844 273d 7d4f fc3d 3c35 b5bd
00000160: 26b9 973d c4e5 c3bd dd13 ef3d 4603 8cbd
00000170: 1d53 f83c 5e05 f33d 8061 553c f484 b7bd
00000180: efe1 df3c db4d 5c3d faaa b33c bab2 173e
00000190: 80d1 f33d ea1b 923d c187 df3c ce64 86bd
000001a0: c313 87bd 4648 cbbd 1b46 943d 81bc 97bd
000001b0: 151a f2bd 46c5 72bd 34cf 623d 2eb1 c1bd
000001c0: 65a4 84bd 39c8 573d 1a79 d33d bf02 fb3c
000001d0: 861e 05be b696 ea3d 78d8 f63c 5e6f cebd
-0.05452942 -0.059392758 -0.028356697 -0.04678937 0.06933568 -0.085286625 0.08526281 -0.044875026
-0.024521396 0.1648616 -0.0786736 0.02093082 0.14916006 -0.09771279 0.1102003 -0.016980633
0.04396541 0.11957307 0.021373974 0.13476856 -0.04417381 -0.018540325 0.12332747 -0.11494229
-0.12501779 -0.08422194 0.10919184 -0.0057262536 0.06856908 -0.09159475 -0.099246435 -0.1337409
-0.13549359 0.040990442 0.06387986 -0.09952706 -0.010027451 -0.060956538 0.046845116 0.09119425
0.08608571 0.10970988 -0.053507175 -0.030759508 -0.07205832 -0.08731157 0.036493454 -0.107597835
0.09587109 -0.0059443433 0.13239586 -0.13478081 -0.0060614822 0.024399446 0.0510298 -0.13155791
-0.029983068 -0.0998515 -0.03128457 0.07632686 -0.099616244 -0.05611484 -0.044331007 -0.015314475
-0.1546517 0.019767016 -0.045480017 -0.15358293 0.14544852 0.08672816 0.07879187 0.12123232
0.094874166 -0.0043566246 0.05652067 0.08130128 -0.16828078 -0.10508879 0.060159788 0.026309391
-0.081551045 -0.11270692 -0.018879611 -0.03949923 -0.029026449 0.04083678 0.12319849 -0.08848044
0.07408361 -0.09565309 0.116737105 -0.06836562 0.030313069 0.11866258 0.013023734 -0.08960906
0.027329413 0.053785186 0.021932114 0.14814273 0.11905193 0.071342304 0.027286412 -0.06562196
-0.06595566 -0.099258944 0.07239934 -0.07409001 -0.11821381 -0.059270166 0.055373386 -0.094576225
-0.06476668 0.05268118 0.10325833 0.030640958 -0.12999925 0.11454527 0.030132517 -0.10079835

bn1.running_var f4 [120]
00000000: b21c e13f 147a d13f 1477 f53f e32b 0b40
00000010: 8f0a e93f acde dc3f edb6 0a40 f6b6 df3f
00000020: 6d4e e73f d839 f63f f3c8 0541 2365 5e40
00000030: c6c0 ae3f 60c0 d53f 8270 4c40 da4f 1940
00000040: 2820 f63f 7b2d e13f 14fd c63f e8b4 bc3f
00000050: a7bb e03f 7afc be3f 532b c63f eaf1 e33f
00000060: 8367 c13f 7243 d53f 9535 c83f 0709 1340
00000070: 304a b83f 9013 e23f 75c0 e73f ea86 0240
00000080: a532 d43f dfa0 0140 ab2f fd3f 7e4e d53f
00000090: 930b b43f 8894 de3f db45 2b40 1282 d63f
000000a0: efda dc3f f120 fa3f b08b e13f e1b1 db3f
000000b0: 3570 e33f 6c1d cd3f 8859 f63f e2ad 1340
000000c0: 278c d33f 9a3c dd3f 60ab fb3f 7015 cc3f
000000d0: a50b 1040 8252 e03f 6a8e c33f 5096 c03f
000000e0: 5ad9 c73f 1607 c23f 9921 2440 a091 e23f
000000f0: eb96 1e40 a781 d13f 21a1 bf3f 562d 2540
00000100: 1ba3 0540 4ed9 ee3f e8d0 a43f 6c82 e03f
00000110: 5ff5 c73f 5aaf 2940 fc17 1640 df3f b63f
00000120: 84ff 3740 462a 2c40 06bb f53f 386a e83f
00000130: 1bfd 0940 4a72 f83f e5ca f13f c37c a23f
00000140: aac8 cd3f e4b6 be3f 7824 bd3f 39cd 0940
00000150: 01d4 0340 6312 cd3f bf38 ee3f a76d db3f
00000160: 7758 b63f 0bec a03f bc47 0240 3ca6 c53f
00000170: 96e0 cd3f 64c4 0640 341a e03f 3648 ca3f
00000180: f1aa bc3f 87c8 2c40 4717 cc3f 9b5d fc3f
00000190: 407b c83f c7d5 f83f 607f ec3f ed93 d83f
000001a0: cf32 bc3f 08e9 0e40 2208 d33f f0e2 f33f
000001b0: 5210 0140 bf12 ef3f e5c3 f13f e6c0 d23f
000001c0: a15b d93f 4142 da3f fb0a 0a41 d6fd f63f
000001d0: 2d14 d13f 9b3b af3f 7570 ce3f 06e0 1840
1.7586882 1.636538 1.9176965 2.1745536 1.8206347 1.7255454 2.167415 1.747771
1.8070809 1.9236403 8.36156 3.474923 1.365258 1.6699333 3.194367 2.3954988
1.9228563 1.7592005 1.5545983 1.4742708 1.7557267 1.49208 1.5481972 1.7808201
1.5109714 1.6661208 1.5641352 2.297426 1.439764 1.766222 1.8105608 2.0394845
1.6577955 2.0254438 1.9780172 1.6664579 1.4066032 1.7389078 2.6761386 1.6758444
1.7254313 1.9541303 1.7620754 1.7163659 1.7768618 1.6024604 1.9246073 2.307488
1.6527146 1.7284119 1.9661674 1.5944042 2.2507107 1.7525179 1.5277836 1.5045872
1.5613205 1.5158412 2.5645506 1.7700691 2.4779613 1.6367692 1.4971048 2.580892
2.0880802 1.8660066 1.2876253 1.7539802 1.5621756 2.6513276 2.345214 1.4238242
2.8749704 2.6900802 1.91977 1.8157415 2.1560733 1.9409878 1.8890043 1.2694324
1.6076863 1.4899564 1.4776754 2.1531508 2.0598147 1.6021236 1.8611068 1.7142838
1.4245747 1.2572035 2.0356283 1.5441356 1.6084163 2.1057367 1.7507997 1.5803287
1.4739667 2.6997392 1.5944604 1.9716066 1.5662613 1.944024 1.8476372 1.6920143
1.4703006 2.232973 1.6486857 1.9053631 2.016621 1.8677596 1.8887907 1.6465118
1.6981088 1.7051469 8.627681 1.9296215 1.6334282 1.3690065 1.6128069 2.3886733

fc2.weight f4 [84, 120]
00000000: 10ae 383d e593 7abd 3dee b23d 94b1 52bb
00000010: 8176 3abe 857f 7dbd 5878 563e 131b d73d
00000020: d1cc 73bd dbfc c33e 3471 16be 70e1 90be
00000030: c61a cabd f1f7 59bd e0dd 26bc 22d9 1bbe
00000040: 2f05 853e 3014 cf3d 85c8 013e 2db6 b63d
00000050: b915 b83d 0acc c23d 5e99 deb9 1d94 f5bb
00000060: 940b 18be 58b3 213e c13a c23c 65d2 a43d
00000070: fad0 223e 009f 803e ea0d 06be 7832 83be
00000080: 1e4d 25be 123e be3d b4bb 1f3e d323 6e3d
00000090: ce60 bd3d 7679 6fbe 89b4 a23d c204 a83d
000000a0: 9aeb b13d a696 f3bd 7b97 b53d 56c4 563c
000000b0: 36f4 2ebe 24e3 183d a4a1 8bbe 2eca 143e
000000c0: 55af dc3e c91e a8be ffbe 34bc 3576 3ebe
000000d0: 9204 08bd f564 e8bd 29b8 323e f030 d3bd
000000e0: 1b64 5c3e 02e3 9dbc df3c afbe b450 89bd
000000f0: 1d14 31be bf4a 663d c72c 763e 593e 6abc
00000100: 8fcb 2e3e ea8c 683e 53ae 823d f222 b5bd
00000110: 3481 6d3e fb93 c0bd 276c 163e c778 133e
00000120: af91 c0bc 4ca5 bbbd 4412 57be d598 583e
00000130: f296 8dbd 672d 693d c83b acbd 6a81 a5be
00000140: 7f1f 26bd c990 ebbd 0edd 62bc 6e41 973e
00000150: b7ed 6f3c 5e35 a8be 57ce 893c 1d93 02be
00000160: f908 323d 65b7 4fbe 6b92 c9be f237 9dbd
00000170: 8c8d e6bd dcac debb e1d7 303e f4dd 3fbc
00000180: d7f1 5cbd 0e38 0dbd 9915 05bd 9539 d53d
00000190: 62a7 91bc 2aee 063e 0616 8a3d 32eb 61bd
000001a0: c2a1 093d 8f5f ca3c 951a 90be 49eb 823e
000001b0: e2a9 5ebb dc94 3f3e 36ff ce3d 2ec1 723e
000001c0: d621 ab3d d2a0 0a3d 365a adbd 8932 f63d
000001d0: ca10 4abe b9ae 563e 4452 77bc e46e d0bd
000001e0: 3097 c33c f175 d63d 01d7 19bd 83cb 063e
000001f0: 0cad 08be 4a9c 1bbc f12e 0fbe 5286 243e
00000200: 80f5 e3bc ec4e a93e b064 ab3d cd43 163e
00000210: 0f6c 7c3e f4a4 d7bd f3bd 81bd 4c58 87bd
00000220: 54dc d03e 0ebf 80be 55dc 18be ea51 18be
00000230: 08d1 bf3e 9c60 b13c 2d10 b4be 0f93 d8bd
00000240: b93a 2bbd c239 d53c e1f3 d6bc c6ce 89be
00000250: 17c8 623e 84c1 cabd 0aea d4bd fa56 7c3e
00000260: a4ec 57be aea2 22bd 0d4a 583e f005 3abb
00000270: d808 6d3d f210 123e cdd4 393e bad2 9cbe
00000280: 1967 d5bd c328 533e 716a 94be cd23 7abe
00000290: 700d 76bc 1037 c9bc 4289 843c d88e 1c3e
000002a0: 49b6 763b 9aec 09bd 490f d33e a203 d63d
000002b0: a718 473e 95a8 19bd 56f6 fa3c ea50 303e
000002c0: 96a2 e6bd c2a8 583e 6d2f a73d 6eda 503e
000002d0: d1cf 93bd 92e8 f93c e72d f93e 1ca7 813e
000002e0: 2549 17be 8d35 553e fe78 0bbe dc32 b33d
000002f0: 115f 5fbc dfa0 b23d c004 85be 4e24 c73e
00000300: 4795 bc3d dc3d febd edc2 103e 7bfc a7bc
00000310: eecc 033c 057b 263e c0db b93d af8e 6abe
00000320: 56c9 0bbd 95ff e5bd 4834 163d 5251 f1bd
00000330: b212 083e 594a 403e 5297 813d c6c7 9f3c
00000340: 63e1 043e 91cd 64bc ae18 1f3e d166 aabd
00000350: d90c 50bd 9f3d 32bd 1868 183e 4246 43be
00000360: d30a a53d 8717 c83d 6811 92be 09da ac3d
00000370: 57f5 20bb 6966 933e 2868 083e d333 453d
00000380: 634c 7e3d 3006 eabb 46db e43b 4670 80be
00000390: 2969 55be 7523 55bd 84eb 22be 6d04 2e3d
000003a0: f182 33bc 8c81 29bb e9e8 42bc b40a 8e3d
000003b0: 45bb 9c3d 59f7 92bd 9a82 3fbe a752 9e3c
000003c0: a44a 14be 4d8f 25be 0f3a 123e 27f5 bfbd
000003d0: b2c3 ebbc ddb2 6b3e 7b49 b3bd 80e4 ac3d
000003e0: f01d 5ebd 0e72 5ebe 7465 323e 257d ce3c
000003f0: e82b 99bd 8c13 853e 2e68 27be d8bb 1cbd
0.045087874 -0.0611762 0.087368466 -0.0032149302 -0.18209268 -0.06188919 0.20944345 0.10503211
-0.0595215 0.3827885 -0.14691621 -0.28296995 -0.09868388 -0.05321497 -0.010184735 -0.15219548
0.25980517 0.10111272 0.12674148 0.08921466 0.08988518 0.095115736 -0.00042457407 -0.007494463
-0.14848167 0.1579107 0.023709657 0.08047942 0.1590003 0.25121307 -0.13091245 -0.25624442
-0.16142699 0.09289183 0.15598947 0.058139633 0.0924698 -0.23386177 0.079445906 0.082040325
0.086875156 -0.11893968 0.08866783 0.013108334 -0.17085347 0.037325993 -0.2727176 0.1453025
0.43102518 -0.32835987 -0.011031865 -0.1859978 -0.033207484 -0.11347381 0.17453064 -0.103120685
0.21522562 -0.019273285 -0.34226128 -0.06704846 -0.17292829 0.056223627 0.24040519 -0.014297091
0.17069839 0.22710004 0.06380906 -0.08844556 0.23193818 -0.09403225 0.14689694 0.14401542
-0.023506967 -0.09162387 -0.21003062 0.21152051 -0.06913556 0.056928065 -0.0840984 -0.32325298
-0.04055738 -0.11502225 -0.013846649 0.29542106 0.014644078 -0.32853216 0.016822023 -0.12751432
0.04346559 -0.20284803 -0.3936952 -0.07676686 -0.11257467 -0.006795509 0.17269851 -0.011710633
-0.053941574 -0.034477286 -0.0324913 0.104113735 -0.01778001 0.1317679 0.06742482 -0.05515594
0.03360153 0.024703769 -0.2814528 0.25570133 -0.003397577 0.18709129 0.101072714 0.23706505
0.08356063 0.033844776 -0.08464472 0.120213576 -0.19732967 0.20965089 -0.015095297 -0.10177401
0.023875803 0.10471714 -0.03755856 0.13163571 -0.13347262 -0.009497711 -0.1398275 0.16066864
-0.027827024 0.33068025 0.08368814 0.14674301 0.24650596 -0.10529509 -0.06335058 -0.06608638
0.40793097 -0.25145763 -0.149278 -0.14874998 0.37464166 0.021652512 -0.3516859 -0.10574924
-0.04180405 0.026028518 -0.026239337 -0.26915568 0.2214664 -0.099001914 -0.10396202 0.24642554
-0.21086365 -0.039705925 0.21121998 -0.0028384887 0.057869762 0.14264277 0.18147583 -0.30629522
-0.10420055 0.20621018 -0.28987458 -0.2442772 -0.015017852 -0.024562389 0.01617873 0.15288866
0.0037645272 -0.033672906 0.412226 0.10449912 0.19442998 -0.037514288 0.03063504 0.17218366
-0.112614796 0.21158126 0.081633426 0.20395824 -0.07217372 0.030506406 0.48667833 0.25322807
-0.14773996 0.20821209 -0.13620374 0.08749935 -0.013633505 0.0872209 -0.25980186 0.38894886
0.0920816 -0.124141425 0.14136858 -0.020506134 0.0080444645 0.16257866 0.09075117 -0.22905992
-0.034127556 -0.11230389 0.036670953 -0.11783089 0.13288382 0.18778361 0.0632769 0.01950444
0.12976603 -0.0139650265 0.15536758 -0.08320392 -0.050793502 -0.043515798 0.14883459 -0.1906977
0.08058705 0.097701125 -0.28528905 0.084400244 -0.0024560296 0.2878907 0.13320982 0.048145127
0.062084567 -0.007141851 0.0069841472 -0.25085658 -0.20840897 -0.052035768 -0.15910155 0.04248469
-0.010956512 -0.002586457 -0.01189635 0.06935635 0.07652906 -0.07176084 -0.18702164 0.019326521
-0.14481598 -0.16167946 0.1427996 -0.09372931 -0.028779838 0.2301745 -0.0875425 0.084420204
-0.05422777 -0.21723196 0.17421514 0.025206158 -0.074790776 0.25991476 -0.16348335 -0.03826508

fc2.bias f4 [84]
00000000: f9bd adbd 24ee a63d 30cb 1bbd 4ffe 423d
00000010: 2158 803d 34e5 1e3c 34c2 b83d 885d 6abd
00000020: e359 8b3d fb4f 373d 923b 82bc 696d b7bc
00000030: b3b4 6cbd 90cb a3bd 5bab 12bb ee03 a3bc
00000040: 4d2c 8fbd ebf5 483d 4836 a9bd 5169 b0bc
00000050: 047d 693c a5f9 973c 7064 443d 55fa 87bd
00000060: 684b 53bd d6e1 12bd b8ab 523c 6d4e 03bd
00000070: a8f1 2a3d 7ba7 cabb a302 95bc 41b8 223d
00000080: 88e6 8d3d 491d a43d c13d a9bd 9d2e ac3d
00000090: eaa9 9c3d c73a 14bd af63 84bd 912a 1f3b
000000a0: 4319 69bc baa1 e1bc 522e 813d 4abd 8fbd
000000b0: d178 1cbd 1f90 103d 6f87 523d 8c29 1e3d
000000c0: 1502 153d c5fe c83c 4fec c13c e658 84bd
000000d0: 684f 9bbd 2cb3 8ebd 2b0e 15bd 9b41 a4bd
000000e0: 5738 ea39 fba2 41bd 1722 973c 4c96 d63c
000000f0: 02b6 013d bf8d 1a3d a038 a1bd 0e3a 6d3d
00000100: 7254 273d 138d 9cbd 505d b23b 3efe 923c
00000110: 529b 9cbb dad9 ea3c 926e 513c ffc0 183d
00000120: 8a5b 83bd bf14 633d 37b7 d23b a852 e8bc
00000130: 6b5b 233d 5dbb 883d fed6 2e3d c981 53bd
00000140: 41db fd3c d1b5 afbc 048e 943d 5f54 1f3c
-0.084835 0.081508905 -0.03803557 0.04760581 0.06266809 0.009698201 0.09021416 -0.057218105
0.06804254 0.04475401 -0.015897546 -0.022391038 -0.057789516 -0.07997811 -0.0022379968 -0.019899335
-0.069908716 0.04906265 -0.082623065 -0.021534594 0.014250997 0.018551657 0.047947347 -0.06639544
-0.051585585 -0.035859905 0.012858324 -0.032057215 0.041734368 -0.006184516 -0.018189734 0.0397265
0.06928736 0.08013398 -0.08263732 0.08407328 0.07649596 -0.036188867 -0.06464326 0.0024286846
-0.014227214 -0.027542938 0.06307663 -0.07018526 -0.038201157 0.035293695 0.05139869 0.03861384
0.03637894 0.024535546 0.023672251 -0.064622685 -0.07583505 -0.06967768 -0.036390465 -0.08020326
0.00044673934 -0.04727457 0.018448872 0.026194714 0.031667717 0.037732836 -0.078721285 0.057916693
0.040852018 -0.07644095 0.0054432526 0.017943498 -0.004779258 0.028668333 0.01278271 0.03729343
-0.06413944 0.055439707 0.0064305323 -0.028359726 0.039882105 0.06676362 0.0426855 -0.051637445
0.030988337 -0.021449002 0.0725365 0.0097247055

bn2.weight f4 [84]
00000000: 8807 b53f 8627 9d3f 6921 de3f e24e f63f
00000010: 374b cd3f aa07 c23f cff2 ac3f f182 cc3f
00000020: acc8 b43f ed37 cb3f 3075 983f a5e0 e03f
00000030: e20c be3f e34c c33f 2548 cf3f b346 0340
00000040: 6fde b13f 11a3 c53f 046d bd3f c9df af3f
00000050: 0a47 c93f 7ab6 dc3f db72 a23f 3060 c63f
00000060: cf6a cc3f c928 b43f 0c1f a93f 4a87 ae3f
00000070: ed50 f13f 0420 bb3f 2fcd a53f fe4c b93f
00000080: 2dfe b63f 02d9 ce3f 0c0f bf3f 60f2 a23f
00000090: 6bc3 b63f b40e 8f3f bb15 a33f c987 af3f
000000a0: 58d9 cc3f 0e07 c43f 3c7b dc3f 9e4a ba3f
000000b0: 44b8 b63f 9260 b73f 3ae2 a83f 5db0 ce3f
000000c0: 48a7 ae3f f335 ac3f 0b9c b63f f4f0 993f
000000d0: a216 af3f bb11 aa3f a507 be3f e6af b33f
000000e0: d98a c03f 2b38 ce3f 46cb ad3f 2cd7 bf3f
000000f0: 2141 b43f 3205 ad3f d91c c83f 4bd2 cc3f
00000100: 91e9 d63f 41a5 c73f e72e d63f 7b55 a73f
00000110: 3db1 cb3f 4839 d03f ca21 9d3f 6b83 b23f
00000120: 56fc b23f 7014 af3f 7bd6 b03f b9f1 8c3f
00000130: 22de be3f b308 c03f 8499 af3f 8783 c73f
00000140: 3611 9c3f 486c ae3f 55ee b73f 35f5 c83f
1.4142923 1.2277687 1.7353946 1.9242823 1.6038579 1.5158589 1.3511599 1.597746
1.412374 1.5876442 1.1910763 1.7568556 1.4847682 1.5257839 1.6193892 2.0511901
1.3896006 1.5440389 1.4798894 1.3740169 1.5724804 1.7243187 1.2691301 1.5498104
1.5970095 1.4074947 1.32126 1.3635037 1.8852822 1.4619145 1.2953242 1.4476621
1.4296318 1.6159976 1.4926467 1.2730217 1.4278387 1.1176362 1.2741007 1.3713313
1.6003828 1.5314653 1.7225108 1.4554021 1.4274983 1.4326346 1.3194039 1.6147572
1.36448 1.3453964 1.426637 1.2026658 1.3678782 1.3286661 1.4846083 1.4038055
1.5042373 1.6110891 1.3577659 1.498754 1.4082376 1.351721 1.5633804 1.6001676
1.6790029 1.5597306 1.6733063 1.3072962 1.5913464 1.6267481 1.2275937 1.3946356
1.3983257 1.3678112 1.3815454 1.1011268 1.491154 1.5002655 1.3718724 1.5587014
1.2192752 1.3626795 1.4369608 1.5699831

bn2.bias f4 [84]
00000000: 7bf6 ef3e aa95 24bf 568c b8be 1283 083e
00000010: 07f8 38bf ebdf f8be 5139 42bf 9850 85be
00000020: 23c9 09bf 4294 f9be e417 2cbf c0a8 fc3e
00000030: 4f6a 13bf d3e7 17bf 86b2 0dbf 092c 703d
00000040: c7a8 173f faab 02bf cbe7 fd3e d18d d63e
00000050: 01c8 14bf e399 103f 8d77 303f 04bd b73e
00000060: 5c21 2d3f 4cab 2b3f 5a3e 033f ef9a 283f
00000070: 60a1 7ebe 2512 b2be e9b0 133f 5c8e e5be
00000080: c1b5 0abf 501e 01bf 0b15 073f c6cb 31bf
00000090: 35ed 313f 4174 32bf c5ac 1f3f 3ed6 1e3f
000000a0: b570 e7be 4e57 443f 9c47 11bf 9dfc 053f
000000b0: 1c39 f9be a9ad 08bf 95d9 1c3f 3d50 b5be
000000c0: 16c6 3c3f 9ddb 28bf a8b4 023f 1917 203f
000000d0: 933f 1bbf b0ca 163f ec29 2cbf 10ba fdbe
000000e0: 92c5 25bf 2b6c 983e 3009 1a3f fe42 1b3f
000000f0: 0ea5 dbbe a6a5 49bf 7571 b93e d5aa bcbe
00000100: 0c00 c83e 3616 023f 5adb d7bd be54 0dbf
00000110: c32e b23e dac3 febe b6fd 57bf b5e5 1c3f
00000120: 8d5e 1c3f 39c7 063f 9608 243f c912 36bf
00000130: c07a 03bf 9c66 903e a5d5 1ebf cf6b 803e
00000140: 9306 233f 5a34 d73e 84ff 133f cac5 d73e
0.46867737 -0.6429087 -0.36044568 0.1333125 -0.7225346 -0.48608336 -0.7586871 -0.2603805
-0.53822535 -0.48745924 -0.67223954 0.49347496 -0.5758409 -0.5933811 -0.5535053 0.058635745
0.5924191 -0.51043665 0.49590907 0.41905072 -0.5811768 0.5648481 0.6893242 0.35886395
0.6762903 0.67058253 0.51267016 0.6586141 -0.24866247 -0.34779468 0.5769182 -0.44835174
-0.54183584 -0.5043688 0.52766484 -0.6945156 0.69502574 -0.6970864 0.62373 0.6204566
-0.45203176 0.76695716 -0.5674989 0.5233858 -0.48676383 -0.53389984 0.61269504 -0.3541278
0.73739755 -0.65960103 0.5105691 0.62535244 -0.6064388 0.58903027 -0.6725147 -0.49556017
-0.64754593 0.29770026 0.6017027 0.60649097 -0.42899364 -0.78768384 0.36219373 -0.36849084
0.39062536 0.5081514 -0.10539885 -0.5520743 0.348013 -0.49758798 -0.8437151 0.61288005
0.61081773 0.5264774 0.640756 -0.71122414 -0.51359177 0.28203285 -0.62044746 0.2508225
0.63681906 0.4203213 0.5781176 0.4214309

bn2.running_mean f4 [84]
00000000: 02f5 473f 989e a83d ebf1 c73d 59a7 a2be
00000010: 7259 023f f3fa 0fbf aeca 773e 7b88 14be
00000020: 27d7 0ebf 5c38 cdbd 9d28 16bf c52c 343d
00000030: cb9a 87bf d029 c2be cadd 843e 7c6a ca3e
00000040: c43e 9f3e 48c2 05bf 5231 0fbe 0808 6fbd
00000050: 754b 9fbe d304 45bf 5d2a 293f 0ea7 bb3e
00000060: fd1e d13e 6f1e c3be ae37 593f 61f7 933c
00000070: f4a4 5d3e daf6 ab3e 4301 383f b1a2 a23d
00000080: a6cd 4e3d 34c9 903e 9edf e33e bf1f 4ebf
00000090: 0c67 0cbd b168 d73e 3452 af3e a8ea e63e
000000a0: fbe4 86bd 39e9 523f ab89 d13e 2482 a23e
000000b0: 49ef c0bd ba6c 76bf 7426 063f ef1d 6ebe
000000c0: ce42 2ebf cb36 06bf 0b3a 163f b907 06bd
000000d0: dc62 9ebd 7500 3a3f 3b5d 39bd f4b5 9abe
000000e0: bf02 923e 6fd9 fb3e a0db 083f 864a b63d
000000f0: d953 d4be 840e a83b 91d8 c13e 7a72 a23d
00000100: c4bc f1be 9e4f 20bc 6abd 443e 6184 5cbe
00000110: 7975 3ebe 6b29 dfbe 071b 6cbe cc98 913e
00000120: 77d1 453e 3f58 1a3f 4c56 113e a433 08be
00000130: 705e e73d b7b3 303e 1d29 5e3e 3853 c13e
00000140: 85b8 303f 14e6 0a3e 57ec 083f 3a78 e43e
0.7810823 0.08233374 0.09762939 -0.317683 0.5091773 -0.56242293 0.2419841 -0.14505188
-0.55797046 -0.10020515 -0.5865572 0.043988008 -1.0594114 -0.37922525 0.25950462 0.39534366
0.31102574 -0.52249575 -0.13983658 -0.05835727 -0.31112257 -0.76960486 0.66080266 0.3665089
0.40843955 -0.38109156 0.84850585 0.018062295 0.21644956 0.3358677 0.71876925 0.07941187
0.05048909 0.28278506 0.44506544 -0.8051719 -0.03427796 0.4207206 0.34242404 0.45100904
-0.06586643 0.8238712 0.40925345 0.31739914 -0.0942064 -0.96259654 0.52402425 -0.23253606
-0.68070686 -0.5242736 0.58682317 -0.03272221 -0.077337 0.7265695 -0.045254927 -0.30216944
0.2851772 0.49189326 0.5346012 0.08900933 -0.4147022 0.0051286835 0.3786054 0.07931991
-0.4721433 -0.009784607 0.1921288 -0.21534874 -0.185995 -0.43586287 -0.23057185 0.28436887
0.19318186 0.602909 0.14193076 -0.1330095 0.112973094 0.17256056 0.21695371 0.37758803
0.69031554 0.1356433 0.53485626 0.44622976

bn2.running_var f4 [84]
00000000: e04d db40 7e36 bd40 078f de40 1280 da40
00000010: 13d3 d340 7eb0 b940 751c 1e41 db72 c240
00000020: d774 d940 ae9c b640 83fc b140 5046 cc40
00000030: 0827 da40 32cd 2f41 0e27 0a41 4527 eb40
00000040: e2f3 b340 8bca ff40 7884 a840 6de3 8e40
00000050: 462c e540 a3eb d140 f6d4 9c40 5ee1 9d40
00000060: fb5b 0741 ea65 d740 7ca1 9340 e3ca 9a40
00000070: 3178 e540 0669 a740 5a27 a840 3f32 9940
00000080: 558e 9a40 28f2 b040 5962 a940 b7be fd40
00000090: bd53 bc40 fd9c e240 beb7 a740 e895 1541
000000a0: e9e5 c840 b560 e140 cf8f b940 adc0 ac40
000000b0: 3800 a340 c452 df40 626c 1441 dcec b440
000000c0: 9da8 8a40 9246 1c41 6a24 a840 c25e 8240
000000d0: 309c 9e40 7c94 a340 0bbf bc40 3978 ba40
000000e0: 18bb 0941 d3c9 8640 6b74 df40 4813 ba40
000000f0: 3bf8 9b40 6fda ba40 a549 d040 fd0d 9f40
00000100: fb00 c940 7138 9540 8092 9340 112e 9540
00000110: 2cf1 ed40 dad3 e540 6b4b a140 bd43 a340
00000120: 94e7 a040 2167 8c40 20c6 a440 9655 9640
00000130: 0474 ce40 c29a ac40 018d cc40 5a02 a740
00000140: fdc9 a040 dc0c 9540 efba b940 59c5 b340
6.853256 5.912902 6.9549594 6.8281336 6.619516 5.8027945 9.8819475 6.0765204
6.7955127 5.706626 5.562074 6.383583 6.8172646 10.9875965 8.634535 7.3485436
5.623521 7.9934745 5.2661705 4.465262 7.1616545 6.5600142 4.900996 4.9337606
8.459956 6.7311907 4.6134624 4.8372664 7.170922 5.2315702 5.2548037 4.7873836
4.8298745 5.52956 5.2932553 7.9295306 5.885222 7.0816636 5.2411795 9.349098
6.278065 7.043055 5.7988048 5.39852 5.0937767 6.978853 9.276461 5.6539135
4.3330827 9.767229 5.254445 4.074067 4.956566 5.1118755 5.8983207 5.8271756
8.608177 4.2121367 6.982961 5.8148537 4.8740516 5.8391643 6.50899 4.9704576
6.2813697 4.66314 4.6116333 4.6618733 7.43569 7.182111 5.0404563 5.102019
5.028269 4.387589 5.149185 4.6979475 6.451662 5.3938913 6.3922124 5.219037
5.024657 4.6578197 5.804069 5.6178403

fc3.weight f4 [46, 84]
00000000: 6a87 5dbd 15b9 303f bb69 fabe 19c3 16bf
00000010: dbd6 c4be c6f9 bd3e 829b 32be 4b3e 38bf
00000020: 7b7d 963e 15e4 5a3f 71fb e33e 1592 bdbe
00000030: 041a 973f d16a 283f 2980 05bf 3b57 e8be
00000040: e976 683e 5bbd 9d3f 25a2 b4be 9cbd 85bf
00000050: 6b08 a53a 6a48 62be c158 26bf 977c 803d
00000060: 51cc b5be 5d8e a03e f00f 58be 9b4c f5be
00000070: 738c 3ebf cf86 cdbd a75f 8a3e 8706 2f3f
00000080: b34a fabe c10c a7bd 4b19 77be 8909 103f
00000090: 7fae 0abf b2ad c23e 6067 85be a088 b4be
000000a0: f16b b23e f025 e4be 5962 703e 2122 a5bc
000000b0: c95d eebd 439e 87bd 7f82 13be 4144 56be
000000c0: 87c6 6cbf aee1 0f3e 0ec2 2cbf e308 babe
000000d0: eb6e c6be 2d91 b2be b49d ec3e 4e1b 223e
000000e0: 2518 3abe bc2b b0bd 94a1 15bf 6159 d1bd
000000f0: e92e 883e 1ce1 743f 9757 64bf 07f3 713e
00000100: 586f fc3e ddde 26be a798 803d 4968 013e
00000110: cdbf bbbe 3843 0ebd 1989 9bbd ba6c 10be
00000120: f5c0 6abf 3b1c 17bf f8e7 b6bf 55a0 0cbd
00000130: 1955 a33e feef 063f 23a2 7ebd 3a16 15be
00000140: a4cd c2be 7ca6 46bf 447f 073c d29d afbe
00000150: 6d97 333e b4ff df3e 20f9 65bf 2cf0 89be
00000160: 94d2 07be f8a2 4e3e bae8 45be e1d0 07bf
00000170: 864a 393f 55f9 783f 2dfe 823e 1f79 12bf
00000180: 8e0b 503f 280d fc3e d0dd 32bf e0b0 febe
00000190: 7867 6e3e a6f5 283f fe2b 0ebf 90f5 c5be
000001a0: d377 3f3e 02d6 8cbe 95a9 e4be 7ef5 c8be
000001b0: 2cbe d3be e3d4 eb3e 03fc bcbe 7359 d2bd
000001c0: 2d4a 2fbf 8f19 b9be 1538 4fbe 3da9 ac3e
000001d0: 21cb 01bf 4768 0abe 4bfc cbbe c2b4 e03e
000001e0: c710 45bf 6c45 e93e 0286 803e 8437 4dbf
000001f0: 3128 3a3f fe42 4cbf 3c5c 843c 1427 7bbd
00000200: fd9d ce3d 9b6a 443d aa24 b8be 1334 8b3d
00000210: 534e 41bf 9524 f63c 69de 1dbf cd55 193d
00000220: 619b 5fbe cef8 afbe ca11 d43e d6cb b53d
00000230: 7a71 60be 236f 653e 2131 08bf b555 dfbd
00000240: 3551 ab3e c72a 173f f9fd 5abf 2144 113f
00000250: 6625 e53e da27 44be 25ea 283d 7d3b 6e3e
00000260: 4d0d 8fbe ffee 8f3d 6a66 0d3b bce0 2a3e
00000270: 5ab1 80bf a23c 1cbf 81a5 0bbf da8b 993d
00000280: 2642 ca3e a297 2b3f 0fc7 d93d a67b 30bf
00000290: 24db 06bf 3796 a03d 1a2c c4be e360 74be
000002a0: bd83 2ebf cb7c 363f ee88 393f bf73 053f
000002b0: d26c ad3f a15a 44be 0437 513d ebae 823f
000002c0: 8f65 1abe b709 e5be 39f1 0ebe 6499 aabe
000002d0: 3577 6dbe 17fd 41be 2f24 703f 3122 0a3f
000002e0: bda9 4dbf 1bb8 a2be 975f 06bf dd20 433e
000002f0: 5b96 103f 1e88 01be f037 4b3e 50a8 9c3e
00000300: 0beb 36be ddaf 75bf d28b ab3d 68d4 9d3d
00000310: f5d0 873f 9f25 203f a469 06bf b4b2 293f
00000320: 2bfb 803f b854 1b3f d327 a63e 1295 2b3e
00000330: 5b23 973e e394 533f ef17 39be 320b 93bd
00000340: 3c12 d4bd ae49 97be b23e 233e 1627 f9be
00000350: a35a e73e 4468 07be 46d4 c93e a10f d5bd
00000360: 16e7 d63e 1143 af3e bfa7 2d3e 755e 16bf
00000370: 4c82 9e3f 2dc9 bcbd 14cc 473f 702d cc3e
00000380: 2dc9 713f 8172 46be eaf4 133d af38 5abf
00000390: e5a4 403e db63 22bd bd0a aabd f462 6b3e
000003a0: 1c88 7ebf 1701 68be 6b7f 47be 4396 b3be
000003b0: 68c8 cd3e bc64 6dbc 29ac 9b3f 713b 9abe
000003c0: 4363 553f 2bfd ec3d 9b75 0a3e 2f3e 473f
000003d0: a104 dfbe 6cf2 d6be 496c 163f 2df5 cbbc
000003e0: ba3c a83d 5eee 253e ab2a dc3d 2fa9 273d
000003f0: 1d71 40bf afe9 2f3f cd32 3fbf b8f0 8a3f
-0.05408422 0.6903241 -0.4890879 -0.58891445 -0.38445172 0.37104625 -0.17442134 -0.7197005
0.2939261 0.85504276 0.44527772 -0.37025514 1.1804814 0.6578799 -0.5214868 -0.45379052
0.2270161 1.2323412 -0.35279956 -1.0448489 0.001259101 -0.22097936 -0.6497918 0.062737636
-0.35507444 0.31358615 -0.2109983 -0.47910008 -0.7443306 -0.10035478 0.27026102 0.68369335
-0.48885116 -0.081567295 -0.24130742 0.5626455 -0.5417251 0.38023144 -0.2605543 -0.35260487
0.34847978 -0.44560194 0.23475017 -0.020157875 -0.11638982 -0.06621983 -0.14405249 -0.20924474
-0.9249043 0.14050934 -0.67483604 -0.36334905 -0.387565 -0.34876385 0.46214068 0.15830728
-0.18173273 -0.08602092 -0.58449674 -0.10222126 0.2659829 0.9565599 -0.8919615 0.23627864
0.493037 -0.16295953 0.06279116 0.12637438 -0.3666977 -0.034732074 -0.07594509 -0.14103976
-0.9170068 -0.5902745 -1.4289541 -0.034332592 0.31900862 0.5270995 -0.062166344 -0.1455926
-0.38047516 -0.77597785 0.008270089 -0.34300095 0.17538233 0.43749774 -0.8983326 -0.2694105
-0.13263923 0.20179355 -0.1932706 -0.530531 0.7237934 0.9725545 0.25584546 -0.57216066
0.8126763 0.49228787 -0.6986971 -0.4974432 0.23281658 0.6599983 -0.55535877 -0.38663912
0.18698053 -0.27507025 -0.4466063 -0.39249796 -0.41356027 0.46060857 -0.3691102 -0.10270967
-0.6847256 -0.36152312 -0.20236237 0.3372287 -0.50700575 -0.13516341 -0.39840922 0.43887907
-0.76978725 0.45560777 0.2510224 -0.80162835 0.7271758 -0.7978972 0.016157262 -0.061316565
0.100887276 0.04795323 -0.35965472 0.06797042 -0.7551014 0.03004674 -0.61667496 0.03743534
-0.21836616 -0.3436951 0.41419822 0.08876769 -0.21918288 0.22405677 -0.53199965 -0.10905019
0.33460394 0.5904965 -0.8554378 0.5674458 0.44755095 -0.19155827 0.041238923 0.2326488
-0.27939835 0.07028007 0.0021575936 0.16687292 -1.0054123 -0.6103002 -0.54549414 0.07497378
0.39503592 0.6702825 0.106336705 -0.6893867 -0.5267813 0.07841151 -0.38314897 -0.23865084
-0.68169767 0.7128417 0.72474563 0.5212974 1.3548834 -0.19175197 0.051077858 1.0209631
-0.15077804 -0.44733974 -0.13959207 -0.33320153 -0.23190005 -0.18944202 0.9380521 0.5395842
-0.80337125 -0.31781086 -0.5248961 0.19055505 0.56479424 -0.12649581 0.19845557 0.30597162
-0.178631 -0.9597147 0.08376278 0.07706529 1.0610644 0.62557405 -0.52504945 0.66288304
1.007665 0.60676146 0.32452258 0.16756085 0.29519162 0.8264906 -0.18075536 -0.0717987
-0.103550404 -0.295484 0.15941885 -0.48662633 0.45186338 -0.13223368 0.39419764 -0.104033716
0.4197318 0.34230855 0.16958521 -0.5873788 1.2383513 -0.09218059 0.78045774 0.39878416
0.94447595 -0.19379617 0.03612224 -0.8524274 0.18812902 -0.03964601 -0.083028294 0.22986966
-0.99426436 -0.22656666 -0.194822 -0.35075578 0.4019196 -0.014489349 1.2161914 -0.30123475
0.83354586 0.115717255 0.13521425 0.7782926 -0.4355822 -0.41981828 0.5875898 -0.024897182
0.08214708 0.16204211 0.10750326 0.04093283 -0.751726 0.6871595 -0.7468689 1.0854712

fc3.bias f4 [46]
00000000: 20f7 08bf 3ccc fbbe 63e8 02bf d4b9 eabe
00000010: b1aa babe 7edc 55bc e0a1 f7bd da88 b3be
00000020: 68fd fdbe 5f29 a0be 14bd 0cbf ed9b cbbe
00000030: 5224 1dbf 4644 b1be 2266 a6be 5800 06bf
00000040: 8f73 f0be 8de4 e2be 7715 e6be c973 bcbe
00000050: 8cef b3be c593 e0be 715e e2be 7205 d1be
00000060: 480c 0fbf 5657 c1be 787f e9be af6d c1be
00000070: 6ea7 0dbf db6e f5be aad8 debe e5fa 09bf
00000080: 84e3 ebbe eaf5 c8be 5c3e f1be 960c 0fbf
00000090: 8a20 dfbe 8f69 00bf 53b6 90be 4ee4 02bf
000000a0: 71cb 0fbf e107 dbbe e2a1 fdbe 40c9 c2be
000000b0: 1d41 c2be 37dc e3be
-0.5350208 -0.49179256 -0.51135844 -0.458449 -0.36458352 -0.013053058 -0.12091422 -0.35065347
-0.49607396 -0.31281564 -0.5497601 -0.397674 -0.61383545 -0.346224 -0.32499796 -0.52344275
-0.46963164 -0.44314995 -0.4493825 -0.36807087 -0.35143697 -0.4386274 -0.44212678 -0.40824467
-0.55878115 -0.37761945 -0.45605063 -0.37778994 -0.553336 -0.4793614 -0.43524677 -0.5389846
-0.46072018 -0.39250118 -0.4711789 -0.5587858 -0.43579513 -0.5016107 -0.28264102 -0.51129615
-0.561698 -0.4277945 -0.4953757 -0.38044167 -0.37940302 -0.44503948
