mp4-machine-learning-template/model/model.pth (torch, 89342 bytes, 14 tensors)

fc1.weight f4 [120, 51]
000000 b6 e0 a0 3c 49 04 c5 bd e6 f1 07 be a0 f6 80 bc
       0.0196384 -0.09619958 -0.1327587 -0.0157426
000010 90 d0 f8 bd 6f 24 4f 3c 27 d9 f8 bd 1a 98 cc 3d
       -0.12149155 0.012642964 -0.121507935 0.099899486
000020 b7 1b fb bc de 23 a3 3b 9b 1d 45 3d fd 2c a9 bd
       -0.030652864 0.004978641 0.048123937 -0.08260534
000030 5b 49 5d bd b2 2a aa bd 95 87 6d bd 90 3d a7 3d
       -0.054025035 -0.08308925 -0.05799063 0.08166039
000040 bb 71 a3 bc 64 5f 95 bd c7 fb be 3b 98 c4 05 3e
       -0.019951692 -0.07293585 0.005828354 0.13063276
000050 bd 7f 2a 3d e2 dc 4a bd 2b 57 71 3d 57 42 0b be
       0.041625727 -0.049527057 0.05892102 -0.13599525
000060 d7 d2 90 bd d1 0a 2c 3d 41 42 9a 3d b4 1c cb 3d
       -0.070714645 0.042002503 0.07532168 0.09917584
000070 40 c5 d8 bd bd fb 06 3e b6 0d 0e 3e 71 81 a0 3d
       -0.105844975 0.13181968 0.13872418 0.07837189
000080 37 18 22 3c 9a b9 de bb fa 1b d2 bd 1d 91 57 3c
       0.009893469 -0.006797028 -0.10259242 0.013157156
000090 74 be c5 3d d2 3e 3c 3d 30 d7 a9 3d be ed be 3d
       0.09655467 0.045958348 0.08292997 0.093226895
0000a0 a3 13 bf 3d b6 4f bd bd 67 23 0c 3e 15 09 f6 bd
       0.09329917 -0.09243719 0.1368538 -0.12013451
0000b0 2b be ce bd 9b 73 e0 3b e7 5e 26 bd cc 0f 4a 3b
       -0.100948654 0.0068497187 -0.04061785 0.003083217
0000c0 84 28 04 be 0b 54 0e 3e ca 39 48 bd 65 ad 9f 3c
       -0.1290608 0.13899247 -0.048883237 0.01949186
0000d0 22 cd f7 3d 27 ee 8a bd 2b 3b 9d 3d 3f f3 15 bb
       0.12099673 -0.06783705 0.07677301 -0.0022880582
0000e0 19 3f e8 bd 8e cf a0 bd 7d 63 11 bd 20 25 97 bd
       -0.1134016 -0.07852088 -0.03549527 -0.07380128
0000f0 4e e0 c4 3d e9 c3 0c bd 9f fb 17 bc 18 45 cd bd
       0.09613095 -0.034366522 -0.0092763 -0.10022944
000100 61 b7 82 3d 9a 4e 03 3e 93 b2 59 3d 55 2a 80 bd
       0.06382633 0.12822953 0.053148817 -0.06258074
000110 0b 8d 2e bd ab 5c 39 3c 4d a9 7c bd 26 bd 51 bb
       -0.042614978 0.011313598 -0.061684895 -0.003200361
000120 7a 57 ff bd 87 49 1c bd 51 ba a9 3d 5f b5 fd 3d
       -0.12467857 -0.03815606 0.0828749 0.123881094
000130 48 65 d6 bd fd 3b e6 3d 70 af f8 3c eb 1c 0a be
       -0.104685366 0.112419106 0.030357093 -0.13487594
000140 b5 5d ea 3c 45 05 fe 3c 96 ca c1 bd 2c 95 2d 3d
       0.028609136 0.031008372 -0.09462468 0.04237859
000150 b7 45 6e 3d 34 22 cf 3d 34 e2 06 be f5 b7 15 bb
       0.058171954 0.101139456 -0.13172227 -0.0022845243
000160 d9 c8 7f bd 24 c6 0c be bd a7 0e 3e 3e 21 48 bc
       -0.062447403 -0.1374746 0.13931175 -0.012214957
000170 ff 00 91 bd 69 99 00 3d 1f b7 57 3b 0f e7 23 bd
       -0.07080268 0.031396303 0.0032915545 -0.040015277
000180 e1 60 3d 3d ae 2c ed 3d 49 13 dc 3d ce 81 97 3d
       0.04623497 0.115807876 0.10745866 0.07397805
000190 65 19 9d 3d 1d ae 46 3d f5 4b a2 bd 1d de 07 3d
       0.07670859 0.04850589 -0.07924644 0.033170808
0001a0 6e e6 43 bd a2 df 48 bd d7 4a 88 bd 74 e8 78 bd
       -0.047827177 -0.049041398 -0.066548996 -0.06076856
0001b0 20 f7 0e 3d ef d8 c9 3d 9f ce 02 be 14 4c a8 bd
       0.034903646 0.0985583 -0.12774132 -0.08217636
0001c0 cb d6 cd 3d ae ea f8 bd d6 a2 01 3e 44 1d a1 3d
       0.10050734 -0.121541366 0.12659773 0.0786691
0001d0 1e 3f fd bd a7 76 8a bc c7 e2 a2 3d ef c0 3c ba
       -0.12365554 -0.016902281 0.079534106 -0.000720038
0001e0 bd 61 39 bd b4 60 33 3d e8 16 9d 3d 42 65 4b bd
       -0.045259226 0.043793395 0.07670385 -0.049657114
0001f0 19 40 db 3b 0e ab 61 bd c9 52 f8 3d 18 07 ae 3d
       0.0066909906 -0.05509477 0.12125165 0.08497447
000200 be c0 89 3d 7b 82 f7 bd e1 89 df 3d cc 73 3b bd
       0.06726216 -0.12085434 0.1091497 -0.04576473
000210 68 5a c8 3d 8b 5e b4 3b 82 1c 98 bd 34 e8 9a 3d
       0.097828686 0.0055044345 -0.074273124 0.075638205
000220 9b 6b d7 bd cd 20 2c bd 63 df 91 3d a3 f4 74 3d
       -0.10518571 -0.04202347 0.07122686 0.059803616
000230 da db 80 3c 9e 31 45 bd b7 c2 c3 3d ac 9e e0 bd
       0.015729833 -0.04814302 0.09558623 -0.10967764
000240 11 27 af 3d 82 33 94 bd cb a2 ee 3d 3c 1e 91 3d
       0.08552373 -0.07236387 0.11652144 0.07085845
000250 7a bf cb bc a8 c6 fa bc 07 ff 38 ba 9c d3 8a 3d
       -0.024871577 -0.030612305 -0.0007057045 0.067786425
000260 57 55 db 3d 33 d6 01 ba a7 69 28 bc 54 e8 5b bc
       0.10709637 -0.00049528776 -0.010279096 -0.013422091
000270 3c 97 53 bd b2 73 20 bd b7 cd cc bd 97 99 86 bc
       -0.0516579 -0.039172836 -0.100001745 -0.01643066
000280 9b 36 a5 3d f8 ae 42 3c 04 53 96 3d 4a 90 74 3c
       0.08067056 0.011882536 0.07340053 0.014926979
000290 f0 ad 67 3d 1c 06 74 3d a9 2a 0d 3e 14 96 03 3e
       0.056562364 0.05957614 0.13785805 0.12850219
0002a0 22 f4 c2 3d f8 53 7f 3d 5d 40 a3 bc f2 74 82 3d
       0.09519221 0.06233594 -0.019928152 0.06369962
0002b0 ed 80 0d be 0c d0 63 3b d3 88 6c bd 2c 57 e3 3c
       -0.13818713 0.0034761457 -0.057747673 0.027751528
0002c0 ac 0a 8a bb 11 7a b3 3d fb e7 80 bc 4a 1a 33 bd
       -0.004212698 0.08763517 -0.015735617 -0.043726243
0002d0 9d dc 9d bc 29 ff 8f bd 3b af e1 bd d3 a2 9b bd
       -0.019270236 -0.0703109 -0.11019751 -0.07599416
0002e0 ec 1c 9e 3c 49 97 4e bd 85 54 47 bd 34 ae ef 3b
       0.0193009 -0.050437246 -0.04866459 0.007314468
0002f0 2f 26 b6 3c d1 c6 00 3d fa 89 70 bb e8 ee 0a bd
       0.022235004 0.031439606 -0.0036703334 -0.033919245
000300 f4 e8 0d bd 00 14 c3 3d 03 4d 77 bd c4 2a da 3d
       -0.03464599 0.09525299 -0.06037618 0.10652688
000310 ce a7 42 bd 80 dd 46 3d 88 fa f1 3d 47 df 86 3c
       -0.047523312 0.048551083 0.11815363 0.016463889
000320 c5 cc b0 bd 6f 4f bd bd 0a e3 b1 3d 4c f4 31 bd
       -0.08632807 -0.092436664 0.086858824 -0.04344587
000330 44 63 dd bd 9f 04 41 bd cd 4a 8c 3c 47 19 56 3d
       -0.10809949 -0.047123548 0.017125512 0.0522702
000340 e7 c2 ed 3c b4 0d 1b bc 6c bc 38 3d 2d 71 00 3e
       0.0290236 -0.009463716 0.045101568 0.12543173
000350 f2 fd f4 bd c6 9f 91 bd 7e 61 d9 3d ee 19 d9 bd
       -0.11962499 -0.071105525 0.10614298 -0.10600649
000360 16 7f 78 bd 9e 06 7f 3c cd 84 97 3d 33 63 59 bd
       -0.060668074 0.0155655425 0.073983766 -0.05307312
000370 88 f3 07 3e 83 1f 0d 3d f3 d1 ac 3c 26 23 58 3d
       0.13276494 0.03445388 0.021096205 0.052767895
000380 f4 cc de bd 30 f6 f7 3a 7b 49 46 3d 9c 42 8a bd
       -0.108789355 0.0018917974 0.04840992 -0.06750986
000390 c9 3e 6f bc be 9d ab bd 6e bf cc 3d d5 ab 4e bd
       -0.0146023715 -0.08379696 0.0999745 -0.05045684
0003a0 e4 a1 9c 3d e7 2d 80 3d b3 6f 21 3d d5 3c 04 3e
       0.07648066 0.06258755 0.039413165 0.1291383
0003b0 02 82 52 3d 87 57 65 bd 03 e4 6b 3d 57 29 a8 3d
       0.051393516 -0.055991676 0.057590496 0.0821101
0003c0 f1 0e e6 3d 88 0c c0 bd 7a 91 df bd 5e 23 91 3b
       0.112333186 -0.0937739 -0.10916419 0.004429265
0003d0 fa a6 01 3e 10 6e f7 3d a5 d9 33 3c 11 b6 39 bc
       0.12661353 0.1208154 0.0109771835 -0.011334912
0003e0 41 5b e1 3d 8d 90 26 bd ec d5 d7 bd ad 9c 0d ba
       0.110037334 -0.040665198 -0.10538849 -0.00054020697
0003f0 2e 01 23 3d df ae 2d bd 4e 30 e7 ba 12 8e d0 3d
       0.039796047 -0.0424031 -0.0017638297 0.10183348

fc1.bias f4 [120]
000000 cc 0f b0 bc 4f 64 0b 3e 30 25 43 3c 28 c5 85 bd
       -0.021491908 0.13612483 0.011910722 -0.06531745
000010 20 27 a5 3c 14 ce 92 3d 6c e3 bf 3d 1c 69 dc bd
       0.020160258 0.071682125 0.09369549 -0.107622355
000020 52 6c 09 be 1d 5b 8e bd 80 3e 01 be 14 b9 38 3d
       -0.13420227 -0.06950972 -0.12621498 0.04509838
000030 b0 ee 4c bc 80 8e 1b bd 60 0b 87 bd 66 fa e3 3d
       -0.012508079 -0.037977695 -0.065939665 0.11131744
000040 68 b0 9a 3d f5 6c 8e bd 74 20 e4 bd 16 fc 8e bd
       0.07553178 -0.06954376 -0.111390024 -0.06981675
000050 68 ec 24 bd 20 0f 85 3d bd ed b5 bd f0 5f 01 be
       -0.040264517 0.064970255 -0.088832356 -0.12634254
000060 d0 5e 0f bd 88 19 b7 3d a0 ac a7 3b c6 1c b1 3d
       -0.03500253 0.089404166 0.005117014 0.08648066
000070 7c 1c 98 3d 82 1c bd bd c6 ca 31 bd 72 0a 7d bd
       0.07427308 -0.09233953 -0.04340627 -0.06177754
000080 d0 aa 16 3c 34 17 bc bd e5 f1 ab bd 88 d3 86 bd
       0.009195998 -0.09184113 -0.08395747 -0.06583315
000090 00 4c 35 3b 3a 0f 69 bd d6 da fc 3d ec 92 f7 bc
       0.0027663708 -0.056899287 0.12346427 -0.030221425
0000a0 50 ee 77 3c 5c a1 c6 bd 32 ae ff 3d 3d 31 b7 bd
       0.015132502 -0.096987456 0.12484397 -0.08944938
0000b0 f0 e9 b8 bc 64 75 55 bd 00 02 62 bb ec d4 f1 bd
       -0.022572488 -0.052113906 -0.0034486055 -0.1180819
0000c0 34 72 09 3d 4a d5 b6 bd 08 0d 05 3d 6c d3 81 3d
       0.03355618 -0.089274004 0.03248313 0.06339154
0000d0 54 c9 da 3d 0e 6e f0 3d f2 7c 05 be 00 22 22 bb
       0.106829315 0.11739741 -0.13035944 -0.0024739504
0000e0 9c 65 91 bc b1 23 ee bd 7c 81 07 be 14 36 41 3d
       -0.017748646 -0.11627901 -0.13232988 0.047170714
0000f0 f0 3e 5b 3c 80 c2 ae 3b 71 7d 0a 3e 10 45 0e bd
       0.013381705 0.005333245 0.13524415 -0.034733832
000100 9c 77 09 bd 5c 95 cd 3d 40 e9 bf 3d de 87 d0 3d
       -0.033561334 0.10038254 0.09370661 0.101821646
000110 ed ad ea bd a4 e4 9e bd b0 3c 07 3d 9a a9 fa 3d
       -0.11458955 -0.077584535 0.03301686 0.1223938
000120 b8 66 40 3d c0 45 32 3d 66 b6 c1 bd ff 3b c4 bd
       0.04697296 0.04352355 -0.09458618 -0.09581756
000130 13 da 0c be 42 c9 dd bd 50 8a f0 3c 62 21 aa 3d
       -0.13755064 -0.108294025 0.029362828 0.083071485
000140 36 0b d9 3d 60 77 09 3c 80 7e 0a 3d 60 f8 d7 3c
       0.105978414 0.008390278 0.033812046 0.026363552
000150 c0 a5 24 bc 20 1c a5 bb c7 3c 04 3e 00 7b 50 3d
       -0.0100492835 -0.005038753 0.1291381 0.050898552
000160 15 dd 02 be 18 b2 9d bd 1c a7 2d 3d 72 3f 60 bd
       -0.12779649 -0.07699984 0.042395696 -0.054748006
000170 60 a5 b0 3c c0 38 2c bb c4 87 86 3d f8 94 e4 bc
       0.021563232 -0.0026278943 0.06568864 -0.027903065
000180 f0 52 92 bd 5e 33 05 be 0c 2f 18 bd 4e 4a 51 bd
       -0.07144725 -0.13007876 -0.037154242 -0.051096253
000190 e5 ef 91 bd b1 40 06 3e 94 5a 0a 3d 48 36 02 bd
       -0.071258344 0.13110615 0.03377779 -0.031790048
0001a0 cd 00 08 be c8 30 ba bd f8 43 ac 3d c7 08 bb bd
       -0.13281555 -0.090913355 0.084114015 -0.091325335
0001b0 80 e1 8a 3b f8 ce 8c 3c 70 0f f0 3c c9 fd 03 be
       0.0042383075 0.017188534 0.029304236 -0.1288978
0001c0 b2 62 97 3d 9c 77 27 bd e2 71 97 3d 98 95 93 3d
       0.073918715 -0.040885553 0.07394768 0.07206267
0001d0 b4 93 e9 bc 41 c5 80 bd e8 f2 97 bc f8 a7 a2 3c
       -0.028512813 -0.06287623 -0.018548444 0.019855484

bn1.weight f4 [120]
000000 55 00 80 3f 0f 02 80 3f aa 01 80 3f d0 00 80 3f
       1.0000101 1.0000628 1.0000508 1.0000248
000010 fb 00 80 3f 00 ff 7f 3f 84 ff 7f 3f b1 fc 7f 3f
       1.0000299 0.99998474 0.9999926 0.9999495
000020 74 02 80 3f cf 01 80 3f d5 00 80 3f ec 01 80 3f
       1.0000749 1.0000552 1.0000254 1.0000587
000030 dd 00 80 3f fe f9 7f 3f 69 fe 7f 3f 2b 00 80 3f
       1.0000263 0.9999083 0.99997574 1.0000051
000040 83 00 80 3f 09 00 80 3f d6 02 80 3f 1c 00 80 3f
       1.0000156 1.0000011 1.0000865 1.0000033
000050 1e 00 80 3f c0 02 80 3f 3c 00 80 3f 85 fd 7f 3f
       1.0000036 1.0000839 1.0000072 0.99996215
000060 4b 00 80 3f 55 ff 7f 3f 0e fc 7f 3f 86 00 80 3f
       1.000009 0.9999898 0.9999398 1.000016
000070 11 00 80 3f 53 ff 7f 3f 8a 01 80 3f c5 00 80 3f
       1.000002 0.9999897 1.000047 1.0000235
000080 52 fd 7f 3f 5e 00 80 3f 86 fb 7f 3f 48 fc 7f 3f
       0.9999591 1.0000112 0.9999317 0.99994326
000090 1c 01 80 3f 19 01 80 3f 7c 01 80 3f a0 fd 7f 3f
       1.0000339 1.0000335 1.0000453 0.99996376
0000a0 ab fe 7f 3f b0 fc 7f 3f 4b fe 7f 3f 11 fd 7f 3f
       0.9999797 0.99994946 0.99997395 0.99995524
0000b0 39 fd 7f 3f 9c 01 80 3f 77 fe 7f 3f a4 f9 7f 3f
       0.9999576 1.0000491 0.9999766 0.99990296
0000c0 60 ff 7f 3f 37 fa 7f 3f a3 ff 7f 3f be 00 80 3f
       0.99999046 0.9999117 0.99999446 1.0000226
0000d0 a7 ff 7f 3f 08 01 80 3f 3d f9 7f 3f 2e fd 7f 3f
       0.9999947 1.0000315 0.9998968 0.99995697
0000e0 02 fe 7f 3f d4 fd 7f 3f 91 fd 7f 3f 96 fe 7f 3f
       0.9999696 0.99996686 0.99996287 0.9999784
0000f0 61 ff 7f 3f f4 ff 7f 3f af ff 7f 3f 81 01 80 3f
       0.9999905 0.9999993 0.9999952 1.0000459
000100 c7 00 80 3f 5c 00 80 3f 35 ff 7f 3f 31 02 80 3f
       1.0000237 1.000011 0.9999879 1.0000669
000110 32 02 80 3f 73 01 80 3f 73 00 80 3f 24 ff 7f 3f
       1.000067 1.0000442 1.0000137 0.9999869
000120 8b fe 7f 3f 50 fb 7f 3f a6 fe 7f 3f 5d 00 80 3f
       0.99997777 0.9999285 0.9999794 1.0000111
000130 03 01 80 3f 04 ff 7f 3f 70 02 80 3f 99 00 80 3f
       1.0000309 0.999985 1.0000744 1.0000182
000140 66 fe 7f 3f b1 ff 7f 3f 44 00 80 3f 74 fd 7f 3f
       0.99997556 0.9999953 1.0000081 0.99996114
000150 6c fe 7f 3f 83 03 80 3f b7 fb 7f 3f 70 00 80 3f
       0.9999759 1.0001072 0.9999346 1.0000134
000160 cc 01 80 3f 90 01 80 3f ca fb 7f 3f 51 ff 7f 3f
       1.0000548 1.0000477 0.99993575 0.99998957
000170 ec ff 7f 3f 3c 01 80 3f 44 01 80 3f 12 00 80 3f
       0.9999988 1.0000377 1.0000386 1.0000021
000180 00 ff 7f 3f b0 ff 7f 3f 2c ff 7f 3f fc fb 7f 3f
       0.99998474 0.99999523 0.99998736 0.9999387
000190 3f 00 80 3f 61 fc 7f 3f c2 ff 7f 3f b0 fb 7f 3f
       1.0000075 0.99994475 0.9999963 0.9999342
0001a0 2d 01 80 3f 7d 01 80 3f 1e fc 7f 3f 6f 00 80 3f
       1.0000359 1.0000454 0.99994075 1.0000132
0001b0 fb 00 80 3f f8 ff 7f 3f db 00 80 3f 11 00 80 3f
       1.0000299 0.9999995 1.0000261 1.000002
0001c0 84 00 80 3f dd 02 80 3f e6 fb 7f 3f 8b fd 7f 3f
       1.0000157 1.0000874 0.9999374 0.9999625
0001d0 66 fc 7f 3f bd 01 80 3f 0a 00 80 3f 60 01 80 3f
       0.99994504 1.000053 1.0000012 1.000042

bn1.bias f4 [120]
000000 71 5f 8e 37 a4 14 85 38 2d f5 e8 37 aa dd 3e 37
       1.6972162e-05 6.345779e-05 2.7770724e-05 1.1376493e-05
000010 72 42 cd 37 f3 b9 f9 36 58 4f 8d b7 25 36 1a b8
       2.4468845e-05 7.4424256e-06 -1.6845457e-05 -3.6766887e-05
000020 c3 0b 12 38 8f 6a 1f 38 1b 59 6e 37 ad 43 57 38
       3.4820067e-05 3.8007795e-05 1.4206652e-05 5.1323022e-05
000030 40 02 c2 37 0f 76 57 b8 fe 11 0a 37 73 a5 4f b7
       2.312765e-05 -5.1369945e-05 8.22963e-06 -1.2376683e-05
000040 cc 34 27 b7 e9 20 f6 b6 27 ed c7 38 d4 2c a1 b5
       -9.966268e-06 -7.3352026e-06 9.5332325e-05 -1.2008481e-06
000050 b8 79 08 b7 cf d0 69 38 09 e0 3a b7 f0 8a f1 b7
       -8.1345715e-06 5.5745997e-05 -1.1138626e-05 -2.8794137e-05
000060 ab d8 1e 37 47 d7 d6 b6 c6 3d 2b b8 24 dc 2c 37
       9.467981e-06 -6.4027586e-06 -4.0827108e-05 1.0303254e-05
000070 c2 50 a5 37 9b fb 46 37 a2 7c 09 38 10 9a f2 37
       1.9707139e-05 1.1860301e-05 3.277942e-05 2.8920389e-05
000080 dd 91 b7 b7 e4 41 7a b7 1e 5e 60 b8 c6 f9 1f b8
       -2.1883223e-05 -1.4916503e-05 -5.3493415e-05 -3.8141174e-05
000090 1a 93 6c 37 34 56 e7 37 b0 88 17 38 58 d9 ed b7
       1.4100946e-05 2.7577487e-05 3.6128506e-05 -2.835381e-05
0000a0 14 e5 28 b7 46 9e 4b b8 e1 9f f0 b7 cf 9d 3b b8
       -1.0066917e-05 -4.8546375e-05 -2.8684679e-05 -4.4731245e-05
0000b0 64 42 50 b8 3f 59 c0 37 64 c0 a3 b7 79 d3 61 b8
       -4.9652896e-05 2.2929742e-05 -1.9520703e-05 -5.384113e-05
0000c0 8a b6 17 37 57 a6 77 b8 f1 f8 ab b6 56 49 87 37
       9.042802e-06 -5.9044305e-05 -5.1251777e-06 1.6127404e-05
0000d0 02 47 04 b8 62 6f 00 38 d9 5d 6b b8 b5 ca 16 b8
       -3.1537384e-05 3.062131e-05 -5.611577e-05 -3.5951572e-05
0000e0 99 2c b8 b7 11 08 c7 b7 d9 2a f7 b7 ae 30 88 b7
       -2.1955277e-05 -2.3726405e-05 -2.9464647e-05 -1.6235132e-05
0000f0 7e 0e 51 b7 00 7a d5 b6 60 24 c4 35 4f e5 20 38
       -1.2460745e-05 -6.3620973e-06 1.4613724e-06 3.8360533e-05
000100 9d 0a 84 36 5b 82 96 36 17 08 81 b7 e1 8f 38 38
       3.935142e-06 4.4855237e-06 -1.5381765e-05 4.4003016e-05
000110 80 91 1a 38 84 ea 09 38 5a 78 63 37 5c bd 44 b7
       3.685197e-05 3.2881755e-05 1.3558276e-05 -1.1726599e-05
000120 13 17 93 b6 e1 51 ae b7 b0 85 a3 b6 2b cb a5 37
       -4.3836276e-06 -2.0780544e-05 -4.873342e-06 1.976414e-05
000130 54 85 bb 37 08 2c b5 b7 63 e8 5b 38 e6 ad 33 37
       2.2354223e-05 -2.1597385e-05 5.2430096e-05 1.070972e-05
000140 16 b6 72 b7 30 94 1a b6 66 bc 00 37 45 ab bd b7
       -1.4466719e-05 -2.3034045e-06 7.6732595e-06 -2.261031e-05
000150 ce e7 1a b7 64 c9 84 38 20 63 23 b8 ec 36 16 b7
       -9.2330865e-06 6.3317624e-05 -3.8954546e-05 -8.953484e-06
000160 ce 32 3d 38 45 83 49 38 9e 89 68 b8 be b3 01 b8
       4.5108427e-05 4.804439e-05 -5.5441276e-05 -3.0923395e-05
000170 fe 82 7c 37 1c 98 75 37 7a 16 05 38 4e 91 1f b7
       1.50508695e-05 1.4638554e-05 3.1730604e-05 -9.51097e-06
000180 4c 1d 31 b7 7d 97 8c 36 76 2a 9e b7 86 33 2b b8
       -1.0556843e-05 4.1899607e-06 -1.885484e-05 -4.0817562e-05
000190 55 61 04 b7 1c 77 17 b8 44 c7 95 35 7f 76 20 b8
       -7.890475e-06 -3.6112135e-05 1.1159359e-06 -3.825733e-05
0001a0 b2 d6 95 37 10 ff 06 38 c6 02 fa b7 e1 50 4c 36
       1.786216e-05 3.2185635e-05 -2.9803614e-05 3.0445447e-06
0001b0 1d 4f 72 37 c7 26 1c b8 84 0b ba 37 9c 4c 0e b7
       1.4442744e-05 -3.7229413e-05 2.217829e-05 -8.481697e-06
0001c0 b5 62 d7 35 74 d8 65 38 5e d5 06 b8 ec 5b de b7
       1.6047476e-06 5.4799442e-05 -3.2146803e-05 -2.6507267e-05
0001d0 51 24 46 b8 99 13 1e 38 61 82 a4 36 5e d3 de 37
       -4.72407e-05 3.7688387e-05 4.902759e-06 2.6562888e-05

bn1.running_mean f4 [120]
000000 69 6a 1a bc 12 28 24 3e b6 10 7c 3c 3c 54 83 bd
       -0.009424784 0.1603091 0.015384844 -0.06412551
000010 66 10 f0 3c 70 87 a4 3d eb f1 c0 3d 4b 7b 01 be
       0.029304694 0.08033645 0.09421142 -0.12644689
000020 40 12 03 be de b0 a4 bd 7d 00 0d be 09 6e a1 3c
       -0.1279993 -0.08041547 -0.13769718 0.01970579
000030 23 3f 77 bd fe 32 ab 3b ce 53 a8 bd 14 3f e4 3d
       -0.060362946 0.0052245846 -0.082191095 0.11144844
000040 09 ae 98 3d ee cf 94 bd b8 85 f1 bd 6a a9 75 bd
       0.074550696 -0.07266222 -0.11793083 -0.05997602
000050 10 a5 26 bd 72 64 82 3d cf ec 3f bd 0e 65 d9 bd
       -0.04068476 0.06366815 -0.046856698 -0.10614978
000060 e6 d0 87 bd 37 da ca 3d d0 f5 03 3b c7 da ad 3d
       -0.06631641 0.099049024 0.002013553 0.08488994
000070 04 db 81 3d 80 86 8b bd c3 d8 92 bd 0f 2e 97 bd
       0.06340602 -0.06812763 -0.0717025 -0.07381832
000080 00 e2 96 3c 13 55 af bd 72 7b ee bd e9 7b 9b bd
       0.018418312 -0.085611485 -0.11644639 -0.07591993
000090 56 26 01 bc da 54 4e bd 6e 04 ea 3d c1 e2 25 bd
       -0.007882675 -0.05037389 0.11426626 -0.040499453
0000a0 fa d8 4b 3d 4a ca cc bd 2a 85 f1 3d d1 81 a3 bd
       0.04976747 -0.09999521 0.11792977 -0.07983745
0000b0 d2 71 82 bd ca b2 33 bd a4 95 98 39 b9 13 bf bd
       -0.06369366 -0.04387168 0.0002910319 -0.09329934
0000c0 64 47 10 3b de 26 81 bd 14 55 97 3c c4 d1 59 3d
       0.0022015208 -0.063062415 0.018473186 0.053178564
0000d0 22 fe d9 3d 98 92 0b 3e 4a 94 e1 bd 9a 0f a3 3c
       0.10644175 0.1363014 -0.11014612 0.0199049
0000e0 40 ed 6c ba 35 55 ba bd 8b 63 f2 bd 7f c7 60 3d
       -0.00090380386 -0.09098283 -0.118353926 0.054877754
0000f0 7a 38 18 3d 3a 4a 56 3c 15 70 0d 3e d8 63 39 bb
       0.037163235 0.01307922 0.13812287 -0.0028288271
000100 52 a8 96 bc 15 78 fd 3d 73 3b a4 3d 4a 4f b6 3d
       -0.018390808 0.123764195 0.080191515 0.08901842
000110 58 a6 aa bd c8 9a b5 bd 77 8e 25 3d f4 f0 1a 3e
       -0.08332509 -0.08867413 0.04041907 0.15130979
000120 42 df 87 3d d6 c8 42 3d 33 eb d3 bd 67 7f d8 bd
       0.0663438 0.047554813 -0.10347595 -0.10571175
000130 d6 b6 28 be a7 e0 00 be 1b 3c 50 3c 83 b8 9f 3d
       -0.16475996 -0.12585698 0.012709643 0.07798865
000140 e8 e0 01 3e f1 87 45 3c ab d8 6a 3d 04 17 2d 3d
       0.12683451 0.012056337 0.057335537 0.042258278
000150 b4 2d e0 bc b4 c5 f9 3b 53 39 f6 3d 35 4d 8f 3d
       -0.027365543 0.007622445 0.120226525 0.06997148
000160 39 e4 b9 bd 41 ba 9d bd cf 20 80 3d 9a 18 10 bd
       -0.09076733 -0.07701541 0.06256258 -0.035179712
000170 49 da 14 3d 31 36 a4 bc a8 ab 6c 3d 93 4b 12 bd
       0.036340985 -0.020045372 0.05778089 -0.035716604
000180 2d 8b a0 bd a1 4a f0 bd fc ac e4 bc 6e e6 06 bd
       -0.07839046 -0.11732984 -0.027914517 -0.0329346
000190 15 76 97 bd a6 e7 27 3e 84 0f c8 3c ee 91 80 3b
       -0.07395569 0.1639696 0.02442146 0.003923646
0001a0 0e 92 1c be 56 63 a9 bd 7c cb cb 3d e2 89 91 bd
       -0.1529009 -0.082709 0.09950921 -0.07106377
0001b0 9f d7 ee bc 1c e0 c0 3c 0e 6a d0 3c d1 95 cc bd
       -0.02915555 0.023544364 0.025441196 -0.09989513
0001c0 a8 1d ad 3d c0 24 9d bb a4 6b 57 3d cd 45 82 3d
       0.08452922 -0.0047956407 0.05259289 0.0636097
0001d0 d6 10 d0 bc 06 75 8f bd 16 5b 35 bc f9 47 24 3c
       -0.025398653 -0.07004742 -0.01106908 0.010026925

bn1.running_var f4 [120]
000000 95 69 bd 3e 65 f4 d4 3e 2a 33 9e 3e 00 d7 42 3e
       0.36994615 0.41592708 0.3089841 0.19027328
000010 a5 90 7a 3e a4 58 7b 3e cb 20 d4 3e 9f c0 a1 3e
       0.2446924 0.24545532 0.4143127 0.3159227
000020 ec 29 82 3e 97 0e db 3e 4a 75 9e 3e 8d 26 b6 3e
       0.2542261 0.4278457 0.3094886 0.35576287
000030 ae 00 db 3e be f9 91 3e 23 ea c9 3e 9b 26 d2 3e
       0.42773956 0.2851085 0.39436445 0.4104508
000040 52 12 e1 3e e9 51 7e 3e 52 7e 84 3e 2c ed 96 3e
       0.4395929 0.24835934 0.25877625 0.29477823
000050 b3 03 9a 3e 92 90 a2 3e 36 28 b5 3e 11 25 a1 3e
       0.30080947 0.31750923 0.3538224 0.31473592
000060 08 72 af 3e 71 18 ab 3e 6a 13 bd 3e be fd 77 3e
       0.34266686 0.33417085 0.36928874 0.24217889
000070 fd 3b 90 3e a1 07 9a 3e e2 a4 8b 3e d5 e7 be 3e
       0.28170767 0.30083945 0.27274233 0.3728625
000080 80 b0 a0 3e d7 27 56 3e 03 da a2 3e b2 dd a2 3e
       0.3138466 0.20913635 0.31806955 0.31809765
000090 a1 30 b2 3e 30 da cb 3e 9e 13 92 3e 9d 51 84 3e
       0.34802726 0.398149 0.28530592 0.25843516
0000a0 a6 e4 a2 3e 52 97 a4 3e 85 6f d7 3e ed 94 f4 3e
       0.3181507 0.32146698 0.4207727 0.4776987
0000b0 16 6d c2 3e 57 b4 e1 3e af ef 7d 3e 86 5a 91 3e
       0.3797385 0.440829 0.24798463 0.28389376
0000c0 58 2b e1 3e 54 87 c0 3e a5 66 92 3e bf c0 bb 3e
       0.4397838 0.37603247 0.28593937 0.3667049
0000d0 16 4e 49 3f ea fc 9a 3e 09 b2 a7 3e b6 27 c2 3e
       0.78634775 0.30271083 0.32753018 0.37920922
0000e0 9e 23 ae 3e fd bd b1 3e 58 b5 a0 3e 18 7b 94 3e
       0.3401155 0.34715262 0.31388354 0.29000163
0000f0 ff 10 d0 3e d8 43 b5 3e 7e 99 71 3e da e7 d3 3e
       0.40637967 0.35403323 0.23593709 0.41387826
000100 36 e1 a6 3e 33 26 cf 3e 72 55 e3 3e db 4c 9b 3e
       0.32593697 0.4045883 0.44401127 0.30332074
000110 f2 e8 8b 3e a3 c6 c1 3e 75 4a ae 3e 11 5b b4 3e
       0.2732616 0.3784686 0.3404118 0.35225728
000120 a7 4d 9c 3e ef 11 6d 3e 98 d5 dd 3e 99 81 a6 3e
       0.30527994 0.23151372 0.43327022 0.3252075
000130 cd 63 d5 3e df c4 fa 3e 7f cc 99 3e 02 e4 8a 3e
       0.41677704 0.48978326 0.3003883 0.2712708
000140 f6 e5 85 3e 6a e6 94 3e 75 15 f6 3e 67 3a a3 3e
       0.2615201 0.29082042 0.48063245 0.31880495
000150 9b d0 a8 3e c4 19 bc 3e f0 17 8f 3e f4 6c 92 3e
       0.32971653 0.36738408 0.2794795 0.2859875
000160 06 de c8 3e 53 47 80 3e e5 2c b6 3e 4a da d3 3e
       0.3923189 0.25054416 0.35581127 0.4137748
000170 ec b0 c6 3e 8f 11 93 3e ee 86 b1 3e 7a d6 9b 3e
       0.38806856 0.28724334 0.34673256 0.3043707
000180 a5 3d 92 3e c9 62 7b 3e 9a 90 95 3e af d1 78 3e
       0.28562656 0.24549402 0.29211885 0.24298738
000190 b3 d2 b0 3e 43 6b be 3e d1 5a bd 3e 4a 8e ad 3e
       0.3453575 0.3719121 0.3698335 0.3389762
0001a0 f7 08 dd 3e eb 9b ac 3e 68 7d 6d 3e d3 f1 ae 3e
       0.43170902 0.33712706 0.2319237 0.34168872
0001b0 46 09 96 3e 8c 26 d9 3e 96 99 cb 3e 7f bf 95 3e
       0.2930395 0.4241222 0.39765614 0.29247662
0001c0 24 94 9a 3e 25 cd d5 3e 8a 63 b9 3e 09 05 b3 3e
       0.30191147 0.41758075 0.36208755 0.3496478
0001d0 ed 42 b3 3e a4 49 c4 3e 6f 25 95 3e 96 c7 90 3e
       0.35011998 0.38337433 0.29130122 0.28277272

fc2.weight f4 [84, 120]
000000 a1 78 9e bd 1c d7 15 bd 93 75 70 3d ce 2e ac 3c
       -0.07737852 -0.036582097 0.058705878 0.021018412
000010 ce 5a 02 bd 52 c7 a7 3c 3e 49 8f bd 6c 3b 6e bc
       -0.03182488 0.020480786 -0.06996392 -0.0145405345
000020 4d 04 89 3d b3 43 b4 3d 29 46 92 bd 15 e2 ea 3c
       0.066902734 0.08801975 -0.07142288 0.028672257
000030 ea 5b 18 3c 2d c7 b1 3b c6 b5 b9 3d 40 ba ac bd
       0.009299258 0.005425355 0.09067874 -0.08433962
000040 38 71 37 bd 07 ff 58 3c 68 22 94 bc 4c 1e ca bc
       -0.04478571 0.013244397 -0.018082812 -0.02467265
000050 72 c7 14 3d 8c 6d b9 bd e8 d3 5a bd a9 70 f0 3c
       0.03632302 -0.090540975 -0.053424746 0.029350596
000060 b0 82 85 3c ef 4f 30 3d 33 68 0b 3d 64 a9 92 bd
       0.016297668 0.04304498 0.03403492 -0.07161215
000070 52 b1 b5 3c c5 99 c1 bc 41 40 99 bd 9f f5 81 bb
       0.02217928 -0.023632893 -0.074829586 -0.003966048
000080 26 f2 9d bd 13 c9 7d 3c d0 f9 46 bd b1 3d 40 3d
       -0.07712202 0.015489834 -0.048578084 0.046933834
000090 92 6c 96 3c d3 7d a8 bd 1e e0 93 bd aa 6c a3 bd
       0.018362317 -0.08227124 -0.07220481 -0.079797104
0000a0 cb fd 9a bd c0 74 fc bb aa 67 60 3c 94 d8 4f bd
       -0.075679384 -0.0077043474 0.01369659 -0.050743654
0000b0 e3 a3 9e 3d 26 f3 cf 3a d0 5b 9c 3d f9 97 ce bc
       0.07746103 0.001586531 0.07634699 -0.02521895
0000c0 8a 6e 67 3c 03 bf b8 3c da 79 8e bd 3d a0 65 3d
       0.014125476 0.022552019 -0.06956835 0.05606102
0000d0 f7 bd 00 3d a6 3b 23 3a e6 9f 5d 3d aa dd 9c 3d
       0.031431165 0.0006226845 0.05410757 0.076594666
0000e0 fb cb 80 bd b7 54 8a 3b 56 83 d0 bb 86 27 0a 3d
       -0.06288906 0.0042215246 -0.0063633127 0.0337291
0000f0 26 1f 3d 3d b7 4f 6b bd 6b ce 7b bd 14 e2 0e 3d
       0.046172284 -0.05744907 -0.061476152 0.034883574
000100 09 e9 b7 bd b3 36 73 bd bd 65 aa 3d e5 74 9d bc
       -0.08979995 -0.059378337 0.08320186 -0.019220779
000110 b2 eb 5a bc fa 0c b1 bc 28 8b 8d bd a1 59 94 bd
       -0.013361858 -0.021612633 -0.069113076 -0.07243658
000120 a0 0b 90 bd 18 78 a4 3d 96 02 6e 3d 7e 60 7d 3d
       -0.07033467 0.080307186 0.058107935 0.0618596
000130 8d 8a 95 3d a0 29 a8 bc 6a ae 0a bd e9 4b 94 ba
       0.07301817 -0.02052766 -0.03385774 -0.0011314127
000140 7e 8e 33 bd 37 9e 91 bd 1e 1c f7 3b 5b fb a8 3d
       -0.043837063 -0.07110255 0.0075411936 0.08251067
000150 14 23 70 bd c8 21 9c 3d ad 1f 7f 3d 74 da 36 bd
       -0.058627203 0.07623631 0.062286068 -0.044641927
000160 32 37 e1 bc bd 32 25 3d d0 15 04 3d 9b 5a e1 3c
       -0.02749214 0.04033159 0.032247365 0.027509024
000170 7d 60 a7 3c a5 b8 59 ba 1c c5 2f bd bf d1 0a 3d
       0.020431751 -0.0008305407 -0.042912588 0.033891436
000180 e9 0e 74 3d 78 9f a7 3d 26 ee 0e 3d 68 89 9d 3d
       0.059584532 0.08184713 0.034895085 0.07692224
000190 58 7f 60 bd 32 38 d9 3a 9b 38 2a bd 61 9c 81 bd
       -0.054808944 0.0016572534 -0.04155789 -0.06328655
0001a0 06 38 c5 3c 91 6d 71 3a 71 ba c4 3c 77 11 8b 3b
       0.024074566 0.0009209747 0.024014683 0.0042440253
0001b0 1d e5 99 bd 16 66 1b 3d 95 06 44 bd 3c d7 a1 3d
       -0.07514403 0.037939154 -0.04785784 0.07902381
0001c0 f0 41 86 bd 12 6a 50 bd 21 2c b8 3c 7d d2 a1 bd
       -0.06555545 -0.050882407 0.02248198 -0.079014756
0001d0 00 18 3a 3d dd f7 ac 3c 78 84 ab bd 17 89 87 bd
       0.045433044 0.021114284 -0.08374876 -0.06617945
0001e0 06 4c 21 3d de 03 3b bd 4f 64 80 bd 05 bf 78 3d
       0.039379142 -0.045657985 -0.06269132 0.060729045
0001f0 34 2b 39 3d 11 0c 80 bd 4b dc 14 3d 4d fa 5c 3d
       0.045207217 -0.062523015 0.0363429 0.053949643
000200 97 86 89 3d 0a e4 90 bd a3 a1 34 bd b4 be 81 3d
       0.06715124 -0.07074745 -0.04409946 0.06335202
000210 90 5d 99 bd ac c7 b6 bd 53 aa 9a bd 54 56 ab bd
       -0.07488549 -0.08924803 -0.07552018 -0.08366075
000220 71 56 ff 3c d2 d7 09 bb 41 ca c7 bc 64 60 9c 3d
       0.031169148 -0.002103318 -0.024388434 0.076355726
000230 e0 94 14 3d 7b 9e 14 3d a7 68 5d bd 55 98 53 3d
       0.03627479 0.03628395 -0.054054882 0.051658947
000240 80 48 22 bb bf 8b 20 bd d8 df 74 3d cb 4a a8 bd
       -0.0024762452 -0.039195772 0.059783787 -0.082173906
000250 79 68 06 3d 05 81 3b bd 85 0f 22 3d 79 ba 10 bd
       0.032814477 -0.04577734 0.03956558 -0.035334084
000260 f6 18 b2 3d 34 3a 8b bd 9b 1f 93 3d a9 23 33 bd
       0.08696167 -0.06798211 0.07183763 -0.04373518
000270 8d 1c 21 bd 16 02 9e 3c 57 8f 03 3d 74 5e 28 3d
       -0.03933387 0.019288104 0.03211912 0.041105703
000280 eb 53 01 bd e6 c4 b2 bd 9d ea 0b 3d de e8 88 3c
       -0.03157417 -0.08728962 0.03415929 0.016712602
000290 fb b2 37 bd a8 d9 8c 3d ff 1e 8d bd 4a 72 0f bd
       -0.044848423 0.06877452 -0.06890678 -0.035021104
0002a0 e7 68 01 bd 06 55 6c 3a a6 d8 92 bc e8 50 02 bd
       -0.031594183 0.0009015355 -0.017925572 -0.03181544
0002b0 ce fa a8 bd 74 9b b2 3d e4 31 0c bc 21 6c 89 3d
       -0.08250962 0.087210566 -0.008556817 0.06710077
0002c0 05 65 90 bd 4a 1e 9f 3d 98 89 71 bd 02 00 5c bc
       -0.07050518 0.07769449 -0.05896911 -0.013427736
0002d0 cb 9f f3 3a 2c dc 99 3d 4a ef b6 bd 51 82 ac 3d
       0.0018587051 0.075126976 -0.089323595 0.084232934
0002e0 d6 03 ea bc 61 a7 31 bd da 7d 15 3d de d4 b5 bd
       -0.028566282 -0.043372516 0.036496975 -0.08878492
0002f0 c7 cb a9 3c 96 f3 5f 3d 30 26 7f bd 5f 68 42 3d
       0.020727051 0.05467566 -0.062292278 0.047462817
000300 f1 f7 74 bd 20 62 41 bc 2e be d1 3c e7 c9 cd 3b
       -0.059806768 -0.01180318 0.02560338 0.006280172
000310 5d 51 97 bd 5f 9d 98 3d d5 1f 85 3d cc c0 9f bc
       -0.07388566 0.07451891 0.06500212 -0.019501112
000320 60 8e 51 bd 0b f5 9b bd 55 51 75 bd e8 de 86 bd
       -0.05116117 -0.076150976 -0.059892017 -0.06585485
000330 27 1f 13 3d b1 da b6 bd ab a1 32 bd dd d2 83 bd
       0.03591838 -0.08928431 -0.04361121 -0.06436703
000340 12 0d 18 3d 07 f2 76 3d 02 43 90 3d 1a af 48 bd
       0.03712184 0.06028941 0.07044031 -0.048995115
000350 91 71 94 bd 61 19 a3 bc f9 81 96 3d dd 09 0e bd
       -0.072482236 -0.019909563 0.07349009 -0.034677375
000360 7f 04 ee 3a 1a 80 ba 3d a9 7b 83 3d 9b 43 82 3d
       0.0018159299 0.09106465 0.06420071 0.06360551
000370 31 77 f8 bc c5 2d 55 3d 62 0f 45 bd e7 8c 0c bd
       -0.030330272 0.052045602 -0.048110373 -0.034314062
000380 08 06 18 3d e4 5a 0b bd 7e ad fb bc 69 be 3e 3d
       0.037115127 -0.034022227 -0.030722376 0.046568308
000390 ca 7d 82 bd a5 34 b4 bd 3c 07 f3 bc 60 c3 bb ba
       -0.063716486 -0.08799104 -0.029666536 -0.0014325194
0003a0 37 ff b5 bd fa 60 d3 bb 7b 5a a6 bc 1d b3 73 3c
       -0.08886569 -0.0064507695 -0.020306816 0.014874247
0003b0 e3 e5 54 3d a2 8e 58 3d eb d0 12 3d 29 8a a7 bc
       0.05197705 0.0528704 0.03584377 -0.020451622
0003c0 fe 89 80 3d d5 81 44 bd 23 8f 9c 3d b5 3a b9 bd
       0.0627632 -0.04797538 0.07644489 -0.090444006
0003d0 3c cf 4b 3c 93 6b 5b bc 24 0b 2a bd 73 cf aa bd
       0.012439545 -0.013392347 -0.04151453 -0.08340349
0003e0 13 0d 95 3c e5 af fa 3c e8 10 82 3d 60 16 b6 3c
       0.01819471 0.030601451 0.06350881 0.022227466
0003f0 d2 0a e6 3c 0f ab 07 3d 6b fc 5f bd c5 61 76 bc
       0.028081331 0.03312212 -0.054684084 -0.0150379585

fc2.bias f4 [84]
000000 60 8f b8 bc 0a 83 72 bd 0c b3 ff 3c e8 20 4a bc
       -0.022529304 -0.059207 0.031213306 -0.012336947
000010 b8 c8 f3 3c c0 68 89 3d 72 0c ab bd f0 ff 88 bc
       0.029758796 0.067094326 -0.08351983 -0.016723603
000020 ba 2d 99 bd 80 10 81 3a 54 d8 9b 3d 3b fd b2 bd
       -0.07479425 0.0009846836 0.07609621 -0.08739706
000030 f0 69 a4 bd cc 3e 30 3d ab eb b9 bd c8 10 72 bd
       -0.080280185 0.043028638 -0.09078153 -0.059098035
000040 94 78 15 3d a6 96 fb bc 0c 00 c8 bc ae 5e ee bc
       0.036491945 -0.030711483 -0.024414085 -0.029097881
000050 94 b8 98 3d 30 cd 86 3c 30 b2 73 3d bb ba 2a bd
       0.074570805 0.016455263 0.059496105 -0.041681986
000060 d9 45 ad bd c0 58 eb ba 60 06 59 bd 28 e3 a6 bc
       -0.08460588 -0.0017955527 -0.052984595 -0.020371988
000070 97 cd 2d bd 02 c8 83 bd 78 8e b9 3c 18 4b 01 3c
       -0.042432394 -0.06434633 0.022650942 0.007891439
000080 30 4c b5 3c 80 57 9e 3d 3c a2 3c 3d 54 29 64 3d
       0.022131056 0.07731533 0.046053156 0.055703476
000090 70 03 61 bc 9b 34 70 bd 28 26 57 bc 58 09 9e bc
       -0.01373373 -0.05864392 -0.013131656 -0.019291565
0000a0 bf 49 ac bd da 9b 82 3d 80 3f 52 3a 12 9b 7c bd
       -0.084125035 0.063773826 0.00080203265 -0.061671324
0000b0 5c 38 af bc b2 00 68 bd ae 27 a8 3d c8 28 58 3c
       -0.021389179 -0.056641288 0.08210693 0.013193317
0000c0 e4 35 d9 bc 00 98 9e ba 24 f4 99 3d de 11 80 3d
       -0.026514955 -0.0012099743 0.07517269 0.06253408
0000d0 50 81 01 3c 20 de a2 3d 38 8b 07 bc 26 a9 a6 3d
       0.007904366 0.07952523 -0.008272938 0.08137731
0000e0 9a 59 a8 3d 40 9b 0f bd 40 c8 61 bb f1 b0 9b bd
       0.08220215 -0.035060167 -0.0034451634 -0.07602108
0000f0 5c e7 a4 3d fc 6f 66 3d 60 df a4 bd 76 69 7e bd
       0.08051941 0.05625914 -0.08050418 -0.062112294
000100 58 e9 ba 3d 74 fc 0f 3d 0c 6b 92 3d 18 08 9c bd
       0.09126538 0.035152867 0.07149324 -0.07618731
000110 a5 18 af bd c4 2a 91 3d 8a 13 ac 3d 86 67 a6 3d
       -0.085496224 0.07088235 0.08402164 0.08125214
000120 36 c3 98 bd c3 0e 1a bd 98 53 40 3d 09 c2 71 bd
       -0.074591085 -0.037611734 0.04695472 -0.059022937
000130 fc d3 0d 3d d4 60 4a 3d ac ba 8c bc 6c cc a7 3d
       0.034625992 0.04940875 -0.017178856 0.08193287
000140 bc 0a ec 3c 91 2a a9 bd 70 56 6e 3d d0 0f 71 3d
       0.028813712 -0.08260072 0.058187902 0.05885297

bn2.weight f4 [84]
000000 05 f1 7f 3f fa ec 7f 3f 8a d7 7f 3f 84 e3 7f 3f
       0.9997714 0.9997097 0.9993826 0.99956536
000010 7e e4 7f 3f 2e fa 7f 3f f0 f0 7f 3f ef d9 7f 3f
       0.99958026 0.9999112 0.99977016 0.99941915
000020 cc e5 7f 3f b4 f8 7f 3f cd 00 80 3f 41 eb 7f 3f
       0.9996002 0.99988866 1.0000244 0.99968344
000030 08 fe 7f 3f 60 f8 7f 3f c0 e7 7f 3f f0 e1 7f 3f
       0.99996996 0.99988365 0.99963 0.9995413
000040 e5 f8 7f 3f 7f ee 7f 3f 66 da 7f 3f d4 fd 7f 3f
       0.9998916 0.9997329 0.99942625 0.99996686
000050 ba ed 7f 3f 8f e5 7f 3f 2e d6 7f 3f d4 01 80 3f
       0.99972117 0.99959654 0.9993619 1.0000558
000060 6d e5 7f 3f 0e e8 7f 3f f9 e5 7f 3f 6e e1 7f 3f
       0.9995945 0.9996346 0.99960285 0.99953353
000070 89 e9 7f 3f 30 e6 7f 3f d5 01 80 3f f7 f7 7f 3f
       0.9996572 0.99960613 1.0000559 0.9998774
000080 98 f0 7f 3f 64 eb 7f 3f 88 e3 7f 3f b0 e4 7f 3f
       0.9997649 0.9996855 0.9995656 0.99958324
000090 76 f3 7f 3f c9 e6 7f 3f 3c fa 7f 3f 6e ef 7f 3f
       0.99980867 0.99961525 0.999912 0.99974716
0000a0 35 d8 7f 3f 14 ec 7f 3f 3d e8 7f 3f 15 e2 7f 3f
       0.9993928 0.999696 0.9996374 0.9995435
0000b0 cc eb 7f 3f 92 f4 7f 3f b5 ea 7f 3f ec 01 80 3f
       0.9996917 0.9998256 0.9996751 1.0000587
0000c0 57 d2 7f 3f 64 eb 7f 3f a0 ca 7f 3f 77 f2 7f 3f
       0.9993033 0.9996855 0.99918556 0.99979347
0000d0 66 f2 7f 3f a5 f4 7f 3f 68 d9 7f 3f 12 e3 7f 3f
       0.99979246 0.9998267 0.9994111 0.99955857
0000e0 5b f6 7f 3f 50 eb 7f 3f 70 d8 7f 3f a6 d9 7f 3f
       0.99985284 0.99968433 0.9993963 0.9994148
0000f0 b6 f4 7f 3f ac ed 7f 3f 0e ee 7f 3f 13 ec 7f 3f
       0.99982774 0.99972034 0.9997262 0.99969596
000100 8f d9 7f 3f 52 e8 7f 3f 65 fb 7f 3f d0 f2 7f 3f
       0.99941343 0.9996387 0.9999297 0.9997988
000110 f6 fc 7f 3f 77 00 80 3f a8 e8 7f 3f df fb 7f 3f
       0.9999536 1.0000142 0.9996438 0.999937
000120 69 de 7f 3f e6 f9 7f 3f e7 ef 7f 3f 6a e4 7f 3f
       0.99948746 0.9999069 0.99975437 0.9995791
000130 4b e0 7f 3f 54 00 80 3f 87 01 80 3f 8f f2 7f 3f
       0.9995162 1.00001 1.0000466 0.9997949
000140 fd e7 7f 3f c8 ec 7f 3f cb e2 7f 3f 9c f4 7f 3f
       0.9996336 0.99970675 0.99955434 0.9998262

bn2.bias f4 [84]
000000 88 67 db b8 b5 16 80 b9 52 87 19 ba 76 eb bf b9
       -0.00010462018 -0.0002443098 -0.0005856651 -0.0003660579
000010 3b 72 c3 b9 bb 49 d2 b7 4d 5d 18 b9 77 f7 1b ba
       -0.00037278407 -2.5068284e-05 -0.00014530607 -0.0005949656
000020 ba f2 be b9 43 60 04 b8 41 fb 1e 39 01 f8 72 b9
       -0.0003642047 -3.1560903e-05 0.00015161654 -0.00023171307
000030 1b 26 94 38 d3 3c 30 37 0b 6a 95 b9 45 7a e7 b9
       7.064288e-05 1.0504579e-05 -0.00028498503 -0.0004415085
000040 93 09 c2 37 7b 9d 26 b9 12 c9 0d ba 1e 8f 12 39
       2.313106e-05 -0.0001588966 -0.0005408685 0.0001397696
000050 e9 8b 5e b9 50 64 b9 b9 96 0f 3d ba 4b f1 84 39
       -0.0002122369 -0.00035360688 -0.00072121003 0.0002535678
000060 39 98 b0 b9 63 61 8a b9 29 7c bc b9 4a a6 f9 b9
       -0.0003368275 -0.0002639397 -0.0003595066 -0.00047616876
000070 bb 7a 8d b9 11 5d b8 b9 ad e7 0b 39 c8 2e d1 36
       -0.00026985057 -0.00035164555 0.00013342379 6.2341314e-06
000080 4c 60 08 b9 87 05 69 b9 4a 5f bb b9 ec df ac b9
       -0.00013005844 -0.0002222267 -0.00035738415 -0.0003297323
000090 9e a2 09 b9 cc 23 99 b9 af 8e 7d 38 92 ae 10 b9
       -0.00013125918 -0.00029209105 6.0452785e-05 -0.00013797943
0000a0 09 a0 1d ba 0b 74 8d b9 be 80 a0 b9 0f 58 d1 b9
       -0.0006012922 -0.00026980074 -0.00030613499 -0.00039929195
0000b0 19 a8 91 b9 ae 58 62 b7 12 25 85 b9 fe 35 31 39
       -0.00027781798 -1.3491297e-05 -0.00025395356 0.00016900149
0000c0 28 3f 3f ba f0 93 96 b9 4d 78 6d ba fe cc c0 b8
       -0.0007295483 -0.00028720452 -0.0009058759 -9.193456e-05
0000d0 a5 b2 f1 b8 e0 f9 a1 b8 dd c7 19 ba c1 67 b9 b9
       -0.00011525051 -7.723621e-05 -0.0005866269 -0.00035363252
0000e0 3b 7d 37 b7 1d ad 9e b9 00 62 18 ba 2d 87 1b ba
       -1.09368075e-05 -0.00030265088 -0.0005812943 -0.00059329235
0000f0 06 78 6f b8 a0 3e 52 b9 94 6f 11 b9 1d b5 71 b9
       -5.709382e-05 -0.0002005049 -0.00013869844 -0.00023051021
000100 c0 aa 23 ba 32 9c 96 b9 2e 4b c2 37 76 00 f9 b8
       -0.00062434 -0.00028726604 2.316161e-05 -0.00011873331
000110 26 49 45 38 94 c6 f9 38 25 f8 79 b9 2a a3 72 38
       4.7036585e-05 0.00011910233 -0.00023838932 5.7849255e-05
000120 58 11 f4 b9 2c 10 b8 37 25 9b 65 b9 e1 b3 cc b9
       -0.0004655223 2.194204e-05 -0.00021896938 -0.00039043932
000130 a3 ca ea b9 de 09 16 39 d2 d8 35 39 ce ce 1a b9
       -0.00044782934 0.0001430879 0.00017342277 -0.00014763625
000140 c9 15 a6 b9 35 f9 70 b9 61 19 cd b9 be 8b c1 b8
       -0.00031678219 -0.0002298102 -0.00039119556 -9.228986e-05

bn2.running_mean f4 [84]
000000 06 09 55 be 69 c5 9c be dd dc 8b 3e 67 26 0a 3e
       -0.20804223 -0.30619362 0.27316943 0.13491212
000010 f6 b7 93 be 50 2f f2 bc b4 c8 91 be 2b ae 9e be
       -0.2885129 -0.029563576 -0.28473437 -0.30992255
000020 ae df f7 3e 10 73 81 be 42 95 a6 bd 29 cb 83 be
       0.48412842 -0.25283098 -0.081339374 -0.25740936
000030 23 96 c9 3d 45 20 fa bd e1 4b a1 3e f8 99 ca be
       0.098430894 -0.12213186 0.31503204 -0.39570594
000040 14 65 80 3e 90 44 9a 3d 25 f4 11 be 20 50 84 bd
       0.25077116 0.075326085 -0.1425329 -0.06460595
000050 4a 99 7a be 5f 53 ca bd 46 c6 90 3d be 42 1d 3d
       -0.24472538 -0.09879183 0.07069068 0.03839373
000060 a9 f2 75 be a0 45 be be 71 b3 6f 3d 8c 68 bc be
       -0.24018349 -0.37162495 0.058520738 -0.36798513
000070 28 04 85 3c da 7b 93 3d 76 54 e0 be 7d 6b 2c 3e
       0.016237333 0.07201357 -0.4381444 0.16837879
000080 ec 42 bd 3c e4 1b 08 3e 3e a1 72 3e 55 00 24 3e
       0.0231032 0.1329189 0.23694322 0.16015752
000090 48 53 df 3b f8 3c b7 3c c9 3b a9 be 1e 73 5d 3b
       0.006815348 0.02236794 -0.33053425 0.003379054
0000a0 ee 88 c3 3e f5 00 d9 bd 9a 46 2f be 49 27 90 3d
       0.38190407 -0.10595886 -0.17116776 0.07038743
0000b0 dc 74 0b be dc ed 82 3d 10 59 a1 3e 2c 5a d8 bd
       -0.13618797 0.06393024 0.31513262 -0.10564074
0000c0 82 05 bc be 23 df ff bd 78 3f 55 3d 26 46 09 3e
       -0.36722952 -0.12493732 0.05206248 0.13405666
0000d0 ac 7e 88 be 84 0e 99 3b f4 01 51 be 9f 0c 2c bd
       -0.26659143 0.00467092 -0.20410901 -0.042004224
0000e0 42 d8 d1 3e 4b 42 0b bf 91 d8 8a be e6 02 b2 be
       0.40985304 -0.5439803 -0.27118352 -0.34767836
0000f0 f5 a9 13 be 0c e5 00 3f 71 47 c8 3e 1e 1c e6 bd
       -0.14420302 0.503495 0.39117005 -0.11235832
000100 1c b3 19 be 92 c7 de bc 1f 3c 4e 3e bf 2c 0a 3f
       -0.15009731 -0.027194772 0.20140122 0.5397453
000110 db f3 6c be 23 5c 37 3e e5 ee ad 3d 26 e5 af 3d
       -0.23139898 0.17906241 0.08492831 0.085886285
000120 8a 8c fa 3d 0b 8b c2 be de fc 0a be c5 88 d2 3e
       0.12233837 -0.37996706 -0.13573024 0.41119972
000130 8f 40 de 3d 54 65 39 3e 5a 99 3b bd 91 7b e9 3e
       0.10852157 0.1810506 -0.045800544 0.45602086
000140 1f 1e 16 3d 3f a4 f4 be 10 0d 47 3d 6f e8 4d be
       0.03664982 -0.4778156 0.04859644 -0.20108198

bn2.running_var f4 [84]
000000 eb 50 40 3e c7 59 1e 3e 1f 0f 51 3e 97 f9 19 3e
       0.18780868 0.15463935 0.20415924 0.15036617
000010 a3 fb 66 3e a5 43 20 3e f9 66 5f 3e 56 6a 27 3e
       0.2255693 0.15650804 0.21816625 0.16349158
000020 6d b3 38 3e 1b d5 1b 3e e2 86 04 3e 42 cc 24 3e
       0.18037196 0.15218012 0.12942079 0.16093543
000030 47 d8 1e 3e 8f f2 34 3e 7d 2f 50 3e ee 11 13 3e
       0.15512191 0.17670654 0.20330615 0.14362308
000040 1c 1c 1c 3e 14 ba 4b 3e 8b 55 24 3e 2b b0 4d 3e
       0.15245098 0.19895202 0.16048257 0.20086734
000050 31 7b 6c 3e f4 fa 28 3e c6 8b 52 3e cc 8d 25 3e
       0.23093869 0.16501981 0.20561132 0.16167372
000060 a4 df 0a 3e a2 87 42 3e 29 6c 3d 3e ff 0c 08 3e
       0.13561875 0.18997052 0.18498291 0.13286208
000070 ab 9b 13 3e 5f 70 31 3e 5f 59 21 3e a9 8b 39 3e
       0.14414851 0.17328022 0.15756749 0.18119682
000080 0c 92 35 3e 8c 2b 3a 3e e9 5a 1f 3e 3c 1d 0b 3e
       0.17731494 0.18180674 0.15562023 0.13585371
000090 58 1e 1d 3e 04 87 19 3e 5d b5 14 3e c6 27 48 3e
       0.15343606 0.1499291 0.1452231 0.19546422
0000a0 c2 b7 4c 3e 32 6c 4f 3e 4a d8 1b 3e a4 05 17 3e
       0.19991973 0.20256117 0.15219226 0.14748245
0000b0 59 18 06 3e 67 46 51 3e bb b4 62 3e 35 b3 99 3e
       0.13095225 0.20437013 0.22139256 0.30019537
0000c0 63 21 20 3e 17 93 38 3e 3a 23 39 3e 5e 0d 44 3e
       0.15637736 0.1802486 0.18079844 0.19145724
0000d0 44 2d 20 3e f8 a1 3c 3e 50 a4 55 3e 83 63 49 3e
       0.15642267 0.18421161 0.20863461 0.19666867
0000e0 bb 60 46 3e 63 6a 18 3e 85 50 2e 3e d0 a6 2b 3e
       0.19372837 0.14884333 0.17022903 0.16762853
0000f0 e2 68 f7 3d 16 85 16 3e dc 9f 67 3e 44 93 5b 3e
       0.12080552 0.14699206 0.22619575 0.21442896
000100 8e d7 3d 3e 19 26 19 3e 01 c9 41 3e e3 9f 19 3e
       0.18539259 0.1495594 0.18924333 0.15002398
000110 e0 96 36 3e 07 91 2c 3e 16 1b 4c 3e b1 a4 16 3e
       0.17830992 0.16852199 0.19932207 0.14711262
000120 07 ac 25 3e a5 cc 34 3e e0 81 2d 3e ff 9c 3c 3e
       0.16178904 0.1765619 0.16944075 0.18419264
000130 96 6b 1f 3e 87 fc 11 3e 58 6e 24 3e 89 96 39 3e
       0.15568385 0.14256488 0.16057718 0.18123831
000140 b6 3a 34 3e 32 74 36 3e fc 6e 38 3e 64 bc 33 3e
       0.17600521 0.17817762 0.18011087 0.17552334

fc3.weight f4 [46, 84]
000000 14 b7 d3 bc bd 81 2f ba 06 0b 6a bd c0 65 74 bd
       -0.025844134 -0.0006695053 -0.05713942 -0.05966735
000010 e8 27 5d 3d f2 91 80 bd e9 f0 b5 bd 11 64 ae 3d
       0.053993136 -0.06277837 -0.088838406 0.0851518
000020 cc 80 4b bd 88 a7 64 3b 09 75 c7 3d b4 af be 3c
       -0.049683377 0.0034889895 0.097391196 0.023277141
000030 77 e2 89 3d bc c5 e1 3c f1 9b 36 bd 37 32 99 3c
       0.06732648 0.027560107 -0.04458231 0.018700702
000040 92 33 85 3d 52 f2 8a 3d b3 d2 d2 3a 02 60 b0 bc
       0.06503977 0.067845 0.0016084522 -0.021530155
000050 2d 3c 2d 3d dd 9f 16 bd 72 77 e4 3c bb 31 1c 3d
       0.042293716 -0.03677355 0.027888987 0.038133364
000060 07 9d 16 bb 9c 9b 8b bc f7 09 ba bd d4 99 df 3d
       -0.002298178 -0.017041974 -0.09083932 0.10918012
000070 a2 da da bd ac 60 0a bd 2c 17 e4 3b 90 13 94 3d
       -0.10686232 -0.0337836 0.00696077 0.07230294
000080 43 64 a6 bc f5 67 79 3d 31 a4 33 bc 4c 8f 95 bd
       -0.02031148 0.060890157 -0.010964439 -0.07302722
000090 dd 2b 53 bd 53 45 5b bd 67 86 bc bd 89 92 ab 3d
       -0.051555503 -0.05353291 -0.09205323 0.08377559
0000a0 91 94 93 bd 2e 11 d7 3d d6 56 67 3d a5 29 4e 3d
       -0.07206071 0.10501324 0.056479298 0.050332684
0000b0 c2 16 d3 bd 40 97 94 3d 5c 45 11 bc 41 65 c1 3d
       -0.10307075 0.07255411 -0.008866634 0.09443141
0000c0 94 00 c5 bd a9 7e 36 bc 7c 59 a4 bc 25 f7 81 3b
       -0.09619251 -0.011138597 -0.0200622 0.0039662295
0000d0 bc 67 97 3d a0 a3 dc bd 38 c4 93 3c 83 2e bf bd
       0.07392833 -0.107733965 0.0180379 -0.09335043
0000e0 7b e3 99 bd 97 e5 d9 bc 45 17 32 3d 97 b5 4d 3c
       -0.075140916 -0.026598735 0.043479223 0.012555501
0000f0 1a de d7 bd d7 40 b4 bd 09 7c 89 3d 0c 0f d2 3d
       -0.105404094 -0.0880143 0.06713111 0.10256776
000100 62 6c 4c 3c e0 9a fe 3b 29 ac b5 3c c6 74 1e 3d
       0.012477012 0.0077699274 0.022176819 0.038685583
000110 5b 62 35 bd 94 cb d8 bd 9b 52 ad 3d ee d1 d3 bd
       -0.044283252 -0.105857044 0.08463021 -0.10342775
000120 e6 5e 81 3d 0d bd 51 3d 9e f2 35 3d 02 00 76 3d
       0.063169286 0.051205683 0.04442083 0.0600586
000130 23 95 8b 3d e6 5b 98 3d 97 cf 25 3c 48 50 97 bd
       0.06815555 0.07439403 0.010120294 -0.07388359
000140 5f 72 3e bd d8 7f ad bd 49 2c 4c 3b e6 7c 86 3c
       -0.04649579 -0.0847165 0.0031154326 0.016416978
000150 ec cd d1 3d 9a f7 86 bd d6 90 7d 3d 28 f5 85 3d
       0.102443546 -0.06590195 0.061905704 0.065409005
000160 b1 b4 7a bd 57 ed 12 bd e7 38 71 bd 15 8e 1a bb
       -0.061207477 -0.035870876 -0.058892157 -0.0023583223
000170 eb 29 c8 bc 62 b8 8c 3d 2d 81 8f bd 4c ff a2 bd
       -0.02443405 0.06871106 -0.0700706 -0.0795885
000180 e1 a5 60 3d c8 6e d0 3a 2c 71 7a bd d9 09 32 bd
       0.054845694 0.0015902156 -0.061143085 -0.043466423
000190 21 e5 8e 3c 15 40 c2 3c 25 91 8d 3c ec 18 a0 3c
       0.017443242 0.023712197 0.017281124 0.019543134
0001a0 6a 7c 93 3c 01 a4 8b 3d 2d 0c ca bd fc c5 c3 bd
       0.018003661 0.06818391 -0.098656036 -0.09559247
0001b0 77 62 9d bc 15 6d 78 bd a6 74 27 3d b6 1e bd bd
       -0.01921199 -0.060650904 0.04088273 -0.09234373
0001c0 69 09 8a bd fb 31 f0 bc 82 59 96 3d 7f 80 78 3d
       -0.06740076 -0.029320708 0.07341291 0.06066942
0001d0 2a 99 99 3d 3f 77 72 bd 43 38 cc bd 2f 05 bf 3d
       0.07499917 -0.059195753 -0.099716686 0.093271606
0001e0 ff 9a 46 3d 2c 9a 5c bd f3 c1 96 3d 57 89 09 bd
       0.04848766 -0.053857967 0.07361212 -0.033578243
0001f0 54 7e 7b 3c 56 90 0f bd 8e 2d bd 3d 08 1a ce bc
       0.015349943 -0.03504976 0.092372045 -0.025158897
000200 91 3c d3 3d ef 56 c3 3c e3 e5 d2 3d ef ce 3d 3d
       0.103142865 0.023845164 0.10297754 0.046339925
000210 14 f4 9c bd 36 98 d6 bd ce b2 22 bd 24 03 da 3d
       -0.07663742 -0.10478251 -0.039721303 0.1064513
000220 4d 4f a5 3d b9 76 b6 3c 7d f0 49 bb f7 2e 17 bd
       0.08071766 0.022273408 -0.0030813508 -0.036910024
000230 60 b4 af 3d e0 b7 90 3d 20 7f a8 bd c6 58 a1 3c
       0.08579326 0.070663214 -0.08227372 0.01969565
000240 48 d3 79 3c 77 82 84 bd ce 82 58 3d ba 6c b9 3d
       0.015248127 -0.06470197 0.05285912 0.09053941
000250 cc b6 d6 bc 08 ae cb bd bc f3 f5 3c 1d 51 93 3c
       -0.026210211 -0.09945303 0.030023448 0.017983014
000260 4a 4d 86 3d 63 31 a3 3d e3 d6 b6 3d 12 fc 00 bc
       0.065577105 0.07968404 0.08927705 -0.007872598
000270 a1 da cf bd d6 32 9c bd 79 6d a9 bc b5 84 1e 3d
       -0.10149122 -0.07626884 -0.020682083 0.038700778
000280 56 35 ad 3d ba 56 bb bd ac 13 a4 3d 4f 6a 3f 3c
       0.08457439 -0.09147401 0.080115646 0.011683061
000290 4e e4 6d bd fe ca a3 bd ed ee 06 bd 84 fb 78 3d
       -0.058079056 -0.07997702 -0.0329427 0.06078674
0002a0 13 7b b7 bd 07 b6 a1 3c 64 65 2b bd 43 31 3c 3c
       -0.089590214 0.019740118 -0.04184474 0.011486354
0002b0 dc 01 41 bd d6 86 eb bc cf 95 88 3d 0e fa 2b 3d
       -0.047120914 -0.028750818 0.06669199 0.041986518
0002c0 ed e2 08 bd ac 45 a2 3c 90 6a aa 3d 92 03 ae 3d
       -0.03341954 0.019808613 0.083211064 0.08496775
0002d0 e2 38 67 bd 97 81 4c 3b 56 11 d3 3d e7 c1 6d 3d
       -0.056450732 0.0031205171 0.10306041 0.058046248
0002e0 da 10 54 3d 46 ff b0 bc 33 50 94 bd e0 46 36 3c
       0.051773883 -0.021606099 -0.07241859 0.011125296
0002f0 33 7e cd 3d e8 df b7 bd 41 5c 42 3d 03 b4 85 3d
       0.10033836 -0.089782536 0.04745126 0.06528475
000300 32 a7 74 ba b1 a2 77 3d 0e 55 a8 3d 11 69 d3 3d
       -0.00093327754 0.06045789 0.08219348 0.10322774
000310 92 fa b8 3d 24 ed 1e 3d b7 d5 d6 3d e8 81 9b bd
       0.090321675 0.038800374 0.104899816 -0.07593137
000320 a6 60 d6 bd bc da db 3d bc 07 97 3d 04 97 55 bd
       -0.10467653 0.1073508 0.07374522 -0.052145973
000330 d8 bd 2d 3d 3e 4a 9e ba 18 39 1b bd 35 41 17 bc
       0.042417377 -0.0012076569 -0.037896246 -0.009231855
000340 9a 82 c4 bd 29 3f 9f 3d 7e e4 c8 bc 10 9e ce 3d
       -0.09595223 0.07775719 -0.024523016 0.10088742
000350 40 60 3c 3d 71 8b d9 3d 40 aa ac 3d a5 5b 5d 3d
       0.04599023 0.106222995 0.0843091 0.054042477
000360 c5 6b 00 bd e5 32 ce 3d ee fe 65 bc 49 6a bd 3c
       -0.031352777 0.10068301 -0.014037831 0.02312197
000370 a1 cf 8b bd 04 ec 94 3d 71 0f 6f 3c 34 59 08 bc
       -0.068267114 0.07271579 0.014591084 -0.008322049
000380 d9 d8 c0 3c 50 0d 80 3d d3 32 de bd e7 41 a7 bd
       0.023540901 0.06252539 -0.10849538 -0.08166867
000390 49 46 1a bb b8 ec 93 bd 48 3c 26 bd 43 9d bd bd
       -0.0023540428 -0.07222885 -0.040584832 -0.09258511
0003a0 da 0c cf bd 17 8c af 3d 92 73 3f bd 48 3d 97 3c
       -0.10109873 0.08571642 -0.046741076 0.018461838
0003b0 06 0e a4 3d 36 eb b7 bd 0d 2b ca bd ab c6 09 3d
       0.08010487 -0.0898041 -0.098714925 0.03363673
0003c0 52 44 0f 3d 1e e7 d9 ba 06 23 43 3d 46 b3 80 3d
       0.034977265 -0.0016624664 0.047640823 0.06284194
0003d0 a0 63 ae bd 76 b9 de bb 3b fd 56 3d 0d 99 b7 bd
       -0.08515096 -0.006797011 0.052487593 -0.08964739
0003e0 6f 69 91 bd 4e f1 e4 bb 5c 03 af 3d ab db a5 bc
       -0.07100188 -0.0069867736 0.085455626 -0.020246347
0003f0 a6 93 c5 bc b5 7c 9f bd d1 be 48 3d e4 58 62 bd
       -0.024118256 -0.07787458 0.0490101 -0.055260554
