mp4-machine-learning-template/model/model.pth (torch, 100286 bytes, 14 tensors)

fc1.weight f4 [120, 51]
0	0xbe6c7457	-0.23091255
1	0x3b765eed	0.0037593201
2	0xbe0a50dc	-0.13507408
3	0xbc5c0858	-0.013429724
4	0x3cefa16e	0.02925178
5	0xbd837a99	-0.06419868
6	0x3d4056e1	0.046957854
7	0x3ded4ffa	0.1158752
8	0x3da99426	0.0828021
9	0x3d1d4d43	0.03840376
10	0xbd90d4b8	-0.07071823
11	0x3ccd1006	0.025032055
12	0x3ebe4beb	0.37167296
13	0x3cd33414	0.025781669
14	0xbe6f4b3a	-0.2336854
15	0xbddb7804	-0.107162505
16	0xbd9e7057	-0.07736271
17	0xbd84b9a6	-0.06480722
18	0x3ce3042b	0.027711948
19	0xbe5c29f8	-0.21500385
20	0xbdc19bce	-0.094535455
21	0xbe705190	-0.23468614
22	0xbea98f6f	-0.33117244
23	0x3e914192	0.2837034
24	0xbe0e998f	-0.13925765
25	0xbe06101b	-0.13092081
26	0x3dd4b84a	0.10386713
27	0xbe28db52	-0.16489914
28	0x3dc7659c	0.09736177
29	0x3ddd167b	0.107953034
30	0xbd0943de	-0.03351199
31	0x3d71a6ee	0.058997087
32	0xbe969356	-0.29409283
33	0xbe1ea0ff	-0.15491103
34	0xbd7c9b67	-0.06167164
35	0xbd8f7fdd	-0.0700681
36	0xbd23f55b	-0.04002891
37	0x3e043a6b	0.1291291
38	0x3e01dca2	0.12681821
39	0xbe9786bc	-0.29594982
40	0x3cf94c9f	0.030432044
41	0x3e54a9b7	0.20767866
42	0xbe3b6452	-0.18299988
43	0x3e1ac12d	0.15112753
44	0x3e9ca92b	0.30597815
45	0x3e0ac3fc	0.13551325
46	0x3d3da7bb	0.04630254
47	0x3d52c5da	0.051458217
48	0x3c6f62ad	0.0146109285
49	0x3dde253b	0.10846945
50	0xbe199b4b	-0.15000646
51	0xbd9456c2	-0.0724311
52	0xbbba0432	-0.0056767697
53	0xbe8e7c69	-0.27829292
54	0xbec4080c	-0.3828739
55	0x3cc4818b	0.023987552
56	0xbc26f0a8	-0.010189213
57	0x3cd46a6c	0.025929652
58	0x3cc14114	0.023590602
59	0x3d83c429	0.06433899
60	0x3d6749ca	0.056466855
61	0x3b382d40	0.0028103143
62	0xbd1c1113	-0.03810222
63	0x3d0ca596	0.034337603
64	0xbec1f82e	-0.3788466
65	0xbdb6dd27	-0.089289
66	0xbecc3ed3	-0.3989168
67	0xbd82eee8	-0.06393224
68	0xbe0ab509	-0.13545622
69	0xbd4b81de	-0.049684398
70	0xbf183c39	-0.5946689
71	0xbd5e7681	-0.054312233
72	0xbea8edc9	-0.32993916
73	0xbd89eebf	-0.0673499
74	0xbe6472f7	-0.2230948
75	0xbd3e61ff	-0.046480175
76	0xbea97601	-0.33097842
77	0xbd93a1dc	-0.072086066
78	0xbdbbbb6b	-0.091666065
79	0xbd1a0e06	-0.03761103
80	0xbdac2668	-0.08405763
81	0xba588f46	-0.00082610955
82	0xbe65dccc	-0.22447509
83	0xbd3db6cb	-0.046316903
84	0xbdd17928	-0.10228187
85	0x3cd85dc5	0.0264119
86	0xbe2e0680	-0.16994667
87	0xba5849df	-0.0008250754
88	0x3cd63cae	0.026151981
89	0xbc8b09fd	-0.016972536
90	0xbed93c40	-0.4242878
91	0x3ced43fa	0.028963078
92	0x3e882602	0.26591498
93	0xbe90941e	-0.28238004
94	0xbe61304f	-0.21991085
95	0x3e6e8acf	0.23295139
96	0xbd1dc969	-0.038522158
97	0xbcb7f7fb	-0.022457113
98	0x3d5eee33	0.054426383
99	0xbd54bcdf	-0.051937934
100	0xbda5c621	-0.08094431
101	0xbdecc491	-0.115609296
102	0xbbc67b16	-0.0060571535
103	0xbd8ee937	-0.06978076
104	0xbd66adcd	-0.056318093
105	0x3dc922ae	0.09821068
106	0xbe46079f	-0.19338845
107	0xbd7b7d69	-0.061398897
108	0xbdbe9908	-0.09306532
109	0xbe7e9eaa	-0.24865213
110	0xbe603555	-0.21895345
111	0xbdc9f4d1	-0.09861148
112	0xbd03daee	-0.03219121
113	0xbdf01db6	-0.11724417
114	0xbdf5a5f4	-0.11994544
115	0xbd2097ac	-0.039207146
116	0xbda8b8e3	-0.08238389
117	0xbd8be892	-0.06831469
118	0xbe02571d	-0.12728544
119	0xbe81509c	-0.25256813
120	0xbd8b195b	-0.067919455
121	0xbe16e708	-0.14736569
122	0xbe1ef11b	-0.15521662
123	0x3e7351f4	0.23761731
124	0xbe1ba0e0	-0.15198088
125	0xbe591f53	-0.21203355
126	0x3dba19d6	0.09086959
127	0xbc823c60	-0.01589793
128	0xbde97963	-0.11400106
129	0xbe3abdef	-0.18236516
130	0xbe8d8d40	-0.27646828
131	0xbd6fdfa9	-0.05856291
132	0x3d99a72b	0.07502588
133	0x3d27866c	0.04089968
134	0xbe34b06c	-0.17645425
135	0xbee43d5f	-0.44578072
136	0xbe712cd2	-0.23552254
137	0xbcba42ff	-0.022737024
138	0x3c758c65	0.014987086
139	0xbcd025fc	-0.025408737
140	0x3e09992b	0.13437335
141	0xbeafa04d	-0.34301987
142	0x3dbe6192	0.09295954
143	0x3e787d72	0.24266604
144	0x3d2e7837	0.042595115
145	0x3d386440	0.04501748
146	0x3e5a46f3	0.21316127
147	0x3d53bc18	0.051693052
148	0x3df9bf89	0.121947356
149	0xbd6fc5f4	-0.058538392
150	0xbd3c42dd	-0.045962203
151	0x3daadfca	0.083434656
152	0xbc6568ca	-0.014002034
153	0x3d3f4480	0.046696186
154	0xbd5f5402	-0.054523475
155	0xbbf73797	-0.0075444686
156	0xbc980dab	-0.018561205
157	0x3c865a0b	0.016400358
158	0xbcfadb51	-0.030622156
159	0xbc6deacd	-0.014521313
160	0xbd872d7e	-0.06600474
161	0xbca24461	-0.019807996
162	0xbd23fe08	-0.040037185
163	0x3d57f328	0.052722126
164	0xbd2af40c	-0.041736647
165	0x3c23d893	0.010000366
166	0xbbe0dfeb	-0.0068626306
167	0x3ea150a2	0.3150683
168	0x3da08d15	0.07839409
169	0x3de8297b	0.11336037
170	0xbcfa9a1a	-0.03059106
171	0xbd5022c6	-0.050814413
172	0xbde5614f	-0.11200201
173	0x3ef08e0d	0.46983376
174	0xbab1c479	-0.0013562582
175	0x3e02ad60	0.1276145
176	0xbd46835c	-0.048465118
177	0xbe43c8b5	-0.19119532
178	0x3d04240d	0.032260943
179	0x3dda9110	0.106722
180	0xbcf15c18	-0.029462859
181	0xbdc4b857	-0.096054725
182	0x3c5318c7	0.012884325
183	0x3d282b93	0.04105718
184	0xbd3054db	-0.043049674
185	0x3d9d7954	0.07689157
186	0x3da507f6	0.08058159
187	0xbd199e7e	-0.037504666
188	0x3ddce5e4	0.10786036
189	0xbdca63b1	-0.09882296
190	0xbce00e63	-0.02735061
191	0xbd0bf820	-0.034172177
192	0xbe51962c	-0.20467442
193	0xbd96d9fe	-0.073657975
194	0x3e679ecc	0.2261917
195	0x3e0e33ee	0.13886997
196	0x3e839ec9	0.2570708
197	0x3f501b80	0.8129196
198	0x3ef0dc7b	0.47043213
199	0x3e39dfbf	0.18151759
200	0x3eadcfc9	0.3394759
201	0x3da798be	0.0818343
202	0x3d5a104d	0.053238202
203	0x3db92161	0.0903957
204	0x3d46886e	0.048469953
205	0x3ddc6ff7	0.10763543
206	0x3db19079	0.08670134
207	0xbd93097a	-0.07179542
208	0x3f060e0f	0.523652
209	0xbdfe8738	-0.12428135
210	0x3e22128a	0.15827385
211	0xbe7e1663	-0.24813227
212	0x3ea5e784	0.32403195
213	0x3c1793cb	0.009251545
214	0x3e0cb4c6	0.13740835
215	0xbc0e5579	-0.00868737
216	0x3e547b7c	0.2075023
217	0xbd364675	-0.044500787
218	0x3e9af143	0.30262193
219	0xbd88e74e	-0.06684743
220	0x3e2443c4	0.16041476
221	0x3be7aa8c	0.0070698913
222	0x3da8bd15	0.082391895
223	0xbddc5fc9	-0.10760457
224	0x3dfd201d	0.12359641
225	0xbd01032e	-0.031497173
226	0x3e06b0fe	0.13153455
227	0xbcf16bae	-0.029470291
228	0x3c88f6b3	0.016719198
229	0xbdb61a53	-0.0889174
230	0x3e2fb0c4	0.17157274
231	0xbd81c510	-0.06336415
232	0x3d88bb61	0.06676365
233	0xbc012e29	-0.007884541
234	0x3c0a1800	0.008428574
235	0x3c467a73	0.012114155
236	0x3d6e1d02	0.058133133
237	0xbcaa6d76	-0.020804148
238	0xbd52f749	-0.05150536
239	0xbc820b04	-0.015874393
240	0x3cc135ad	0.023585165
241	0x3d42ce41	0.04755998
242	0xbafab3e5	-0.0019127099
243	0xbe071d44	-0.13194758
244	0x3e020d41	0.12700368
245	0xbe348df4	-0.17632276
246	0xbf10eab1	-0.5660811
247	0xbebf547e	-0.3736915
248	0xbdc7ddc4	-0.09759095
249	0xbd61fb95	-0.055171568
250	0x3d9fbbc7	0.077994876
251	0xbd1c2f87	-0.038131263
252	0xbe65b2e3	-0.22431521
253	0x3d4400bf	0.047852274
254	0xbe0f6d87	-0.14006625
255	0xbd771633	-0.060323905

fc1.bias f4 [120]
0	0x3dbe319a	0.092868045
1	0x3dcbebd7	0.09957092
2	0x3e0af324	0.13569313
3	0xbdaf4618	-0.08558291
4	0xbda5cee7	-0.08096104
5	0xbde24373	-0.11048021
6	0xbd855d13	-0.06511893
7	0x3ca352c5	0.019936929
8	0x3da6a066	0.08136062
9	0x3cb59b11	0.022168668
10	0xbd04aa65	-0.032389063
11	0xbdfe57ab	-0.12419065
12	0x3d812470	0.06305778
13	0xbda956d2	-0.08268513
14	0x3d81fae3	0.06346681
15	0x3dba9290	0.09109986
16	0x3d5c09c0	0.053720236
17	0x3e0c64ab	0.13710277
18	0x3db99b84	0.090628654
19	0x3d068a9b	0.03284703
20	0x3dba206b	0.090882145
21	0x3dd8cce3	0.10585954
22	0x3dae2cb5	0.08504621
23	0xbcbe0bb2	-0.023198936
24	0xbd803426	-0.062599465
25	0x3e0e5a6e	0.13901684
26	0xbdbd6523	-0.09247806
27	0xbdb6ca5c	-0.08925316
28	0xbdb55652	-0.08854355
29	0x3d9ac1b4	0.07556477
30	0xbdf50236	-0.11963312
31	0xbdbd5db6	-0.092463896
32	0x3dc6839e	0.09693073
33	0x3dd87545	0.105692424
34	0x3da9b640	0.082867146
35	0xbdbc9715	-0.09208504
36	0x3d391d44	0.045193925
37	0xbc2d55cd	-0.0105795385
38	0x3d896ada	0.067098334
39	0xbda55877	-0.08073514
40	0x3d9525fd	0.07282636
41	0xbce52a73	-0.027974343
42	0x3ccaa408	0.02473642
43	0x3e043e83	0.12914471
44	0xbd9b5753	-0.07585015
45	0xbdb4404a	-0.08801325
46	0x3d6dc3ce	0.058048062
47	0x3e047155	0.12933858
48	0x3d09bc91	0.033627097
49	0x3d21e6b1	0.039526645
50	0xbdf14b89	-0.11781985
51	0x3d1d8b63	0.038463008
52	0x3dfa3701	0.122175224
53	0xbde7e8a0	-0.113236666
54	0xbc8666fa	-0.016406525
55	0x3dc2334b	0.094824396
56	0x3d258243	0.04040743
57	0x3da8ea7a	0.08247848
58	0x3d9fa12a	0.077944115
59	0xbdb08017	-0.08618181
60	0x3d3eb3dc	0.046558246
61	0x3def2166	0.11676292
62	0xbd01b5f9	-0.031667683
63	0x3d06dc82	0.032925136
64	0x3dde17be	0.10844372
65	0xbd326ea6	-0.043562554
66	0x3ddb5c8f	0.107110135
67	0xbdb0875e	-0.08619569
68	0xbdb5d1f3	-0.08877935
69	0xbe0df735	-0.13863833
70	0xbe0c52c0	-0.13703442
71	0x3d065404	0.032794967
72	0xbe0b3af6	-0.1359671
73	0x3dbf096c	0.09327969
74	0x3cbd703c	0.023124807
75	0xbe06bbc6	-0.13157567
76	0xbb9f42f2	-0.0048602754
77	0xbd06ef1b	-0.032942872
78	0x3de9dc19	0.114189334
79	0x3d2f454c	0.042790696
80	0x3dacbd67	0.08434563
81	0xbdd6e304	-0.104925185
82	0x3d6de488	0.058079273
83	0xbde9a769	-0.11408884
84	0xbd8297ab	-0.063765846
85	0x3d9143df	0.070930235
86	0xb98ffe85	-0.00027464717
87	0xbd7216f5	-0.059103925
88	0xbd3aa14f	-0.045563992
89	0xbd961cdd	-0.07329724
90	0xbbd87915	-0.006606231
91	0x3de061a3	0.10956123
92	0x3de43438	0.111427724
93	0x3e0eb62b	0.13936679
94	0xbdbff562	-0.09372975
95	0xbdb896d4	-0.09013143
96	0x3dcc7c1b	0.09984609
97	0x3bc746c2	0.006081433
98	0x3d1b0c67	0.037853625
99	0xbe0ce861	-0.1376052
100	0x3dcbfbcd	0.099601366
101	0xbd5b9bfa	-0.053615548
102	0x3cd7eb85	0.026357422
103	0xbde81244	-0.11331609
104	0xbcb80b2d	-0.022466267
105	0x3ac4c63c	0.0015012692
106	0xbdbbf332	-0.09177245
107	0xbd552b67	-0.052043345
108	0xbd5e2888	-0.054237872
109	0x3c58b24a	0.013226101
110	0xbd6f1ce1	-0.05837715
111	0xbd2b34e2	-0.04179848
112	0xbd45ffa3	-0.048339497
113	0xbd8496d2	-0.06474079
114	0x3db3e74a	0.08784349
115	0x3d8ec311	0.069708
116	0xbd3dbc37	-0.046322074
117	0x3d5fa45d	0.05460011
118	0x3bca1c76	0.0061679436
119	0xbdf3c7a0	-0.1190331

bn1.weight f4 [120]
0	0x3fbf021b	1.4922518
1	0x400164fa	2.0217881
2	0x3fb6b05f	1.4272574
3	0x40186239	2.380995
4	0x3fe4ede9	1.7885104
5	0x3fd62b3e	1.6731946
6	0x3f9af022	1.2104533
7	0x3fbda704	1.4816594
8	0x3fe4b3ac	1.7867332
9	0x3fc79f83	1.5595554
10	0x3fd0d924	1.6316266
11	0x3fbe9ba6	1.489125
12	0x3fce2799	1.6105834
13	0x3fe69495	1.8014094
14	0x3ff48fad	1.9106346
15	0x3fd31d96	1.6493404
16	0x3fc9305f	1.5717887
17	0x3fc91ae0	1.5711327
18	0x3fc19518	1.5123625
19	0x40061a58	2.095358
20	0x3fd00df5	1.6254259
21	0x3fdf0ec3	1.742638
22	0x3fbc3677	1.4704121
23	0x4009e95b	2.154868
24	0x3fe8b8ff	1.8181456
25	0x3fe2b1e6	1.771054
26	0x3fbcc22b	1.4746755
27	0x3fba0eb8	1.4535742
28	0x3fb89d07	1.4422921
29	0x4009d292	2.1534772
30	0x3fcc87b6	1.5978916
31	0x4003d77a	2.0600266
32	0x3fec5830	1.8464413
33	0x4004c09b	2.0742557
34	0x3fdbedf8	1.7181997
35	0x3ffed2b6	1.9908054
36	0x3fd53615	1.665713
37	0x3fe8f150	1.8198643
38	0x3f99ebcc	1.2025084
39	0x3fb1a20d	1.3877579
40	0x3fe14da6	1.7601821
41	0x3fd1a61e	1.637882
42	0x3fe3ec86	1.7806556
43	0x3fca02f3	1.578215
44	0x3fccf51e	1.6012304
45	0x3fd83ae4	1.6892972
46	0x3fa34ff6	1.2758777
47	0x3ff38814	1.9025903
48	0x3fadae92	1.35689
49	0x3fd64c11	1.6741964
50	0x3fec6c5d	1.847057
51	0x3fa29bf8	1.2703848
52	0x3fb7e194	1.4365716
53	0x3fe07b06	1.7537544
54	0x3fa8b3db	1.3179888
55	0x3fbf1005	1.4926764
56	0x3fe88084	1.816422
57	0x3ffa05f7	1.953307
58	0x3fb42fea	1.4077122
59	0x3fd7065c	1.6798816
60	0x3ff1d022	1.8891642
61	0x3fbde725	1.4836165
62	0x4001dc37	2.0290658
63	0x3feb0983	1.8362278
64	0x3fbbb065	1.4663206
65	0x3feafd8e	1.8358629
66	0x3fd2e068	1.6474733
67	0x3fd08141	1.6289445
68	0x3fc01e59	1.5009261
69	0x3fc4a396	1.5362422
70	0x4006fa28	2.1090183
71	0x3fe84bd7	1.8148144
72	0x3fc7aba8	1.559926
73	0x3fd0e35d	1.6319386
74	0x3fc7a6dd	1.5597798
75	0x3fc61845	1.5476156
76	0x3fdb06af	1.7111415
77	0x3fac132d	1.3443352
78	0x3ff5e26e	1.9209726
79	0x3fed7a08	1.8552866
80	0x3fe330a5	1.774922
81	0x3fc36cda	1.5267594
82	0x3fbb8670	1.4650402
83	0x3fcb99c7	1.5906304
84	0x3fa5b65f	1.294628
85	0x402639d9	2.5972807
86	0x3faad948	1.3347559
87	0x3fdd6d72	1.7299025
88	0x3fb8aa05	1.4426886
89	0x3fc106be	1.5080183
90	0x3fd780c1	1.6836168
91	0x3fb83c30	1.4393368
92	0x3fd88222	1.6914713
93	0x3fa9093a	1.3205941
94	0x3fbcc83e	1.4748609
95	0x3fcae3bc	1.5850749
96	0x3fbd1219	1.4771148
97	0x3fd84a4d	1.6897675
98	0x3fe21588	1.7662821
99	0x4015b570	2.339199
100	0x3fb58fcd	1.418451
101	0x3fe7d765	1.8112608
102	0x3fd56570	1.6671581
103	0x3ff1a6e1	1.8879052
104	0x4028f0bd	2.6396935
105	0x3fabc3b7	1.3419102
106	0x3fbc7f23	1.4726299
107	0x3fdd674a	1.7297146
108	0x3fd8fa54	1.6951394
109	0x4003511d	2.0518258
110	0x3fd8dad4	1.6941781
111	0x3ff58057	1.9179791
112	0x3fcaa8a4	1.5832715
113	0x3fdd0ff4	1.7270494
114	0x3fe50bcc	1.7894225
115	0x3ffe7603	1.9879764
116	0x3fd57a0b	1.667787
117	0x401d605e	2.4590068
118	0x3fdb28d8	1.712184
119	0x3fc22dee	1.5170267

bn1.bias f4 [120]
0	0xbf06a62c	-0.5259731
1	0xbfa5c3a1	-1.2950326
2	0xbe728b78	-0.23686016
3	0xbfc9058b	-1.5704817
4	0x3f7fc0cf	0.9990358
5	0x3f97d4ae	1.186178
6	0x3e50665f	0.20351551
7	0x3f0339fd	0.5126036
8	0xbf303dfd	-0.68844587
9	0x3e112fb3	0.14178352
10	0xbddec481	-0.10877324
11	0xbf4413af	-0.76592535
12	0xbeb05898	-0.34442592
13	0x3ed4dd18	0.4157493
14	0xbe88e2f3	-0.2673565
15	0x3eb68d01	0.35654452
16	0x3bbd869f	0.0057838704
17	0x3f68afcb	0.9089324
18	0xbf014f89	-0.50511986
19	0xbe80bf20	-0.25145817
20	0x3eb94a46	0.3618948
21	0x3e6af17e	0.22943684
22	0xbed0fd65	-0.40818325
23	0xbfc46870	-1.5344372
24	0x3f846bcd	1.0345398
25	0xbdcd2832	-0.10017432
26	0xbe04f9e7	-0.12985955
27	0x3f52ab9f	0.82293123
28	0x3f1e3f4d	0.6181534
29	0x3fdc123d	1.7193066
30	0x3c7d58a3	0.015463027
31	0xbfaba612	-1.3410056
32	0x3f16b5f8	0.5887141
33	0x3e1080e7	0.14111672
34	0xbd952722	-0.072828546
35	0xbfa4d9a0	-1.2878914
36	0x3f19c997	0.60073227
37	0xbf654fdd	-0.89574987
38	0x3e8f279e	0.27959913
39	0x3e23ba41	0.15989019
40	0x3f921daa	1.1415303
41	0xbeef568b	-0.46745715
42	0xbe50d541	-0.2039385
43	0xbf072bf0	-0.5280142
44	0xbe20fd10	-0.15721536
45	0x3d1d451b	0.038395982
46	0xbf0a824b	-0.5410506
47	0xbf4b77f1	-0.7947989
48	0xbf3692ad	-0.7131756
49	0x3ecc983c	0.39959896
50	0xbf8f4eaa	-1.1195881
51	0xbc23cc71	-0.009997473
52	0x3ebad7da	0.36492807
53	0x3c82f9cd	0.015988255
54	0xbd8b56fb	-0.068036996
55	0x3e1b2997	0.15152584
56	0x3e223d12	0.15843609
57	0x3fae63d0	1.362421
58	0xbe6929cc	-0.2276985
59	0xbe55c623	-0.20876364
60	0xbea534ba	-0.3226679
61	0x3ecc9bac	0.39962518
62	0xbfb752be	-1.4322126
63	0x3c39fe75	0.011352171
64	0xbe098431	-0.13429333
65	0xbf9da6fa	-1.2316582
66	0x3f8e79bb	1.1130899
67	0x3e187875	0.148897
68	0x3ea73bef	0.32662913
69	0x3f078b93	0.5294735
70	0x3fc48db1	1.5355741
71	0x3f04f614	0.51937985
72	0xbf6f89f1	-0.93569857
73	0x3d997b97	0.07494276
74	0xbf0b3250	-0.54373646
75	0xbf728aa5	-0.94742805
76	0xbe26233a	-0.16224375
77	0x3d9c8e5d	0.07644341
78	0x3e870c8f	0.2637677
79	0x3f78660b	0.97030705
80	0x3eae8313	0.34084377
81	0x3e40f232	0.1884239
82	0xbf3c8b4e	-0.7365006
83	0xbccc141d	-0.024911935
84	0x3decff14	0.1157209
85	0xc00e9d30	-2.228344
86	0x3ee2ee4b	0.44322428
87	0x3eb11183	0.34583673
88	0x3ea3c926	0.31989402
89	0xbf04472f	-0.5167112
90	0xbd010d65	-0.031506915
91	0xbd734c7a	-0.059399106
92	0xbe1a378c	-0.15060252
93	0x3da01245	0.07815985
94	0xbf69c2ca	-0.9131285
95	0x3f1ef4c7	0.6209225
96	0xbecabcc1	-0.39597133
97	0x3eb22ef8	0.3480146
98	0xbf9760c8	-1.182641
99	0xbfd52c04	-1.6654058
100	0x3e1d3a8d	0.15354367
101	0x3e8531bc	0.26014507
102	0x3f924d6f	1.1429881
103	0x3e0a41f2	0.13501719
104	0xbfe2e702	-1.7726748
105	0x3cc0d6b3	0.023539877
106	0x3d5c89ec	0.05384247
107	0xbee5df13	-0.44896755
108	0x3f90a7ba	1.1301186
109	0xbfac8f6e	-1.3481271
110	0xbe428077	-0.18994318
111	0xbf9f3492	-1.2437918
112	0x3d9e50a6	0.07730226
113	0xbe349e8a	-0.17638603
114	0xbf19549e	-0.5989474
115	0xbfa8b2dc	-1.3179584
116	0x3f898e15	1.0746485
117	0x3fee6f38	1.8627691
118	0x3bfc77fd	0.0077047334
119	0x3f0cfc75	0.5507272

bn1.running_mean f4 [120]
0	0x3dc31972	0.09526338
1	0x3da6eebf	0.08151006
2	0x3e075b4c	0.1321842
3	0xbdcc6688	-0.09980494
4	0xbdd8239b	-0.10553666
5	0xbde60af3	-0.11232557
6	0xbd3372dd	-0.043810714
7	0x3beabcf8	0.00716364
8	0x3dbe32c4	0.092870265
9	0x3cacaa79	0.021077381
10	0xbd587ffe	-0.052856438
11	0xbde9bd0c	-0.11413011
12	0x3d667611	0.05626494
13	0xbda64c62	-0.081200376
14	0x3d569236	0.05238553
15	0x3da66b18	0.08125895
16	0x3d59a926	0.05313983
17	0x3e09f968	0.13474047
18	0x3da4ad8e	0.080409154
19	0x3d22571f	0.039633866
20	0x3dbf94fc	0.093545884
21	0x3dda084a	0.10646112
22	0x3dd6cb64	0.104880124
23	0xbce4c4fc	-0.02792596
24	0xbd9e5e88	-0.07732874
25	0x3e0ac3c6	0.13551244
26	0xbdbd4114	-0.09240928
27	0xbdc25bca	-0.094901636
28	0xbdd233ca	-0.10263784
29	0x3d922c02	0.071373
30	0xbe008be8	-0.1255337
31	0xbdc58aec	-0.09645638
32	0x3dc5ab56	0.0965182
33	0x3dcbd8df	0.09953474
34	0x3db70b92	0.08937754
35	0xbd9234cc	-0.071389765
36	0x3d18297f	0.03714895
37	0x3b6fabec	0.003657098
38	0x3d85b08b	0.065278135
39	0xbdb23bd7	-0.0870282
40	0x3d651f40	0.055938005
41	0xbc28fa9b	-0.010313655
42	0x3be82574	0.007084543
43	0x3e0a5f52	0.13512924
44	0xbd6547e2	-0.055976756
45	0xbd899eae	-0.06719719
46	0x3d82a961	0.06379963
47	0x3e0c481e	0.13699386
48	0x3cb672f5	0.022271613
49	0x3cc5db69	0.024152474
50	0xbe05eeaa	-0.13079324
51	0x3d376491	0.044773642
52	0x3e06f360	0.13178778
53	0xbdeea3ab	-0.11652311
54	0xbcd14473	-0.025545334
55	0x3dac7433	0.08420601
56	0x3d3e748e	0.046497874
57	0x3db534a6	0.088479325
58	0x3d996034	0.074890524
59	0xbd8cf8f5	-0.06883422
60	0x3c8ed7b9	0.017436849
61	0x3df8aa35	0.121418394
62	0xbd045f3e	-0.032317393
63	0x3d104057	0.03521761
64	0x3de07dc1	0.10961486
65	0xbcdbeb27	-0.026845528
66	0x3de86b72	0.113486186
67	0xbdbdffa9	-0.09277279
68	0xbda7d146	-0.081942126
69	0xbe08fbbe	-0.13377282
70	0xbdd444d9	-0.10364694
71	0x3d2d98fb	0.04238222
72	0xbe00fc85	-0.12596329
73	0x3dc5a990	0.09651482
74	0x3cf25a1a	0.02958398
75	0xbdf6b11d	-0.120455004
76	0xbcc3b82a	-0.023891527
77	0xbd01861a	-0.03162203
78	0x3ddb762c	0.10715899
79	0x3d29e945	0.04148223
80	0x3d7b5d12	0.061368056
81	0xbdbeba65	-0.09312896
82	0x3cff3bae	0.031156387
83	0xbdebe1f0	-0.115177035
84	0xbd9309f7	-0.07179635
85	0x3d95f07d	0.0732126
86	0xbc15f369	-0.009152272
87	0xbd94ac97	-0.072594814
88	0xbd4f7254	-0.05064614
89	0xbd98fd76	-0.07470219
90	0x3c54ab04	0.012980226
91	0x3db29f28	0.08721763
92	0x3de850a1	0.11343504
93	0x3e0a54e1	0.13508941
94	0xbd986ad0	-0.07442248
95	0xbdaa6af4	-0.08321181
96	0x3dbc9ab5	0.092091955
97	0x3cb296cb	0.02180042
98	0x3d769548	0.06020096
99	0xbdf24084	-0.11828712
100	0x3dd4435a	0.10364409
101	0xbd7abda6	-0.06121602
102	0x3d05a13f	0.03262448
103	0xbdc12d2b	-0.09432443
104	0xbc9e9320	-0.019357264
105	0x3bb78524	0.0056005884
106	0xbdb58d88	-0.088648856
107	0xbd0a168f	-0.03371292
108	0xbd91487d	-0.07093904
109	0x3c832218	0.016007468
110	0xbd38a01c	-0.045074567
111	0xbd0e5476	-0.034748517
112	0xbd6dccca	-0.05805663
113	0xbd536371	-0.051608507
114	0x3d6b7d46	0.057492517
115	0x3dae3488	0.08506113
116	0xbd7471b6	-0.059678756
117	0x3d9777cc	0.07395896
118	0x3c9a4fd2	0.01883689
119	0xbdfe3407	-0.12412267

bn1.running_var f4 [120]
0	0x3f7a70c7	0.97828335
1	0x401a6b30	2.4127922
2	0x3f519dbf	0.81881326
3	0x40bf10b2	5.970788
4	0x4016d128	2.356516
5	0x3f8f8ab2	1.1214201
6	0x3fbd8a2f	1.4807795
7	0x3f960efc	1.1723323
8	0x3f69e11c	0.91359115
9	0x3f87d24b	1.0611051
10	0x3fbfd585	1.4987036
11	0x3fc3bcf3	1.5292038
12	0x3f7be28b	0.9839255
13	0x3f86a4f3	1.0519089
14	0x3fdd5c31	1.729376
15	0x3f85db75	1.0457598
16	0x3f9b2b1e	1.2122533
17	0x3fbee14d	1.4912506
18	0x3fa676ad	1.3004967
19	0x3fcdf055	1.6088969
20	0x3f9ac253	1.2090553
21	0x3f993606	1.1969612
22	0x3f8bd685	1.0924841
23	0x3fa5ed0c	1.2962966
24	0x4012a570	2.2913475
25	0x3fc24bd1	1.5179387
26	0x3f9e453a	1.2364876
27	0x3f6f6f4e	0.9352921
28	0x3f78fba7	0.9725899
29	0x40335462	2.8020253
30	0x3fc204c9	1.515771
31	0x3fb67ca2	1.4256785
32	0x3fa380fd	1.2773739
33	0x3fa64e35	1.2992617
34	0x3f946a0e	1.1594865
35	0x40514228	3.2696629
36	0x3fc9ac95	1.5755793
37	0x400d929a	2.2120728
38	0x3f961eb0	1.1728115
39	0x3f918354	1.1368203
40	0x402ae799	2.6703856
41	0x3f84eb08	1.0384226
42	0x3f9b5ba8	1.2137346
43	0x3f9eccf0	1.2406292
44	0x3fa73469	1.3062869
45	0x3f80e1a5	1.0068861
46	0x3f8b521e	1.0884435
47	0x3fa64425	1.2989546
48	0x3f8f97e3	1.1218227
49	0x3f844ac8	1.0335321
50	0x3f99aa16	1.2005031
51	0x3f768d0b	0.96308964
52	0x3f82919f	1.020069
53	0x3f91fe34	1.1405702
54	0x3f701957	0.93788666
55	0x3fe25191	1.7681142
56	0x3f98b742	1.1930926
57	0x3fe0b356	1.7554729
58	0x3f5dee91	0.8669215
59	0x3f900410	1.125124
60	0x3fa1ec8f	1.2650317
61	0x3f897207	1.0737923
62	0x3fcb8f04	1.590302
63	0x3fa7964f	1.3092746
64	0x3f9fda4e	1.2488496
65	0x3faa679c	1.3312869
66	0x3fb586c7	1.4181756
67	0x3f973b51	1.1814977
68	0x3fa21e8a	1.266557
69	0x3f92646c	1.1436896
70	0x401f9463	2.4934318
71	0x3f746cc5	0.9547847
72	0x3fd53890	1.6657887
73	0x3f7a1813	0.97692984
74	0x3f7c27fa	0.984985
75	0x3fc58cc6	1.5433586
76	0x3fb0bdb6	1.3807895
77	0x3f9b8147	1.2148827
78	0x3fb59f33	1.4189209
79	0x3fb29f91	1.3954946
80	0x3fb24257	1.3926495
81	0x3f8fd56b	1.1237005
82	0x3fff799c	1.9958987
83	0x3f87f968	1.0622988
84	0x3fa831b0	1.3140163
85	0x401bd1b4	2.4346743
86	0x3f8f1e8c	1.1181197
87	0x3f83b07c	1.0288234
88	0x3f95421a	1.1660798
89	0x3fbe9c5c	1.4891467
90	0x3f8daa1a	1.1067536
91	0x3fb4fee9	1.4140292
92	0x3f70e9aa	0.94106543
93	0x3f84e39f	1.0381964
94	0x400a7841	2.1635897
95	0x3fa3104d	1.273935
96	0x3fb0fe28	1.3827562
97	0x3fa01e35	1.2509218
98	0x40777824	3.8667078
99	0x401c529a	2.4425416
100	0x3f3e1613	0.7425243
101	0x3fc3c416	1.5294216
102	0x3fb6e8a9	1.4289752
103	0x3fc5527d	1.5415798
104	0x3fd1171f	1.6335181
105	0x3f7e48a2	0.9932958
106	0x3f9674a0	1.1754341
107	0x3f741193	0.95339316
108	0x40034b4a	2.0514703
109	0x400c9196	2.1963859
110	0x3f89ef82	1.0776217
111	0x4094da8d	4.6516786
112	0x3fa4932b	1.2857412
113	0x3fad04f2	1.3517134
114	0x3faa2981	1.3293916
115	0x40e3557e	7.104186
116	0x3fb5c26e	1.419996
117	0x403fa491	2.9944193
118	0x3fe2d5ff	1.7721556
119	0x3fb7e274	1.4365983

fc2.weight f4 [100, 120]
0	0x3e56a4ee	0.20961353
1	0xbd88b87c	-0.066758126
2	0x3ddcc78d	0.10780249
3	0x3d1d9e61	0.03848112
4	0xb9e67fd8	-0.0004396427
5	0xbd5e320c	-0.054246947
6	0xbbf2d82c	-0.0074110236
7	0xbdc9eb17	-0.09859293
8	0x3d436e5c	0.04771267
9	0xbe6bde26	-0.23033962
10	0xbad84201	-0.0016499163
11	0xbe440eb8	-0.1914624
12	0x3de14b64	0.11000708
13	0xbe5f58da	-0.21811238
14	0x3dc5deae	0.096616134
15	0xbdb2072c	-0.08692774
16	0xbe729fff	-0.23693846
17	0xbe275dca	-0.16344371
18	0x3e815384	0.2525903
19	0x3d1eb12f	0.038743194
20	0x3dda1562	0.1064861
21	0x3dd893b3	0.105750464
22	0xbd203c9d	-0.039120305
23	0x3de80310	0.11328709
24	0x3d92d832	0.07170142
25	0xbcdb785d	-0.026790792
26	0x3d627cba	0.05529473
27	0xbc54bd58	-0.012984596
28	0xbe0b911f	-0.13629578
29	0x3e106e63	0.14104609
30	0x3daaaf6e	0.08334242
31	0xbb5c9bed	-0.0033662275
32	0x3d6d9429	0.058002625
33	0x3ec24651	0.37944272
34	0x3e38937b	0.1802501
35	0x3d50b917	0.050957765
36	0xbdd6aed5	-0.10482565
37	0x3d5d9e0f	0.054105815
38	0x3d6df4e0	0.05809486
39	0xbd7eecd4	-0.062237576
40	0x3da17f22	0.07885577
41	0xbe36f681	-0.17867471
42	0x3d490e02	0.049085625
43	0x3d97e314	0.074163586
44	0xbd7be66d	-0.061499048
45	0xbcf0e19d	-0.029404456
46	0x3e43b525	0.1911207
47	0x3e565537	0.20930944
48	0xbcc96e94	-0.02458886
49	0xbe76ed7b	-0.24114029
50	0xbe129971	-0.14316346
51	0x3d44f539	0.048085425
52	0xbd10af5a	-0.03532348
53	0xbda27208	-0.07931906
54	0xbb416d56	-0.0029514632
55	0x3d7a719b	0.0611435
56	0x3e21a560	0.15785742
57	0xbd53eb96	-0.051738344
58	0x3dcf5372	0.10123338
59	0x3e593034	0.21209794
60	0x3d2fdd19	0.042935465
61	0x3e308bab	0.17240779
62	0xbdbe1a96	-0.092824146
63	0xbdb5d8a8	-0.088792145
64	0x3d0ea713	0.034827303
65	0xbdf373f1	-0.118873484
66	0xbd066d40	-0.032819033
67	0xbbf721a8	-0.007541854
68	0x3d9fe1e1	0.07806755
69	0x3dfb11f6	0.12259285
70	0xbd0ccd33	-0.03437538
71	0x3d901219	0.07034702
72	0x3e75dbfd	0.240097
73	0xbe704cc8	-0.2346679
74	0x3e467160	0.19379187
75	0x3d953a76	0.07286541
76	0x3c06076c	0.00818048
77	0x3c10e64c	0.00884397
78	0xbd0e2102	-0.034699447
79	0xbc01adfd	-0.007915017
80	0xbcf26cc3	-0.029592877
81	0xbda6f476	-0.08152096
82	0xbd2ddbb0	-0.04244584
83	0x3d7feeb5	0.06248351
84	0xbdc95541	-0.09830714
85	0x3d9bb3f3	0.07602682
86	0x3e1f18cc	0.15536803
87	0xbe487003	-0.19573979
88	0xbc81997c	-0.015820257
89	0x3d947386	0.07248597
90	0xbe1e51f8	-0.15460956
91	0x3cedb6f8	0.02901791
92	0x3d535971	0.05159897
93	0x3c323f6c	0.010879379
94	0x3dc4145b	0.09574195
95	0xbd4ab9e3	-0.04949368
96	0x3be03615	0.0068423846
97	0xbd6ee10b	-0.058320086
98	0xbdac3b47	-0.08409744
99	0x3e10c58e	0.14137861
100	0xbc90fa6f	-0.017697541
101	0x3e323d3a	0.17406169
102	0x3bbe092b	0.0057994328
103	0x3be47749	0.0069722277
104	0x3e94aee4	0.2903968
105	0xbe0b8bd7	-0.13627563
106	0xbcecf54e	-0.028925564
107	0xbc6845dc	-0.014176812
108	0x3e074ccf	0.13212894
109	0xbd2c0826	-0.04199996
110	0xbd110153	-0.035401653
111	0xbca5309d	-0.020164782
112	0xbd93f241	-0.07223941
113	0x3d477edd	0.04870497
114	0x3d9c2eba	0.076261
115	0x3e10c330	0.14136958
116	0xbe550481	-0.208025
117	0xbe5b5bac	-0.21421689
118	0xbe43aa75	-0.19107993
119	0xbe045bdb	-0.12925665
120	0xbd06fb1f	-0.03295433
121	0xbcaf01ea	-0.021363217
122	0x3de8d655	0.113690056
123	0x3d27f489	0.04100469
124	0xbf29ed72	-0.6637794
125	0xbd88b009	-0.06674201
126	0x3dd9c0b6	0.1063246
127	0xbdb5294c	-0.088457674
128	0x3e145b2f	0.14487909
129	0xbe0b371f	-0.13595246
130	0xbd9b883b	-0.07594343
131	0x3e1cb84a	0.15304676
132	0xbdbbd2c1	-0.091710575
133	0x3a85da1e	0.0010212099
134	0xbe30ae96	-0.17254099
135	0xbdda03fc	-0.10645291
136	0x3c40bddd	0.011764017
137	0x3d8f323c	0.06992003
138	0xbd0bdb5f	-0.034144755
139	0xbdbed90e	-0.09318744
140	0xbe13de56	-0.14440283
141	0xbe8fefa8	-0.2811253
142	0x3cf663b1	0.030076833
143	0xbd7bb78a	-0.061454333
144	0xbeaba816	-0.33526677
145	0x3e468ac9	0.1938888
146	0xbe116747	-0.14199553
147	0x3bac1bf5	0.005252356
148	0x3d90fd8c	0.0707961
149	0x3cacc04a	0.021087784
150	0x3d9834c0	0.07431936
151	0xbcb0f82b	-0.02160271
152	0xbccf2dd0	-0.0252904
153	0xbe37ee94	-0.17962104
154	0xbd575b60	-0.052577376
155	0x3f037814	0.513551
156	0xbd1b2fed	-0.037887502
157	0x3e8fe121	0.28101447
158	0x3dab2448	0.083565295
159	0xbc5d7a82	-0.013517978
160	0xbf073ac1	-0.52824026
161	0xbdcb84f9	-0.09937472
162	0xbd6149dd	-0.055002082
163	0x3d9721a4	0.07379463
164	0x3d816796	0.063185856
165	0x3d0c9f96	0.03433188
166	0x3e21aaf5	0.15787871
167	0x3cb7bd0a	0.022429008
168	0xbddfe776	-0.109328195
169	0x3cfdb719	0.030971097
170	0x3d31dd24	0.043423787
171	0xbd2798ba	-0.040917136
172	0x3de007ef	0.10939013
173	0x3d7e28b9	0.062050555
174	0xbe02ffd7	-0.12792908
175	0xbe7e2aa6	-0.24820957
176	0xbd3ae71c	-0.04563056
177	0x3db6b67e	0.08921526
178	0xbbc8f3d4	-0.006132582
179	0x3e3c1af5	0.18369658
180	0xbd14d791	-0.036338393
181	0x3cc5f554	0.024164833
182	0xbdc50201	-0.09619523
183	0xbd915c69	-0.07097704
184	0x3d8efc0f	0.0698167
185	0xbcdab3b5	-0.02669702
186	0x3c382a9b	0.011240627
187	0xbdcd7044	-0.100311786
188	0x3d420871	0.04737133
189	0x3e011eb9	0.12609376
190	0x3d19ff1a	0.0375968
191	0xbd971a20	-0.0737803
192	0x3d95db14	0.073171765
193	0xbd6b58b6	-0.05745765
194	0x3d789f17	0.060698595
195	0x3efaa5c8	0.48954606
196	0xbe041876	-0.12899956
197	0x3d768e67	0.0601944
198	0xbdee899c	-0.11647341
199	0xbe3b79d5	-0.18308194
200	0x3d1fea43	0.03904177
201	0xbd42f422	-0.047596104
202	0xbdc7efd6	-0.09762542
203	0xbd7d6450	-0.061863244
204	0xbde9f1da	-0.11423083
205	0xbd70cee5	-0.05879106
206	0xbda5b7e7	-0.08091717
207	0x3d2c4aa5	0.042063374
208	0xbdc59675	-0.09647838
209	0x3cf2078d	0.029544616
210	0xbd80e7fd	-0.06294248
211	0xbe42127e	-0.18952367
212	0x3d8c1c9a	0.06841393
213	0x3c9785a5	0.018496344
214	0xbd8a3fc0	-0.067504406
215	0x3dd6b346	0.104834124
216	0xbe2a09e3	-0.16605334
217	0xbd07c2ea	-0.03314487
218	0x3f3254f8	0.696609
219	0x3dfc692e	0.12324749
220	0xbd13b55e	-0.036061637
221	0xbe170931	-0.147496
222	0x3d21f2a0	0.039538026
223	0x3d0f5edb	0.03500257
224	0x3d02bd61	0.031918887
225	0xbdb9c8ce	-0.090715036
226	0x3df62e75	0.1202058
227	0x3da7ba20	0.081897974
228	0xbea7fc66	-0.32809752
229	0xbdb9fadd	-0.090810515
230	0x3de17404	0.11008456
231	0x3cfc6f0d	0.030814672
232	0x3d13a951	0.036050145
233	0xbe2d8276	-0.16944298
234	0xbe792568	-0.24330676
235	0x3dc2e34e	0.09516011
236	0x3d11d0fb	0.03559969
237	0xbcfdf322	-0.030999724
238	0x3dba63a9	0.0910104
239	0xbe3ecc82	-0.18632701
240	0x3dd8478e	0.10560523
241	0x3cacabc4	0.021077998
242	0xbe4bba30	-0.19895244
243	0xbe4edb08	-0.20200741
244	0xbbbb265e	-0.005711361
245	0x3d294348	0.04132393
246	0xbdf100fa	-0.117677644
247	0x3e2b1d97	0.16710506
248	0x3dc87ad0	0.097890496
249	0x3d670819	0.056404207
250	0x3e71c553	0.2361043
251	0xbdab6239	-0.08368344
252	0x3d65f743	0.05614401
253	0xbe0cc9b9	-0.13748826
254	0x3d964532	0.07337417
255	0x3de7461a	0.11292668

fc2.bias f4 [100]
0	0xbd207f66	-0.039183997
1	0x3db190a3	0.086701654
2	0x3da6af8e	0.08138953
3	0x3c40ab7a	0.011759633
4	0x3cb0a7dc	0.021564417
5	0x3d8812f9	0.06644244
6	0xbccbf502	-0.024897102
7	0xbdbac600	-0.09119797
8	0xbdb25460	-0.087074995
9	0x3d6e18bc	0.058129057
10	0xbc4f0d76	-0.012637487
11	0xbdb5a031	-0.08868445
12	0xbcf49103	-0.029854303
13	0x3d472477	0.04861876
14	0xbd2dbea2	-0.04241813
15	0xbda4edd8	-0.080531776
16	0x3d8f890c	0.070085615
17	0xbbcd2a1a	-0.0062611224
18	0x3cd4be96	0.025969785
19	0x3c9c1527	0.019053055
20	0xbd9130fe	-0.07089423
21	0xbd92e7cd	-0.07173119
22	0x3c12f2f2	0.0089690555
23	0xbccd2671	-0.025042744
24	0x3d94a490	0.0725795
25	0x3cb2a085	0.021805057
26	0xbd928d28	-0.0715583
27	0xbc6bf082	-0.014400603
28	0x3c8c5f3a	0.017135251
29	0x3d5c7dce	0.053830914
30	0xbbf16ef1	-0.0073679616
31	0x3c0edd37	0.008719734
32	0x3d816f3d	0.06320045
33	0xbcbcbd8a	-0.023039598
34	0xbd7da569	-0.061925326
35	0xbd21aafc	-0.039469704
36	0x3c6a2049	0.014289924
37	0x3ba48227	0.005020398
38	0xbd54996c	-0.051904127
39	0x3d19f620	0.03758824
40	0xbd341392	-0.043963976
41	0x3b83175e	0.0040005883
42	0x3d9002ca	0.07031782
43	0xbd758d9d	-0.059949506
44	0x3d1bf043	0.03807093
45	0x3cb7626b	0.022385797
46	0x3d5ed329	0.054400597
47	0x3d0ef970	0.03490585
48	0x3d8c95f8	0.06864542
49	0xbd7e93ce	-0.062152676
50	0xbd2362da	-0.039889194
51	0x3d11fb57	0.035640087
52	0x3d604436	0.05475255
53	0x3c08e520	0.008355409
54	0x3d4c8bdc	0.049938068
55	0x3db750db	0.08950969
56	0xbda56920	-0.08076692
57	0x3d8e29c4	0.0694156
58	0x3d021a61	0.031763438
59	0xbccbe973	-0.02489159
60	0x3d0b5d21	0.03402436
61	0xbd9ae17f	-0.07562541
62	0x3bd3c259	0.006462377
63	0x3c87a477	0.016557915
64	0x3da423ae	0.08014618
65	0xbd67ce29	-0.056593094
66	0x3d924c77	0.07143491
67	0x3d94e8c3	0.07270958
68	0xbd340b90	-0.04395634
69	0x3ca95ff2	0.020675633
70	0x3d53f95d	0.051751483
71	0xbd56295d	-0.05228554
72	0xbd5dc1c0	-0.054139853
73	0x3d8a501d	0.06753562
74	0xbd4f6786	-0.050635837
75	0x3db210c5	0.08694605
76	0xbd00e0d7	-0.031464424
77	0x3ce63434	0.028101064
78	0x3dba751a	0.091043666
79	0xbd2a082f	-0.04151171
80	0xbd73ff76	-0.0595698
81	0x3d03342d	0.03203218
82	0x3cfa1f53	0.030532515
83	0x3d2a47ee	0.041572504
84	0xbdbc0110	-0.0917989
85	0xbd90cc6c	-0.070702404
86	0x3d3f7ce3	0.04674996
87	0xbda5b4bc	-0.08091113
88	0x3d808d24	0.062769204
89	0xbda373d2	-0.07981075
90	0xbd7e3e71	-0.062071268
91	0xbcc5d6c7	-0.024150265
92	0x3c0496c9	0.008092591
93	0xbc85e003	-0.016342169
94	0xbdb42719	-0.0879652
95	0x3ce5de6f	0.028060166
96	0xbd6e8640	-0.0582335
97	0xbd932065	-0.07183913
98	0xbcd43c6c	-0.025907718
99	0x3d18af6f	0.03727668

bn2.weight f4 [100]
0	0x3eb1a5c0	0.3469677
1	0x3fbece90	1.4906788
2	0x3fc75525	1.5572859
3	0x3f6b283d	0.91858274
4	0x3f059176	0.5217508
5	0x3f00800d	0.5019539
6	0x3f062088	0.5239339
7	0x3f262302	0.6489717
8	0x3eda0562	0.42582232
9	0x3f009f9d	0.5024355
10	0x3fb19247	1.3872765
11	0x3f159cb2	0.58442223
12	0x3fa549c7	1.291314
13	0x3f3fff8b	0.749993
14	0x3e93a0b2	0.28833538
15	0x3ec17aab	0.377889
16	0x3fa5f6ae	1.2965906
17	0x3ed3a2b9	0.41335085
18	0x3ebc65ae	0.36796325
19	0x3ef3e220	0.47633457
20	0x3e7f9914	0.24960738
21	0x3f05b6bc	0.52231956
22	0x3eb3b56d	0.35099354
23	0x3f826932	1.0188353
24	0x3e6231b3	0.22089271
25	0x3fb59e2c	1.4188895
26	0x3f0c35b7	0.5476946
27	0x3f203693	0.62583274
28	0x3eb38819	0.35064772
29	0x3f1e7dca	0.6191069
30	0x3ed7fee1	0.42186645
31	0x3fae2c2e	1.3607233
32	0x3e9c710c	0.30554998
33	0x3eb74e19	0.3580177
34	0x3f85c1f3	1.0449814
35	0x3fa8d951	1.319132
36	0x3f6a5c24	0.91546845
37	0x3eb946b2	0.3618675
38	0x3f2a2fb9	0.6647907
39	0x3efd32a5	0.494527
40	0x3fab06b3	1.336142
41	0x3ec92118	0.3928306
42	0x3ecb6b35	0.3973023
43	0x3fc0ad72	1.5052931
44	0x3ee7ed4d	0.45298234
45	0x3f946d22	1.1595805
46	0x3e0ffa8a	0.14060417
47	0x3f1e0848	0.61731386
48	0x3f01e400	0.50738525
49	0x3ec89fbd	0.3918437
50	0x3f9c79ce	1.2224672
51	0x3f832e57	1.0248517
52	0x3efa8e72	0.48936802
53	0x3e39fc6a	0.18162695
54	0x3eb087f6	0.3447873
55	0x3eb27b3f	0.34859654
56	0x3e90755b	0.28214535
57	0x3f13df95	0.57763034
58	0x3fb73475	1.4312884
59	0x3faf96b7	1.371787
60	0x3e8847ee	0.26617378
61	0x3f95a7d1	1.1691839
62	0x3f281296	0.6565336
63	0x3fa5c457	1.2950543
64	0x3eac28ff	0.33625028
65	0x3f015c76	0.5053171
66	0x3f11e97b	0.5699689
67	0x3eb27afa	0.3485945
68	0x3f11c0e4	0.5693495
69	0x3ecae952	0.39631134
70	0x3f0a9906	0.54139745
71	0x3ea6e1f8	0.32594275
72	0x3ef444fb	0.47708878
73	0x3f95fa7c	1.1717067
74	0x3fbb83b2	1.4649565
75	0x3ec33d8b	0.3813289
76	0x3f88aa4b	1.0676969
77	0x3f2f8eed	0.6857746
78	0x3eca6814	0.3953253
79	0x3f13ab2b	0.57683057
80	0x3f92c59a	1.1466553
81	0x3ea78dca	0.32725364
82	0x3f18ca49	0.5968366
83	0x3f0295ab	0.51009625
84	0x3eb0b4df	0.34512994
85	0x3e9f5e1d	0.3112649
86	0x3ee49db0	0.44651556
87	0x3f4a04ad	0.78913385
88	0x3f01aa4a	0.50650465
89	0x3f25f57a	0.6482769
90	0x3eff2d5e	0.498393
91	0x3f237ad0	0.6385927
92	0x3f23f65e	0.640478
93	0x3fcb6097	1.5888852
94	0x3fa4f5c8	1.2887506
95	0x3f97161c	1.1803622
96	0x3e8b2bed	0.2718195
97	0x3ecac38e	0.3960232
98	0x3f82c094	1.021502
99	0x3f09cd80	0.53829193

bn2.bias f4 [100]
0	0x3e82fc71	0.25583223
1	0xbf81f3b1	-1.0152494
2	0x3f88452a	1.0646107
3	0xbf2b2ca2	-0.6686498
4	0xbe235175	-0.15949042
5	0xbe3ebd33	-0.18626861
6	0xbe508937	-0.20364843
7	0xbea58302	-0.32326514
8	0x3e3848f6	0.17996582
9	0x3e47d881	0.19516183
10	0x3f89fcd7	1.0780286
11	0xbd2a4965	-0.0415739
12	0xbf82f7d1	-1.0231878
13	0xbe2878d2	-0.1645234
14	0xbdac043e	-0.08399247
15	0xbcce2c0a	-0.025167484
16	0x3f6ae9a1	0.9176274
17	0xbdfe2e44	-0.12411168
18	0xbe387847	-0.18014632
19	0x3e2b8c26	0.16752681
20	0x3db9eb93	0.09078135
21	0xbd1328de	-0.035927646
22	0x3e4b5571	0.19856812
23	0xbf43d020	-0.7648945
24	0x3e59cb2b	0.21268909
25	0x3f8b7b11	1.0896932
26	0x3e80617b	0.25074372
27	0xbde99e81	-0.11407185
28	0x3e31c610	0.17360711
29	0x3ec830d0	0.3909974
30	0x3e67fde1	0.22655441
31	0x3f74bb31	0.9559813
32	0x3dd4d51d	0.10392211
33	0x3dfafa1c	0.12254736
34	0x3f31b61d	0.6941851
35	0xbf682513	-0.9068157
36	0xbf144001	-0.5791016
37	0xbe6bea9e	-0.23038718
38	0xbe8e366c	-0.27775896
39	0x3daef4fc	0.08542821
40	0x3f838def	1.027769
41	0x3e464583	0.19362454
42	0xbe39624d	-0.18103905
43	0x3f7f8a55	0.9982045
44	0x3de2a6c9	0.11066968
45	0xbf4e0d64	-0.8048918
46	0xbd4f06eb	-0.050543707
47	0xbebed794	-0.37273848
48	0xbe48fecc	-0.19628447
49	0x3eafdbfa	0.34347516
50	0xbf6ffa2c	-0.93741107
51	0xbf397a81	-0.7245255
52	0x3e14b87a	0.14523497
53	0xbe0e5587	-0.13899814
54	0x3c721b1e	0.014776973
55	0xbe6eb491	-0.23311068
56	0x3e19268a	0.14956108
57	0xbe8c6c26	-0.2742626
58	0x3f7f90cd	0.99830323
59	0x3f75a752	0.95958436
60	0xbc9e2715	-0.019305745
61	0xbf44afe6	-0.768309
62	0x3dc2c56f	0.09510314
63	0x3f5d3694	0.86411405
64	0xbdec3d8c	-0.11535177
65	0x3e8a9506	0.2706682
66	0x3e49ca19	0.19706
67	0xbdede56d	-0.11616025
68	0xbe6dbdac	-0.23216885
69	0x3dabab3b	0.08382269
70	0xbdc34fb2	-0.09536685
71	0x3e0e96a6	0.13924655
72	0xbe9015b1	-0.2814155
73	0x3f4f420f	0.8096017
74	0x3f718dea	0.9435717
75	0xbc858138	-0.016296968
76	0xbf24714e	-0.6423539
77	0xbf00a385	-0.5024951
78	0x3dee6e06	0.11642079
79	0x3e141593	0.14461355
80	0x3f549b58	0.83049536
81	0x3e4cffe8	0.20019495
82	0x3e8b259a	0.27177125
83	0xbe7166d6	-0.23574385
84	0x3de5dc42	0.112236515
85	0x3db5b231	0.08871878
86	0x3e43aeab	0.191096
87	0xbf0467f0	-0.51721096
88	0xbe43d5a7	-0.1912447
89	0xbed5b2d5	-0.41738
90	0xbda5db9e	-0.08098529
91	0x3ddde9bf	0.10835599
92	0x3deb431f	0.11487412
93	0xbf8350ff	-1.0259093
94	0xbf676d1e	-0.90400875
95	0x3f65301c	0.89526534
96	0x3db56885	0.08857826
97	0xbdc6ada8	-0.09701091
98	0x3f29b5c1	0.6629296
99	0x3dcf99ec	0.1013678

bn2.running_mean f4 [100]
0	0xbf6557da	-0.89587176
1	0xbfd22b52	-1.641947
2	0x3fe4fed5	1.7890269
3	0xbddf61e2	-0.109073415
4	0x3f4313a6	0.76201856
5	0x3e10d2de	0.1414294
6	0x3e75c23f	0.2399988
7	0xbfaecda4	-1.3656507
8	0x3e2937a6	0.16525134
9	0x3f761cb9	0.9613758
10	0x3f21328f	0.6296777
11	0x3ef0d87b	0.47040161
12	0x3e2ae1eb	0.16687743
13	0x3e83898d	0.2569088
14	0x3e6cbb11	0.23118235
15	0xbe13652c	-0.14394063
16	0x3f9399cf	1.1531314
17	0xbeeefc78	-0.46676993
18	0x3f15357a	0.58284724
19	0x3f3ddf33	0.741687
20	0xbe7734c7	-0.24141227
21	0xbee82094	-0.45337355
22	0x3d589807	0.05287936
23	0xbf96cfd0	-1.1782169
24	0x3f31b39e	0.694147
25	0x3e8fc4f0	0.2807994
26	0xbef9828c	-0.48732412
27	0x3f72f6fc	0.9490812
28	0x3e08ef78	0.133726
29	0x3f280ae9	0.6564165
30	0xbd50ae5a	-0.050947525
31	0x3f085f1d	0.5327013
32	0x3f74184f	0.9534959
33	0x3d93fd66	0.07226066
34	0x3f0078ee	0.50184524
35	0xbf4e24c4	-0.8052485
36	0xbf66d34d	-0.9016617
37	0x3e2326ab	0.1593272
38	0x3f805960	1.0027275
39	0xbd198525	-0.037480492
40	0x3fab069f	1.3361396
41	0x3caea259	0.021317648
42	0x3ee06a2c	0.43831003
43	0x3fa71ad7	1.3055066
44	0x3ed576e3	0.41692266
45	0x3dcd5740	0.10026407
46	0x3e28b33c	0.16474622
47	0xbf436aa9	-0.76334625
48	0x3f1faa36	0.62369096
49	0x3ede8002	0.43457037
50	0xbfab1b76	-1.3367755
51	0xbf13c960	-0.5772915
52	0xbd02f21e	-0.031969182
53	0x3e856ef4	0.26061213
54	0x3eac9385	0.33706298
55	0xbe7a4aba	-0.24442568
56	0x3e92ad84	0.28648007
57	0xbe9a2fb9	-0.30114534
58	0x3fddecfa	1.7337945
59	0x3f85e793	1.0461296
60	0xbf1c0c6c	-0.60956454
61	0xbfae218b	-1.3603987
62	0xbc646a5e	-0.013941376
63	0x3f31a914	0.6939862
64	0x3f080316	0.5312971
65	0xbe36a29b	-0.17835467
66	0x3eb3bc6f	0.351047
67	0xbf10c133	-0.565448
68	0x3f04a72c	0.51817584
69	0xbf2b73be	-0.66973484
70	0xbf4703fb	-0.7774045
71	0x3ec5165d	0.38493624
72	0xbf9f0521	-1.242344
73	0x3fbf393c	1.4939342
74	0x3fa50d42	1.2894671
75	0x3e205af7	0.156597
76	0xbf8dcca3	-1.1078075
77	0xbf5f29ff	-0.87173456
78	0xbe46eedf	-0.1942706
79	0xbfc71a98	-1.5554991
80	0x3fb421bd	1.4072796
81	0x3edf0a26	0.4356243
82	0xbe528d51	-0.2056172
83	0x3f3932a6	0.7234291
84	0xbe308077	-0.17236505
85	0x3df8962f	0.1213802
86	0xbfa692ee	-1.3013589
87	0xbf812865	-1.0090452
88	0x3f6ed07d	0.9328688
89	0xbf5dbd6a	-0.8661715
90	0xbec51c9b	-0.38498387
91	0xbf366c4f	-0.71259016
92	0xbf2e08bd	-0.67982084
93	0xbfecbfa4	-1.8495984
94	0xbf9adc7c	-1.2098536
95	0x3f42d9a9	0.76113373
96	0xbf8bf36c	-1.0933661
97	0x3e357508	0.17720425
98	0x3f8d2938	1.1028204
99	0xbe9d49c3	-0.30720338

bn2.running_var f4 [100]
0	0x40018887	2.023958
1	0x417b0380	15.6883545
2	0x411ecad2	9.924517
3	0x40843ee3	4.1326766
4	0x406d2ae3	3.7057426
5	0x401793ac	2.3683882
6	0x401dad13	2.4636886
7	0x4087eecb	4.2478995
8	0x3ff1c7fd	1.8889157
9	0x4037d338	2.8722668
10	0x410fce85	8.98792
11	0x40466c6d	3.1003678
12	0x4108a7af	8.540938
13	0x40486801	3.131348
14	0x400daa8d	2.2135346
15	0x40167734	2.3510256
16	0x415471c7	13.277778
17	0x3fec55ef	1.8463725
18	0x40189cd9	2.3845732
19	0x40249188	2.5713825
20	0x3fb6df6f	1.4286937
21	0x400b6b6c	2.1784315
22	0x4008f609	2.1400168
23	0x40f9a6b8	7.8016014
24	0x3fc14cf2	1.5101607
25	0x410d9f3c	8.851376
26	0x401be090	2.4355812
27	0x407fe0b3	3.9980896
28	0x402e49a0	2.7232437
29	0x402ca8ee	2.6978106
30	0x40154fc9	2.3329947
31	0x40bcc17d	5.898619
32	0x40013a20	2.0191727
33	0x4016405e	2.3476787
34	0x409e2b64	4.9427967
35	0x41033c23	8.202182
36	0x409a004d	4.8125367
37	0x400d52db	2.208182
38	0x406eac35	3.7292607
39	0x40278e5b	2.6180637
40	0x413750f5	11.457265
41	0x403f27aa	2.986796
42	0x40276b46	2.6159225
43	0x410a00a2	8.6251545
44	0x3ff323d8	1.8995314
45	0x4102c700	8.173584
46	0x3fd490cc	1.6606688
47	0x405a53e5	3.4113705
48	0x4074772b	3.8197734
49	0x403d060a	2.9534936
50	0x41505fc9	13.023385
51	0x408025d0	4.004616
52	0x404b8446	3.1799483
53	0x3fbf0ba1	1.4925424
54	0x401da567	2.4632204
55	0x4045144b	3.0793636
56	0x400d8428	2.2111912
57	0x40897ab2	4.2962275
58	0x413115b8	11.067802
59	0x412c79e2	10.779757
60	0x3fbbd583	1.4674534
61	0x40bc37ba	5.8818026
62	0x4034bb6b	2.823939
63	0x40cdc75b	6.4305854
64	0x40498d9b	3.149268
65	0x40068ac8	2.1022205
66	0x404ca092	3.1973004
67	0x403c3c68	2.941187
68	0x408b0ca4	4.345293
69	0x400ed91d	2.2320015
70	0x3ff671c1	1.9253465
71	0x3ff3a496	1.9034603
72	0x403e7efc	2.9765005
73	0x40ec9682	7.3933725
74	0x410b63dd	8.711881
75	0x400579b7	2.085554
76	0x40f7c46c	7.7427273
77	0x406fb369	3.7453253
78	0x407dd91c	3.9663763
79	0x40881e39	4.2536893
80	0x40f7b140	7.740387
81	0x400ef400	2.2336426
82	0x40a6e39f	5.215286
83	0x40333eba	2.8007035
84	0x403a4568	2.9104862
85	0x401f23d0	2.4865608
86	0x4032040a	2.7814965
87	0x406b17ee	3.6733356
88	0x4036b031	2.8545039
89	0x405707c3	3.3598487
90	0x401f4dae	2.4891162
91	0x40831b8a	4.0971117
92	0x402fdfdc	2.7480383
93	0x40f3a98d	7.614447
94	0x40afb9b5	5.4914193
95	0x4093f3f2	4.6235285
96	0x4008020a	2.1251245
97	0x4002014b	2.031329
98	0x40e7730b	7.2327933
99	0x40486c2a	3.1316018

fc3.weight f4 [46, 100]
0	0x3d747311	0.05968005
1	0x3cfd67ff	0.030933378
2	0x3bba3b57	0.0056833434
3	0xbc5bc0cd	-0.0134126665
4	0xbd5755d9	-0.052572105
5	0xbcac04f0	-0.020998448
6	0xbc4cc037	-0.012496999
7	0xbcf20848	-0.029544964
8	0x3c14c439	0.009079986
9	0x3c1a6598	0.009423636
10	0xba629f1a	-0.0008644924
11	0xbd00a748	-0.03140953
12	0x3ad2cd62	0.0016082937
13	0xbb6b35c4	-0.00358902
14	0x3ca8f202	0.02062321
15	0xbc77e952	-0.0151313115
16	0x3d4d7307	0.050158527
17	0xbd66afa7	-0.05631986
18	0xbd41e811	-0.047340456
19	0x3ac14ac2	0.0014747011
20	0x3cee4034	0.029083349
21	0x3de2683b	0.11055037
22	0x3a7cdcac	0.000964592
23	0xbc7c52ad	-0.015400571
24	0x3c9a547f	0.018839119
25	0x3c7cbea2	0.01542631
26	0x3da420e2	0.080140844
27	0x3d9720cb	0.07379302
28	0xbc503257	-0.012707314
29	0xbccb6fbb	-0.02483355
30	0xbb4fde17	-0.003171807
31	0xb9446204	-0.0001872853
32	0x3c05972b	0.008153717
33	0xbd274ffb	-0.04084776
34	0xbc798d3f	-0.01523143
35	0xbb81fe11	-0.0039670547
36	0xbcd3136e	-0.0257661
37	0xbd225a1c	-0.039636716
38	0xbdecdcda	-0.115655616
39	0xbc8bf29f	-0.017083464
40	0xbf400e2b	-0.7502162
41	0x3da9225f	0.08258509
42	0xbd30f246	-0.0431998
43	0xbb8a6bc7	-0.004224274
44	0x3d75f79e	0.0600506
45	0xbcca558e	-0.024698999
46	0xbd0fbade	-0.03509032
47	0xbc82e2fe	-0.015977379
48	0xbd85fdfc	-0.06542584
49	0x3d6e6932	0.05820579
50	0x3c8f2595	0.017473975
51	0x3bad8320	0.0052951723
52	0xbd96be50	-0.07360518
53	0xbd2c651e	-0.04208862
54	0xbc0d06ad	-0.008607549
55	0xbcb0a9d6	-0.02156536
56	0x3dc577b2	0.09641971
57	0x3cdf8be1	0.02728838
58	0x3d06540a	0.03279499
59	0x3c92f1b3	0.017937517
60	0x3d1b8805	0.037971515
61	0x3c3efb37	0.011656574
62	0xbd0bbd2f	-0.034115966
63	0xbc8d7611	-0.017268213
64	0xbd4bbf8a	-0.049743213
65	0x3dd686de	0.104749426
66	0xbd8756bc	-0.0660834
67	0xbda11308	-0.07864958
68	0xbcfc4626	-0.030795168
69	0x3c4b800a	0.012420664
70	0x3c8cc915	0.017185727
71	0x3d34e58e	0.044164233
72	0xbd9a4672	-0.075329676
73	0xbd43ad36	-0.04777261
74	0xbc893a15	-0.016751328
75	0x3d84d3a1	0.064856775
76	0x3dfa39fb	0.1221809
77	0xbd8275cc	-0.06370124
78	0x3daeec9b	0.08541223
79	0xbdc98da9	-0.09841473
80	0x3bacaed5	0.005269865
81	0x3d7d7e3a	0.061887957
82	0xbc34ecaa	-0.011042753
83	0xbcdc06f7	-0.02685879
84	0x3d0fd41f	0.035114404
85	0x3d837b73	0.064200304
86	0x3d9be108	0.07611281
87	0xbd6d1661	-0.05788267
88	0xbc3a2da8	-0.011363424
89	0xbdd766f3	-0.10517683
90	0xbcc601f2	-0.02417085
91	0xbd81a78f	-0.063307874
92	0xbbf8cfbb	-0.007593123
93	0xbcadd15d	-0.021217996
94	0xbc984153	-0.018585837
95	0x39b3bc4c	0.00034281833
96	0x3d5cbf05	0.053893108
97	0xbc45bbba	-0.012068683
98	0x3dd4ddb5	0.1039385
99	0xbca8e39e	-0.020616349
100	0x3da28586	0.07935624
101	0xbc250476	-0.010071864
102	0xbaad00cd	-0.0013199091
103	0xbc18cfce	-0.009326888
104	0xbdc29763	-0.09501531
105	0xbdbcbe1e	-0.092159495
106	0xbdcd1251	-0.10013259
107	0xbd424ae5	-0.047434706
108	0xbca1034f	-0.019654898
109	0x3d4b8afe	0.0496931
110	0x3c8205dd	0.015871936
111	0xbd31074c	-0.04321985
112	0x3a2c7770	0.0006579077
113	0xbd14d46c	-0.036335394
114	0x3cf537e3	0.029933875
115	0xbb2fe20c	-0.0026837615
116	0x3d9cc9f8	0.0765571
117	0xbc3690db	-0.011142935
118	0xbd86ba2b	-0.065784775
119	0x3b56b3f0	0.003276106
120	0xbc15db8f	-0.009146585
121	0x3cda5c9d	0.02665549
122	0x3d7ea8a7	0.06217256
123	0xbba69fa3	-0.005084948
124	0x3de3c379	0.11121268
125	0xbc50c7ec	-0.012742978
126	0x3d8dcd99	0.0692398
127	0x3df54cd9	0.11977548
128	0xbd461583	-0.04836036
129	0x3d82116c	0.06350979
130	0x3d14b3b0	0.036304176
131	0x3cc2996f	0.023754803
132	0x3a7e0c3e	0.0009691155
133	0x3d2e354b	0.042531293
134	0xbbd290c9	-0.006425951
135	0x3c7f2d01	0.015574695
136	0xbc4e146b	-0.01257811
137	0xbddb103b	-0.10696455
138	0xbdd80494	-0.10547748
139	0x3cdc8f9b	0.026923945
140	0xbf402543	-0.75056857
141	0x3d1b097b	0.03785084
142	0xbdc84bc1	-0.09780074
143	0xbcd1b5fb	-0.02559947
144	0x3d994cd8	0.0748536
145	0xbd4fd872	-0.050743528
146	0x3c5d90a5	0.0135232555
147	0xbcec804f	-0.028869776
148	0xbc0d07ed	-0.008607847
149	0x3c2c0c61	0.010500998
150	0xbb77e081	-0.0037823024
151	0xbc20e6ea	-0.009820679
152	0x3c3f5093	0.011676925
153	0xbdb3c695	-0.08778111
154	0xbc870274	-0.016480662
155	0xbc360782	-0.011110188
156	0xbd59cd99	-0.05317459
157	0x3c407b9d	0.011748222
158	0x3cb33b40	0.021878839
159	0xbcda3668	-0.026637271
160	0x3dd5634e	0.104193315
161	0x3d1cb1e4	0.038255587
162	0xbd00f5fe	-0.031484596
163	0xbc17fac8	-0.0092760995
164	0xbddd1b00	-0.107961655
165	0x3cea5a75	0.028607586
166	0xbcb18d03	-0.021673685
167	0x3ba7f5de	0.005125745
168	0x3c888a2a	0.016667444
169	0x3c5c7e6b	0.013457875
170	0x3d94b546	0.07261138
171	0x3daab901	0.08336068
172	0xbd1d4100	-0.038392067
173	0x3d407596	0.04698714
174	0x3c9c1edf	0.01905769
175	0xbdae7899	-0.08519096
176	0x3d9f3f55	0.077757515
177	0xbd783b59	-0.060603473
178	0x3d1a0840	0.037605524
179	0xbd8ab256	-0.06772296
180	0x3bbb691b	0.0057193167
181	0x39e7ec8a	0.0004423599
182	0xbca3cd26	-0.019995283
183	0x3b698e5b	0.003563783
184	0x3d74ff84	0.05981399
185	0x3d84213a	0.0645165
186	0x3d87dc25	0.06633786
187	0xbc67ce12	-0.014148252
188	0xbcd873f4	-0.026422478
189	0xbd9604c2	-0.07325126
190	0xbcfe81bd	-0.031067723
191	0xbcbeb370	-0.023278922
192	0xbd57bd9b	-0.052671056
193	0xbc6f498b	-0.014604936
194	0xbcf2443b	-0.02957355
195	0x3c9430d6	0.018089693
196	0x3cdfa502	0.027300362
197	0x3cbc8843	0.023014193
198	0x3d889490	0.06668961
199	0x3cb684f4	0.022280194
200	0x3d8c41eb	0.0684851
201	0xbd025fcc	-0.03182964
202	0x3c0fe6e0	0.008783072
203	0xbcb0a053	-0.021560824
204	0xbcad3e19	-0.021147775
205	0xbcbd81df	-0.023133216
206	0xbddcc4bc	-0.107797116
207	0xbd4d6327	-0.050143387
208	0xbc93c6f2	-0.0180392
209	0xbd059869	-0.032616053
210	0xbccb92ed	-0.024850333
211	0xbdace3a3	-0.08441856
212	0xbca5a3ac	-0.020219646
213	0xbd896d21	-0.06710268
214	0xbca58c0f	-0.020208387
215	0xbc9b0dec	-0.018927537
216	0xbe58ea6a	-0.21183172
217	0xbca447fc	-0.020053856
218	0xbcee8e2d	-0.02912053
219	0x3c8f0e14	0.017462768
220	0x3d035f69	0.032073412
221	0x3cd6d282	0.026223425
222	0x3b633eaa	0.0034674802
223	0x3d8a8608	0.06763846
224	0x3d97c490	0.07410538
225	0x3b5777b2	0.003287774
226	0xbcae1198	-0.021248624
227	0x3dc1b595	0.09458462
228	0xbde33290	-0.110936284
229	0x3d1df810	0.03856665
230	0x3dee7d19	0.11644954
231	0x3c9c0be4	0.019048639
232	0x3dfcc0e9	0.12341482
233	0xbd12ae74	-0.035810903
234	0x3d1e5596	0.03865584
235	0x3d9c4803	0.07630923
236	0x3c001ce8	0.007819392
237	0xbd3ddc14	-0.04635246
238	0xbd808f78	-0.062773645
239	0x3d24dafa	0.040247895
240	0xbe0ef0e5	-0.13959081
241	0x3d2ad3a8	0.041705757
242	0xbda2a190	-0.07940972
243	0x3ccddf05	0.025130758
244	0x3cd8360f	0.026392965
245	0x3f1beca9	0.6090799
246	0x3da05fa4	0.07830742
247	0xbd06c725	-0.032904763
248	0xbd04cf93	-0.03242452
249	0x3d21c8e9	0.039498243
250	0xbc8fd9f7	-0.017559988
251	0xbcc386c9	-0.023867982
252	0x3c4ef39a	0.012631321
253	0xbd309344	-0.043109193
254	0x3d4e17e0	0.050315738
255	0xbe00bcae	-0.12571976

fc3.bias f4 [46]
0	0x3e8669e8	0.26252675
1	0x3e34c089	0.17651571
2	0x3ea59699	0.3234146
3	0x3e7c752d	0.24654074
4	0x3ea9902b	0.33117804
5	0x3ede50f2	0.4342113
6	0x3e9423f9	0.28933695
7	0x3e9eafc7	0.30993482
8	0x3eada0b7	0.33911678
9	0x3e8fc883	0.28082666
10	0x3e935cae	0.28781646
11	0x3e81cdb6	0.25352257
12	0x3e977a99	0.29585722
13	0x3e69e399	0.22840728
14	0x3e9f6932	0.31134945
15	0x3e7021cc	0.23450392
16	0x3e756253	0.23963289
17	0x3e9e2a86	0.30891818
18	0x3eafbd95	0.34324327
19	0x3eafdfa3	0.3435031
20	0x3e8da115	0.27661958
21	0x3e81913f	0.25306126
22	0x3ea84498	0.32864833
23	0x3e9d3b09	0.30709103
24	0x3e965ec8	0.29369187
25	0x3e704ee4	0.23467594
26	0x3e833677	0.2562749
27	0x3e149275	0.14508994
28	0x3e21cc68	0.15800631
29	0x3e899cfe	0.26877588
30	0x3e8358c5	0.25653663
31	0x3e6663f9	0.22499074
32	0x3ecc5b8b	0.39913592
33	0x3e619f2c	0.22033376
34	0x3e98a5b8	0.29813933
35	0x3e8d4b25	0.27596393
36	0x3eb532c2	0.35390288
37	0x3e44d76d	0.19222803
38	0x3e70eb6c	0.23527306
39	0x3eb92767	0.36162874
40	0x3ed2858a	0.41117507
41	0x3e51318c	0.20429057
42	0x3e7c7f1c	0.24657863
43	0x3e849a9f	0.25899217
44	0x3e2ded99	0.16985168
45	0x3e780c2d	0.24223395
