mp4-machine-learning-template/model/model.pth (torch, 100286 bytes, 14 tensors)

fc1.weight f4 [120, 51]
-0.1109733 0.10281431 -0.21611212 0.038962033 -0.07888995 0.11382359 -0.038281407 0.101092234
-0.3035935 -0.033736736 -0.048813738 -0.09826673 -0.2569811 0.06413821 0.18052761 -0.0018807414
0.117294535 -0.10220784 -0.049113203 -0.15537955 -0.030166255 0.27496383 0.22765955 0.19484197
-0.08421082 0.06935379 0.1568758 0.18792994 0.048258208 -0.08408846 0.01149606 0.13289344
-0.0002810147 -0.40996432 0.11563411 -0.319678 -0.11917583 0.0939586 -0.025622513 -0.29296327
0.16626567 -0.026674977 -0.15600511 -0.042199165 0.01564382 -0.06674104 -0.05842541 0.02060215
-0.11356299 0.29867053 -0.16006556 0.0030908734 0.00875324 0.022783214 -0.0018414598 0.027754184
-0.0030570426 0.0028168412 -0.026523678 0.0150254825 0.05251069 0.023663346 -0.022563618 -0.025155064
-0.010035958 0.07045181 -0.020181902 0.038752105 -0.0014969553 -0.034471814 -0.018060837 0.16535923
1.0167707 0.09453355 0.51650804 0.062295016 0.13181902 0.04174818 -0.057554074 -0.011419506
0.0009276975 0.01465705 -0.041355856 0.020006755 -0.030311815 0.028420126 -0.018841043 0.007006488
-0.016635928 -0.0076281475 0.0711982 0.12753725 -0.030895796 0.10767122 0.09291948 -0.11687958
-0.12670474 0.03752436 -0.1161366 0.066350445 -0.001104221 -0.17177023 0.021845112 -0.027839
0.14582345 0.117596954 -0.15160112 0.05257207 0.05207766 -0.23947446 0.050264254 0.030134443
-0.056391124 -0.119581155 -0.055050153 -0.15216988 -0.012871223 -0.3333783 -0.012996225 -0.09268323
0.011584451 -0.29341245 -0.078073554 -0.46003398 0.02528088 0.38992453 0.10553855 -0.04828871
0.061750088 0.080892034 -0.14842466 0.07091297 0.12414822 -0.020043889 0.07995332 0.009022002
0.05835393 0.32779548 -0.004242183 -0.16443302 -0.0020672905 0.110025324 -0.08082557 -0.018345613
0.073495746 0.012383009 -0.06860634 -0.13284054 0.10413536 0.004953821 0.061365917 -0.12606882
-0.106103085 -0.10037195 0.026950922 -0.15958855 -0.11130769 -0.035818763 -0.22304265 0.05473799
-0.283032 0.039216194 -0.0946952 0.1356437 0.11152468 0.17514127 -0.10897285 -0.18979135
-0.08034759 0.08953756 -0.3253847 -0.12517554 -0.09527427 0.05742334 -0.112698436 -0.109325685
0.03149257 0.0579402 -0.3464878 0.075872116 -0.0060361056 -0.10554216 -0.13483404 0.02710484
-0.2812215 -0.18287237 -0.13144125 -0.051900968 -0.14818268 -0.062451176 -0.0007827769 -0.03880745
0.25679547 -0.18161015 0.37707618 0.01184334 0.046514243 -0.09230113 0.114269815 -0.004012609
-0.16085029 -0.2176426 0.016037596 0.23021472 -0.0032738391 0.1040986 -0.063267216 -0.1413074
0.088534154 0.02301848 0.079044245 0.15484619 0.16085853 -0.017282268 -0.19012244 0.018718164
-0.57256114 -0.12739937 -0.057891287 -0.19558503 0.106298044 -0.16091697 -0.23256531 -0.33122194
0.06735926 -0.11508615 -0.035762146 -0.18064903 0.049714293 -0.10422975 -0.15072612 0.0062480345
-0.15233514 -0.2573841 0.21726908 -0.087807715 0.12574889 0.049204625 -0.03290141 -0.22583213
0.04528024 0.03831625 -0.032579493 0.087868236 -0.13317786 0.21873131 -0.03424765 -0.12430602
0.1105045 -0.19386333 0.06959782 0.0863711 -0.19292222 -0.106171496 0.17428954 -0.010874003
00000000: f845 e3bd 4f90 d23d 7f4c 5dbe a796 1f3d
00000010: 0e91 a1bd 581c e93d f7cc 1cbd 7209 cf3d
00000020: 9b70 9bbe 882f 0abd eaf0 47bd 1140 c9bd
00000030: 0793 83be e55a 833d 3bdc 383e 3683 f6ba
00000040: 1e38 f03d 5852 d1bd ed2a 49bd d11b 1fbe
00000050: 391f f7bc 0fc8 8c3e 961f 693e a784 473e
00000060: b976 acbd 5c09 8e3d 0da4 203e b570 403e
00000070: 66aa 453d 9236 acbd f859 3c3c 3815 083e
00000080: 2855 93b9 d8e6 d1be 94d1 ec3d d6ac a3be
00000090: 7512 f4bd 5e6d c03d 4ee6 d1bc 48ff 95be
000000a0: 8c41 2a3e 7b85 dabc cebf 1fbe 08d9 2cbd
000000b0: 7827 803c 87af 88bd 7c4f 6fbd d7c5 a83c
000000c0: b793 e8bd 58eb 983e 3ae8 23be 4090 4a3b
000000d0: c069 0f3c dda3 ba3c 235d f1ba be5c e33c
000000e0: aa58 48bb c19a 383b 2f48 d9bc 712d 763c
000000f0: 7315 573d a2d9 c13c 56d7 b8bc fe11 cebc
00000100: dc6d 24bc 0a49 903d 8454 a5bc 87ba 1e3d
00000110: 7c35 c4ba 5132 0dbd 52f4 93bc ee53 293e
00000120: 8b25 823f ce9a c13d df39 043f 0f29 7f3d
00000130: 91fb 063e 2400 2b3d d2bd 6bbd e118 3bbc
00000140: ba30 733a 2024 703c c264 29bd 35e5 a33c
00000150: 7c50 f8bc 53d1 e83c 8858 9abc ae96 e53b
00000160: 1248 88bc 8af5 f9bb 5dd0 913d 2099 023e
00000170: 2e19 fdbc bb82 dc3d 914c be3d 905e efbd
00000180: e3be 01be 25b3 193d 07d9 edbd bee2 873d
00000190: 82bb 90ba 89e4 2fbe 85f4 b23c 9d0e e4bc
000001a0: be52 153e acd6 f03d 533d 1bbe d055 573d
000001b0: 624f 553d cb38 75be e4e1 4d3d 82dc f63c
000001c0: 61fa 66bd f7e6 f4bd 457c 61bd 6cd2 1bbe
000001d0: d2e1 52bc 8fb0 aabe 1eee 54bc b5d0 bdbd
000001e0: b6cc 3d3c 283a 96be 07e5 9fbd 9389 ebbe
000001f0: d919 cf3c 30a4 c73e 9824 d83d 62ca 45bd
00000200: a9ed 7c3d b9aa a53d a2fc 17be d23a 913d
00000210: 6c41 fe3d 1533 a4bc 91be a33d 05d1 133c
00000220: 8804 6f3d cfd4 a73e 0302 8bbb 2161 28be
00000230: 617b 07bb f554 e13d e087 a5bd 8a49 96bc
00000240: f084 963d 1be2 4a3c 7b81 8cbd 5a07 08be
00000250: eb44 d53d aa53 a23b d45a 7b3d 2f18 01be
00000260: 934c d9bd cf8f cdbd 2ec8 dc3c 2e6b 23be
00000270: 49f5 e3bd b2b6 12bd 4b65 64be f134 603d
00000280: 92e9 90be 29a1 203d 8fef c1bd 2fe6 0a3e
00000290: 0d67 e43d 3c58 333e 282d dfbd aa58 42be
000002a0: 478d a4bd 785f b73d d398 a6be 042e 00be
000002b0: 281f c3bd bc34 6b3d 70ce e6bd 25e6 dfbd
000002c0: 5afe 003d b452 6d3d d966 b1be d762 9b3d
000002d0: 86ca c5bb 7d26 d8bd ef11 0abe f80a de3c
000002e0: 44fc 8fbe e542 3bbe 8998 06be 1c96 54bd
000002f0: 33bd 17be cecc 7fbd 4533 4dba 90f4 1ebd
00000300: b27a 833e 03f8 39be 2110 c13e 910a 423c
00000310: b885 3e3d 6008 bdbd 4b06 ea3d 347c 83bb
00000320: f0b5 24be b4dd 5ebe 4761 833c 68bd 6b3e
00000330: e88d 56bb a631 d53d 3e92 81bd e3b2 10be
00000340: 6551 b53d 4091 bc3c f3e1 a13d 0090 1e3e
00000350: 19b8 243e 8b93 8dbc 75af 42be d656 993c
00000360: 5e93 12bf fb74 02be 6a1f 6dbd 7147 48be
00000370: cab2 d93d 6bc7 24be 9a25 6ebe ec95 a9be
00000380: a7f3 893d 4ab2 ebbd 547b 12bd 0ffc 38be
00000390: 37a1 4b3d 6876 d5bd f357 1abe 50bc cc3b
000003a0: befd 1bbe d9c7 83be c97b 5e3e 88d4 b3bd
000003b0: 51c4 003e ca8a 493d a1c3 06bd 8a40 67be
000003c0: c677 393d 80f1 1c3d 1372 05bd 43f4 b33d
000003d0: c75f 08be 1afb 5f3e 4447 0cbd 2894 febd
000003e0: 2f50 e23d 1c84 46be 4d89 8e3d 55e3 b03d
000003f0: 678d 45be 7170 d9bd f578 323e e028 32bc

fc1.bias f4 [120]
-0.04999902 0.08373917 0.06340034 0.13841245 -0.08167785 0.037580315 0.015675195 -0.084653504
0.12639904 0.069388986 -0.11566535 -0.005842615 0.109327056 0.073444806 -0.1032583 0.13086562
-0.059158362 0.099153236 -0.11750937 -0.06376487 -0.13508207 -0.056922875 -0.12758252 -0.11394837
0.012728699 0.016312752 0.078262925 -0.019090213 -0.079941146 -0.046192117 0.042977307 0.07203844
0.049650233 0.04406438 -0.001584124 -0.13011938 -0.10410411 0.06134657 -0.039119497 -0.13813336
0.027138863 0.10738537 0.0026139282 -0.014244535 -0.09787311 0.03275638 -0.09412605 -0.12523475
-0.04701931 0.039357323 -0.11442452 0.03845232 -0.023736639 0.012123343 -0.055852402 -0.038595933
0.037712615 0.031403914 -0.050976727 0.10505917 -0.109887004 -0.07177591 0.08712111 0.0073138503
-0.09743248 0.10273447 -0.12969705 -0.101035975 0.034905616 -0.024248678 0.12418046 -0.03327095
-0.06044693 -0.12498243 -0.08476879 -0.043348547 0.005217294 0.10336846 0.11476091 0.0827062
-0.078240305 -0.040460464 0.08323893 -0.0153982425 -0.035810888 -0.021078443 -0.06807779 0.034938294
-0.057165902 -0.09767405 0.08008934 0.112193085 -0.11066951 0.059528317 0.0940157 0.04537682
0.062015805 -0.028528007 0.027444087 0.13233666 -0.007970535 0.13831325 -0.029804772 -0.032101765
-0.032136064 0.10387474 0.06107714 0.057553776 0.018617636 -0.0859379 0.028808948 0.03399515
-0.025946071 -0.00986834 -0.06811599 0.06337039 0.060897727 0.047508944 -0.010471213 -0.0038395314
00000000: c6cb 4cbd 717f ab3d 0ad8 813d febb 0d3e
00000010: b746 a7bd d1ed 193d 4469 803c d15e adbd
00000020: c06e 013e d01b 8e3d f4e1 ecbd 6873 bfbb
00000030: dde6 df3d 3b6a 963d 1679 d3bd a301 063e
00000040: 0a50 72bd da10 cb3d c1a8 f0bd 2897 82bd
00000050: f452 0abe f627 69bd fea4 02be c35d e9bd
00000060: 088c 503c 52a2 853c 5048 a03d 1463 9cbc
00000070: 2fb8 a3bd f233 3dbd f908 303d e488 933d
00000080: 0b5e 4b3d da7c 343d 62a2 cfba 043e 05be
00000090: 8934 d5bd 8a46 7b3d c43b 20bd d572 0dbe
000000a0: 5252 de3c dcec db3d 704e 2b3b e961 69bc
000000b0: b271 c8bd 8e2b 063d 29c5 c0bd 8a3d 00be
000000c0: 5297 40bd 2535 213d 6757 eabd 2e80 1d3d
000000d0: 5773 c2bc fca0 463c 7dc5 64bd c516 1ebd
000000e0: 8b78 1a3d 64a1 003d f9cc 50bd 4329 d73d
000000f0: 700c e1bd 40ff 92bd 8d6c b23d 06a9 ef3b
00000100: ae8a c7bd 7366 d23d 4ecf 04be f3eb cebd
00000110: 31f9 0e3d 2aa5 c6bc 5352 fe3d 1f47 08bd
00000120: 3397 77bd caf6 ffbd 429b adbd 3f8e 31bd
00000130: d6f5 aa3b d8b2 d33d c507 eb3d de61 a93d
00000140: 743c a0bd dfb9 25bd 2c79 aa3d e948 7cbc
00000150: 70ae 12bd b3ac acbc 5e6c 8bbd 751b 0f3d
00000160: cb26 6abd 5509 c8bd e105 a43d 7dc5 e53d
00000170: b2a6 e2bd f7d3 733d 4e8b c03d 0bdd 393d
00000180: 4904 7e3d 91b3 e9bc 6cd2 e03c 4383 073e
00000190: d996 02bc fda1 0d3e 2329 f4bc 247d 03bd
000001a0: 1ba1 03bd 48bc d43d 062c 7a3d 82bd 6b3d
000001b0: 0384 983c 3600 b0bd be00 ec3c 803e 0b3d
000001c0: db8c d4bc d1ae 21bc 6580 8bbd 56c8 813d
000001d0: e56f 793d bd98 423d 738f 2bbc a6a0 7bbb

bn1.weight f4 [120]
1.4690801 2.566412 1.4676307 1.7217467 1.5940317 2.480527 2.2577555 1.5849746
1.9515358 1.4238348 1.4492675 1.830485 1.9022355 1.7664548 2.0748403 1.8560092
2.0843241 2.0394769 1.860052 1.7891228 1.9680939 1.5938169 1.8269867 1.7191842
1.6787878 1.6839018 2.7885163 1.3650764 1.8198311 1.5067104 1.99155 1.6178297
1.4810562 1.4436123 1.7916458 1.4668611 1.5934833 1.5584587 1.8664832 2.0615156
1.5711479 1.783115 1.6312239 1.9335704 2.02021 1.4171463 1.4995264 1.5573698
1.4368838 1.4435929 2.0711274 1.9793016 2.000177 1.9857922 1.503045 1.7855874
1.3126613 1.7307624 2.053965 1.5612391 1.6256894 1.9248301 2.4885695 1.6344426
1.7900586 2.0153723 1.7233797 1.3490038 2.0983002 1.6360456 1.93358 1.7869186
1.8490078 1.6169002 1.3918635 1.6214224 1.6171036 1.6706372 1.8075384 1.1847123
1.6527121 2.1397016 1.9489092 1.7403913 1.7066047 1.5570945 1.8324418 1.9584203
1.5114726 1.6625869 1.779398 2.5060425 1.6824095 2.2779667 1.5758842 1.6620963
1.274702 1.6243929 2.332243 2.5623746 2.2974303 1.9735838 1.7306763 2.1168177
1.5940231 1.9496335 1.9527131 2.59343 1.4482551 2.3511884 1.5937073 1.9227327
1.5802572 1.9553528 1.5750248 1.6404727 2.3011248 1.880239 1.8671505 1.9952215
00000000: d10a bc3f 1840 2440 53db bb3f 3262 dc3f
00000010: 3b09 cc3f f4c0 1e40 117f 1040 73e0 ca3f
00000020: edcb f93f 3840 b63f 9981 b93f 554d ea3f
00000030: 747c f33f 311b e23f 2fca 0440 b691 ed3f
00000040: 9165 0540 ca86 0240 2f16 ee3f fa01 e53f
00000050: 80ea fb3f 3102 cc3f b3da e93f 3a0e dc3f
00000060: 85e2 d63f 188a d73f 0d77 3240 d3ba ae3f
00000070: 3af0 e83f e3db c03f 1ceb fe3f 0b15 cf3f
00000080: 4093 bd3f 4ac8 b83f a654 e53f 1bc2 bb3f
00000090: 43f7 cb3f 937b c73f ece8 ee3f dfef 0340
000000a0: 601b c93f 1d3d e43f f2cb d03f 3c7f f73f
000000b0: 1f4b 0140 0d65 b53f 7bf0 bf3f e557 c73f
000000c0: cfeb b73f a7c7 b83f 5a8d 0440 c159 fd3f
000000d0: e602 0040 702e fe3f c763 c03f 218e e43f
000000e0: 4905 a83f 9f89 dd3f 2a74 0340 afd6 c73f
000000f0: 9716 d03f d560 f63f b944 1f40 6a35 d13f
00000100: a420 e53f dcfb 0040 b597 dc3f 28ac ac3f
00000110: 8d4a 0640 f169 d13f 8d7f f73f c0b9 e43f
00000120: 4aac ec3f 96f6 ce3f 9528 b23f c58a cf3f
00000130: 40fd ce3f 71d7 d53f 6b5d e73f a7a4 973f
00000140: 128c d33f dff0 0840 db75 f93f 24c5 de3f
00000150: 0672 da3f df4e c73f 748d ea3f 84ad fa3f
00000160: ef77 c13f a6cf d43f 50c3 e33f 0063 2040
00000170: 3259 d73f 35ca 1140 93b6 c93f 92bf d43f
00000180: 6f29 a33f 1bec cf3f 7843 1540 f2fd 2340
00000190: 1909 1340 659e fc3f cd86 dd3f f179 0740
000001a0: f308 cc3f 978d f93f 81f2 f93f c2fa 2540
000001b0: 6c60 b93f df79 1640 9afe cb3f 1b1c f63f
000001c0: de45 ca3f 0049 fa3f 6a9a c93f 02fb d13f
000001d0: a145 1340 acab f03f cafe ee3f 6b63 ff3f

bn1.bias f4 [120]
-0.022908116 1.7776033 -0.06525797 -0.1800243 0.41113776 -1.8790495 -1.4968015 -0.46331578
-0.29449865 -0.08918721 0.07002849 0.29651576 -0.42417553 0.26271448 1.3705235 0.36888435
-1.4273002 0.58663106 -1.261753 -1.1360846 0.0025062547 0.63895255 0.11251802 -0.37247106
-0.60435086 -0.02060139 1.933533 -0.10333672 -0.2053289 0.4383831 0.19287336 0.21308556
0.08117824 -0.4765106 0.06520077 0.033530213 0.15547973 -1.0052991 -0.4529268 -0.12115513
-0.4585807 1.1389757 0.21008745 -0.20669484 -1.314455 -0.17401862 0.38278234 0.26587716
0.010602739 -0.8314871 -1.3026516 1.5981258 0.62183356 -1.726515 1.2789588 -0.0029885573
0.18508507 0.4904308 -0.26670897 -0.9194569 0.50093824 -0.15402843 -1.7200413 0.1686349
-0.12487191 -1.283126 0.306386 -0.24132174 1.3634651 -0.37625855 -0.26611656 0.63545203
-0.28466555 0.30578014 -0.5803999 0.047241572 0.99057406 0.6475593 -0.13695796 0.0666845
0.25721085 -1.360719 0.12563965 -0.027728125 0.70520335 -0.43980908 0.22909458 -0.10858529
0.52052337 -0.33988526 -0.29756796 -1.7391431 -1.019796 1.4817731 0.51441574 1.0829479
-0.20564584 -0.68842924 -1.5589733 -1.6614084 1.4212537 0.38906696 -0.1912313 -1.4027078
-0.78198546 0.6435688 1.3760259 -1.7779443 -0.33707616 -1.7789338 0.2892075 -0.14101136
0.8884358 -0.026174003 -0.94796306 0.11270615 1.7575364 0.34586006 0.08346731 0.25197703
00000000: cda9 bbbc 8188 e33f f8a5 85bd 4a58 38be
00000010: a680 d23e b284 f0bf 3197 bfbf ba37 edbe
00000020: 87c8 96be c9a7 b6bd 196b 8f3d ead0 973e
00000030: 892d d9be 8382 863e 506d af3f 69de bc3e
00000040: c6b1 b6bf 742d 163f 1f81 a1bf 386b 91bf
00000050: fa3f 243b 6592 233f d96f e63d 87b4 bebe
00000060: bdb6 1abf 3fc4 a8bc 027e f73f 34a2 d3bd
00000070: bd41 52be c073 e03e 9880 453e 1a33 5a3e
00000080: c740 a63d 33f9 f3be fb87 853d fa56 093d
00000090: 1436 1f3e a4ad 80bf 06e6 e7be 2e20 f8bd
000000a0: 17cb eabe f5c9 913f 2a21 573e d0a7 53be
000000b0: 1040 a8bf f031 32be 0cfc c33e 0d21 883e
000000c0: 1cb7 2d3c 57dc 54bf 4abd a6bf 638f cc3f
000000d0: 7c30 1f3f 72fe dcbf ecb4 a33f acdb 43bb
000000e0: f186 3d3e bf19 fb3e 148e 88be 8761 6bbf
000000f0: 7d3d 003f a1b9 1dbe 502a dcbf a1ae 2c3e
00000100: d8bc ffbd 793d a4bf a0de 9c3e 0c1d 77be
00000110: 0686 ae3f f6a4 c0be 6e40 88be fcac 223f
00000120: afbf 91be 378f 9c3e 1695 14bf 6180 413d
00000130: 4396 7d3f 72c6 253f b53e 0cbe e291 883d
00000140: 24b1 833e 0a2c aebf aea7 003e 1826 e3bc
00000150: 3588 343f a82e e1be c597 6a3e f761 debd
00000160: 0541 053f 7105 aebe d45a 98be 3e9c debf
00000170: ad88 82bf beaa bd3f c0b0 033f 099e 8a3f
00000180: d394 52be e63c 30bf 708c c7bf 08a9 d4bf
00000190: a4eb b53f c933 c73e 23d2 43be ee8b b3bf
000001a0: 3330 48bf edc0 243f 9e21 b03f ae93 e3bf
000001b0: 3f95 acbe 1ab4 e3bf 0113 943e 4865 10be
000001c0: 8770 633f dd6a d6bc b5ad 72bf 7bd2 e63d
000001d0: f4f6 e03f 9214 b13e e9f0 aa3d 2203 813e

bn1.running_mean f4 [120]
-0.03178558 0.09051153 0.064208336 0.112335965 -0.07357588 0.010509241 0.011853801 -0.100027055
0.12932473 0.08540876 -0.12764524 -0.00034150854 0.09358266 0.05963832 -0.103378385 0.124409966
-0.06279674 0.108248964 -0.12342537 -0.056867525 -0.14604594 -0.07215127 -0.13601258 -0.08957373
0.024203602 0.008471526 0.100160055 -0.04419904 -0.065679364 -0.059874594 0.04889363 0.07685661
0.062762626 0.04746807 -0.014414939 -0.11949258 -0.13901655 0.050176084 -0.04001804 -0.13504858
0.03284821 0.10387643 -0.020770878 -0.012420349 -0.08494538 0.012887083 -0.09345592 -0.16289133
-0.05990305 0.025458751 -0.07354066 0.052953605 -0.021293225 -0.0054635666 -0.080118 -0.033821903
0.022368295 0.031100877 -0.030279256 0.11290626 -0.11384028 -0.085839085 0.08250746 0.011918386
-0.11019991 0.10820894 -0.13839838 -0.08991649 0.04287733 -0.018314514 0.1350636 -0.021925623
-0.05397565 -0.11369814 -0.08379573 -0.0400893 -0.0077009522 0.07738947 0.09070711 0.10340961
-0.06370969 0.016145222 0.07290597 -0.021571621 -0.040081363 -0.025850272 -0.06341838 0.011602052
-0.06069111 -0.09907717 0.07831052 0.10455862 -0.09984352 0.05243506 0.073170245 0.041732885
0.064829625 -0.043139167 0.032219574 0.14741135 -0.0072526615 0.13553564 -0.058548793 -0.029273598
-0.025548771 0.11243198 0.044761375 0.045781955 0.0076034684 -0.066325404 0.04182707 0.0032913797
-0.009301193 -0.014397471 -0.07847698 0.06100956 0.08580394 0.055069033 0.0008613827 0.010231925
00000000: 9931 02bd 1c5e b93d a97f 833d 6610 e63d
00000010: f3ae 96bd f42e 2c3c 7236 423c fcda ccbd
00000020: b46d 043e caea ae3d 6fb5 02be 800c b3b9
00000030: 44a8 bf3d 5047 743d 0cb8 d3bd a7ca fe3d
00000040: 949b 80bd a2b1 dd3d 71c6 fcbd eced 68bd
00000050: 118d 15be 0cc4 93bd e246 0bbe 6f72 b7bd
00000060: a246 c63c 28cc 0a3c b720 cd3d 0d0a 35bd
00000070: e782 86bd 103f 75bd b044 483d 0067 9d3d
00000080: b189 803d e16d 423d a32c 6cbc 87b8 f4bd
00000090: 5b5a 0ebe 7085 4d3d f5e9 23bd 2d4a 0abe
000000a0: d88b 063d 2abd d43d b027 aabc b87e 4bbc
000000b0: d8f7 adbd 5824 533c d165 bfbd fccc 26be
000000c0: e75c 75bd df8e d03c 7c9c 96bd e1e5 583d
000000d0: 216f aebc b807 b3bb e814 a4bd d688 0abd
000000e0: b73d b73c 44c7 fe3c 340c f8bc 663b e73d
000000f0: 1825 e9bd 67cc afbd acf9 a83d 5645 433c
00000100: 7eb0 e1bd a69c dd3d 4eb8 0dbe 2326 b8bd
00000110: 24a0 2f3d 5208 96bc 1d4e 0a3e 5d9d b3bc
00000120: 9215 5dbd 92da e8bd 189d abbd ae34 24bd
00000130: 4558 fcbb 5f7e 9e3d a6c4 b93d 6bc8 d33d
00000140: 3a7a 82bd fc42 843c ba4f 953d f8b6 b0bc
00000150: 5b2c 24bd f3c3 d3bc 7fe1 81bd 8816 3e3c
00000160: 3e97 78bd f9e8 cabd 4461 a03d d422 d63d
00000170: c27a ccbd 25c6 563d 48da 953d 1af0 2a3d
00000180: 65c5 843d b2b2 30bd acf8 033d 00f3 163e
00000190: bca7 edbb dbc9 0a3e dcd0 6fbd 2fcf efbc
000001a0: a84b d1bc bd42 e63d b457 373d dc85 3b3d
000001b0: 8426 f93b 9dd5 87bd dd52 2b3d 30b4 573b
000001c0: 0864 18bc 5fe3 6bbc 8ab8 a0bd 29e5 793d
000001d0: fab9 af3d 1190 613d 6ace 613a cea3 273c

bn1.running_var f4 [120]
1.4705509 1.4490465 1.042492 1.3534791 1.4706858 3.391154 1.5764892 1.1801026
1.3221388 1.1540025 1.191453 1.2002286 1.266548 1.4040257 6.3136716 1.2507812
1.4977053 1.3602486 1.4739928 2.6666598 1.175864 1.2612098 1.383194 1.3180056
1.287874 1.2246563 4.8080206 1.204503 1.2 1.1034269 1.3599433 0.9145085
1.1588577 1.5113521 1.160078 1.2735496 1.1968566 3.3985624 1.4479802 1.1126252
1.2100494 2.7379274 1.413262 1.493501 4.4052315 1.0779042 1.6224025 1.8073962
1.5275303 3.6692374 3.97544 2.622417 0.8819625 2.611519 1.0287048 0.9141384
0.9564952 1.2208455 1.7968347 1.397772 1.2435689 1.2217897 1.5806689 1.2986898
1.1571645 2.653956 1.2384778 1.2751107 2.3486466 1.3193209 1.674151 1.5834532
1.5075892 1.4078493 1.0510031 1.1234484 2.028448 1.1040738 1.0720572 1.3343855
1.2533488 6.223432 1.2497895 1.3434507 1.1969157 1.1620629 1.4871627 1.4041458
1.2106154 1.2683994 1.1327916 2.4525452 1.3196853 1.6012067 1.473202 3.2648673
1.0591756 1.2533809 1.2926955 1.5372617 1.5351944 0.96407044 1.1951816 2.9054563
1.2841635 1.4290042 2.6675298 1.766755 1.1255344 4.049235 1.016347 1.3615408
1.3862327 1.3747659 1.9361874 1.3558846 2.6688156 1.2576848 1.4717373 1.1219976
00000000: 033b bc3f 5b7a b93f 6170 853f ce3e ad3f
00000010: 6f3f bc3f ab08 5940 66ca c93f 9a0d 973f
00000020: d83b a93f 5bb6 933f 8881 983f 17a1 993f
00000030: 3f1e a23f 1db7 b33f 9909 ca40 9919 a03f
00000040: cfb4 bf3f a01c ae3f ccab bc3f 8eaa 2a40
00000050: b682 963f 536f a13f 800c b13f 68b4 a83f
00000060: 0ed9 a43f 8ac1 9c3f 4edb 9940 282d 9a3f
00000070: 9a99 993f 183d 8d3f 9f12 ae3f 3b1d 6a3f
00000080: 7355 943f fc73 c13f 707d 943f ac03 a33f
00000090: 9932 993f 0c82 5940 6a57 b93f 816a 8e3f
000000a0: e6e2 9a3f 343a 2f40 c5e5 b43f 0a2b bf3f
000000b0: a8f7 8c40 c4f8 893f e3aa cf3f c258 e73f
000000c0: 1d86 c33f c9d4 6a40 9c6d 7e40 aed5 2740
000000d0: 4bc8 613f 2123 2740 99ac 833f f904 6a3f
000000e0: dfdc 743f aa44 9c3f aefe e53f 31ea b23f
000000f0: 442d 9f3f 9b63 9c3f 5c53 ca3f 783b a63f
00000100: f71d 943f 6ada 2940 7186 9e3f d436 a33f
00000110: 3a50 1640 82df a83f 944a d63f 98ae ca3f
00000120: aff8 c03f 6834 b43f 4587 863f 28cd 8f3f
00000130: 18d2 0140 4a52 8d3f 2c39 893f 25cd aa3f
00000140: bc6d a03f 5b26 c740 1af9 9f3f 31f6 ab3f
00000150: 8934 993f 7abe 943f 595b be3f 0dbb b33f
00000160: 72f5 9a3f e95a a23f 51ff 903f 80f6 1c40
00000170: 73eb a83f 57f4 cc3f e291 bc3f 96f3 5040
00000180: 1193 873f c96e a03f 0c77 a53f fec4 c43f
00000190: 4081 c43f 52cd 763f b6fb 983f fff2 3940
000001a0: 785f a43f 9ce9 b63f cfb8 2a40 0725 e23f
000001b0: 8311 903f 5593 8140 a917 823f f846 ae3f
000001c0: 1370 b13f 54f8 af3f fdd4 f73f a08d ad3f
000001d0: e0cd 2a40 d1fb a03f e361 bc3f 9e9d 8f3f

fc2.weight f4 [100, 120]
0.12161442 -0.03664014 0.17965072 0.054832123 0.10983141 -0.06060286 1.0992175 -0.122269645
0.20260486 0.1609945 0.0037091288 0.02047554 -0.12973738 -0.054900523 -0.010225732 0.15539865
0.16721225 0.015001557 0.051459 -0.007816211 0.05920671 0.20069344 -0.13224535 0.0029053185
0.008243498 0.09824546 -0.04016384 -0.17068535 0.28668436 0.09819553 -0.15549356 0.13604861
-0.17596757 0.03005646 -0.10310386 0.15448233 0.19337629 0.06369882 0.023441227 -0.039511777
0.32019725 0.038111128 -0.08718928 0.09025127 -0.007959775 -0.26669204 -0.18279499 0.11199655
-0.040117178 0.030763444 0.00788159 -0.02065652 -0.19362539 0.002441334 -0.20182832 -0.21988665
-0.033746768 -0.21257679 -0.17506066 -0.043337543 -0.10595133 -0.13579643 0.13433951 0.01668994
0.11773793 -0.059353616 0.026928166 -0.025776615 -0.31244177 0.07943199 -0.060141645 -0.03517857
-0.0933141 0.05135769 0.106127284 0.031515483 0.0004738686 -0.047047358 0.16670083 -0.096302204
0.10974491 -0.020306097 0.19617096 0.020895949 -0.0654505 -0.115985654 -0.064451136 -0.09073934
-0.046453953 -0.07472427 0.1312952 0.04106811 -0.0030847166 0.115343355 0.053896263 0.047156192
-0.12263382 -0.018749492 -0.04255202 0.056362323 -0.025005713 0.032142825 0.06589517 -0.107535794
0.38513845 -0.019726027 -0.010159393 0.033136234 0.15988326 -0.007382176 0.0968805 -0.11422766
-0.03871257 0.07155893 0.075333305 -0.08185534 0.054805614 -0.18056051 -0.11945299 0.050318766
-0.07110331 -0.14485309 0.11412498 0.07287879 0.026899563 0.13640575 -0.10596342 -0.095077485
0.09761617 0.01382005 -0.16960987 0.1931573 0.21098569 -0.1366956 0.13158834 0.008608358
0.055626556 0.06723565 0.039338265 0.09756992 -0.06282286 0.10348808 -0.0062874123 -0.06913514
0.0037517084 -0.15181871 0.10690137 -0.11243832 -0.041347526 -0.04835658 -0.008540957 0.05815652
-0.087074295 0.12049128 0.15250596 0.09893056 -0.071900375 -0.11920172 -0.13705237 -0.033645492
-0.017579358 -0.2871555 -0.12983847 -0.101593286 0.20282711 0.03869079 0.15373208 -0.0068181492
0.18022189 -0.09348975 0.11803032 -0.018048152 -0.029762076 0.0603991 0.03377746 0.14981611
-0.01955521 -0.010483983 0.20550998 0.01597826 -0.051824264 0.13591713 -0.075634174 0.061530676
-0.07371322 0.1816767 0.001908815 0.16824737 -0.0019618275 -0.032734264 0.15728115 0.0505238
-0.112466395 -0.008881848 -0.063410886 -0.0065878183 -0.09211033 -0.020996517 0.1656278 -0.084553584
0.15979637 0.1397965 -0.048877377 -0.1400827 -0.00038327355 -0.07878451 -0.31108359 0.05437974
-0.14126544 0.048387315 -0.17503019 0.04316528 0.021506488 -0.0365553 -0.024849229 -0.0054789116
0.11415631 0.14257741 0.30386657 0.060199354 0.18933937 -0.0916183 0.105024986 0.17459263
0.18327264 -0.08578138 0.026505744 -0.0068751173 -0.16166657 -0.05661383 0.06580287 -0.14143114
-0.038657986 -0.2483497 -0.23694934 0.15545888 -0.079486996 -0.18637931 0.0637022 -0.035085008
0.08492058 -0.01725693 -0.002531392 0.15584344 0.1448464 -0.07213089 0.030612633 -0.11517003
0.09218913 0.11306551 0.02485846 0.07764171 0.16221592 0.068970814 0.10631417 0.0342881
00000000: fb10 f93d f913 16bd 5cf6 373e a697 603d
00000010: 4aef e03d b43a 78bd 29b3 8c3f 8268 fabd
00000020: a677 4f3e bedb 243e db14 733b 52bc a73c
00000030: e0d9 04be 5fdf 60bd d489 27bc d320 1f3e
00000040: b039 2b3e 17c9 753c acc6 523d 910f 00bc
00000050: bc82 723d 9582 4d3e 536b 07be 2867 3e3b
00000060: bd0f 073c ea34 c93d d782 24bd 24c8 2ebe
00000070: 4bc8 923e bd1a c93d b439 1fbe 5450 0b3e
00000080: d830 34be f738 f63c 1e28 d3bd 9e30 1e3e
00000090: 6f04 463e 8774 823d d107 c03c 1ad7 21bd
000000a0: e5f0 a33e 6a1a 1c3d 4b90 b2bd a8d5 b83d
000000b0: b769 02bc dc8b 88be 9c2e 3bbe 725e e53d
000000c0: e951 24bd 9e03 fc3c c921 013c dd37 a9bc
000000d0: bc45 46be cafe 1f3b 15ac 4ebe f729 61be
000000e0: 0d3a 0abd bbad 59be 1a43 33be b582 31bd
000000f0: 03fd d8bd 380e 0bbe 4c90 093e 57b9 883c
00000100: 9520 f13d c71c 73bd 7598 dc3c 7b29 d3bc
00000110: 5ef8 9fbe 3dad a23d 1657 76bd 6717 10bd
00000120: 761b bfbd 715c 523d 4359 d93d 6116 013d
00000130: 9171 f839 bbb4 40bd 9fb3 2a3e 173a c5bd
00000140: f0c1 e03d f958 a6bc 0ae1 483e fb2d ab3c
00000150: e90a 86bd e389 edbd f5fe 83bd 8cd5 b9bd
00000160: 8046 3ebd 0a09 99bd 4072 063e 0937 283d
00000170: f528 4abb 2339 ec3d 54c2 5c3d da26 413d
00000180: 7127 fbbd 8998 99bc 074b 2ebd 2edc 663d
00000190: c8d8 ccbc 32a8 033d 0cf4 863d ba3b dcbd
000001a0: de30 c53e 7a98 a1bc 9573 26bc dcb9 073d
000001b0: 70b8 233e 2ee6 f1bb 4969 c63d 31f0 e9bd
000001c0: 1291 1ebd 7d8d 923d 5948 9a3d c6a3 a7bd
000001d0: da7b 603d dbe4 38be c5a3 f4bd 0d1b 4e3d
000001e0: 9d9e 91bd 5e54 14be 5cba e93d 7a41 953d
000001f0: 795c dc3c f3ad 0b3e 5903 d9bd fcb7 c2bd
00000200: fdea c73d 7e6d 623c 36ae 2dbe 07cb 453e
00000210: a20c 583e eef9 0bbe 18bf 063e 120a 0d3c
00000220: acd8 633d d8b2 893d 2921 213d bdd2 c73d
00000230: 46a9 80bd 8ff1 d33d a306 cebb b996 8dbd
00000240: 39df 753b 5d76 1bbe 1bef da3d 1046 e6bd
00000250: 065c 29bd 8d11 46bd 5fef 0bbc 8835 6e3d
00000260: 0254 b2bd 22c4 f63d 862a 1c3e 1b9c ca3d
00000270: 8140 93bd 0820 f4bd 7557 0cbe dbcf 09bd
00000280: 9602 90bc 0c06 93be 60f4 04be 2410 d0bd
00000290: e9b1 4f3e 3c7a 1e3d f16b 1d3e c86a dfbb
000002a0: 168c 383e 8e77 bfbd e1b9 f13d b8d9 93bc
000002b0: 99cf f3bc 0c65 773d 3c5a 0a3d 6569 193e
000002c0: 3f32 a0bc 03c5 2bbc 3571 523e d7e4 823c
000002d0: ae45 54bd dc2d 0b3e 17e6 9abd 9707 7c3d
000002e0: f5f6 96bd 7509 3a3e 3431 fa3a 0a49 2c3e
000002f0: 0192 00bb 5d14 06bd 4f0e 213e 0bf2 4e3d
00000300: c854 e6bd 2c85 11bc 91dd 81bd a0de d7bb
00000310: 57a4 bcbd e300 acbc 569a 293e 6e2a adbd
00000320: a9a1 233e d026 0f3e a533 48bd d771 0fbe
00000330: 1bf2 c8b9 c659 a1bd 5946 9fbe 4abd 5e3d
00000340: e3a7 10be c731 463d 1d3b 33be 14ce 303d
00000350: 602e b03c 03bb 15bd 9c90 cbbc 7188 b3bb
00000360: c9ca e93d d0ff 113e 6694 9b3e 9993 763d
00000370: 2ee2 413e 60a2 bbbd 5717 d73d 69c8 323e
00000380: d3ab 3b3e 26ae afbd 9322 d93c aa48 e1bb
00000390: ec8b 25be e7e3 67bd a8c3 863d 53d3 10be
000003a0: d657 1ebd 624f 7ebe d9a2 72be 9d30 1f3e
000003b0: 14ca a2bd 38da 3ebe 4d76 823d 4cb5 0fbd
000003c0: d7ea ad3d 685e 8dbc b6e5 25bb 6c95 1f3e
000003d0: 9d52 143e 5cb9 93bd 58c7 fa3c 44de ebbd
000003e0: a8cd bc3d e48e e73d f8a3 cb3c 9e02 9f3d
000003f0: ee1b 263e 9240 8d3d 3ebb d93d ae71 0c3d

fc2.bias f4 [100]
-0.015151369 -0.05764914 -0.08661953 -0.08042945 -0.032718107 -0.039006677 0.07589115 -0.009542625
0.08849804 0.045307755 -0.0744517 0.06371799 -0.017734295 0.045724254 0.085463166 -0.08244787
-0.06945116 0.00937806 -0.02768513 -0.027671749 0.07063516 0.07503915 -0.089363635 -0.037835505
-0.07483683 -0.049850505 0.08172425 0.069498464 -0.0669314 -0.08629033 0.063078165 -0.053556792
0.05776081 0.04441863 0.005252627 0.058516208 0.0070978436 -0.078598514 0.064840645 0.049029686
-0.07339823 -0.010560214 -0.064653404 0.08606301 0.022159016 0.041703343 0.08130619 -0.05031059
-0.047885127 -0.090142705 0.031028036 0.03240516 -0.010268854 0.06807847 -0.081457436 0.009832716
0.07818561 0.049013015 0.053847577 -0.067374825 -0.011164459 -0.06272361 0.027231412 0.053370424
-0.087909885 0.06449104 -0.054009303 -0.075582266 -0.053765323 0.07113486 0.08856371 -0.05279493
-0.011744799 0.09139726 -0.06121445 0.08285801 -0.08622434 0.058568545 0.004133069 0.0011864688
-0.012134757 0.048190143 -0.0773145 -0.07647228 0.029303715 0.06557126 0.0736152 -0.0220936
-0.035540897 0.08703269 0.006653978 -0.05241189 -0.014085716 0.022296568 0.02849698 0.011642881
0.038658395 0.08334493 -0.08019588 0.054064605
00000000: 733d 78bc 8121 6cbd 9565 b1bd 32b8 a4bd
00000010: 6c03 06bd 77c5 1fbd d26c 9b3d ac58 1cbc
00000020: 763e b53d a094 393d 227a 98bd 947e 823d
00000030: 8347 91bc 5b49 3b3d 5007 af3d 6eda a8bd
00000040: 693c 8ebd 6fa6 193c edcb e2bc ddaf e2bc
00000050: 2ba9 903d 20ae 993d 4804 b7bd 67f9 1abd
00000060: 0d44 99bd 0b30 4cbd 0b5f a73d 3655 8e3d
00000070: 5413 89bd fcb8 b0bd 202f 813d 5e5e 5bbd
00000080: 9996 6c3d 4ff0 353d 3b1e ac3b b1ae 6f3d
00000090: 0795 e83b 42f8 a0bd 2ccb 843d 5ad3 483d
000000a0: d051 96bd bf04 2dbc 0169 84bd ce41 b03d
000000b0: d386 b53c 20d1 2a3d dc83 a63d 7a12 4ebd
000000c0: 3223 44bd bd9c b8bd 822e fe3c 46bb 043d
000000d0: b23e 28bc ba6c 8b3d 28d3 a6bd 6619 213c
000000e0: c71f a03d dfc1 483d 478f 5c3d d0fb 89bd
000000f0: 23eb 36bc 3c75 80bd 6914 df3c f29a 5a3d
00000100: 190a b4bd e113 843d dc38 5dbd e0ca 9abd
00000110: 0739 5cbd 27af 913d e460 b53d 7f3f 58bd
00000120: 426d 40bc 7d2e bb3d 01bc 7abd 76b1 a93d
00000130: 6396 b0bd 92e5 6f3d b26e 873b 4983 9b3a
00000140: dcd0 46bc 0763 453d 1157 9ebd 809d 9cbd
00000150: 580e f03c 3a4a 863d 91c3 963d a3fd b4bc
00000160: 5593 11bd 323e b23d 9d09 da3b daad 56bd
00000170: c6c7 66bc 4ba7 b63c 8072 e93c c8c1 3e3c
00000180: 4458 1e3d bfb0 aa3d bd3d a4bd d972 5d3d

bn2.weight f4 [100]
1.2713794 0.49068132 0.6453649 0.5375968 0.22586752 0.5665534 1.2982175 0.43078366
0.530602 0.7856159 0.4324011 0.4481673 0.7358875 0.27523068 0.9165196 0.49868637
0.28073257 0.58837116 1.3442522 1.5266536 0.2631992 1.5406657 0.31481314 0.54288644
1.2029786 0.30537245 0.4267283 0.4637101 0.5830511 1.3920788 0.89903617 0.41949832
1.3624138 1.0437685 1.5485977 0.4491136 0.52506894 0.27239972 0.34938234 0.5355713
0.3640595 1.6459632 0.49298316 0.92910665 0.4525155 0.3363416 0.8327651 0.5379773
0.5836384 0.6044489 0.54872286 0.7924469 0.51514906 1.1672289 0.6458545 0.66853845
1.4535031 0.48570457 0.5320351 1.3909178 1.5255835 0.5282449 0.86687994 0.88811135
0.38974747 0.46890637 1.2670238 0.9900463 0.40255213 0.6085197 1.2203859 1.6438917
0.6858806 1.4630533 0.77959275 1.2466222 0.38146815 0.4640415 0.33168298 0.4846977
0.87261766 0.9608926 1.3404319 0.56177896 0.47394985 0.70717955 0.553244 0.48940778
1.5851053 1.4811536 0.40358788 0.6526248 0.33851954 1.0514001 0.39263552 0.42534524
0.2646423 0.563287 1.3005152 0.4556692
00000000: 8fbc a23f 953a fb3e a236 253f f29f 093f
00000010: d149 673e a509 113f fe2b a63f ad8f dc3e
00000020: 88d5 073f 201e 493f ad63 dd3e 2f76 e53e
00000030: 2063 3c3f 09eb 8c3e 07a1 6a3f d253 ff3e
00000040: 2ebc 8f3e 7e9f 163f 7510 ac3f 6369 c33f
00000050: 0cc2 863e 8934 c53f 302f a13e 9bfa 0a3f
00000060: 34fb 993f c759 9c3e 227c da3e 696b ed3e
00000070: d642 153f a32f b23f 3c27 663f 7cc8 d63e
00000080: 9363 ae3f 359a 853f 7338 c63f 38f2 e53e
00000090: eb6a 063f fa77 8b3e 3ee2 b23e 331b 093f
000000a0: 0266 ba3e ecae d23f 4a68 fc3e efd9 6d3f
000000b0: 1db0 e73e f734 ac3e 1830 553f e1b8 093f
000000c0: 5469 153f 2abd 1a3f 1a79 0c3f cddd 4a3f
000000d0: cfe0 033f c267 953f b856 253f 5625 2b3f
000000e0: 640c ba3f 45ae f83e 7433 083f 9809 b23f
000000f0: 5246 c33f 0f3b 073f d8eb 5d3f 445b 633f
00000100: fb8c c73e 7f14 f03e d62d a23f ad73 7d3f
00000110: 501b ce3e f2c7 1b3f 9b35 9c3f 0b6b d23f
00000120: df95 2f3f 5545 bb3f 6493 473f 5191 9f3f
00000130: cb4f c33e d996 ed3e 5ad2 a93e 4c2a f83e
00000140: df63 5f3f 0ffd 753f 4693 ab3f bfd0 0f3f
00000150: 8ea9 f23e b809 353f 66a1 0d3f a893 fa3e
00000160: bbe4 ca3f 7196 bd3f 12a3 ce3e 6b12 273f
00000170: 6f52 ad3e 4794 863f 8607 c93e dac6 d93e
00000180: 327f 873e 9433 103f 4877 a63f 794d e93e

bn2.bias f4 [100]
-0.9311439 0.03357812 -0.13856061 -0.22759987 0.10534437 0.23758022 -0.9333461 0.12440239
-0.2180019 0.48856017 -0.17991547 -0.31919396 -0.39288417 -0.00792278 0.5450294 -0.25889978
-0.046487764 -0.40261602 -0.99280655 -1.0758882 0.09056128 -1.1455339 -0.11160748 -0.022005275
0.81459206 0.072088 0.29251906 0.09285139 -0.18417314 -0.9656101 0.64788395 0.24385643
0.9074213 0.76198566 1.0707363 0.2055736 -0.08129647 -0.19283232 0.22388825 0.2690073
0.15648414 -1.041611 -0.09881695 -0.61297643 0.033235464 -0.27245063 -0.5380253 0.1942975
-0.047734823 0.11909677 -0.2636583 0.46920738 0.31122372 -0.73338723 0.25543898 0.10689175
-0.9738866 -0.039428167 -0.22334547 -0.9724931 -0.98746115 0.14641738 -0.53850895 -0.58805716
-0.20375785 0.3822331 0.97463083 0.62599605 0.24587621 -0.14686564 -0.7888639 1.268531
-0.030672466 -1.0853463 -0.5026322 0.9067147 -0.3341033 -0.14547004 -0.16058357 -0.18212272
-0.5907915 0.55740637 0.8625732 0.2744076 -0.18037434 -0.3640321 0.14471942 -0.05875872
1.2102121 -1.1144499 0.19610162 -0.19952273 -0.15120701 0.78757447 0.12133357 0.24719289
-0.18099038 -0.17362459 -0.8709081 -0.08824017
00000000: 725f 6ebf 3689 093d d5e2 0dbe f10f 69be
00000010: cabe d73d 3b48 733e c5ef 6ebf aec6 fe3d
00000020: e43b 5fbe 8f24 fa3e c33b 38be 646d a3be
00000030: 1d28 c9be 8cce 01bc 0c87 0b3f 838e 84be
00000040: f469 3ebd b023 cebe 9228 7ebf b4b6 89bf
00000050: 3178 b93d dba0 92bf 7692 e4bd 6844 b4bc
00000060: 1b89 503f e0a2 933d 0fc5 953e df28 be3d
00000070: e297 3cbe 3932 77bf b9db 253f 80b5 793e
00000080: c34c 683f 7e11 433f e30d 893f e381 523e
00000090: c37e a6bd d675 45be f642 653e 53bb 893e
000000a0: 613d 203e 8253 85bf 8b60 cabd 06ec 1cbf
000000b0: e921 083d a67e 8bbe 07bc 09bf edf5 463e
000000c0: 9785 43bd 02e9 f33d 38fe 86be f33b f03e
000000d0: b758 9f3e 44bf 3bbf e6c8 823e 10ea da3d
000000e0: a250 79bf 6e7f 21bd adb4 64be 4ff5 78bf
000000f0: 41ca 7cbf 70ee 153e b9db 09bf ea8a 16bf
00000100: e6a5 50be 0fb4 c33e 6881 793f 4741 203f
00000110: f9c6 7b3e f263 16be fcf2 49bf 395f a23f
00000120: d344 fbbc a1ec 8abf 81ac 00bf 741e 683f
00000130: 960f abbe 19f6 14be 0570 24be 617e 3abe
00000140: 1d3e 17bf 2fb2 0e3f 99d1 5c3f 277f 8c3e
00000150: 0db4 38be 6a62 babe 5431 143e fcac 70bd
00000160: 3be8 9a3f 4ba6 8ebf ddce 483e b04f 4cbe
00000170: 03d6 1abe 7b9e 493f bc7d f83d 2220 7d3e
00000180: 8b55 39be a5ca 31be d5f3 5ebf 43b7 b4bd

bn2.running_mean f4 [100]
-1.0718598 -0.7704152 0.21756266 -0.13164152 -0.61706984 -0.28106445 -1.2115271 0.31810993
0.20771116 0.4289462 -0.087267436 -0.5361717 0.84860957 0.16750574 0.616344 -0.2792222
-0.106027804 -0.5699019 -0.8231184 -0.84527147 -0.86783785 -1.0426424 0.99736756 -0.5795035
0.6722651 -0.22442019 0.35090682 -0.6835698 0.30756643 -0.676266 0.625561 -0.13623661
1.9653164 0.9968672 1.5955002 -0.06894487 0.47174203 -0.28692764 0.11210777 0.5133712
0.25835177 -1.3149139 0.6588094 -0.99764985 -0.4054389 0.7452626 -0.5566805 0.8521524
-0.29776955 -0.21712393 0.30374548 0.3642049 0.5351856 -0.7830786 0.066882186 0.27320504
-1.2002789 0.51571375 0.3111661 -1.8643854 -1.7677889 -0.36404157 -1.5456733 -0.15426682
-0.22758678 0.911973 1.1636807 0.67714155 0.5670968 0.4162573 -0.49166536 1.1038996
0.2201315 -0.1363448 -0.495947 1.5278237 0.9852889 -0.4892229 1.0003929 -0.96750265
-0.30112618 0.7318362 1.3168887 -0.26949167 -0.29581162 -0.13616551 -1.1808606 -0.8321508
1.2677397 -1.4315202 0.29493648 0.08510412 -0.3088384 0.40962285 -0.54332006 -0.42336378
0.8159374 0.35888702 -1.4829694 -0.41264778
00000000: b432 89bf ee39 45bf bfc8 5e3e 09cd 06be
00000010: 4af8 1dbf aee7 8fbe 5213 9bbf 4edf a23e
00000020: 3cb2 543e d69e db3e 45b9 b2bd 8c42 09bf
00000030: 7a3e 593f a086 2b3e b8c8 1d3f 36f6 8ebe
00000040: 1b25 d9bd 17e5 11bf e3b7 52bf b663 58bf
00000050: 9f2a 5ebf 4e75 85bf 7b53 7f3f 575a 14bf
00000060: 9119 2c3f 68ce 65be 0faa b33e 6efe 2ebf
00000070: 5979 9d3e c51f 2dbf c424 203f 9c81 0bbe
00000080: 7d8f fb3f b032 7f3f 5a39 cc3f f832 8dbd
00000090: 2c88 f13e 2ee8 92be c298 e53d 4c6c 033f
000000a0: af46 843e 194f a8bf bca7 283f fb65 7fbf
000000b0: b095 cfbe 88c9 3e3f 9d82 0ebf a926 5a3f
000000c0: 4075 98be bc55 5ebe 8784 9b3e 1179 ba3e
000000d0: ec01 093f d777 48bf 87f9 883d 88e1 8b3e
000000e0: bda2 99bf d105 043f 2a51 9f3e 2ea4 eebf
000000f0: e846 e2bf a863 babe 9fd8 c5bf 1ff8 1dbe
00000100: 820c 69be 1077 693f 7df3 943f 2659 2d3f
00000110: 422d 113f ad1f d53e 90bb fbbe 954c 8d3f
00000120: 276a 613e f99d 0bbe c4ec fdbe ba8f c33f
00000130: e53b 7c3f 6d7b fabe e00c 803f 41ae 77bf
00000140: 362d 9abe 9e59 3b3f cf8f a83f d0fa 89be
00000150: 9f74 97be f96e 0bbe 7126 97bf d607 55bf
00000160: 4b45 a23f 0e3c b7bf ea01 973e 124b ae3d
00000170: 1120 9ebe 16ba d13e 0617 0bbf 23c3 d8be
00000180: 46e1 503f 0ac0 b73e f1d1 bdbf 9246 d3be

bn2.running_var f4 [100]
9.069571 2.3204248 4.3010106 4.0900874 2.1020443 3.8020496 9.218423 3.5381029
3.8794973 4.760982 2.4847171 3.7396328 7.4303513 1.6780207 5.1532035 3.4564373
2.0522635 3.1499915 8.884264 10.699665 1.8788062 13.140675 1.988134 2.6800482
4.0961223 1.4393601 2.665398 2.0224695 4.1469617 11.444364 4.6453586 2.6321216
10.922088 5.950745 7.9349356 3.2999446 3.5895715 2.4976785 1.8383691 4.2703867
2.2044585 7.983848 2.915509 5.293714 3.4967313 2.6511157 5.145474 3.4947295
2.464336 3.729249 3.5149202 5.8144693 3.58442 5.924889 2.957002 3.664183
7.427401 2.6222677 2.7967587 10.01931 11.902999 1.8086399 7.2809925 5.8313947
2.26864 2.564973 6.2543597 8.46269 2.2948468 3.1426027 4.20462 7.680998
3.6151075 9.760288 5.6075473 11.063599 2.5126333 2.2261732 2.6328626 3.0917425
5.7918186 7.2549796 6.454981 3.7950742 3.5367389 5.233653 2.7876883 2.129189
11.795692 12.042736 2.6485238 4.568681 2.2596934 7.3040094 2.2320871 3.5308151
1.6598577 2.7817516 6.328553 2.4767823
00000000: f61c 1141 d781 1440 e1a1 8940 ffe1 8240
00000010: e587 0640 c854 7340 a97e 1341 4770 6240
00000020: af49 7840 f759 9840 9b05 1f40 2556 6f40
00000030: 70c5 ed40 62c9 d63f 0be7 a440 4536 5d40
00000040: 4958 0340 7699 4940 f225 0e41 d431 2b41
00000050: b97c f03f 3440 5241 2d7b fe3f e985 2b40
00000060: 6f13 8340 f43c b83f e195 2a40 2470 0140
00000070: e9b3 8440 1d1c 3741 c7a6 9440 ae74 2840
00000080: dfc0 2e41 816c be40 feea fd40 4b32 5340
00000090: 8abb 6540 f7d9 1f40 ae4f eb3f 02a7 8840
000000a0: d915 0d40 af7b ff40 b397 3a40 1b66 a940
000000b0: 72ca 5f40 e1ab 2940 b9a7 a440 a6a9 5f40
000000c0: aeb7 1d40 04ac 6e40 74f4 6040 2210 ba40
000000d0: 2367 6540 b198 bd40 853f 3d40 f981 6a40
000000e0: 45ad ed40 3cd3 2740 18fe 3240 184f 2041
000000f0: af72 3e41 8381 e73f e4fd e840 c99a ba40
00000100: 6631 1140 8528 2440 b723 c840 2e67 0741
00000110: c5de 1240 6720 4940 3f8c 8640 bcca f540
00000120: ec5d 6740 242a 1c41 0771 b340 8004 3141
00000130: fcce 2040 9f79 0e40 d280 2840 1cdf 4540
00000140: 9456 b940 cb28 e840 348f ce40 7fe2 7240
00000150: ee59 6240 167a a740 7c69 3240 a244 0840
00000160: 28bb 3c41 0caf 4041 6a81 2940 a232 9240
00000170: d19e 1040 72ba e940 84da 0e40 e0f8 6140
00000180: 3876 d43f 3808 3240 8283 ca40 9a83 1e40

fc3.weight f4 [46, 100]
-0.04577923 -0.03473532 0.04248978 0.049479347 0.12126825 -0.016676685 0.04769903 0.050089817
-0.05448561 0.040547743 -0.030150188 -0.0049945815 -0.009217001 -0.04164653 0.016219229 -0.012455687
-0.04796127 0.06751401 -0.0075089326 0.017176172 -0.018447831 -0.027583027 -0.03207361 0.01807068
0.013681635 0.029948536 0.024407942 0.039592862 0.0699 0.013023881 0.060810633 0.07283818
-0.029636884 -0.03311624 0.008013538 0.05174716 0.014027854 -0.048649516 -0.026361406 0.010159554
-0.06578456 0.017397184 -0.03587472 -0.017062467 -0.05052716 -0.10734751 -0.07225775 0.09041646
-0.06345145 -0.014205296 0.028666804 0.036814094 0.05159494 -0.021665666 0.051947456 -0.072572544
-0.02213346 0.023172623 -0.041944608 -0.017935172 0.019421158 0.0424267 -0.040226154 -0.02419875
-0.03849234 0.05134881 0.013310318 0.005882024 0.026940912 -0.021757878 0.0007764837 -0.008628669
0.0044571487 -0.0052715405 0.013092269 -0.0054948176 -0.026326317 0.0005005122 -0.033205852 -0.06786637
-0.066707395 -0.031361047 0.009025756 0.061920296 -0.047739606 0.0021129372 0.0066878176 -0.01128248
-0.7117548 -0.016510341 -0.05531573 -0.03247 0.007659416 0.020092912 0.08929216 0.09112244
-0.019492762 0.030512493 0.0138758365 0.0015402633 -0.0010675481 0.059949476 0.019711703 0.09831483
-0.08134004 0.0015851695 0.0012370158 0.024038563 0.034434132 0.07276415 -0.014368939 -0.013907116
0.0111184195 -0.03479515 0.075017564 -0.07697326 0.0012523709 -0.027958052 0.013407618 0.008210401
-0.007894663 -0.013712102 0.027881425 0.01645099 -0.0003048182 -0.019230627 0.010806874 0.029549653
0.095588624 0.024389444 -0.02471095 0.026391845 -0.03094741 0.015666367 -0.005999097 0.074108325
0.084111996 -0.020893356 0.13355385 -0.06278564 -0.009572727 -0.0026385002 -0.01024682 0.038909435
-0.008782695 -0.033622902 -0.0399967 -0.037751123 -0.06439641 -0.06578874 -0.038098346 -0.09985995
0.019125724 -0.01979545 -0.018720908 -0.04280043 0.010906033 0.0113601 -0.04079007 -0.03619294
-0.019176565 0.04479452 0.046036176 -0.07011746 -0.09712512 0.10629863 -0.0003323187 0.07992402
0.05104655 0.02453386 -0.034015622 0.007670884 0.031013504 0.013489011 0.00684846 -0.011888698
-0.16232118 -0.04672476 0.0007938261 -0.081120215 -0.07049964 0.003854063 -0.00052959804 -0.004771968
-0.011049632 0.07850491 0.035414472 -0.015000164 -0.6905855 -0.023405466 0.040141977 0.027733749
0.028053546 0.02784383 -0.016020594 0.09337878 -0.016317563 -0.06456327 0.0062713814 0.009402398
-0.011559655 0.065832116 -0.017029503 0.064048894 0.07116018 -0.05479755 -0.09205017 0.014979249
-0.054645818 -0.038018778 -0.08655885 -0.11543769 0.13121772 0.015867267 -0.057867594 -0.13925058
0.038574852 -0.049320556 0.023258872 0.07842608 0.07170549 0.25329065 0.031340275 0.03647029
0.025128692 0.022468308 0.08762779 0.07742477 0.046466105 0.02070464 -0.043935858 -0.0076987757
0.027156565 0.044483133 -0.022837209 0.052798904 0.063434586 -0.02912937 0.037063498 -0.07403712
0.008252498 -0.020050798 -0.048643924 -0.01481839 -0.06009566 -0.019139778 -0.011389888 -0.012942662
-0.05891209 -0.15180914 0.05348351 0.0085180625 0.007504822 -0.02828439 0.09988612 -0.037213065
00000000: 0083 3bbd 9f46 0ebd c309 2e3d dbaa 4a3d
00000010: 7d5b f83d 8b9d 88bc 0f60 433d fb2a 4d3d
00000020: 4e2c 5fbd 6415 263d 87fd f6bc 96a9 a3bb
00000030: e702 17bc 8d95 2abd 30de 843c f012 4cbc
00000040: 0973 44bd c944 8a3d 7e0d f6bb 0bb5 8c3c
00000050: e81f 97bc cdf5 e1bc 9e5f 03bd f608 943c
00000060: f028 603c a256 f53c 2af3 c73c 202c 223d
00000070: bb27 8f3d 1e62 553c 9214 793d 2f2c 953d
00000080: 0dc9 f2bc e5a4 07bd 374b 033c d4f4 533d
00000090: 16d5 653c b744 47bd e0f3 d7bc 4274 263c
000000a0: 0eba 86bd 8a84 8e3c 5ff1 12bd 96c6 8bbc
000000b0: 91f5 4ebd 03d9 dbbd dffb 93bd 442c b93d
000000c0: d5f2 81bd 54bd 68bc a5d6 ea3c 60ca 163d
000000d0: 3755 533d 327c b1bc dbc6 543d eaa0 94bd
000000e0: 3b51 b5bc 83d4 bd3c 1cce 2bbd c8ec 92bc
000000f0: 1f19 9f3c 9fc7 2d3d 2ec4 24bd 753c c6bc
00000100: 25aa 1dbd 2153 523d 8513 5a3c febd c03b
00000110: 30b3 dc3c 943d b2bc f08c 4b3a 435f 0dbc
00000120: 460d 923b e3bc acbb f580 563c df0d b4bb
00000130: 4aaa d7bc ce34 033a dc02 08bd 86fd 8abd
00000140: e39d 88bd 7174 00bd c4e0 133c 23a0 7d3d
00000150: 9b8a 43bd 3479 0a3b 7b25 db3b 27da 38bc
00000160: 9035 36bf b240 87bc bf92 62bd 43ff 04bd
00000170: d7fb fa3b e499 a43c cfde b63d 679e ba3d
00000180: 49af 9fbc 56f5 f93c 7a57 633c a9e2 c93a
00000190: f8ec 8bba 958d 753d 707a a13c 4959 c93d
000001a0: 9b95 a6bd 76c5 cf3a 5d23 a23a 85ec c43c
000001b0: ce0a 0d3d 5f05 953d b36b 6bbc acda 63bc
000001c0: 082a 363c 5c85 0ebd cfa2 993d 28a4 9dbd
000001d0: 9826 a43a 4908 e5bc a0ab 5b3c eb84 063c
000001e0: 9e58 01bc b9a8 60bc 9667 e43c 3ac4 863c
000001f0: 02d0 9fb9 8c89 9dbc 510f 313c 1d12 f23c
00000200: f8c3 c33d 5fcc c73c 9e6e cabc b633 d83c
00000210: 6c85 fdbc c156 803c 1394 c4bb 1bc6 973d
00000220: e942 ac3d 8b28 abbc 57c2 083e c295 80bd
00000230: edd6 1cbc b0ea 2cbb 47e2 27bc 805f 1f3d
00000240: 4be5 0fbc 2bb8 09bd 94d3 23bd eca0 1abd
00000250: 44e2 83bd 3fbc 86bd 030d 1cbd 6083 ccbd
00000260: 8dad 9c3c 112a a2bc 975c 99bc 814f 2fbd
00000270: 38af 323c b61f 3a3c 7d13 27bd 0c3f 14bd
00000280: 2c18 9dbc 757a 373d 6e90 3c3d be99 8fbd
00000290: 89e9 c6bd 19b3 d93d 103b aeb9 34af a33d
000002a0: 3016 513d 3cfb c83c f753 0bbd 0a5c fb3b
000002b0: 0810 fe3c 0301 5d3c 0c69 e03b d0c8 42bc
000002c0: 8637 26be 7662 3fbd c518 503a 5b22 a6bd
000002d0: 1e62 90bd 7394 7c3b b9d4 0aba 2b5e 9cbb
000002e0: 8409 35bc 2fc7 a03d c40e 113d 3fc3 75bc
000002f0: 36ca 30bf d2bc bfbc ea6b 243d e331 e33c
00000300: 8dd0 e53c be18 e43c 9f3d 83bc 603d bf3d
00000310: 69ac 85bc bf39 84bd 2980 cd3b 840c 1a3c
00000320: b564 3dbc fdd2 863d 7581 8bbc 112c 833d
00000330: 6ebc 913d 6573 60bd cd84 bcbd 866b 753c
00000340: 4bd4 5fbd 94b9 1bbd c445 b1bd 986a ecbd
00000350: f05d 063e 12fc 813c 9206 6dbd b497 0ebe
00000360: aa00 1e3d 5a04 4abd 6489 be3c da9d a03d
00000370: 54da 923d 50af 813e a95e 003d df61 153d
00000380: b0da cd3c 750f b83c 3376 b33d e190 9e3d
00000390: 3e53 3e3d c79c a93c 16f6 33bd 0346 fcbb
000003a0: 7277 de3c f233 363d 1915 bbbc aa43 583d
000003b0: fee9 813d b7a0 eebc e5cf 173d c6a0 97bd
000003c0: 7c35 073c 9241 a4bc da3e 47bd d5c8 72bc
000003d0: de26 76bd 06cb 9cbc a79c 3abc 760d 54bc
000003e0: ce4d 71bd db73 1bbe 8611 5b3d 588f 0b3c
000003f0: 03eb f53b aab4 e7bc 1891 cc3d ba6c 18bd

fc3.bias f4 [46]
0.2711869 0.31619617 0.34445298 0.31637335 0.3415146 0.3755876 0.24614847 0.32423356
0.27201548 0.32557765 0.21645887 0.21779083 0.32186687 0.22298265 0.3121504 0.2505805
0.22616716 0.31242162 0.40122834 0.2749152 0.3623205 0.31450117 0.31979308 0.32411382
0.35145113 0.25910357 0.2346186 0.16872634 0.19812776 0.37570664 0.256613 0.29492384
0.30223486 0.16096713 0.28604737 0.18327762 0.32547063 0.21046121 0.3802952 0.25039104
0.24251702 0.16401756 0.31467575 0.32910225 0.14693908 0.19213988
00000000: 02d9 8a3e 77e4 a13e 245c b03e b0fb a13e
00000010: 00db ae3e 054d c03e 580e 7c3e f101 a63e
00000020: 9d45 8b3e 1db2 a63e 65a7 5d3e 8f04 5f3e
00000030: bccb a43e 9055 643e 2dd2 9f3e 164c 803e
00000040: 5d98 673e baf5 9f3e cd6d cd3e afc1 8c3e
00000050: 1382 b93e 4c06 a13e ebbb a33e 3ff2 a53e
00000060: 67f1 b33e 39a9 843e dc3f 703e 99c6 2c3e
00000070: 01e2 4a3e 9f5c c03e c762 833e 4200 973e
00000080: 87be 9a3e 91d4 243e cd74 923e 21ad 3b3e
00000090: 16a4 a63e 2583 573e 0db6 c23e 4133 803e
000000a0: 6256 783e 38f4 273e 2e1d a13e 1780 a83e
000000b0: 3377 163e 51c0 443e
