mp4-machine-learning-template/model/model.pth (torch, 100286 bytes, 14 tensors)

fc1.weight f4 [120, 51]
0	0x3c8f8d35	0.017523387
1	0xbda01e58	-0.078182876
2	0x3e2127af	0.15737794
3	0x3f8a061b	1.0783113
4	0xbd85c077	-0.065308504
5	0x3b81ee3c	0.0039651673
6	0xbbcd02a7	-0.0062564197
7	0x3dd64a77	0.10463422
8	0xbd89ea42	-0.06734134
9	0x3c6fcb8f	0.0146359345
10	0x3ab480a3	0.0013771247
11	0x3acc16a1	0.0015570709
12	0xbd531550	-0.051533997
13	0xbf2d7f6b	-0.6777255
14	0xbe24fe9d	-0.16112752
15	0xbed3aa91	-0.4134107
16	0xbd00ec61	-0.03147543
17	0xbd1e056e	-0.038579397
18	0xbd171798	-0.036887735
19	0xbf3ceaf1	-0.7379599
20	0x3c8b01ad	0.016968573
21	0xbe923265	-0.28554073
22	0xbd862082	-0.06549169
23	0xbe6a016e	-0.22852108
24	0xbd889387	-0.066687636
25	0xbebdbc91	-0.37057927
26	0xbdeefacb	-0.11668929
27	0x3de1274d	0.10993824
28	0xbe06d127	-0.13165723
29	0xbd81d365	-0.063391484
30	0xbcd593e1	-0.02607149
31	0xbdaecb6a	-0.08534892
32	0xbcbc0070	-0.022949427
33	0x3cbbde74	0.022933222
34	0xbd5147bf	-0.051093813
35	0xbc01e0e6	-0.007927155
36	0xbb99cd28	-0.004693646
37	0xbcb03f3e	-0.021514531
38	0x3b978ff8	0.0046253167
39	0x3df1975a	0.11796446
40	0xbe0f1bfc	-0.13975519
41	0x3eba36a3	0.3636981
42	0xbe10a08c	-0.14123744
43	0xbd7c36ac	-0.061575577
44	0x3e75da2b	0.24009006
45	0xbe47a8d1	-0.19497992
46	0xbde311bb	-0.11087366
47	0x3e0a9207	0.13532268
48	0x3d720c28	0.059093624
49	0xbafdf82b	-0.0019376328
50	0x3dbf1a08	0.09331137
51	0xbdf5db3a	-0.12004705
52	0xbd16c94f	-0.036813077
53	0xbda4c8a4	-0.08046082
54	0x3d0fd94e	0.035119347
55	0xbd89dbfb	-0.06731411
56	0xbd29e31d	-0.041476358
57	0x3c818edb	0.01581519
58	0xbcad4d3f	-0.021154998
59	0xbcfaf1be	-0.03063285
60	0x3c2f6655	0.01070555
61	0x3cccbd06	0.024992477
62	0x3cb47bb5	0.022031644
63	0xbca609f2	-0.020268414
64	0x3e25323f	0.16132449
65	0xbd714ad6	-0.05890926
66	0x3e69f8b0	0.22848773
67	0xbd1cd645	-0.03829028
68	0x3cb9d3ed	0.022684062
69	0xbd04d630	-0.032430828
70	0x3ef681f0	0.4814601
71	0xbe025140	-0.12726307
72	0x3e278dd1	0.16362692
73	0xbcda9c1f	-0.026685772
74	0x3e2875c9	0.16451181
75	0xbcb119b9	-0.02161871
76	0x3e5bf7e3	0.2148128
77	0xbd8b23f2	-0.067939654
78	0xbeb0d71f	-0.34539124
79	0xbdd3d541	-0.10343409
80	0xbf0fc883	-0.5616533
81	0xbdde1aa7	-0.10844927
82	0x3f0b9b7c	0.54534125
83	0xbe3a06a3	-0.18166594
84	0xbf401935	-0.7503846
85	0xbe5ff2aa	-0.21869913
86	0xbf5220d2	-0.8208133
87	0xbe8f29bd	-0.2796153
88	0x3c509636	0.012731126
89	0x3cca1c72	0.024671767
90	0xbf1be3b8	-0.60894346
91	0x3d6778ca	0.056511678
92	0x3e220d12	0.15825298
93	0xbdc45079	-0.095856614
94	0xbe110e9f	-0.14165734
95	0x3c7f4bcc	0.015582036
96	0x3dee1dbc	0.11626765
97	0xbd232fe4	-0.039840594
98	0x3c76e158	0.015068375
99	0x3c6882cc	0.014191341
100	0x3eeae759	0.4587963
101	0x3c3a83f6	0.011384001
102	0xbdb56ade	-0.08858274
103	0xbe7ed0dd	-0.24884363
104	0xbe72f2db	-0.23725455
105	0x3e615b41	0.22007467
106	0x3e9c6b6f	0.30550715
107	0x3d46f321	0.04857171
108	0x3dd8bd73	0.105830096
109	0xbe53a5c1	-0.20668699
110	0x3e576c39	0.21037377
111	0xbe041c52	-0.12901428
112	0x3dbfeb42	0.09371044
113	0x3c2671e0	0.010158986
114	0x3e5ced45	0.21574886
115	0xbdc5348a	-0.09629162
116	0x3ec7f3ac	0.39053094
117	0xbd1b72dc	-0.037951335
118	0xbe73a001	-0.23791505
119	0xbe5b18d6	-0.21396193
120	0x3db89857	0.090134315
121	0x3e1323cd	0.14369126
122	0x3dc93756	0.098250076
123	0xbf1175be	-0.56820285
124	0xbbcc2a68	-0.006230641
125	0xbea72206	-0.32643145
126	0x3cfb6ae6	0.030690622
127	0xbdf0e669	-0.11762697
128	0x3dbb2f44	0.091398746
129	0xbe128f91	-0.14312579
130	0x3e4905ed	0.19631167
131	0x3e9b4c1e	0.3033151
132	0x3e15196a	0.14560476
133	0xbe1b0842	-0.15139869
134	0x3e747f28	0.23876631
135	0x3d24527f	0.040117737
136	0x3da1da21	0.07902933
137	0x3ea6d293	0.3258253
138	0x3cc64d22	0.024206702
139	0xbe12bd3f	-0.14330004
140	0x3e0c3731	0.13692929
141	0x3edb7d4d	0.42869034
142	0x3e004270	0.12525344
143	0x3d3bb454	0.04582627
144	0xbed6d6de	-0.41960806
145	0xbe4ca5b1	-0.19985081
146	0xbe960504	-0.29300702
147	0xbe0b2201	-0.1358719
148	0xbdafd5d7	-0.085857086
149	0x3d342331	0.043978874
150	0xbe28656a	-0.16444936
151	0xbec90a39	-0.39265612
152	0x3d344d67	0.04401913
153	0xbe04d72d	-0.12972708
154	0x3e0a588e	0.13510343
155	0xbec69e3c	-0.38792598
156	0xba93fde1	-0.0011290872
157	0x3d9589ed	0.07301698
158	0x3e8729e2	0.26399142
159	0x3c89e9d9	0.01683514
160	0x3e35fc3e	0.17772004
161	0x3df50d55	0.119654335
162	0x3e3677b7	0.17819105
163	0xbe2e176f	-0.17001127
164	0xbd302f86	-0.043014072
165	0x3ea8f871	0.33002046
166	0xbe1ec4c8	-0.15504754
167	0xbebf84f9	-0.37406138
168	0x3ccb654e	0.02482858
169	0x3e0dfd92	0.1386626
170	0x3eeded13	0.46469936
171	0xbc695b56	-0.014242968
172	0xbcf3c646	-0.02975763
173	0x3e0fd1c3	0.14044861
174	0x3f18e8c1	0.59730154
175	0x3dac10b8	0.08401626
176	0xbea257f4	-0.31707728
177	0x3d100158	0.03515753
178	0xbe030bd6	-0.12797484
179	0xbe89a6d2	-0.26885086
180	0x3e99c509	0.30033138
181	0x3e7ed5e4	0.2488628
182	0x3d0902f3	0.03345008
183	0x3df054ac	0.117349
184	0xbe36275b	-0.1778845
185	0x3e6ef656	0.23336157
186	0xbf028c84	-0.5099566
187	0x3d81275b	0.063063346
188	0xbf14ec68	-0.5817323
189	0x3db1d030	0.08682287
190	0x3e0fbd28	0.14037001
191	0x3cc94eb3	0.02457366
192	0x3daff4fe	0.085916504
193	0x3db807f6	0.089858934
194	0x3e2d9cb0	0.16954303
195	0xbde0dc25	-0.10979489
196	0x3d703f33	0.05865402
197	0xbdb10f63	-0.08645513
198	0xbdcd38bb	-0.10020586
199	0x3d366ac1	0.044535402
200	0xbe552aaa	-0.20817056
201	0xbd77ce15	-0.06049927
202	0x3ec020b9	0.37524965
203	0xbcb4924d	-0.022042418
204	0xbe243a8d	-0.1603796
205	0xbe399d4c	-0.1812641
206	0xbe8ac9dd	-0.27107134
207	0xbf0714c6	-0.5276607
208	0xbeaf02c6	-0.34181803
209	0x3ebb5929	0.3659146
210	0xbb9b41e0	-0.0047380775
211	0x3abc569f	0.0014369077
212	0xbd56f465	-0.052479167
213	0xbd1e77c7	-0.038688447
214	0xbea62a8d	-0.3245434
215	0x3d9eba9e	0.07750438
216	0x3d7097f4	0.058738664
217	0xbd5e9b01	-0.054347042
218	0xbdff92b6	-0.12479155
219	0x3ea66096	0.32495564
220	0xbe6fec3d	-0.23429962
221	0xbf015a03	-0.5052797
222	0xbe175509	-0.14778532
223	0xbe73e64a	-0.23818317
224	0x3e5527ed	0.20816012
225	0xbda688b0	-0.0813154
226	0xbdb04731	-0.08607329
227	0x3d55e7dc	0.05222307
228	0x3d7ba5d6	0.06143745
229	0x3f4cd359	0.8000999
230	0x3e6b9715	0.23006852
231	0xbe8fc73f	-0.280817
232	0x3c5617bf	0.013067185
233	0xbeb78326	-0.35842246
234	0xbe640864	-0.22268826
235	0x3deaf1ea	0.11471923
236	0x3e10d0e4	0.14142185
237	0x3e6202c4	0.22071368
238	0x3c8f9980	0.01752925
239	0xbf11ebc2	-0.5700036
240	0x3dea74cb	0.11448058
241	0x3e1c9144	0.1528979
242	0x3e38e67d	0.18056674
243	0xbc4b7e0a	-0.012420187
244	0x3bedcbe1	0.0072569703
245	0xbd1db396	-0.038501345
246	0x3d7a169e	0.061056726
247	0xbe47fc73	-0.19529895
248	0x3cc360b9	0.023849832
249	0x3dbcfc18	0.092277706
250	0xbd70868f	-0.058722075
251	0x3df5213e	0.11969231
252	0xbe2fb90d	-0.17160435
253	0x3e0be34a	0.13660923
254	0xbe3a55ea	-0.18196836
255	0xbd58a047	-0.052887227

fc1.bias f4 [120]
0	0x3c2d8ca7	0.010592616
1	0xbcc739bf	-0.024319528
2	0xbe0c99ec	-0.13730592
3	0x3d7f46fc	0.062323555
4	0x3ddb391f	0.10704254
5	0xbdc6be64	-0.09704283
6	0xbdc42e08	-0.09579092
7	0xbe0e09b5	-0.1387089
8	0xbd6b716b	-0.05748121
9	0xbd8abc6a	-0.067742184
10	0x3d9776ea	0.07395728
11	0xbdd9aad4	-0.10628286
12	0x3db63651	0.08897079
13	0xbd79b12d	-0.060959984
14	0xbc457b0b	-0.0120532615
15	0xbd726c2c	-0.059185192
16	0x3daf97b9	0.08573861
17	0x3ddc97e9	0.10771162
18	0x3dd5c931	0.10438765
19	0xbcbbb5ad	-0.022913778
20	0x3d989f1f	0.07452225
21	0xbe031c45	-0.12803753
22	0xbdf4f193	-0.11960139
23	0x3c12dab9	0.00896328
24	0x3de3f2a7	0.11130267
25	0xbe083f00	-0.13305283
26	0x3c98d9ec	0.0186586
27	0x3de2f443	0.110817455
28	0xbdd285a0	-0.10279393
29	0x3df5f864	0.120102674
30	0x3d209b0f	0.039210375
31	0x3cd098ab	0.025463423
32	0xbe0ee79d	-0.13955541
33	0xbdc304e5	-0.09522418
34	0xbd5c991e	-0.05385696
35	0xbdf86216	-0.121280834
36	0x3dae4313	0.08508887
37	0x3cd67360	0.026178062
38	0x3c2a9556	0.010411581
39	0xbda5644f	-0.08075773
40	0xbd9d5025	-0.07681302
41	0xbd3094bb	-0.04311059
42	0x3ca6e067	0.020370675
43	0xbdc4a518	-0.09601802
44	0x3dc68065	0.09692458
45	0x3d80a709	0.062818594
46	0xbdf47f0c	-0.11938295
47	0x3d83f5bf	0.06443357
48	0xbdb3cb86	-0.087790534
49	0xbd8720f9	-0.06598086
50	0x3dfbce96	0.122952625
51	0xbdc45de8	-0.09588224
52	0x3d843393	0.064551495
53	0x3ce2b975	0.027676323
54	0x3e090477	0.1338061
55	0xbd6b30d9	-0.05741963
56	0xbd2f1f30	-0.042754352
57	0xbdb7082f	-0.08937108
58	0x38dd31d0	0.000105473795
59	0xbcb05467	-0.021524621
60	0xbdd453b7	-0.1036753
61	0x3d35af12	0.044356413
62	0x3d84b986	0.06480698
63	0x3e0d37dc	0.1379084
64	0xbdc7620c	-0.09735498
65	0x3be0f6f8	0.0068653785
66	0xbc7b9fb4	-0.0153579
67	0xbcf8b891	-0.030361446
68	0x3d25eda5	0.04050984
69	0xbdd3c0ed	-0.10339532
70	0xbdaf9e1d	-0.085750796
71	0xbd31afdd	-0.043380607
72	0xbd9d04cb	-0.0766693
73	0x3d554986	0.05207207
74	0x3d6d0f9b	0.05787621
75	0xbd30c862	-0.04315985
76	0xbd9671d3	-0.07345929
77	0xbdf908d5	-0.12159888
78	0x3da79e86	0.08184533
79	0xbe08a495	-0.13344033
80	0x3da1f7e5	0.0790861
81	0xbd6f1ec0	-0.058378935
82	0xbdc655fd	-0.0968437
83	0xbbdde5bc	-0.0067717712
84	0xbc2b020b	-0.010437499
85	0x3d944fec	0.072418064
86	0xbde12658	-0.109936416
87	0x3cff8211	0.03118995
88	0x3e04020c	0.12891406
89	0x3cad5e4d	0.02116313
90	0xbd6912ec	-0.05690281
91	0x3d7af9c7	0.061273362
92	0xbe07564d	-0.13216515
93	0x3dacaeb3	0.08431759
94	0xbdd3777a	-0.10325523
95	0xbcefc04b	-0.029266497
96	0xbd81e7bb	-0.06343027
97	0xbd41f4a6	-0.047352456
98	0xbd8237ce	-0.063583
99	0xbe0063a7	-0.12538014
100	0xbdfa81d7	-0.12231796
101	0xbdd1365e	-0.10215448
102	0x3e07e361	0.13270332
103	0x3c05ee2c	0.00817446
104	0x3c11816a	0.008880952
105	0x3cc5cb93	0.024144923
106	0x3df744a6	0.120736405
107	0xbccd85e9	-0.025088267
108	0xbdf27ce9	-0.11840231
109	0x3cb68fe7	0.022285415
110	0x3d0d2940	0.034463167
111	0x3db6dcc6	0.08928828
112	0x3e06455a	0.13112393
113	0x3c49b3ed	0.012310964
114	0xbd82b2fb	-0.06381794
115	0x3dedde63	0.116146825
116	0xbd8c9df5	-0.068660654
117	0x3d7439ee	0.05962556
118	0xbe0a4eaf	-0.13506578
119	0xbdfbc2e8	-0.12293035

bn1.weight f4 [120]
0	0x405472bb	3.3195026
1	0x4055093b	3.3286884
2	0x4048e735	3.1391118
3	0x403c29c1	2.9400485
4	0x4038182d	2.8764756
5	0x400a8972	2.164639
6	0x40170510	2.359684
7	0x4018e617	2.3890436
8	0x4009df15	2.1542408
9	0x403fb663	2.995507
10	0x403552d2	2.83318
11	0x402712ff	2.6105344
12	0x401e36a1	2.4720843
13	0x3fd1f0a6	1.6401565
14	0x40513f1d	3.2694771
15	0x4012200c	2.283206
16	0x403fcb71	2.996792
17	0x3fea88d7	1.832301
18	0x401aaeb1	2.4169123
19	0x4047962c	3.1185408
20	0x3fed4693	1.8537163
21	0x40287981	2.632416
22	0x40137658	2.3040981
23	0x402b4316	2.6759696
24	0x401057a0	2.2553482
25	0x401b56e1	2.4271777
26	0x40126c0b	2.2878444
27	0x4057d1ff	3.3721921
28	0x40289d94	2.6346178
29	0x4000d6b8	2.0131054
30	0x405eab2b	3.4791973
31	0x402c2e32	2.6903195
32	0x402848bc	2.6294394
33	0x401d8594	2.461278
34	0x400fc741	2.2465365
35	0x3fece157	1.8506268
36	0x4053cbd4	3.3093157
37	0x401c1536	2.4387946
38	0x4006a029	2.1035254
39	0x4037edb0	2.8738823
40	0x405c472f	3.4418447
41	0x402abc6c	2.6677504
42	0x4014f8ef	2.3276937
43	0x402d8c21	2.7116778
44	0x403a8ba3	2.9147727
45	0x4020f574	2.5149813
46	0x402ea705	2.728944
47	0x403afd89	2.9217246
48	0x40193464	2.3938227
49	0x402904ed	2.6409256
50	0x401bf26a	2.4366708
51	0x400f1a3d	2.2359765
52	0x402ccab9	2.6998732
53	0x4009b18d	2.1514618
54	0x4035d663	2.8412101
55	0x401acfc8	2.418932
56	0x401158ba	2.2710404
57	0x401f6046	2.490251
58	0x4015a36e	2.3381
59	0x40130ac6	2.2975326
60	0x401a2563	2.408532
61	0x402afbfa	2.6716294
62	0x401afba0	2.421608
63	0x40255a19	2.5836241
64	0x40539da3	3.3064964
65	0x401f2314	2.486516
66	0x404a2383	3.1584175
67	0x4047e1a4	3.123147
68	0x40183906	2.3784804
69	0x402f9c06	2.743898
70	0x404db970	3.2144432
71	0x40220c50	2.5320015
72	0x40510eab	3.2665203
73	0x402ba977	2.6822183
74	0x4024bae6	2.5739074
75	0x402156ba	2.5209184
76	0x400f236b	2.2365367
77	0x3ff24c3c	1.8929515
78	0x40468436	3.1018195
79	0x402fe8bc	2.74858
80	0x40496892	3.1470075
81	0x404d5495	3.2082875
82	0x40258d51	2.5867503
83	0x406a52a5	3.6612942
84	0x401ccd2d	2.450023
85	0x403ec076	2.980497
86	0x403ba4f3	2.9319427
87	0x4033f889	2.8120444
88	0x403ff345	2.999223
89	0x4028a4a5	2.635049
90	0x402705bf	2.6097257
91	0x40372d6d	2.8621476
92	0x403870cc	2.8818846
93	0x403f4488	2.9885578
94	0x4003fe81	2.0624087
95	0x403415a9	2.813822
96	0x3fe90534	1.8204713
97	0x402a33a2	2.6594014
98	0x403587bf	2.8364103
99	0x406016ec	3.501399
100	0x403816e4	2.8763971
101	0x401c63e5	2.443597
102	0x401c5d8f	2.4432104
103	0x40149738	2.3217297
104	0x400eb10a	2.2295556
105	0x401a7d04	2.4138803
106	0x4025d8d5	2.5913594
107	0x402f797f	2.7417905
108	0x402be73c	2.6859884
109	0x403468ef	2.8189046
110	0x40439733	3.0561035
111	0x4025b927	2.5894258
112	0x404315b9	3.0482008
113	0x401bebed	2.4362748
114	0x4072208a	3.783236
115	0x4036b700	2.8549194
116	0x4032b053	2.792012
117	0x401f24d1	2.486622
118	0x404e4bba	3.223372
119	0x4016527b	2.3487842

bn1.bias f4 [120]
0	0xc0112d1b	-2.268378
1	0xc006d5b9	-2.1067946
2	0x3e739510	0.23787332
3	0xbedefce7	-0.43552324
4	0xbe3db63f	-0.18526553
5	0x3f946cf9	1.1595756
6	0xbf969bc3	-1.1766285
7	0xbe9bbf05	-0.30419174
8	0x3ef2c910	0.47419024
9	0xbe6d7eb1	-0.2319286
10	0x3cfb241e	0.03065687
11	0x401042fe	2.2540889
12	0x3fceabc2	1.6146166
13	0x3f86e9b6	1.0540073
14	0x3dd01f0f	0.10162174
15	0xbfc550d4	-1.5415292
16	0xbef231c9	-0.47303608
17	0x3f3ee8ab	0.74573773
18	0xbfd89bf8	-1.6922598
19	0x3f0a1300	0.5393524
20	0xbf5754c6	-0.8411373
21	0x3e3a4a68	0.18192446
22	0xbcb345a7	-0.021883799
23	0x3f84e235	1.0381533
24	0x3fdc070d	1.7189652
25	0x3fd7c0c5	1.6855704
26	0x3fd404a5	1.6563917
27	0x3de5c3e2	0.11219002
28	0xbf2b78ed	-0.66981393
29	0xbf965dd3	-1.1747383
30	0xbf44b05a	-0.7683159
31	0x3fb2cefa	1.3969414
32	0x3ea623c2	0.32449156
33	0xbfd9117a	-1.6958458
34	0x3e33cf8b	0.1755964
35	0xbf98919a	-1.1919434
36	0xbd046e7b	-0.032331925
37	0x3fcbdb08	1.5926218
38	0xbfd586c8	-1.6681757
39	0xbd822989	-0.063555785
40	0x40124a51	2.285786
41	0xbf929580	-1.1451874
42	0x3f3936df	0.7234935
43	0xbfe6d457	-1.8033551
44	0x3feec52e	1.8653924
45	0xbfcad027	-1.5844773
46	0xbea79ec5	-0.3273832
47	0xbe782996	-0.24234614
48	0x3fcb5929	1.5886585
49	0xbed597c3	-0.41717348
50	0x3ec67720	0.3876276
51	0x3ff8230f	1.9385699
52	0xbe10fd36	-0.14159092
53	0x3f26a4c3	0.65095156
54	0x3eac977d	0.33709326
55	0x3f820479	1.0157615
56	0xbe8f6df1	-0.28013566
57	0xbfc8cb2a	-1.5687001
58	0x3fc41dbe	1.5321577
59	0x3e2ed105	0.17071922
60	0x3f65c9ea	0.8976122
61	0xbd31a6a6	-0.04337182
62	0xbee04508	-0.43802667
63	0x3eed967c	0.46403873
64	0x401d25ab	2.455424
65	0xbf5d4c58	-0.86444616
66	0x3e7a523c	0.24445432
67	0xbe854c51	-0.26034787
68	0x3fc369b2	1.5266631
69	0x3d2635d3	0.040578675
70	0xbd9a1167	-0.075228505
71	0x3fdb24d5	1.7120615
72	0x401420ca	2.3145013
73	0x3f75d147	0.96022457
74	0x3f104674	0.563575
75	0xbfb10521	-1.382969
76	0xbfa521b3	-1.2900909
77	0xbf918a56	-1.1370342
78	0xc00a74ff	-2.1633909
79	0xbeebb054	-0.46032965
80	0xbe64431f	-0.2229123
81	0xbeab1f54	-0.3342234
82	0x3f58d14f	0.8469438
83	0xc031399c	-2.7691412
84	0x3e1a1e3e	0.15050599
85	0x3ffa9bdb	1.9578813
86	0x3eb7afde	0.35876364
87	0x3f0e04da	0.5547615
88	0xbf0325e2	-0.5122968
89	0xbe955056	-0.29162854
90	0xbe3181d3	-0.1733468
91	0xbe086e6b	-0.13323371
92	0xbea6d859	-0.32586935
93	0xbf309bdd	-0.6898783
94	0xbfa454cd	-1.2838379
95	0x3e72d2b6	0.23713192
96	0x3f97fca9	1.1873981
97	0x3f3f917c	0.74831367
98	0x3f160567	0.58601993
99	0x401666c8	2.3500233
100	0xc0156040	-2.3339996
101	0x3ffb5595	1.9635493
102	0xbf438689	-0.7637716
103	0x3fe79b0e	1.8094194
104	0x3f9b3fca	1.2128842
105	0x3f8a73f5	1.0816637
106	0x3ff0e731	1.8820554
107	0x3f23c6eb	0.639754
108	0xbed8803f	-0.42285344
109	0xbf2cc39a	-0.67485964
110	0x3e62253a	0.22084513
111	0xbf5df621	-0.8670369
112	0x3ebd3148	0.3695166
113	0xbc807dae	-0.015684929
114	0x4023e5f5	2.5609105
115	0x3f458d17	0.7716841
116	0xbe9c6c99	-0.30551603
117	0x3fd16a58	1.6360579
118	0x3ee012e3	0.4376441
119	0xbe5a2ddc	-0.21306556

bn1.running_mean f4 [120]
0	0xbcd461ba	-0.025925506
1	0xbd4427e8	-0.04788962
2	0xbdfc9c1c	-0.12334463
3	0x3da3224e	0.079655275
4	0x3db87aab	0.09007772
5	0xbdd68bf1	-0.104759105
6	0xbdf655d4	-0.12028089
7	0xbe34aa23	-0.17643027
8	0xbcc5034c	-0.024049424
9	0xbd7f0d99	-0.062268827
10	0x3dc616b2	0.096722975
11	0xbde23730	-0.110456824
12	0x3e08bae8	0.13352549
13	0x3d02284b	0.031776708
14	0x3c02d554	0.007985432
15	0xbd8d5e65	-0.0690277
16	0x3da99730	0.0828079
17	0x3de439b1	0.11143816
18	0x3d8ac8f0	0.06776607
19	0xbc6a0d4c	-0.014285397
20	0x3d9ebf36	0.07751314
21	0xbdff6142	-0.12469722
22	0xbdd7ad5e	-0.10531114
23	0xbb6784a8	-0.0035326872
24	0x3e41a6f4	0.18911344
25	0xbdfae244	-0.12250188
26	0x3d897aae	0.067128524
27	0x3dba71d2	0.09103741
28	0xbdc98b3f	-0.09841012
29	0x3dda4262	0.10657193
30	0x3d233bc0	0.039851904
31	0x3d17e6d1	0.037085358
32	0xbdfd7353	-0.12375512
33	0xbdc065d5	-0.09394423
34	0xbd937e3b	-0.07201811
35	0xbe6d0f8d	-0.23150463
36	0x3db3e667	0.0878418
37	0x3dbb0078	0.09130949
38	0xbc45f1e5	-0.012081598
39	0xbd86a45e	-0.06574319
40	0xbd734d72	-0.05940003
41	0xbdc0f923	-0.09422519
42	0x3d067022	0.032821782
43	0xbdde0f29	-0.10842735
44	0x3e0f26d2	0.13979653
45	0x3d3650c7	0.04451063
46	0xbdd974ee	-0.10618006
47	0x3da785b9	0.081798024
48	0xbd85d13e	-0.065340504
49	0xbd26cb03	-0.04072095
50	0x3e1d3292	0.15351322
51	0xbdcba687	-0.09943872
52	0x3ddb3056	0.10702579
53	0x3d236877	0.039894547
54	0x3e0aff74	0.1357401
55	0xbd55e56b	-0.052220743
56	0xbd9ad30d	-0.07559786
57	0xbe01b48e	-0.12666532
58	0x3d600ea3	0.05470146
59	0xbbd2326a	-0.006414701
60	0xbdbf7ad1	-0.09349597
61	0x3cafb308	0.021447673
62	0x3da4fa5f	0.08055567
63	0x3e22d489	0.15901388
64	0xbdcab624	-0.09898022
65	0xbc4c6a5c	-0.01247653
66	0xbd1e584b	-0.03865842
67	0xbd0a5db8	-0.033780783
68	0x3e2310fa	0.15924445
69	0xbda15938	-0.07878345
70	0xbdd175b8	-0.10227531
71	0x3c47b84c	0.012189936
72	0xbd56dfdd	-0.052459586
73	0x3d7ac9fd	0.061227787
74	0x3da3c3dc	0.079963416
75	0xbd99158e	-0.07474814
76	0xbda36ee1	-0.07980133
77	0xbdf781e6	-0.12085323
78	0x3d58dc40	0.05294442
79	0xbe1c6b4a	-0.15275303
80	0x3db6184a	0.088913515
81	0xbd4da274	-0.050203755
82	0xbddd78e9	-0.108140774
83	0x3d7ee79e	0.062232606
84	0x3c818430	0.015810102
85	0x3dc4e1ac	0.09613356
86	0xbda9c8cc	-0.08290252
87	0x3d214839	0.039375518
88	0x3e061784	0.13094908
89	0x3bceb09c	0.0063076746
90	0xbcc8f708	-0.024531856
91	0x3da7f167	0.08200341
92	0xbe06ea6a	-0.1317536
93	0x3d8224dd	0.06354687
94	0xbe06049b	-0.13087694
95	0x3cbd5008	0.023109451
96	0x3d284d13	0.04108913
97	0xbce9cd3e	-0.02854025
98	0xbc116bc8	-0.008875795
99	0xbe1b6589	-0.15175451
100	0xbe0ffda8	-0.14061606
101	0xbd9d0b07	-0.07668119
102	0x3e0da400	0.13832092
103	0x3d9d327c	0.07675645
104	0x3cb7dbe6	0.022443723
105	0x3d3d3df4	0.04620166
106	0x3deef3a0	0.116675615
107	0x3d3d941a	0.04628382
108	0xbde21dd1	-0.11040843
109	0x3c4ff6a4	0.012693081
110	0x3c5379aa	0.012907425
111	0x3da0afe1	0.07846046
112	0x3e057ed0	0.13036656
113	0x3c597d59	0.013274514
114	0xbdcf4329	-0.10120232
115	0x3e024f6b	0.12725608
116	0xbdbe2476	-0.09284298
117	0x3d780a6e	0.06055682
118	0xbe225f3d	-0.15856643
119	0xbe14d333	-0.14533691

bn1.running_var f4 [120]
0	0x40534db7	3.3016183
1	0x40512cda	3.2683625
2	0x401a5c53	2.411885
3	0x40230abf	2.547531
4	0x4041795e	3.0230327
5	0x40519e51	3.2752879
6	0x4002aca7	2.0417879
7	0x4016e991	2.3580058
8	0x402f5e1a	2.7401185
9	0x40060c7b	2.0945117
10	0x402623f9	2.5959456
11	0x40e23695	7.069163
12	0x41157fe6	9.343725
13	0x411b7255	9.715413
14	0x401ba632	2.4320188
15	0x4041242c	3.0178328
16	0x400e46c3	2.223069
17	0x3fcb8e7c	1.5902858
18	0x40837688	4.108219
19	0x400fc003	2.2460945
20	0x4007663e	2.1156154
21	0x403ce5d8	2.9515285
22	0x4014cd66	2.3250365
23	0x4025b470	2.589138
24	0x40ed26e8	7.4109993
25	0x407c773f	3.9447782
26	0x4093546a	4.6040545
27	0x4083378a	4.1005297
28	0x40571ab5	3.361005
29	0x40102fa9	2.252909
30	0x4038aeb3	2.8856628
31	0x403b9cef	2.9314535
32	0x4024457c	2.566741
33	0x40474ce2	3.1140676
34	0x401511e3	2.3292167
35	0x415df71e	13.872831
36	0x403dd1d2	2.9659314
37	0x41299b3c	10.600399
38	0x40a1125c	5.033491
39	0x401e3c0e	2.4724154
40	0x406307a7	3.547342
41	0x404cd90c	3.2007475
42	0x404d210a	3.2051415
43	0x40697ec7	3.6483629
44	0x40d383ef	6.609855
45	0x400c6041	2.1933749
46	0x4035ac58	2.838644
47	0x4046ce0c	3.106326
48	0x40e84815	7.258799
49	0x403eae08	2.979372
50	0x404225e6	3.0335631
51	0x40c8219f	6.254104
52	0x40762383	3.8459175
53	0x40246315	2.5685475
54	0x3ff54d9b	1.9164308
55	0x40361641	2.8451083
56	0x401d8e5e	2.4618144
57	0x40874177	4.2267413
58	0x40b7de60	5.7458954
59	0x4009c8b1	2.1528742
60	0x403a446f	2.9104269
61	0x401220a8	2.2832432
62	0x402f5ed3	2.7401626
63	0x40183e09	2.3787863
64	0x4020b787	2.5112016
65	0x4036bb0d	2.8551667
66	0x40166706	2.350038
67	0x403caa5f	2.9478986
68	0x416782d9	14.469445
69	0x40407b2d	3.007518
70	0x40010bce	2.0163455
71	0x408737e6	4.2255735
72	0x408d11b8	4.408413
73	0x401de92e	2.4673572
74	0x4036bd7e	2.8553157
75	0x3ff9e4f3	1.9522995
76	0x400a061f	2.1566236
77	0x3ff8f18d	1.9448715
78	0x403aa870	2.9165306
79	0x401a1655	2.407613
80	0x40140ebc	2.3133993
81	0x404a2f8c	3.159152
82	0x401c6f2f	2.444286
83	0x4128e65e	10.556242
84	0x400ec604	2.230836
85	0x4098ec02	4.7788095
86	0x402912ea	2.6417794
87	0x40670566	3.6097045
88	0x40280ccb	2.6257808
89	0x402569c9	2.5845816
90	0x400cb55a	2.1985688
91	0x404172c9	3.022631
92	0x400deba6	2.2175078
93	0x40308512	2.758122
94	0x40dcdf81	6.902283
95	0x401b5859	2.4272673
96	0x414b6d02	12.714113
97	0x4013cadc	2.3092566
98	0x401f89b0	2.4927788
99	0x407a5daa	3.9119668
100	0x40ccb329	6.39687
101	0x40a43ea1	5.132645
102	0x402a30af	2.6592214
103	0x40cd6dca	6.419652
104	0x401f0cb3	2.48515
105	0x4043d668	3.0599613
106	0x4016cb87	2.3561723
107	0x408bcb33	4.3685546
108	0x402f3682	2.737702
109	0x4008d6a1	2.1381
110	0x400bd4db	2.1848667
111	0x40240699	2.5629027
112	0x402924c0	2.642868
113	0x4019207f	2.3926084
114	0x410bdc11	8.741227
115	0x40127f06	2.289003
116	0x401c80a7	2.4453523
117	0x40cc5635	6.3855233
118	0x4020fada	2.5153108
119	0x4000c04e	2.0117373

fc2.weight f4 [100, 120]
0	0x3e86ba66	0.26314086
1	0xbea66e26	-0.32505912
2	0x3de4d39d	0.111731745
3	0x3de5fb87	0.11229616
4	0x3e0bedd1	0.13664939
5	0x3dfc69dd	0.12324879
6	0x3dc67f74	0.096922785
7	0xbd9aa1d4	-0.075503975
8	0xbdee0e04	-0.11623767
9	0x3dc7af88	0.09750277
10	0xbe9775d4	-0.29582083
11	0xbca93618	-0.020655677
12	0x3db56221	0.08856607
13	0xbd247d44	-0.040158525
14	0xbf05da4d	-0.52286226
15	0x3e71c8eb	0.236118
16	0x3dc31225	0.09524945
17	0xbd9e6da9	-0.0773576
18	0xbc6128b7	-0.013742617
19	0xbd4b0bc8	-0.049571782
20	0xbddd1ff7	-0.107971124
21	0x3e8423a8	0.25808454
22	0xbc51125b	-0.012760724
23	0x3e0e385e	0.1388869
24	0x3e2da7dc	0.16958565
25	0xbdd43f7e	-0.10363673
26	0x3d67de4f	0.056608494
27	0xbe1abd3f	-0.15111254
28	0x3e217830	0.15768504
29	0xbcfb5256	-0.03067891
30	0x3e20743b	0.15669338
31	0x3daf399f	0.08555912
32	0x3e641ab0	0.22275805
33	0xbab67e55	-0.0013923148
34	0x3df43872	0.119248286
35	0x3e7154d2	0.23567513
36	0xbcb3a252	-0.021927986
37	0x3f1a17b4	0.6019242
38	0xbc74da82	-0.014944674
39	0xbd426019	-0.047454927
40	0xbd57fb60	-0.052729964
41	0xbdee73ee	-0.116432056
42	0x3de593b1	0.112098105
43	0x3da7de10	0.08196652
44	0x3eae91fc	0.34095752
45	0xbe757d24	-0.23973519
46	0xbd91a04a	-0.07110651
47	0xbdceadd0	-0.10091746
48	0xbd8bb224	-0.06821087
49	0xbd565b3c	-0.0523331
50	0x3b560201	0.0032655003
51	0xbc976ef2	-0.01848552
52	0x3e48776b	0.19576804
53	0xbd8913b8	-0.06693214
54	0x3e2d786d	0.1694047
55	0xbda17655	-0.07883898
56	0xbd309bf9	-0.043117497
57	0xbe42cda2	-0.19023755
58	0x3dd77e6d	0.10522161
59	0xbbede62c	-0.0072601046
60	0x3e008e34	0.12554246
61	0x3e1f9e9c	0.15587848
62	0xbc3e8c1e	-0.011630086
63	0xbdaf0eaf	-0.085477225
64	0x3e13d025	0.1443487
65	0x3c69b6b3	0.01426475
66	0xbe43c292	-0.19117191
67	0x3bd03e0f	0.006355054
68	0x3e9a3310	0.30117083
69	0x3e94f9d0	0.29096842
70	0x3ed6bb90	0.41939974
71	0x3e192bed	0.14958163
72	0xbe67aa48	-0.22623551
73	0xbecd55d1	-0.40104535
74	0xbc7650e4	-0.015033934
75	0x3e24b247	0.16083632
76	0xbe0e3e0a	-0.13890854
77	0x3e79f639	0.24410333
78	0xbea61324	-0.32436478
79	0x3d7b118d	0.061296035
80	0x3c02a0df	0.007972925
81	0xbb8fa5f1	-0.0043837954
82	0xbe0d352b	-0.13789813
83	0x3e8aab3d	0.2708377
84	0x3d56c3cc	0.05243282
85	0x3e891737	0.26775524
86	0x3e3c58e6	0.18393287
87	0x3e860f85	0.26183715
88	0x3dea4480	0.114388466
89	0xbdc1f0f5	-0.09469787
90	0xbd127f24	-0.035765782
91	0xbd2ddc9a	-0.04244671
92	0xbe297d4c	-0.16551703
93	0xbde104fe	-0.1098728
94	0xbe612e29	-0.21990265
95	0xbd64146f	-0.05568355
96	0xbe646990	-0.22305894
97	0x3e5b0c4b	0.21391408
98	0xbdc33069	-0.09530718
99	0xbd9656a1	-0.07340742
100	0x3ccd8500	0.025087833
101	0xbe1f9efc	-0.15587991
102	0x3be6b39e	0.007040455
103	0x3e83f5b1	0.25773385
104	0xbde4d5cc	-0.11173591
105	0x3de6b09e	0.11264156
106	0x3d7fa416	0.062412344
107	0x3d9cd1a7	0.076571755
108	0xbd60649d	-0.054783452
109	0xbde06e11	-0.109584935
110	0x3e51690a	0.20450225
111	0x3eab4821	0.33453467
112	0xbd9354d7	-0.07193916
113	0xbdde642a	-0.108589485
114	0xbb8bf5b7	-0.004271235
115	0x3df26707	0.11836057
116	0x3d0232ff	0.031786915
117	0x3e9020bb	0.2814997
118	0xbd7fb0f1	-0.062424604
119	0x3dad9c3a	0.084770635
120	0xbfc85e36	-1.5653751
121	0xbcb2fd5d	-0.021849329
122	0x3a84468b	0.0010091824
123	0x3cae346e	0.021265235
124	0x3dba5e02	0.09099962
125	0xbba83dad	-0.0051343055
126	0x3da9046d	0.08252797
127	0xbc620df5	-0.013797273
128	0x3e900980	0.28132248
129	0xbdb8f147	-0.09030395
130	0x3d0efe35	0.0349104
131	0xbdb6ae96	-0.089200184
132	0xbd08bbd6	-0.03338226
133	0xbce26126	-0.027634215
134	0x3e997cb0	0.29977942
135	0x3dec74bc	0.11545703
136	0xbdca098b	-0.098651014
137	0x3cb914f9	0.022593008
138	0x3da2339b	0.07919999
139	0xbcbd6e21	-0.023123803
140	0x3d5c3afc	0.05376719
141	0x3b72f86b	0.0037074338
142	0x3cf85e97	0.030318541
143	0xbe13a60a	-0.14418808
144	0xbc2fca84	-0.010729436
145	0xbd77ffa6	-0.06054654
146	0xbcfa62e6	-0.030564737
147	0xbe3e8e89	-0.1860906
148	0xbdf6c9bd	-0.12050197
149	0xbeac381c	-0.33636558
150	0xbcfda547	-0.0309626
151	0x3e3a3abf	0.18186472
152	0x3d9ce840	0.07661486
153	0xbe213208	-0.15741742
154	0xbdcd2d7f	-0.10018443
155	0x3ca30dc4	0.019904025
156	0xbda14958	-0.07875317
157	0x3decdbe6	0.1156538
158	0xbd13e25b	-0.03610454
159	0xbd72abc8	-0.059245855
160	0x3d9cfbb8	0.07665199
161	0xbad7638c	-0.0016432866
162	0x3e131210	0.14362359
163	0xbe21a128	-0.15784132
164	0x3d55a3a9	0.05215803
165	0xbd225e7f	-0.0396409
166	0xbd550fe7	-0.05201712
167	0x3e1e49e6	0.15457878
168	0xbd9a7925	-0.07542638
169	0x3d641655	0.05568536
170	0x3ddf2fd6	0.10897796
171	0xbc83c08a	-0.01608302
172	0xbdecced7	-0.11562889
173	0x3dbccc7e	0.09218691
174	0x3d109eb5	0.035307605
175	0xbdb55b22	-0.08855273
176	0xbe7e04d8	-0.24806535
177	0xbd4f0eff	-0.05055141
178	0x3c8cd4c3	0.017191296
179	0x3d28769e	0.041128747
180	0xbdfd1f5f	-0.12359499
181	0x3e3cdfa0	0.18444681
182	0x3d4b5923	0.049645554
183	0x3e9b9042	0.30383497
184	0xbd19c62d	-0.03754251
185	0xbd093857	-0.033500995
186	0x3dc192a2	0.09451796
187	0x3d867cb9	0.06566758
188	0x3c83caf0	0.01608798
189	0x3ddd99f8	0.10820383
190	0xbe82683c	-0.2547015
191	0x3d0965c7	0.033544328
192	0x3b76cffe	0.0037660594
193	0x3e39981f	0.18124436
194	0x3de57fcb	0.11206015
195	0xbf82affd	-1.0209957
196	0xbcf64ccd	-0.030065918
197	0xbdd3e32d	-0.10346065
198	0xbed64de0	-0.4185629
199	0x3ea617e7	0.3244011
200	0x3df4fbc7	0.11962085
201	0x3d2bfe7f	0.041990753
202	0x3e33d763	0.17562632
203	0x3d7a232d	0.061068702
204	0xbdd1c468	-0.1024254
205	0xbc6ebb8b	-0.014571081
206	0x3d1a1972	0.037621923
207	0xbe86a3c2	-0.26296812
208	0xbd882569	-0.066477604
209	0x3c559b0a	0.0130374525
210	0x3e4e6bbd	0.20158286
211	0x3e19fa33	0.1503685
212	0x3efd1afe	0.49434656
213	0x3e67a08e	0.2261984
214	0xbafd4be7	-0.0019324989
215	0x3dd3dd08	0.10344893
216	0xbd4999e1	-0.049219016
217	0x3e2c30e0	0.1681552
218	0x3d995f52	0.07488884
219	0xbd1036c0	-0.035208464
220	0x3d49b21a	0.049242117
221	0x3da1b19d	0.07895205
222	0xbead80bb	-0.33887276
223	0xbcc46354	-0.023973145
224	0x3dc7635e	0.0973575
225	0x3d9d0aa0	0.07668042
226	0x3de8f47b	0.11374756
227	0x3d03a28d	0.032137442
228	0x3e84d200	0.25941467
229	0x3ea66048	0.32495332
230	0x3ca290e4	0.01984448
231	0xbe2bd79e	-0.1678147
232	0x3cab76a2	0.020930592
233	0xbe6562fd	-0.22401042
234	0xbd0d6a60	-0.034525275
235	0x3e144b6c	0.14481896
236	0x3d6875b7	0.056752887
237	0xbdd0d6af	-0.10197198
238	0xbda94414	-0.08264938
239	0x3dabb7d8	0.08384675
240	0x3e4d77f9	0.20065297
241	0xbd49820c	-0.049196288
242	0x3d7fa910	0.06241709
243	0xbe8c6412	-0.27420098
244	0x3e2bdb8b	0.16782968
245	0x3d8aa34e	0.06769429
246	0x3e22ea5b	0.15909712
247	0xbd8e4c68	-0.06948167
248	0x3c96a2c5	0.018388161
249	0xbd7d8a11	-0.06189925
250	0xbdce2502	-0.100656524
251	0x3ee43aa8	0.44576
252	0x3c0bc745	0.008531396
253	0xbd567c08	-0.05236438
254	0xbd459827	-0.048240807
255	0x3d8390d7	0.064241104

fc2.bias f4 [100]
0	0xbd325ac7	-0.043543603
1	0x3c6b8ec6	0.014377302
2	0x3d93f4e1	0.07224441
3	0x3c931182	0.017952684
4	0x3d65da8f	0.056116637
5	0xbd97f655	-0.07420031
6	0x3cb4a749	0.022052424
7	0xbd7899d5	-0.06069358
8	0xbd7df165	-0.06199779
9	0xbd905ff7	-0.07049554
10	0xbd07bc6f	-0.03313869
11	0x3d0f6b30	0.03501433
12	0xbcb065a7	-0.021532847
13	0xbd0ca31d	-0.034335244
14	0x3d959918	0.07304591
15	0xbd871329	-0.065954514
16	0x3d51e8e7	0.051247504
17	0xbd513572	-0.05107636
18	0xbdb9aa6d	-0.09065709
19	0xbc0f1fa7	-0.008735574
20	0x3db74ef5	0.08950607
21	0xbc2d1c34	-0.010565806
22	0xbca830c7	-0.020531071
23	0xbc45060e	-0.012025369
24	0xbcec3096	-0.028831761
25	0x3d31aba4	0.04337658
26	0x3dbb7a45	0.091541804
27	0x3d734c6d	0.059399057
28	0x3bb9c4d4	0.0056692157
29	0x3c992072	0.018692229
30	0xbba3c23a	-0.004997519
31	0x3d0eb4c5	0.034840364
32	0x3d773ae4	0.060358897
33	0x3d83f471	0.06443108
34	0x3d84a264	0.06476286
35	0xbc767ce8	-0.015044428
36	0xbdb2f046	-0.08737235
37	0xbb99b6c3	-0.0046909763
38	0x3ccef6c5	0.025264153
39	0xbdab22a5	-0.08356217
40	0xbcaaafd0	-0.020835787
41	0x3d0eb705	0.03484251
42	0xbd6f986f	-0.05849498
43	0x3c27dfad	0.0102462
44	0xbdad6cb6	-0.084680006
45	0xbd52f252	-0.051500626
46	0xbd10b967	-0.035333063
47	0xbd9f047d	-0.07764528
48	0xbd1ad11d	-0.037797082
49	0xbd76da7d	-0.06026696
50	0x3d85053f	0.06495141
51	0xbbf7016c	-0.0075380113
52	0x3d2fc1c5	0.042909402
53	0x3c873160	0.016503036
54	0x3b8dd54a	0.0043284046
55	0x3db61b6a	0.088919476
56	0x3d64141b	0.055683237
57	0xbd18acf9	-0.037274335
58	0xbdb7dd81	-0.089777954
59	0xbc54c592	-0.012986558
60	0x3d191c55	0.037380535
61	0x3d36f836	0.044670306
62	0x3d854789	0.06507785
63	0xbcd7dc35	-0.02635012
64	0xbcec3ae8	-0.028836682
65	0xbc112445	-0.008858745
66	0xbd84c5dc	-0.06483051
67	0x3d306424	0.04306425
68	0x3d766617	0.060155954
69	0x3c0fe9de	0.008783786
70	0x3cde15e3	0.027110046
71	0x3da10a90	0.07863343
72	0x3c8e3ef2	0.017363999
73	0xbd48fe40	-0.049070597
74	0x3d4b26f8	0.04959771
75	0x3dafcd0d	0.08584032
76	0x3b15ea8b	0.0022875394
77	0x3d3114d6	0.04323276
78	0xbda4b42f	-0.0804218
79	0x3cddb9ad	0.027066076
80	0x3d3e6e25	0.04649176
81	0x3d598994	0.05310972
82	0x3db14430	0.08655584
83	0x3d0defa6	0.034652375
84	0xbd898252	-0.0671431
85	0xbcb1aa58	-0.021687672
86	0x3ce06ea5	0.02739651
87	0xbdabe1b1	-0.083926566
88	0xbd3b56d1	-0.04573709
89	0x3d2bed8c	0.04197459
90	0x3d996eff	0.07491874
91	0x3d8910e0	0.06692672
92	0xbd94ab76	-0.07259266
93	0xbd6e8de7	-0.058240797
94	0xbd0d1297	-0.034441557
95	0x3d37439c	0.04474221
96	0x3d67b052	0.056564637
97	0xbd3d8a99	-0.046274755
98	0xbbda55ae	-0.006663046
99	0xbc944418	-0.018098876

bn2.weight f4 [100]
0	0x3e90ef99	0.28307799
1	0x3fa19e57	1.2626446
2	0x3e5ff460	0.21870565
3	0x3e2ae835	0.16690142
4	0x3e160a0c	0.1465227
5	0x3e15e079	0.14636411
6	0x3e62d566	0.22151718
7	0x3d545f2d	0.05184858
8	0x3e110ddc	0.14165443
9	0x3fd84d80	1.6898651
10	0x3e06151a	0.13093987
11	0x3e0d5e4a	0.138055
12	0x3e8bbfc0	0.2729473
13	0x4000a6ee	2.0101886
14	0x3c3476cb	0.011014651
15	0x3eed9065	0.46399227
16	0x3ff3625d	1.9014393
17	0x3f73cb55	0.95232135
18	0x3fcc8bf9	1.5980216
19	0x3e93ce86	0.28868502
20	0x3f987dbd	1.1913372
21	0x3deb1882	0.11479284
22	0x3e506b62	0.20353463
23	0x3e51ecbe	0.20500466
24	0x3e505349	0.20344271
25	0x3fded04b	1.7407316
26	0x3e31bc0a	0.17356887
27	0x3e43a6a1	0.19106533
28	0x3fc2c637	1.521674
29	0x3fea9857	1.832774
30	0x3e2be10b	0.16785066
31	0x3fceb855	1.6150004
32	0x3d858613	0.06519713
33	0x3d996660	0.074902296
34	0x3e655df3	0.2239912
35	0x3e17f9fb	0.14841454
36	0x3fef4f73	1.8696121
37	0xbda07592	-0.07834925
38	0x3f000c9d	0.50019246
39	0x3ffeeada	1.9915421
40	0x3dccb383	0.09995177
41	0x3f5b280f	0.85608
42	0x3ebab93c	0.36469448
43	0x3f01eea0	0.5075474
44	0x3e9064a2	0.28201777
45	0x3e87ba00	0.26509094
46	0x3fd475eb	1.6598486
47	0x3f98ce87	1.1938027
48	0x3ed7a856	0.42120618
49	0x3df597d9	0.11991853
50	0x3e36fd3b	0.17870037
51	0x3e537783	0.20651059
52	0x3fa1c9bd	1.2639691
53	0x3ffb0f0e	1.9613969
54	0x3dff69b6	0.12471335
55	0xbab2f6cf	-0.0013653877
56	0x4002337c	2.0343924
57	0x3e99183b	0.299013
58	0x3df2929b	0.11844369
59	0x3fdd7958	1.7302656
60	0x3dbb9bd1	0.09160579
61	0x3ea81bd2	0.32833725
62	0xbd1bea53	-0.038065266
63	0x3e0c8d78	0.13725841
64	0x3e4e3d77	0.20140634
65	0x3fc74c94	1.5570245
66	0x3ff5de5d	1.9208485
67	0x3f9db2ca	1.2320187
68	0x3efd342d	0.4945387
69	0x3ed1e4f4	0.4099499
70	0x3ff2c0a5	1.896504
71	0x3ee71ce2	0.45139223
72	0x3da8e6b4	0.08247128
73	0x3f62538a	0.8840872
74	0x3ff2ee5b	1.897899
75	0x3dfb0ae4	0.122579366
76	0x3fc39f06	1.5282905
77	0x3fec75dc	1.8473468
78	0x4002a200	2.0411377
79	0x3d87f298	0.06638068
80	0x3e8fa579	0.28055933
81	0x3e22d2da	0.15900746
82	0x3de81cd0	0.113336205
83	0x3d9dacfb	0.07699009
84	0x3e023663	0.1271606
85	0x3db2e00c	0.0873414
86	0x400a5ab7	2.1617868
87	0x3c909b9f	0.01765233
88	0x3d81d077	0.0633859
89	0x3e1c1546	0.1524249
90	0x3e5c7871	0.2153032
91	0x3fc24d09	1.5179759
92	0x3fe6b25c	1.8023181
93	0x4003971b	2.0560977
94	0x3ff3d2cb	1.9048704
95	0x3e2a96e7	0.16659127
96	0x3dfd06ff	0.1235485
97	0x3e2f5978	0.17123973
98	0x3e1194d9	0.14216937
99	0x3e0d20cb	0.13782041

bn2.bias f4 [100]
0	0xbd8d99d1	-0.06914104
1	0x3f65f14e	0.89821327
2	0x3e537379	0.20649518
3	0x3c977f98	0.018493459
4	0x3d696f79	0.056991074
5	0xbddaf63c	-0.10691497
6	0xbdbaaf28	-0.0911544
7	0xbe03250e	-0.12807104
8	0xbc693935	-0.014234831
9	0xbf9f3281	-1.2437288
10	0xbd5ca23f	-0.053865667
11	0x3cbce170	0.023056716
12	0x3c74fd3d	0.014952955
13	0xbfb98d7c	-1.4496303
14	0x3e126713	0.14297132
15	0xbe17bf29	-0.14819016
16	0xbfa31b56	-1.2742717
17	0x3f0fbb86	0.56145513
18	0xbfa30b76	-1.2737873
19	0x3db2f8b2	0.08738841
20	0xbf58e2f9	-0.8472133
21	0x3c8c01ed	0.017090762
22	0x3d2a4375	0.04156824
23	0xbe0d6e90	-0.13811707
24	0x3c92195f	0.017834364
25	0x3f986d9f	1.1908454
26	0xbd87bc7d	-0.06627748
27	0xbcfa5b16	-0.030561011
28	0xbf858eff	-1.0434264
29	0x3fa4fdee	1.2889993
30	0xbca76bbc	-0.020437114
31	0x3f920542	1.1407855
32	0xbdb79d59	-0.089655586
33	0xbe037728	-0.12838423
34	0xbbce4622	-0.0062949816
35	0xbd857ad2	-0.06517567
36	0x3fa286a9	1.2697345
37	0xbd8cf70a	-0.068830565
38	0xbd40d349	-0.047076497
39	0xbfbc397c	-1.4705043
40	0xbe24556e	-0.16048214
41	0xbf1f7a2d	-0.622958
42	0xbe074426	-0.1320959
43	0x3e094947	0.1340686
44	0x3c0276cd	0.007962895
45	0x3c31b353	0.010845977
46	0x3fa351bb	1.2759317
47	0x3f64033c	0.89067435
48	0x3e3f0910	0.18655801
49	0xbd0d698b	-0.03452448
50	0xbe0a6201	-0.13513948
51	0xbda6bb2c	-0.08141169
52	0xbf850ce1	-1.0394555
53	0x3fb0e16b	1.3818792
54	0xbd69645f	-0.056980487
55	0xbe2198b7	-0.15780912
56	0x3fb18c06	1.3870857
57	0xbd6d6189	-0.057954345
58	0x3c634c99	0.013873243
59	0x3fa1a8d6	1.262965
60	0x3cbdc310	0.023164302
61	0xbc66290b	-0.014047871
62	0x3d9f2609	0.077709265
63	0x3bfc0efd	0.0076922164
64	0xbcc6cc1c	-0.024267249
65	0x3f8a9fb4	1.0829988
66	0xbfa4c6d6	-1.287318
67	0xbf800af3	-1.0003341
68	0xbec007d7	-0.3750598
69	0x3e54f8df	0.20798062
70	0xbfae0a74	-1.359694
71	0x3e287d7f	0.16454123
72	0xbda02fd0	-0.078216195
73	0x3ed030bc	0.4066218
74	0xbfa5a21e	-1.2940099
75	0xbda4b931	-0.08043135
76	0xbf833c71	-1.025282
77	0x3facaaad	1.3489586
78	0x3faee579	1.366378
79	0x3dfa594f	0.122240655
80	0xbde9d467	-0.11417466
81	0xbdae2680	-0.08503437
82	0xbdec3cad	-0.115350105
83	0x3c12b3da	0.008954013
84	0xbd392226	-0.045198582
85	0xbd189966	-0.037255667
86	0x3fb54868	1.4162722
87	0xbd313196	-0.04326018
88	0x3ce72701	0.02821684
89	0x3dfff73d	0.12498329
90	0xbcd3dfe0	-0.025863588
91	0xbf88be1e	-1.0683019
92	0x3fa622c8	1.2979364
93	0x3fad8362	1.355572
94	0xbfa69742	-1.301491
95	0x3cccbfbc	0.02499377
96	0xbd99e54d	-0.07514439
97	0x3e1c26b8	0.15249145
98	0x3d063bf5	0.032772023
99	0xbe59a3e2	-0.21253923

bn2.running_mean f4 [100]
0	0x3f4e6d6a	0.806357
1	0x3fe4f5af	1.7887477
2	0x3f3649da	0.7120644
3	0xbec881e5	-0.39161602
4	0xbd31a379	-0.04336879
5	0xbd764cc1	-0.060131792
6	0x3e9dc00f	0.30810592
7	0xbd011116	-0.031510435
8	0xbe8afe60	-0.27147198
9	0xbedcc80f	-0.43121383
10	0x3f020679	0.50791126
11	0xbf289368	-0.65849924
12	0xbe5ca58b	-0.21547525
13	0xc0033a1d	-2.050422
14	0xbf2a828f	-0.66605467
15	0x3f298833	0.6622345
16	0xc00aa494	-2.166295
17	0x3f6e266e	0.9302739
18	0xbd22293e	-0.039590113
19	0xbf5e1525	-0.86751014
20	0xbfb95ff6	-1.448241
21	0xbed14289	-0.40871075
22	0x3d86cd4a	0.065821245
23	0xbe45093a	-0.19241801
24	0xbf461acf	-0.77384657
25	0x40336197	2.8028314
26	0xbd64c60a	-0.055852927
27	0x3eb8af8c	0.36071432
28	0xbfdab5e1	-1.7086755
29	0x3feb1b65	1.8367735
30	0x3f0f5545	0.55989486
31	0x3fcda7dd	1.6066853
32	0xbe9f2162	-0.31080157
33	0x3e90428a	0.28175765
34	0xbf49ac3b	-0.7877843
35	0xbdb01b34	-0.085989386
36	0x3faa5dd0	1.3309879
37	0x3f565d77	0.83736366
38	0xbf4ef965	-0.80849296
39	0xbf6a87b2	-0.91613305
40	0x3e47c08d	0.19507046
41	0xbf81d153	-1.0142006
42	0xbfcfc306	-1.6231391
43	0xbf1beee6	-0.60911405
44	0xc026058c	-2.5940886
45	0x3f513fae	0.8173779
46	0x400031be	2.003036
47	0x3f665ab0	0.8998213
48	0x3fb6ff1f	1.4296607
49	0xbdfbac60	-0.12288737
50	0xbf8e7a2e	-1.1131036
51	0x3fcecff0	1.6157207
52	0xbf2dd559	-0.6790367
53	0x3f752d40	0.9577217
54	0x3e0329c3	0.128089
55	0x3f94c382	1.1622164
56	0x4014a07d	2.3222954
57	0xbf779836	-0.9671663
58	0xbe2a681c	-0.16641277
59	0x3fe0296f	1.7512645
60	0x3dfb65c6	0.12275271
61	0xbedf8c34	-0.43661654
62	0x39c47d10	0.00037477212
63	0x3f2c1af6	0.6722864
64	0xbf2d4228	-0.6767907
65	0x3f4457f3	0.766967
66	0xbfb9b451	-1.4508153
67	0xbece53a7	-0.40298197
68	0x3e6f6767	0.23379289
69	0x3e4a285a	0.19741955
70	0xbfeb9623	-1.8405193
71	0x3df716cb	0.12064894
72	0x3dd95dc1	0.10613585
73	0x3faf3a91	1.3689748
74	0xc0086782	-2.1313176
75	0xbefef2cd	-0.49794617
76	0xbf54c1e1	-0.83108336
77	0x4007a8dc	2.1196814
78	0x3ff8252a	1.9386342
79	0x3e065f89	0.13122381
80	0xbedd8865	-0.43268123
81	0xbeb33b6c	-0.35006273
82	0x3f513ef2	0.8173667
83	0xbebc4391	-0.367703
84	0x3e91130b	0.2833484
85	0x3e7a9ea4	0.24474579
86	0x3fb96f66	1.4487121
87	0x3f4749c8	0.77846956
88	0x3db079d4	0.08616987
89	0xbf60e390	-0.8784723
90	0xbecb9198	-0.39759517
91	0xbfd85842	-1.6901934
92	0x401c515c	2.4424658
93	0x400e301d	2.2216866
94	0xc03a21cd	-2.908313
95	0x3f18a5f2	0.5962821
96	0xbea41304	-0.32045758
97	0x3e2a47cd	0.16628952
98	0x3eb925c5	0.36161628
99	0x3dbdb55a	0.09263106

bn2.running_var f4 [100]
0	0x40d1f7f4	6.5615177
1	0x4194f3d6	18.61906
2	0x40ae1d21	5.441056
3	0x4054db81	3.3258975
4	0x4083d8e9	4.1202283
5	0x404f6b69	3.2409308
6	0x4080c1a2	4.023637
7	0x40369f4a	2.8534722
8	0x4039f09f	2.9053113
9	0x4199cf77	19.226301
10	0x400e9072	2.2275662
11	0x40640e08	3.5633564
12	0x409a7f86	4.828067
13	0x41ec13d4	29.509682
14	0x40a15f4e	5.042884
15	0x41438b0e	12.221449
16	0x4195a81b	18.707083
17	0x4115b883	9.357547
18	0x41c434f7	24.525862
19	0x40a6dcbe	5.214446
20	0x417f8c99	15.971826
21	0x4067656e	3.6155658
22	0x405ad149	3.4190238
23	0x40e493a7	7.143024
24	0x402aef67	2.670862
25	0x4202aaae	32.66668
26	0x4051d30b	3.278506
27	0x4054a1c4	3.3223734
28	0x4143dd2f	12.2415
29	0x4180a0b3	16.078466
30	0x4071fc40	3.781021
31	0x41a42a9c	20.520805
32	0x407dc2c6	3.965013
33	0x40925afe	4.5736074
34	0x406103ca	3.5158563
35	0x40aefb8d	5.468207
36	0x41494a6c	12.580669
37	0x40066fe3	2.100579
38	0x40c8b9a4	6.272661
39	0x419c573d	19.542597
40	0x404fbff1	3.2460902
41	0x41173095	9.449361
42	0x40d4a466	6.645068
43	0x4097c508	4.7428017
44	0x4087eb1c	4.24745
45	0x409d86b0	4.9226913
46	0x41c2e856	24.363445
47	0x4117f954	9.498371
48	0x4103fc53	8.249103
49	0x40026776	2.0375648
50	0x408bd21b	4.3693976
51	0x406f60e9	3.74029
52	0x418053b0	16.040863
53	0x41d163df	26.173765
54	0x401001d7	2.2501123
55	0x401f0b46	2.485063
56	0x41a1d22b	20.227621
57	0x40989c97	4.769115
58	0x407180dd	3.7734902
59	0x419c0c11	19.505892
60	0x4078fead	3.8905442
61	0x40e55e79	7.1677823
62	0x4002cf58	2.0439053
63	0x4047eca6	3.1238189
64	0x4060c9ad	3.5123093
65	0x4163bdc6	14.233831
66	0x41718dc8	15.097115
67	0x4120ec01	10.057618
68	0x4107a8dc	8.478725
69	0x41012754	8.072102
70	0x4155574f	13.333816
71	0x40b7fce0	5.7496185
72	0x40148d0b	2.3211086
73	0x418736b1	16.901705
74	0x41aca07f	21.578367
75	0x40619626	3.5247893
76	0x414ae162	12.680025
77	0x418ec081	17.843996
78	0x41e1c8ea	28.223103
79	0x400e1108	2.2197895
80	0x40d33b06	6.600955
81	0x407cf4bd	3.9524376
82	0x403a4fb2	2.9111142
83	0x402e020d	2.7188752
84	0x40780d01	3.8757937
85	0x3ff50277	1.9141377
86	0x41511314	13.067158
87	0x3fe1f68d	1.7653366
88	0x3ffd6b7b	1.9798425
89	0x40707902	3.7573857
90	0x40361f89	2.8456748
91	0x4156e795	13.431539
92	0x41c3d750	24.480133
93	0x41815eae	16.17123
94	0x41b50e79	22.632067
95	0x4058f25c	3.3897924
96	0x4041baad	3.0270188
97	0x40a98545	5.2975183
98	0x3ff62334	1.9229493
99	0x40c6f52d	6.2174287

fc3.weight f4 [46, 100]
0	0xbd6324da	-0.055455066
1	0xbc2a2937	-0.010385803
2	0x3d488321	0.04895318
3	0xbd33748f	-0.04381233
4	0x3be33b42	0.0069345543
5	0xbd07be52	-0.033140488
6	0x3bd858ce	0.006602383
7	0xbdb8e453	-0.090279244
8	0xbdf2af6d	-0.11849866
9	0xbb1f3558	-0.002429327
10	0xbdf52930	-0.119707465
11	0xbd8dc8ab	-0.0692304
12	0x3c8dfc0b	0.017332098
13	0xbb284e31	-0.0025681371
14	0xbbd70b81	-0.0065626507
15	0xbd2fb72b	-0.042899292
16	0x3cc14166	0.023590755
17	0x3c0ffaf7	0.008787862
18	0x3bd901d6	0.0066225333
19	0x3dbbb67e	0.09165667
20	0xbb4f76de	-0.0031656544
21	0xbc223ee1	-0.009902687
22	0xbdc58bd5	-0.096458115
23	0xbe2fde23	-0.17174582
24	0x3c997026	0.018730234
25	0xbcb2dfd3	-0.021835243
26	0xbdf35f5b	-0.11883422
27	0xbdd2713d	-0.10275505
28	0xbc8c0ac1	-0.017094972
29	0x3c90b307	0.017663492
30	0x3c5d05ef	0.013490184
31	0x3ba31629	0.004977007
32	0x3c2e2215	0.010628243
33	0x3cddc1b5	0.027069906
34	0xbd37d71b	-0.044882875
35	0x3d9e97f9	0.0774383
36	0x3b83f774	0.0040273014
37	0xbab96ad4	-0.0014146217
38	0x3d8f2f60	0.06991458
39	0x3caf4e7b	0.021399727
40	0x3b9ac1fc	0.004722832
41	0xbd858775	-0.06519977
42	0xbdb7d12b	-0.089754425
43	0x3d1dc129	0.03851429
44	0x3cf27b54	0.029599823
45	0xbd1fe50e	-0.039036803
46	0xbb98de6c	-0.0046651866
47	0x3c419612	0.011815565
48	0x3d5cc405	0.053897876
49	0xbc9d2cae	-0.019186344
50	0xbe15ead8	-0.14640367
51	0x3bfd121c	0.007723106
52	0xbbc056c6	-0.005869719
53	0x3c45590f	0.012045159
54	0xbd8dd676	-0.06925671
55	0xbdcb90d0	-0.0993973
56	0x3c27f484	0.010251168
57	0xbe15299c	-0.14566654
58	0x3de218ad	0.11039863
59	0x3c41c3d8	0.011826478
60	0x3dbaf02e	0.09127842
61	0x3cb7880c	0.02240374
62	0x3db8de9f	0.090268366
63	0xbc987a0e	-0.018612888
64	0xbd26f18a	-0.040757693
65	0xbc5119a9	-0.0127624655
66	0x3c2cc4c1	0.010544957
67	0x3b7ab141	0.0038252624
68	0x3d24a538	0.040196627
69	0x3cc086ec	0.023501836
70	0xbbe8309c	-0.007085873
71	0xbcba0655	-0.022708097
72	0xbd08cd7d	-0.033399094
73	0xbd1ae7df	-0.037818786
74	0xbbb4b831	-0.0055151214
75	0xbdb189e0	-0.08668876
76	0xbc2fbf98	-0.010726832
77	0xbbf7263b	-0.007542399
78	0x3c39c424	0.0113382675
79	0x3dd56cf7	0.10421174
80	0xbd3c44b2	-0.04596395
81	0x3d0c3354	0.034228638
82	0xbd79aaef	-0.06095403
83	0xbba98369	-0.005173136
84	0x3df82888	0.12117106
85	0xbddd1f1c	-0.10796949
86	0xbaf9431a	-0.001901719
87	0xbb992f35	-0.004674817
88	0xbdd64fbc	-0.10464427
89	0xbc0d3957	-0.008619628
90	0xbc87f2ab	-0.016595205
91	0x3bee4f1a	0.0072726132
92	0xbf21ae93	-0.63157004
93	0xba945bd5	-0.0011318872
94	0x3a2f7d69	0.0006694408
95	0xbd580395	-0.05273779
96	0x3cdb3436	0.026758295
97	0x3d24bcc1	0.040219072
98	0x3e37e90e	0.17959997
99	0xbd92e87b	-0.071732484
100	0x3b31259a	0.002703047
101	0xbc6995b2	-0.014256882
102	0x3db0dbb5	0.08635656
103	0x3d6e5b0a	0.05819229
104	0x3cb5f4f7	0.022211535
105	0xbcb8e860	-0.022571743
106	0xbcacc1b3	-0.021088457
107	0x3ce24333	0.027619934
108	0xbc8121b0	-0.015763134
109	0x3cec111c	0.028816752
110	0x3d2cff85	0.04223587
111	0xbce03eab	-0.027373632
112	0xbd0d82ce	-0.034548573
113	0xbcb40b8d	-0.021978164
114	0x3d84ce03	0.06484606
115	0xbce062b8	-0.027390823
116	0xbc6e3819	-0.014539742
117	0xbd18edbe	-0.037336104
118	0xbbb8765e	-0.005629345
119	0x3d6f2d3c	0.05839275
120	0xbd0b2c00	-0.03397751
121	0xbdbf1820	-0.09330773
122	0xbd02b5f9	-0.031911824
123	0xbe085ce3	-0.13316683
124	0x3d7cad47	0.061688688
125	0x3c5ff804	0.013669971
126	0xbce44134	-0.027863123
127	0xbd716512	-0.05893428
128	0x3c20325a	0.00977763
129	0xbbf08a0d	-0.0073406757
130	0x3c3a819d	0.011383441
131	0x3c986bb6	0.018606048
132	0x3cbccb92	0.023046289
133	0xbe1c389f	-0.15255974
134	0x3d5abb93	0.05340154
135	0xbd796ff2	-0.060897775
136	0x3b673df8	0.003528474
137	0xbd74c327	-0.059756424
138	0xbd4fc7a4	-0.0507275
139	0xbcbb3667	-0.02285309
140	0xbe17502a	-0.14776674
141	0x3d18afbb	0.037276965
142	0xbd1b9f99	-0.037994
143	0xba116ba9	-0.00055473536
144	0x3ca51667	0.020152284
145	0x3cc58e02	0.024115566
146	0x3c576040	0.013145506
147	0x3c5faa9b	0.013651515
148	0x3d49e4ee	0.04929059
149	0xbd94ab80	-0.072592735
150	0xbda20105	-0.07910351
151	0xbda863fc	-0.082221955
152	0xbc98a2dc	-0.018632345
153	0xbc9d23dd	-0.01918214
154	0xbd31c042	-0.043396242
155	0xbe49f5e8	-0.19722712
156	0xbb6d39c2	-0.0036197756
157	0x3cb6ba6c	0.02230569
158	0xbd969dd8	-0.07354325
159	0x3bf20eec	0.0073870327
160	0xbe061005	-0.13092048
161	0xbde81f5b	-0.113341056
162	0x3d6e9102	0.05824376
163	0x3cdd4208	0.027009025
164	0xbddf92f0	-0.10916698
165	0x3ca030a7	0.01955445
166	0xbbc8c568	-0.0061270483
167	0x3be8987f	0.007098257
168	0x3c2293de	0.00992295
169	0x3d2c8ace	0.042124562
170	0x3bc1a284	0.005909266
171	0xbc17056c	-0.009217601
172	0x391f6e6a	0.00015204554
173	0x3d01c956	0.03168615
174	0x3c538981	0.012911201
175	0x3c9cb7e7	0.01913066
176	0x3ba4880c	0.005021101
177	0x3b32b6d8	0.0027269628
178	0xbc9c3f45	-0.019073138
179	0x3d556e22	0.052106984
180	0xbd828ea1	-0.063748606
181	0xbd895819	-0.067062564
182	0xbcecdb5c	-0.028913192
183	0x399cedb6	0.00029931747
184	0xbdb5d7d2	-0.08879055
185	0x3d72894b	0.059212964
186	0x3c3c30e6	0.011486268
187	0xbbf8e5b7	-0.0075957435
188	0x3c81910b	0.015816232
189	0x3da70317	0.08154886
190	0xbdef247e	-0.11676882
191	0x3c4962e2	0.012291642
192	0xbf209c21	-0.62738234
193	0xbc5890a8	-0.0132180825
194	0x39b9f6a6	0.00035469717
195	0xbced8a57	-0.02899663
196	0xbdbefb5a	-0.09325285
197	0x3da0a3ee	0.07843767
198	0xbd54608a	-0.05184988
199	0xbdbf1d77	-0.09331792
200	0xbcb032fa	-0.021508683
201	0xbbbad8b3	-0.005702102
202	0x3db07fe9	0.08618147
203	0x3cd811cf	0.02637568
204	0x3dd552ba	0.104161695
205	0xbcade23f	-0.021226047
206	0x3c70550a	0.014668712
207	0xbdd6585b	-0.10466071
208	0x3d9b15bc	0.07572505
209	0x3b055d74	0.0020349892
210	0xbd917ed2	-0.07104267
211	0x3d6da378	0.058017224
212	0xbc55c5e4	-0.013047669
213	0xbc0a1e43	-0.0084300665
214	0x3db301be	0.08740567
215	0xbd0482ec	-0.03235142
216	0xbc729bc6	-0.014807647
217	0x3d2fc592	0.042913027
218	0x3b747d54	0.0037306147
219	0x3d357d7f	0.044309136
220	0x3c817a7c	0.015805475
221	0x3d614b0a	0.055003203
222	0x3d856c36	0.0651478
223	0x3e10dde6	0.14147148
224	0x3cc8777b	0.024471035
225	0xbc4dc9b1	-0.012560294
226	0xbd9610aa	-0.07327397
227	0xbd99265f	-0.07478022
228	0xba376940	-0.00069965795
229	0xbb357c73	-0.0027692586
230	0x3b104e0d	0.0022019178
231	0x3b12cfd7	0.0022401714
232	0xbd054a6c	-0.032541677
233	0xbe016f41	-0.12640096
234	0xbc24c039	-0.010055595
235	0xbe3ef4a5	-0.18648012
236	0xbbc0a644	-0.0058791954
237	0xbd35a5c9	-0.04434756
238	0x3b80cd05	0.00393069
239	0x3f2976cf	0.6619691
240	0x3ce2c5a6	0.027682137
241	0xbc5e5caa	-0.0135718975
242	0xbc9c2a0a	-0.019063015
243	0x3d252218	0.040315717
244	0xbcc17b2a	-0.0236183
245	0x3d5fff32	0.054686733
246	0x3c1e915c	0.009678211
247	0x3cdc63f8	0.026903138
248	0xbd0ff555	-0.035146076
249	0xbc7972b3	-0.0152251
250	0xbdd7d2c9	-0.10538251
251	0x3d2456b3	0.040121745
252	0xbc02cc81	-0.007983328
253	0xbc63d908	-0.013906725
254	0xbd401675	-0.046896417
255	0xbd724fcb	-0.059158128

fc3.bias f4 [46]
0	0x3eb2da30	0.3493209
1	0x3e962e67	0.29332277
2	0x3ea11971	0.31464723
3	0x3ea6b260	0.32557964
4	0x3eac3248	0.33632112
5	0x3ec72ae9	0.38899925
6	0x3ef841b5	0.4848763
7	0x3ea75cc9	0.32687977
8	0x3e9b6d18	0.3035667
9	0x3ed91b40	0.42403603
10	0x3e9ef2ea	0.31044704
11	0x3ea4e825	0.32208362
12	0x3eae2da2	0.3401919
13	0x3ec69951	0.38788846
14	0x3ebd2e4c	0.36949384
15	0x3ec9ed23	0.39438733
16	0x3e9d6f08	0.30748773
17	0x3ebaebe9	0.3650811
18	0x3ed618bb	0.41815743
19	0x3eefef78	0.46862388
20	0x3ed0a6ce	0.40752262
21	0x3ea7a881	0.32745746
22	0x3edf788a	0.43646652
23	0x3eb0ae17	0.3450782
24	0x3ebbfbdd	0.36715594
25	0x3ed3ea5b	0.41389737
26	0x3ed22a7f	0.41048047
27	0x3e9b685b	0.30353054
28	0x3ec79af4	0.38985407
29	0x3eabf552	0.33585602
30	0x3eb6b3b0	0.35683966
31	0x3ebcef78	0.3690145
32	0x3eb3a141	0.35083964
33	0x3ea669d7	0.32502624
34	0x3e8e6e6a	0.27818614
35	0x3e9444ab	0.2895864
36	0x3eb0e0d3	0.34546527
37	0x3e64d60f	0.22347282
38	0x3ed7b5ca	0.42130882
39	0x3e97eb28	0.29671597
40	0x3ebd1aa0	0.36934376
41	0x3eb48131	0.35254815
42	0x3ecc2a4a	0.39876014
43	0x3edf497e	0.43610758
44	0x3eb1a171	0.34693483
45	0x3ec17f6e	0.37792534
