mp4-machine-learning-template/model/model.pth (torch, 106238 bytes, 14 tensors)

fc1.weight f4 [150, 51]
0	0x3e029fdb	0.12756293
1	0xbd0119bc	-0.031518683
2	0x3d99f4ec	0.07517418
3	0x3e07a35b	0.13245909
4	0x3cf7177b	0.030162564
5	0xbe141b47	-0.1446353
6	0x3d60fbb8	0.054927558
7	0xbdb7ccc0	-0.089746
8	0x3cedcff5	0.029029826
9	0x3d8a36ee	0.06748758
10	0xbd945176	-0.072421
11	0x3c01b44b	0.00791652
12	0xbd20d684	-0.039267078
13	0xbdfc3383	-0.123145126
14	0x3c49c805	0.012315755
15	0xbe190177	-0.14941965
16	0xbd9281a6	-0.07153635
17	0x3de6bd25	0.11266545
18	0xbd43686a	-0.047707
19	0xbdd91026	-0.10598783
20	0x3bc0d6a1	0.0058849608
21	0xbef85f54	-0.4851023
22	0xbd6d2f2f	-0.057906326
23	0xbf14d8ea	-0.58143485
24	0xbd02108c	-0.03175406
25	0xbee59d12	-0.44846398
26	0xbe1e9f34	-0.15490419
27	0x3de1ea90	0.11031067
28	0xbc6ad511	-0.014333026
29	0x3db549ad	0.08851943
30	0xbdd06fc6	-0.10177569
31	0x3e556b06	0.20841607
32	0xbe0f7d14	-0.14012557
33	0xbd16d1d2	-0.036821194
34	0x3d5866ba	0.052832343
35	0x3dd9c42a	0.106331185
36	0x3cf5a060	0.0299837
37	0x3d693236	0.05693265
38	0xbc333ec6	-0.010940259
39	0x3e4e157d	0.20125385
40	0xbe2dddcb	-0.16979139
41	0x3e9bd6de	0.30437368
42	0x3dd2b7b4	0.10288945
43	0x3d24a03c	0.040191874
44	0xbde70594	-0.11280361
45	0x3c6de550	0.014520004
46	0x3def4ce4	0.116845876
47	0x3c9e7c37	0.01934634
48	0x3b8209a4	0.0039684344
49	0xbd908b2f	-0.07057797
50	0x3e4d5f85	0.20055969
51	0xbd0515e4	-0.03249158
52	0x3d82cbfe	0.06386565
53	0x3c006039	0.007835441
54	0xbd39e0ea	-0.04538051
55	0x3de8811e	0.11352752
56	0x3d80b136	0.062838
57	0xbe2e7c2e	-0.17039558
58	0x3e4b7102	0.19867328
59	0x3e509617	0.20369755
60	0x3d10bb56	0.035334907
61	0xbd24432d	-0.040103126
62	0xbe3e4edf	-0.18584774
63	0x3a8fa62d	0.0010959558
64	0xbe624ec5	-0.2210036
65	0x3e0c21ff	0.13684843
66	0xbd9e083c	-0.07716414
67	0xbe317a9a	-0.17331925
68	0x3d937034	0.071991354
69	0x3e861294	0.2618605
70	0x3ece4993	0.40290508
71	0xbe6c0f55	-0.23052724
72	0xbc077013	-0.008266467
73	0x3e8a5861	0.27020553
74	0x3eca2236	0.39479226
75	0x3e2d1e4b	0.16906087
76	0xbe198e79	-0.14995755
77	0xbe4cb732	-0.19991758
78	0xbdd700ea	-0.10498221
79	0xbd71ef5d	-0.059066165
80	0xbc820bb3	-0.01587472
81	0xbbdd42f6	-0.006752367
82	0xbc3ebad8	-0.011641227
83	0x3dcecfb1	0.10098208
84	0xbe9ce193	-0.3064085
85	0xbdac52c3	-0.08414223
86	0xbe38008a	-0.17968956
87	0xbdfa1b4a	-0.12212236
88	0xbd686a65	-0.05674209
89	0xbe1f1ceb	-0.15538375
90	0xbe65f730	-0.22457576
91	0xbd87a0ec	-0.0662249
92	0xbe0f225f	-0.13977955
93	0xbca130b2	-0.01967654
94	0xbdc602b2	-0.09668483
95	0xbe27519e	-0.16339728
96	0xbdec2c92	-0.115319386
97	0xbdc05a71	-0.0939225
98	0x3d5d32e3	0.054003607
99	0x3d02b24d	0.031908322
100	0x3e0ffbca	0.14060894
101	0xbde19bf8	-0.11016077
102	0xbdbe5e32	-0.0929531
103	0x3d35ee00	0.044416428
104	0x3d877a30	0.06615102
105	0x3da46a93	0.0802814
106	0x3d3f34ae	0.0466811
107	0xbd228014	-0.039672926
108	0x3c80ab2f	0.015706627
109	0x3e71955e	0.23592135
110	0x3e006968	0.1254021
111	0x3db194a5	0.0867093
112	0xbdb47526	-0.08811407
113	0xbd9d04dc	-0.076669425
114	0x3decb55a	0.115580276
115	0x3df36128	0.118837655
116	0x3dc374c5	0.095437564
117	0x3e0e8887	0.13919269
118	0x3ca76808	0.020435348
119	0xbc278256	-0.010223946
120	0xbdca6881	-0.09883214
121	0x3eabbfc9	0.33544758
122	0xbda934a5	-0.08261994
123	0x3e9eae29	0.3099225
124	0xbd08fc73	-0.03344388
125	0x3dbed724	0.093183786
126	0xbde32bbf	-0.11092328
127	0x3e9012e3	0.2813941
128	0x3de36acb	0.111043535
129	0xbec430ed	-0.38318577
130	0x3d174e3e	0.036939852
131	0xbe60272f	-0.21889947
132	0xbdc2afb0	-0.09506166
133	0x3e71f81c	0.23629802
134	0x3e05e41a	0.13075295
135	0x3d308ee5	0.043105025
136	0x3cec0d68	0.028814986
137	0x3ddd0a83	0.107930206
138	0xbd414b6b	-0.047191065
139	0x3dc59850	0.09648192
140	0xbdae1f5b	-0.08502074
141	0xbeda0154	-0.42579138
142	0x3e0615e2	0.13094285
143	0xbdf3f207	-0.119113974
144	0x3ceafbd8	0.028684542
145	0x3d46ffe7	0.04858389
146	0x3e12c5a2	0.14333203
147	0x3d9d7dca	0.07690008
148	0x3cb60943	0.022221213
149	0xbdc6535d	-0.09683869
150	0x3d84f5a6	0.06492166
151	0xbd84179e	-0.06449817
152	0xbde1a2a6	-0.11017351
153	0x3d6513e4	0.055927172
154	0x3c089aea	0.008337716
155	0xbdfcc54c	-0.12342319
156	0xbed44eb8	-0.41466308
157	0xbe50c955	-0.20389302
158	0x3e0f0da6	0.1397005
159	0x3da346d0	0.07972491
160	0x3e622813	0.220856
161	0xbe01321b	-0.1261677
162	0xbdaf54b6	-0.08561079
163	0xbe0ff5f8	-0.14058673
164	0xbe12dbcb	-0.14341657
165	0xbe2f0485	-0.17091568
166	0x3d9fab9d	0.077964045
167	0xbe09171f	-0.13387726
168	0x3b63e944	0.0034776488
169	0xbd0d8e48	-0.034559518
170	0xbc48a939	-0.012247377
171	0x3ce7e2a9	0.028306322
172	0xbe34dae4	-0.17661625
173	0xbd8b5209	-0.06802756
174	0xbeaeff6f	-0.34179255
175	0x3b9d3508	0.0047975816
176	0x3ee0ec55	0.43930307
177	0x3dc44302	0.09583093
178	0x3e30cbfc	0.17265314
179	0x3c27f232	0.010250615
180	0x3c86308b	0.016380569
181	0xbc7d0cb7	-0.015444926
182	0xbd213124	-0.039353505
183	0xbdb8643f	-0.090034954
184	0xbe63a8a6	-0.22232303
185	0x3d03ce9d	0.032179464
186	0xbdadac36	-0.08480112
187	0x3e1b0405	0.15138252
188	0xbd881f0f	-0.06646549
189	0x3d6485ae	0.05579155
190	0x3d1e31da	0.03862176
191	0xbc0466ac	-0.0080811195
192	0x3f09bd14	0.53804135
193	0xbc507256	-0.012722572
194	0x3decd5c3	0.11564209
195	0x3da2e97f	0.07954692
196	0x3c5f11a2	0.013615044
197	0xbcff6878	-0.031177744
198	0xbd1996e6	-0.037497424
199	0xbde35e96	-0.11102025
200	0x3d8d9157	0.06912487
201	0x3c7d119d	0.015446094
202	0x3d3969b6	0.04526683
203	0x3e479dc1	0.19493772
204	0xbcad5bd0	-0.021161944
205	0xbd942dbf	-0.07235288
206	0xbe10eaab	-0.14152019
207	0xbe4b3b7d	-0.19846912
208	0xbb8729eb	-0.00412487
209	0x3d821d9d	0.063533045
210	0x3d535cf5	0.051602323
211	0xbe000269	-0.1250092
212	0xbc1b5b94	-0.009482283
213	0xbe2b0517	-0.1670116
214	0x3e28e884	0.16494948
215	0xbda2550f	-0.0792638
216	0xbe18595f	-0.14877842
217	0x3e060f0a	0.13091674
218	0x3de6747d	0.11252687
219	0x3d08f141	0.033433203
220	0xbc1e1732	-0.009649085
221	0xbe1f9eb0	-0.15587878
222	0x3c7b8b39	0.0153530175
223	0x3e123e92	0.14281681
224	0x3ca772d8	0.020440504
225	0x3e9dc899	0.30817106
226	0x3c8bcad6	0.017064493
227	0x3e08931f	0.13337372
228	0x3e577df6	0.21044144
229	0x3dce2f99	0.10067672
230	0xbdcfe29f	-0.101506464
231	0x3d07828a	0.033083476
232	0xbd8d221d	-0.06891272
233	0x3d04ccb7	0.032421794
234	0xbdf35cae	-0.118829116
235	0x3eae973f	0.34099767
236	0xbdcba18c	-0.09942922
237	0xbec5f99b	-0.38666996
238	0xbd38ff2b	-0.045165222
239	0xbf0b7005	-0.54467803
240	0xbdb43795	-0.08799664
241	0xbd9b1c1f	-0.07573723
242	0x3e2adee1	0.16686584
243	0xbe8e7941	-0.27826884
244	0x3ce3a460	0.027788341
245	0xbdb40294	-0.08789554
246	0xbd643c93	-0.05572183
247	0xbdcd3c5e	-0.1002128
248	0xbd9d2645	-0.07673315
249	0xbd32d2c8	-0.043658048
250	0x3b547806	0.0032420172
251	0xbd94ecb4	-0.0727171
252	0xbe821f85	-0.25414672
253	0x3cc3bc14	0.023893394
254	0xbe5982ca	-0.21241298
255	0x3c92a616	0.017901462

fc1.bias f4 [150]
0	0x3b81a554	0.003956476
1	0xbd9d088c	-0.07667646
2	0xbd30a736	-0.043128215
3	0x3df7cdfd	0.12099836
4	0xbd84f591	-0.064921506
5	0x3d97d566	0.074137494
6	0x3c8aa31c	0.01692348
7	0x3c81635b	0.015794447
8	0x3ccf676e	0.025317874
9	0x3da3fe94	0.08007541
10	0xbdcd4c22	-0.10024287
11	0xbdcd7c40	-0.100334644
12	0xbdadc308	-0.08484465
13	0xbdc1a051	-0.09454406
14	0x3dfa8543	0.12232449
15	0x3d760d39	0.060071204
16	0x3ddb3675	0.10703746
17	0xbd4a7022	-0.049423344
18	0xbd0b02a9	-0.033938084
19	0x3c8894ac	0.016672455
20	0x3d5d0e01	0.053968433
21	0xbdde8770	-0.108656764
22	0xbd828b4e	-0.063742265
23	0x3db934d9	0.09043283
24	0x3cd46235	0.025925735
25	0xbdcdf0e2	-0.100557104
26	0x3c96f78b	0.018428585
27	0x3d936e89	0.07198817
28	0xbd9e678d	-0.077345945
29	0xbd892cad	-0.06697974
30	0x3d378f10	0.04481417
31	0xbdcee32a	-0.10101922
32	0xbe09bf59	-0.134519
33	0xbc48c399	-0.012253665
34	0xbdc8ab24	-0.097982675
35	0x3daf23cc	0.085517496
36	0xbdd98ac2	-0.10622169
37	0x3dd42000	0.10357666
38	0xbd42fbdd	-0.047603477
39	0xbd2b813d	-0.041871298
40	0xbdd76740	-0.1051774
41	0xbd86ed95	-0.06588284
42	0xbd054860	-0.032539725
43	0xbd901dc2	-0.07036926
44	0xbc8a3f9e	-0.016876038
45	0xbdb5f1ce	-0.08884011
46	0x3c2e6d02	0.010646107
47	0x3de36ab8	0.11104339
48	0x3d8d6e52	0.069058076
49	0xbe02dca5	-0.12779482
50	0x3e091d2e	0.13390037
51	0xbd0db571	-0.034596864
52	0x3c081069	0.008304694
53	0x3c82e66d	0.015979016
54	0x3d17539c	0.03694497
55	0x3e0507ed	0.12991305
56	0xbc8ad70c	-0.016948245
57	0x3d83e125	0.06439427
58	0xbd6aa30a	-0.057284392
59	0x3d5aac66	0.05338707
60	0x3dcda6d8	0.100415885
61	0x3c39a90a	0.011331806
62	0x3dd5780f	0.1042329
63	0x3d08f612	0.033437796
64	0xbd5d9612	-0.054098196
65	0x3c767a2d	0.015043777
66	0x3da754cd	0.08170471
67	0xbdca5d8f	-0.09881126
68	0xbde450e7	-0.111482434
69	0xbdcb6e69	-0.099331684
70	0xbd9ea37c	-0.07746026
71	0x3d8a4bba	0.06752725
72	0xbddcb311	-0.10776342
73	0xbdda2c67	-0.10653
74	0xbbf7c84c	-0.007561719
75	0xbc859c86	-0.016309988
76	0xbdb60270	-0.08887184
77	0xbdba94e8	-0.09110433
78	0x3da970e9	0.08273489
79	0x3ddfeac9	0.109334536
80	0xbe0a9d33	-0.13536529
81	0xbd64877c	-0.05579327
82	0x3cfaf07b	0.030632248
83	0xbd1ee0d3	-0.038788628
84	0xbd96714c	-0.073458284
85	0x3da071b6	0.07834189
86	0x3cd7a5fd	0.026324267
87	0x3d54ad2f	0.051922973
88	0xbdd34b75	-0.10317127
89	0xbd8c30c3	-0.06845238
90	0x3de170eb	0.110078655
91	0x3c776244	0.015099112
92	0xb9c84a10	-0.00038202154
93	0x3e09e8e9	0.13467754
94	0xbd70c1dd	-0.058778632
95	0x3ca8d16a	0.020607669
96	0xbd003e08	-0.031309158
97	0x3dce6d94	0.10079494
98	0x3da57b03	0.08080103
99	0xbdd88393	-0.10571971
100	0x3d9addc0	0.07561827
101	0xbd143b24	-0.036189213
102	0xbcdfd6dc	-0.027324133
103	0xbd2b60db	-0.041840415
104	0xbd9c5c53	-0.07634797
105	0x3dd82b9a	0.10555191
106	0xbde5e401	-0.11225129
107	0x3e0a45bb	0.13503163
108	0x3d0a5518	0.033772558
109	0x3e0f3d98	0.1398834
110	0x3d81afc7	0.06332355
111	0x3db2457f	0.087046616
112	0x3b4fbe48	0.003169911
113	0xbb7467b1	-0.003729325
114	0xbd8f9d33	-0.07012405
115	0xbd8828f1	-0.06648434
116	0xbcd1f42f	-0.025629131
117	0x3d34e6fc	0.044165596
118	0xbdd68d69	-0.104761906
119	0x3d836d02	0.06417276
120	0xbde46979	-0.1115293
121	0xbdceb582	-0.100932136
122	0xbdc7561b	-0.0973322
123	0x3dddb0ab	0.10824712
124	0x3ddc2252	0.107487336
125	0xbe04dccc	-0.12974852
126	0xbd961b81	-0.07329465
127	0x3cfa5b18	0.030561015
128	0x3dc16048	0.09442192
129	0x3e06c1f4	0.13159925
130	0xbc49139d	-0.012272743
131	0xbdda6ca1	-0.106652506
132	0xbd3ae3d7	-0.04562744
133	0xbdcf83bf	-0.101325504
134	0x3cc44048	0.023956433
135	0x3dce6106	0.100770995
136	0x3d8c5aca	0.06853254
137	0xbd146b49	-0.036235128
138	0x3d50fe00	0.051023483
139	0x3ccb5992	0.024822984
140	0xbdd4b907	-0.10386854
141	0x3c90212b	0.01759394
142	0xbd547203	-0.051866543
143	0x3d144c84	0.036205783
144	0xbc3d5b43	-0.011557403
145	0xbdfd1112	-0.123567715
146	0xbd176d30	-0.036969364
147	0x3d2639a3	0.04058231
148	0xbdff0702	-0.124525085
149	0xbdc5d391	-0.09659494

bn1.weight f4 [150]
0	0x3f799784	0.9749682
1	0x3f674dca	0.9035307
2	0x3f69daea	0.9134966
3	0x3f76d99d	0.964258
4	0x3f7d2757	0.9888815
5	0x3f7d8059	0.9902397
6	0x3f6c3881	0.9227372
7	0x3f6a026d	0.9140995
8	0x3f7b513b	0.9817082
9	0x3f72b4c6	0.9480709
10	0x3f7ab5ac	0.9793346
11	0x3f86336c	1.0484443
12	0x3f7ea1d8	0.99465704
13	0x3f673384	0.9031298
14	0x3f68a942	0.90883267
15	0x3f76f71d	0.96470815
16	0x3f5db2ca	0.86600935
17	0x3f79ebcc	0.9762542
18	0x3f93861b	1.1525301
19	0x3f721fc4	0.9457972
20	0x3f71f973	0.94521254
21	0x3f7341d4	0.9502232
22	0x3f808eca	1.0043576
23	0x3f83383b	1.0251535
24	0x3f7e57d7	0.9935278
25	0x3f8a7168	1.0815859
26	0x3f6ef1db	0.9333779
27	0x3f8158b3	1.0105194
28	0x3f6647df	0.89953417
29	0x3f7a424c	0.9775741
30	0x3f6e90cc	0.9318969
31	0x3f8dde71	1.1083509
32	0x3f6b03e0	0.9180279
33	0x3f75094e	0.9571732
34	0x3f759183	0.9592516
35	0x3f81fd9b	1.0155519
36	0x3f80563f	1.002632
37	0x3f86f09d	1.0542179
38	0x3f6e9853	0.9320118
39	0x3f6ce6c7	0.9253964
40	0x3f6bb880	0.920784
41	0x3f7094c6	0.9397701
42	0x3f813fca	1.0097592
43	0x3f7273af	0.9470777
44	0x3f690539	0.91023594
45	0x3f8070a2	1.0034373
46	0x3f7bd21a	0.98367465
47	0x3f658334	0.89653325
48	0x3f7974c8	0.9744382
49	0x3f74d83f	0.95642465
50	0x3f87cc8d	1.0609299
51	0x3f796cad	0.9743145
52	0x3f7fc2ed	0.9990681
53	0x3f7cd61b	0.987642
54	0x3f7d9921	0.9906178
55	0x3f79c20a	0.97561705
56	0x3f79bbee	0.9755238
57	0x3f93d320	1.1548805
58	0x3f7ab2c7	0.9792904
59	0x3f86a9f8	1.052062
60	0x3f6895d9	0.9085365
61	0x3f796bc6	0.97430074
62	0x3f708c08	0.9396367
63	0x3f6dfd9d	0.9296511
64	0x3f620350	0.88286304
65	0x3f5d50da	0.86451495
66	0x3f8e8cee	1.1136758
67	0x3f6d3da1	0.92672163
68	0x3f6f8ab3	0.93571013
69	0x3f6e4ce8	0.930861
70	0x3f7b9997	0.98281235
71	0x3f838b18	1.0276823
72	0x3f72526b	0.9465701
73	0x3f68ce39	0.9093967
74	0x3f7dc929	0.9913507
75	0x3f73674f	0.9507951
76	0x3f82ddcc	1.0223937
77	0x3f6cdaf2	0.92521584
78	0x3f60dfc6	0.8784145
79	0x3f62500a	0.8840338
80	0x3f8c56ff	1.0964049
81	0x3f7288de	0.9474009
82	0x3f67c548	0.905354
83	0x3f76f096	0.96460855
84	0x3f66c83d	0.9014929
85	0x3f7f3aa2	0.9969884
86	0x3f69a2f7	0.9126429
87	0x3f801832	1.0007384
88	0x3f6a7953	0.91591376
89	0x3f680958	0.9063926
90	0x3f6bfe79	0.9218517
91	0x3f8a2b63	1.079449
92	0x3f7f6bb0	0.99773693
93	0x3f696e9b	0.91184396
94	0x3f65b486	0.8972858
95	0x3f84b19c	1.0366702
96	0x3f7ac0d0	0.9795046
97	0x3f7bc57a	0.983482
98	0x3f6cb72e	0.9246701
99	0x3f6a30f9	0.91480976
100	0x3f67e467	0.9058289
101	0x3f99f7c7	1.2028741
102	0x3f5f45c2	0.87215817
103	0x3f950e62	1.1645014
104	0x3f82ed2d	1.022863
105	0x3f6f6b45	0.93523055
106	0x3f7de91c	0.9918382
107	0x3f672946	0.90297353
108	0x3f639d4f	0.8891191
109	0x3f5f2fcf	0.87182325
110	0x3f6f10a7	0.93384784
111	0x3f56fe5c	0.8398187
112	0x3f769634	0.9632294
113	0x3f7c76e2	0.986189
114	0x3f8b9216	1.0903957
115	0x3f7bb84a	0.9832808
116	0x3f7e356e	0.9930028
117	0x3f84ef53	1.0385536
118	0x3f657d25	0.8964408
119	0x3f71cc86	0.94452703
120	0x3f7668f6	0.9625391
121	0x3f93ece7	1.1556672
122	0x3f7815f7	0.96908516
123	0x3f89628e	1.0733202
124	0x3f66226c	0.89896274
125	0x3f7b5708	0.98179674
126	0x3f8d5ddb	1.1044267
127	0x3f7a9249	0.97879463
128	0x3f6fcd25	0.936724
129	0x3f76defb	0.9643399
130	0x3f557166	0.8337616
131	0x3f742af6	0.95378053
132	0x3f747660	0.95493126
133	0x3f9df872	1.2341444
134	0x3f8c981e	1.0983922
135	0x3f83afa0	1.0287971
136	0x3f6ec90b	0.9327552
137	0x3f7a8d07	0.9787144
138	0x3f853659	1.040721
139	0x3f6ad913	0.9173748
140	0x3f80ec5f	1.0072135
141	0x3f7fdb1d	0.99943715
142	0x3f720bb2	0.94549096
143	0x3f838475	1.0274798
144	0x3f79b3cd	0.9753998
145	0x3f82ea6a	1.0227787
146	0x3f78e41c	0.9722307
147	0x3fab36cb	1.3376096
148	0x3f818575	1.0118853
149	0x3f7ac542	0.9795724

bn1.bias f4 [150]
0	0xbe75217f	-0.23938559
1	0xbe455fac	-0.19274777
2	0xbe2ec3c0	-0.1706686
3	0xbe595838	-0.21225059
4	0xbead9735	-0.33904424
5	0xbe933321	-0.28749946
6	0xbeac3f63	-0.3364211
7	0xbe9a5a21	-0.30146888
8	0xbea141ff	-0.31495664
9	0xbe8bde13	-0.27317867
10	0xbec4cc27	-0.38437006
11	0xbeeaa917	-0.4583213
12	0xbe8236dd	-0.25432482
13	0xbe6fcf5f	-0.2341895
14	0xbea65456	-0.32486218
15	0xbeec18cd	-0.46112671
16	0xbe2f440a	-0.17115799
17	0xbea4babd	-0.3217372
18	0xbeeab27f	-0.45839307
19	0xbe9691fd	-0.29408255
20	0xbe60bd3f	-0.21947192
21	0xbec905fc	-0.39262378
22	0xbe7d1f26	-0.24718913
23	0xbe65495e	-0.22391269
24	0xbecf3818	-0.40472484
25	0xbea822f2	-0.3283916
26	0xbdc5e12a	-0.09662087
27	0xbeedef96	-0.46471852
28	0xbe3a7f18	-0.18212545
29	0xbe911b15	-0.28340974
30	0xbeba3e89	-0.36375836
31	0xbec75be4	-0.38937294
32	0xbe6cc625	-0.23122461
33	0xbe93497e	-0.28767008
34	0xbe8bc56d	-0.2729906
35	0xbe9ccb7d	-0.30624
36	0xbe935430	-0.28775167
37	0xbea96002	-0.3308106
38	0xbe9c89ed	-0.3057398
39	0xbe8acfd6	-0.2711169
40	0xbe5331a0	-0.20624399
41	0xbe49f5ab	-0.19722621
42	0xbea0597a	-0.31318265
43	0xbe913383	-0.28359613
44	0xbe194e3d	-0.14971252
45	0xbef1415b	-0.47120175
46	0xbecb93fd	-0.39761344
47	0xbdeb0096	-0.11474721
48	0xbe6e1a2b	-0.2325217
49	0xbe8f7c71	-0.2802463
50	0xbeedd656	-0.46452588
51	0xbe569385	-0.20954712
52	0xbe95390c	-0.29145086
53	0xbe92a4bd	-0.2864131
54	0xbe691061	-0.22760154
55	0xbeb49751	-0.35271695
56	0xbe8fdab3	-0.28096542
57	0xbefe5afb	-0.49678788
58	0xbe699e5f	-0.2281432
59	0xbeb9d28b	-0.36293444
60	0xbe6eb6b2	-0.2331188
61	0xbe89fb3e	-0.26949495
62	0xbe7ffcd8	-0.24998796
63	0xbe29b8f7	-0.16574465
64	0xbe75a9e3	-0.23990588
65	0xbdfd30a0	-0.1236279
66	0xbeb4ccfc	-0.3531264
67	0xbe68f251	-0.22748686
68	0xbe8705ce	-0.26371616
69	0xbe174e06	-0.14775857
70	0xbe7e2057	-0.24817024
71	0xbea3eed4	-0.3201815
72	0xbe890b9d	-0.26766673
73	0xbe209266	-0.15680847
74	0xbe4ad767	-0.19808732
75	0xbe6b0367	-0.22950517
76	0xbeb9232e	-0.36159652
77	0xbe8526a0	-0.2600603
78	0xbd176493	-0.03696115
79	0xbe1ab422	-0.15107778
80	0xbea2001a	-0.31640702
81	0xbea9854b	-0.33109507
82	0xbe347c24	-0.17625481
83	0xbe866679	-0.26250055
84	0xbddb1c4f	-0.10698759
85	0xbea08248	-0.31349397
86	0xbe49300d	-0.19647236
87	0xbe806591	-0.2507749
88	0xbe746b18	-0.23868978
89	0xbd638b15	-0.05555256
90	0xbeb8e5de	-0.36112875
91	0xbea9c80d	-0.3316044
92	0xbeb40ba4	-0.3516513
93	0xbe1d9f5f	-0.15392826
94	0xbe7eb448	-0.2487346
95	0xbe82f532	-0.25577694
96	0xbee5906f	-0.44836757
97	0xbe5c603a	-0.21521083
98	0xbe5b6f75	-0.21429236
99	0xbe230ca4	-0.15922791
100	0xbe67ab7c	-0.2262401
101	0xbf1884fc	-0.5957792
102	0xbe062ce7	-0.13103066
103	0xbf015554	-0.50520825
104	0xbe89b46e	-0.2689547
105	0xbea5fed5	-0.32420984
106	0xbe8cc80e	-0.2749638
107	0xbe2fbb11	-0.17161204
108	0xbe277e48	-0.16356766
109	0xbe1ffcf5	-0.15623839
110	0xbead438d	-0.338406
111	0xbe0c19a3	-0.13681655
112	0xbe91b94b	-0.2846168
113	0xbec8a3d0	-0.3918748
114	0xbe81293d	-0.25226775
115	0xbeb369d0	-0.35041666
116	0xbe8e31d7	-0.277724
117	0xbea586d0	-0.32329416
118	0xbdc92e66	-0.09823303
119	0xbe430144	-0.19043452
120	0xbe718518	-0.23585927
121	0xbebcabfc	-0.36849964
122	0xbeb9facc	-0.36324155
123	0xbef3061b	-0.47465596
124	0xbe7ab02e	-0.2448127
125	0xbe81e0f6	-0.25366944
126	0xbf115bee	-0.567809
127	0xbea46a5e	-0.32112402
128	0xbe82f11f	-0.25574586
129	0xbeb0863e	-0.3447742
130	0xbdb7cd78	-0.08974737
131	0xbe6750ca	-0.22589412
132	0xbe9a9c0a	-0.30197173
133	0xbee4ea02	-0.44709784
134	0xbec8e408	-0.39236474
135	0xbecbf2b5	-0.39833608
136	0xbe4b7d9e	-0.19872138
137	0xbe832801	-0.25616458
138	0xbe8fbe25	-0.28074756
139	0xbe2ab48f	-0.1667044
140	0xbe98ea56	-0.29866284
141	0xbea95ef7	-0.33080265
142	0xbeaaa2d8	-0.33327365
143	0xbe723da2	-0.23656324
144	0xbe80b5f5	-0.25138822
145	0xbe5814ec	-0.21101731
146	0xbea224b8	-0.3166864
147	0xbf4b7a90	-0.7948389
148	0xbec7cfdb	-0.3902577
149	0xbe67e68e	-0.22646543

bn1.running_mean f4 [150]
0	0xbc73cfb3	-0.014881062
1	0xbd9de2f2	-0.07709302
2	0xbc8893e8	-0.01667209
3	0x3e00bbab	0.1257159
4	0xbd4765b8	-0.04868099
5	0x3da0be17	0.07848757
6	0x3c8db039	0.017295944
7	0x3c97623c	0.018479459
8	0xbb935492	-0.0044961656
9	0x3db8d975	0.09025852
10	0xbdabda9b	-0.08391305
11	0xbdc86f49	-0.09786851
12	0xbdb87ad4	-0.090078026
13	0xbdc6018e	-0.09668265
14	0x3e083dff	0.133049
15	0x3d7c6642	0.06162096
16	0x3da9033e	0.082525715
17	0xbd167574	-0.036733106
18	0xbcce3fe4	-0.02517695
19	0x3cd8fe1e	0.02648836
20	0x3d74f684	0.059805408
21	0xbdd633ee	-0.104591236
22	0xbd3bb501	-0.045826916
23	0x3d81356a	0.06309016
24	0x3d38d2d8	0.04512295
25	0xbdfa70f0	-0.12228572
26	0x3c78062e	0.015138192
27	0x3d9bf4bb	0.07615038
28	0xbdaf2f83	-0.08553984
29	0xbd81650f	-0.063181035
30	0x3ca77bfd	0.020444864
31	0xbdd36625	-0.10322217
32	0xbe0db633	-0.13839035
33	0xbce17371	-0.027520867
34	0xbdd92bff	-0.10604095
35	0x3d9461eb	0.07245239
36	0xbe0286fd	-0.12746806
37	0x3da41bfb	0.08013149
38	0xbd655b8e	-0.055995516
39	0xbcf58f5e	-0.02997559
40	0xbe01fdbf	-0.12694453
41	0xbda9de04	-0.08294299
42	0xbd24b96d	-0.0402159
43	0xbdad9e31	-0.08477438
44	0xbc0b23de	-0.008492438
45	0xbdbaddf8	-0.091243684
46	0x3cbd654e	0.023119595
47	0x3de60607	0.112316184
48	0x3d89aa8d	0.06721983
49	0xbde168c5	-0.11006311
50	0x3e098537	0.13429724
51	0xbd235f8e	-0.03988605
52	0xbc7a54b9	-0.0152789885
53	0x3b567144	0.003272132
54	0x3d3ade12	0.04562194
55	0x3e0773fa	0.13227835
56	0xbca144a6	-0.019686054
57	0x3d6d9689	0.05800489
58	0xbd61e3bd	-0.05514883
59	0x3d8f7806	0.070053145
60	0x3daf54b1	0.085610755
61	0x3c577028	0.013149299
62	0x3dcccfd0	0.100005746
63	0x3c475155	0.012165387
64	0xbd4592fe	-0.048235886
65	0x3b8a4204	0.0042192955
66	0x3d954ea6	0.072903916
67	0xbdba4a33	-0.09096184
68	0xbdf51063	-0.11966016
69	0xbdf8fd32	-0.12157668
70	0xbd9be44d	-0.07611904
71	0x3d93735b	0.07199737
72	0xbded5d2a	-0.11590035
73	0xbdb348e2	-0.08754136
74	0xbb30e9d5	-0.0026994844
75	0xbc1bc994	-0.009508509
76	0xbda1ce24	-0.07900646
77	0xbdb580b0	-0.08862436
78	0x3d9ad4f8	0.07560152
79	0x3dc1bb3f	0.094595425
80	0xbdf6e248	-0.120548785
81	0xbd8d2846	-0.06892447
82	0x3c9171e2	0.017754499
83	0xbd77b8a0	-0.060478806
84	0xbd901fcd	-0.070373155
85	0x3d939f34	0.072081
86	0x3ca21d4a	0.019789357
87	0x3d98eceb	0.074670635
88	0xbdec3a89	-0.11534602
89	0xbd5e8d90	-0.054334223
90	0x3e0638c8	0.13107598
91	0x3c8e798f	0.017391948
92	0x3ab77f68	0.0013999762
93	0x3e183327	0.14863263
94	0xbd486d1f	-0.04893219
95	0x3b8ab17f	0.004232585
96	0xbbeb12da	-0.007173878
97	0x3da79f78	0.08184713
98	0x3dab055c	0.083506316
99	0xbdc6caa3	-0.09706619
100	0x3d339e7e	0.04385232
101	0xbd49ebbf	-0.04929709
102	0xbd416649	-0.047216687
103	0xbcf3b50c	-0.029749416
104	0xbd9dcfea	-0.07705672
105	0x3dc6afe6	0.09701519
106	0xbddadbc5	-0.10686449
107	0x3df8aab2	0.121419325
108	0x3d5fae96	0.054609857
109	0x3e181227	0.14850675
110	0x3da5ccd2	0.08095707
111	0x3da8f275	0.0824937
112	0x3c42d5c2	0.011891784
113	0xbbb3c312	-0.0054859007
114	0xbdb9bdcb	-0.09069403
115	0xbd809ec6	-0.06280284
116	0xbd535a98	-0.05160007
117	0x3d6a820f	0.05725294
118	0xbde1f90b	-0.11033829
119	0x3d8f6e4a	0.07003458
120	0xbdbed720	-0.093183756
121	0xbdce823d	-0.10083435
122	0xbe028ef3	-0.12749843
123	0x3dd4442e	0.10364567
124	0x3def4428	0.11682922
125	0xbdf80cfb	-0.12111851
126	0xbdc482f4	-0.0959529
127	0x3c23ab6e	0.0099896025
128	0x3dbf0801	0.093276985
129	0x3e0ef2b1	0.13959767
130	0x3c0aead2	0.008478837
131	0xbdee0a8b	-0.11623105
132	0xbd49785c	-0.04918705
133	0xbdbf4f87	-0.093413405
134	0xbc2df737	-0.010618023
135	0x3dc794c4	0.09745172
136	0x3d2aee56	0.0417312
137	0xbcd289e7	-0.025700523
138	0x3d3f1817	0.046653833
139	0xbbf53a68	-0.007483769
140	0xbdb4560b	-0.08805474
141	0x3d2bc96d	0.04194014
142	0xbd64d571	-0.055867616
143	0x3cdf23cc	0.027238749
144	0xbba2ee4a	-0.004972254
145	0xbdc66613	-0.09687438
146	0xbd2d90c1	-0.042374376
147	0x3ce1ae0a	0.027548809
148	0xbe19cfb7	-0.15020643
149	0xbd9a0e79	-0.07522292

bn1.running_var f4 [150]
0	0x3fb7b334	1.4351563
1	0x3fa77bd0	1.308466
2	0x3f991f63	1.1962703
3	0x3fb4d111	1.4126302
4	0x3fee376d	1.8610665
5	0x40265009	2.598635
6	0x3fbc2c51	1.4701024
7	0x400c5b71	2.1930811
8	0x3fc9baed	1.576017
9	0x3fa90e0a	1.3207409
10	0x3fbaec6a	1.4603398
11	0x40205cca	2.5056634
12	0x4007779a	2.116675
13	0x4005a067	2.0879152
14	0x3fedb0aa	1.8569539
15	0x3fbe8033	1.4882873
16	0x400e1e74	2.2206087
17	0x3fcc36ac	1.5954185
18	0x408316f0	4.09655
19	0x40178e4a	2.3680596
20	0x3fa3dd91	1.2801992
21	0x3fb31075	1.3989397
22	0x3fc9e2d7	1.5772351
23	0x3fb9d0ed	1.4516884
24	0x3ff79cb1	1.9344693
25	0x40ddf02c	6.935568
26	0x3fb9f49a	1.4527771
27	0x4025cc83	2.5906074
28	0x3fa5e81e	1.2961462
29	0x3fce20bb	1.6103739
30	0x3fe33c1c	1.7752719
31	0x3fdfb716	1.7477748
32	0x3fba7e17	1.456973
33	0x3fc7fa86	1.5623329
34	0x3fba53d2	1.455683
35	0x3fbf7912	1.4958823
36	0x3fb4c6b6	1.4123142
37	0x40ed142c	7.4087124
38	0x3fc1065c	1.5080066
39	0x3fce2037	1.6103581
40	0x406469fe	3.5689692
41	0x4010b458	2.2610073
42	0x3fbaa4d4	1.4581552
43	0x3fc31cfc	1.524322
44	0x3fabdb31	1.3426267
45	0x4004fe51	2.0780222
46	0x3feca387	1.8487405
47	0x402de913	2.7173507
48	0x3fc9f1ef	1.5776957
49	0x3fb8b240	1.4429398
50	0x40097fd3	2.1484268
51	0x3fb48a2e	1.4104669
52	0x3fae733b	1.3628916
53	0x3ff2a2a8	1.8955889
54	0x4003e31f	2.0607374
55	0x4016d7c9	2.3569205
56	0x3fee715a	1.8628342
57	0x407a5023	3.9111412
58	0x3fab57e4	1.3386197
59	0x4071474a	3.7699761
60	0x4002a2af	2.0411794
61	0x403374ee	2.8040118
62	0x3feeb9eb	1.8650488
63	0x3fb361df	1.4014243
64	0x3ff3484e	1.9006441
65	0x3fd4f518	1.6637297
66	0x407ed243	3.9815834
67	0x404d732b	3.2101543
68	0x3fb8f638	1.445014
69	0x3fb7f3a2	1.4371226
70	0x3fa62b26	1.2981918
71	0x3fbd6560	1.4796562
72	0x3fc54b38	1.541358
73	0x3fc428c7	1.5324944
74	0x3fbeafc3	1.4897388
75	0x3fc6c8f8	1.5530081
76	0x3fe8db38	1.81919
77	0x3f94acf0	1.1615276
78	0x3f93aa13	1.1536278
79	0x3fd586e4	1.668179
80	0x3fb39a6a	1.4031498
81	0x400f82a5	2.242349
82	0x3fcf4444	1.6192708
83	0x3fcafc61	1.585827
84	0x3fb5a604	1.4191289
85	0x4084460a	4.1335497
86	0x400ee244	2.2325602
87	0x3ff7f54b	1.9371732
88	0x3fd5c3fc	1.6700435
89	0x3fc61417	1.5474881
90	0x3fbae752	1.4601843
91	0x3fc20de2	1.5160487
92	0x3fc8c1a0	1.568409
93	0x3fa94702	1.3224795
94	0x3fb5cf9c	1.4203982
95	0x3fac3657	1.3454083
96	0x3fa11d55	1.2587076
97	0x408220fd	4.066527
98	0x3fde3629	1.7360278
99	0x400a1ec9	2.158129
100	0x3f8a95ff	1.0827025
101	0x400403b9	2.0627272
102	0x3faa778c	1.3317733
103	0x3fd057fc	1.6276851
104	0x3fb43f93	1.4081901
105	0x401617d5	2.3452046
106	0x402763d3	2.6154678
107	0x405ef9be	3.483993
108	0x3fd52d09	1.6654369
109	0x3fcf3177	1.618697
110	0x3fe4928a	1.785722
111	0x3fb3cb46	1.4046409
112	0x3fe43ee4	1.7831693
113	0x3fc1c57e	1.5138395
114	0x3fc5e4a4	1.54604
115	0x3fb102be	1.3828962
116	0x3fb6f88e	1.4294603
117	0x4000bb6e	2.0114398
118	0x40273ea0	2.6131973
119	0x3fa8d0a2	1.318867
120	0x3fabb389	1.3414165
121	0x3fc8d606	1.5690315
122	0x3fac5057	1.3462018
123	0x3fb1a532	1.3878539
124	0x3f9d9be0	1.2313194
125	0x3fb81453	1.4381202
126	0x40183945	2.3784955
127	0x3fa55727	1.2917222
128	0x4005f74c	2.0932188
129	0x3fe3635f	1.7764701
130	0x3fa5c5b1	1.2950956
131	0x3f91f590	1.1403065
132	0x4003ec8f	2.0613134
133	0x3fdabed7	1.708949
134	0x3fa55b9f	1.2918586
135	0x400167ed	2.0219681
136	0x3fc98c50	1.5745945
137	0x40033a65	2.0504391
138	0x3fbc8a0a	1.4729626
139	0x400177b0	2.0229301
140	0x3fad70ae	1.3550012
141	0x40307de5	2.757684
142	0x3fa89cc8	1.3172846
143	0x3fd908f8	1.6955862
144	0x4056649b	3.3498905
145	0x3fea0f4b	1.8285917
146	0x3fc89795	1.5671259
147	0x4030fead	2.7655442
148	0x3ff5dc06	1.9207771
149	0x3fa3926f	1.2779063

fc2.weight f4 [84, 150]
0	0x3d190a6c	0.037363455
1	0xbdcfd0c7	-0.10147243
2	0xbd80cbf8	-0.06288904
3	0x3b86f061	0.004118011
4	0x3e0a3797	0.13497768
5	0x3d71e0f4	0.059052423
6	0xbdb846ff	-0.089979164
7	0x3e3d2e6d	0.18474741
8	0xbe0898f0	-0.13339591
9	0x3c778cf0	0.015109286
10	0xbc9a422a	-0.018830378
11	0x3c3a586f	0.011373623
12	0xbdc6e7fa	-0.09712215
13	0xbdc1e178	-0.09466833
14	0x3debbd58	0.11510724
15	0x3d46e59e	0.048558824
16	0x3e1d3432	0.15351942
17	0xbdfeb67a	-0.124371484
18	0xbdbc79e9	-0.0920294
19	0x3e927cee	0.2861094
20	0xbcd73351	-0.026269587
21	0xbcdf04e0	-0.027224004
22	0x3d85f722	0.065412775
23	0x3db99fd6	0.090636894
24	0xbdea8f24	-0.11453083
25	0xbd059746	-0.03261497
26	0x39c23835	0.0003704444
27	0xbe990c59	-0.29892233
28	0x3c16f114	0.009212751
29	0xbcb12255	-0.021622816
30	0x3d0fd55c	0.035115585
31	0xbe7c1cc5	-0.2462035
32	0xbe2e86d4	-0.1704362
33	0xbe9f2f34	-0.310907
34	0xbe115123	-0.14191107
35	0x3da36447	0.07978111
36	0x3d674dbd	0.05647062
37	0xbaec8bfe	-0.0018047092
38	0xbe392e02	-0.18083957
39	0x3db9da39	0.09074826
40	0xbdb1dba0	-0.08684468
41	0xbe8f877d	-0.28033057
42	0xbcc9d922	-0.02463967
43	0xbe162f55	-0.14666493
44	0xbd27f525	-0.041005272
45	0xbc90d3f4	-0.017679192
46	0xbe127124	-0.14300972
47	0xbca2dd4e	-0.019880917
48	0xbde9ae12	-0.114101544
49	0xbd035b83	-0.032069694
50	0x3d94da84	0.07268241
51	0xbe75dd6f	-0.24010251
52	0xbda32727	-0.07966452
53	0xbd98de5a	-0.07464285
54	0x3cf4332c	0.029809557
55	0xbd0e09e3	-0.034677397
56	0x3e8af059	0.27136496
57	0xbcc312fe	-0.023812767
58	0xbed3afa7	-0.4134495
59	0xbe976a1e	-0.29573148
60	0x3e4377ad	0.19088621
61	0x3c4a3f72	0.012344228
62	0xbdc5bf8c	-0.09655675
63	0x3ddf4cbc	0.10903308
64	0x3d88f24c	0.066868395
65	0x3d3577cd	0.044303704
66	0xbd229454	-0.039692238
67	0xbd0e9264	-0.034807578
68	0xbea42e24	-0.32066453
69	0xbdfd3fe2	-0.123657
70	0xbdb51723	-0.088423036
71	0x3e143438	0.14473045
72	0x3e0674de	0.13130519
73	0xbc7d279c	-0.015451338
74	0xbda4e049	-0.080505915
75	0x3dcb094d	0.09913883
76	0xbda65336	-0.0812134
77	0xbdb54c28	-0.08852416
78	0xbdb497b3	-0.08817997
79	0xbc9b3fbc	-0.01895129
80	0xbdcac96a	-0.09901698
81	0x3e563e34	0.20922166
82	0x3daee630	0.085399985
83	0xbd8ba295	-0.068181194
84	0xbdda8f3e	-0.106718525
85	0xbe02d71f	-0.12777375
86	0x3d1c38c8	0.03814009
87	0xbd6a6d78	-0.057233304
88	0x3e1dd11f	0.15411805
89	0xbd0bae3c	-0.03410171
90	0x3d753a33	0.059869956
91	0xbd25f9fc	-0.040521607
92	0xbe21503d	-0.15753265
93	0x3c98ee5c	0.018668346
94	0x3d1767b4	0.036964133
95	0xbceefe5d	-0.029174024
96	0xbda8159c	-0.08207247
97	0x3d083a93	0.033258986
98	0xbe4292af	-0.19001268
99	0xbdf389ff	-0.11891555
100	0xbe4f19e9	-0.20224728
101	0xbe67f71a	-0.22652856
102	0xbd34ce7b	-0.044142228
103	0xbae0b0f4	-0.001714258
104	0xbe653592	-0.22383717
105	0x3ccc7408	0.024957672
106	0xbe65ff76	-0.22460732
107	0xbd1fb1ca	-0.038987912
108	0xbea8a3cd	-0.3293747
109	0x3e618d1a	0.22026482
110	0xbdd3a476	-0.10334103
111	0xbea53175	-0.32264295
112	0xbe0d7fbd	-0.1381826
113	0xbd07ebd9	-0.033183906
114	0xbd194485	-0.03741886
115	0xbe7c19ca	-0.24619213
116	0x3d92fa79	0.0717668
117	0xbd14c29f	-0.036318418
118	0xbcd9da86	-0.026593458
119	0x3d4fb516	0.050709806
120	0x3e905957	0.2819316
121	0xbe534a5f	-0.20633839
122	0xbd347230	-0.04405421
123	0xbecc49c1	-0.3990002
124	0xbd2cb31f	-0.04216301
125	0xbe627804	-0.22116095
126	0x3e4a61b0	0.19763827
127	0xbdba7a80	-0.09105396
128	0x3d30d125	0.043168206
129	0x3d216f43	0.039412748
130	0x3d4bc923	0.049752366
131	0x3d2ba34b	0.041903775
132	0x3d52d03e	0.051468126
133	0xbdbc2911	-0.0918752
134	0x3e17d8dd	0.1482882
135	0xbe932fe4	-0.28747475
136	0x3d14c12d	0.03631704
137	0xbe4c2a2a	-0.1993796
138	0xbe06d6ea	-0.1316792
139	0x3d9fc6c2	0.07801582
140	0x3d9d6dc6	0.07686953
141	0xbbbb9b31	-0.0057252874
142	0xbbab827e	-0.0052340617
143	0xbdf5b051	-0.1199652
144	0x3d0479ff	0.032342907
145	0x3c2a6bd4	0.010401685
146	0xbe3236ea	-0.1740376
147	0xbed8d86a	-0.4235261
148	0x3cf2d67b	0.029643288
149	0x3e0da49f	0.13832329
150	0xbdbd7619	-0.09251041
151	0xbe1e01e6	-0.15430412
152	0x3d1cb31c	0.03825675
153	0x3da50c61	0.08059002
154	0x3dbc781d	0.09202597
155	0xbe843ea5	-0.25829044
156	0x3e254628	0.16140044
157	0xbd20f40f	-0.039295252
158	0x3e8b57ae	0.27215332
159	0x3d5b50e5	0.053543944
160	0xbcfbd401	-0.03074074
161	0xbe13a12a	-0.14416948
162	0xbde574ed	-0.112039424
163	0x3cfc721b	0.030816128
164	0xbe144c19	-0.14482154
165	0xbdace456	-0.08441989
166	0xbba04e9b	-0.004892183
167	0x3ca24db5	0.019812444
168	0x3e9a0b5b	0.3008679
169	0x3e4cd103	0.20001607
170	0xbc0d86da	-0.008638108
171	0x3cf358de	0.029705461
172	0xbbb34891	-0.005471297
173	0xbc2b7989	-0.010465988
174	0x3ce12073	0.027481293
175	0xbd7769fa	-0.0604038
176	0xbdb7abd2	-0.08968319
177	0x3df796ea	0.120893314
178	0xbde28468	-0.11060411
179	0xbe91fe84	-0.28514493
180	0x3e122b28	0.14274275
181	0xbeb96530	-0.36210012
182	0xbb3ed63a	-0.0029119388
183	0xbd03fe3d	-0.032224882
184	0xbe44ce04	-0.19219214
185	0x3d4456a1	0.04793418
186	0x3e035c99	0.12828292
187	0xbe089f2b	-0.13341968
188	0xbe87b534	-0.26505435
189	0x3de7df66	0.11321907
190	0xbe4bdef5	-0.1990927
191	0x3d005369	0.031329546
192	0x3e0cdaef	0.13755392
193	0xbe58b9b8	-0.21164596
194	0x3d9a8ca1	0.07546354
195	0xbe424264	-0.18970639
196	0x3d9f9676	0.0779237
197	0xbdc86f8b	-0.097869
198	0x3c9dff87	0.019286884
199	0xbd90b7f4	-0.07066336
200	0xbccb10fd	-0.024788374
201	0xbd0163be	-0.031589262
202	0x3e0b652a	0.1361281
203	0xbe5b801e	-0.21435592
204	0x3e96641e	0.29373258
205	0x3d82daa0	0.06389356
206	0x3cdbb88a	0.026821394
207	0x3e399d22	0.18126348
208	0xbcb01750	-0.021495491
209	0xbdc74745	-0.097303905
210	0x3d5112f1	0.051043455
211	0xbd4b465f	-0.049627658
212	0xbe619e10	-0.22032952
213	0x3dc98d92	0.098414555
214	0x3ddc0187	0.10742479
215	0xbdf66b31	-0.12032164
216	0x3e56b11c	0.20966
217	0xbde6b50e	-0.11265002
218	0xbe977152	-0.29578644
219	0x3ce899ee	0.028393712
220	0x3e09b8f6	0.13449463
221	0xbe4ad79d	-0.19808812
222	0x3ddb25c1	0.1070056
223	0x3db2e669	0.087353535
224	0xbdbce419	-0.09223194
225	0x3e05e562	0.13075784
226	0xbe1cb177	-0.15302072
227	0xbdef52a9	-0.11685688
228	0xbbd23742	-0.0064152787
229	0x3d6a3517	0.057179537
230	0xbe0785a6	-0.13234577
231	0x3e3819fc	0.17978662
232	0x3e2211f5	0.15827163
233	0xbda0a12b	-0.0784324
234	0x3e24d7dd	0.1609797
235	0xbc9e6940	-0.019337296
236	0x3e345c89	0.17613424
237	0xbe4911dd	-0.1963572
238	0xb796de2e	-1.7984854e-05
239	0x3e24a33e	0.16077897
240	0xbd0391e8	-0.03212157
241	0x3e241626	0.16024074
242	0xbd50f1f5	-0.051012
243	0xbde5e261	-0.11224819
244	0xbc4ae5a1	-0.012383849
245	0xbc0287db	-0.007966961
246	0x3d874ab7	0.066060476
247	0x3e2b9662	0.16756585
248	0xbe2ccb9a	-0.16874543
249	0x3da7b45e	0.08188699
250	0x3d2149a1	0.03937686
251	0xbd7fc096	-0.062439524
252	0x3e6d788a	0.23190513
253	0x3da222fa	0.079168275
254	0xbddb5bfc	-0.10710904
255	0xbe0a8969	-0.1352898

fc2.bias f4 [84]
0	0x3d0c550b	0.03426079
1	0x3d8eef41	0.06979228
2	0xbd998368	-0.07495767
3	0xbc314560	-0.010819763
4	0xbb3a9bfc	-0.0028474322
5	0x3b89654a	0.004192983
6	0x3d65c40a	0.05609516
7	0xbd68d02c	-0.056839153
8	0x3d898607	0.06715017
9	0xbda76822	-0.08174159
10	0x3ca2b177	0.019860012
11	0x3c3e7a67	0.011625863
12	0x3d535c7f	0.051601883
13	0x3b9f8297	0.0048678624
14	0xbcba753a	-0.022760976
15	0x3d4f0e08	0.05055049
16	0xbcefbee0	-0.029265821
17	0xbd971f9d	-0.07379077
18	0x3afb29b2	0.0019162206
19	0xbc97aaa6	-0.018513989
20	0xbc1a9062	-0.009433838
21	0xbda1ba37	-0.07896846
22	0x3cb3c901	0.021946432
23	0x3d7966ff	0.06088924
24	0x3d888bb6	0.06667273
25	0xbd82f5dc	-0.0639455
26	0xbd204ab3	-0.03913374
27	0xbce15d31	-0.027510257
28	0xbcc4d915	-0.024029294
29	0x3d3a381c	0.045463666
30	0x3da48079	0.08032317
31	0xbcd440f5	-0.02590988
32	0x3b1e9e87	0.0024203376
33	0x3d843536	0.06455462
34	0x3d961041	0.07327319
35	0x3d49214a	0.049104013
36	0xbd1bee66	-0.03806915
37	0x3c27f05a	0.010250175
38	0x3ca00f43	0.019538527
39	0x3d7caee9	0.061690245
40	0xbd0d3b22	-0.03448022
41	0x3cbedcb4	0.023298599
42	0xbc8c419f	-0.017121134
43	0xbcd38c2c	-0.025823675
44	0xbda8e65f	-0.08247065
45	0x3d983afb	0.07433125
46	0x3d26632c	0.04062192
47	0x3d08581e	0.03328716
48	0xbd885567	-0.06656914
49	0x3d94440a	0.0723954
50	0x3cd9a34a	0.02656712
51	0x3c355db6	0.011069706
52	0x3cd87c32	0.026426408
53	0xbcfe5536	-0.031046491
54	0xbbcd1638	-0.006258752
55	0x3d158403	0.03650285
56	0xbd2293ef	-0.03969186
57	0xbd530c32	-0.051525302
58	0x3d252fdf	0.040328857
59	0x3cdeb0a8	0.027183846
60	0xbd0ac8c4	-0.03388287
61	0xbbe11d6d	-0.006869963
62	0xbd51b9f6	-0.051202737
63	0x3b47f81b	0.0030512873
64	0xbd7972e8	-0.0609006
65	0xbd6effa7	-0.058349278
66	0x3da6c9ec	0.08143982
67	0xbd97d903	-0.074144386
68	0x3d6fdcd6	0.058560215
69	0x3c72e0d8	0.014824115
70	0xbd7d8030	-0.061889827
71	0x3d8cede1	0.06881309
72	0xbcc70504	-0.024294384
73	0x3b4519c0	0.0030075163
74	0xbd58dbc4	-0.05294396
75	0xbd165999	-0.03670654
76	0x3caa832e	0.020814504
77	0x3c52368e	0.01283039
78	0xbd08091a	-0.033211805
79	0x3d91cd3e	0.07119225
80	0xbd3c7110	-0.046006262
81	0xbb88d712	-0.004176029
82	0xbd9431ab	-0.07236036
83	0xbd903c81	-0.0704279

bn2.weight f4 [84]
0	0x3fd28ff5	1.6450182
1	0x3fc125d0	1.5089664
2	0x3fc8c9bf	1.5686568
3	0x3fbf1b77	1.4930257
4	0x3fc86e86	1.5658729
5	0x3fde9900	1.7390442
6	0x3fcae6dc	1.5851703
7	0x3fb6ccd4	1.4281259
8	0x3fb3e3f9	1.4053947
9	0x3fc98dab	1.5746359
10	0x3fbfe93a	1.499305
11	0x3fca78aa	1.5818074
12	0x3fd64d5f	1.6742362
13	0x3fc86aed	1.5657631
14	0x3fcaac11	1.583376
15	0x3fb1ebda	1.3900101
16	0x3fc7344c	1.5562835
17	0x3fbdd961	1.4831964
18	0x3fc7567b	1.5573267
19	0x3fb2e17d	1.3975064
20	0x3fe7c3f1	1.8106672
21	0x3fdbe562	1.7179377
22	0x3facb762	1.3493464
23	0x3fad7387	1.3550881
24	0x3fba8eb0	1.4574795
25	0x3fcabf17	1.5839566
26	0x3fd046b9	1.6271583
27	0x3fc33656	1.5250957
28	0x3fc1e439	1.5147773
29	0x3fb7daf8	1.4363699
30	0x3fd17e25	1.6366621
31	0x3fb84a1c	1.4397616
32	0x3fd302e8	1.6485262
33	0x3fccd186	1.6001441
34	0x3fdb9945	1.7156149
35	0x3fb9cbed	1.4515358
36	0x3fe16afe	1.7610776
37	0x3fba6ebc	1.4565043
38	0x3fb19246	1.3872764
39	0x3fbae730	1.4601803
40	0x3fd94ece	1.6977174
41	0x3fb53c77	1.4159077
42	0x3fde80fc	1.7383113
43	0x3fbb65f4	1.4640489
44	0x3fce030b	1.6094679
45	0x3fbed270	1.490797
46	0x3fc56b57	1.5423383
47	0x3fc599fe	1.543762
48	0x3fdb6d1e	1.7142675
49	0x3fc7e085	1.5615393
50	0x3fc678c2	1.5505602
51	0x3fb0ff20	1.3827858
52	0x3fd4425d	1.6582752
53	0x3fbfc3ab	1.4981588
54	0x3fb953d7	1.4478711
55	0x3fd6e064	1.6787229
56	0x3fc3a792	1.5285513
57	0x3fbfbc46	1.4979331
58	0x3fd18f79	1.6371909
59	0x3fd86633	1.6906189
60	0x3fb52d0d	1.4154373
61	0x3fcf8114	1.6211267
62	0x3fc47bbd	1.5350262
63	0x3fc401a5	1.5313002
64	0x3fbd0ffe	1.4770505
65	0x3fc004bd	1.5001446
66	0x3fbce566	1.4757507
67	0x3fbee5b4	1.491385
68	0x3fc12ac9	1.5091182
69	0x3fd2d9c0	1.6472702
70	0x3fd013f3	1.6256088
71	0x3fb12952	1.3840735
72	0x3fcf81e1	1.6211511
73	0x3fc5d243	1.5454792
74	0x3fc199e7	1.5125092
75	0x3fcb0d30	1.58634
76	0x3fbe38af	1.4861048
77	0x3fbdc180	1.4824677
78	0x3fd698e0	1.6765404
79	0x3fd969a0	1.6985359
80	0x3fd2a6c9	1.6457149
81	0x3fe09d78	1.7548056
82	0x3fd0c8e9	1.6311313
83	0x3fc52363	1.5401424

bn2.bias f4 [84]
0	0x3deb5746	0.114912555
1	0x3dd72adf	0.10506224
2	0x3e24ffd1	0.16113211
3	0x3e3b2742	0.18276694
4	0x3dd01d62	0.10161854
5	0x3ea2ecb9	0.3182123
6	0x3e1b5cab	0.15172069
7	0x3e579c0d	0.21055622
8	0x3c026ced	0.00796054
9	0x3e1687b6	0.14700207
10	0x3e529c90	0.20567536
11	0x3e479551	0.19490553
12	0x3e4d8555	0.20070393
13	0x3df50aa5	0.11964921
14	0x3e2a573b	0.16634838
15	0x3e44163a	0.19149104
16	0x3e6cd6af	0.2312877
17	0x3cc1ce4f	0.023657946
18	0x3e450a84	0.19242293
19	0x3e4938f9	0.1965064
20	0x3e37fd75	0.1796778
21	0x3e28396b	0.16428153
22	0x3dd4be32	0.103878394
23	0x3e8602c9	0.26174
24	0x3e0d91ba	0.13825122
25	0x3de91eae	0.11382805
26	0x3e2d44d1	0.16920783
27	0x3e0e3066	0.1388565
28	0x3e52a608	0.20571148
29	0x3e6ec610	0.23317742
30	0x3d922704	0.07136348
31	0x3e1e23dd	0.15443368
32	0x3e905049	0.28186253
33	0x3da210c4	0.07913354
34	0x3e54927d	0.20759006
35	0x3e018148	0.12646973
36	0x3e1e87d6	0.15481505
37	0x3e1b18d0	0.15146184
38	0x3e1824c7	0.1485778
39	0x3e0303fb	0.12794487
40	0x3e4a4b0c	0.1975519
41	0x3d96564f	0.07340681
42	0x3e9e2f6e	0.3089556
43	0x3dedd8ba	0.11613603
44	0x3d956fe5	0.07296733
45	0x3e235650	0.15950894
46	0x3dcc4512	0.099741116
47	0x3e6c693d	0.2308702
48	0x3dd44323	0.10364368
49	0x3def6b93	0.1169044
50	0x3e56fe15	0.20995362
51	0x3de4b815	0.11167923
52	0x3e7b8412	0.245621
53	0x3d895544	0.06705716
54	0x3e4723e6	0.19447288
55	0x3e89e54f	0.2693276
56	0x3de08bc8	0.10964161
57	0x3e258456	0.16163763
58	0x3e09ba4d	0.13449974
59	0x3dbccdf1	0.09218968
60	0x3df698ad	0.12040839
61	0x3cb8297a	0.022480715
62	0x3dfd9e6e	0.12383734
63	0x3dde832b	0.10864862
64	0x3e186ac3	0.14884476
65	0x3e0c3210	0.13690972
66	0x3e38ba75	0.18039878
67	0x3e2d4386	0.1692029
68	0x3e2aa71b	0.16665308
69	0x3e4a5cc4	0.1976195
70	0x3e09290f	0.13394569
71	0x3e06712e	0.13129112
72	0x3e1da45a	0.15394726
73	0x3dd62ff3	0.10458364
74	0x3de61a3a	0.11235471
75	0x3e18a4a4	0.14906555
76	0x3dbdefc2	0.09274246
77	0x3de58b5c	0.11208221
78	0x3e5cbe6f	0.2155702
79	0x3da553e4	0.080726415
80	0x3e35ebec	0.17765778
81	0x3e5c30a2	0.21502927
82	0x3d9cf2ba	0.07663484
83	0x3de625f4	0.11237708

bn2.running_mean f4 [84]
0	0xbfd6d90e	-1.678499
1	0xbf388b47	-0.7208752
2	0xbfdddf27	-1.7333726
3	0x3cc804dc	0.02441638
4	0xbfd66f56	-1.6752727
5	0xbf05c294	-0.5225003
6	0xbf99893d	-1.1995007
7	0xbfa483d6	-1.2852733
8	0x3ee674d5	0.4501101
9	0xbfa38aea	-1.2776768
10	0xbf4c3976	-0.7977518
11	0xbf85abcc	-1.0443053
12	0xbffa06e3	-1.9533352
13	0xbfdc236f	-1.7198313
14	0xbfed2cd2	-1.8529303
15	0xbef42cc3	-0.476904
16	0xbfad185b	-1.3523058
17	0xbf971cff	-1.1805724
18	0xbf94963f	-1.1608351
19	0xbf160aa1	-0.5860997
20	0xbf8f40a8	-1.1191607
21	0xbf098df0	-0.53732204
22	0xbee4104c	-0.44543684
23	0x3ed62875	0.4182774
24	0xbf83510b	-1.0259107
25	0xbfee30e9	-1.8608676
26	0xbfd67b30	-1.6756344
27	0xbfb8c05d	-1.4433705
28	0xbfa3d22b	-1.2798513
29	0xbeccba78	-0.39986014
30	0xbfcd8b36	-1.6058109
31	0xbfa0225c	-1.2510486
32	0xbf481f4f	-0.78172773
33	0xbfab7e78	-1.339797
34	0x3ed4422f	0.41456744
35	0x3f0df861	0.5545712
36	0xbffc7255	-1.9722391
37	0xbf210f7d	-0.6291426
38	0xbe9687c3	-0.29400453
39	0xbfb164dd	-1.3858906
40	0xbf6b6cfe	-0.91963184
41	0xbfa46792	-1.2844107
42	0xbf40073f	-0.75011057
43	0xbfd73716	-1.6813686
44	0xbff86d80	-1.9408417
45	0xbf18e352	-0.59721863
46	0xbfc26128	-1.51859
47	0xbfac19b5	-1.3445345
48	0xbf8a01d5	-1.0781809
49	0x3ba4f25b	0.005033774
50	0xbfa7badd	-1.3103901
51	0xbf11a53f	-0.5689277
52	0xbfb3e312	-1.4053671
53	0xbfb12603	-1.3839725
54	0xbf417f15	-0.75584537
55	0xbf87d1ae	-1.0610864
56	0xbfdb741b	-1.7144808
57	0xbfe37aef	-1.7771891
58	0xbe966abf	-0.29378316
59	0xc005004a	-2.0781426
60	0xbf90abf1	-1.1302472
61	0xbf9847e7	-1.1896943
62	0xbf940776	-1.1564777
63	0xbfa9e2a3	-1.3272289
64	0xbf403f0e	-0.75096214
65	0xbf37deb3	-0.7182419
66	0xbfc533c4	-1.5406423
67	0xbf62709c	-0.8845308
68	0xbf8aabc7	-1.0833672
69	0xbf299a82	-0.66251385
70	0xbfe83a5c	-1.814281
71	0xbf372cbb	-0.7155263
72	0xbf0e2b2f	-0.5553464
73	0xbfa46b04	-1.2845159
74	0x3f0f2c8e	0.5592736
75	0xbf4a0629	-0.7891565
76	0xbf47b3da	-0.78008807
77	0x3f39f9c6	0.7264675
78	0xbf500ff6	-0.81274354
79	0xc008f9e6	-2.1402526
80	0xbfd6b1d2	-1.6773016
81	0xbf05ab4c	-0.52214503
82	0xbffe4efa	-1.9867852
83	0xbf3e3ef6	-0.7431482

bn2.running_var f4 [84]
0	0x408d5f14	4.417856
1	0x4056f592	3.3587384
2	0x4039bc6a	2.902125
3	0x405fc399	3.4963133
4	0x4042d877	3.044462
5	0x40a2492b	5.0714316
6	0x4055ec10	3.342533
7	0x405f436f	3.4884908
8	0x4036baa8	2.8551426
9	0x409027a6	4.50484
10	0x40495e99	3.1463988
11	0x40899f54	4.300699
12	0x408eab70	4.4584274
13	0x4056d506	3.356752
14	0x404857ff	3.1303709
15	0x4041a7bf	3.0258634
16	0x40942422	4.6294107
17	0x4069ed90	3.6551247
18	0x407ef2ff	3.9835813
19	0x40275ff2	2.615231
20	0x40d8e8d3	6.778421
21	0x4099bb04	4.804079
22	0x40780338	3.8751965
23	0x401ecd1c	2.481269
24	0x4061a5e8	3.525751
25	0x408fc2b7	4.492519
26	0x407948aa	3.89506
27	0x4084607e	4.136779
28	0x406e5687	3.7240312
29	0x4077f6a7	3.8744295
30	0x404aa0ef	3.1660726
31	0x407350cb	3.8018062
32	0x408ede05	4.464602
33	0x40550e65	3.3290036
34	0x40c4a2c2	6.144868
35	0x4046c2f1	3.1056483
36	0x40d0d38d	6.525824
37	0x404360c7	3.0527818
38	0x408b5de4	4.3552113
39	0x404664a2	3.0998921
40	0x409854af	4.7603374
41	0x40351860	2.8296127
42	0x409835f6	4.756587
43	0x402e5bef	2.7243612
44	0x409efa68	4.968067
45	0x40843ba5	4.132281
46	0x402af313	2.671086
47	0x406663cf	3.5998418
48	0x4099b764	4.8036366
49	0x409870fb	4.7637916
50	0x40549030	3.3213005
51	0x402e4e0c	2.7235136
52	0x404bfbcc	3.1872435
53	0x401bee05	2.4364026
54	0x402d8c0b	2.7116725
55	0x4089e293	4.308908
56	0x401b9972	2.4312406
57	0x403e83be	2.976791
58	0x40907648	4.5144386
59	0x4070e01b	3.7636783
60	0x403027ea	2.7524362
61	0x40533f92	3.300755
62	0x406daaed	3.7135575
63	0x40792215	3.8927052
64	0x40b9f978	5.8117027
65	0x4039d248	2.9034595
66	0x4054b7c2	3.3237157
67	0x40973831	4.7256093
68	0x405cdd05	3.45099
69	0x40926db7	4.575893
70	0x406fd856	3.747579
71	0x4080b84a	4.022496
72	0x4024fffb	2.5781238
73	0x4078557e	3.880218
74	0x409c7019	4.888684
75	0x40a97451	5.295449
76	0x4040853b	3.0081317
77	0x40f9784c	7.7959347
78	0x4067b849	3.6206229
79	0x4053be1a	3.3084779
80	0x4053f16d	3.3116105
81	0x40a66c17	5.2006946
82	0x40483448	3.128191
83	0x40222b96	2.5339103

fc3.weight f4 [46, 84]
0	0x3d984def	0.0743674
1	0xbe7a779c	-0.2445969
2	0xbc519ae9	-0.012793281
3	0x3e056fe1	0.1303096
4	0xbc932534	-0.017962076
5	0x3ca7eae8	0.020497754
6	0xbe8f278e	-0.27959865
7	0x3e9bf95d	0.30463687
8	0x3be4ed80	0.00698632
9	0xbeb0762c	-0.34465158
10	0xbd975d29	-0.07390816
11	0x3d8ffeb2	0.07031001
12	0xbf492cc8	-0.78583956
13	0xbec509b3	-0.38483962
14	0xbe22ae9f	-0.15886925
15	0x3c52a1e4	0.012855981
16	0xbdb760d0	-0.089540124
17	0x3e80c9da	0.25154
18	0xbe185f4d	-0.14880104
19	0xbd1fcc52	-0.039013214
20	0xbea0b19c	-0.31385505
21	0xbc4ccda7	-0.012500203
22	0x3edd9951	0.43281034
23	0xbdb71155	-0.08938853
24	0x3dfc1675	0.12308971
25	0x3b600ef6	0.0034188605
26	0xbda52ada	-0.08064814
27	0x3e1fe7b0	0.15615726
28	0xbe29eb13	-0.1659358
29	0x3e2856ae	0.16439316
30	0xbe856892	-0.26056343
31	0x3e299980	0.16562462
32	0xbf375477	-0.7161326
33	0xbc880a87	-0.016606582
34	0xbe298bf2	-0.16557291
35	0xbe2a5587	-0.16634189
36	0xbe4d1cc1	-0.200305
37	0x3dcc3ab1	0.09972132
38	0x3ef9ef75	0.48815504
39	0x3dc43214	0.09579864
40	0xbdf3d091	-0.11905015
41	0x3daeda6f	0.08537757
42	0xbdcdb64a	-0.100445345
43	0x3dccab29	0.09993584
44	0xbe6aaa57	-0.22916542
45	0x3e0986cd	0.13430329
46	0x3deac89a	0.11464043
47	0x3d49ea70	0.049295843
48	0xbd29da31	-0.04146785
49	0x3e037f46	0.1284152
50	0xbebf5e64	-0.37376702
51	0x3e5e8fd2	0.2173455
52	0x3cf0136d	0.029306138
53	0x3b16f25e	0.0023032646
54	0xbed59309	-0.4171374
55	0xbf887032	-1.0659239
56	0x3dd55885	0.104172744
57	0xbee4a6c5	-0.44658485
58	0xbeab2088	-0.33423257
59	0xbd4f433b	-0.050601225
60	0x3e188991	0.14896227
61	0x3bbc5606	0.0057475595
62	0x3cf72f64	0.030173965
63	0x3cd609fa	0.026127804
64	0xbd2ca485	-0.042149086
65	0xbb98e178	-0.00466555
66	0x3da5f5f1	0.0810355
67	0xbe132051	-0.14367796
68	0x3e3e7f59	0.18603267
69	0xbef15c1e	-0.47140592
70	0x3b8c893e	0.0042888215
71	0x3e092bd5	0.13395627
72	0xbe39e929	-0.1815535
73	0x3d738365	0.05945148
74	0xbe1ae354	-0.15125781
75	0xbdf3f2d7	-0.119115524
76	0xbe01e110	-0.12683511
77	0xbbd5d348	-0.006525431
78	0xbd7d5e8f	-0.061857756
79	0xbeb7c976	-0.3589589
80	0xbe2aeb2a	-0.1669127
81	0xbe8036a0	-0.25041676
82	0x3b1500ce	0.0022736075
83	0x3ec77e5c	0.38963592
84	0x3babbcff	0.005241036
85	0xbe0a796e	-0.13522884
86	0xbc074db6	-0.008258274
87	0x3db87a91	0.09007753
88	0xbe23d3e2	-0.15998796
89	0x3d5c7d07	0.053830173
90	0xbea1095b	-0.3145245
91	0x3e712ada	0.23551503
92	0xbc850a27	-0.016240193
93	0xbeda3c99	-0.42624357
94	0x3d01b05c	0.03166233
95	0x3df6fa01	0.12059403
96	0xbf49e6db	-0.7886788
97	0xbebcb77e	-0.36858743
98	0xbe1beed3	-0.15227823
99	0xbcb3e2bc	-0.021958701
100	0xbd97ec47	-0.07418113
101	0x3e38a67e	0.18032262
102	0xbe0234ad	-0.12715407
103	0xbd7b21ca	-0.06131152
104	0xbec06e7b	-0.3758429
105	0x3d82e2b1	0.06390894
106	0x3ede5cb1	0.43430093
107	0xbd8313a0	-0.064002275
108	0x3e0b7630	0.13619304
109	0x3cf8dc77	0.030378563
110	0xbdc4e94e	-0.09614812
111	0x3d66206d	0.056183267
112	0xbe093121	-0.13397647
113	0x3e37db1d	0.17954679
114	0xbe9b6c6d	-0.3035616
115	0x3e1e76e1	0.15475036
116	0xbf27b015	-0.65503055
117	0xbcf4a2b5	-0.029862741
118	0xbe18f72e	-0.14938042
119	0xbe4aaa25	-0.19791467
120	0xbdd74c7b	-0.10512634
121	0x3e008169	0.12549366
122	0x3ef10835	0.47076574
123	0x3d325d84	0.043546215
124	0xbdba6e5d	-0.091030814
125	0x3df2629d	0.11835215
126	0xbd8b02dc	-0.06787655
127	0x3dbcc3f6	0.09217064
128	0xbe893b79	-0.26803187
129	0x3e4fe521	0.2030225
130	0x3e67644b	0.22596852
131	0x3d0b50ee	0.034012727
132	0xbd9397ef	-0.072067134
133	0x3d89df8c	0.06732091
134	0xbecdd86c	-0.4020418
135	0x3e7962ab	0.24354045
136	0xbd2c2f95	-0.042037565
137	0xbd982a05	-0.074298896
138	0xbe9da586	-0.30790347
139	0xbf4b2439	-0.79352146
140	0x3c86d30d	0.016458059
141	0xbeadbf7a	-0.33935148
142	0xbe99e4a7	-0.3005726
143	0xbdbc0b07	-0.09181791
144	0x3e311e0d	0.1729662
145	0x3b76b374	0.0037643583
146	0x3da5dadf	0.08098387
147	0xbb6cccd9	-0.003613284
148	0x3d1d8ca2	0.038464196
149	0x3d5bbd68	0.05364743
150	0xba51cd3e	-0.0008003301
151	0xbd837fdd	-0.06420872
152	0x3e5edfb3	0.21765022
153	0xbe91dc63	-0.28488454
154	0xbe08a279	-0.13343228
155	0x3e0152e7	0.12629281
156	0xbe3915c2	-0.18074706
157	0xbd62ec9f	-0.05540144
158	0xbe35eac5	-0.17765339
159	0xbdc86ccd	-0.09786377
160	0x3d0aec0a	0.03391651
161	0x3cc71888	0.02430369
162	0x3d75eb1d	0.060038675
163	0xbeccc710	-0.39995623
164	0xbe63edd9	-0.222587
165	0xbe55fce7	-0.20897256
166	0x3c4bca26	0.012438333
167	0x3ebb233d	0.36550322
168	0xbf09f89e	-0.53894985
169	0xbce42df2	-0.02785394
170	0xbddb0964	-0.106951505
171	0xbcfd8afb	-0.03095006
172	0xbda89ee5	-0.08233432
173	0xbd385219	-0.04500017
174	0x3e888107	0.2666094
175	0xbf81dc30	-1.0145321
176	0x3cccf2fe	0.025018211
177	0x3e59302b	0.21209781
178	0x3d98880e	0.07447825
179	0xbe0d052f	-0.13771509
180	0x3e29224a	0.16516986
181	0xbd9b53f9	-0.07584376
182	0xbe508282	-0.20362285
183	0xbe4e4967	-0.20145188
184	0x3d8452f4	0.064611346
185	0xbe9e58ec	-0.30927217
186	0x3e0889dc	0.13333839
187	0x3cb980b4	0.022644378
188	0x3e05f66f	0.13082288
189	0xbd3898a6	-0.045067452
190	0xbf821ed5	-1.0165659
191	0x3e40c1f0	0.18823981
192	0xbe59d93c	-0.21274275
193	0x3c0c05c3	0.008546296
194	0xbe4185a4	-0.18898636
195	0xbef27505	-0.47354904
196	0x3e22ceb9	0.15899171
197	0xbdf5d328	-0.120031655
198	0x3dbde1b6	0.092715666
199	0xbf43644b	-0.7632491
200	0x3e82eefc	0.25572956
201	0x3de01119	0.10940761
202	0x3e2a83d6	0.16651854
203	0x3e0d1c5e	0.13780352
204	0x39a5d506	0.00031629967
205	0xbdb68994	-0.0891296
206	0xbf4e30d4	-0.80543256
207	0xbe993a80	-0.29927444
208	0x3dbdcb97	0.09267347
209	0xbe307f0e	-0.17235968
210	0x3e0b9ea9	0.13634743
211	0xbdbb5ad0	-0.091481805
212	0x3c8d9d9c	0.017287068
213	0xbe023a2d	-0.12717505
214	0xbeb3a55f	-0.35087106
215	0xbd95534a	-0.07291277
216	0x3de42e2b	0.11141618
217	0xbe025ab7	-0.12729917
218	0x3deba072	0.11505212
219	0xbefe7b2c	-0.49703348
220	0x3c9c090f	0.019047288
221	0xbdf4ab03	-0.119466804
222	0x3e494ead	0.19658919
223	0x3e2bafe2	0.16766313
224	0xbecd83ba	-0.40139562
225	0x3cdfa1f1	0.0272989
226	0x3dbe9bc1	0.093070515
227	0xb9e48a12	-0.0004359042
228	0xbeca6de7	-0.39536974
229	0xbeaad890	-0.3336835
230	0xbe204332	-0.15650633
231	0x3d979c77	0.0740289
232	0xbea20b79	-0.31649378
233	0xbe1d6441	-0.15370275
234	0xbc115f50	-0.008872822
235	0x3ada5691	0.0016657879
236	0xbe2835ee	-0.16426823
237	0x3e889884	0.2667886
238	0x3e2f2a6f	0.17106031
239	0xbedd4bd8	-0.43221927
240	0x3cc38c28	0.023870543
241	0xbe318321	-0.17335178
242	0x3e133841	0.14376928
243	0x3dfbd5bb	0.12296625
244	0x3e99f395	0.3006865
245	0xbe28e5b4	-0.16493875
246	0x3ccea62a	0.025225718
247	0x3dcc2bb1	0.09969271
248	0x3dd31fe3	0.10308816
249	0x3e82b06d	0.25525227
250	0xbe4e09d7	-0.20120941
251	0xbf09dcd0	-0.5385256
252	0xbeff808e	-0.49902767
253	0xbf0187af	-0.5059766
254	0x3c04d4a0	0.008107334
255	0x3e072976	0.1319941
